server_report/ae_graph/ae_graph_no_hillas/autoencoder_20251228_161611.pth (torch, 15622 bytes, 21 tensors)

conv1.bias f4 [32]
000000 00 00 00 00 00 00 00 00 00 00 00 00 00 00 00 00
       0.0 0.0 0.0 0.0
000010 00 00 00 00 41 f7 83 38 00 00 00 00 00 00 00 00
       0.0 6.2926214e-05 0.0 0.0
000020 7b b1 db bd 00 00 00 00 00 00 00 00 00 00 00 00
       -0.10727211 0.0 0.0 0.0
000030 00 00 00 00 14 89 4a bd 00 00 00 00 00 00 00 00
       0.0 -0.049447134 0.0 0.0
000040 9c 8e cd 3e 56 1b 6c bd 26 1f 12 39 89 39 b4 38
       0.40147865 -0.057643257 0.00013935249 8.5937856e-05
000050 00 00 00 00 bb c1 06 be 00 00 00 00 00 00 00 00
       0.0 -0.1315984 0.0 0.0
000060 cf 26 e4 38 00 00 00 00 00 00 00 00 00 00 00 00
       0.00010879116 0.0 0.0 0.0
000070 b1 96 08 39 eb b2 b6 bb 92 12 2a b9 1d 40 c0 bd
       0.00013026108 -0.005575528 -0.00016219381 -0.09387229

conv1.lin.weight f4 [32, 1]
000000 34 8f 41 be 08 42 ae be c8 a6 35 be a6 c5 3f be
       -0.18902284 -0.34034753 -0.17739403 -0.1872774
000010 28 b6 bd be 95 53 02 3f ba a5 55 be ef 5b c4 bd
       -0.37053037 0.50908786 -0.20864001 -0.095878474
000020 be 2a 33 3f 23 7f 43 be e6 43 9c be d7 a6 5e bd
       0.69987094 -0.19091468 -0.30520552 -0.05435833
000030 79 a1 b6 be f8 3f b9 3f 3e 47 12 be c8 d3 24 bd
       -0.3567007 1.4472647 -0.14284989 -0.040241033
000040 2f 15 4d 3e 92 1a f0 3e de 1b 32 3f a5 56 55 3f
       0.20027612 0.46895272 0.6957377 0.83335334
000050 29 d1 d8 be ba 6e f6 3e 20 c5 26 bd f6 a8 d1 bd
       -0.42347077 0.48131353 -0.040715337 -0.10237305
000060 5d 82 1b 3f 49 95 81 bd fa e3 ab be 72 6e d2 be
       0.60745794 -0.06327302 -0.3357237 -0.41099888
000070 3a c6 b9 3e 65 6f 24 3f af 28 24 3f 5b de 18 3f
       0.36284047 0.64232475 0.6412458 0.5971429

conv2.bias f4 [4]
000000 a6 d9 49 bc 93 d4 5f 3b 00 ee 28 bd d6 25 50 3c
       -0.012319958 0.0034153804 -0.0412426 0.012704333

conv2.lin.weight f4 [4, 32]
000000 be 5e b6 bd 58 eb 9f be 8f 81 28 3c 2c 41 34 3e
       -0.089047894 -0.3123424 0.010284795 0.17602986
000010 13 18 c9 be 32 0c b8 be c6 af 6a 3e 6d 55 72 be
       -0.3927618 -0.35946804 0.22918615 -0.236654
000020 27 42 a9 3e fd 27 30 be 3a 75 4f bd 40 92 14 bc
       0.33058283 -0.17202754 -0.050648905 -0.009068072
000030 55 00 f6 bd f5 32 f0 3e eb 9a 82 be 4c 80 ac 3d
       -0.12011782 0.46913877 -0.25508818 0.08422908
000040 0c 00 7b be 87 59 57 3f c7 ae f8 bd 5d 83 08 bf
       -0.24511737 0.8412098 -0.12142711 -0.53325444
000050 ef 3d e2 3d 3a 1e 9b be a6 05 6f be a5 9f e6 bd
       0.11046969 -0.302965 -0.23341998 -0.112609185
000060 9f 6c 00 be 6a 87 1f 3e d3 a8 32 3e 4a e7 9e 3e
       -0.12541436 0.15579 0.17447214 0.31035835
000070 ee 2f de be 0f 34 2d bf 2a 48 b0 be 66 37 97 3f
       -0.43395942 -0.6765756 -0.34430057 1.1813781
000080 77 2b 60 3b 83 da b6 be 0a 2b cb bd 1e 77 3c be
       0.0034205595 -0.35713586 -0.099203184 -0.18404815
000090 c9 57 b2 bd 34 62 37 be 51 cf ff 3d 5e e1 71 3e
       -0.0870815 -0.17908555 0.12490714 0.23621127
0000a0 30 26 a7 be c2 90 2a bd b0 3a 3a 3e e0 5f 00 be
       -0.32646322 -0.041641958 0.1818645 -0.12536573
0000b0 80 be 32 be ca 82 ce 3e b2 9a cb bd a8 47 95 3e
       -0.17455482 0.4033416 -0.09941615 0.29156232
0000c0 d4 75 87 3e 25 e9 30 3e 2f f8 44 be 84 97 cf bd
       0.26457083 0.17276438 -0.192353 -0.10136321
0000d0 4c 87 e9 bd f3 e0 25 3f 6c 74 01 3d b1 a5 6f be
       -0.11402759 0.6479637 0.03160517 -0.2340305
0000e0 4c d4 88 be 0c ce 9f 3e 2c 41 19 3d e6 96 ae bd
       -0.2672447 0.3121189 0.03741567 -0.08524875
0000f0 d3 18 c0 be b3 23 ec be 8a 34 7c 3e 44 f7 bd 3e
       -0.3751894 -0.46120986 0.24629417 0.3710271
000100 97 f8 ce 3e 03 66 32 3e cb ab 77 3e ba 89 c7 3e
       0.40424034 0.17421727 0.24186628 0.38972265
000110 fd 30 1b 3e 4a 4d 3a 3c 32 68 71 be 43 44 4f 3e
       0.15155406 0.011370966 -0.23574904 0.20240884
000120 2c b5 96 3f 96 95 c1 3e f0 73 8f be 08 88 aa bd
       1.1774039 0.37809438 -0.2801814 -0.08326727
000130 60 2d ba 3e ae e5 74 bf b0 5e 40 3d 01 27 7a bd
       0.36362743 -0.95662963 0.0469653 -0.061072353
000140 7b 96 31 3f 41 bb 9d 3c 37 7c c0 bd 6f a7 e5 be
       0.6937024 0.019254329 -0.09398692 -0.44854304
000150 61 a6 90 3e 4b 00 ac 3f 73 b9 4d be f2 5d 81 3d
       0.28251937 1.343759 -0.20090275 0.06316747
000160 5f 32 bb be 72 b4 bb 3e a5 fc 4d 3e cb 64 34 3e
       -0.36561868 0.36661106 0.20115907 0.17616574
000170 34 b9 85 3d 20 fe ad be 2c 51 07 bf 2e c3 9f 3f
       0.06529465 -0.33982944 -0.52858233 1.2481439
000180 d4 13 ad 3e 23 cc 4d 3d 42 4e ad 3e 15 b5 9a 3e
       0.3380419 0.050243508 0.33848768 0.3021628
000190 e0 6f fa 3d 94 3c 6b bd 97 c0 89 bc 34 64 be bd
       0.1222837 -0.05743082 -0.016815467 -0.09296456
0001a0 c4 a3 dd be 23 03 a5 be cc de bd 3e 87 b6 93 be
       -0.43289006 -0.32228956 0.37084043 -0.28850195
0001b0 1b ff 9d 3e 53 7e 55 3f 97 18 82 3c 61 56 b5 be
       0.30858693 0.8339588 0.015880866 -0.35417464
0001c0 a2 2d bf 3e 64 99 3a 3f 43 56 3d bf f3 58 2d bf
       0.37339503 0.72890306 -0.7395975 -0.6771385
0001d0 53 a7 1d 3d c7 b3 30 3e 1c 08 0b be ae 99 9b be
       0.03848965 0.1725608 -0.13577312 -0.30390686
0001e0 bb 75 0b bf 82 40 47 be f0 a1 be 3e 67 b0 1b be
       -0.5447652 -0.19458202 0.37232924 -0.15204011
0001f0 ae c0 c7 be 84 c8 af bd 8f d2 3a bf b9 3c 52 3f
       -0.3901419 -0.08583167 -0.72977537 0.82123905

decoder.0.weight f4 [32, 4]
000000 7d ae 5e be 15 c6 d9 3e be 5b 9a 3c 1b 41 54 3e
       -0.2174625 0.42533937 0.018842574 0.20727961
000010 09 c4 1d be 6b b0 f0 3e e5 73 f3 be 93 8c 82 3f
       -0.15406813 0.47009596 -0.47549358 1.019915
000020 87 48 58 bf bf 2d bb bf b9 4d 29 bf b4 f5 12 c0
       -0.8448567 -1.4623336 -0.6613422 -2.2962465
000030 19 e1 3b 3d 64 05 58 bd c3 81 a0 be cb d4 17 3f
       0.045868967 -0.052739516 -0.31349 0.5930907
000040 92 49 be be 31 0f bf be 2f f1 5f 3f 15 47 92 be
       -0.37165505 -0.37316278 0.8747739 -0.28569856
000050 ee c4 8f be 08 1c a2 bd 3a f3 d0 3e 32 31 a4 3e
       -0.28079933 -0.07915503 0.40810567 0.32068783
000060 75 5f 3c 3e 46 be 1f bf e7 8f 01 3e 73 3d 47 bf
       0.18395789 -0.6239971 0.1265255 -0.7782814
000070 d0 fa 7d 3e c4 b8 88 be 23 04 04 3d 7b a3 b9 3e
       0.24802709 -0.26703465 0.032230508 0.36257538
000080 1e 6b 56 bf 3f ae 83 3e 9f 37 73 be 2f 7d c2 be
       -0.837572 0.25718877 -0.23751687 -0.37986133
000090 d0 ff 8d 3e 4c f8 9f 3e ae a5 9d 3e b8 a7 d5 3e
       0.27734232 0.31244123 0.30790466 0.41729522
0000a0 e3 8c 1c 3f ef b8 21 bf 72 37 81 be be b3 5f bd
       0.61152476 -0.6317281 -0.25237614 -0.054614775
0000b0 30 95 04 3d 14 a0 e1 3e 90 38 ad 3e ac 8d a6 be
       0.03236884 0.44067442 0.33832216 -0.32529962
0000c0 54 03 1b 3e 64 12 4b be ce 26 92 be 60 3b e8 3d
       0.15137988 -0.19831234 -0.2854523 0.1133945
0000d0 20 9e d1 3e e4 84 5f be 18 6a ef 3d 8c f8 21 3e
       0.40940952 -0.21828038 0.11690158 0.1581747
0000e0 b1 24 52 be 74 0f 92 be 86 3f 04 bf 31 a3 1f 3f
       -0.20521809 -0.28527415 -0.5165943 0.62358385
0000f0 3d 5a 7f bf d0 fe 46 3f af 91 07 be 6e 7a 0d bf
       -0.9974707 0.77732563 -0.13239168 -0.5526494
000100 04 82 32 be 70 b8 17 bd f6 23 cd 3e a4 bd 73 be
       -0.1743241 -0.037041128 0.400665 -0.23802811
000110 e3 40 4b bf 4b be 17 bf d2 4b a3 bd 47 b4 92 bf
       -0.79395884 -0.5927474 -0.07973446 -1.1461266
000120 53 76 7d bf 16 6e b1 3d 19 c9 55 be 13 ef 3c bf
       -0.99008673 0.08663575 -0.20877494 -0.738023
000130 f0 6b 02 3d a4 35 13 be c8 99 83 be 32 9b c5 3e
       0.03184122 -0.14375931 -0.25703263 0.38594967
000140 76 18 d5 3e 18 55 c7 bd 90 03 bc 3d 20 ea ef 3d
       0.41620225 -0.09733027 0.09180367 0.11714578
000150 4a e8 d2 3e a0 f8 da be d2 77 a6 3e d0 2f 36 3e
       0.41192847 -0.4276781 0.3251329 0.17791677
000160 da 95 0a bf 97 0b 58 bf 92 ef 54 3f 18 24 0e c0
       -0.54134905 -0.84392685 0.83178055 -2.220953
000170 83 6c 18 bf 14 f5 15 bd 42 bb 02 3d 89 f4 41 be
       -0.59540576 -0.036610678 0.031916864 -0.18940939
000180 35 d0 05 be 91 87 51 3f dd 38 16 bf b3 7a 91 3d
       -0.13067706 0.8184748 -0.58680516 0.07103481
000190 c4 4a 23 3e 10 91 70 3e 44 b9 95 3e d0 70 fb 3d
       0.1594649 0.23492837 0.2924291 0.12277377
0001a0 d1 4c 32 3e aa f4 66 3e 76 6a 0d 3f e7 3b 69 bf
       0.17412116 0.2255427 0.5524057 -0.9110703
0001b0 df 45 09 bf d4 cf 93 bf b7 63 23 c0 36 eb 9e bf
       -0.5362224 -1.1547799 -2.552961 -1.2415531
0001c0 d0 0e 45 3d 50 f6 7a be 30 e2 77 bd 28 cd db bd
       0.04810983 -0.24508023 -0.060518444 -0.1073249
0001d0 ab fc 7d be 4e 7f e4 bd 3c 45 6a 3e f2 b7 a2 bf
       -0.24803416 -0.11157094 0.22877973 -1.2712386
0001e0 e8 4f 1d 3e 75 6d 66 be 57 f9 19 bf 65 a6 cb 3e
       0.15362513 -0.22502692 -0.6014609 0.39775386
0001f0 37 11 1d bf 77 09 6f 3f c8 da 33 bf 10 fa ac 3e
       -0.6135439 0.9337382 -0.7025571 0.33784533

decoder.0.bias f4 [32]
000000 15 74 87 3e ce 15 7a 3d e9 ee 82 bc 8c 32 36 3e
       0.2645575 0.06105595 -0.015983062 0.1779272
000010 b9 9b e3 3d 2c 8f ce be 27 ed 93 3e 92 45 8b 3e
       0.11113686 -0.40343606 0.2889187 0.27201515
000020 2c 02 88 be 5e 14 92 be 25 7a 63 3e d0 14 91 be
       -0.26564157 -0.28531164 0.22214563 -0.2833619
000030 9e bc dd be 82 0d 92 be ce b7 b0 3e fc a6 aa be
       -0.43307966 -0.2852593 0.34515232 -0.33330524
000040 50 30 ca be 2e 53 8b 3d ed 4e 95 be 7c 27 f2 be
       -0.39489985 0.06802975 -0.29161778 -0.4729575
000050 c0 46 26 be 10 37 be bd 44 90 d7 3c 4c 66 09 bd
       -0.16237926 -0.09287846 0.026313908 -0.033544824
000060 32 4d a7 3c 7a 44 b7 be 7e 55 98 3e 8d 3b df be
       0.020422552 -0.3579443 0.29752725 -0.4360012
000070 20 91 a6 be 81 c1 b3 3d 9b 55 92 3e de c2 10 bc
       -0.32532597 0.08777142 0.28580937 -0.008835522

decoder.2.weight f4 [1, 32]
000000 e7 d1 41 bd 0c b3 a3 be 98 34 aa 3f c6 cd 4a bd
       -0.04731932 -0.3197254 1.32973 -0.049512647
000010 0a da bb 3e a0 25 11 3e d3 61 2f 3d 9a 73 19 bd
       0.36689788 0.14174509 0.0428179 -0.037463762
000020 a0 a6 ef bf 52 4d 52 3d e2 3d 80 3e 55 15 f0 bd
       -1.8722725 0.05134327 0.25047213 -0.11722819
000030 d0 57 f4 3d fc e4 65 bd 1b 26 36 be 89 f8 98 c0
       0.119308114 -0.05612658 -0.17787974 -4.780339
000040 a7 25 31 bd be ca 49 3f 9c 21 38 c0 db c7 05 bd
       -0.0432488 0.78824985 -2.8770514 -0.0326613
000050 39 f1 e1 bd bd b7 3d 3d 48 33 78 40 94 30 cb bd
       -0.11032338 0.046317805 3.87813 -0.09921375
000060 c4 a2 21 be d2 d5 98 3d ff f1 76 3e 17 4a 3d 40
       -0.15784746 0.07462658 0.24115752 2.957647
000070 8e 17 31 be 94 df 00 3f 9c d2 85 bd 43 66 ba be
       -0.17294142 0.50341153 -0.06534311 -0.36406144

exp_avg f4 [32]
000000 00 00 00 00 00 00 00 00 00 00 00 00 00 00 00 00
       0.0 0.0 0.0 0.0
000010 00 00 00 00 70 e6 1f b9 00 00 00 00 00 00 00 00
       0.0 -0.00015249266 0.0 0.0
000020 62 cd 4f b9 00 00 00 00 00 00 00 00 00 00 00 00
       -0.0001981757 0.0 0.0 0.0
000030 00 00 00 00 e6 a0 70 3a 00 00 00 00 00 00 00 00
       0.0 0.0009179249 0.0 0.0
000040 d2 95 6b 3a a7 11 28 39 e3 55 09 ba 4e 14 48 ba
       0.00089868635 0.00016028305 -0.00052389334 -0.000763242
000050 00 00 00 00 6c b2 8e 3a 00 00 00 00 00 00 00 00
       0.0 0.0010886914 0.0 0.0
000060 bf b6 3d ba 00 00 00 00 00 00 00 00 00 00 00 00
       -0.0007237009 0.0 0.0 0.0
000070 c4 57 c5 b9 6f ea 13 ba b5 dc 1b ba 0b 81 5b 3a
       -0.0003764016 -0.00056425383 -0.00059456687 0.0008373416

exp_avg_sq f4 [32]
000000 00 00 00 00 00 00 00 00 00 00 00 00 00 00 00 00
       0.0 0.0 0.0 0.0
000010 00 00 00 00 3a 1a b0 37 00 00 00 00 00 00 00 00
       0.0 2.0993048e-05 0.0 0.0
000020 ee 56 42 37 00 00 00 00 00 00 00 00 00 00 00 00
       1.1583541e-05 0.0 0.0 0.0
000030 00 00 00 00 5b 56 35 3a 00 00 00 00 00 00 00 00
       0.0 0.000691747 0.0 0.0
000040 4d 9a 22 38 09 e2 41 38 9b 88 af 39 bc 52 66 39
       3.8767514e-05 4.6225297e-05 0.0003348038 0.0002196533
000050 00 00 00 00 fa 75 aa 37 00 00 00 00 00 00 00 00
       0.0 2.0320516e-05 0.0 0.0
000060 f8 c7 30 39 00 00 00 00 00 00 00 00 00 00 00 00
       0.00016859162 0.0 0.0 0.0
000070 fa 44 66 39 15 75 5c 38 2d c8 f8 38 6d 2a 8e 38
       0.00021960205 5.256113e-05 0.00011862847 6.77899e-05

exp_avg f4 [32, 1]
000000 00 00 00 00 00 00 00 00 00 00 00 00 00 00 00 00
       0.0 0.0 0.0 0.0
000010 00 00 00 00 3f 69 cf b7 00 00 00 00 00 00 00 00
       0.0 -2.4725332e-05 0.0 0.0
000020 52 5e a3 b8 00 00 00 00 00 00 00 00 00 00 00 00
       -7.790014e-05 0.0 0.0 0.0
000030 00 00 00 00 e9 c3 fb 38 00 00 00 00 00 00 00 00
       0.0 0.00012005104 0.0 0.0
000040 87 ae a9 39 03 93 b2 38 c8 de 78 b9 7c 80 42 b9
       0.00032364225 8.5150845e-05 -0.00023734116 -0.00018549146
000050 00 00 00 00 62 12 f7 39 00 00 00 00 00 00 00 00
       0.0 0.00047125207 0.0 0.0
000060 b6 7c 88 b9 00 00 00 00 00 00 00 00 00 00 00 00
       -0.00026032858 0.0 0.0 0.0
000070 11 a5 21 b9 50 2d 15 b9 df a9 e7 b8 11 c0 aa 39
       -0.00015415649 -0.00014226628 -0.00011046579 0.00032568027

exp_avg_sq f4 [32, 1]
000000 00 00 00 00 00 00 00 00 00 00 00 00 00 00 00 00
       0.0 0.0 0.0 0.0
000010 00 00 00 00 1e 4c c0 34 00 00 00 00 00 00 00 00
       0.0 3.581817e-07 0.0 0.0
000020 58 3d 74 35 00 00 00 00 00 00 00 00 00 00 00 00
       9.098635e-07 0.0 0.0 0.0
000030 00 00 00 00 f2 be 2d 37 00 00 00 00 00 00 00 00
       0.0 1.03560615e-05 0.0 0.0
000040 98 34 2e 36 b4 71 66 36 f3 40 c4 36 ca fb a0 36
       2.5958634e-06 3.4338855e-06 5.8488163e-06 4.7976837e-06
000050 00 00 00 00 4d 95 71 36 00 00 00 00 00 00 00 00
       0.0 3.5998703e-06 0.0 0.0
000060 ba a9 8b 36 00 00 00 00 00 00 00 00 00 00 00 00
       4.1622816e-06 0.0 0.0 0.0
000070 12 fa 71 36 90 56 e5 35 a3 3d 33 36 71 8d f3 36
       3.6057359e-06 1.7087023e-06 2.6708956e-06 7.2584303e-06

exp_avg f4 [4]
000000 33 b5 51 38 8c 97 2d 3a c5 a5 5f 3a 7e 09 dd 39
       4.9998238e-05 0.00066220085 0.00085314765 0.00042159477

exp_avg_sq f4 [4]
000000 f1 d1 68 37 ef e1 08 39 a2 4d 83 38 82 58 01 3a
       1.3877158e-05 0.00013054138 6.261027e-05 0.0004934148

exp_avg f4 [4, 32]
000000 00 00 00 00 00 00 00 00 00 00 00 00 00 00 00 00
       0.0 0.0 0.0 0.0
000010 00 00 00 00 9e 11 98 b8 00 00 00 00 00 00 00 00
       0.0 -7.251206e-05 0.0 0.0
000020 f9 e8 86 b8 00 00 00 00 00 00 00 00 00 00 00 00
       -6.4330125e-05 0.0 0.0 0.0
000030 00 00 00 00 49 29 51 b9 00 00 00 00 00 00 00 00
       0.0 -0.00019947173 0.0 0.0
000040 9a d5 3f b7 01 da 4c b8 62 87 cf b8 76 90 f8 b8
       -1.143422e-05 -4.8840422e-05 -9.895746e-05 -0.000118524695
000050 00 00 00 00 61 35 c8 b7 00 00 00 00 00 00 00 00
       0.0 -2.3866714e-05 0.0 0.0
000060 13 36 b5 b8 00 00 00 00 00 00 00 00 00 00 00 00
       -8.640825e-05 0.0 0.0 0.0
000070 4e e1 58 b8 be 75 bd b8 22 66 bf b8 3d c1 62 b8
       -5.1708244e-05 -9.0341535e-05 -9.1266134e-05 -5.4062566e-05
000080 00 00 00 00 00 00 00 00 00 00 00 00 00 00 00 00
       0.0 0.0 0.0 0.0
000090 00 00 00 00 c2 1e 41 39 00 00 00 00 00 00 00 00
       0.0 0.00018417372 0.0 0.0
0000a0 c2 53 1f 39 00 00 00 00 00 00 00 00 00 00 00 00
       0.00015194624 0.0 0.0 0.0
0000b0 00 00 00 00 a0 cf f6 39 00 00 00 00 00 00 00 00
       0.0 0.0004707547 0.0 0.0
0000c0 24 f1 af 39 ae 09 f4 38 1a 18 84 39 27 45 9e 39
       0.00033558265 0.0001163663 0.0002519496 0.0003018763
0000d0 00 00 00 00 89 bb 6c 38 00 00 00 00 00 00 00 00
       0.0 5.644144e-05 0.0 0.0
0000e0 e3 7a 66 39 00 00 00 00 00 00 00 00 00 00 00 00
       0.00021980288 0.0 0.0 0.0
0000f0 a1 71 09 39 ea e9 6c 39 b1 30 73 39 0b 25 07 39
       0.00013107668 0.00022593854 0.00023192425 0.00012888403
000100 00 00 00 00 00 00 00 00 00 00 00 00 00 00 00 00
       0.0 0.0 0.0 0.0
000110 00 00 00 00 bd c8 a3 38 00 00 00 00 00 00 00 00
       0.0 7.809836e-05 0.0 0.0
000120 70 d9 89 38 00 00 00 00 00 00 00 00 00 00 00 00
       6.57317e-05 0.0 0.0 0.0
000130 00 00 00 00 17 0e 5a 39 00 00 00 00 00 00 00 00
       0.0 0.00020795349 0.0 0.0
000140 72 93 c1 39 92 28 50 38 34 aa df 38 06 b3 05 39
       0.00036921684 4.962885e-05 0.000106651714 0.0001275056
000150 00 00 00 00 f2 81 dc 37 00 00 00 00 00 00 00 00
       0.0 2.6286554e-05 0.0 0.0
000160 23 0d c3 38 00 00 00 00 00 00 00 00 00 00 00 00
       9.3007715e-05 0.0 0.0 0.0
000170 3f 42 6a 38 20 9a cb 38 13 8d cd 38 cb 5d 68 38
       5.5851644e-05 9.708502e-05 9.801439e-05 5.5400462e-05
000180 00 00 00 00 00 00 00 00 00 00 00 00 00 00 00 00
       0.0 0.0 0.0 0.0
000190 00 00 00 00 74 33 f4 38 00 00 00 00 00 00 00 00
       0.0 0.000116444106 0.0 0.0
0001a0 36 e2 be 38 00 00 00 00 00 00 00 00 00 00 00 00
       9.102041e-05 0.0 0.0 0.0
0001b0 00 00 00 00 d0 a5 91 39 00 00 00 00 00 00 00 00
       0.0 0.00027780095 0.0 0.0
0001c0 4f 82 59 39 73 92 93 38 d8 6d 27 39 55 d1 48 39
       0.00020743276 7.0367845e-05 0.00015967281 0.00019151469
0001d0 00 00 00 00 68 01 0b 38 00 00 00 00 00 00 00 00
       0.0 3.3141492e-05 0.0 0.0
0001e0 16 00 12 39 00 00 00 00 00 00 00 00 00 00 00 00
       0.00013923677 0.0 0.0 0.0
0001f0 db 3f ad 38 b8 66 13 39 59 02 1a 39 27 6c a3 38
       8.261177e-05 0.00014057278 0.00014687459 7.7925906e-05

exp_avg_sq f4 [4, 32]
000000 00 00 00 00 00 00 00 00 00 00 00 00 00 00 00 00
       0.0 0.0 0.0 0.0
000010 00 00 00 00 86 79 b1 33 00 00 00 00 00 00 00 00
       0.0 8.26431e-08 0.0 0.0
000020 d4 22 06 33 00 00 00 00 00 00 00 00 00 00 00 00
       3.1230982e-08 0.0 0.0 0.0
000030 00 00 00 00 61 0d e6 34 00 00 00 00 00 00 00 00
       0.0 4.2850573e-07 0.0 0.0
000040 01 f4 29 36 8e 6e 9a 32 27 8b 25 34 b2 85 6d 34
       2.5324991e-06 1.7978234e-08 1.5417446e-07 2.2120983e-07
000050 00 00 00 00 8c 98 9a 31 00 00 00 00 00 00 00 00
       0.0 4.4993325e-09 0.0 0.0
000060 e4 75 fc 33 00 00 00 00 00 00 00 00 00 00 00 00
       1.17561086e-07 0.0 0.0 0.0
000070 76 c4 33 33 ed e5 00 34 c8 b8 0b 34 55 5c bb 32
       4.1855365e-08 1.2004575e-07 1.3012607e-07 2.1811653e-08
000080 00 00 00 00 00 00 00 00 00 00 00 00 00 00 00 00
       0.0 0.0 0.0 0.0
000090 00 00 00 00 47 0f 86 35 00 00 00 00 00 00 00 00
       0.0 9.988224e-07 0.0 0.0
0000a0 27 c7 e3 34 00 00 00 00 00 00 00 00 00 00 00 00
       4.2426947e-07 0.0 0.0 0.0
0000b0 00 00 00 00 5b aa be 36 00 00 00 00 00 00 00 00
       0.0 5.6822732e-06 0.0 0.0
0000c0 c8 01 cc 37 a7 f0 87 34 37 16 fa 35 b6 6d 33 36
       2.4319525e-05 2.5320807e-07 1.8632917e-06 2.6736939e-06
0000d0 00 00 00 00 d3 cd 4b 33 00 00 00 00 00 00 00 00
       0.0 4.7451817e-08 0.0 0.0
0000e0 d5 b5 be 35 00 00 00 00 00 00 00 00 00 00 00 00
       1.4209023e-06 0.0 0.0 0.0
0000f0 02 c6 07 35 a2 76 c5 35 a2 3d d3 35 af b1 9d 34
       5.057956e-07 1.471217e-06 1.5738663e-06 2.937281e-07
000100 00 00 00 00 00 00 00 00 00 00 00 00 00 00 00 00
       0.0 0.0 0.0 0.0
000110 00 00 00 00 da 64 2b 34 00 00 00 00 00 00 00 00
       0.0 1.5962306e-07 0.0 0.0
000120 ec 2d b5 33 00 00 00 00 00 00 00 00 00 00 00 00
       8.4368224e-08 0.0 0.0 0.0
000130 00 00 00 00 f9 0a 65 35 00 00 00 00 00 00 00 00
       0.0 8.5325115e-07 0.0 0.0
000140 67 09 35 37 83 e3 49 33 61 e4 9f 34 c9 5f e5 34
       1.079063e-05 4.700588e-08 2.9782225e-07 4.2724267e-07
000150 00 00 00 00 ba 18 4a 32 00 00 00 00 00 00 00 00
       0.0 1.176357e-08 0.0 0.0
000160 10 dd 73 34 00 00 00 00 00 00 00 00 00 00 00 00
       2.271156e-07 0.0 0.0 0.0
000170 f0 b4 ad 33 24 0e 76 34 8f c8 86 34 ef e1 7d 33
       8.0888526e-08 2.291568e-07 2.510537e-07 5.911164e-08
000180 00 00 00 00 00 00 00 00 00 00 00 00 00 00 00 00
       0.0 0.0 0.0 0.0
000190 00 00 00 00 26 80 03 36 00 00 00 00 00 00 00 00
       0.0 1.9595113e-06 0.0 0.0
0001a0 a2 80 eb 34 00 00 00 00 00 00 00 00 00 00 00 00
       4.3865754e-07 0.0 0.0 0.0
0001b0 00 00 00 00 65 53 1a 37 00 00 00 00 00 00 00 00
       0.0 9.198532e-06 0.0 0.0
0001c0 55 f0 b9 38 5b 42 97 34 26 55 75 36 bf f4 af 36
       8.866253e-05 2.8174222e-07 3.6557408e-06 5.2438986e-06
0001d0 00 00 00 00 7f 05 19 33 00 00 00 00 00 00 00 00
       0.0 3.5628087e-08 0.0 0.0
0001e0 ee 16 3b 36 00 00 00 00 00 00 00 00 00 00 00 00
       2.7878518e-06 0.0 0.0 0.0
0001f0 f2 4d 85 35 ba 64 3a 36 ed b0 4e 36 1b dd a0 34
       9.931957e-07 2.777479e-06 3.0799376e-06 2.9963198e-07

exp_avg f4 [32, 4]
000000 ef 59 4f 36 e7 64 35 b6 c7 b9 02 b7 f9 87 9f b6
       3.0897752e-06 -2.7029835e-06 -7.7918585e-06 -4.7543986e-06
000010 f9 df b2 37 0c f5 9b b7 c9 ea 5f b8 15 90 08 b8
       2.1323549e-05 -1.8591549e-05 -5.3386004e-05 -3.2559114e-05
000020 bd 19 bc 37 e1 5a 4b b7 a1 f9 be 37 3a 3c bd 36
       2.2423332e-05 -1.2120902e-05 2.2766008e-05 5.63965e-06
000030 b6 49 59 36 0c 0c 3e b6 23 ef 08 b7 c3 17 a7 b6
       3.2378425e-06 -2.8319218e-06 -8.16191e-06 -4.979754e-06
000040 98 27 f0 b7 a1 66 cb 37 b1 92 6a 38 1d 8f 16 38
       -2.8628667e-05 2.4247276e-05 5.5926565e-05 3.589607e-05
000050 00 00 00 00 00 00 00 00 00 00 00 00 00 00 00 00
       0.0 0.0 0.0 0.0
000060 27 da 44 b6 9e d1 2a 36 6b f5 f3 36 f3 b4 94 36
       -2.9333257e-06 2.5453987e-06 7.2705348e-06 4.431809e-06
000070 d5 d2 22 36 dd 94 0e b6 3d c4 cd b6 04 2b 7b b6
       2.4262602e-06 -2.1246299e-06 -6.1323212e-06 -3.7426953e-06
000080 b8 56 04 b8 d6 6f 88 37 fb c3 fd b7 ac 25 f6 b6
       -3.1552016e-05 1.6264541e-05 -3.025121e-05 -7.335757e-06
000090 00 00 00 00 00 00 00 00 00 00 00 00 00 00 00 00
       0.0 0.0 0.0 0.0
0000a0 98 bf 82 b7 b5 1e 69 37 5e 5d 2b 38 59 94 cf 37
       -1.5586425e-05 1.3895032e-05 4.0856532e-05 2.4745403e-05
0000b0 00 00 00 00 00 00 00 00 00 00 00 00 00 00 00 00
       0.0 0.0 0.0 0.0
0000c0 00 00 00 00 00 00 00 00 00 00 00 00 00 00 00 00
       0.0 0.0 0.0 0.0
0000d0 00 00 00 00 00 00 00 00 00 00 00 00 00 00 00 00
       0.0 0.0 0.0 0.0
0000e0 f1 89 46 37 29 2f 2d b7 09 c7 f8 b7 59 bb 97 b7
       1.1833837e-05 -1.0322584e-05 -2.9656587e-05 -1.8087843e-05
0000f0 49 f9 86 b8 11 47 12 38 23 88 8b b8 1c 8c 8a b7
       -6.436051e-05 3.48753e-05 -6.653394e-05 -1.6516125e-05
000100 00 00 00 00 00 00 00 00 00 00 00 00 00 00 00 00
       0.0 0.0 0.0 0.0
000110 64 ac b8 37 e5 53 5b b7 d1 b1 35 36 90 4d 42 34
       2.2014785e-05 -1.307295e-05 2.7074605e-06 1.8095875e-07
000120 b8 c6 41 b8 fa 9d d6 37 1c 5c 41 b8 21 84 45 b7
       -4.6199857e-05 2.5584352e-05 -4.610057e-05 -1.1772879e-05
000130 00 00 00 00 00 00 00 00 00 00 00 00 00 00 00 00
       0.0 0.0 0.0 0.0
000140 00 00 00 00 00 00 00 00 00 00 00 00 00 00 00 00
       0.0 0.0 0.0 0.0
000150 00 00 00 00 00 00 00 00 00 00 00 00 00 00 00 00
       0.0 0.0 0.0 0.0
000160 37 f9 68 38 01 cb e7 b7 29 1c d0 b7 03 6a 86 b7
       5.554521e-05 -2.7631877e-05 -2.4808645e-05 -1.602341e-05
000170 01 33 de 36 e5 18 c2 b6 31 50 8b b7 ae 07 2a b7
       6.622053e-06 -5.7845486e-06 -1.6607433e-05 -1.0134578e-05
000180 db 3c 9e b4 8d 77 b0 33 1c 11 cb b6 a9 ea 4f b6
       -2.9474072e-07 8.217385e-08 -6.0518632e-06 -3.0981994e-06
000190 00 00 00 00 00 00 00 00 00 00 00 00 00 00 00 00
       0.0 0.0 0.0 0.0
0001a0 b9 14 88 b7 92 fa 6c 37 70 db 29 38 88 25 cf 37
       -1.6222113e-05 1.4125037e-05 4.0497107e-05 2.46938e-05
0001b0 28 f1 40 38 d9 4f d9 b7 b8 e1 4c 38 f2 4e 4b 37
       4.600096e-05 -2.5905598e-05 4.8847607e-05 1.2118124e-05
0001c0 00 00 00 00 00 00 00 00 00 00 00 00 00 00 00 00
       0.0 0.0 0.0 0.0
0001d0 07 43 b7 36 e5 11 21 b6 3b 87 67 37 bc 56 04 37
       5.461628e-06 -2.4001286e-06 1.3800159e-05 7.8880075e-06
0001e0 ee 7e 90 36 98 89 7c b6 8c c2 35 b7 0e bd dd b6
       4.306311e-06 -3.7631016e-06 -1.0833737e-05 -6.608322e-06
0001f0 71 0e cc 37 38 e6 b1 b7 72 62 7f b8 af bd 1b b8
       2.432542e-05 -2.1207248e-05 -6.0888422e-05 -3.7131536e-05

exp_avg_sq f4 [32, 4]
000000 93 94 89 30 00 4b b5 2f 60 99 87 30 f8 f2 c7 2f
       1.0010289e-09 3.2977e-10 9.866135e-10 3.637053e-10
000010 b7 9e 41 33 71 25 7f 32 cb cf 3e 33 20 ad 8c 32
       4.5080665e-08 1.4851467e-08 4.442681e-08 1.6376873e-08
000020 91 a6 1e 33 47 8a df 31 5c ca 83 32 fc 1b 16 30
       3.6938733e-08 6.5058745e-09 1.534243e-08 5.460945e-10
000030 3f e1 93 30 c2 f6 c2 2f 5e ce 91 30 15 f9 d6 2f
       1.0759676e-09 3.5463726e-10 1.0608792e-09 3.9103357e-10
000040 33 60 77 33 72 28 a4 32 42 f8 7b 33 07 5d ba 32
       5.759666e-08 1.9110505e-08 5.866628e-08 2.1695554e-08
000050 00 00 00 00 00 00 00 00 00 00 00 00 00 00 00 00
       0.0 0.0 0.0 0.0
000060 3a fb 67 30 dd a0 98 2f 76 43 64 30 9f 56 a8 2f
       8.4394325e-10 2.776294e-10 8.3041785e-10 3.062057e-10
000070 77 33 2d 30 e1 2f 64 2f 81 ac 2a 30 e3 af 7b 2f
       6.301017e-10 2.0753489e-10 6.209078e-10 2.2890805e-10
000080 72 5c 96 31 de 38 a3 30 a5 a8 94 31 27 8b a1 2f
       4.3760844e-09 1.1875974e-09 4.3265396e-09 2.9384603e-10
000090 00 00 00 00 00 00 00 00 00 00 00 00 00 00 00 00
       0.0 0.0 0.0 0.0
0000a0 e4 27 e1 32 fb 0c 14 32 9b a1 da 32 f2 88 22 32
       2.6211588e-08 8.617685e-09 2.545203e-08 9.460779e-09
0000b0 00 00 00 00 00 00 00 00 00 00 00 00 00 00 00 00
       0.0 0.0 0.0 0.0
0000c0 00 00 00 00 00 00 00 00 00 00 00 00 00 00 00 00
       0.0 0.0 0.0 0.0
0000d0 00 00 00 00 00 00 00 00 00 00 00 00 00 00 00 00
       0.0 0.0 0.0 0.0
0000e0 e3 2d 6d 32 e8 51 9c 31 51 ce 69 32 c4 5c ac 31
       1.3805649e-08 4.549509e-09 1.3609296e-08 5.016405e-09
0000f0 ab cc 90 33 6c 72 9b 32 c2 16 89 33 0e 10 90 31
       6.7427514e-08 1.8096408e-08 6.383699e-08 4.192777e-09
000100 00 00 00 00 00 00 00 00 00 00 00 00 00 00 00 00
       0.0 0.0 0.0 0.0
000110 18 69 03 34 c0 71 d5 32 8e 1d 0f 33 06 11 4a 32
       1.2238559e-07 2.4848191e-08 3.3321662e-08 1.1761818e-08
000120 aa 50 8d 32 0f da 8b 31 7f 75 84 32 47 c0 84 30
       1.6451242e-08 4.070223e-09 1.5420254e-08 9.658913e-10
000130 00 00 00 00 00 00 00 00 00 00 00 00 00 00 00 00
       0.0 0.0 0.0 0.0
000140 00 00 00 00 00 00 00 00 00 00 00 00 00 00 00 00
       0.0 0.0 0.0 0.0
000150 00 00 00 00 00 00 00 00 00 00 00 00 00 00 00 00
       0.0 0.0 0.0 0.0
000160 5b 7c c1 35 92 f2 84 34 ab fe 36 34 ab f3 aa 33
       1.4415813e-06 2.476341e-07 1.7042719e-07 7.960565e-08
000170 2c d8 87 31 21 6e b3 30 84 26 86 31 b6 ab c5 30
       3.953593e-09 1.3055265e-09 3.904292e-09 1.438244e-09
000180 4b 4f 0e 32 5b 13 0e 31 33 ee 9c 31 45 54 d8 30
       8.283517e-09 2.0674722e-09 4.5672777e-09 1.5740019e-09
000190 00 00 00 00 00 00 00 00 00 00 00 00 00 00 00 00
       0.0 0.0 0.0 0.0
0001a0 e6 cf da 32 d4 2c 10 32 28 a2 d7 32 40 f9 1e 32
       2.5473081e-08 8.392096e-09 2.5103034e-08 9.253483e-09
0001b0 e3 0e 53 33 c8 df 48 32 a0 a4 3a 33 c8 c9 2e 31
       4.9140805e-08 1.1692414e-08 4.3456225e-08 2.5435032e-09
0001c0 00 00 00 00 00 00 00 00 00 00 00 00 00 00 00 00
       0.0 0.0 0.0 0.0
0001d0 fc 45 8b 33 e1 3d 83 32 1c b3 02 33 cd 36 31 32
       6.485422e-08 1.5278546e-08 3.0430883e-08 1.0315216e-08
0001e0 62 f4 01 31 ef 4d 2b 30 fb 1e 00 31 37 e7 3c 30
       1.8910886e-09 6.232019e-10 1.8644062e-09 6.872258e-10
0001f0 86 24 7c 33 31 22 a6 32 2e 7f 78 33 d3 33 b7 32
       5.870654e-08 1.9340492e-08 5.785767e-08 2.132757e-08

exp_avg f4 [32]
000000 cf 1e df b7 40 e7 3f b9 76 ab db b8 33 c5 e9 b7
       -2.6598018e-05 -0.00018301327 -0.00010474671 -2.7867593e-05
000010 4e a7 75 39 00 00 00 00 4f 4f d2 37 2b 5d af b7
       0.00023427347 0.0 2.5070882e-05 -2.090501e-05
000020 d7 83 1d 39 00 00 00 00 9a d5 0f 39 00 00 00 00
       0.00015021801 0.0 0.00013717116 0.0
000030 00 00 00 00 00 00 00 00 8f 16 d5 b8 b2 af a3 39
       0.0 0.0 -0.00010160833 0.00031220686
000040 00 00 00 00 83 73 ee b8 b5 73 6b 39 00 00 00 00
       0.0 -0.0001137024 0.0002245445 0.0
000050 00 00 00 00 00 00 00 00 3a 46 a8 b9 1e e6 6e b8
       0.0 0.0 -0.0003209578 -5.6957935e-05
000060 a8 d8 29 b6 00 00 00 00 02 d2 11 39 0b e3 76 b9
       -2.5309073e-06 0.0 0.00013906512 -0.00023544968
000070 00 00 00 00 f5 41 41 b7 e8 54 1b b8 0a e7 5a b9
       0.0 -1.1519053e-05 -3.7033955e-05 -0.00020876169

exp_avg_sq f4 [32]
000000 13 7a 20 33 65 d8 e1 35 0f 8b 4d 35 1e 88 2c 33
       3.736393e-08 1.6826785e-06 7.657081e-07 4.017067e-08
000010 b8 b9 11 36 00 00 00 00 c5 32 07 33 97 01 ca 32
       2.1714786e-06 0.0 3.147831e-08 2.3516618e-08
000020 83 39 d6 33 00 00 00 00 e9 86 83 35 00 00 00 00
       9.975613e-08 0.0 9.799525e-07 0.0
000030 00 00 00 00 00 00 00 00 eb 58 0a 35 90 5a d0 35
       0.0 0.0 5.15384e-07 1.5523565e-06
000040 00 00 00 00 d7 1c 5c 36 49 f2 c5 34 00 00 00 00
       0.0 3.2799342e-06 3.6870395e-07 0.0
000050 00 00 00 00 00 00 00 00 41 c0 10 38 91 9d 1e 34
       0.0 0.0 3.4511326e-05 1.4772219e-07
000060 af ef 8a 34 00 00 00 00 a3 3b 7f 35 8d 0b 97 35
       2.5878896e-07 0.0 9.5081685e-07 1.1253738e-06
000070 00 00 00 00 d3 f6 01 36 89 9b 97 33 0a 0e 13 36
       0.0 1.9366169e-06 7.059777e-08 2.1912879e-06

exp_avg f4 [1, 32]
000000 ef 06 61 39 0d fe c9 38 27 af ac b7 6d 33 d8 38
       0.00021460255 9.6317475e-05 -2.058556e-05 0.000103092614
000010 d0 01 3e 39 00 00 00 00 74 3b 7b 38 9a 78 2d 39
       0.00018120487 0.0 5.9898433e-05 0.00016543493
000020 47 dd 05 b5 00 00 00 00 78 a9 44 36 00 00 00 00
       -4.986836e-07 0.0 2.930492e-06 0.0
000030 00 00 00 00 00 00 00 00 de cd 33 39 12 b4 a1 b5
       0.0 0.0 0.00017147462 -1.2047842e-06
000040 00 00 00 00 c7 66 bc b7 13 00 d3 b4 00 00 00 00
       0.0 -2.2459206e-05 -3.9301867e-07 0.0
000050 00 00 00 00 00 00 00 00 ee 6b c5 33 61 b0 65 36
       0.0 0.0 9.19316e-08 3.4226325e-06
000060 3b 2a b7 b7 00 00 00 00 96 33 35 39 8d c4 32 b7
       -2.1834965e-05 0.0 0.00017280722 -1.065539e-05
000070 00 00 00 00 05 31 92 b7 48 06 a7 38 cb 66 d5 36
       0.0 -1.7427383e-05 7.9643505e-05 6.3598613e-06

exp_avg_sq f4 [1, 32]
000000 fe 8b 13 36 7b 0c d3 34 f8 ce 75 32 f7 c7 09 35
       2.1986193e-06 3.9310893e-07 1.4307936e-08 5.1327464e-07
000010 df 8d 84 35 00 00 00 00 93 62 c7 34 e4 57 8a 35
       9.876056e-07 0.0 3.713836e-07 1.0307381e-06
000020 20 b8 a9 2b 00 00 00 00 1c 34 f3 31 00 00 00 00
       1.2059277e-12 0.0 7.078155e-09 0.0
000030 00 00 00 00 00 00 00 00 fb aa f4 35 77 ba 4c 2d
       0.0 0.0 1.8229179e-06 1.1637461e-11
000040 00 00 00 00 a8 6c 7c 33 08 96 0b 2c 00 00 00 00
       0.0 5.8772144e-08 1.9836372e-12 0.0
000050 00 00 00 00 00 00 00 00 a9 5d aa 2f aa ec 24 33
       0.0 0.0 3.098937e-10 3.839947e-08
000060 89 af 1b 33 00 00 00 00 ef ed b9 35 6c b1 00 31
       3.6248398e-08 0.0 1.3852822e-06 1.8727304e-09
000070 00 00 00 00 71 4a 0b 33 af 4e 1c 35 85 46 52 34
       0.0 3.2431164e-08 5.822903e-07 1.9583429e-07
