server_report/ae_hexa/ae_hexa_modified_bilinear_4_2/autoencoder_20260113_195404.pth (torch, 399204 bytes, 75 tensors)

enc1.kernel0 f4 [4, 1, 5, 1]
00000000: 1c04 3b3e d6c4 f0bc 8948 4a3f cd31 f73e
00000010: c3ad ffbe 8177 683f 1a93 343f af9b d03e
00000020: 10da ddbe 1124 80bf aeab 00bf 6fa7 1b3f
00000030: ad0f c03f d436 9c3e c6be 87bb a94a aabe
00000040: 0f65 23bf 1bb0 20bf 640f 713f 7303 593f
0.18263286 -0.029390734 0.7901693 0.48280182 -0.49937257 0.9080735 0.7053696 0.40743777
-0.4333043 -1.0011007 -0.5026196 0.6080236 1.5004784 0.3051058 -0.004142615 -0.33260086
-0.6382608 -0.62768716 0.9416411 0.8477089

enc1.kernel1 f4 [4, 1, 4, 2]
00000000: 1975 63bf e4e6 15bf 443a 04bf a6d4 64be
00000010: 486d 373f a295 ef3e 407c 223f 08dd 0f3f
00000020: c8a6 babe 937d 403f db4d 3cbf e1c4 7b3f
00000030: 4046 4dbf 3e9c 173f f1f8 3abf 20ea 1dbd
00000040: 404d 963e a5e5 263e c905 943f 19e4 453f
00000050: 7a8c 973f cb2f 863e 2859 063e e81e 33bf
00000060: 7e07 7bbd dd4c a3be afc9 13bf 8c6e 2f3c
00000070: 7304 93be 1c93 0e3f 0f4c 213f 3cdf 1f3f
-0.8885055 -0.58555436 -0.51651406 -0.22346744 0.71651125 0.46793848 0.6347084 0.5619664
-0.3645537 0.7519161 -0.735563 0.9834729 -0.8018532 0.5922278 -0.73036104 -0.038553357
0.29355812 0.1629854 1.1564265 0.77301174 1.1839745 0.26208338 0.13119948 -0.69969034
-0.061286442 -0.3189458 -0.5772962 0.010707509 -0.28714332 0.5569322 0.6300668 0.62450004

enc1.kernel2 f4 [4, 1, 3, 2]
00000000: 2736 4d3e 4bac 92be 1f9d 423f fd36 afbe
00000010: e400 a33f 17ff f13d d178 18bf 70f2 f33c
00000020: d7c0 49bf df3d 2b3f 7860 143e 5b79 2e3f
00000030: 75a8 64be 2cea 983e 7e4c 883e bca7 643d
00000040: 36bd 06bf b07e 56bf 5065 64be d9a4 763e
00000050: ec91 6abf c5b3 8b3d 34ba ecbe 83e9 3dbd
0.20040189 -0.28647074 0.76021 -0.3422164 1.2734647 0.11816233 -0.5955935 0.02977869
-0.78809875 0.6689128 0.14489925 0.68153924 -0.22329886 0.2986616 0.2662086 0.055824026
-0.5263246 -0.8378706 -0.22304273 0.24086322 -0.9162891 0.06821398 -0.46235812 -0.046365272

enc1.bias_tensor f4 [4]
00000000: 8ac9 76bc 7151 c63c 71c0 683c f173 243c
-0.015062699 0.024208756 0.014206038 0.010037408

bn1.weight f4 [4]
00000000: 3343 473f 5c10 833f 314c aa3f 92f1 763f
0.7783691 1.0239367 1.3304502 0.9646236

bn1.bias f4 [4]
00000000: ea47 093e fa5d 9b3c c8dd 813e 918a 14bd
0.1340634 0.01896571 0.25364518 -0.03626496

bn1.running_mean f4 [4]
00000000: 673b 203e d4b8 3d3d b0a2 893e 25d9 c2bc
0.1564766 0.046318844 0.26881933 -0.023785183

bn1.running_var f4 [4]
00000000: 48b2 b83f 7792 b83f 5a79 2440 dbdd 623f
1.4429407 1.4419698 2.5699067 0.88619775

enc2.kernel0 f4 [2, 4, 3, 1]
00000000: 6d1a f63e f5c3 183f abb4 77be 1002 d53e
00000010: ddb1 a73e 4945 d33c 9630 1d3f 8200 fa3e
00000020: 41da 77be 5092 9f3e 53aa 843e 1acd a5bd
00000030: b325 97be a3b1 503e 116f 393f 9cff 973c
00000040: 5025 6f3e de78 a83e 4064 9cbe f7fc 343e
00000050: 8f89 073f 23d2 063d 01cd b33e eb8b fe3e
0.48067036 0.59674007 -0.24190013 0.41603136 0.32752886 0.025789874 0.6140226 0.48828512
-0.24204351 0.31166315 0.25911197 -0.08095761 -0.2952095 0.20380263 0.724351 0.018554501
0.23354077 0.32904714 -0.30545235 0.17674623 0.5294427 0.032915246 0.35117343 0.49716124

enc2.kernel1 f4 [2, 4, 2, 2]
00000000: 37a3 263e a21c f93e 9983 373e 32fc 293f
00000010: 071c a1bb ad1a 9d3e 1146 25be e89c b73e
00000020: cc65 d43d 49f1 ff3e 6998 50be 7373 c13e
00000030: b237 df3d 2178 4b3e 3be1 82bc a032 e73d
00000040: 34b6 0ebd 96d2 ddbe 0b97 11be 6847 81be
00000050: a1c8 f93e aff3 fdbd df9c f23e c792 f83c
00000060: 415b b53e a029 52be 2c89 043f c3e8 b6bc
00000070: bd4c be3d 5a87 733e 4ef8 bf3e faa5 a03e
0.16273199 0.48654658 0.17921294 0.66400445 -0.004916671 0.30684415 -0.1614001 0.35861897
0.10370979 0.49988773 -0.2037064 0.37783393 0.10899295 0.19870044 -0.015976539 0.11288953
-0.03484173 -0.43324727 -0.14217775 -0.2524979 0.4878588 -0.123999946 0.47385308 0.030343426
0.35421184 -0.20523691 0.5177181 -0.022327786 0.092919804 0.23782101 0.3749413 0.3137663

enc2.bias_tensor f4 [2]
00000000: f0c1 ae3b 844e 5d3c
0.0053331777 0.013507489

bn2.weight f4 [2]
00000000: f46c 863f 93d3 763f
1.0502 0.96416587

bn2.bias f4 [2]
00000000: 964c 8d3e a20f 953e
0.27597493 0.2911349

bn2.running_mean f4 [2]
00000000: 1a3f 783f 8024 103f
0.96971285 0.56305695

bn2.running_var f4 [2]
00000000: 73f4 5f41 a111 a440
13.99718 5.127152

fc_enc.weight f4 [64, 234]
00000000: 38d2 2a3f 4cf6 15be 33ec e4bd 547d 36be
00000010: 04d8 67be c7c9 5a3d 7be7 8cbe b0a5 a8be
00000020: 73d6 c03e b986 a4be ae21 543f 3019 42be
00000030: ac18 f53f 2601 83be 3bb5 33be 586f 92be
00000040: f81d b23e d658 85bd b7ea e1bd 4406 3d3d
00000050: 767c 2bbd d2c7 fb3c 543a bc3d 34c1 8a3e
00000060: d865 4fbd 4ee9 223f 6c0c 76be e5f6 9bbe
00000070: 1315 d8bd 575d 6c3a d8c5 c3be 61ab 7e3d
00000080: 3ffb fbbd be65 a33d dc90 0fbe deb8 4c3e
00000090: 0d1a 2bbe 5223 b73b 099a 1f3f 6f7b e9be
000000a0: aecf 043d 0184 ec3d d444 97bd 530a 1e3c
000000b0: c8e3 33bd 7fc9 89be e2b3 fdbd d600 af3d
000000c0: 4f16 a1be af8d 5fbd f16d bfbd 0bcc 603e
000000d0: 7b31 52be 864f 4d3e 593f 21bd fcbc 4ebe
000000e0: 0506 3c3d b5ee aebe 75a4 023e a7fe 07bc
000000f0: ac3e 283e acd0 a63c 50c3 acbd 7d13 f2bd
00000100: 589f 123e 8de3 27be 072b 26be bb29 803e
00000110: a490 3a3e 857a 903c bfd3 1abe 9513 db3d
00000120: a003 913d a105 22bd 3a2c 733e ad25 82be
00000130: 834a 923a 0f95 8b3e 5ec2 b7be fe29 fb3d
00000140: 842f 903d 844b 0e3e 111c 69be dff3 61be
00000150: 17c5 59be 6d16 1a3e c007 a83e b367 83be
00000160: e65e 92bd a205 19bd c44b 263f bc25 95be
00000170: 69b9 44be 361f 0dbe af11 a93d 8d82 183e
00000180: aa4e 70be d8d0 d73c 287c 9e3b 9780 4b3d
00000190: 3a69 73be 4342 203e 0787 f8bd be0a 2a3f
000001a0: 20f3 85be 30a0 b7be 0e40 afbb 4c3f 36be
000001b0: 88f6 94bc 146f 293d 20c9 dcbd 5b4f 373e
000001c0: f638 b2bd 8228 b4bd 83da 8cbe b3d8 bfbe
000001d0: a746 353f b8eb 08bf 2c91 9abe d7bf 98be
000001e0: 0ce8 2f3e e109 0d3d 2c30 87bd bd54 d53d
000001f0: da7a 3d3d 9dea 353e 558d aebe 3042 e0bc
00000200: 0314 a3be ef04 11bf 8c0d a1be 0767 0cbe
00000210: 377c 083e 20ee 213e 3dc1 993e e354 e5bc
00000220: 9c55 fd3d 31c9 b5bd a96e ac3d 615c a33e
00000230: 64a4 483d cdff 95bd 2809 fabe 1c72 9cbe
00000240: 4224 47bd e773 713d 3a13 973d dc25 43be
00000250: 1015 533d 4b39 5e3d 5c68 6b3d 777b 1bbe
00000260: da06 5d3d b7e0 73be 84ed 0d3e 9412 00bf
00000270: d613 49be 51bb 42bd 49d1 153e 21f2 c4bd
00000280: b0ad 453e 23fc 033e d161 40bd a650 45bd
00000290: 8e39 8f3e a83a 18be 24e6 533d eb60 4bbe
000002a0: 12d0 dcb9 280b d63d d731 22bd 76df 0a3e
000002b0: fee2 f33d 9cf2 29bc 8578 79bd 3e6e b43c
000002c0: 0879 9f3d 03ba cdbc dbab 6b3d 17e6 a3bd
000002d0: 5a9a a6bc a777 f13d 16d5 bfbe c622 a0bd
000002e0: ed75 603d 4984 ca3d 8aba 323e 8f18 9a3d
000002f0: 2058 92bd 8f7d 003e 4629 453b 046a f63d
00000300: a6d7 58bc ba7c 3bbe 3bc8 fe3d bc6b b4be
00000310: 512b d8be f500 733d 698b 6d3d 8e28 703d
00000320: ed97 c0bd cb75 84b9 725d f83d 712e 063e
00000330: e1b7 41be 8317 61bd 4a35 b7bc 1d64 e4be
00000340: 86dc a3be 350e 64be a889 a33d b793 3a3e
00000350: b3bd 443e 2e87 c0bc 62e0 2c3e 76e9 0b3d
00000360: c4bf 103d 274b 833d 3f17 cabd dc68 19be
00000370: 1174 09bf 000c a6be 190c 88be 14af 89be
00000380: 6b42 233e a2b7 1abe 5581 063e ffe2 3c3d
00000390: a887 f83d e728 58bb eef1 49be 8fdb 3dbe
000003a0: 3655 2cbe bb61 02bf 2ee5 073f 8405 8bbe
000003b0: acaf 81bc bebf d93d 7b86 d13d bef4 b9bd
000003c0: 4486 c93d 7fba e4be aa18 4d3d 3a4e 9e3e
000003d0: f93c 953e 532a 98be 9a60 dd3f c9c5 96be
000003e0: e406 afbe 183c 9f3c cd11 503e abd4 1cbe
000003f0: 0153 8ebd df6e 933d 9510 41be d8e3 9d3c
0.6672702 -0.14644736 -0.11177864 -0.17821246 -0.22640997 0.053415086 -0.27520356 -0.3293891
0.37663612 -0.32134035 0.8286389 -0.18954921 1.9148154 -0.25586814 -0.17549603 -0.28600574
0.3478849 -0.06511085 -0.110310964 0.046148553 -0.041866742 0.03073493 0.09190813 0.27100527
-0.050634235 0.63637245 -0.24028176 -0.30461803 -0.105508946 0.0009016594 -0.3823688 0.06217516
-0.12303781 0.0797839 -0.14020103 0.19992396 -0.16709156 0.0055889273 0.62344414 -0.45601985
0.03242462 0.11548615 -0.07386175 0.009646016 -0.0439184 -0.26911542 -0.123878255 0.08545081
-0.31462333 -0.05457848 -0.093471415 0.21952836 -0.20526688 0.20049867 -0.039367054 -0.2018928
0.04590418 -0.34166494 0.12758048 -0.00830046 0.16430157 0.020363174 -0.084356904 -0.11820123
0.14318597 -0.16395397 -0.16227351 0.25031838 0.18219239 0.017636547 -0.15119837 0.10697094
0.070807695 -0.03955615 0.2374734 -0.2541937 0.0011161122 0.2726216 -0.35890478 0.12263869
0.07040313 0.13895994 -0.22764613 -0.22065686 -0.2126659 0.15047617 0.32818413 -0.25665054
-0.07147007 -0.037358887 0.6495936 -0.29130352 -0.19211353 -0.13781437 0.08255326 0.14893551
-0.23467508 0.026344702 0.004836578 0.04968318 -0.2377061 0.15650277 -0.121351294 0.6642264
-0.26162052 -0.358644 -0.005348212 -0.17797583 -0.018183962 0.041365698 -0.10780549 0.17901365
-0.08702271 -0.08796789 -0.2751046 -0.37470016 0.7081093 -0.5348468 -0.30188882 -0.29833862
0.17178363 0.03443325 -0.06600985 0.10416553 0.04625974 0.17765279 -0.34092203 -0.02737531
-0.31851205 -0.56648153 -0.31455648 -0.13711177 0.13328634 0.15813494 0.30030242 -0.027994579
0.12369844 -0.08876265 0.08419544 0.31906417 0.0489849 -0.07324181 -0.4883511 -0.3055581
-0.048618563 0.058948424 0.07376714 -0.19057411 0.05153376 0.054253858 0.05747257 -0.15183817
0.053961612 -0.2381619 0.13860136 -0.5002835 -0.19636473 -0.04754192 0.14630617 -0.09616495
0.19304538 0.12889151 -0.046968285 -0.048172615 0.27973598 -0.14866126 0.05173315 -0.1986119
-0.00042116694 0.10451347 -0.039598312 0.13561806 0.1190853 -0.010372784 -0.060905952 0.022025224
0.07786757 -0.025113111 0.05753694 -0.080028705 -0.020337272 0.117904 -0.3746726 -0.078191325
0.054799963 0.09888513 0.17453972 0.075242154 -0.07145715 0.12547897 0.0030084415 0.120319396
-0.013235008 -0.18309298 0.12440535 -0.35238445 -0.42220548 0.059327085 0.05799428 0.058632426
-0.094039775 -0.00025264765 0.12127198 0.13103653 -0.189178 -0.054954063 -0.022364277 -0.4460763
-0.32004184 -0.22271045 0.0798524 0.18220411 0.1921299 -0.023501959 0.1688247 0.034158193
0.035339132 0.064108185 -0.09867715 -0.14981407 -0.5369273 -0.3243103 -0.2657173 -0.26891387
0.15943305 -0.15109113 0.13135274 0.046114918 0.121352494 -0.0032983364 -0.19721195 -0.18540786
-0.1682938 -0.50930375 0.53084075 -0.27152646 -0.015830837 0.10632275 0.10230728 -0.09079884
0.09840062 -0.44673535 0.05007235 0.30919057 0.2914808 -0.2971979 1.7295105 -0.29447773
-0.34184945 0.019437835 0.2031929 -0.15315501 -0.069494255 0.07198881 -0.18853982 0.019273683

fc_enc.bias f4 [64]
00000000: 42cf 09be 5d1e 26be 0c6b 2ebe 6eb0 00be
00000010: 3bfa e93d 1ef6 5f3e 6122 043d b711 68be
00000020: c1c6 653d 273f 64be ddc7 7dbe 2287 46be
00000030: 3ee8 f03d ccfe 253e aea9 3bbe f0a9 9fbe
00000040: 887b b23c ffda 943e ce94 c13d c2ad 53be
00000050: 2cfa 263e 2741 9fbd 39cb 413d d835 77be
00000060: ceed 37be ba3f 123d dc2e e63c cbe8 19be
00000070: 9ba4 173e 4993 d5bd 30c8 bcbd 4962 7e3d
00000080: 9311 03be 5120 f9bd e326 18bb 0f41 32be
00000090: 883a 8f3e fe1a 59be e241 a53d 47de 8bbe
000000a0: 22f8 13be 1944 da3d 2c1c 50be 210e a5be
000000b0: 62b1 0d3e 26ca 5dbe 1f7e 83bd fd6c 1f3e
000000c0: b7f8 30be a922 8d3d 8774 ed3c 5d08 54be
000000d0: 96aa b73d 1513 773d 17ee f2bc e131 f03d
000000e0: 87c0 8cbe 8fce 18be 49d3 923d 1bb2 893e
000000f0: 80e4 1f3d a36a 473c 0545 1b3d 74e6 12be
-0.13457969 -0.1622252 -0.17033023 -0.12567303 0.11424681 0.2187123 0.03225935 -0.22663008
0.05609775 -0.22289716 -0.24783273 -0.19387487 0.11763047 0.16210479 -0.18326446 -0.3118434
0.02178742 0.2907333 0.0945221 -0.20671752 0.1630637 -0.07776099 0.04731295 -0.24141634
-0.17961809 0.035705306 0.028098516 -0.1503021 0.14808886 -0.10428483 -0.0921787 0.06210545
-0.12799673 -0.12164367 -0.0023216538 -0.1740763 0.27974343 -0.21201703 0.08069207 -0.27318022
-0.14450124 0.1065752 -0.20323247 -0.32237342 0.13837197 -0.21659145 -0.0642054 0.1556892
-0.17282377 0.068913765 0.028986229 -0.20706315 0.089680836 0.060320932 -0.029654546 0.11728264
-0.27490637 -0.14922546 0.07169206 0.26893696 0.039036274 0.01217142 0.03790762 -0.14345723

fc_dec.weight f4 [234, 64]
00000000: 0eae 44bd 6254 ae3d 5bd4 413e 931b da3d
00000010: 9f96 2cbe 3583 33bb ff22 08be 50f7 923d
00000020: d36d 15bc e744 fabc 14a4 563d 5264 1ebd
00000030: 479f 843c 62cd ebbd 757e 3e3d 97a8 723d
00000040: b4bc a5bd 05cf bcbd e387 f0bd e490 fb3d
00000050: 9797 06bd 32fc 373d d0cb 09bd 710e 0cbd
00000060: fc0c c53b 74fc 0d3d 7bf3 ea3c 58da 643d
00000070: 88da 35be 7314 883d e53f 833d 8170 cebd
00000080: ab3e 493c 6cc3 763d 6174 27be 41d2 1e3c
00000090: f571 74bd 2035 373d 1be9 dc3b d3dc 5fbc
000000a0: 90e8 ba3d 1060 833c 9771 40bd be36 ce3c
000000b0: 700a 78bd e418 123d eb39 bdbd e66e 6c3c
000000c0: bed5 0b3d 46c1 b0bd 0139 773c 801e ce3d
000000d0: 5072 afbd 5bf6 86bd 0dfb 7bbd 9e5d 9a39
000000e0: 6978 d43d 8d91 ae3b 99cf eb3d dacc f7bd
000000f0: 0094 2abe 96a6 0b3d 6416 45bd 24aa b2bc
00000100: 82eb 123e a68b b93e eb7f 81be e17e d4bd
00000110: b03f 983e 3ef4 8d3e 73c0 a53e e9bd ca3c
00000120: 6bd2 96bc f308 ab3e 6de2 a23e 9de1 603d
00000130: 5e04 70bd c41b 1cbc b8f0 fc3d 2c01 533d
00000140: 02f5 813b 3b2d 6f3e 497e c33d 8dff fd3d
00000150: 99b5 57bd e262 36bd bcb8 5c3e 8693 c23d
00000160: 6bb9 d43d acf7 a53e c2af 81be 8739 2dbe
00000170: fe76 723e e6dc ebbd 34c3 d03c 34e2 723d
00000180: 3f19 98bd 9d61 7abd e003 cd3e 5423 8b3c
00000190: cab4 563d d41d 123e 0a4c f73c 9c8f 343e
000001a0: ce7b 94bd 16d2 7abc 72c4 233d 2131 b83d
000001b0: ac99 8fbe 3745 5e3e 820d f93d 6b27 c43d
000001c0: 04b1 a73c 1dc7 febd b0ab 01be 84aa 48bb
000001d0: 9a2a 893e 1e8c 6e3d 7fea 0ebc 8e1a 28be
000001e0: 3ffe ddbc 169e 573e 62fe 49bd ab11 2a3e
000001f0: 1012 023e 377b 47bd 9678 9ebd 3087 2cbd
00000200: 3324 b9bc bcca cb3d eb5b 073e 111a b43d
00000210: db97 383e 8eb0 47bd 23f9 013e 447f 20bc
00000220: 0b88 5cbe da27 1a3d 3ea8 bcbd 0e29 f73d
00000230: 6d52 f43d d86b d8bd c478 033c c72f e9bd
00000240: 9004 653d eb71 14be af91 063e a5f5 7dbd
00000250: 74b9 1d3e aafc de3d 1342 babc aa1f e7bd
00000260: e1f1 483d 0330 2cbd a500 d93d 281a 093d
00000270: eb38 aa3c 5fe5 c03d e6fe 1d3d 405d f43c
00000280: 2479 a23d e3b6 97bd b14a 5bbd f591 533d
00000290: 0069 a53c 760d 3f3e d17b a23d 9025 113e
000002a0: e926 473b 19fd 56bd c77c 513d af7d e6bd
000002b0: f6e3 823e 800f 3cbe 3bda 35bd 88fa 37be
000002c0: 4c29 32bc 742e febd 86aa 6b3d cba9 b63c
000002d0: 4bca ac3c 6aae 263d b08a aabd a527 583d
000002e0: 690b aa3d fb9f cbbd add9 c93c 91ed 9bbd
000002f0: ae52 043e 003c 35be 6ae8 50bd e6cd ddbc
00000300: 046b 463e b4a8 5dbe af64 77be 99d4 2dbe
00000310: 6772 c93e 0d23 183e 5205 473d 15cb 843e
00000320: c29b 5f3e c750 1dbc 1ef3 243e 4cd8 e0bb
00000330: 00f5 38be c4a0 3a3e 879f 243e 6071 29bd
00000340: ee9f c23d e9eb 813e 9b22 77be b7ba 63be
00000350: 38f4 1dbe e5b1 a53d c92c c03e 981a c13d
00000360: 7e3f 503d 0727 f83d 4c5e d6be e885 013e
00000370: a280 343e d7ad 293d 2b0a d63d f610 d73d
00000380: c18c 013e 8216 11be 034d 2e3d b7be b73c
00000390: 46a3 e2bd 58fc bc3d 38ea 5dbe 5b85 a83d
000003a0: ebeb 973d b062 3d3e c880 8cbe 00ed a63e
000003b0: 0e69 91be c30a 1b3f 9c94 653c 4355 ea3c
000003c0: 04be 6f3e 2713 523e d88d 0fbe cc1c bfbd
000003d0: 0e63 c23e 718c 1e3e 4bf3 153e f516 63be
000003e0: 1b5c 28bd 7dfa 923e 354d 83be 8c1a 463e
000003f0: b105 3cbd aa2a 763e 24ee 69be 715e 5f3d
-0.048017554 0.085121885 0.18928663 0.106497906 -0.16854332 -0.0027391438 -0.132946 0.07176077
-0.009120422 -0.030550433 0.05240257 -0.03866989 0.01618923 -0.11513783 0.046507318 0.05924281
-0.08092633 -0.09219173 -0.11744668 0.12283495 -0.03285941 0.044918247 -0.033641636 -0.03419346
0.0060135107 0.034664586 0.028680554 0.05587229 -0.17759144 0.066445254 0.06408671 -0.10080052
0.012283008 0.060244963 -0.16352989 0.009693683 -0.05967899 0.0447284 0.0067416555 -0.013663488
0.09126389 0.016037017 -0.046983328 0.025172587 -0.06055683 0.03566827 -0.092395626 0.014430737
0.034139387 -0.08630614 0.015089274 0.10064411 -0.08566725 -0.06589957 -0.061518718 0.0002944292
0.10374529 0.0053274096 0.115142055 -0.12099619 -0.1665802 0.034094416 -0.048117056 -0.021809645
0.14347652 0.36239356 -0.25292906 -0.10375763 0.2973609 0.27725405 0.3237339 0.02474876
-0.018410882 0.33405265 0.31813374 0.05490266 -0.058597915 -0.009528104 0.12350601 0.05151479
0.003965975 0.23357098 0.09545571 0.12402258 -0.05266342 -0.044527896 0.21554846 0.09500794
0.10386928 0.3241552 -0.25329405 -0.16916476 0.23678204 -0.115167424 0.025483705 0.059297755
-0.0742669 -0.061128248 0.4004202 0.01698462 0.052418508 0.14269191 0.030187625 0.17632908
-0.07250176 -0.015308877 0.039982267 0.089937456 -0.2804693 0.21706091 0.121607795 0.09577831
0.02047015 -0.124403216 -0.1266315 -0.0030619213 0.26790315 0.058239095 -0.0087229 -0.1641638
-0.027098773 0.21056399 -0.049314864 0.16608302 0.12702203 -0.04870149 -0.07737844 -0.042121112
-0.022600269 0.09950778 0.13218658 0.08794034 0.18026678 -0.04875236 0.12692694 -0.0097959675
-0.21536271 0.03763566 -0.09211777 0.120683774 0.11929784 -0.105674446 0.008024398 -0.11386066
0.055912554 -0.14496581 0.13141511 -0.062001843 0.15402776 0.108880356 -0.022736585 -0.11285336
0.0490588 -0.042037975 0.10595826 0.03347221 0.020779094 0.09418749 0.03857317 0.029829621
0.07933262 -0.0740793 -0.05353803 0.051652867 0.02019167 0.18657479 0.07933772 0.14174485
0.0030388182 -0.052487466 0.051144388 -0.11254441 0.25564545 -0.18365288 -0.044397574 -0.17966664
-0.010874104 -0.12411204 0.05753567 0.02229776 0.021092555 0.040693678 -0.08327234 0.052772183
0.083029576 -0.09942623 0.024639929 -0.076136716 0.12922165 -0.1769867 -0.051002897 -0.02707572
0.1937676 -0.21646386 -0.24159501 -0.16975631 0.39345095 0.14857121 0.04858906 0.2593619
0.2183676 -0.009601778 0.16108367 -0.006861722 -0.1806221 0.1822539 0.1607648 -0.04136789
0.095031604 0.25375298 -0.24134295 -0.22239195 -0.15425193 0.08090571 0.37534168 0.094289005
0.0508418 0.12116819 -0.41868818 0.12648737 0.17627195 0.041425552 0.10451158 0.10501282
0.1265135 -0.14168742 0.042553913 0.022429807 -0.11066298 0.09227818 -0.21671379 0.082285605
0.07418045 0.18494678 -0.27442002 0.32602692 -0.28400463 0.60563296 0.014012482 0.02860511
0.23412329 0.20515119 -0.14018953 -0.093316644 0.37966198 0.15483262 0.1464359 -0.22176726
-0.041103464 0.28706732 -0.25644842 0.19346064 -0.045903865 0.24039713 -0.2284475 0.054533426

fc_dec.bias f4 [234]
00000000: 9393 6d3e f6f7 b93e daf7 363f bf4b ba3d
00000010: 7062 573e 3501 e6bd d108 6a3d fa1d f13c
00000020: cbd2 a43d da99 efbd ae52 403e f435 153f
00000030: 5ab7 c03d 9245 763e c1d7 d13e c4ce 793d
00000040: 7a8f 0dbd 1d4e 4fbe 69b7 59be 8e91 283d
00000050: 070b 5e3e e571 223e cecc f9bd 5201 d33d
00000060: c779 043f f722 963e 24e0 ba3e 4fbb a73e
00000070: 3291 82bd 5243 093e 457b 063e 6fc4 fcbd
00000080: 77a6 abbd f53f 89be 188d 31be 91c5 643d
00000090: 8d17 35bc 462c 22be c453 5f3e f392 033f
000000a0: 258c 85bd d4bf 703e 7fde a7be 8a2b 83bd
000000b0: e6a2 42be 02d6 d1bd 6dbb cd3d a566 2fbe
000000c0: e200 9dbd 5503 e63d 2fa3 043e 393b 953e
000000d0: a06d 343e 5375 a23d 5d0a dbbc 8695 a3bd
000000e0: 6092 0ebd 29f1 74bd 397c 8c3d 0deb 5ebe
000000f0: d31c 13be 456a 47bd 6f2b 8cbc 3837 a73e
00000100: 6175 1a3d 18d2 d23e 2f6a a0bd 4f77 303d
00000110: 9beb c63c 5926 11bd 561e 25be bf0c 4abe
00000120: b713 463d 620d 7b3c 1a4f 31bb 1579 443e
00000130: bf57 b13d 5635 d63e 45f0 ce3e 2087 da3d
00000140: 4ec7 a83c 0d2a e13d 1512 2a3d bfd7 35bc
00000150: 46ea 23be 633b afbc 7436 6b3d 55a2 583e
00000160: e3c8 873e 1b5a 893e 693b ec3e 056a a93e
00000170: c4b1 053e 925f 59bd 0f8b cb3d a594 78bc
00000180: 35e5 15bb 3169 643d 31b3 4f3e 1bc8 633d
00000190: be33 5a3e ace0 1f3e a4f8 103f f028 8d3e
000001a0: d04c 8c3e 2607 9e3e 0a34 e13e b5a2 69be
000001b0: 9749 8f3e d62d 7ebe 9539 9e3e 86c0 8cbe
000001c0: 3132 3c3e 8072 fe3d a6ad 4d3e ccf6 f53e
000001d0: 6847 893e 1fd0 8fbf e0cd 69bf b9bd 28bf
000001e0: bc62 91be 5c37 4bbe 0481 5dbe 6da0 6cbe
000001f0: 7aad 93be 3bb0 88be 859f 18be 12b1 14be
00000200: ab00 52bf b264 10bf 43c7 0cbf 6e9a e7be
00000210: 8b85 03be 875a 6abe fcf7 13be 03aa 173c
00000220: 0570 103e f342 df3d ac76 203e 5ba2 253e
00000230: 2e11 4e3e 112f 8ebe d250 81be c168 09bf
00000240: 8ad1 7abd ca29 e5bd 9f9e 5d3e 8e41 5a3e
00000250: 9d78 003f ddf5 ba3e fa26 c73e 7196 0b3f
00000260: 59a0 873e 22f4 7e3e cbdb 813e a57d cfbe
00000270: 2f01 8cbe 63c5 07be bf52 3b3c d7b4 9e3e
00000280: d74c 853e 694c 063f a74c c73e 6376 083f
00000290: 019a 353f 45c6 b63e 7115 b83e 2346 79bc
000002a0: 85b4 b5bd e391 2abe 63fc 80bd 7b5b ae3e
000002b0: 35c2 ac3e 010e 1c3f 0fb5 123f 40e4 0c3f
000002c0: 9a0b 133f 0eaa bb3e 653a b13e 5e7f 953e
000002d0: 74e7 803e bdf5 71be e420 0cbf fade 79be
000002e0: a6f0 1c3e 0c90 413e ba1c 023e 2bcd 013f
000002f0: e748 123f a9f9 b43e dae1 043f 8737 843e
00000300: 3e0b 8b3e a6a0 183c bdcc e2be 1e09 03bf
00000310: c28c 79be 2afb 243e 5e70 253e 201f 0f3f
00000320: 4c04 e03e 5d00 883e 0aa5 113e 0f6a 023d
00000330: 5ebe f3bd 4dd1 f1bc 5df9 a1be 97d1 adbe
00000340: bf25 19bf 8054 06bf 5c8a c5be 440a 6a3e
00000350: bfed 2cbe 3516 b33d 2d31 9abd df62 113e
00000360: 09a1 333d 211f f53d f2a0 79be ca19 02bf
00000370: f04f 97be 4440 e1be 0520 01bf 7c24 39bf
00000380: 0e8a 8abe f428 98bd a4c5 1f3e 7663 90be
00000390: 0bbf 193e ca56 bebe a85e 3ebe d702 02bf
000003a0: 9341 f2be 8cad 28be
0.23200826 0.36321992 0.7147194 0.09096479 0.21033645 -0.11230699 0.057137314 0.02943324
0.08048018 -0.11699267 0.1878154 0.5828545 0.094099715 0.24049976 0.4098492 0.060988203
-0.034560658 -0.20244642 -0.21261372 0.041154437 0.21683894 0.1586376 -0.121972665 0.10302986
0.5174832 0.2932355 0.3649913 0.32760093 -0.0637535 0.13404587 0.13132961 -0.12342154
-0.0838136 -0.26806608 -0.17338979 0.055852477 -0.011052978 -0.15837201 0.21809298 0.513961
-0.06520871 0.23510677 -0.3278694 -0.06404789 -0.19007453 -0.10245897 0.10045514 -0.17129
-0.07666184 0.11231104 0.12952875 0.29146746 0.17619944 0.07932534 -0.02673834 -0.07987504
-0.034807563 -0.0598003 0.06859631 -0.21769352 -0.14366464 -0.04868533 -0.017110555 0.32659316
0.037709597 0.41175914 -0.07832753 0.04308253 0.024282267 -0.03543696 -0.16124853 -0.19731425
0.048358645 0.015323015 -0.0027055205 0.19186814 0.08659314 0.41837567 0.40417686 0.10670304
0.020602848 0.10994349 0.04152115 -0.011098801 -0.16007337 -0.021390622 0.057424977 0.21155675
0.26520452 0.26826558 0.46139076 0.330887 0.13056093 -0.05306966 0.09938633 -0.015172158
-0.0022872214 0.05576438 0.202832 0.055610757 0.213088 0.1561305 0.56629395 0.27570295
0.27402353 0.3086483 0.43985015 -0.22815974 0.27985832 -0.24822173 0.30903307 -0.27490634
0.18378522 0.12424183 0.20085773 0.48039854 0.2681229 -1.1235389 -0.91329765 -0.65914494
-0.2839564 -0.19845337 -0.21631247 -0.23108073 -0.2884329 -0.26696953 -0.14904602 -0.14520672
-0.8203227 -0.5640365 -0.5499155 -0.45235008 -0.12843911 -0.22886096 -0.14450067 0.009256843
0.14105232 0.109014414 0.1567027 0.16175215 0.20123741 -0.27770284 -0.25256974 -0.53675467
-0.06123499 -0.11189611 0.2164254 0.2131407 0.5018404 0.36515704 0.38896924 0.5452643
0.26489523 0.24897817 0.25363 -0.40525547 -0.27344653 -0.13258891 0.011433302 0.30997345
0.26035187 0.5246034 0.3892567 0.53305644 0.70938116 0.35698143 0.35953858 -0.015214476
-0.08872322 -0.16657214 -0.06298139 0.3405417 0.33741918 0.6095887 0.57307523 0.5503578
0.5743958 0.3665318 0.34614864 0.29198736 0.25176585 -0.23628898 -0.5473769 -0.24401465
0.15326175 0.18902606 0.12706271 0.50703686 0.5714249 0.35346726 0.5190712 0.25823614
0.27157015 0.009315645 -0.44296828 -0.51185787 -0.24370101 0.16111436 0.16156146 0.5590687
0.43753278 0.26562777 0.14223114 0.031839427 -0.11901544 -0.029518748 -0.31635562 -0.33948967
-0.5982322 -0.52472687 -0.38582122 0.22855479 -0.16887568 0.0874447 -0.07528911 0.14197873
0.043854747 0.11968828 -0.24377802 -0.508206 -0.29553175 -0.43994343 -0.5043948 -0.72321296
-0.27058452 -0.07429686 0.15602738 -0.28200883 0.15014283 -0.3717559 -0.18590796 -0.50785583
-0.47315654 -0.16472453

dec1.kernel0 f4 [4, 2, 3, 1]
00000000: 8ad8 0d3f 76f6 92bf a74d a2bf 56d4 433f
00000010: a565 b93f 2b06 f4be bf14 df3e 0152 cfbe
00000020: f7b7 2fbe 7786 003f 989b 8b3f 416b c3bd
00000030: c6d2 3a3f e274 0a3f a777 1fbf 21a5 f3bd
00000040: 8806 db3f 59c8 46bb bea0 d03e 84a7 86be
00000050: f0bb 94bf eb70 1dbf 4a95 123f f6ad 1cbf
0.5540854 -1.1481464 -1.2679948 0.76495874 1.4484144 -0.47660956 0.43570516 -0.40492252
-0.17160021 0.5020518 1.0906858 -0.095419414 0.72977865 0.540846 -0.6229195 -0.1189673
1.7111368 -0.003033182 0.40747637 -0.2629968 -1.1619854 -0.61500424 0.5725905 -0.61202943

dec1.kernel1 f4 [4, 2, 2, 2]
00000000: 195b 10be 7adf 69be 47dd b43d 26a5 cbbe
00000010: cdd2 1c3f b929 4ebe e576 fa3d ad3f a6be
00000020: 2924 103d addc 003e 750e ab3e 2347 edbe
00000030: 7d2c 883e 0a15 c7bc dd34 86be ee4f b6bd
00000040: c0b0 3d3e 086e 5ebe 466d 953d 7c24 fbbe
00000050: 8b69 d5be 2555 823e a46d 2f3e fbfb d5be
00000060: f286 66be 3b38 ac3e 5c7c aebd 8e30 553f
00000070: 940b 9a3f 2fe1 9bbe a096 a93e 1572 253f
-0.14097251 -0.22839156 0.08831268 -0.39774436 0.61259156 -0.20133103 0.122297086 -0.32470456
0.035190735 0.12584181 0.33409467 -0.46343336 0.26596442 -0.024302024 -0.26212206 -0.08901964
0.18524456 -0.21721661 0.07296233 -0.49051273 -0.41682085 0.25455585 0.17131668 -0.41793808
-0.22512415 0.3363665 -0.085198134 0.83277214 1.2034783 -0.3044524 0.3312273 0.646272

dec1.bias_tensor f4 [4]
00000000: 1d8c 423c b691 0a3d 8841 1d3c 72b1 ad3c
0.011874226 0.033830367 0.009598143 0.021202777

bn3.weight f4 [4]
00000000: cce6 313f 7e3b 683f 86c4 383f 95f4 0b3f
0.69492793 0.9071578 0.7217487 0.5467008

bn3.bias f4 [4]
00000000: bc46 08bf 907f 8fbf a396 69bf cc25 47bf
-0.5323293 -1.1210804 -0.9124548 -0.7779205

bn3.running_mean f4 [4]
00000000: 1b84 343e ec4d e6be 4926 16bf 25f8 9bbe
0.17628519 -0.44981325 -0.5865217 -0.30462757

bn3.running_var f4 [4]
00000000: 8c12 7842 408c 8141 b0ee 7341 1fc0 8c41
62.018112 16.193481 15.245773 17.59381

dec2.kernel0 f4 [1, 4, 5, 1]
00000000: d936 033e 0543 21be 4189 703f 9d75 a33e
00000010: 7500 cdbe d7cb 2dbf 40a5 4b3d ac71 6b3e
00000020: 20ad 34be 2a84 3b3e 4813 5f3e 1856 10be
00000030: 89fd 68bf 3bec 973d c8ec a93e 4a04 3cbe
00000040: 95bd 963d 3d25 0bbf 7440 9ebe 4a27 e33e
0.12813891 -0.15748222 0.9395943 0.3192567 -0.4003941 -0.6788916 0.04971814 0.22992581
-0.17644167 0.18312135 0.21784699 -0.14095342 -0.91011864 0.07418104 0.33188462 -0.18361011
0.07360379 -0.54353696 -0.3090855 0.44365913

dec2.kernel1 f4 [1, 4, 4, 2]
00000000: 1dc3 1ebe cef3 783c 7488 793e 2a0a 57bc
00000010: 7d17 8a3e 3163 a23e a401 083c b3f2 f83d
00000020: b9d1 48be f371 20be 0c04 143f 6683 1dbe
00000030: 5ed5 8cbd 62df aebe 0ae8 ccbd ff87 bb3b
00000040: d242 173f 0960 d33c f6f2 d7be 7a82 aebd
00000050: bf85 ebbe d11b 4b3e 75ef b13d 911e 0bbe
00000060: 8c55 5abb b989 683c 66f4 97be f742 5f3e
00000070: 28ad abbe 45be 0abe 0491 2d3e da4a 32be
-0.15504117 0.015194846 0.24368459 -0.013124982 0.26971045 0.31716302 0.008301172 0.12155666
-0.19611253 -0.15668468 0.57818675 -0.15382156 -0.06876634 -0.34154803 -0.100051954 0.005722999
0.59086335 0.025802629 -0.42177552 -0.0852098 -0.46000478 0.1983483 0.08688251 -0.13585879
-0.003331515 0.014192992 -0.2967865 0.21802889 -0.33530545 -0.13549145 0.1694985 -0.17411366

dec2.kernel2 f4 [1, 4, 3, 2]
00000000: 0425 89bd 07f0 0dbd 73ac 9fbd d1a1 d63c
00000010: fe4f 803d f1a7 7ebe 9a30 9dbd acbe 5b3e
00000020: 9e79 df3e e117 1cbe b152 dfbe 3b54 623e
00000030: 9831 923e 33b1 3fba b0ed 913e 86c4 493e
00000040: e1b7 24be cf31 bcbd 68f5 e43d eb1a dc3d
00000050: 5440 8c3d 9cea 133f 5b8f 41bd 6df4 20be
-0.06696513 -0.034652736 -0.07796564 0.026200207 0.06265257 -0.24868752 -0.07675286 0.21459454
0.43647474 -0.15243484 -0.43617776 0.22102444 0.28553462 -0.00073124765 0.28501654 0.19703874
-0.16085769 -0.09189188 0.1117962 0.10747322 0.06848207 0.5777986 -0.047255855 -0.15718241

exp_avg f4 [4, 1, 5, 1]
00000000: d809 7bb8 3aee 90b8 d0fe 24b8 1b20 cdb7
00000010: b784 07b8 d5a1 5fb7 c199 9cb6 cf49 73b7
00000020: 62cb 37b7 ac4a 64b7 5aa9 c7b6 4574 1237
00000030: 0374 1337 0570 70b7 f54f 79b8 3f28 0bb5
00000040: ccbf 6a37 560b b737 4e4e 0c38 5f2e 96b5
-5.985223e-05 -6.910828e-05 -3.933796e-05 -2.4452855e-05 -3.231011e-05 -1.3329515e-05 -4.6670616e-06 -1.4501114e-05
-1.0955004e-05 -1.3607245e-05 -5.9503773e-06 8.729349e-06 8.788894e-06 -1.4331196e-05 -5.9440692e-05 -5.18401e-07
1.3992143e-05 2.1820579e-05 3.3451528e-05 -1.1189367e-06

exp_avg_sq f4 [4, 1, 5, 1]
00000000: cca7 fb34 9ce4 8434 8939 9033 b385 5233
00000010: e3b5 6c34 d637 cc34 51c4 4d34 367e e633
00000020: ef9f da33 4e24 e133 0acc 5234 ac39 1133
00000030: 038c 8d32 00c1 4e33 c721 4534 ca1f 8433
00000040: 3c06 9433 bb97 ab33 8549 bd33 0bdc c233
4.6874482e-07 2.475325e-07 6.715988e-08 4.9016034e-08 2.2045383e-07 3.8038587e-07 1.9163532e-07 1.0733167e-07
1.0180508e-07 1.0483983e-07 1.9632003e-07 3.3812896e-08 1.647823e-08 4.8138645e-08 1.8359343e-07 6.1525114e-08
6.892921e-08 7.9904076e-08 8.8143715e-08 9.0738546e-08

exp_avg f4 [4, 1, 4, 2]
00000000: 5ff4 d8b8 7c9a 86b8 7913 a8b8 a25b 59b8
00000010: 6719 20b8 7d09 35b8 c19b 1bb6 e681 49b7
00000020: 3d92 5db7 1076 24b7 c52e 3437 4cf6 59b7
00000030: 8d16 1136 72f6 a436 5bbd 31b7 d440 1ab7
00000040: f121 4db8 8cb3 c937 35a7 13b8 9228 bf37
00000050: 4a28 36b8 6bf8 8937 03e1 7cb8 279c b7b7
00000060: 8cf3 93b7 512f 5737 7d21 1d37 714e be37
00000070: 9b9b c837 84f3 7a37 da31 e536 de10 0f37
-0.000103452 -6.418393e-05 -8.014491e-05 -5.182217e-05 -3.817063e-05 -4.31626e-05 -2.318746e-06 -1.2010778e-05
-1.3206675e-05 -9.80265e-06 1.0739725e-05 -1.2991553e-05 2.161981e-06 4.916271e-06 -1.059411e-05 -9.194209e-06
-4.890742e-05 2.4044675e-05 -3.5203255e-05 2.2787866e-05 -4.3429704e-05 1.6447351e-05 -6.029104e-05 -2.1888014e-05
-1.7637176e-05 1.2826015e-05 9.365726e-06 2.2686292e-05 2.3914317e-05 1.4957859e-05 6.8305353e-06 8.527391e-06

exp_avg_sq f4 [4, 1, 4, 2]
00000000: 2ee7 cd34 58f4 0935 1e7a 1334 643e 9334
00000010: 1f83 3333 d6b3 ef33 c5df e433 c92a 1b34
00000020: 518f 9834 39a1 9c34 dbe0 5d34 7ac9 f933
00000030: c382 3b34 1867 9d33 7997 1f34 e6bc ae33
00000040: 3871 0634 063e 4534 6efc 2033 fa2e 8c33
00000050: 42bc aa33 068f 3133 be9e 8434 00e6 7b33
00000060: b123 6633 b51c c233 633c 8d33 3225 d033
00000070: 3efc ad33 dfac cd33 879e ba33 8ddc e033
3.835243e-07 5.1392044e-07 1.3734868e-07 2.742628e-07 4.179594e-08 1.1162017e-07 1.0657781e-07 1.4451065e-07
2.8416483e-07 2.917457e-07 2.0664031e-07 1.16316144e-07 1.7463303e-07 7.329635e-08 1.4863134e-07 8.136867e-08
1.2520911e-07 1.8369619e-07 3.7482486e-08 6.527803e-08 7.950486e-08 4.1341103e-08 2.4702416e-07 5.8649675e-08
5.358351e-08 9.039051e-08 6.5768084e-08 9.6925206e-08 8.101823e-08 9.5775015e-08 8.690136e-08 1.0470931e-07

exp_avg f4 [4, 1, 3, 2]
00000000: 3d15 f8b8 f1d7 aeb8 4e20 a6b8 0ad0 8fb8
00000010: 0df8 2bb8 0ca4 29b8 c561 38b7 6869 97b7
00000020: 985b fc36 dc65 5a37 bf1b afb7 4e7a 6337
00000030: 3eda efb8 89ff 9037 413d a7b8 d6ff 0238
00000040: 959d e8b8 688b 9e37 7c0a dfb6 60fb aa37
00000050: 2f14 6037 0620 e537 87a1 7e37 7d85 f537
-0.000118295175 -8.337189e-05 -7.921514e-05 -6.857522e-05 -4.1000592e-05 -4.044552e-05 -1.0990018e-05 -1.8049686e-05
7.520848e-06 1.30175285e-05 -2.0874546e-05 1.3558731e-05 -0.00011437059 1.728513e-05 -7.97459e-05 3.123268e-05
-0.00011091974 1.8899984e-05 -6.6471384e-06 2.0382635e-05 1.335614e-05 2.731384e-05 1.5177188e-05 2.9268436e-05

exp_avg_sq f4 [4, 1, 3, 2]
00000000: 121d 8734 9fe9 0e35 17e0 0234 718b c234
00000010: 309f e333 f6e1 7834 eae8 9b34 6fc5 9d34
00000020: 31c5 8434 abe3 0734 e571 7534 3a86 c533
00000030: f6f5 8834 7c68 8234 023d 9d34 0fa7 f133
00000040: cec1 d834 46dc aa33 a4c2 5633 2e58 5734
00000050: 1176 8433 f694 3034 5e3c 9e33 0bd4 1934
2.516686e-07 5.3239086e-07 1.2188717e-07 3.6236773e-07 1.0599467e-07 2.3179004e-07 2.9040467e-07 2.938718e-07
2.4730392e-07 1.265568e-07 2.2858838e-07 9.197943e-08 2.5510934e-07 2.429041e-07 2.9287918e-07 1.1252825e-07
4.0374147e-07 7.9563094e-08 5.0002782e-08 2.0055515e-07 6.168205e-08 1.6445469e-07 7.368429e-08 1.4326376e-07

exp_avg f4 [4]
00000000: 6f89 112f 54b7 26af 0492 5a2f 7cfb 612e
1.32365e-10 -1.5162743e-10 1.987886e-10 5.138244e-11

exp_avg_sq f4 [4]
00000000: d3b4 a221 96d0 9f20 86b7 2c21 e25f e220
1.1025411e-18 2.7073678e-19 5.851876e-19 3.834934e-19

exp_avg f4 [4]
00000000: 646c f8b9 22e5 2b39 f697 b6b9 e7ad e4b8
-0.00047383003 0.0001639319 -0.00034826965 -0.00010904279

exp_avg_sq f4 [4]
00000000: 099a 6237 9233 3336 2cd7 9236 799f 4735
1.3506514e-05 2.6703096e-06 4.3761884e-06 7.436534e-07

exp_avg f4 [4]
00000000: 3379 273b bf88 253a d4ac cc3a a03d 32b9
0.0025554418 0.0006314627 0.0015615472 -0.0001699836

exp_avg_sq f4 [4]
00000000: 6198 283a 7c38 dc37 6e34 3539 b74c 1436
0.00064313976 2.6252346e-05 0.00017281037 2.2098372e-06

exp_avg f4 [2, 4, 3, 1]
00000000: f5fc 05b9 7d12 e937 2251 2038 103c bd38
00000010: 1e21 4438 510c b638 0e2c d5b8 4155 1cb9
00000020: 21f6 9838 2329 6fb8 f818 cc38 519e 8037
00000030: 0c2b 2235 abe4 c238 3bc3 28b8 5f25 9bb8
00000040: 7d8c ebb8 f7b6 3d38 8fe0 0ab9 c3a3 f538
00000050: 0999 1739 d267 9238 0392 59b7 890d 19b9
-0.00012778102 2.7784374e-05 3.8222533e-05 9.02341e-05 4.6760884e-05 8.6807304e-05 -0.00010164837 -0.00014909079
7.29377e-05 -5.7020352e-05 9.732129e-05 1.533251e-05 6.0412344e-07 9.2932336e-05 -4.0236144e-05 -7.397937e-05
-0.00011231841 4.523151e-05 -0.0001324436 0.000117130134 0.00014457492 6.9811605e-05 -1.2968204e-05 -0.0001459626

exp_avg_sq f4 [2, 4, 3, 1]
00000000: aca7 4234 8c49 9934 20a9 7f34 5f85 6434
00000010: f606 8634 d1dd 4034 af57 0435 7c5f 3335
00000020: cd4f 4b35 16a4 f833 d30c 7934 6217 3934
00000030: cc39 8635 fde1 cf34 c111 5234 5969 ba36
00000040: 8422 9436 47f3 6935 ec63 2237 8c40 b135
00000050: 4efe 0436 9f3a 9834 929d 1b34 9200 3035
1.8128657e-07 2.8551983e-07 2.3810253e-07 2.1282675e-07 2.496451e-07 1.796209e-07 4.930143e-07 6.6821644e-07
7.573952e-07 1.1578247e-07 2.3194598e-07 1.7237974e-07 1.0000599e-06 3.8721183e-07 1.9564233e-07 5.555496e-06
4.414762e-06 8.715328e-07 9.679217e-06 1.3206313e-06 1.9817558e-06 2.835486e-07 1.4492824e-07 6.556594e-07

exp_avg f4 [2, 4, 2, 2]
00000000: 50cf 17b8 dd92 72b8 04a4 b938 9750 e538
00000010: 97ba 44b8 4f4f bd38 af8a 9c37 309e d938
00000020: c307 38b9 2968 28b7 d83b 00b8 caa1 4d38
00000030: e795 8436 47d2 4838 606a 8437 41b6 e338
00000040: ac58 a4b8 dd94 0936 c11e 98b8 bed0 ca38
00000050: 3d7e 0db8 a6be 2fb9 8407 2039 9dee 0ab9
00000060: 04e9 16b9 d271 08b7 c4cf 14b7 e8e8 8038
00000070: b54c 2ab8 7a8f f3b8 82e1 80b7 76ad 68b8
-3.619428e-05 -5.7834073e-05 8.852038e-05 0.00010934582 -4.6903817e-05 9.026995e-05 1.8661229e-05 0.00010376831
-0.00017550499 -1.0037832e-05 -3.0573312e-05 4.9026487e-05 3.9513575e-06 4.7879552e-05 1.5785161e-05 0.00010858151
-7.836646e-05 2.050124e-06 -7.253653e-05 9.670992e-05 -3.373459e-05 -0.00016760323 0.00015261589 -0.00013249596
-0.0001439192 -8.132733e-06 -8.869862e-06 6.146898e-05 -4.0602597e-05 -0.000116138675 -1.53638e-05 -5.547466e-05

exp_avg_sq f4 [2, 4, 2, 2]
00000000: 126c 7a34 12ae 4233 8863 7434 d903 9734
00000010: 7c73 0b34 a579 b134 6904 4234 c928 a834
00000020: ea1b 5a35 24b1 3b34 09a0 8435 c03b 8234
00000030: 90ae e233 c847 8234 00fc ff33 1c86 b934
00000040: e49d 7a35 b502 5135 e085 2235 ab48 9134
00000050: bf93 1f36 3c36 de36 e100 7934 55d1 b736
00000060: 1733 ca36 e5fe 3637 a997 9f35 bda9 0936
00000070: e320 1834 d746 b434 9cc7 e033 7b7c 4e35
2.332238e-07 4.532746e-08 2.276048e-07 2.812874e-07 1.2987397e-07 3.3057327e-07 1.8069262e-07 3.1322114e-07
8.125195e-07 1.7480176e-07 9.881343e-07 2.425786e-07 1.0555698e-07 2.4266615e-07 1.19202014e-07 3.4556513e-07
9.336202e-07 7.7862506e-07 6.0544517e-07 2.7061228e-07 2.3778846e-06 6.6224293e-06 2.3190252e-07 5.4781945e-06
6.0260168e-06 1.0907393e-05 1.1890562e-06 2.0513392e-06 1.4168067e-07 3.3579155e-07 1.04671216e-07 7.6922123e-07

exp_avg f4 [2]
00000000: ad92 f6ae fa27 0faf
-1.121284e-10 -1.3019977e-10

exp_avg_sq f4 [2]
00000000: 4711 8920 3d2f 4a22
2.3220136e-19 2.7401113e-18

exp_avg f4 [2]
00000000: 483a 9038 35b6 2dba
6.877311e-05 -0.0006626577

exp_avg_sq f4 [2]
00000000: 94d9 4b37 b3ca 9839
1.2150402e-05 0.00029142722

exp_avg f4 [2]
00000000: e765 14bb af77 703b
-0.0022643746 0.003669243

exp_avg_sq f4 [2]
00000000: 667a 8738 c45d 273b
6.4601e-05 0.0025538066

exp_avg f4 [64, 234]
00000000: ae4d 30b5 d85f 69b5 2d8e ddb5 b803 66b7
00000010: 6ff0 88b6 fdbf 86b7 5631 c3b6 8d68 09b7
00000020: ef63 e135 7c40 eb36 710c 1fb5 d85f 69b5
00000030: b87f 11b5 7451 65b5 f470 2ab5 53f5 2fb6
00000040: 10c4 24b7 f41c d9b6 be2c a0b5 09b5 95b7
00000050: 70f6 fb36 a6dd ac37 7d53 f837 f408 2536
00000060: b212 0bb5 fb98 38b5 7451 65b5 7c94 0a37
00000070: 820f 4eb6 c360 77b7 4e67 9b37 d0cb 9e37
00000080: dde2 2537 7279 2238 a941 2b38 bb47 f937
00000090: fe04 a037 9f65 f3b3 fb98 38b5 fa2c b5b5
000000a0: b348 1bb6 e8bd 0037 ac3f c436 6ae2 ce35
000000b0: bdc2 8e37 15b6 2238 e49d 7238 f486 3e38
000000c0: ec61 6bb7 5794 7a37 920d ab36 3b5a 17b5
000000d0: 38e4 2eb7 e50b c3b7 1ec0 6234 148f 9236
000000e0: cabf bb37 5b0e 0b37 9f00 ba37 cbe2 9337
000000f0: 60f6 2437 2331 f235 b5ac 8636 3355 8eb6
00000100: 0bcb d435 6acd 90b5 fd55 28b7 d612 7bb7
00000110: bf1b b3b7 c87e 08b6 d8d9 4ab7 884b 49b6
00000120: bbca 4bb7 9315 8235 e0eb e7b7 de83 9eb7
00000130: de0c 87b7 fcf2 0cb5 1366 60b5 4a51 89b4
00000140: ce46 1cb6 cc41 d4b6 5b06 05b8 35b9 10b8
00000150: d189 46b7 3ca6 1bb8 8946 7bb7 b2d7 8cb8
00000160: ee63 45b8 d5e6 0bb7 67ed 79b5 7451 65b5
00000170: fe8e 86b5 8454 e5b5 7bfd 76b6 706f c0b7
00000180: b355 3cb8 d5f0 23b8 ac1e 00b9 fe68 cfb8
00000190: a307 fab7 fe8e 9db7 2579 64b5 fb98 38b5
000001a0: 7451 65b5 7baa 75b5 37b3 bdb5 1de1 f6b6
000001b0: 6810 8fb7 429b 1cb8 1446 a4b8 0c04 70b8
000001c0: 6bf8 3db8 af37 7635 c341 2b36 7baa 75b5
000001d0: fb98 38b5 733d ceb5 fc3e cab5 09d8 26b6
000001e0: 47d9 15b7 ac11 45b7 a888 1435 f8d2 b2b7
000001f0: 8415 64b6 4e32 1137 64ba ce37 f7c2 29b5
00000200: fc3e cab5 24f3 ddb5 c5ea b5b5 4c57 8ab5
00000210: 9342 9fb6 0c19 45b7 f086 f136 8ffc 4e37
00000220: 9bb2 93b6 da01 af37 7546 a437 7356 0638
00000230: c111 af37 3ee7 ca35 27cf d9b5 c5ea b5b5
00000240: d85a 4636 d159 6037 9ed2 a3b6 0e3b 5ab6
00000250: 65d6 4b37 c627 c637 849b 3338 9916 6138
00000260: 8031 0a35 40df a137 e0f2 a535 27cf d9b5
00000270: 87a9 9eb6 79f3 c1b7 53e6 4f36 53e2 dd36
00000280: 89cc 7d37 fe43 a636 b9f0 c337 6465 ab37
00000290: a820 d537 aa9a 0335 728c 9e35 469d 5536
000002a0: e54c eab4 b11f 5eb2 9fb2 51b7 65f6 72b7
000002b0: 310d 12b7 ef73 7a36 421c 98b6 ea26 3836
000002c0: d0ff c4b6 4a4b 2a37 05ab 53b7 4eca e4b6
000002d0: 66d1 9bb7 98ba 4e36 292f a4b5 cd35 1734
000002e0: 08c7 b2b6 5a1e 13b7 be8a 06b8 6e7d e6b7
000002f0: 1eac 34b7 7ceb 6bb7 5249 64b7 1bce 1ab8
00000300: d753 18b8 34fa ddb7 7dcb a3b6 2283 b6b5
00000310: bb0d d7b5 d9ce 8235 9b2a d6b5 a21e b3b7
00000320: b396 0eb8 0355 b4b7 aa47 9db8 e106 83b8
00000330: 4eeb 78b8 b927 29b8 9050 abb6 ae67 0cb6
00000340: c5ea b5b5 be30 cbb5 a52e 05b6 86eb ccb6
00000350: 3200 3bb7 0338 00b8 b11d 77b8 d906 9ab8
00000360: a57c acb8 81cc 7ab7 61f0 0f36 cc39 b0b5
00000370: 27cf d9b5 c5ea b5b5 14a3 afb5 1860 d0b5
00000380: 3e3d d3b5 a08a 43b7 c436 8db6 e99f 50b8
00000390: a77e dcb7 547b acb7 3c64 c4b5 6a4a 6eb5
000003a0: 14a3 afb5 27cf d9b5 6b33 f6b3 4316 d133
000003b0: e1f6 d1b4 5fb5 81b6 6aa5 f6b5 3c6b 3ab7
000003c0: ce68 01b7 edb2 11b7 c5f8 4ab6 8456 1ab7
000003d0: e7c8 89b3 4316 d133 a620 65b4 a2be c933
000003e0: e1f7 4d35 00df 25b7 5591 46b7 220a 7236
000003f0: 61c8 e5b7 b3b7 12b8 368d 4cb7 1b1a 3fb7
-6.567815e-07 -8.6938735e-07 -1.6507162e-06 -1.3709934e-05 -4.081106e-06 -1.6063446e-05 -5.8171963e-06 -8.190179e-06
1.6792891e-06 7.0110527e-06 -5.925022e-07 -8.6938735e-07 -5.4202565e-07 -8.542768e-07 -6.3494304e-07 -2.621983e-06
-9.820811e-06 -6.4704745e-06 -1.1933951e-06 -1.7846485e-05 7.509072e-06 2.060721e-05 2.9602781e-05 2.4592127e-06
-5.180874e-07 -6.876796e-07 -8.542768e-07 8.260013e-06 -3.0705419e-06 -1.4744876e-05 1.8525545e-05 1.8929975e-05
9.887587e-06 3.8736915e-05 4.0830728e-05 2.9716515e-05 1.9075811e-05 -1.1334054e-07 -6.876796e-07 -1.3498641e-06
-2.3139116e-06 7.6736105e-06 5.8486676e-06 1.5414091e-06 1.7018401e-05 3.8793387e-05 5.7844343e-05 4.5425215e-05
-1.4029891e-05 1.4935699e-05 5.097777e-06 -5.6383186e-07 -1.04243445e-05 -2.325135e-05 2.1117782e-07 4.3677956e-06
2.2381446e-05 8.288388e-06 2.2173217e-05 1.7629374e-05 9.832525e-06 1.8044706e-06 4.013617e-06 -4.2418483e-06
1.5854324e-06 -1.0788619e-06 -1.0033601e-05 -1.4965151e-05 -2.1351383e-05 -2.0339376e-06 -1.2090859e-05 -2.99953e-06
-1.2146945e-05 9.692034e-07 -2.7647184e-05 -1.8896473e-05 -1.6099246e-05 -5.2507653e-07 -8.359504e-07 -2.5577384e-07
-2.3287025e-06 -6.325752e-06 -3.171559e-05 -3.4504763e-05 -1.1833808e-05 -3.7109698e-05 -1.4977189e-05 -6.7158966e-05
-4.7061527e-05 -8.33879e-06 -9.3105194e-07 -8.542768e-07 -1.0025394e-06 -1.7086427e-06 -3.6804402e-06 -2.2940076e-05
-4.4902506e-05 -3.908652e-05 -0.00012218457 -9.8900855e-05 -2.9805879e-05 -1.8782444e-05 -8.511291e-07 -6.876796e-07
-8.542768e-07 -9.1517694e-07 -1.4133756e-06 -7.357578e-06 -1.7054568e-05 -3.7337893e-05 -7.8331825e-05 -5.7224228e-05
-4.529247e-05 9.172317e-07 2.5519264e-06 -9.1517694e-07 -6.876796e-07 -1.536608e-06 -1.5068504e-06 -2.4861677e-06
-8.931681e-06 -1.174623e-05 5.533316e-07 -2.1317494e-05 -3.3987171e-06 8.654386e-06 2.4643909e-05 -6.324112e-07
-1.5068504e-06 -1.6536546e-06 -1.3553878e-06 -1.0307208e-06 -4.7463195e-06 -1.1747947e-05 7.1980685e-06 1.233736e-05
-4.401734e-06 2.0862488e-05 1.9583133e-05 3.20286e-05 2.0869893e-05 1.5117473e-06 -1.6228049e-06 -1.3553878e-06
2.9557177e-06 1.3372352e-05 -4.8822976e-06 -3.2518906e-06 1.21496605e-05 2.362196e-05 4.282176e-05 5.3665226e-05
5.148104e-07 1.9296655e-05 1.2364144e-06 -1.6228049e-06 -4.7285025e-06 -2.3120769e-05 3.097947e-06 6.612661e-06
1.5127597e-05 4.955101e-06 2.3357907e-05 2.0432002e-05 2.5406785e-05 4.902637e-07 1.1812792e-06 3.1831019e-06
-4.3641845e-07 -1.29293065e-08 -1.2498959e-05 -1.4481692e-05 -8.7053495e-06 3.7320385e-06 -4.5332426e-06 2.7440788e-06
-5.8710357e-06 1.0150319e-05 -1.2616399e-05 -6.818481e-06 -1.8574949e-05 3.0805004e-06 -1.2232678e-06 1.4082543e-07
-5.3279837e-06 -8.76895e-06 -3.2077303e-05 -2.7476544e-05 -1.076891e-05 -1.40619195e-05 -1.360693e-05 -3.6908412e-05
-3.6317706e-05 -2.6461763e-05 -4.8814677e-06 -1.3598221e-06 -1.6022744e-06 9.745955e-07 -1.5956642e-06 -2.1352727e-05
-3.3995788e-05 -2.1497259e-05 -7.499692e-05 -6.247848e-05 -5.9346952e-05 -4.0329734e-05 -5.105576e-06 -2.0921975e-06
-1.3553878e-06 -1.5138864e-06 -1.9845695e-06 -6.1070923e-06 -1.1146114e-05 -3.0569743e-05 -5.891704e-05 -7.344568e-05
-8.224816e-05 -1.4948776e-05 2.144858e-06 -1.3129843e-06 -1.6228049e-06 -1.3553878e-06 -1.3085978e-06 -1.5525175e-06
-1.5738549e-06 -1.1655182e-05 -4.208503e-06 -4.9739992e-05 -2.628502e-05 -2.0561427e-05 -1.463231e-06 -8.8770196e-07
-1.3085978e-06 -1.6228049e-06 -1.14646205e-07 9.73637e-08 -3.9108912e-07 -3.865614e-06 -1.837657e-06 -1.1111431e-05
-7.713401e-06 -8.684333e-06 -3.0245149e-06 -9.199259e-06 -6.4161036e-08 9.73637e-08 -2.1339164e-07 9.394468e-08
7.672916e-07 -9.886688e-06 -1.1835557e-05 3.6066708e-06 -2.7392236e-05 -3.4980196e-05 -1.2192226e-05 -1.1390565e-05

exp_avg_sq f4 [64, 234]
00000000: d8c9 862d 000d 812e 57de 462e 28fa d531
00000010: fe1b b630 4472 1832 7574 d630 867e 3f32
00000020: 89df 1031 177a 3732 d963 712d 000d 812e
00000030: c769 a82c bb10 792e 36c5 1d2f 8831 1831
00000040: 5c56 2e32 da7f 2c32 f9c1 4e32 7f2e 4832
00000050: ee2d 7132 4d9e 8132 1f3b 8532 c9e1 9030
00000060: 0f28 912e 4ede a72d bb10 792e 1879 3431
00000070: 2663 0832 81f0 4b32 1c75 5232 7df6 8132
00000080: 402e 6c32 857f 8632 5cb8 8c32 49f5 9632
00000090: dedc 4e32 6996 9430 4ede a72d 3352 382f
000000a0: 49f8 3632 f6aa 5432 13c8 8232 5483 8232
000000b0: 8de5 9932 7272 8f32 2fbd b132 ab90 a232
000000c0: bd0f a532 305f 8632 fc37 4332 40d6 c92d
000000d0: 80b7 6a31 237e 8232 cd00 9032 6105 9d32
000000e0: b9c8 9832 da5e a532 c51d af32 c8db eb32
000000f0: 02cb c332 2bc8 af32 9bf5 8832 ac03 4232
00000100: 48d6 1b30 89e3 3431 600f 7332 839e ac32
00000110: 69b7 ad32 d7e4 a032 7697 9632 5815 c232
00000120: 3634 fe32 4276 f432 9696 ba32 b2a3 8632
00000130: e137 cc31 8ab2 1330 3005 992e 4767 3a31
00000140: 1670 9532 943f 9532 e3ae 8e32 927f 8532
00000150: bb3e ae32 3e5f e432 1e80 ef32 ac60 a332
00000160: 3932 8032 ac53 3c30 79bd b52d bb10 792e
00000170: 6501 992e 020d 3c32 ce22 3e32 bed6 7032
00000180: bf0d 7632 41d0 a032 4053 a932 6688 bf32
00000190: 1962 6332 3ea4 d331 de91 862e 4ede a72d
000001a0: bb10 792e a0ac 9c2e 50f5 fb30 0aac 0632
000001b0: 6d69 4732 fae9 7732 1d5b 8932 188c 6b32
000001c0: 45cc 6632 44c1 9f31 4d22 1930 a0ac 9c2e
000001d0: 4ede a72d eb66 542f c13c 562f 3fea f32f
000001e0: f147 0232 1e97 0932 ec32 0432 9fd1 1c32
000001f0: fdef 1132 aeab 4332 ee32 3432 d9ab cc30
00000200: c13c 562f 1b89 8c2f 2fc7 052f cf72 dd2f
00000210: 929f 7c31 9a16 1632 f338 1132 1cc6 1a32
00000220: c76b 1532 e722 2332 26ec 2f32 0de6 4432
00000230: 57c7 6732 99ee bf30 9489 882f 2fc7 052f
00000240: 7076 a231 2e19 1b32 80e9 3332 8c9f 2632
00000250: bc7d 4532 d2c2 3132 917a 5032 86a5 4b32
00000260: 2052 6732 b61a 3932 bfd2 6e32 9489 882f
00000270: c1ba c52f ea3c 4332 50ad 4f32 5ae1 6732
00000280: b010 4e32 573f 5e32 3ea5 5232 033a 9332
00000290: 47e6 8132 8e08 6f32 6545 4332 b0aa 1732
000002a0: 208a ab30 8193 c330 0905 5232 d714 7a32
000002b0: 81c7 8b32 bf79 6932 9159 5732 7a33 7f32
000002c0: 42ec a932 e128 ad32 e824 8b32 53df 4432
000002d0: 317c 1032 ce0a d531 27e6 f32e cac6 d930
000002e0: b4cc 7632 df2c 8532 005a 6632 45e1 4232
000002f0: 80d6 6732 360b a432 d28b bc32 416b 8d32
00000300: b3be 4832 7e77 ba31 42c8 7730 303d 082f
00000310: 1865 402f c857 3b32 91ed 2f32 26fa 5032
00000320: df35 3032 a698 5832 62ab 8732 71d2 a332
00000330: 031c 5632 3615 2432 12dd 9030 2c2a 8e2f
00000340: 2fc7 052f f5d2 582f 1eaf 9d30 7de9 ee31
00000350: fe25 2132 34bc 2532 d08d 4e32 3bb9 4a32
00000360: 3086 6532 a022 0932 c4fd ac31 ba22 602f
00000370: 9489 882f 2fc7 052f efcc 012f 0e98 462f
00000380: 9caa 992f a260 ff31 aeb0 3631 55b2 3832
00000390: ab92 5931 4589 0b32 d6ae 1e31 50ed 7630
000003a0: efcc 012f 9489 882f cc8e 002d bce5 f72d
000003b0: 4bfd 622e ae3b 1e32 df2d e730 6bbe 2232
000003c0: a48e ba30 fc3b 1732 c5e5 cb30 2b9c ff31
000003d0: afd6 e22c bce5 f72d 4d53 1e2c a577 ef2d
000003e0: dd8f 022f 94f8 5431 b2e8 5f32 b1db 4432
000003f0: 2a4d 5b32 3374 3b32 7ffc 4732 32d0 4232
1.5323673e-11 5.86855e-11 4.5217465e-11 6.2275554e-09 1.3250199e-09 8.8735455e-09 1.5603648e-09 1.1146431e-08
2.1081823e-09 1.0679762e-08 1.3721435e-11 5.86855e-11 4.786591e-12 5.6630905e-11 1.434913e-10 2.2147066e-09
1.0147769e-08 1.0040788e-08 1.2034882e-08 1.1652104e-08 1.40384895e-08 1.5089563e-08 1.5510123e-08 1.0541551e-09
6.6009524e-11 1.9084425e-11 5.6630905e-11 2.6262281e-09 7.938786e-09 1.1870839e-08 1.2250236e-08 1.5129666e-08
1.3747524e-08 1.5657642e-08 1.6381982e-08 1.7573841e-08 1.20409975e-08 1.0811166e-09 1.9084425e-11 1.6763906e-10
1.0650248e-08 1.2378896e-08 1.5224975e-08 1.5193713e-08 1.7915932e-08 1.6699435e-08 2.0691543e-08 1.892507e-08
1.9215685e-08 1.564294e-08 1.1363223e-08 2.29462e-11 3.415579e-09 1.5191352e-08 1.676417e-08 1.8279652e-08
1.7786407e-08 1.9251662e-08 2.0386219e-08 2.7457546e-08 2.2793305e-08 2.0463707e-08 1.5944172e-08 1.1293121e-08
5.6693183e-10 2.6322786e-09 1.41479575e-08 2.0095518e-08 2.0223256e-08 1.8730516e-08 1.7531175e-08 2.2594278e-08
2.9593235e-08 2.8459116e-08 2.1721728e-08 1.5674093e-08 5.943534e-09 5.373201e-10 6.958556e-11 2.7125269e-09
1.7396854e-08 1.7374795e-08 1.6610505e-08 1.554125e-08 2.0284793e-08 2.6586005e-08 2.7881523e-08 1.9019659e-08
1.4924e-08 6.8512906e-10 2.066146e-11 5.6630905e-11 6.957882e-11 1.0945998e-08 1.1067369e-08 1.4018665e-08
1.432221e-08 1.8721154e-08 1.9712047e-08 2.2297353e-08 1.3235444e-08 6.1595804e-09 6.119526e-11 1.9084425e-11
5.6630905e-11 7.124723e-11 1.8332376e-09 7.838944e-09 1.1607296e-08 1.4430492e-08 1.5990333e-08 1.3710654e-08
1.34342075e-08 4.649481e-09 5.570982e-10 7.124723e-11 1.9084425e-11 1.9317851e-10 1.9484771e-10 4.4367884e-10
7.5833535e-09 8.00881e-09 7.6949895e-09 9.128057e-09 8.494678e-09 1.1389529e-08 1.0488959e-08 1.4891796e-09
1.9484771e-10 2.556327e-10 1.2167044e-10 4.0281242e-10 3.6761532e-09 8.736288e-09 8.45306e-09 9.009025e-09
8.697447e-09 9.495785e-09 1.0240035e-08 1.1461009e-08 1.3491294e-08 1.3964893e-09 2.483601e-10 1.2167044e-10
4.7282853e-09 9.027913e-09 1.0472263e-08 9.6987485e-09 1.1495498e-08 1.0347053e-08 1.2135062e-08 1.1853791e-08
1.3464643e-08 1.0774491e-08 1.3901341e-08 2.483601e-10 3.5966788e-10 1.1364344e-08 1.20883925e-08 1.3497209e-08
1.19945724e-08 1.29365025e-08 1.22611805e-08 1.7139433e-08 1.5122295e-08 1.3913576e-08 1.1366272e-08 8.828167e-09
1.2481145e-09 1.423004e-09 1.2224754e-08 1.4556654e-08 1.6272454e-08 1.3590067e-08 1.2535012e-08 1.4854658e-08
1.9781627e-08 2.015844e-08 1.6198513e-08 1.145948e-08 8.410141e-09 6.2003442e-09 1.1091244e-10 1.5845327e-09
1.4365629e-08 1.5503643e-08 1.3408226e-08 1.1343507e-08 1.3494741e-08 1.9097211e-08 2.1949663e-08 1.6463334e-08
1.1684892e-08 5.426897e-09 9.014266e-10 1.2390866e-10 1.7498214e-10 1.0904792e-08 1.0240357e-08 1.2164071e-08
1.0256797e-08 1.2607563e-08 1.5794004e-08 1.9071395e-08 1.2462809e-08 9.550879e-09 1.0540211e-09 2.5859614e-10
1.2167044e-10 1.9720033e-10 1.1473025e-09 6.953256e-09 9.380072e-09 9.6470565e-09 1.2023023e-08 1.1800064e-08
1.3360065e-08 7.982322e-09 5.0347086e-09 2.0385019e-10 2.483601e-10 1.2167044e-10 1.1805289e-10 1.8062016e-10
2.7951763e-10 7.4324626e-09 2.6584916e-09 1.0750758e-08 3.1661027e-09 8.122076e-09 2.3091409e-09 8.983152e-10
1.1805289e-10 2.483601e-10 7.307665e-12 2.8182671e-11 5.161142e-11 9.21038e-09 1.6820499e-09 9.472937e-09
1.3573822e-09 8.802996e-09 1.4835498e-09 7.439231e-09 6.447141e-12 2.8182671e-11 2.2499392e-12 2.7224287e-11
1.1874542e-10 3.099136e-09 1.3033217e-08 1.1458654e-08 1.2765023e-08 1.0911253e-08 1.16407355e-08 1.1339624e-08
