server_report/ae_hexa/ae_hexa_clip_500/autoencoder_20260116_185948.pth (torch, 216228 bytes, 64 tensors)

enc1.kernel0 f4 [2, 1, 5, 1]
000000 f8 0e 0f bf 93 31 28 be 99 05 e1 3e c4 e8 a1 3c
       -0.55882215 -0.16425161 0.43949583 0.019764312
000010 47 1f 8e bf 7f ff 28 be 46 10 20 3f 85 ea be 3f
       -1.1103295 -0.16503714 0.6252483 1.491532
000020 44 a3 4c 3f ec 4c 30 be
       0.79936624 -0.17216843

enc1.kernel1 f4 [2, 1, 4, 2]
000000 fd 3b 49 bf e2 51 38 bf c9 6e 48 be 6e 3a b1 bc
       -0.7860716 -0.71999943 -0.19573511 -0.021634307
000010 fc 97 7c be b4 07 3a 3e d6 33 32 bf 01 e2 96 bf
       -0.24667352 0.18167001 -0.69610345 -1.1787721
000020 93 f3 39 be 44 76 07 be 16 79 93 3e 6a c0 21 3f
       -0.18159322 -0.13228709 0.2880332 0.63184226
000030 89 ae c8 3e 5b c9 8a 3f 92 97 db bd 41 8c d5 3e
       0.3919566 1.0842699 -0.10722269 0.41708568

enc1.kernel2 f4 [2, 1, 3, 2]
000000 ee 96 18 bf 8b 45 41 bf dd 7c 27 bf b4 08 8e bf
       -0.596053 -0.7549674 -0.654249 -1.1096406
000010 f7 26 61 be 83 6d bd bf bb 80 a7 be 14 af ac be
       -0.2198752 -1.4799045 -0.327154 -0.33727324
000020 8f 9d ad be 02 d3 89 3d bf 58 90 be 69 98 44 3c
       -0.3390927 0.067297 -0.28192708 0.011999228

enc1.bias_tensor f4 [2]
000000 6f 6a 55 bc be 1f c2 3c
       -0.013025864 0.023696776

bn1.weight f4 [2]
000000 8d 90 4e 3f 48 81 09 3f
       0.80689317 0.5371289

bn1.bias f4 [2]
000000 26 54 27 3f 5f aa 9c 3d
       0.65362775 0.07649683

bn1.running_mean f4 [2]
000000 13 ed 18 bf c8 6c 80 3e
       -0.59736747 0.25082994

bn1.running_var f4 [2]
000000 c9 f1 f0 40 85 b3 00 40
       7.529515 2.010957

enc2.kernel0 f4 [1, 2, 3, 1]
000000 27 fb 27 bf fb 53 ed bf dc 0f 92 bf 5c a1 c4 3e
       -0.65617603 -1.8541254 -1.141109 0.38404357
000010 7b f4 f4 3e de 77 d8 3e
       0.47842774 0.4227895

enc2.kernel1 f4 [1, 2, 2, 2]
000000 ad 2e fa be 42 d5 1e bf cc 0e 9e 3d 33 34 61 bf
       -0.48863736 -0.62044156 0.07717666 -0.87970275
000010 e7 9e b7 3e ca 74 9f 3e fc 71 a1 3e 96 4c a2 3e
       0.3586342 0.3114379 0.31532276 0.31699055

fc_enc.weight f4 [64, 117]
000000 c7 db 50 be 5c 7d fa be 71 13 4c bc fd c6 04 3e
       -0.20396338 -0.48923767 -0.012455807 0.12966533
000010 74 2c 00 be 41 25 5b 3e 71 dd 4f bc f4 01 8c 3e
       -0.12516958 0.2140093 -0.012687073 0.2734524
000020 1a 35 b7 3d 4b 39 2f be 7d 83 ab 3c 55 4d f2 be
       0.08945675 -0.171117 0.020936722 -0.47324625
000030 a3 a7 88 3d 0c 6a d0 be 48 8d d5 be db 58 bf be
       0.06672599 -0.40705907 -0.41709352 -0.3737248
000040 91 14 06 3d 66 b9 d2 3d 77 c0 42 be d7 b6 43 be
       0.032734457 0.10289268 -0.19018732 -0.19112717
000050 75 68 1e be 75 0b 0c bd 2e 35 63 3d 7e cb b1 bd
       -0.15469535 -0.034190614 0.055470638 -0.08681391
000060 c3 59 27 bf ae a7 4f be 14 f1 9b be c7 69 35 be
       -0.6537134 -0.20278808 -0.30457366 -0.17716132
000070 b5 dd 32 3e 0c 0e cb be 7a 96 04 be 1e 5b 29 3e
       0.17467387 -0.39659154 -0.12948027 0.16538665
000080 a9 1b 2b 3d b9 56 77 3e 54 90 e3 bd f9 f4 1f bd
       0.041774426 0.24154176 -0.11111513 -0.039051984
000090 05 82 4c be 27 ad 9c 3d 6a 0e 3b be 18 e9 9d be
       -0.19971474 0.07650214 -0.18267217 -0.308419
0000a0 5c 94 a3 3c 31 e7 b0 3e ed f7 50 3c 30 ce 11 be
       0.019968204 0.34551385 0.012754423 -0.1423881
0000b0 45 40 72 3e 8e 74 43 bd c9 4e 17 3e 81 88 b7 3d
       0.2365733 -0.047718577 0.14776148 0.08961583
0000c0 88 06 bb be 50 9f a5 3e ae 19 66 3e 43 32 d6 3d
       -0.3652842 0.32348108 0.22470734 0.104588054
0000d0 79 a1 78 3d 69 a7 71 be 42 e1 d3 3d 4f bc 01 3e
       0.060700867 -0.23599018 0.10345699 0.1266949
0000e0 dd a4 c8 3d c4 74 0f be e2 ac aa be 1e 45 4f 3d
       0.0979707 -0.14009386 -0.33335024 0.050603025
0000f0 cf d5 bf bb 9c 75 da 3c 1d 48 54 3c fb a0 58 be
       -0.0058543454 0.026667409 0.012956646 -0.21155159
000100 82 c8 19 3e 87 1f 8f bd 7f 09 c3 bd 8b 19 c2 bd
       0.15017894 -0.06988435 -0.095232956 -0.09477528
000110 90 9c 5c bc 61 75 66 bc b0 09 25 bd d9 f9 a4 3d
       -0.013465062 -0.014066071 -0.04029244 0.08055467
000120 14 e7 12 3e 9c 49 19 be 2b 8f fc bd bc 84 82 3d
       0.14345962 -0.14969486 -0.123319946 0.06372973
000130 57 a3 99 3e c2 2c bf bd ed e4 c0 be f8 2c 16 3d
       0.3000743 -0.09334709 -0.37674657 0.03666398
000140 00 56 85 3d 07 2b 91 3e b8 4a 38 be 86 8a b9 3d
       0.06510544 0.2835314 -0.17997253 0.090596244
000150 8c a5 27 be 26 1c 16 bc 1b d2 21 bd 40 29 db bd
       -0.16371745 -0.009161985 -0.039507013 -0.10701227
000160 9b 0e 72 bd 92 b4 e5 b9 68 eb a5 be eb 7b bd be
       -0.05909596 -0.0004381282 -0.32406163 -0.37008604
000170 9e 2b 02 bf 70 a1 82 bd a3 da f8 bc 0e 3c 09 3e
       -0.50847805 -0.06378448 -0.030377692 0.13401815
000180 d7 04 57 3e de bc 0a 3e c6 09 18 3c bf 77 01 3e
       0.2099794 0.1354861 0.009279674 0.12643336
000190 ac ac 9a bd 7e 85 6f 3e b2 35 56 ba 82 d4 ab be
       -0.07552466 0.23390767 -0.00081714534 -0.33560568
0001a0 f0 57 b0 be 94 97 57 be 39 a1 95 be 96 ab 13 3e
       -0.3444209 -0.21053916 -0.29224566 0.14420924
0001b0 5b 3b 44 3c 7b a1 b8 be 3f ed 12 be 1c 38 f1 bd
       0.011977042 -0.360607 -0.14348315 -0.1177828
0001c0 40 99 14 3e 03 4f 06 be 34 0a 3d 3d 7b cb 03 be
       0.14511585 -0.13116078 0.04615231 -0.1287059
0001d0 8a f8 21 be 31 a1 48 be 82 30 60 be e1 b4 97 3d
       -0.15817466 -0.1959274 -0.21893504 0.07407547
0001e0 ab 0a 85 bd 12 49 54 be 1e b6 ce bd 36 f8 5d bd
       -0.064961754 -0.20730999 -0.1009333 -0.05419179
0001f0 08 87 26 be cf c6 9b bd 0b 66 c1 bd 6b 75 2b bd
       -0.16262448 -0.07606279 -0.09443291 -0.041860025
000200 d7 49 bf be 3f d6 8f bc 4d 56 bc be 2c 0c 61 bc
       -0.37361023 -0.017558215 -0.36784592 -0.013735812
000210 98 29 f3 3d a9 e5 73 3d c4 a5 26 3e 99 47 be 3d
       0.11873168 0.059545193 0.16274172 0.09291
000220 7d 61 aa 3e fd 89 ae 3d e2 5a 02 3e 94 f8 96 3d
       0.33277503 0.08522413 0.12729982 0.07371631
000230 6f 01 a6 be 83 ae 19 bd fe b9 eb bd c6 84 87 be
       -0.3242297 -0.037519943 -0.115100846 -0.26468486
000240 d8 d7 7d bd 21 60 61 be f2 19 85 ba 27 94 af 3d
       -0.061973423 -0.22009327 -0.0010154827 0.0857318
000250 3e 46 44 bd 03 90 19 be 54 13 66 3d 1a 05 23 be
       -0.04791855 -0.14996342 0.056170776 -0.15919915
000260 6b 14 3d 3e 60 5d 97 3d 7a d4 ff 3e 47 b6 20 bd
       0.1846482 0.07390857 0.49966794 -0.039236333
000270 e7 95 84 3e bf 06 34 be c1 a3 01 bc e6 48 7b 3e
       0.25895616 -0.17580698 -0.007912577 0.24539527
000280 ba 0a 35 3e 5b 66 77 3e ef 74 80 be 16 e8 8f 3e
       0.17679873 0.2416014 -0.25089213 0.28106755
000290 92 84 88 be 72 ba c5 3d 75 70 61 be 34 98 ea bd
       -0.26663643 0.09654702 -0.22015555 -0.11454812
0002a0 37 ce 9b 3e 88 36 4e 3e ee 11 17 bd 92 85 42 3e
       0.30430767 0.2013799 -0.036882333 0.18996266
0002b0 45 9b 90 3e 6a ca 12 be 4c 09 1e be fa 3a 50 be
       0.2824346 -0.14335027 -0.15433234 -0.20334998
0002c0 79 b1 51 be 11 28 5a bd 00 35 8c 3c a7 7c 1f 3e
       -0.20477857 -0.053260867 0.017115116 0.15574895
0002d0 20 3f 89 3c 73 37 db bd 5b 05 e9 be 5c b3 5e 3e
       0.016753733 -0.107039355 -0.45511898 0.21748108
0002e0 63 f8 af bd e2 3e 35 be 5d f8 09 be 9f 2e e5 bb
       -0.08592298 -0.17699769 -0.1347365 -0.006994083
0002f0 8a 9c 36 3e f6 70 21 be 5e 18 92 3d ec 37 3a 3e
       0.17833152 -0.15765747 0.07133554 0.18185395
000300 41 4d 0f 3d 84 bd 60 be 22 47 97 bd 8f b3 9d 3e
       0.034985784 -0.21947294 -0.073866144 0.30801055
000310 6e 25 9e 3e 67 fd 1b be f8 9a 8a be a7 17 0e bb
       0.30887932 -0.15233384 -0.27071357 -0.0021681578
000320 94 46 32 3d fa 61 c8 3d 34 95 11 be 5e c4 40 be
       0.04352434 0.097843125 -0.14217073 -0.18824908
000330 6c f1 23 3b 22 56 9a bd 7d 68 83 3e dd 88 20 3d
       0.0025015725 -0.0753596 0.25665656 0.039193023
000340 0d ac a7 be 81 6b da 3e 9f 3f 2e 3e 95 17 97 3d
       -0.32748452 0.42660144 0.17016457 0.07377545
000350 06 6d ed bd 6b ed 9d 3e 0e 21 fb 3d 10 ea 2b bd
       -0.1159306 0.30845198 0.12262164 -0.041971266
000360 00 cc 0c 3e 6c ee 4b 3e 11 26 a7 bb 51 ef 0d 3b
       0.13749695 0.1991517 -0.0051009734 0.0021657536
000370 00 5f e9 bd 4b 53 78 be 7f 7d 2d be 72 42 46 be
       -0.11395073 -0.24250524 -0.16942404 -0.19361284
000380 56 80 88 3e 1d 09 63 bd 72 37 8c be 89 a2 5d 3e
       0.26660413 -0.055428613 -0.2738605 0.21644033
000390 bc 6e 73 be 81 e2 1f 3e ec 8a 9f bd 0c 64 84 be
       -0.2377271 0.15613748 -0.07790169 -0.2585758
0003a0 4a e9 61 be c0 14 0a bd 19 3d 15 be 3d 69 06 3e
       -0.22061649 -0.033711195 -0.14574088 0.13126083
0003b0 5f d6 16 3c ff 51 13 3e 0a d6 8d 3e 27 ff 64 3e
       0.0092063835 0.14386748 0.2770236 0.22362958
0003c0 34 0e 88 be ef 3d 05 3e bb 47 dd bd 56 a5 f0 bd
       -0.26573336 0.13011907 -0.10804697 -0.11750285
0003d0 f0 69 6f ba ac 8e 2f 3d 84 9b 83 bc 90 5e 16 be
       -0.00091329124 0.042860672 -0.016065367 -0.1468451
0003e0 9d 1f 61 bf ff 40 8b be b8 11 9a 3d 7f 71 c5 be
       -0.87938863 -0.27198026 0.07522911 -0.38563153
0003f0 06 68 3e bd 46 9c 88 bd 89 99 b9 3c eb 53 0b 3d
       -0.046485923 -0.06670432 0.02265622 0.034015577

fc_enc.bias f4 [64]
000000 bb 60 ce 3e 1f cb 40 3e 04 b1 eb bb 02 d6 45 3e
       0.40308174 0.18827485 -0.0071927328 0.19319919
000010 92 7f 5f 3d 27 37 9b 3d 1f 88 2f 3e b2 18 86 3e
       0.05456502 0.07578879 0.1714177 0.26190716
000020 52 4c 85 be ba 8f 01 be 0f 43 8a be 23 d0 19 be
       -0.2603479 -0.12652484 -0.27004287 -0.15020804
000030 02 95 6a 3e ab 75 75 3e 79 78 38 be 52 f1 13 3e
       0.22908404 0.23970668 -0.18014707 0.14447525
000040 bd 08 71 be ee 88 97 be 87 34 73 be 11 80 59 be
       -0.2353849 -0.29596657 -0.23750506 -0.2124026
000050 6e 46 a4 be 90 1f a9 bb 0e 4f e1 3d 7d bf 32 3e
       -0.32084984 -0.0051612332 0.110014066 0.1745586
000060 28 f3 09 be 5d 1c 51 be a8 63 9a be a2 21 25 be
       -0.13471663 -0.20420976 -0.30154157 -0.16126111
000070 b0 53 1a 3e ba 4c fd bd 46 eb e1 3d 6e 55 41 3e
       0.15070987 -0.1236815 0.11031203 0.18880245
000080 4c d5 7e be 4b ab a4 3e 09 c5 32 bd 3c a9 3c be
       -0.24886054 0.32161936 -0.04364494 -0.18423933
000090 d9 4b 56 be 93 a5 6c be 64 c9 5a be ba d7 92 be
       -0.20927371 -0.23110037 -0.21365887 -0.2868021
0000a0 c3 f8 ed 3c 11 01 cb 3d 5b ad 24 be 3b 37 95 3e
       0.029049283 0.09912313 -0.16081755 0.291437
0000b0 c6 a6 62 3e 81 12 6c be 52 b9 cb bd c0 57 82 3d
       0.22133932 -0.23053934 -0.099474564 0.06364393
0000c0 1b 1f b1 3d ef fc 9a 3e 56 ce 9e be ae 0d 1e be
       0.08648511 0.30271098 -0.31016797 -0.15434906
0000d0 1b ba 7d be a1 1f 57 bd e4 e8 a6 be 49 27 84 bd
       -0.24778025 -0.052520398 -0.32599556 -0.064528055
0000e0 55 c9 8a 3e 44 40 7f be d5 c2 8d 3e fc bc 80 be
       0.2710673 -0.24926859 0.27687708 -0.25144184
0000f0 a2 f9 12 3e 75 3a 81 be bd 71 0b be ff 00 db 3d
       0.1435304 -0.25239912 -0.13617606 0.10693549

fc_dec.weight f4 [117, 64]
000000 5d 92 09 3e 5e 08 30 3d d7 4e 3a bc f1 20 f7 bd
       0.1343474 0.04297673 -0.011371336 -0.1206683
000010 ac 10 80 3d 46 b5 d1 3d eb 92 19 3e d2 6e af be
       0.0625318 0.10239653 0.14997451 -0.34264237
000020 d4 a9 3b be 15 27 fa bd 3a 83 0c be a4 47 80 bd
       -0.18326503 -0.122144856 -0.13721934 -0.06263664
000030 82 58 ad bd 71 5b c6 3c 6e b0 34 bd 0b 32 1b bd
       -0.08464147 0.024213525 -0.04411357 -0.03788952
000040 db 11 76 be 43 0a 93 bd 98 e2 ad bd a9 42 28 3d
       -0.24030249 -0.07179692 -0.08490485 0.041079197
000050 4b fc 05 3c ac c6 d2 3b 5e a0 d1 bc fc ae 84 be
       0.008177827 0.006432375 -0.025589164 -0.25914752
000060 c3 6a 5c be ba f8 84 3c 7e fc dd bd d1 a6 41 be
       -0.21525101 0.016231883 -0.10839175 -0.18911292
000070 e2 fe b6 be b0 ff 25 be 1d 39 38 3f 83 50 22 3e
       -0.35741335 -0.16210818 0.7196215 0.15851025
000080 78 97 41 bd 72 fa 19 3e 55 80 6e 3e f4 3c f7 be
       -0.047263592 0.15036944 0.23291142 -0.4828869
000090 70 d4 97 3d bd 51 0b 3e 1f 10 2e be a1 29 11 3e
       0.07413566 0.136054 -0.16998337 0.14176036
0000a0 26 3f 47 bd ea 22 d5 3d c7 39 87 3d c5 cb 9e 3e
       -0.048644207 0.1040705 0.06602817 0.3101484
0000b0 eb 77 31 bd 97 a4 86 3e 1d a4 0d bd 9c 49 b1 be
       -0.043327253 0.26297447 -0.03458034 -0.34626472
0000c0 0f e9 75 3e df 27 25 3e 7b 3c 18 be b8 09 8d 3d
       0.24014686 0.16128491 -0.14866821 0.06886619
0000d0 09 3c 15 3d 9f 62 ec 3d 60 d1 73 3d b5 57 a2 be
       0.036434207 0.11542248 0.059525847 -0.3170754
0000e0 02 29 e0 3d 76 32 ad be c4 36 c7 3d 0e 9f 6e be
       0.109453216 -0.3382756 0.097272426 -0.23302862
0000f0 9a 73 b5 3d 63 96 e8 bd 72 68 23 bd 5e 31 1e 3e
       0.0885994 -0.11356809 -0.03989453 0.1544852
000100 fa 0a cc bb ff 47 8e bd 21 19 7e be 10 71 7a be
       -0.0062268944 -0.06947326 -0.24814273 -0.24457192
000110 01 c5 93 bc a8 a1 91 bd 63 92 ec 3e f9 e0 91 be
       -0.018038275 -0.071109116 0.46205434 -0.28491953
000120 99 9d 9b be 91 a7 56 be f5 0e 89 be 1d 79 59 be
       -0.30393675 -0.20962359 -0.26769224 -0.21237607
000130 ab 2d 4c 3d dd 55 69 be af 6b 82 3d 04 c8 56 3d
       0.04984824 -0.2278666 0.06368195 0.052436844
000140 d5 93 32 be c6 b4 21 be 33 70 11 bd 3e db 16 bc
       -0.17439206 -0.15791616 -0.035507392 -0.009207545
000150 9e b3 e3 bd 67 d0 31 3d 1f 76 11 3e 78 4d 85 be
       -0.11118244 0.04341164 0.14205216 -0.26035666
000160 ae 35 ad bd a1 15 72 3d 3b 93 e5 be f3 e9 44 be
       -0.08457504 0.05910266 -0.4483889 -0.1922987
000170 d5 a3 e2 be 88 15 90 bd 8d 64 05 3f 35 a7 58 3d
       -0.4426562 -0.07035357 0.52106553 0.052893836
000180 0a fe 86 3a 25 2f 3d 3d c0 20 e0 3d c9 3f e9 be
       0.0010299098 0.04618754 0.109437466 -0.45556477
000190 33 4e 61 bd 8e c4 85 3e 62 3a c5 bd 46 2c 34 3e
       -0.055006217 0.26126522 -0.09630276 0.17595014
0001a0 6d 13 7b bd 05 ac 11 3e b9 9a 94 bd 0f 8e cf 3e
       -0.061297823 0.14225776 -0.072560735 0.4053807
0001b0 e9 c0 5e 3d 27 ae 2e 3e b0 a0 9a bc ac 9d 33 bf
       0.054383192 0.17058621 -0.01887545 -0.70162463
0001c0 43 fe 97 3e 85 65 96 3e a5 1c d9 3d 72 e6 75 3d
       0.29686174 0.29374328 0.10601167 0.060034223
0001d0 7e 91 21 3d 1d 58 e3 3d 42 d9 54 3e 66 38 2f be
       0.039445393 0.11100791 0.20786002 -0.17111358
0001e0 98 c7 05 3e 8e 5e ce be 00 26 72 bd c0 dd 15 be
       0.1306442 -0.40306515 -0.05911827 -0.14635372
0001f0 58 08 57 3e ab 1e bd bc 39 eb 87 bd 8d 67 27 3e
       0.20999277 -0.023085913 -0.06636662 0.16348095
000200 31 b4 c9 bd c3 dc cc 3d 01 da 11 bd 83 ac ca 3d
       -0.09848822 0.100030445 -0.035608295 0.09896185
000210 44 07 91 3d 30 6d 87 3d ce 93 26 be aa 8e 61 3e
       0.07081464 0.06612623 -0.1626732 0.22027078
000220 4c f3 62 bd 27 f2 8c 3d 30 c1 18 be a8 ab 0c be
       -0.055407807 0.068821244 -0.14917445 -0.13737357
000230 66 fc 49 3d f6 e9 cb 3d 2b 34 71 3d 0c 6d 3e bd
       0.04931297 0.09956734 0.058887642 -0.046490714
000240 55 cf 2a be 2c ff 30 3e 49 b5 35 bc 0d 03 64 3d
       -0.16680653 0.1728484 -0.011090585 0.055666972
000250 64 04 4a 3e 06 df 54 be 99 80 f0 bc 28 7d 36 3f
       0.19728237 -0.20788202 -0.029358195 0.71284723
000260 e4 08 30 be c3 47 d0 bd 62 17 dc 3e 4a 2c 77 bd
       -0.17190892 -0.101699375 0.4298659 -0.06034497
000270 ed 4b 13 be 9e 39 08 be cc 68 d4 3d 19 e8 f8 3c
       -0.14384432 -0.13303229 0.10371551 0.03038411
000280 42 3b d1 3d b8 d1 1f 3e 06 d0 60 be 22 a7 eb 3b
       0.10216381 0.15607345 -0.21954355 0.0071915546
000290 95 f5 8b 3c 05 d2 0a 3c ae 2e 42 3c 8d 2f d5 be
       0.017084876 0.008472924 0.01185195 -0.4163784
0002a0 71 49 63 bd f2 47 d4 3d 29 93 dc bb fe c2 4f 3b
       -0.05548996 0.10365285 -0.00673141 0.0031701918
0002b0 9f 8a cc bc 5c 13 a9 3d 48 ad 27 3e 29 ef 5a 3e
       -0.024968443 0.08255646 0.16374695 0.21380295
0002c0 57 af aa 3d 27 a9 f4 3d 50 e2 72 bd 5d 93 4e 3e
       0.08334225 0.11946326 -0.05929786 0.20173402
0002d0 1b 63 d8 bc c3 8b 9d bc b8 f0 94 be ba 1b 5a 3e
       -0.026414445 -0.019231683 -0.29089904 0.2129964
0002e0 e8 27 ab bd 39 19 f2 3c ef ff a7 3e ab bc f7 bd
       -0.08357221 0.029553043 0.3281245 -0.120965324
0002f0 16 71 db bd a3 4d 8f bd e9 7d 84 3e 21 cb e9 bd
       -0.10714929 -0.0699723 0.25877312 -0.11415697
000300 ee a4 f8 bc db 7e f2 bd c2 92 19 3e f8 34 1f be
       -0.030352082 -0.11840602 0.1499739 -0.1554755
000310 ab 29 4c 3e 88 56 5d 3e 5f fc 95 be aa 47 8f 3e
       0.1993777 0.2161504 -0.29294106 0.27984363
000320 3a 87 82 3e 70 0c c9 3b c5 8f af 3d 32 6b 7d bc
       0.25493795 0.006135516 0.08572344 -0.015467452
000330 7d 50 ee 3d 2a d0 7d 3e f7 f3 9e bd 5e 65 0a be
       0.11636446 0.2478644 -0.07761376 -0.13515231
000340 9e e2 05 3e 81 94 da 3c cb 50 66 3c 5e 1e f3 bd
       0.13074729 0.02668214 0.0140573485 -0.118710265
000350 f6 ec 64 3e e8 bb 4e bd a8 ba c8 3d da c2 03 3c
       0.22356018 -0.05047217 0.09801227 0.008042062
000360 4d 11 09 bc 85 b3 13 be 06 77 95 3e 29 dd 84 3e
       -0.008365941 -0.1442395 0.2919237 0.25949982
000370 2e 54 c1 3e ff 3b 65 3c 59 bd cc 3d 06 20 00 3e
       0.37759537 0.013991355 0.09997053 0.12512216
000380 2d eb aa bd 12 e0 06 3c 1c ae af 3e b0 e6 21 be
       -0.083456375 0.008232133 0.34312522 -0.15810657
000390 59 4b 15 be bb fe 84 bc 9f b1 ea bd 01 6f 91 bd
       -0.14579524 -0.016234746 -0.1145966 -0.071012504
0003a0 30 7e 19 bd 6f f0 cb bc 9b bc 25 3e 0e 52 8b be
       -0.037473857 -0.024894921 0.16185229 -0.2721104
0003b0 84 1a 22 3e f9 c5 1a 3c 55 41 a4 be 75 b4 01 3f
       0.15830427 0.009446614 -0.32081094 0.5066598
0003c0 5c 62 13 3e 3d ef 0a bc 2f ef 05 3d 4f 34 6c 3e
       0.1439299 -0.00847989 0.032698806 0.23066829
0003d0 ab 27 05 3e dc 34 3c be 68 a9 28 be 7e 02 0f be
       0.13003413 -0.18379539 -0.16470873 -0.13965794
0003e0 5a 62 b8 bd ad d1 ec 3c 82 e9 23 3e 5c 34 4d 3e
       -0.09003134 0.028908575 0.16007045 0.20039505
0003f0 39 5b 9f be 2e 1c 8d be e6 c3 9d be c6 ec ec bd
       -0.31124285 -0.27560562 -0.3081352 -0.115685984

fc_dec.bias f4 [117]
000000 7d 13 80 be 43 fb cc be c1 cb b5 be 5b 0e 48 be
       -0.25014868 -0.40035447 -0.35507014 -0.19536726
000010 f1 d1 a1 be 03 ae 71 be 95 4e 7c be 67 cc d6 bc
       -0.31605485 -0.23601536 -0.24639352 -0.026220514
000020 5b b8 80 be 58 cc 1d be 95 59 87 be 8a b2 77 be
       -0.25140652 -0.15409982 -0.26435533 -0.24189201
000030 8f 7a 54 be f3 20 3d be f7 d0 c7 be df 59 e2 bd
       -0.20749877 -0.184696 -0.39026615 -0.11052298
000040 d9 6d 00 bc 08 df fe bd 16 82 c7 bd 51 9e 58 be
       -0.00783869 -0.124448836 -0.09741609 -0.21154143
000050 3c 7d 93 bd 49 f0 f5 3c bc ad 5a 3c 9b f1 39 be
       -0.07201621 0.030021803 0.013347086 -0.18158571
000060 c2 4b 1b be 33 20 dd bc 3a 91 4f be 2c 77 df be
       -0.15165618 -0.026992893 -0.20270243 -0.43645608
000070 74 38 15 be db 05 da bd e8 ab 53 3c 89 1b c7 bd
       -0.14572316 -0.10645648 0.012919404 -0.09722049
000080 e8 55 5a bd a1 d5 d8 3b d6 af c5 bc a6 bb 78 be
       -0.053304583 0.0066172634 -0.024131697 -0.24290332
000090 21 4b 6f be c6 c2 8d be 7b c3 c2 bd b4 b3 c1 be
       -0.23368503 -0.27687663 -0.09509941 -0.37832415
0000a0 c0 6a 4d be cf 20 0f be d0 39 c2 bd 78 6b 1f bd
       -0.20060253 -0.13977359 -0.09483683 -0.03892085
0000b0 e1 14 01 be f5 c7 6c 3d 7f be 38 be 10 cb 1c 3d
       -0.12605621 0.05780788 -0.18041418 0.038279593
0000c0 aa 82 93 bd 37 06 eb bd 93 18 a5 bd 12 84 46 be
       -0.072026566 -0.11475795 -0.08061328 -0.19386318
0000d0 2c ba 58 be 8c 8d c5 3c b3 3d 4f be 40 6b e9 bd
       -0.21164769 0.024115346 -0.2023838 -0.113974094
0000e0 7b 0e e8 bd 4c 67 04 be 3b ce 7b bd ad e6 b7 bd
       -0.11330887 -0.1293003 -0.061475974 -0.08979545
0000f0 f8 bc c8 bd d8 9d 3a be d6 b8 98 bd 4a 73 06 be
       -0.09801668 -0.18224275 -0.0745713 -0.13129917
000100 d4 73 d5 be a5 d0 ac be b5 ce 6b be 4a 5f c4 bd
       -0.41689932 -0.33752933 -0.23028071 -0.095884874
000110 45 1e 37 3d 1f 65 83 bc 3f e7 79 bd d3 98 51 bd
       0.0447066 -0.01603943 -0.06101155 -0.051171135
000120 e9 e1 27 be a2 ae 8d bd a2 13 1c be 7b 8f f0 bd
       -0.16394772 -0.06918074 -0.15241864 -0.11746117
000130 bd 08 85 be fa 43 a5 be 9f 55 a1 bd cf 9a 45 be
       -0.2598323 -0.32278425 -0.07877659 -0.19297336
000140 be 19 55 be 29 68 99 bc dc 94 ff bd f6 53 2b be
       -0.20810601 -0.018726425 -0.124795645 -0.16731247
000150 9e ac 7c bb 85 89 b2 bd 85 9f fa bd bc 30 88 bc
       -0.0038555036 -0.08717636 -0.12237457 -0.0166248
000160 41 5c 33 be 2c 82 37 be d3 02 5b bd 70 83 d1 3d
       -0.17515661 -0.1792075 -0.05346949 0.10230148
000170 a0 a3 85 3d 4b 7d 56 be cf a6 0a be a0 19 83 bb
       0.065253496 -0.20946233 -0.13540195 -0.0040008575
000180 76 1e 14 3c 96 b4 ce 3d 7f fa d9 bd 48 7c a9 bd
       0.009040466 0.10093038 -0.106434815 -0.08275658
000190 90 8a c7 bd ab 90 54 be 1d ae 34 be 20 65 b3 bc
       -0.097432256 -0.20758311 -0.17644544 -0.021898806
0001a0 e0 65 a2 be bd 4f ef 3d 52 48 33 be 87 41 50 be
       -0.3171835 0.11685131 -0.17508057 -0.20337497
0001b0 70 78 77 be c6 75 be bd e5 e0 01 bd db 9b f0 3b
       -0.24167037 -0.09299807 -0.031708617 0.007342798
0001c0 b1 12 01 be 75 f7 93 bd 80 a4 ef bd 9a 41 85 be
       -0.12604786 -0.07224933 -0.11701298 -0.26026613
0001d0 a9 19 f6 bc
       -0.030041533

dec1.kernel0 f4 [2, 1, 3, 1]
000000 b1 d3 31 3f 10 0c 1d 3f 29 c7 4a 3f 5c b5 60 3f
       0.6946364 0.6134653 0.79210144 0.8777673
000010 9e f9 d6 3e 01 f5 8b 3f
       0.41987318 1.0934144

dec1.kernel1 f4 [2, 1, 2, 2]
000000 53 67 8f 3e 46 2a 8a bf df 43 d9 be dd 15 d5 bc
       0.28008518 -1.0794151 -0.42434594 -0.026011402
000010 a4 95 39 3f 6e 7a 45 3e ff 13 9c 3e 53 08 f3 3e
       0.7249396 0.19284984 0.30484006 0.47467288

dec1.bias_tensor f4 [2]
000000 71 d0 2c 3d 79 eb 70 3d
       0.042190973 0.058818314

bn3.weight f4 [2]
000000 bd cf 04 3f 5b d5 41 3f
       0.51879483 0.7571618

bn3.bias f4 [2]
000000 41 a1 06 bf d1 ec 14 bf
       -0.52589804 -0.58173853

bn3.running_mean f4 [2]
000000 b1 8b 8b bf 33 3b 81 c0
       -1.0902005 -4.0384765

bn3.running_var f4 [2]
000000 45 77 84 41 88 70 9a 42
       16.558237 77.21979

dec2.kernel0 f4 [1, 2, 5, 1]
000000 37 55 02 3e 4b 4f 58 be 67 0b a9 bc fa 40 9e be
       0.1272782 -0.21123998 -0.02063532 -0.30908948
000010 a5 9a 15 be 58 46 4b be f4 fa fd 3e 70 05 08 3f
       -0.14609773 -0.19851053 0.49605525 0.53133297
000020 98 f0 b7 3e f0 fe 29 be
       0.35925746 -0.16601157

dec2.kernel1 f4 [1, 2, 4, 2]
000000 8b 66 90 3e f8 61 8a bd 4d ad 22 be cc f7 0d be
       0.28203234 -0.06756967 -0.15886422 -0.13864058
000010 f1 2e cc be c6 4f bb be 1c 0b 2d be a3 ba 8f bd
       -0.39879563 -0.365843 -0.16898769 -0.0701802
000020 9f 7a e8 bc 3e 24 0a 3d 19 aa 66 3e 5b e1 cc 3e
       -0.028378783 0.03372597 0.22525825 0.40015683
000030 87 f3 98 3e 8a db 07 3f e1 97 8c 3d 97 0a 67 3e
       0.29873297 0.53069365 0.06864906 0.22562633

dec2.kernel2 f4 [1, 2, 3, 2]
000000 d7 37 97 3d 70 e2 cc be 8f 19 f1 3c d2 44 25 bd
       0.073836975 -0.40016508 0.029431133 -0.040348835
000010 01 b8 be bd 36 f2 6e 3e 64 bf 96 bd 2e 9e 8f ba
       -0.0931244 0.23334584 -0.073607236 -0.0010957175
000020 29 e6 79 3d 84 ef e9 3e e6 02 72 bd 8e 03 83 3e
       0.061010513 0.45690548 -0.059084795 0.2558865

exp_avg f4 [2, 1, 5, 1]
000000 43 39 18 b8 58 fc ed 37 5b c9 c1 36 25 98 36 37
       -3.6292953e-05 2.8370108e-05 5.775289e-06 1.0883469e-05
000010 32 2f 94 b6 38 87 50 b8 ec b9 6a 37 fa 0f 6a b7
       -4.416238e-06 -4.9716997e-05 1.3990775e-05 -1.3951207e-05
000020 14 a8 39 b7 0c a8 6a b8
       -1.1065993e-05 -5.5946453e-05

exp_avg_sq f4 [2, 1, 5, 1]
000000 10 6c b9 32 4e b6 d7 31 11 f7 02 32 b5 19 1a 32
       2.1585976e-08 6.278049e-09 7.623172e-09 8.969825e-09
000010 1d de 4f 31 29 59 d0 34 57 1e 38 34 7a b3 7c 32
       3.0248721e-09 3.8807892e-07 1.7147373e-07 1.4709139e-08
000020 a0 aa 6e 33 ae f5 86 34
       5.5568876e-08 2.51382e-07

exp_avg f4 [2, 1, 4, 2]
000000 ea ac fa 36 e0 a2 12 b8 e4 0f 2a 36 be 71 1f 36
       7.4707104e-06 -3.49608e-05 2.5341224e-06 2.3759053e-06
000010 2b 0a 30 37 a3 5e 59 37 3c dc 8c b5 9b 9d b1 37
       1.0492785e-05 1.2956242e-05 -1.049491e-06 2.1173435e-05
000020 f1 76 ba b7 be 5f 21 36 62 8f 4c b6 2a 0a cd 37
       -2.2228314e-05 2.4046599e-06 -3.0481829e-06 2.4442637e-05
000030 c5 05 88 b7 0a 57 11 b7 93 4b e6 b7 b2 36 b2 b7
       -1.621515e-05 -8.662939e-06 -2.7453329e-05 -2.1244723e-05

exp_avg_sq f4 [2, 1, 4, 2]
000000 0d f1 ad 31 33 c6 8f 31 57 fc 95 31 e9 93 18 32
       5.062367e-09 4.1843804e-09 4.3651585e-09 8.881195e-09
000010 ad a0 94 31 91 bc 6e 32 85 83 b0 31 3b 2b 53 32
       4.3256336e-09 1.3896298e-08 5.137226e-09 1.2291646e-08
000020 aa 3e df 34 93 11 a5 34 63 9d 83 34 6f b0 ce 33
       4.158258e-07 3.0746432e-07 2.4515165e-07 9.6247156e-08
000030 0e ee 36 34 aa c7 97 32 ae e4 96 34 8a c0 34 34
       1.7036675e-07 1.766951e-08 2.8106064e-07 1.6833852e-07

exp_avg f4 [2, 1, 3, 2]
000000 af 54 a2 b6 8b e0 14 b8 b2 e5 88 b6 ff d9 3f 37
       -4.8378347e-06 -3.549507e-05 -4.079856e-06 1.1435243e-05
000010 01 22 0e b8 96 76 ff 37 c7 4f 53 b7 a9 8a 91 b6
       -3.3887107e-05 3.045359e-05 -1.2595155e-05 -4.337479e-06
000020 58 5f 66 37 1c 84 1a b7 25 fc a1 b7 16 b7 0d b8
       1.3731267e-05 -9.209874e-06 -1.931011e-05 -3.378753e-05

exp_avg_sq f4 [2, 1, 3, 2]
000000 3d 1a 0c 33 65 c9 18 32 f1 1a 6e 32 04 81 1b 32
       3.2620154e-08 8.893356e-09 1.3859549e-08 9.051522e-09
000010 e1 ad 5b 33 1c dd 3e 32 89 35 12 35 38 48 c2 34
       5.1148053e-08 1.110973e-08 5.446714e-07 3.6187862e-07
000020 2e a8 03 35 c3 51 88 34 8f 0c f6 34 14 2e 9c 34
       4.9046037e-07 2.5391464e-07 4.5830208e-07 2.909079e-07

exp_avg f4 [2]
000000 55 0c 19 b0 ac 40 2f 2e
       -5.56786e-10 3.9847833e-11

exp_avg_sq f4 [2]
000000 84 fb 03 23 9f b2 d2 1f
       7.154785e-18 8.9233963e-20

exp_avg f4 [2]
000000 77 53 4a b8 27 38 65 3b
       -4.8238286e-05 0.0034976096

exp_avg_sq f4 [2]
000000 86 ba fb 35 d4 d6 21 3a
       1.8755243e-06 0.00061736745

exp_avg f4 [2]
000000 a5 70 3f bb 8d 2f 5f 3a
       -0.0029211428 0.00085138605

exp_avg_sq f4 [2]
000000 65 d8 c9 39 bd c1 68 38
       0.00038498934 5.5493543e-05

exp_avg f4 [1, 2, 3, 1]
000000 c8 6b 49 37 1f 6c f5 b9 a8 d5 cf 39 b8 df 59 3a
       1.2005628e-05 -0.00046810598 0.00039641303 0.000831123
000010 bc 7e 4d 3a a9 54 35 3a
       0.0007839014 0.00069172174

exp_avg_sq f4 [1, 2, 3, 1]
000000 6a f2 d0 33 bf b3 0b 37 54 ed 68 36 d6 2b e8 37
       9.7298496e-08 8.326896e-06 3.4708837e-06 2.7676968e-05
000010 ce 00 06 38 fd 17 d2 37
       3.194884e-05 2.5045121e-05

exp_avg f4 [1, 2, 2, 2]
000000 19 ba eb 3a 09 e9 a3 3a 39 48 e5 3a ad f0 79 3a
       0.0017984539 0.0012505363 0.0017492838 0.00095344597
000010 28 0f 4f 3a 74 b9 5a 3a 05 09 35 3a 89 bd 21 3a
       0.0007898682 0.00083436747 0.0006905946 0.00061699055

exp_avg_sq f4 [1, 2, 2, 2]
000000 3a 97 88 39 25 17 94 38 7c f8 61 39 ec 3e 1f 38
       0.00026052614 7.061501e-05 0.0002155024 3.7967155e-05
000010 e1 70 02 38 31 12 fa 37 a5 61 f4 37 db e7 fe 37
       3.1099542e-05 2.9810793e-05 2.9132536e-05 3.0387126e-05

exp_avg f4 [64, 117]
000000 3b 0d 1a b4 04 00 00 00 1a 7d ac b6 7e b4 fc b7
       -1.4347181e-07 6e-45 -5.140563e-06 -3.012479e-05
000010 eb d1 04 b7 35 cc 26 b8 22 0d de b7 20 04 46 34
       -7.916688e-06 -3.9767667e-05 -2.6470578e-05 1.8441688e-07
000020 ac ad 0d 37 97 f4 e9 34 1d c8 e7 35 04 00 00 00
       8.444691e-06 4.3577595e-07 1.7269082e-06 6e-45
000030 a9 53 aa b4 54 30 be 33 59 f2 cb b6 9e 9d 0e b8
       -3.1725838e-07 8.856355e-08 -6.0780844e-06 -3.400223e-05
000040 ab 45 14 b8 4d 26 0d b8 bc 55 18 b8 bd e7 a8 b7
       -3.5350833e-05 -3.365269e-05 -3.631947e-05 -2.0135072e-05
000050 e8 40 c7 37 b0 ca 28 b7 c2 2d 4a 36 30 34 a8 37
       2.3752873e-05 -1.0060772e-05 3.012698e-06 2.0051462e-05
000060 65 2f 55 36 eb 97 eb b3 54 30 be 33 6b 05 fc 36
       3.176706e-06 -1.0970674e-07 8.856355e-08 7.510816e-06
000070 db 90 e8 b7 cc 12 18 37 5a 94 c4 b7 a9 2f 44 b7
       -2.7724009e-05 9.0642825e-06 -2.3434102e-05 -1.1693607e-05
000080 97 fe a9 37 70 8f 54 38 d6 9a a6 37 5b 0c 26 37
       2.0264923e-05 5.0678325e-05 1.9860843e-05 9.897248e-06
000090 a6 09 11 38 68 88 3f 37 eb 97 eb b3 06 11 e2 35
       3.457968e-05 1.1416247e-05 -1.0970674e-07 1.6843267e-06
0000a0 8c 4f 97 37 99 0e 09 38 b3 e4 2e 38 54 53 e7 b5
       1.8037645e-05 3.267694e-05 4.1697826e-05 -1.7235093e-06
0000b0 b4 19 4f b7 31 ca b7 37 a1 17 27 38 8a b6 44 38
       -1.2344146e-05 2.1909453e-05 3.983791e-05 4.6900044e-05
0000c0 d9 5e 11 37 88 aa 1f 35 34 8e 95 b7 7a 88 15 b6
       8.664757e-06 5.948027e-07 -1.7828403e-05 -2.228217e-06
0000d0 99 1c 55 b6 c7 22 79 b6 06 5a 0d 38 05 35 0e 38
       -3.175612e-06 -3.7124134e-06 3.370086e-05 3.3904817e-05
0000e0 c4 bd 39 37 b0 c4 d1 b7 3c e4 92 b7 db 3a 72 b7
       1.10710425e-05 -2.5006331e-05 -1.7510836e-05 -1.4438027e-05
0000f0 06 74 ef 37 08 c5 18 b7 15 52 a4 b7 d7 e9 39 b8
       2.8545048e-05 -9.105781e-06 -1.9588546e-05 -4.4325217e-05
000100 31 d9 73 b7 ec a5 40 b6 33 20 ab 36 31 68 b7 37
       -1.45344975e-05 -2.8706809e-06 5.0999456e-06 2.1863818e-05
000110 1e 49 45 37 fe 5c 9f 33 1f bb 80 b8 03 f0 93 b8
       1.1759139e-05 7.42093e-08 -6.13837e-05 -7.054212e-05
000120 6d 2a 86 b8 74 18 6e b8 b6 e1 7b b8 74 18 c5 b7
       -6.39752e-05 -5.6766396e-05 -6.0053273e-05 -2.3495617e-05
000130 d3 11 d2 b7 d0 02 73 b7 2a ef 5c 33 23 c9 10 37
       -2.504225e-05 -1.44845835e-05 5.144026e-08 8.6299e-06
000140 f5 a4 e8 37 94 37 59 35 13 40 78 b7 f5 85 49 b8
       2.773337e-05 8.0919676e-07 -1.479687e-05 -4.804689e-05
000150 e4 b4 ad b8 b9 ec 9d b8 8d 28 98 b8 3d 3b 87 b8
       -8.282976e-05 -7.5304364e-05 -7.255478e-05 -6.4483356e-05
000160 ed 3b 0f b8 c7 2f e1 b5 f8 e6 57 b5 54 30 be 33
       -3.4149667e-05 -1.6777711e-06 -8.0429845e-07 8.856355e-08
000170 ba e2 b7 b1 6f 6f 68 37 fb 4a f1 36 7c d1 8a b7
       -5.351777e-09 1.3854223e-05 7.1910886e-06 -1.654843e-05
000180 99 e7 dd b7 d1 53 24 b8 5a 94 a4 b8 0e 07 6f b8
       -2.6453099e-05 -3.9178707e-05 -7.847762e-05 -5.698861e-05
000190 38 4d 0f b8 46 d9 cb b7 96 51 e0 32 eb 97 eb b3
       -3.4165772e-05 -2.4300662e-05 2.6114133e-08 -1.0970674e-07
0001a0 54 30 be 33 68 b9 34 b3 62 b5 6c 36 c8 ab 55 37
       8.856355e-08 -4.2078142e-08 3.527232e-06 1.2735785e-05
0001b0 9e f2 37 b7 53 a9 b5 b7 b6 67 43 b8 88 1a 4b b8
       -1.0964139e-05 -2.165573e-05 -4.658821e-05 -4.842368e-05
0001c0 6c ae 3d b8 0b 48 01 b7 71 ee f2 b6 68 b9 34 b3
       -4.5223554e-05 -7.705773e-06 -7.2399203e-06 -4.2078142e-08
0001d0 eb 97 eb b3 fc 9a af 37 04 00 00 80 ba ca f3 37
       -1.0970674e-07 2.0933796e-05 -6e-45 2.906226e-05
0001e0 44 27 65 38 7e 3e 3a 38 61 15 4f 38 1d 0e 61 38
       5.4634424e-05 4.4404056e-05 4.9372557e-05 5.3657324e-05
0001f0 c2 b8 a0 b7 2a 0a de b5 f1 3f cc b6 07 58 b7 37
       -1.915952e-05 -1.6543247e-06 -6.0871175e-06 2.1856291e-05
000200 04 00 00 80 d6 09 17 38 2c 0f 5d 35 c7 47 6b 37
       -6e-45 3.6010366e-05 8.2350994e-07 1.40238035e-05
000210 fb 56 56 38 90 e1 9c 38 0a 4b 35 38 e0 b3 07 38
       5.1102583e-05 7.480674e-05 4.322365e-05 3.235403e-05
000220 50 66 ab 37 95 d7 ed b7 0a 1b 55 b8 a3 30 e2 b6
       2.0432431e-05 -2.835299e-05 -5.080834e-05 -6.740987e-06
000230 69 f9 6a 34 e3 ce 27 b4 71 cc 96 37 2c 0f 5d 35
       2.1883683e-07 -1.5628352e-07 1.7976594e-05 8.2350994e-07
000240 33 c1 3a 38 9e 83 cd 38 72 fb 88 38 21 b2 92 37
       4.4525787e-05 9.799677e-05 6.531821e-05 1.7487504e-05
000250 7a 69 84 b6 ed d8 95 b7 05 31 25 b8 f5 fc 4b b8
       -3.9461856e-06 -1.7863198e-05 -3.938472e-05 -4.8634556e-05
000260 8f c7 0f 36 e4 45 35 37 c0 e6 19 37 71 cc 96 37
       2.142482e-06 1.0804713e-05 9.173236e-06 1.7976594e-05
000270 b8 6f d8 36 07 27 41 38 bd 3e 98 38 f9 96 83 38
       6.4503074e-06 4.6051133e-05 7.259611e-05 6.2746876e-05
000280 33 9c cf 37 88 a2 f9 36 1e 2e 17 b8 70 94 60 b8
       2.4749059e-05 7.4396994e-06 -3.6044155e-05 -5.3544005e-05
000290 bb b5 29 b8 97 e2 98 36 9b bf 81 37 f2 67 82 37
       -4.046199e-05 4.5563315e-06 1.5467222e-05 1.5545611e-05
0002a0 25 46 a6 37 40 94 08 37 66 f4 35 38 ea c3 7d 38
       1.9821406e-05 8.140749e-06 4.3381377e-05 6.050236e-05
0002b0 a8 d2 ff 37 99 85 4c 38 97 8f f7 36 75 a1 e3 b7
       3.0496463e-05 4.8761813e-05 7.3778897e-06 -2.7135693e-05
0002c0 7f 06 32 b8 7d 67 02 b8 ee db 42 35 2f a8 9b 37
       -4.2444557e-05 -3.1090796e-05 7.259067e-07 1.8555756e-05
0002d0 3d 12 d7 37 26 a3 e1 37 3c b4 f0 36 a8 18 db 37
       2.563849e-05 2.6898062e-05 7.1735394e-06 2.6118316e-05
0002e0 2f 5c 1b 38 5d a8 89 b5 ba ca 9b 37 b9 50 f3 37
       3.7040732e-05 -1.0256296e-06 1.8571842e-05 2.9005447e-05
0002f0 ac d3 3b b7 34 76 f4 b7 16 0d ca b7 a5 0e b7 b7
       -1.1195352e-05 -2.914211e-05 -2.408637e-05 -2.182212e-05
000300 df 61 4e b5 7c 49 30 37 b9 b2 e1 37 85 30 b3 35
       -7.68834e-07 1.0507527e-05 2.6905314e-05 1.335066e-06
000310 59 f3 65 b5 0d ad 99 b6 35 3f 04 37 d4 7e 03 38
       -8.5663265e-07 -4.579901e-06 7.88253e-06 3.135095e-05
000320 ce a8 93 38 b7 10 03 38 fc a9 fd 36 de 3e 25 b8
       7.0409485e-05 3.12484e-05 7.5597763e-06 -3.9397615e-05
000330 40 40 b2 b7 b6 22 c6 b7 ce bb 92 b6 7a 93 99 37
       -2.1249172e-05 -2.3619603e-05 -4.3730024e-06 1.8307695e-05
000340 2c 0f 5d 35 6e 0b 32 33 1a 3c 43 b7 1a 2d 85 37
       8.2350994e-07 4.145425e-08 -1.1636899e-05 1.5875838e-05
000350 66 37 b7 38 04 e1 8e 38 c4 68 73 38 8e 54 28 37
       8.736439e-05 6.813e-05 5.8033285e-05 1.0033267e-05
000360 ee aa 87 b7 43 22 d5 b6 eb 62 86 b7 70 dd 47 b4
       -1.617285e-05 -6.3518833e-06 -1.6020107e-05 -1.8613878e-07
000370 71 cc 96 37 2c 0f 5d 35 68 c9 4e 37 8f 24 2b b6
       1.7976594e-05 8.2350994e-07 1.232545e-05 -2.5502266e-06
000380 59 ca 70 37 1a f0 34 38 30 cf 62 38 24 93 15 38
       1.43522275e-05 4.3138956e-05 5.4075557e-05 3.5661404e-05
000390 fc 70 ca 37 1e d3 db b6 15 71 00 38 57 3b 83 36
       2.4132889e-05 -6.551286e-06 3.0622894e-05 3.9110123e-06
0003a0 68 c9 4e 37 71 cc 96 37 c5 5b 26 b7 04 00 00 00
       1.232545e-05 1.7976594e-05 -9.915738e-06 6e-45
0003b0 a9 d2 e3 b6 63 4a 68 b7 ff fc c0 b7 52 1c 14 b7
       -6.7896513e-06 -1.3845597e-05 -2.3005994e-05 -8.828081e-06
0003c0 ab 5c 94 b7 07 63 a8 36 f0 98 7c b5 ee a6 1b 38
       -1.7686127e-05 5.0183185e-06 -9.409987e-07 3.7110345e-05
0003d0 a2 aa 23 b7 04 00 00 00 3d 77 8f b7 a6 b5 ad b4
       -9.755286e-06 6e-45 -1.7102453e-05 -3.2355928e-07
0003e0 1e 7d bb 36 0a e3 d9 37 d1 23 8e b7 91 00 2e b8
       5.5876e-06 2.597414e-05 -1.6944397e-05 -4.148536e-05
0003f0 56 b8 8d 33 ce a2 74 37 62 ff 23 37 cb cd fd 37
       6.599355e-08 1.4581439e-05 9.775018e-06 3.025578e-05

exp_avg_sq f4 [64, 117]
000000 70 f6 87 32 a7 4c 49 1d 35 19 a0 32 21 2d b5 32
       1.5828135e-08 2.6641757e-21 1.8637914e-08 2.1091696e-08
000010 74 74 13 33 c4 e5 d6 32 34 fc 3a 33 54 09 0a 33
       3.4332018e-08 2.5017364e-08 4.3535877e-08 3.2139113e-08
000020 c9 59 27 33 25 f8 9c 32 05 47 9b 32 a7 4c 49 1d
       3.8964377e-08 1.8273633e-08 1.807667e-08 2.6641757e-21
000030 81 ae 48 33 e2 57 28 2e 22 0f 14 30 79 22 46 32
       4.672484e-08 3.8276833e-11 5.386359e-10 1.1532955e-08
000040 fc 25 35 33 ba de 03 33 79 a4 16 33 ec c2 0c 33
       4.2176893e-08 3.0703383e-08 3.5074184e-08 3.277357e-08
000050 66 be 25 33 32 b0 01 33 da a4 06 33 49 5c ec 31
       3.8590223e-08 3.01954e-08 3.1349238e-08 6.8789956e-09
000060 e9 40 d8 2e 86 3c 47 32 e2 57 28 2e 14 50 49 32
       9.834073e-11 1.1597086e-08 3.8276833e-11 1.17179475e-08
000070 6e bd 0d 33 86 05 4c 33 9d d2 3f 33 64 c3 49 33
       3.3001406e-08 4.7502475e-08 4.4662205e-08 4.6976666e-08
000080 7e 39 3e 33 f7 1e 70 33 5a 51 2b 33 2f 12 2d 33
       4.429011e-08 5.5907517e-08 3.988803e-08 4.029624e-08
000090 b2 e2 f1 32 0a 12 60 32 86 3c 47 32 a7 57 55 30
       2.8159182e-08 1.3042618e-08 1.1597086e-08 7.761351e-10
0000a0 af 5f e9 32 41 54 3f 33 5f 44 5d 33 5a f3 59 33
       2.7168282e-08 4.454728e-08 5.1517755e-08 5.0745577e-08
0000b0 7d f0 5c 33 3e 47 6e 33 3a 54 66 33 5f 89 52 33
       5.1441464e-08 5.5478488e-08 5.362765e-08 4.9019373e-08
0000c0 f3 68 36 33 7f 46 49 33 1c 24 35 33 4e 8f 70 32
       4.2470628e-08 4.6863075e-08 4.2175188e-08 1.4002422e-08
0000d0 52 16 d8 31 5f 92 e8 32 3a fc 46 33 aa d5 6e 33
       6.288965e-09 2.7074917e-08 4.6329866e-08 5.560802e-08
0000e0 af 9d 5d 33 25 54 45 33 1b 70 47 33 94 51 39 33
       5.1598985e-08 4.5944166e-08 4.6435257e-08 4.3147864e-08
0000f0 de 61 48 33 62 26 2f 33 62 f1 35 33 f0 ad 1e 33
       4.665514e-08 4.078027e-08 4.2361883e-08 3.6945437e-08
000100 1f ee f2 32 5b 18 f6 30 2e ad 79 32 50 73 2e 33
       2.8280793e-08 1.7905778e-09 1.4533084e-08 4.0617408e-08
000110 39 1c 87 33 03 d1 5a 33 f3 98 43 33 98 2e 36 33
       6.291561e-08 5.0947175e-08 4.5541082e-08 4.2417554e-08
000120 fc 9c 33 33 cc 0c 2e 33 b8 e2 13 33 14 6a 16 33
       4.181946e-08 4.052417e-08 3.4432304e-08 3.5021074e-08
000130 35 74 6b 32 67 09 9d 32 2a ba 75 2e bd ed 1e 31
       1.3705223e-08 1.8281481e-08 5.5871897e-11 2.3127165e-09
000140 a7 ec 5e 33 26 e5 b4 33 0c 25 92 33 b5 7b 86 33
       5.1903637e-08 8.423585e-08 6.8053936e-08 6.2623634e-08
000150 fe 69 49 33 90 c5 3a 33 02 86 16 33 20 f8 ef 32
       4.689536e-08 4.348618e-08 3.5046476e-08 2.7936096e-08
000160 f9 0f e0 32 b9 b1 98 30 80 37 4f 32 e2 57 28 2e
       2.6084296e-08 1.1109967e-09 1.2061605e-08 3.8276833e-11
000170 bd 4f f9 2b d4 29 08 33 c2 2a 87 33 6a 1a b3 33
       1.7714646e-12 3.170301e-08 6.294205e-08 8.340142e-08
000180 7f 41 66 33 aa 18 53 33 a1 01 28 33 3e a7 17 33
       5.3610616e-08 4.9149698e-08 3.911703e-08 3.5309533e-08
000190 b2 e5 d1 32 28 70 35 32 58 04 a2 2b 86 3c 47 32
       2.4435256e-08 1.0561088e-08 1.1511998e-12 1.1597086e-08
0001a0 e2 57 28 2e f8 65 b5 31 61 fc 30 31 4f e4 fd 32
       3.8276833e-11 5.279386e-09 2.5754832e-09 2.95569e-08
0001b0 a9 3f 46 33 b6 46 1c 33 ac ee 28 33 7f 18 0d 33
       4.6158366e-08 3.638589e-08 3.933262e-08 3.28514e-08
0001c0 e7 65 fe 32 5c 9d b1 32 6b 99 8c 30 f8 65 b5 31
       2.9615832e-08 2.067707e-08 1.0229945e-09 5.279386e-09
0001d0 86 3c 47 32 73 96 c3 31 14 1d bb 1c aa e7 11 32
       1.1597086e-08 5.692351e-09 1.2382138e-21 8.492785e-09
0001e0 f6 75 f8 32 0b 36 fb 32 ce 97 43 33 d8 b4 02 33
       2.8924642e-08 2.9244822e-08 4.554004e-08 3.043246e-08
0001f0 12 13 08 33 91 7b a7 32 12 f6 ca 32 e7 82 e1 31
       3.1682312e-08 1.949755e-08 2.3627795e-08 6.5632437e-09
000200 14 1d bb 1c b7 57 90 32 f1 66 6d 2d db 4f 2f 30
       1.2382138e-21 1.6803694e-08 1.3494748e-11 6.377811e-10
000210 c0 fb 66 32 e5 98 87 33 a1 b4 7a 33 6b 0e 9d 33
       1.3445003e-08 6.314239e-08 5.8371942e-08 7.313505e-08
000220 0d f6 5c 33 b0 4c 4d 33 bf a4 1a 33 52 5f 17 33
       5.1446523e-08 4.780003e-08 3.6005755e-08 3.524412e-08
000230 64 02 07 32 10 0e cc 2e 6b 50 8f 31 f1 66 6d 2d
       7.858578e-09 9.279344e-11 4.17099e-09 1.3494748e-11
000240 38 7b 6c 32 55 d4 33 33 99 c8 d5 33 43 88 d2 33
       1.3765025e-08 4.18698e-08 9.955074e-08 9.803673e-08
000250 c4 7a b1 33 44 dc 86 33 94 4c 85 33 c5 85 52 33
       8.264536e-08 6.279927e-08 6.2072246e-08 4.9016098e-08
000260 e1 39 34 33 48 28 e6 32 32 47 11 32 6b 50 8f 31
       4.1962156e-08 2.6793842e-08 8.456299e-09 4.17099e-09
000270 79 86 75 30 84 d6 20 33 71 67 9d 33 0d 59 05 34
       8.932158e-10 3.7448004e-08 7.329698e-08 1.2418987e-07
000280 2c 02 fc 33 9a 67 a8 33 75 fe 93 33 29 f9 a4 33
       1.17350595e-07 7.8419546e-08 6.8915064e-08 7.682167e-08
000290 53 50 78 33 d7 53 4c 33 f0 c0 23 33 ec eb ba 32
       5.7815054e-08 4.7573703e-08 3.812687e-08 2.1760535e-08
0002a0 24 3a a4 31 8e e4 13 32 7d a8 31 33 8e cc ae 33
       4.779638e-09 8.6084935e-09 4.1364263e-08 8.139715e-08
0002b0 fb 48 b5 33 2c a3 ca 33 4e fc a9 33 c2 27 b1 33
       8.4417444e-08 9.436039e-08 7.91557e-08 8.249437e-08
0002c0 8c c8 ac 33 02 89 80 33 b2 4b 58 33 3b fa 25 33
       8.0458534e-08 5.985386e-08 5.0360264e-08 3.864464e-08
0002d0 b8 bf bb 32 24 30 26 32 cb 09 27 31 7c 91 b9 32
       2.1856849e-08 9.673418e-09 2.4307265e-09 2.1602993e-08
0002e0 b6 41 7f 33 8d 1a a4 33 9c 07 a8 33 af 7a 97 33
       5.9431578e-08 7.641675e-08 7.824494e-08 7.0538015e-08
0002f0 24 d9 a5 33 0d f9 90 33 d1 60 7e 33 4a d4 3e 33
       7.722909e-08 6.7508246e-08 5.9227037e-08 4.4430898e-08
000300 c1 46 1a 33 1f aa 3b 32 46 86 dd 31 45 79 11 2e
       3.592027e-08 1.0923514e-08 6.4472117e-09 3.3076892e-11
000310 3c 83 2f 31 c0 6d 7b 33 7b 52 8c 33 b2 60 9b 33
       2.554045e-09 5.854031e-08 6.534261e-08 7.235339e-08
000320 a3 25 7d 33 bf e1 78 33 24 3b 6c 33 66 1a 65 33
       5.8940383e-08 5.7947315e-08 5.500182e-08 5.3342227e-08
000330 de 65 2a 33 3f 02 fa 32 e5 cc 92 30 61 4e 95 31
       3.9673857e-08 2.9104852e-08 1.0681133e-09 4.3453814e-09
000340 f1 66 6d 2d 5c d3 c4 2b c1 35 bd 32 e6 fb 17 33
       1.3494748e-11 1.3985302e-12 2.202694e-08 3.5386527e-08
000350 f3 54 5b 33 ae 19 69 33 00 ed 88 33 54 6b 61 33
       5.1067172e-08 5.4272896e-08 6.3761036e-08 5.248451e-08
000360 e1 a0 50 33 fa 0a 16 33 80 16 60 32 e0 be c8 2b
       4.8575092e-08 3.493458e-08 1.3043632e-08 1.4263833e-12
000370 6b 50 8f 31 f1 66 6d 2d de 0a 03 31 83 fa dd 30
       4.17099e-09 1.3494748e-11 1.9069186e-09 1.6151066e-09
000380 43 2d 84 32 1c d9 14 33 92 6c 13 33 79 fc 5f 33
       1.5387405e-08 3.4656395e-08 3.432485e-08 5.2150856e-08
000390 38 35 0e 33 cc a8 28 33 3e b3 98 32 83 ec b8 30
       3.3110354e-08 3.9269068e-08 1.7776639e-08 1.3454983e-09
0003a0 de 0a 03 31 6b 50 8f 31 1f 82 83 31 bc f5 2d 1c
       1.9069186e-09 4.17099e-09 3.827395e-09 5.7558503e-22
0003b0 12 51 d1 31 47 84 0b 33 ea 6e dd 32 81 bc 25 33
       6.091917e-09 3.2483765e-08 2.5778224e-08 3.85885e-08
0003c0 28 51 b9 32 ca 5f f2 32 14 97 97 32 93 93 a5 32
       2.157374e-08 2.8216068e-08 1.7647416e-08 1.9275637e-08
0003d0 5c cd 9e 31 bc f5 2d 1c 55 fb 41 32 df 6f 2b 2d
       4.621752e-09 5.7558503e-22 1.1291225e-08 9.745065e-12
0003e0 df b4 5d 30 5a 60 7d 32 c4 9e 56 33 24 d3 44 33
       8.0656365e-10 1.4748446e-08 4.9970154e-08 4.5826837e-08
0003f0 0c 5d 64 33 45 23 2b 33 7d 2d 2e 33 29 7d 09 33
       5.3170012e-08 3.9846118e-08 4.0553903e-08 3.201163e-08

exp_avg f4 [64]
000000 70 cc a7 b5 8a 90 1e 38 4d 0a 98 b7 7e 29 21 36
       -1.2501969e-06 3.7804748e-05 -1.8124609e-05 2.4015021e-06
000010 0a 3a 56 38 af e8 50 38 ec 09 5b 38 f2 e5 80 37
       5.107563e-05 4.9807768e-05 5.222291e-05 1.5365866e-05
000020 cd cb 13 b8 67 e8 e4 b8 4e ff 86 b8 3c c3 b5 36
       -3.5237335e-05 -0.000109151755 -6.437172e-05 5.4169486e-06
000030 19 90 8d 38 e8 48 35 38 78 0a 62 b8 df 62 45 38
       6.750244e-05 4.3221662e-05 -5.389235e-05 4.706054e-05
000040 ec d6 b7 b8 90 cc 25 b8 82 98 68 b8 29 ed 4c b8
       -8.766152e-05 -3.952958e-05 -5.5455144e-05 -4.8858263e-05
000050 94 91 8a b8 4d c1 7c b8 07 a0 c8 38 a2 b2 b4 36
       -6.607469e-05 -6.0261507e-05 9.5665506e-05 5.3852136e-06
000060 07 fc 65 b8 35 ca 70 b8 3b c7 2c b8 06 b1 5d b8
       -5.4832573e-05 -5.740878e-05 -4.1193543e-05 -5.2855372e-05
000070 89 23 10 b8 7c 79 6f b7 d8 eb 64 38 2c 0c a2 38
       -3.436537e-05 -1.4273795e-05 5.4579083e-05 7.727029e-05
000080 ce 91 83 b8 55 0c 8d 37 7d 4d 46 b7 8f 82 d4 b6
       -6.273725e-05 1.6814252e-05 -1.1819761e-05 -6.3332914e-06
000090 4b 9f 3d b8 0c 98 8d b8 88 1c 8d 38 8c 76 6c b7
       -4.5209465e-05 -6.751725e-05 6.728718e-05 -1.40942975e-05
0000a0 a3 bc ab b8 2a c9 3a 38 6e ad 81 b8 6b b0 9d 38
       -8.189052e-05 4.4533204e-05 -6.183503e-05 7.519204e-05
0000b0 8f 36 7b 38 81 24 a9 b8 34 e6 e2 36 8f be 93 b6
       5.9893875e-05 -8.065347e-05 6.762124e-06 -4.4031253e-06
0000c0 7d 7b ca 37 85 56 ee 35 4a f1 d5 b7 fa 33 5b b8
       2.413778e-05 1.7757562e-06 -2.5503938e-05 -5.2262076e-05
0000d0 5c 20 4c b8 82 0d 8a 36 a0 52 ea b7 3c be 0e 38
       -4.8667527e-05 4.114293e-06 -2.7933449e-05 3.4032608e-05
0000e0 fa ec b8 38 9a 07 9b b8 66 63 46 38 7e e3 c9 b7
       8.817944e-05 -7.392392e-05 4.729945e-05 -2.4067002e-05
0000f0 55 30 83 38 80 66 7e b8 17 00 3a b8 e3 ef aa 38
       6.255569e-05 -6.065378e-05 -4.434594e-05 8.150914e-05

exp_avg_sq f4 [64]
000000 ae 36 61 33 28 d9 a1 32 a4 24 59 32 3f 23 8e 33
       5.2436626e-08 1.8841618e-08 1.26393935e-08 6.6188015e-08
000010 0c 29 08 34 8a 5a 0c 33 c9 d4 45 33 94 10 44 33
       1.268092e-07 3.2678635e-08 4.6061164e-08 4.5649884e-08
000020 21 de 1a 34 03 4a 86 34 7a d5 a8 33 f0 c2 91 32
       1.4423178e-07 2.5013296e-07 7.861941e-08 1.6968869e-08
000030 3d c3 1b 34 75 8a 69 34 d1 eb 68 34 02 31 22 34
       1.4506527e-07 2.1750186e-07 2.1692473e-07 1.5105255e-07
000040 aa 5c 17 34 69 7f 26 34 d2 5b 09 34 ca 38 9a 34
       1.4096682e-07 1.5506306e-07 1.2792523e-07 2.8726055e-07
000050 76 5d f0 33 98 b0 e0 33 ee ea 87 34 f0 77 91 32
       1.1192871e-07 1.0462935e-07 2.5316643e-07 1.6934763e-08
000060 4b 48 3a 33 6f 97 07 34 1e 43 60 33 d8 57 2e 34
       4.337225e-08 1.2627946e-07 5.2215107e-08 1.623697e-07
000070 51 3f a1 32 f3 2e 4c 33 1f 21 f3 32 7d d8 0d 34
       1.877166e-08 4.754015e-08 2.8303985e-08 1.3210406e-07
000080 5a 75 72 34 99 e8 01 34 e9 b4 85 32 28 ee 55 33
       2.2580699e-07 1.209868e-07 1.5565506e-08 4.980953e-08
000090 ab f4 0c 34 1f 37 e1 33 f5 68 35 33 7d 0c 87 33
       1.3127526e-07 1.04874054e-07 4.2237804e-08 6.288699e-08
0000a0 b2 22 b1 34 fb 33 e9 33 67 c9 3f 34 42 03 ac 33
       3.2994063e-07 1.0859363e-07 1.7861531e-07 8.009967e-08
0000b0 97 95 66 34 06 aa 56 34 eb f0 89 32 19 88 8b 32
       2.147484e-07 1.9992157e-07 1.6058456e-08 1.624362e-08
0000c0 10 8e 77 32 34 8b bf 33 cc 79 29 33 b9 0e 45 32
       1.44095935e-08 8.9194515e-08 3.9459152e-08 1.1470257e-08
0000d0 19 2e 00 34 86 58 c9 32 a0 78 1d 34 7a 01 4f 32
       1.1937699e-07 2.3439735e-08 1.4665648e-07 1.20493215e-08
0000e0 f3 44 1f 34 55 25 12 34 d4 13 dd 33 f8 95 52 34
       1.4833113e-07 1.3610891e-07 1.0294721e-07 1.9612332e-07
0000f0 db 11 a0 34 de 85 4f 34 13 be eb 33 e7 2a c8 34
       2.9815314e-07 1.9327078e-07 1.09776146e-07 3.7284119e-07
