server_report/ae_graph/ae_graph_mask_upgrade_2/autoencoder_20251230_205804.pth (torch, 14022 bytes, 21 tensors)

conv1.bias f4 [32]
00000000: 0ded 8ab8 0000 0000 0000 0000 0000 0000
00000010: 0000 0000 f866 a0b8 0000 0000 4e57 05bb
00000020: c7e6 f5ba 6edf 5fba 0000 0000 f4b9 33be
00000030: 0000 0000 0000 0000 0000 0000 0000 0000
00000040: 0000 0000 844e 7abc 024a 41bd 01d6 08bb
00000050: 0000 0000 0000 0000 0000 0000 7dfd 9ebd
00000060: 0000 0000 0000 0000 e726 b43e 8351 13bb
00000070: 0000 0000 0000 0000 16a3 91b8 d7d6 0fbc
-6.624507e-05 0.0 0.0 0.0 0.0 -7.648574e-05 0.0 -0.0020346227
-0.0018760794 -0.00085400685 0.0 -0.17551404 0.0 0.0 0.0 0.0
0.0 -0.015277509 -0.04718972 -0.002087951 0.0 0.0 0.0 -0.07763193
0.0 0.0 0.3518593 -0.0022479005 0.0 0.0 -6.944516e-05 -0.008779249

conv1.lin.weight f4 [32, 1]
00000000: 7c19 c83e 929d e5bc 211f 84be 63fa dcbd
00000010: 94f9 63be 23fd c43e 6e8a 91be e974 ff3e
00000020: db17 b93e 7891 023e 1f51 0cbe d95d 0d3f
00000030: 687a d3bd 8cfe abbe 0fd2 33be 08d5 59be
00000040: 615b 96be 0390 073c 1758 323f 41fc 243f
00000050: 102f cebc bac8 aabd 275d 5ebe f4ad 663f
00000060: c356 34be 7a59 09be a057 dbbf 74f5 103f
00000070: 9a5d b8bd aed7 8bbd c9fe 9d3e cc33 5dbb
0.39081943 -0.028029237 -0.25805 -0.10789945 -0.22263175 0.38474378 -0.28425926 0.49893883
0.36151013 0.12750804 -0.1370282 0.55221325 -0.103260815 -0.3359264 -0.175606 -0.21272671
-0.29366592 0.008274081 0.69665664 0.6444741 -0.025168926 -0.08339067 -0.21715222 0.9010918
-0.17611222 -0.13413039 -1.7136116 0.5662453 -0.09002228 -0.06828247 0.30858448 -0.0033752797

conv2.bias f4 [2]
00000000: 73e8 ddbc bf2d efbb
-0.02708838 -0.0072991545

conv2.lin.weight f4 [2, 32]
00000000: b375 d33e ee41 bc3c 00b5 053e 8213 90bd
00000010: a629 bbbe 1856 2d3f b8b6 b1be c9a8 b33e
00000020: f867 543e bf97 36bd ac70 d63e 690e 96bf
00000030: 604f 9cbe cfb2 ce3d 19f4 7dbe 10e1 94be
00000040: 2dde 363e 27d1 ae3e 6342 acbb 181a ed3e
00000050: 2fde 1dbe 0f0a c2be b0ac a1be a437 91be
00000060: 0227 b6be 88dc 97be 9173 07c0 ea36 9f3e
00000070: 0bff b9be 7968 67be b3b6 523e 3708 e83d
00000080: b302 af3e 323b 423e 8a70 79be 7f0d b4be
00000090: 8933 c63e 330e d73e 2952 043e 034b 043f
000000a0: 1887 0c3f 5384 543e bc92 af3d 2b25 8a3e
000000b0: 1e77 9fbe 5059 c73e 9a2a 253e 8f7a 163e
000000c0: 4c7d 943e 2b87 193e 9ae7 93bf 6da8 053f
000000d0: 88d4 b33e 8350 81be 1f8a 8a3c b17c 86bf
000000e0: b4c1 a8bd 2a14 563c 15ce 87bf 2dfa e43e
000000f0: 8389 a23e e2bd 363e a55d e33d 81a7 a7bd
0.41300735 0.022980656 0.13057327 -0.07034971 -0.36555213 0.67709494 -0.34709716 0.3508971
0.20742786 -0.04457831 0.41882837 -1.1723148 -0.30529308 0.10092699 -0.24800147 -0.2907796
0.17858191 0.34143946 -0.0052569374 0.4630897 -0.15416788 -0.378983 -0.31577063 -0.28362763
-0.35576636 -0.2966044 -2.1164286 0.31096584 -0.36327395 -0.22598447 0.20577507 0.11329692
0.34181747 0.18967894 -0.24359336 -0.35166547 0.38711193 0.4200302 0.12921967 0.5167696
0.54893637 0.20753603 0.08572909 0.26981482 -0.31145567 0.38935328 0.16129532 0.1469519
0.29001844 0.14992969 -1.1555054 0.5221012 0.35123086 -0.25256738 0.016911564 -1.0506803
-0.08240071 0.013066331 -1.0609766 0.4472212 0.31745538 0.17845872 0.11101846 -0.08186246

decoder.0.weight f4 [32, 2]
00000000: 36b1 3fbc 382c 41bd e61e c9be fb28 4abf
00000010: 1095 293e 589a 0bbf 8336 703e 6a0c 18be
00000020: 0170 35bf 65c4 28bf ff11 97be e477 d4be
00000030: 907b ec3f 6fea 3e3f 130c 0dbf fe06 6bbe
00000040: 08d2 babe b497 bbbd d3b5 d93e dd5e 7b3e
00000050: d47c 973e 8800 1d3f 9a13 67be e166 1dbe
00000060: beb5 f4be f68f b5bd de76 e83f 2afe cf3e
00000070: dcdb 053f 6aba 04bf ac9b 86be 70f7 b53e
00000080: 41ad 1c3d 6041 bc3f 4266 db3e db56 a1be
00000090: a386 bdbd 111e aebe 6ee7 323f d1b4 833f
000000a0: 39e7 dfbd 8e40 5d3e 6e6d c83e 43a6 0cbe
000000b0: 83e9 153b b3d9 1abf 552a fabe 9627 27be
000000c0: f6a6 42be 6dab bd3f 6ac7 1abe 8ca1 253e
000000d0: 844f 84bf be97 babe 34a0 b5be eca6 123f
000000e0: f773 09bf bc2e 10bf a019 00be 39db e83c
000000f0: 62be fd3e 7416 43bf 5fcd c63e f6c9 753f
-0.011699965 -0.04716131 -0.39281386 -0.7896878 0.16560769 -0.54532385 0.23458295 -0.14848486
-0.7087403 -0.65924674 -0.29505917 -0.4149772 1.8475208 0.7457647 -0.5509655 -0.22951886
-0.36488366 -0.091597944 0.42521533 0.24547906 0.29587424 0.61328936 -0.22566071 -0.15371276
-0.47794908 -0.08865349 1.8161275 0.406236 0.52288604 -0.51846945 -0.26290643 0.35540342
0.038251165 1.4707451 0.42851454 -0.31511578 -0.092541955 -0.34007314 0.69884384 1.0289556
-0.10932774 0.21606657 0.39145988 -0.13735299 0.002287478 -0.6048843 -0.48860422 -0.16323695
-0.19009003 1.481794 -0.15115133 0.16174906 -1.0336766 -0.36443895 -0.35473788 0.5728595
-0.53692573 -0.5632131 -0.12509775 0.028424846 0.49559313 -0.76206136 0.3882856 0.9601129

decoder.0.bias f4 [32]
00000000: bb38 98be 36cb 003f f547 233e 8ba8 5dbe
00000010: cb0b c03e 2865 1f3e 20de 883b 1664 02bf
00000020: 6256 6cbe 078b 0ebe 1b05 223f 4be1 ccbe
00000030: f4d8 213e a720 d2be 959d 09bf 282f 113f
00000040: ce06 863e a6f9 9b3e e07c a23e f44d 60be
00000050: 13e7 10bf 7a1b 0dbe 2005 abbe cc00 09bf
00000060: 7956 b63c 36e9 3ebe b92d ea3d 39ea 803d
00000070: 36a1 13be 6b53 13bf 09d1 413e 57b8 3c3f
-0.29730782 0.50310075 0.15945418 -0.21646325 0.37508997 0.15565932 0.00417687 -0.5093397
-0.23079827 -0.13920222 0.6328904 -0.40015635 0.15805417 -0.41040537 -0.53756076 0.5671258
0.26177067 0.30463904 0.31735897 -0.21904737 -0.5660259 -0.13780013 -0.33402348 -0.5351684
0.02225803 -0.1864365 0.11434502 0.062946744 -0.14416966 -0.5754916 0.18927397 0.7371878

decoder.2.weight f4 [1, 32]
00000000: fda3 8abc da4d 04be fb79 f9bd eccf 443d
00000010: cc55 55be 6c5b 14be 9cde fc3e ca5d 04bd
00000020: 4c55 ec3e 26cb dbbf 0918 6a3d f2a6 eb3c
00000030: 504c 15be 5144 da3f 4f8c 093e 4238 003e
00000040: c707 033f f90a 6ebe 764f 23be 6d58 a5c0
00000050: da24 3abd 6379 14bf 5530 663c 31cd 80bd
00000060: 3d73 dbbf 4c6c 31ba 370b 653e eca9 103f
00000070: f593 8c3e 993c 233c 9d6d e8be 61b1 a03e
-0.016923899 -0.12920323 -0.12181469 0.048049852 -0.2083351 -0.14488 0.49388587 -0.032316007
0.46158826 -1.7171371 0.057151828 0.02876613 -0.14579892 1.7052099 0.1343243 0.1252146
0.5118374 -0.23246373 -0.1594828 -5.167044 -0.0454453 -0.5799772 0.014049609 -0.06289137
-1.7144543 -0.00067681517 0.2236756 0.5650928 0.27456632 0.009963178 -0.45396128 0.3138533

exp_avg f4 [32]
00000000: 4975 2539 0000 0000 0000 0000 0000 0000
00000010: 0000 0000 b823 6339 0000 0000 a99d 3739
00000020: 3929 2439 8c3c 2438 0000 0000 2065 86b8
00000030: 0000 0000 0000 0000 0000 0000 0000 0000
00000040: 0000 0000 0400 0000 ca9f 77b9 0723 4d39
00000050: 0000 0000 0000 0000 0000 0000 a804 88b9
00000060: 0000 0000 0000 0000 8ca7 e2b7 3c27 2039
00000070: 0000 0000 0000 0000 ef33 8138 0400 0000
0.00015779318 0.0 0.0 0.0 0.0 0.00021661713 0.0 0.00017510973
0.00015655615 3.9157036e-05 0.0 -6.408454e-05 0.0 0.0 0.0 0.0
0.0 6e-45 -0.00023615282 0.00019563372 0.0 0.0 0.0 -0.0002594341
0.0 0.0 -2.701932e-05 0.00015273405 0.0 0.0 6.160873e-05 6e-45

exp_avg_sq f4 [32]
00000000: 048d e034 0000 0000 0000 0000 0000 0000
00000010: 0000 0000 b404 5e35 0000 0000 6a12 1d35
00000020: 50fc 0235 452a 5633 0000 0000 f0b3 6234
00000030: 0000 0000 0000 0000 0000 0000 0000 0000
00000040: 0000 0000 8d0a 3622 2653 9235 86f9 4135
00000050: 0000 0000 0000 0000 0000 0000 74ff a535
00000060: 0000 0000 0000 0000 9248 7b34 0264 ee34
00000070: 0000 0000 0000 0000 454e 9133 b3e1 ad21
4.1825854e-07 0.0 0.0 0.0 0.0 8.270829e-07 0.0 5.8513854e-07
4.8795937e-07 4.98642e-08 0.0 2.1113351e-07 0.0 0.0 0.0 0.0
0.0 2.4671185e-18 1.0902047e-06 7.2261207e-07 0.0 0.0 0.0 1.2367805e-06
0.0 0.0 2.3402598e-07 4.440372e-07 0.0 0.0 6.766326e-08 1.1782678e-18

exp_avg f4 [32, 1]
00000000: 8455 5138 0000 0000 0000 0000 0000 0000
00000010: 0000 0000 421c 9538 0000 0000 f7dd 7938
00000020: fd3b 6138 2043 5e37 0000 0000 9418 fab7
00000030: 0000 0000 0000 0000 0000 0000 0000 0000
00000040: 0000 0000 0400 0000 47e1 bbb8 f165 8b38
00000050: 0000 0000 0000 0000 0000 0000 447d ccb8
00000060: 0000 0000 0000 0000 8a86 5bb6 3b11 5a38
00000070: 0000 0000 0000 0000 f948 ab37 0400 0000
4.9909126e-05 0.0 0.0 0.0 0.0 7.110137e-05 0.0 5.9572947e-05
5.370005e-05 1.324786e-05 0.0 -2.9813767e-05 0.0 0.0 0.0 0.0
0.0 6e-45 -8.958816e-05 6.6470246e-05 0.0 0.0 0.0 -9.7508106e-05
0.0 0.0 -3.2711855e-06 5.1991297e-05 0.0 0.0 2.0418769e-05 6e-45

exp_avg_sq f4 [32, 1]
00000000: ca88 3c33 0000 0000 0000 0000 0000 0000
00000010: 0000 0000 b97c c733 0000 0000 68e4 7a33
00000020: 3034 4233 f409 3131 0000 0000 6e20 2c33
00000030: 0000 0000 0000 0000 0000 0000 0000 0000
00000040: 0000 0000 9abc af20 eefa eb33 60d0 a033
00000050: 0000 0000 0000 0000 0000 0000 aa8d 1334
00000060: 0000 0000 0000 0000 d35b 9931 4818 3f33
00000070: 0000 0000 0000 0000 cebb 0432 24d2 8120
4.389657e-08 0.0 0.0 0.0 0.0 9.2893465e-08 0.0 5.8415395e-08
4.521661e-08 2.5762548e-09 0.0 4.0076365e-08 0.0 0.0 0.0 0.0
0.0 2.977096e-19 1.0988684e-07 7.488484e-08 0.0 0.0 0.0 1.3741979e-07
0.0 0.0 4.4633253e-09 4.4492737e-08 0.0 0.0 7.726113e-09 2.199251e-19

exp_avg f4 [2]
00000000: 418b e838 7342 af39
0.0001108856 0.0003342811

exp_avg_sq f4 [2]
00000000: ef47 b235 f354 4b36
1.3282969e-06 3.0298804e-06

exp_avg f4 [2, 32]
00000000: bd82 be37 0000 0000 0000 0000 0000 0000
00000010: 0000 0000 139b bb37 0000 0000 3193 f037
00000020: fa22 ae37 d022 f736 0000 0000 9d09 bf36
00000030: 0000 0000 0000 0000 0000 0000 0000 0000
00000040: 0000 0000 0400 0000 e1d0 0738 aa87 1b38
00000050: 0000 0000 0000 0000 0000 0000 b417 2538
00000060: 0000 0000 0000 0000 a965 afb7 1c79 0838
00000070: 0000 0000 0000 0000 d1bb 9637 0400 0000
00000080: 8aad fa37 0000 0000 0000 0000 0000 0000
00000090: 0000 0000 39ae f637 0000 0000 d7bb 1d38
000000a0: ef72 e437 d50f 2337 0000 0000 b2a7 bc36
000000b0: 0000 0000 0000 0000 0000 0000 0000 0000
000000c0: 0000 0000 0400 0080 70a6 3838 46f4 4b38
000000d0: 0000 0000 0000 0000 0000 0000 54f0 6038
000000e0: 0000 0000 0000 0000 20e9 3d38 46ed 3238
000000f0: 0000 0000 0000 0000 9224 c637 0400 0080
2.2710645e-05 0.0 0.0 0.0 0.0 2.236435e-05 0.0 2.867877e-05
2.0758704e-05 7.3652263e-06 0.0 5.6933627e-06 0.0 0.0 0.0 0.0
0.0 6e-45 3.2381042e-05 3.7081227e-05 0.0 0.0 0.0 3.936114e-05
0.0 0.0 -2.0908965e-05 3.253772e-05 0.0 0.0 1.7968852e-05 6e-45
2.9883133e-05 0.0 0.0 0.0 0.0 2.9406614e-05 0.0 3.7606656e-05
2.7233238e-05 9.719243e-06 0.0 5.622359e-06 0.0 0.0 0.0 0.0
0.0 -6e-45 4.4024026e-05 4.862647e-05 0.0 0.0 0.0 5.3629585e-05
0.0 0.0 4.5278226e-05 4.2659485e-05 0.0 0.0 2.3620469e-05 -6e-45

exp_avg_sq f4 [2, 32]
00000000: c755 5132 0000 0000 0000 0000 0000 0000
00000010: 0000 0000 2e65 4b32 0000 0000 6147 a732
00000020: 7cdb 2d32 e437 a730 0000 0000 0c48 7a30
00000030: 0000 0000 0000 0000 0000 0000 0000 0000
00000040: 0000 0000 fdad 761d 7e02 dc32 0e6e 0c33
00000050: 0000 0000 0000 0000 0000 0000 facd 2333
00000060: 0000 0000 0000 0000 2efb 9e33 48df d732
00000070: 0000 0000 0000 0000 16b7 0232 ef8c 9d1a
00000080: 94db 5932 0000 0000 0000 0000 0000 0000
00000090: 0000 0000 41b9 5332 0000 0000 eb3c ad32
000000a0: 89da 3332 6cc6 ac30 0000 0000 a482 6c30
000000b0: 0000 0000 0000 0000 0000 0000 0000 0000
000000c0: 0000 0000 b48b e81d 8523 d132 0492 1133
000000d0: 0000 0000 0000 0000 0000 0000 e022 1933
000000e0: 0000 0000 0000 0000 7f37 9634 7194 df32
000000f0: 0000 0000 0000 0000 62ec 0732 a3b9 061b
1.2184905e-08 0.0 0.0 0.0 0.0 1.1839161e-08 0.0 1.9473818e-08
1.011983e-08 1.2166734e-09 0.0 9.1051855e-10 0.0 0.0 0.0 0.0
0.0 3.2647779e-21 2.5612504e-08 3.2696384e-08 0.0 0.0 0.0 3.813873e-08
0.0 0.0 7.403138e-08 2.513083e-08 0.0 0.0 7.608625e-09 6.516137e-23
1.2680989e-08 0.0 0.0 0.0 0.0 1.2323938e-08 0.0 2.0167553e-08
1.04688604e-08 1.2571042e-09 0.0 8.604195e-10 0.0 0.0 0.0 0.0
0.0 6.155434e-21 2.4346955e-08 3.3893244e-08 0.0 0.0 0.0 3.5654807e-08
0.0 0.0 2.7980056e-07 2.602812e-08 0.0 0.0 7.9117815e-09 1.1144203e-22

exp_avg f4 [32, 2]
00000000: 0000 0000 0000 0000 aee6 1737 5286 9b36
00000010: 2a47 0f37 c4a8 9236 0000 0000 0000 0000
00000020: 0831 7537 830c fb36 4d58 2a37 df6c ae36
00000030: 76db 7035 74d4 9f33 c415 9935 3069 1635
00000040: 9672 0db8 7bf9 7bb7 f274 6c36 70e8 eeb4
00000050: f181 86b6 2610 0ab6 0000 0000 0000 0000
00000060: 9686 2537 9ec3 b036 6734 5936 92ba fa35
00000070: 0000 0000 0000 0000 ac0f 14b7 c09b 97b6
00000080: 8a63 5734 732c c8b5 4f2a 8937 d355 0c37
00000090: 73a8 3b37 3f1d c036 83ce 5c38 3c1e c8b5
000000a0: 0000 0000 0000 0000 1e27 81b4 6fea 39b3
000000b0: 0000 0000 0000 0000 0400 0080 0400 0080
000000c0: 30f7 05b6 3bec 91b4 0000 0000 0000 0000
000000d0: cb0a 83b7 d5d1 08b7 0dc2 28b8 c46c abb7
000000e0: 2f4b 9eb7 4d16 1bb7 0000 0000 0000 0000
000000f0: 86db 0538 9b00 8937 ff21 b3b7 f7b7 37b7
0.0 0.0 9.054011e-06 4.634997e-06 8.540033e-06 4.370786e-06 0.0 0.0
1.4614554e-05 7.4818395e-06 1.0153349e-05 5.1982784e-06 8.9726325e-07 7.4426595e-08 1.1405723e-06 5.603242e-07
-3.3723736e-05 -1.50188525e-05 3.5234812e-06 -4.4500075e-07 -4.0086384e-06 -2.0573002e-06 0.0 0.0
9.866102e-06 5.2679816e-06 3.2366022e-06 1.8680751e-06 0.0 0.0 -8.825136e-06 -4.5182824e-06
2.0059647e-07 -1.4914098e-06 1.6351374e-05 8.364633e-06 1.1185289e-05 5.7254506e-06 5.2644416e-05 -1.490996e-06
0.0 0.0 -2.4056584e-07 -4.3286885e-08 0.0 0.0 -6e-45 -6e-45
-1.9962426e-06 -2.7180235e-07 0.0 0.0 -1.5621443e-05 -8.155087e-06 -4.0235045e-05 -2.0435436e-05
-1.8870078e-05 -9.243912e-06 0.0 0.0 3.1914118e-05 1.6331955e-05 -2.1354293e-05 -1.0950483e-05

exp_avg_sq f4 [32, 2]
00000000: 0000 0000 0000 0000 9893 6a32 628e 5f31
00000010: 84bd 5032 90ee 4631 0000 0000 0000 0000
00000020: 710a 1933 47d9 1132 3abb 9332 25ca 8c31
00000030: f909 c930 c386 812c 35ff 6b2e 660d 652d
00000040: 5c2b 3e34 8e12 3833 b8f2 9130 366d b42c
00000050: 4374 3931 d9bb 3030 0000 0000 0000 0000
00000060: f94d 9532 e65c 8e31 2e99 4132 2da8 852d
00000070: 0000 0000 0000 0000 9c89 6032 e7f8 5531
00000080: 454e 9c30 f41e 832e 220f 4033 db06 3732
00000090: de59 b332 21ec aa31 4892 c132 9d06 7f2e
000000a0: 0000 0000 0000 0000 0bb1 2b2e 2c85 932a
000000b0: 0000 0000 0000 0000 2317 5228 250a 4c27
000000c0: 41ea a230 abba 6d2d 0000 0000 0000 0000
000000d0: 8fd6 2d33 87e1 2732 ebbd 8a34 51fc 8533
000000e0: 860e 8133 baa7 7932 0000 0000 0000 0000
000000f0: 196d 3634 71d9 2d33 b399 ad33 a872 a532
0.0 0.0 1.3654152e-08 3.2531706e-09 1.2150284e-08 2.89484e-09 0.0 0.0
3.5632585e-08 8.489514e-09 1.7198193e-08 4.0975174e-09 1.4627509e-09 3.681362e-12 5.3659483e-11 1.3020118e-11
1.7710903e-07 4.2857714e-08 1.0619123e-09 5.1280325e-12 2.698713e-09 6.4295375e-10 0.0 0.0
1.738134e-08 4.1433053e-09 1.1268908e-08 1.5195034e-11 0.0 0.0 1.3069805e-08 3.1137064e-09
1.1372739e-09 5.962689e-11 4.4717247e-08 1.0653561e-08 2.087921e-08 4.974496e-09 2.2534678e-08 5.798616e-11
0.0 0.0 3.9038144e-11 2.6204852e-13 0.0 0.0 1.1662359e-14 2.8316186e-15
1.185363e-09 1.3513339e-11 0.0 0.0 4.047484e-08 9.771958e-09 2.5842687e-07 6.239191e-08
6.0096724e-08 1.4531844e-08 0.0 0.0 1.698976e-07 4.0477463e-08 8.083898e-08 1.9260668e-08

exp_avg f4 [32]
00000000: 0000 0000 cdce 6db7 760b 60b7 0000 0000
00000010: b2f8 bfb7 8568 85b7 9d7a 9b36 8238 c3b5
00000020: 0d63 3238 b5f4 2737 f159 d536 0000 0000
00000030: 21be 8eb7 81c9 cb37 0000 0000 65f7 6737
00000040: 2db7 5f37 edf7 d5b7 bed1 92b7 3d9d 2939
00000050: 0000 0000 5f86 5cb5 0000 0000 0400 0000
00000060: a185 8db6 0000 0000 51bd bc37 1731 5c38
00000070: 9397 d537 0000 0000 a936 51b8 72c9 0d38
0.0 -1.417445e-05 -1.3354109e-05 0.0 -2.2884782e-05 -1.5903506e-05 4.633634e-06 -1.4545078e-06
4.2530755e-05 1.0010951e-05 6.358365e-06 0.0 -1.7016255e-05 2.4293318e-05 0.0 1.3826274e-05
1.3334485e-05 -2.5507028e-05 -1.7502225e-05 0.00016175672 0.0 -8.215192e-07 0.0 6e-45
-4.217684e-06 0.0 2.2499504e-05 5.2497806e-05 2.5462161e-05 0.0 -4.988039e-05 3.380463e-05

exp_avg_sq f4 [32]
00000000: 0000 0000 ebb6 db32 2781 c332 0000 0000
00000010: fc57 8f33 255f 0a33 8f9b e432 cc82 bf2e
00000020: 54b4 a234 9f0c 1232 83b8 ad31 0000 0000
00000030: fd72 0a33 a1cd 0a34 0000 0000 ef4b d232
00000040: c087 4e33 bcde b333 09fc 2733 953a 5634
00000050: 0000 0000 6b3b a12f 0000 0000 3010 9a28
00000060: 0d45 1433 0000 0000 48b9 9733 cfb9 f434
00000070: f66b de33 0000 0000 c0da aa34 99cd 2234
0.0 2.5578137e-08 2.275972e-08 0.0 6.674961e-08 3.2217162e-08 2.6613433e-08 8.7089086e-11
3.0306057e-07 8.501188e-09 5.0559392e-09 0.0 3.223521e-08 1.2927059e-07 0.0 2.4481748e-08
4.8086576e-08 8.375852e-08 3.9111942e-08 1.9951615e-07 0.0 2.9327948e-10 0.0 1.7104455e-14
3.4521737e-08 0.0 7.065188e-08 4.5583735e-07 1.03573186e-07 0.0 3.182413e-07 1.5162222e-07

exp_avg f4 [1, 32]
00000000: 0000 0000 845f e938 ab3c d537 0000 0000
00000010: 8691 f038 0a08 5d38 2087 6c36 1785 6b34
00000020: cafd 0d37 fc04 9fb2 9f66 e137 0000 0000
00000030: 05ad 6238 6d87 00b6 0000 0000 1605 8f38
00000040: dd48 2f36 4b6e 7537 5ba1 6038 5b0a 86b3
00000050: 0000 0000 86f8 4db3 0000 0000 0400 0080
00000060: a6ba 9432 0000 0000 c82a cb38 6bb4 2f37
00000070: 3646 3238 0000 0000 c32f 5f37 738b a237
0.0 0.00011128097 2.541983e-05 0.0 0.00011471198 5.2697993e-05 3.5245394e-06 2.1934498e-07
8.463345e-06 -1.8512303e-08 2.6869877e-05 0.0 5.4043736e-05 -1.9152315e-06 0.0 6.819719e-05
2.6119444e-06 1.4628818e-05 5.3556036e-05 -6.241745e-08 0.0 -4.7956313e-08 0.0 -6e-45
1.7314346e-08 0.0 9.687763e-05 1.047282e-05 4.2503896e-05 0.0 1.3302956e-05 1.9376841e-05

exp_avg_sq f4 [1, 32]
00000000: 0000 0000 a40e e535 b41b b333 0000 0000
00000010: 7608 fe35 62a3 d734 ff68 b432 8caf 492d
00000020: ffe6 2132 1b80 942a 481b 0734 0000 0000
00000030: 8365 e834 e0c4 4230 0000 0000 d27b 2235
00000040: 0b42 3832 bc0b 2133 1d04 cd34 634c 472b
00000050: 0000 0000 bf7c 3e2a 0000 0000 0bfe 7b24
00000060: c617 a32c 0000 0000 017c ca35 a97f a732
00000070: de71 a734 0000 0000 ac1e de32 4241 0434
0.0 1.706609e-06 8.340376e-08 0.0 1.8926937e-06 4.0165747e-07 2.1002505e-08 1.1464506e-11
9.423956e-09 2.6378972e-13 1.258278e-07 0.0 4.3287227e-07 7.0856565e-10 0.0 6.0529885e-07
1.0725226e-08 3.7496406e-08 3.8187218e-07 7.080501e-13 0.0 1.691867e-13 0.0 5.4642132e-17
4.635378e-12 0.0 1.5086263e-06 1.9499412e-08 3.1189023e-07 0.0 2.585815e-08 1.2317199e-07
