server_report/ae_hexa/ae_hexa_log_4_2_32/autoencoder_20260101_173409.pth (torch, 208686 bytes, 51 tensors)

enc1.kernel0 f4 [4, 1, 5, 1]
000000 23 a2 19 bf 61 b4 fc bc 10 d8 d5 3c f6 4a 8f 3e
       -0.60013026 -0.03084773 0.026104003 0.27986878
000010 bf 01 e2 3e d5 5b c1 be 7f 47 23 be 9e 67 ac 3d
       0.44141957 -0.37765375 -0.15945242 0.08418201
000020 f5 a9 e8 3d 89 03 da 3e a2 aa 3f 3f c6 7a 5b 3a
       0.11360542 0.42580822 0.7486974 0.00083724817
000030 21 6c 98 bd 88 63 ec 3d 02 18 32 be 58 fa 59 bd
       -0.07442499 0.115424216 -0.17391971 -0.053217262
000040 01 98 06 3d 45 a3 fa 3d f5 b8 51 3e 21 6d 58 3e
       0.032859806 0.122381724 0.20480712 0.2113538

enc1.kernel1 f4 [4, 1, 4, 2]
000000 3c cf 01 bf 44 b6 17 bf cb 7f 65 be b5 61 86 3e
       -0.5070684 -0.5926249 -0.2241203 0.2624642
000010 b8 64 46 be ce fd 16 3f 99 ac 22 be 73 04 78 3e
       -0.19374359 0.58981025 -0.15886153 0.24220447
000020 ea e1 1d 3c 06 e2 15 bf 5e e8 77 3e 51 b3 e4 be
       0.009636382 -0.5854801 0.24209735 -0.44668058
000030 bb 50 fd 3e 9e 2a 8f bd 46 b0 12 3e 86 06 ca 3d
       0.49475655 -0.069905505 0.14325055 0.098645255
000040 82 73 ee bd 1f 67 9f 3e c1 f4 5b be 64 e4 38 be
       -0.11643125 0.31133363 -0.21480085 -0.18055874
000050 ef 54 8f 3e bc a5 2c 3f 5f 20 4f 3e 43 db 62 3e
       0.27994487 0.6744039 0.20227192 0.22153954
000060 97 05 02 3d e5 20 af bb a4 cd 04 3e 0b 55 1b 3d
       0.031743612 -0.0053444975 0.1296907 0.0379229
000070 75 f6 49 3e ac cd 87 3d 54 88 35 3e fb 10 78 3e
       0.19722922 0.06631026 0.17727786 0.24225228

enc1.kernel2 f4 [4, 1, 3, 2]
000000 f4 bd 87 3e 22 53 2d 3e 14 b1 b1 be c9 26 00 3f
       0.2651211 0.16926244 -0.34705412 0.5005918
000010 81 62 25 bf 8f 62 9f 3e e8 1a ad 3e db f3 31 be
       -0.6460343 0.31129882 0.3380959 -0.1737818
000020 3a 80 1d 3f 81 6d c1 be 4e a9 4f be 7b d2 3d be
       0.61523783 -0.37778857 -0.20279428 -0.18537323
000030 98 39 30 bf 3c 79 45 bf c0 8a 76 be 9c ce c3 3e
       -0.6883788 -0.77138114 -0.24076366 0.38243568
000040 c1 c5 d1 3e 32 c0 f8 bd e5 94 98 bc 19 e8 8c bc
       0.40971187 -0.12146033 -0.018625686 -0.017200517
000050 5a 3c fa 3d 2f c1 74 bb 1a 32 5f 3e d3 c0 6f 3e
       0.122185424 -0.0037346592 0.21796456 0.234134

enc1.bias_tensor f4 [4]
000000 a2 06 a2 ba c5 31 d0 ba 7d 5f eb ba 7c 84 d2 3d
       -0.0012361596 -0.0015883973 -0.0017957535 0.10279176

enc2.kernel0 f4 [2, 4, 3, 1]
000000 fe 4b 3b 3d f4 11 1a 3d 6d a2 80 3c 6a 50 77 3b
       0.04572677 0.037614778 0.01570245 0.003773714
000010 d2 bd 7a 3d 8f e3 89 3d ea 33 5e 3c 09 e9 98 3d
       0.061216183 0.067328565 0.013562182 0.07466323
000020 26 86 9c ba a9 7a 87 3e 15 1b a1 3b c0 e6 b7 bd
       -0.0011941835 0.2646077 0.0049165585 -0.08979559
000030 68 9a af 3c 88 a9 ea 3d 18 ba db 3d 75 46 f1 3d
       0.021435931 0.11458117 0.10728854 0.11781017
000040 4f ca e6 3d a1 e6 19 3d f3 a7 75 3d 89 a3 97 3d
       0.11269056 0.03757346 0.059974622 0.07404239
000050 1b cf 9d 3d 8c ad ed 3d c2 0c 6f 3e 16 82 d7 bd
       0.07705518 0.11605367 0.2334471 -0.10522859

enc2.kernel1 f4 [2, 4, 2, 2]
000000 93 07 88 3c 5b 69 3b 3c c6 8c 03 3d bd 94 f2 bc
       0.016605174 0.011438693 0.032116674 -0.02961194
000010 af b0 51 3d 8b ea c9 bc 77 4c c9 3d 2e 03 1e 3c
       0.05119389 -0.024647972 0.09829038 0.009644313
000020 2e 87 3f 3d f9 cb da bb 83 91 5e 3d 89 61 82 bc
       0.046759777 -0.0066771475 0.05433799 -0.015915649
000030 ff ad bb 3e c0 86 e0 bd 14 82 27 bc 63 90 a4 3d
       0.36656186 -0.109632015 -0.010223884 0.08035352
000040 de 7c 12 bc b6 dc 92 3d ca 74 67 3d e2 13 ff 3d
       -0.0089409035 0.071710035 0.056507863 0.12454964
000050 23 94 8a 3d bc 10 98 3d eb 7e 7a bc b6 9a 30 3d
       0.06766536 0.07425067 -0.015289049 0.043116294
000060 ec c2 c6 bb d4 b0 5d 3d 5c 3d 92 3b 89 53 44 3d
       -0.006065717 0.054123715 0.004462881 0.047931228
000070 6b b1 88 be 09 24 46 3e 2d ac 68 3d be 70 c8 be
       -0.2669786 0.19349684 0.056804825 -0.39148515

enc2.bias_tensor f4 [2]
000000 b5 50 08 bd 33 2f a9 3c
       -0.033280093 0.02065239

fc_enc.weight f4 [32, 234]
000000 29 a9 25 3d c4 4d 30 3d 03 32 5d 3d d1 a3 8b 3d
       0.040444527 0.043042913 0.054002773 0.06818355
000010 c6 02 83 be 52 89 87 be 4d 2c 06 3f af 6b 2c be
       -0.25588053 -0.26471955 0.5241135 -0.16837953
000020 ec 6d 0f bd 46 60 f6 3d e1 0c 4e 3f 8d df 8d 3d
       -0.03501694 0.120300815 0.804884 0.069274046
000030 51 62 c5 3d 98 67 b4 bc 85 ff 20 3e 04 57 a0 3d
       0.09637893 -0.022022054 0.15722473 0.07829097
000040 fe 22 70 bd 92 fc 0b 3e 78 ae 28 be fc 84 68 3e
       -0.05862712 0.13670567 -0.16472805 0.2270698
000050 ac 4f 2a 3e d6 88 43 3c db 8e 68 3d 7f f9 b6 bd
       0.16631955 0.01193448 0.056776863 -0.08934306
000060 82 1a a0 3e b3 1d d0 3d b8 08 05 bd d1 21 f1 bd
       0.31270224 0.10161915 -0.032479018 -0.11774028
000070 59 c0 f4 3c 87 46 c6 3d bc bf e0 bd 1d 81 16 3c
       0.029876875 0.09681421 -0.109740704 0.009186056
000080 39 8c 21 3d fc da 60 bd 94 f5 98 bd 95 2f c9 bd
       0.039440367 -0.05489634 -0.07468715 -0.09823529
000090 88 5e 54 be 42 f0 14 be 14 3b db 3d ad 12 98 3d
       -0.20739186 -0.14544776 0.10704628 0.07425437
0000a0 4c 17 6e 3d fe a4 86 3d ad 6d b5 be 72 60 bf bc
       0.058127686 0.065744385 -0.35435238 -0.023361418
0000b0 5c 2f 31 3e 97 16 e9 3d af e6 21 3c 1b f8 04 3d
       0.17303222 0.11381262 0.009881659 0.032463174
0000c0 b7 07 7f be 08 ee bf 3d 2a e1 0e 3e fd ec 28 bd
       -0.24905287 0.09371573 0.13953081 -0.041241635
0000d0 54 34 11 be 43 07 9f bc 0a 14 64 3e a0 88 3d bb
       -0.14180118 -0.019412642 0.2227327 -0.0028920546
0000e0 f6 6c c6 3c 0a a6 c7 bd dd fb 04 bd d2 27 ba 3c
       0.024221878 -0.09748466 -0.032466758 0.022724066
0000f0 7e 21 bb bc d6 9a ba bc c9 52 29 3e ca 15 a8 bd
       -0.022843119 -0.02277891 0.16535486 -0.08207281
000100 d5 ed 20 be 25 b6 05 3b c0 90 88 bd 7b 36 d1 3d
       -0.15715726 0.0020402756 -0.06668234 0.102154694
000110 93 a1 d1 be 1e ec b7 3d 78 6d 70 bd a6 2b 55 bd
       -0.40943584 0.08980583 -0.058698148 -0.05204358
000120 7c 95 36 be c9 24 bf bc 8a 52 c0 3e 61 77 09 bd
       -0.17830461 -0.02333297 0.37562972 -0.033561114
000130 61 0c 1d 3e 17 a9 b6 3d 40 fe ec bc 9a 71 82 be
       0.15336753 0.0891897 -0.02892983 -0.25477296
000140 5f 31 84 3d 8e 70 81 3e 5d d9 8b be ce 9d 84 3d
       0.06454729 0.25281185 -0.27314273 0.06475411
000150 fe 9d 37 bd c7 10 12 3e b2 fd 02 be 60 d8 02 bd
       -0.044828407 0.14264213 -0.1279209 -0.031944633
000160 45 0e 4b 3e 19 44 22 bd 7e 82 1d 3d 9c f4 8c 3d
       0.19829662 -0.039615724 0.038454525 0.06882593
000170 9e 94 c5 bc 82 fe ff bd ea 04 89 3d 6c 02 b7 bd
       -0.024118718 -0.124997154 0.066903904 -0.08936009
000180 87 e1 e1 3c f6 bc 4a bd e0 1e c1 3c 1b 40 1c be
       0.02757336 -0.049496613 0.023574293 -0.1525883
000190 a6 b0 29 be 0f 59 70 3d 13 5a d3 3d ed f0 4f 3d
       -0.16571292 0.058678683 0.10319915 0.050766874
0001a0 b0 0c 8b ba 16 68 ef 3d 44 37 46 bf 46 6a ed 3d
       -0.001060864 0.11689775 -0.7742808 0.11592536
0001b0 d8 9f 0f bd aa 27 30 38 67 09 3c 3e ed 43 16 be
       -0.03506455 4.199861e-05 0.18362962 -0.14674349
0001c0 c1 d5 0a be 81 e1 e7 3c 01 ac 1b be 65 ff cf 3d
       -0.13558103 0.02830577 -0.15202333 0.101561345
0001d0 a4 45 38 3d 81 d3 b7 bd 42 a5 09 be dc 34 44 be
       0.04498829 -0.08975888 -0.13441947 -0.19160789
0001e0 a3 6e 86 3e 4e 8a de be 24 31 54 3c 49 42 ac 3e
       0.26256284 -0.43464893 0.012951169 0.33644322
0001f0 48 8f b7 be 7f 89 52 3e 56 bf 3e 3e bd 6d b2 be
       -0.35851502 0.20560263 0.18627676 -0.3484935
000200 c8 e7 02 be b4 bf e8 bb ec b8 21 bd 48 4c a3 be
       -0.1278373 -0.007102931 -0.039482996 -0.31894135
000210 e1 57 63 3e 84 dc 0a be 75 c4 73 3d 5f bf 01 3e
       0.22201492 -0.13560683 0.059513528 0.12670659
000220 7f d0 e2 3d 94 8c 64 3d 1d 2a a3 bc 91 1d 67 be
       0.11074924 0.05579813 -0.019917542 -0.22569872
000230 bb 0c 0e 3f 1f 34 ad bd bf be b8 bc 75 ae 93 bd
       0.55488175 -0.08457207 -0.022551892 -0.072110094
000240 57 92 33 3e 03 b0 8d 3d d6 75 df 3d cf d2 13 3d
       0.17536293 0.06918337 0.10911147 0.036089715
000250 8c 32 4b be 51 05 e7 3d 88 6b 68 3d 41 f2 05 bc
       -0.19843501 0.11280311 0.056743175 -0.008175434
000260 ed bf e7 bb 53 16 18 be aa 0b 1a 3e e1 fe 5c 3d
       -0.00707244 -0.14852266 0.15043512 0.05395401
000270 2e 0f cc bd a3 b1 c0 bb e6 c8 87 3c 10 78 72 be
       -0.09963833 -0.005880551 0.016575288 -0.23678613
000280 43 c0 a4 3d df 20 61 3e 9f f4 54 be 2e d6 a2 3d
       0.080444835 0.21985196 -0.2079644 0.07951008
000290 08 8e 36 3b 11 e3 f9 3d 87 18 83 3d 83 df 68 be
       0.0027855653 0.122015126 0.064011626 -0.22741513
0002a0 2a d5 6d 3e e0 d2 26 3d ee 25 e3 b9 1f 61 7e bc
       0.23225847 0.04072845 -0.00043325074 -0.015526085
0002b0 28 4c ca 3d f2 e0 7c 3d df ea af be 5d 73 d8 3d
       0.09877807 0.061737962 -0.3435888 0.10568879
0002c0 51 15 40 bd 6e e7 24 be d4 df 96 bd 57 da 24 3e
       -0.04689533 -0.16103908 -0.073669106 0.16098915
0002d0 37 e6 84 3d 54 fd 62 3b a2 e3 8f be fd 9b dd 3d
       0.064892225 0.0034635859 -0.28103358 0.10820768
0002e0 6f 08 22 3d ef 99 50 be 14 1f 87 3d f6 9c 5d 3d
       0.039558824 -0.20371221 0.065977246 0.054104768
0002f0 3c 18 05 bc b2 3e 97 3a d1 8c 1f 3e 91 fe 5f 3e
       -0.008123454 0.001153907 0.15581061 0.21874453
000300 2f 13 b0 bd 68 a8 18 3e 96 50 47 3e a2 32 27 bd
       -0.08597409 0.14907992 0.19464335 -0.04081977
000310 15 2a d7 3c 5a 21 62 be e1 64 80 bd 47 7b 96 3d
       0.026265183 -0.22083035 -0.06269241 0.07347732
000320 4d fc e9 bd f3 f9 99 bd dc 51 38 bd 74 b5 e3 3d
       -0.11425076 -0.07518377 -0.044999942 0.11118594
000330 c6 d0 00 3d d1 e5 88 3d 56 2a 4b 3e 2f b7 a4 be
       0.031449102 0.06684459 0.19840369 -0.32171008
000340 f0 23 eb 3c 4f 24 23 bf 27 96 8e 3e b4 c8 e0 3c
       0.02870366 -0.6372728 0.27848932 0.027439453
000350 75 d2 09 be 07 44 f6 bb 62 8a 38 3e 62 13 c6 3d
       -0.13459189 -0.0075154337 0.18021539 0.09671666
000360 b4 a7 58 be 0f ac 69 3e bd 01 18 be b4 b1 6e 3d
       -0.21157724 0.22819541 -0.14844413 0.05827494
000370 26 00 a4 3c 0f 81 b1 bd f8 c0 c3 3d 11 49 34 be
       0.020019602 -0.08667194 0.0955829 -0.17605998
000380 eb 67 f5 bc 11 06 eb bc dd 3f ff 3e a7 6d 52 be
       -0.029956779 -0.028689416 0.4985341 -0.20549642
000390 d6 59 40 bd 8b a8 ae bc 77 57 97 be 3f 44 7c 3e
       -0.046960674 -0.021320602 -0.29558918 0.24635409
0003a0 a7 81 91 3c eb 7d 2c 3d ce 77 62 3e 41 93 88 3d
       0.017762018 0.042112272 0.22116014 0.066687115
0003b0 36 18 65 3e 43 c7 86 3c 4f 01 47 3e 54 8a 64 bd
       0.22372517 0.016452437 0.19434093 -0.055795982
0003c0 f4 94 0a be 3c ad 63 bd c1 5d e2 3c 4b 13 a6 bd
       -0.13533384 -0.05558513 0.027632596 -0.081091486
0003d0 71 e5 54 3d 9d 6c 6c bb cd 0b 00 3e d1 63 05 3e
       0.051976625 -0.003607548 0.12504502 0.13026358
0003e0 3e 5b 22 3f f2 2a 0a 3c ba 7a 6c bd e0 76 63 be
       0.63420475 0.0084330905 -0.05773423 -0.22213316
0003f0 9d f7 cf bd 60 19 45 bb 7e d6 97 bd 26 2f d9 bd
       -0.1015465 -0.003007494 -0.07413958 -0.10604696

fc_enc.bias f4 [32]
000000 74 f5 c2 3d da 65 6a bd f8 27 16 3c e0 8a 37 3e
       0.09519473 -0.05722604 0.009164803 0.1792407
000010 ca 92 85 3d a2 c8 98 bb fa 68 3a bd 85 fc 23 be
       0.065221384 -0.004662589 -0.04551027 -0.16014297
000020 d0 d5 7a 3e 8f 48 83 3d 1a 15 1c 3e d5 ff 41 3d
       0.24495625 0.06410324 0.15242425 0.04736312
000030 24 85 32 bd 6e 82 2f be 4d b6 4b be 57 48 dc 3d
       -0.043584004 -0.17139599 -0.19893761 0.10755985
000040 d2 10 4c 3e 46 dc a1 3d 71 83 19 bf fb da 9b bc
       0.19928291 0.07903342 -0.5996619 -0.019025316
000050 94 4b 96 bd 11 8c bf bd 49 62 95 3d 48 b4 9a 3d
       -0.07338634 -0.093528874 0.07294137 0.07553917
000060 d6 ac a2 bd 35 ab 94 3d c2 ae 6d 3e 6f 64 4d be
       -0.07943122 0.07259218 0.23211196 -0.20057844
000070 76 5c b0 bd ba 30 bc 3e 02 a6 2f 3e 56 c0 42 bb
       -0.086113855 0.36755925 0.1715317 -0.0029716692

fc_dec.weight f4 [234, 32]
000000 01 79 b8 3c 80 73 54 bd b7 77 12 3d 63 b5 aa bd
       0.022518637 -0.051867962 0.0357587 -0.08335378
000010 75 f8 65 3d 78 63 9c 3c c0 61 7e bb 42 b3 6d 3c
       0.05614515 0.0190904 -0.0038815588 0.01450807
000020 c7 1f a2 bd 6a 41 23 3a 33 85 04 3d 31 15 df bc
       -0.07916217 0.0006227704 0.03235359 -0.027231785
000030 82 aa 1e bd 09 55 b4 3c 7e 09 9d bb 6b 03 d9 3d
       -0.038736828 0.022013204 -0.0047923913 0.10596355
000040 8c 1f a2 3d d2 6e 49 3d 3d 41 36 bd ce 0f 07 3d
       0.07916173 0.049177952 -0.04449581 0.032974057
000050 a5 39 f9 3c 74 48 79 bd 94 01 3f 3c b4 96 a2 b9
       0.030422995 -0.060860112 0.011658091 -0.0003101133
000060 f2 c6 61 3d 15 68 55 3d 0e 96 f5 3c 3c 9f 0d 3d
       0.05512137 0.052101213 0.029978778 0.034575686
000070 55 2f af bb d5 e7 ad 3c e5 2a 90 3b 3d cb 68 bc
       -0.0053462186 0.02122871 0.0043996447 -0.014208612
000080 54 96 72 3e 3d 01 99 be 0b 20 2a be cb 75 c6 3c
       0.23690158 -0.29883757 -0.16613786 0.02422609
000090 4a 91 0b 3e 45 29 02 3e 93 ff a1 bc c4 0b f3 bd
       0.13629642 0.12711056 -0.019775188 -0.118674785
0000a0 c4 e1 47 bc 2b 86 9f 3d d8 83 ee 3c 5d 8d f8 3d
       -0.012199823 0.077892624 0.029115602 0.12136338
0000b0 27 37 51 be e4 12 23 be 16 ad ae bc b6 66 4c bc
       -0.20431195 -0.15925175 -0.021322768 -0.01247566
0000c0 28 6b 6f 3e be 6d 92 3d 9b 72 2e be 77 75 26 be
       0.2338072 0.07149838 -0.17035906 -0.16255747
0000d0 0d a6 35 3e 24 8b ae bd f7 86 e4 3b d8 07 5b bd
       0.17739125 -0.08522633 0.006974097 -0.053474277
0000e0 b3 ef dd bd 44 e4 12 be c4 7c 05 be cb 2f 63 bd
       -0.108367346 -0.14344889 -0.13035876 -0.0554655
0000f0 0d 79 30 be 3f bc 98 3d 58 66 a9 3d 94 16 22 3e
       -0.17233677 0.0745778 0.08271474 0.15828925
000100 0a cf b4 3d 9d 7b 9c bd fb c0 f4 bd 49 9a 58 3e
       0.08828552 -0.07640765 -0.119508706 0.21152605
000110 ce ca 18 bd 92 79 a8 3d 95 87 14 bd e9 67 a5 bd
       -0.037302785 0.08226313 -0.036262114 -0.0807646
000120 61 56 2e be 17 5a 00 be bf 28 01 3e fb 8d 90 bc
       -0.17025138 -0.12534367 0.126132 -0.017645827
000130 db 1e 07 bd f9 3c 7c 3d 83 4d 39 3c 72 b3 c3 3d
       -0.03298841 0.061581586 0.011309984 0.09555711
000140 49 07 f7 3c 9c 95 f0 3d 03 b7 36 3b f7 fb 08 be
       0.030154841 0.11747286 0.002788008 -0.13377367
000150 d5 5e 09 be af de 0b 3e 91 54 e2 bd 65 61 f0 bd
       -0.13415082 0.13659166 -0.11051286 -0.117373265
000160 e0 2f bf bd 4c b2 a7 3c cf 75 75 bd 59 96 4c bd
       -0.09335303 0.02047076 -0.059926804 -0.04994807
000170 9f d2 dc bb f7 49 0e 3e c4 fa e6 bc 09 f3 26 3e
       -0.006738975 0.13895403 -0.028195746 0.16303648
000180 3c 2f de 3d 8b 46 85 be 3e 4e 52 3e fd c6 31 3d
       0.10848853 -0.26030383 0.2053766 0.04340266
000190 b2 eb 40 3b 5c be cf 3e 5a 47 ee bd 37 ab 66 3d
       0.002943736 0.4057492 -0.11634703 0.056315627
0001a0 07 7c ac be 18 62 b4 3d 8d fe 86 3e 4d 8e 75 3e
       -0.33688375 0.088077724 0.26366082 0.23980065
0001b0 f1 13 30 bb 90 23 52 bc 21 00 4c be 07 60 fe bb
       -0.0026867355 -0.012825862 -0.19921924 -0.007762912
0001c0 f3 8b c2 3d a5 bb 18 3e b6 6c ea bb c4 a6 4e be
       0.094993494 0.1491533 -0.0071540726 -0.20180804
0001d0 f7 65 e2 3e df 3e 5c 3b 5a 06 bd ba 13 cd b8 bd
       0.44218418 0.003360681 -0.0014421449 -0.0902349
0001e0 98 57 30 bd 65 af 52 3b 16 7d b5 bd 46 df a8 be
       -0.043052286 0.0032148 -0.08861749 -0.32982844
0001f0 31 cb 04 bd 86 6d b2 3e 32 29 a3 3d 8e 97 36 3e
       -0.03242034 0.34849185 0.07966842 0.17831251
000200 d1 58 e5 be 26 bd 73 be 70 4b 5d be c0 91 48 be
       -0.44794324 -0.23802623 -0.21610808 -0.19586849
000210 3a bd 07 3e a6 34 4c 3e d9 65 2f be cb c3 3d 3e
       0.13255778 0.19941959 -0.17128696 0.1853172
000220 e0 d5 52 be e6 34 b2 3e 39 25 c8 3d 08 ef ee 3d
       -0.205894 0.34805983 0.09772725 0.11666685
000230 25 29 98 3e e8 8b 97 bd 3c 58 83 be 83 37 14 be
       0.2971889 -0.07399732 -0.25653255 -0.14474301
000240 72 71 25 bd da 4b 5b be 77 5e 5e be 8b f8 6c 3d
       -0.040391393 -0.21415654 -0.21715723 0.057854217
000250 08 e0 8d 3e 91 d1 5a 3e 79 cb 73 be 4c 4b a7 3e
       0.27709985 0.21369006 -0.23808087 0.32674634
000260 8c 72 9e 3c a5 93 5b bd 41 fb ff 3c 5c f7 e2 bd
       0.01934173 -0.0536076 0.031247737 -0.11082336
000270 44 01 99 3d 6b c5 e1 bc 35 6b 93 3d 14 0e 47 be
       0.074709445 -0.027559957 0.071981825 -0.19438964
000280 12 08 0a 3d c0 43 bf be 11 99 ec be 78 39 96 3d
       0.033699103 -0.37356377 -0.4621053 0.0733518
000290 44 d4 ab bc 47 58 2f be c3 d6 ae bb 5c 49 50 3e
       -0.02097524 -0.17123519 -0.00533566 0.20340484
0002a0 fa 21 05 be 91 94 20 be 64 51 16 bd fb 1f 27 3e
       -0.13001242 -0.15681674 -0.036698714 0.16320793
0002b0 fc 1c 1e bd d3 11 c4 bd 20 4a 6a 3e 45 85 f2 bd
       -0.03860186 -0.09573712 0.22879839 -0.118418254
0002c0 5e 41 24 be 50 db 83 be dd cf f5 bd 18 2c 91 be
       -0.1604056 -0.2575326 -0.120025374 -0.28353953
0002d0 51 e6 3d 3d ac 6e 76 3e 7e 1d e9 be 93 0c 04 3e
       0.046362225 0.24065655 -0.45530313 0.12895422
0002e0 43 d1 2a 3e 54 6a d3 3c d3 40 e4 3b a9 76 89 3d
       0.1668139 0.025807537 0.0069657355 0.06712086
0002f0 b5 1e a4 3d 74 ec 1c be b2 96 a8 3e 41 d5 05 3d
       0.080136694 -0.15324575 0.3292747 0.032674078
000300 8d a1 37 3e 81 c1 9f be 80 82 95 bd bc da d0 bd
       0.1793272 -0.3120232 -0.073002815 -0.1019797
000310 3d 6a 85 be d2 d7 a7 3d d3 e1 c5 3d 7b 79 b3 3b
       -0.26057616 0.08195461 0.09662213 0.005477128
000320 31 59 9f bc 26 99 bf 3e 01 14 90 bd a4 a3 92 3e
       -0.01945171 0.3742153 -0.070350654 0.28640473
000330 13 1a 2d be cb 10 95 bd 0b 65 80 3e ee 7b 96 3e
       -0.16904478 -0.07278594 0.2507709 0.29391426
000340 a2 10 06 3e 70 9e 47 be 6f 3c c4 3c c7 0a 33 be
       0.13092282 -0.19494033 0.023954598 -0.1748458
000350 b7 b9 92 bc 09 ba 48 3e c6 1f 2b 3d 73 b0 cf be
       -0.017910821 0.19602217 0.04177835 -0.40564308
000360 87 cc 2d 3e f4 83 64 3e 67 4b 85 3e 5a 74 27 3e
       0.16972552 0.22315961 0.2603409 0.16352978
000370 45 4a 04 3e 01 96 15 3e 61 84 de 3d 10 cb fb bd
       0.12918957 0.14608003 0.10865093 -0.122945905
000380 60 cd a7 be fa ec 73 be f3 c4 1b 3e 80 ab e1 bd
       -0.32773876 -0.23820868 0.15211849 -0.11019039
000390 d7 86 5a be 0b 85 18 3e 7c 60 69 3c f4 bf 36 3d
       -0.213405 0.14894502 0.014244195 0.044616655
0003a0 ae 27 dd 3d a9 78 dc 3c f6 ca e6 bd 8e 18 8f 3e
       0.10798584 0.026913004 -0.112691805 0.2794842
0003b0 dc 37 dc bd a8 3e b0 bc 73 24 96 be 23 f9 73 3d
       -0.10752842 -0.021514252 -0.29324684 0.059563767
0003c0 2a a2 36 3e b9 b6 c1 3b 92 53 d4 3e 6b 00 c7 bd
       0.17835298 0.005911675 0.4147001 -0.097168766
0003d0 ed 93 ab be 2a fd 82 3e b4 08 5f 3d b3 9f 33 bc
       -0.33511296 0.25583774 0.05445166 -0.010963368
0003e0 fd 47 74 bd c4 1d ca bd 59 c7 8b 3e 9e 6c 36 3e
       -0.059638966 -0.098689586 0.27300528 0.17814872
0003f0 d1 3a 5a 3d 2f 73 08 3e cb 7a 33 3e 1a 4d 86 be
       0.053278748 0.13325189 0.1752731 -0.262307

fc_dec.bias f4 [234]
000000 07 6f 95 be 23 51 16 bf 33 d4 32 bf c3 e9 36 bf
       -0.2918627 -0.58717555 -0.6985504 -0.7145044
000010 0a 5a f2 be ba 10 b6 be 00 2a f5 be 35 59 d4 be
       -0.4733432 -0.35559636 -0.47883606 -0.4147431
000020 7b c9 9a be fc a1 2d bf 80 e7 0a bf 0c 27 1a bf
       -0.30231842 -0.67825294 -0.5425949 -0.6021583
000030 fd ae 88 be fb 14 0e be e2 ba 1d bf 83 5d 13 be
       -0.26696005 -0.13875191 -0.61613286 -0.1439114
000040 91 de 29 be 42 34 b2 be a5 d6 7d be 38 5a 98 bd
       -0.16588809 -0.34805495 -0.24788912 -0.07439083
000050 51 04 9b be 64 f7 bd be e4 1b c7 be 6f eb ad be
       -0.3027673 -0.37102807 -0.38888466 -0.33968684
000060 a7 c4 47 bf 52 3a ac be e7 fd 14 bf 1c 50 f7 be
       -0.7803444 -0.33638245 -0.58199924 -0.48303306
000070 8b 14 d1 bd 87 35 70 be 10 ad ee bd b2 fd 2b be
       -0.102089964 -0.23457919 -0.11654103 -0.16795996
000080 1a 1e 6c be 01 b7 80 be 6e c2 7e be 23 31 86 be
       -0.23058358 -0.2513962 -0.24878857 -0.26209363
000090 14 58 5a be 55 27 a2 be ed 30 46 3e a1 73 0c bf
       -0.21322662 -0.31670633 0.19354601 -0.54863936
0000a0 04 83 ac be a8 b1 64 be f7 b6 5f be 76 d6 5a be
       -0.33693707 -0.22333395 -0.2184714 -0.21370873
0000b0 f4 32 56 be f4 94 67 be 57 fc 63 be 43 ee 8b be
       -0.20917875 -0.22615415 -0.22264229 -0.27330217
0000c0 df f1 ab be 60 2e 9e be 8b b6 bf be f8 58 3e bf
       -0.3358297 -0.30894756 -0.37443957 -0.74354506
0000d0 85 48 e1 be d6 11 b2 be 63 15 86 be fc e4 6b be
       -0.4400064 -0.34779233 -0.26188192 -0.2303657
0000e0 9e 84 8a be 30 af 8c bd 6c 23 91 bd 66 61 2f be
       -0.27054304 -0.06869352 -0.07086834 -0.17126998
0000f0 76 30 5a be f7 b1 82 be b1 62 9b be cf 79 b4 be
       -0.21307549 -0.255264 -0.30348733 -0.35249183
000100 f9 50 2e bf 8b b7 0e bf 83 58 94 be 00 81 7e be
       -0.68092304 -0.55748814 -0.2897378 -0.24853897
000110 6e 69 86 be d1 9d a7 be 64 7d 45 be 96 c7 e3 bd
       -0.2625231 -0.32737592 -0.19286114 -0.11122052
000120 44 16 eb bd 4c ec 88 be b5 39 7b be e0 94 fb be
       -0.11478856 -0.2674278 -0.24533732 -0.4913702
000130 3b b0 b3 be 21 92 f6 be 74 e7 07 bf a8 ce b4 be
       -0.3509539 -0.48158363 -0.53087544 -0.35313916
000140 39 fb 16 be 73 36 98 be 92 f4 89 be 03 4c a1 be
       -0.14744271 -0.2972904 -0.26944405 -0.31503305
000150 7e 6a 80 be d0 c4 7f be 95 15 93 be 04 a8 87 be
       -0.25081247 -0.24977422 -0.28727403 -0.26495373
000160 3d 04 ae be 40 ec 0d bf 51 3c ca bf 14 5a f8 be
       -0.3398761 -0.55438614 -1.5799657 -0.48506224
000170 70 74 2e bf 81 ae dc be 9e 1b 60 be 48 ff 2d be
       -0.6814642 -0.43101886 -0.21885535 -0.16991913
000180 63 c0 95 be 2e dd 89 be 94 c6 85 be 80 04 a8 be
       -0.29248342 -0.2692656 -0.26128066 -0.32815933
000190 ff fa 16 bf 58 31 33 bf 61 a3 f3 be 1c 14 40 bf
       -0.5897674 -0.6999717 -0.47585586 -0.75030684
0001a0 e8 00 28 bf 31 2b b8 3e 41 43 ae be 3e e2 ad be
       -0.6562638 0.35970452 -0.34035686 -0.33961672
0001b0 dc 1d 45 be 0c e7 bd be 27 a1 80 be 57 e1 d1 be
       -0.19249672 -0.37090337 -0.2512295 -0.40992233
0001c0 4e 22 b5 be 33 6b 90 be 96 7f 10 bf dd b0 bf bf
       -0.35377735 -0.28206787 -0.5644468 -1.4975849
0001d0 29 ae 88 be 8e 10 fd bf 03 96 70 bf 0e 1d cf be
       -0.26695374 -1.9770677 -0.939789 -0.40451854
0001e0 7e a4 be be 35 96 ba be c4 cd 87 be d5 c0 c6 be
       -0.37234873 -0.36442724 -0.26524174 -0.38818994
0001f0 33 43 8e be d8 ab d6 be 5b 7d ae be a2 4f 31 bf
       -0.27785644 -0.4192798 -0.34080014 -0.69262135
000200 73 a1 81 bf 33 06 e3 be 96 c9 e5 bf 86 dc 8d be
       -1.0127395 -0.44340667 -1.7952144 -0.2770731
000210 39 9c d9 be 94 18 07 bd 6c f6 9f bd ba 0b e7 3b
       -0.42502 -0.032982424 -0.07810673 0.0070509585
000220 3d 36 53 3d b1 f9 35 be 2c 56 41 be 49 74 9c be
       0.051565398 -0.17771031 -0.18880528 -0.3055747
000230 9c d7 81 be 66 f7 f1 bf b4 b0 94 bf 96 88 b9 be
       -0.2535981 -1.8903625 -1.1616426 -0.3623702
000240 f1 f8 87 be c8 f3 75 be ad a7 c6 3d 7d 0f 52 3e
       -0.26557115 -0.24018776 0.0969995 0.20513721
000250 31 f7 d0 3d a1 ce b9 3d be 54 6c 3d 9e 9e 0e 3d
       0.10203398 0.090726145 0.057698004 0.034819238
000260 64 9d 54 be 7d 18 4e be cd 55 ea be 7b f3 85 bf
       -0.20763165 -0.20126529 -0.45768586 -1.0464929
000270 36 6a 50 be ea 25 7d be a5 c6 89 bd 8a 4d 3c bc
       -0.20353016 -0.24721494 -0.067273416 -0.011493096
000280 5e 67 21 3e 89 6c 63 3e bd 59 1a 3e 3b 3a 15 3e
       0.15762088 0.22209372 0.15073295 0.14572994
000290 a1 a8 fc 3c e4 d2 13 be 49 e8 81 be ff 2c e5 be
       0.030842127 -0.14435917 -0.25372532 -0.44760892
0002a0 4f 9c 68 bf 8c 2b 46 be 51 2e 92 be 5e ca 51 bd
       -0.9086351 -0.1935255 -0.28550962 -0.051218383
0002b0 9b 07 7f 3d ab 3d 4e 3d db 20 88 3e f3 d0 ff 3d
       0.062263113 0.05035178 0.26587567 0.12491026
0002c0 d4 70 b4 3d bb 9d 96 3d f1 7c 6f bd 5a b7 83 be
       0.08810583 0.073543034 -0.058468763 -0.25725824
0002d0 94 b1 84 be 15 ec 37 bf 7e d8 29 be d2 51 2a be
       -0.2591673 -0.7184461 -0.16586491 -0.16632774
0002e0 ad c5 27 be f4 02 93 3c c1 86 2f 3d 21 f6 89 3c
       -0.16384001 0.017945744 0.04285312 0.016840996
0002f0 bc b3 6e 3e 06 dc 04 3d db 55 ee ba c9 96 02 be
       0.2331075 0.032436393 -0.0018183546 -0.12752832
000300 83 98 28 be 85 f8 6a be a8 ea ff be dd 2e dd bf
       -0.16464429 -0.22946365 -0.49983716 -1.7279927
000310 83 5a 03 3c 97 52 39 be aa c8 b3 bd 4e cc b3 bc
       0.008017185 -0.18097912 -0.08778508 -0.021948006
000320 90 a1 d3 bc 31 f4 b2 3c e5 70 d9 bc 61 e6 88 bd
       -0.025833875 0.021844955 -0.02654309 -0.06684566
000330 9b 51 4a be 72 e3 10 be bf d5 2d bf 34 8d b5 bf
       -0.19757693 -0.14149264 -0.67904276 -1.4183717
000340 01 09 1b bf 01 0f 4c bf 68 cc 82 be a4 05 81 be
       -0.60560614 -0.79710394 -0.25546575 -0.25199616
000350 d4 e3 67 be e0 f0 01 be df 74 3f be fa bb 56 be
       -0.22645503 -0.12689543 -0.18696927 -0.20970145
000360 64 07 95 be f5 75 9d be 51 66 cd be 19 51 7c be
       -0.291072 -0.30754057 -0.40117124 -0.24640311
000370 fb 41 9b bf 10 2c 6b bf 9f 35 90 be ab 62 cf be
       -1.2129511 -0.9186411 -0.2816591 -0.40504965
000380 26 b0 8a be 1e d2 57 be cf 13 b4 be bd 3b b7 be
       -0.27087516 -0.21076247 -0.35171363 -0.35787764
000390 e4 15 e8 be 01 c2 92 be 1b 63 62 be 99 39 08 bf
       -0.453292 -0.28663638 -0.22108118 -0.5321289
0003a0 69 21 b8 bf 05 b2 35 bf
       -1.4385196 -0.7097476

dec1.kernel0 f4 [4, 2, 3, 1]
000000 b9 4d 79 be 6c 56 02 be 28 db cb 3e bd e0 8d 3e
       -0.24346055 -0.1272828 0.3981564 0.27710524
000010 d8 38 00 3f 23 29 25 be d7 b3 b0 be b1 3d ff 3d
       0.50086737 -0.16128974 -0.34512207 0.124629386
000020 1d 9b 9e 3d c8 28 06 3f 06 e5 96 3e a6 a2 ef 3c
       0.07744429 0.5240598 0.29471606 0.029252362
000030 f8 05 dc bc 80 11 f4 3e 1f bd 58 3e 12 f8 1b 3e
       -0.026858315 0.476696 0.21165894 0.1523135
000040 1d e2 86 be da 7e 34 be 7d bc ba 3d 67 a8 08 3f
       -0.26344386 -0.17626515 0.091179825 0.5338196
000050 0a 87 55 3f 4e e4 30 3f 53 38 c6 3e ce eb 75 be
       0.8340918 0.69098365 0.38714847 -0.24015734

dec1.kernel1 f4 [4, 2, 2, 2]
000000 51 46 b0 bc a5 88 c4 3c 1e 6c 3d be af 5d bc 3d
       -0.021517904 0.023990938 -0.18498275 0.09197556
000010 c3 8d 20 3e 6e 51 d8 bc 4f 0d d5 3e 9c 3d b1 bb
       0.15679078 -0.026406016 0.41611716 -0.0054089557
000020 73 35 82 bd cd a8 45 3e 0b 36 25 be 27 ba 98 3e
       -0.06357851 0.19302674 -0.16133897 0.29829523
000030 fc 64 98 3d 28 d1 59 3d 8d 51 92 bd 73 1e ff bd
       0.07441136 0.053177983 -0.07144461 -0.124569796
000040 84 7a 40 be 6e c1 fb bd 38 a2 41 3e eb 84 b6 be
       -0.18796736 -0.12292753 0.18909538 -0.35648283
000050 b9 d1 12 3f 7e c5 50 be 22 6b 9e 3e 9f 34 91 3e
       0.5735126 -0.20387837 0.3094111 0.2836046
000060 49 c5 fd 3d 32 a6 bf 3e 34 2b 2f 3e 0b 69 15 3f
       0.12391145 0.37431484 0.17106324 0.5836341
000070 07 ce e4 3e 87 9a 59 b9 7b 95 17 3e 3b f8 80 bd
       0.44688436 -0.00020752299 0.14803116 -0.06297346

dec1.bias_tensor f4 [4]
000000 bc 01 30 bf e8 01 3c bf 52 b1 2e bf 83 cc bc be
       -0.68752646 -0.7344041 -0.6823932 -0.3687478

dec2.kernel0 f4 [1, 4, 5, 1]
000000 2c 6f 2b bd f8 48 16 3f f3 d9 07 3d 48 dd 58 be
       -0.04185407 0.5870509 0.033166837 -0.21178162
000010 48 26 8f 3c bb 13 a1 be 9a 19 1a bd 44 d4 32 bd
       0.017474309 -0.31460366 -0.03762207 -0.043659464
000020 7c 5e bb be 7a 29 bb bd 92 42 bb bd b1 fb 32 be
       -0.36595523 -0.091387704 -0.09143557 -0.17478825
000030 00 d4 96 be e3 72 c0 bc f1 8c 35 bd ed ec 82 bc
       -0.29458618 -0.023492282 -0.044323865 -0.015982116
000040 21 5d c6 3c f6 de d5 3d 76 29 bc 3d 73 bb 7d bc
       0.02421433 0.10442917 0.091875955 -0.015486586

dec2.kernel1 f4 [1, 4, 4, 2]
000000 ed a9 70 bb 1b 96 82 3e a8 ce c5 3e 4c fb 0d 3e
       -0.0036722377 0.25505146 0.3863423 0.13865393
000010 f3 cd 93 bd 24 71 90 be 3b e6 22 bd 15 8b 35 3d
       -0.07217016 -0.2821132 -0.039770346 0.044322092
000020 4a 0b a5 be 5c 17 ea bd 1b 68 64 3e 7b 6e 70 be
       -0.32235175 -0.11430237 0.22305338 -0.23479645
000030 9d ab 9e 3e 01 4f 8f be 10 43 89 be af 15 53 bd
       0.30990306 -0.27989963 -0.26808977 -0.05153435
000040 c6 46 05 be 2e a1 18 bb 9f aa 19 be 0d 0d 60 3c
       -0.13015279 -0.002328943 -0.15006493 0.013674987
000050 dd a2 29 be cc 7c b6 3d f3 9d 60 bd 39 c7 5a be
       -0.16566034 0.08910522 -0.054838132 -0.2136506
000060 c2 9d 95 3c eb 38 3f 3c ca 06 bb 3c 2e c1 09 3d
       0.018263701 0.011671285 0.022830386 0.033631496
000070 87 bc 35 3d 54 8c c4 3d 3d 5e 31 3d ae 2a c6 3c
       0.044369247 0.09597078 0.043302763 0.024190273

dec2.kernel2 f4 [1, 4, 3, 2]
000000 23 d9 8b bd 98 55 48 3c e1 3c 86 bd 3d 0e 29 be
       -0.06828525 0.012227438 -0.065545805 -0.16509338
000010 68 a4 79 bd 12 16 6c 3d 05 28 71 bd 7b 10 a8 bd
       -0.060947806 0.057638235 -0.058876056 -0.082062684
000020 50 74 bf 3e 89 69 8c 3c 14 cc 74 3d 00 e4 3a 3d
       0.37393427 0.017140167 0.059764937 0.045627594
000030 79 69 5f bc 16 48 2d 3e a8 12 15 bd 15 6f 3c 3e
       -0.0136359865 0.1692203 -0.036394745 0.1840175
000040 5b ca f4 bc 99 cb a4 bc 9a 27 96 b9 09 03 49 3a
       -0.029881647 -0.020116614 -0.00028639735 0.0007667994
000050 7f 1b 40 3d 2d 3f 4a 3d 24 8a 24 3c dc 27 0f bb
       0.046901222 0.049376655 0.010042701 -0.0021843826

exp_avg f4 [4, 1, 5, 1]
000000 a9 78 31 39 58 ff 31 38 31 91 74 38 cf e4 3b b8
       0.00016924985 4.2437896e-05 5.8309353e-05 -4.479737e-05
000010 e2 fd 55 b8 c1 36 61 b9 0a 86 8f b9 22 8e 83 b9
       -5.1019604e-05 -0.0002147807 -0.00027374952 -0.00025092164
000020 c8 4d 9c b9 4e 47 37 b9 ee 4b 44 39 ae 6a 5e b8
       -0.0002981259 -0.00017478803 0.00018720303 -5.3028278e-05
000030 93 8d 84 b8 f3 bb 50 b8 a8 77 e1 b8 c9 0c 6f ba
       -6.320621e-05 -4.9766106e-05 -0.00010751124 -0.00091190316
000040 ac b4 b6 ba cb 96 f6 ba b9 d3 c1 ba 8f bf b9 ba
       -0.0013939342 -0.001881325 -0.001478783 -0.0014171469

exp_avg_sq f4 [4, 1, 5, 1]
000000 50 10 e2 34 12 09 33 35 35 f0 83 35 6a cc a4 35
       4.210765e-07 6.6695895e-07 9.83017e-07 1.2278445e-06
000010 4a c8 af 35 fd f3 95 35 32 8d ce 35 60 e3 f4 35
       1.3096808e-06 1.1172375e-06 1.5389289e-06 1.8245591e-06
000020 a6 aa 18 36 42 bb 1b 36 d6 ef 1e 36 eb d7 1d 36
       2.2749095e-06 2.3205798e-06 2.3683438e-06 2.3520504e-06
000030 c6 60 20 36 d3 9d 2d 36 43 58 1c 36 65 d6 e0 36
       2.3898187e-06 2.5870875e-06 2.3297187e-06 6.700679e-06
000040 26 ca 13 37 4b c7 19 37 86 99 0e 37 43 86 0b 37
       8.808949e-06 9.165912e-06 8.4996045e-06 8.316306e-06

exp_avg f4 [4, 1, 4, 2]
000000 8f 44 6d 38 2e 19 dc 38 47 25 47 b8 35 73 bb 38
       5.6569053e-05 0.000104951076 -4.7480014e-05 8.938314e-05
000010 fc 45 ff b8 2a bc db 38 2e 03 2a b9 1a a8 86 36
       -0.00012172383 0.00010477782 -0.00016213648 4.013081e-06
000020 77 cf 86 b9 25 7d 3c b9 bb 18 9e b9 ce 03 87 b9
       -0.00025713045 -0.00017975697 -0.00030154534 -0.0002575204
000030 95 61 7a b9 71 0b a2 b9 38 f5 8d b9 fd f1 82 b9
       -0.0002387821 -0.00030907572 -0.00027076318 -0.00024975828
000040 3e 54 20 b8 3d 78 d5 38 8f e4 f6 b8 b9 88 b6 37
       -3.822543e-05 0.000101790276 -0.000117727664 2.1759757e-05
000050 9c d1 01 b9 04 4d 8e b7 30 70 f6 b8 5b 1c b1 b8
       -0.00012380484 -1.6963582e-05 -0.00011751091 -8.445299e-05
000060 df 5d 82 ba d7 62 90 ba da c0 ca ba d1 00 ec ba
       -0.0009946189 -0.0011015785 -0.0015468851 -0.0018005614
000070 a6 a9 f3 ba fa c8 fa ba a1 75 d0 ba 28 68 c3 ba
       -0.0018589988 -0.0019133382 -0.0015904197 -0.001490836

exp_avg_sq f4 [4, 1, 4, 2]
000000 c5 34 c6 34 29 73 28 35 2d a8 15 35 52 51 91 35
       3.691877e-07 6.2752457e-07 5.5751553e-07 1.0827009e-06
000010 e6 20 4e 35 61 32 cf 35 67 d9 6f 35 4f 74 d2 35
       7.6788854e-07 1.5437364e-06 8.93508e-07 1.568007e-06
000020 10 7f dd 35 cb d7 74 35 4e c3 11 36 8a fd 93 35
       1.6502763e-06 9.1211103e-07 2.1720366e-06 1.1026143e-06
000030 0f fe 2f 36 b3 9d cc 35 e6 e3 34 36 b1 11 e8 35
       2.6224914e-06 1.5245081e-06 2.6954744e-06 1.7290496e-06
000040 cc 24 0f 36 fa 7d 13 36 6b 18 18 36 78 dc 11 36
       2.133008e-06 2.1978035e-06 2.2663978e-06 2.1735013e-06
000050 9e a3 27 36 4c de 2b 36 45 fc 2a 36 af 5b 24 36
       2.4980177e-06 2.561038e-06 2.5478814e-06 2.4491271e-06
000060 d9 aa fa 36 a6 1f f1 36 fe e7 0f 37 2f 53 10 37
       7.47047e-06 7.186044e-06 8.577479e-06 8.6024365e-06
000070 1b 02 10 37 79 13 17 37 21 05 07 37 71 9c 0a 37
       8.583559e-06 9.004835e-06 8.047821e-06 8.261865e-06

exp_avg f4 [4, 1, 3, 2]
000000 95 1c 92 37 a4 cc 8e 39 a2 ad 28 b9 f3 cf 20 39
       1.7417866e-05 0.0002723682 -0.00016086412 0.00015336256
000010 f8 28 06 b9 8f ab 06 39 fb 97 52 b9 4c 5d 06 b9
       -0.00012794498 0.00012843146 -0.00020083778 -0.00012813992
000020 30 ec a0 b9 68 fb 6e b9 77 0c 89 b9 97 4b 7c b9
       -0.00030693552 -0.00022791105 -0.00026139963 -0.00024060752
000030 b2 3e 83 b8 42 c1 08 39 0d 3c 19 b9 43 5d ca 37
       -6.258245e-05 0.00013041965 -0.00014613588 2.4123705e-05
000040 df 9a 64 b8 d5 fc 0c b8 21 81 d1 ba ab c9 97 ba
       -5.450367e-05 -3.361407e-05 -0.0015983918 -0.0011580487
000050 8e 46 e0 ba 1a 95 e2 ba cd dc c8 ba 59 26 bd ba
       -0.0017110871 -0.0017286867 -0.0015324593 -0.0014430984

exp_avg_sq f4 [4, 1, 3, 2]
000000 1d 0f fc 34 75 b9 9b 35 58 4e 0c 35 8b ef db 35
       4.6949654e-07 1.1602375e-06 5.226807e-07 1.6386488e-06
000010 e9 10 16 35 be cc ec 35 b2 e6 1e 36 34 51 57 35
       5.590396e-07 1.7642958e-06 2.3678117e-06 8.021191e-07
000020 4b 11 4d 36 c3 0f 90 35 6e 87 3f 36 af 2c a1 35
       3.0557446e-06 1.0733423e-06 2.8540048e-06 1.2008439e-06
000030 8e c2 0c 36 74 b5 00 36 92 7f 24 36 1a 74 20 36
       2.0974871e-06 1.9179106e-06 2.451216e-06 2.3909438e-06
000040 3d b6 2c 36 fe e2 13 36 f5 3f 06 37 07 56 09 37
       2.5736074e-06 2.2036834e-06 8.001914e-06 8.185866e-06
000050 e0 2d 0a 37 9d 3a 0a 37 3e ad 07 37 43 df 06 37
       8.236122e-06 8.239088e-06 8.086963e-06 8.039005e-06

exp_avg f4 [4]
000000 7e 34 7c 3a 7f cc 93 39 11 b3 3f 3a f4 e1 a1 b9
       0.0009620859 0.00028190386 0.0007312755 -0.0003087666

exp_avg_sq f4 [4]
000000 41 68 bc 35 d4 06 c8 35 25 63 71 35 af bf 93 35
       1.4037433e-06 1.4903148e-06 8.992377e-07 1.1008141e-06

exp_avg f4 [2, 4, 3, 1]
000000 0e 36 99 ba 87 0b 8e 38 2b 05 da b9 f8 16 1d bb
       -0.0011689083 6.773235e-05 -0.0004158405 -0.002396999
000010 6b d7 c2 ba 08 25 16 ba da a3 16 bb e1 1a d1 ba
       -0.0014865225 -0.0005727564 -0.0022985847 -0.0015953445
000020 87 c5 f9 ba 6e 46 b3 bb f1 0f a3 bb 13 ca 85 bb
       -0.001905606 -0.0054710424 -0.0049762656 -0.004082927
000030 6c 6f e3 38 d1 76 0c 3a 85 5f 09 3a 03 24 68 39
       0.000108449574 0.0005358281 0.0005240369 0.0002213866
000040 d6 d9 0f 3a b7 a4 25 3a e1 ac 9c 3a 45 ac cc 3a
       0.0005487477 0.0006318795 0.0011953377 0.0015615305
000050 20 86 a9 39 43 41 37 3b 24 de 02 3b 78 1a ad 3a
       0.00032334123 0.0027962483 0.0019968832 0.0013206741

exp_avg_sq f4 [2, 4, 3, 1]
000000 fc 65 01 37 91 aa 0c 37 da cc b6 36 7e f1 15 37
       7.712744e-06 8.384363e-06 5.4478705e-06 8.937319e-06
000010 83 e6 07 37 05 f5 d1 36 60 7a 81 37 bb a3 71 37
       8.100297e-06 6.2572094e-06 1.5434984e-05 1.4402841e-05
000020 b8 cf 40 37 f4 34 8b 38 f9 6f 82 38 31 3f 58 38
       1.1492455e-05 6.6379e-05 6.2197396e-05 5.1557265e-05
000030 47 ed da 36 20 49 25 37 59 da e4 36 fb 31 27 37
       6.524529e-06 9.851792e-06 6.8203485e-06 9.965613e-06
000040 e6 7b 34 37 9a 9d f8 36 88 b4 03 38 01 89 2d 38
       1.0757683e-05 7.409323e-06 3.1400967e-05 4.137401e-05
000050 a0 31 02 38 75 fd 1c 39 80 aa 22 39 16 9b 11 39
       3.1040632e-05 0.0001497174 0.0001551304 0.00013886052

exp_avg f4 [2, 4, 2, 2]
000000 00 db f5 ba 65 3d 83 b9 1a 47 a6 39 37 b4 02 3a
       -0.0018757284 -0.0002503201 0.00031714962 0.00049859605
000010 d3 b0 b0 ba 7c c7 05 bb a8 72 53 ba ba 74 aa ba
       -0.0013480432 -0.0020413091 -0.00080660963 -0.0013004758
000020 bb 8a 10 bb 69 2c af ba 40 a9 ff ba 4f c5 0a bb
       -0.0022055346 -0.0013364676 -0.0019505396 -0.0021174734
000030 1b a6 b6 bb 50 bc 95 bb e9 ae 92 bb a3 1c 8c bb
       -0.0055740005 -0.0045695677 -0.0044764173 -0.0042758747
000040 8a bd 03 39 ad bd 3b 3a 29 60 0a 3a 6f 5b 41 3a
       0.00012563742 0.0007161748 0.0005278611 0.00073759904
000050 5d 88 81 39 2d ef 63 38 db 57 4a b9 fb bb cc b8
       0.00024706396 5.4343767e-05 -0.0001929695 -9.762492e-05
000060 b7 05 37 3a 5f 0f c6 3a 4d 99 ad 3a f6 7f dc 3a
       0.00069817476 0.0015110782 0.001324454 0.0016822803
000070 98 20 28 3b 46 be 4a 3b e9 4c cd 3a e9 de 16 3b
       0.0025654193 0.0030936166 0.001566318 0.0023021048

exp_avg_sq f4 [2, 4, 2, 2]
000000 69 12 2a 37 21 a4 c9 36 a2 fd 02 37 0d 02 85 36
       1.0137076e-05 6.009374e-06 7.807657e-06 3.9639476e-06
000010 34 90 07 37 cb da 18 37 97 47 f9 36 75 13 01 37
       8.080202e-06 9.110848e-06 7.4291124e-06 7.693529e-06
000020 8f e8 79 37 3e 75 4f 37 57 85 74 37 33 6f 3c 37
       1.4895703e-05 1.2365459e-05 1.4574579e-05 1.1231564e-05
000030 d3 43 90 38 b1 3d 7d 38 04 94 72 38 9e 1a 5c 38
       6.879088e-05 6.0377355e-05 5.7835146e-05 5.2476877e-05
000040 93 ec 01 37 1a a8 ed 36 90 3c 25 37 83 5c 2c 37
       7.744081e-06 7.08272e-06 9.848867e-06 1.02735385e-05
000050 63 17 e6 36 37 36 24 37 58 61 f1 36 35 51 3d 37
       6.8572567e-06 9.787785e-06 7.193692e-06 1.1284185e-05
000060 80 ad 14 38 e7 11 01 38 88 00 0f 38 7c 11 db 37
       3.5447534e-05 3.077267e-05 3.409435e-05 2.6114976e-05
000070 8d 21 21 39 0f d4 0b 39 f0 92 21 39 f2 60 10 39
       0.00015366655 0.00013335071 0.00015408895 0.00013769025

exp_avg f4 [2]
000000 02 e0 be 3a 9a 28 0b ba
       0.0014562609 -0.00053084793

exp_avg_sq f4 [2]
000000 6e a2 36 36 51 dd de 36
       2.721466e-06 6.64188e-06

exp_avg f4 [32, 234]
000000 04 00 00 00 57 c5 81 35 06 5b 4d a9 9c a9 79 36
       6e-45 9.668682e-07 -4.5598094e-14 3.7202617e-06
000010 ae 1d 73 37 49 f6 f8 38 ce 5e 3d 38 65 04 35 39
       1.4490839e-05 0.00011871436 4.5149405e-05 0.00017263142
000020 f9 cf dd 37 42 11 44 38 dd a9 a4 36 57 c5 81 35
       2.6442098e-05 4.6746114e-05 4.9073556e-06 9.668682e-07
000030 04 00 00 00 04 00 00 80 95 4f 05 35 9c 92 a1 36
       6e-45 -6e-45 4.966217e-07 4.8152415e-06
000040 94 0a 68 38 06 2b 94 38 6e 79 05 39 d9 53 58 39
       5.5322962e-05 7.065204e-05 0.00012729104 0.00020630601
000050 e6 0c 1e 39 b1 f4 ad 38 25 01 65 38 c6 0d 36 38
       0.00015072859 8.29486e-05 5.459892e-05 4.340501e-05
000060 6d 6f f6 36 c0 ec 91 35 04 00 00 80 03 5a 20 36
       7.344343e-06 1.0872245e-06 -6e-45 2.3894252e-06
000070 7c 83 ff 37 85 01 b4 38 98 8d d4 38 a5 ba b9 38
       3.0459596e-05 8.583352e-05 0.00010135322 8.856253e-05
000080 35 d3 2e 39 3f c8 08 39 fc c0 dd 38 3b e4 63 38
       0.00016672614 0.00013044568 0.00010574047 5.4333574e-05
000090 8e 03 76 38 a2 54 a1 37 c0 ec 91 35 c9 b7 58 31
       5.865428e-05 1.9232106e-05 1.0872245e-06 3.1536607e-09
0000a0 23 ab 45 37 44 45 dd 37 a4 74 57 38 c2 44 f4 38
       1.1781961e-05 2.6377507e-05 5.1368625e-05 0.00011647634
0000b0 1c 99 6e 38 1e e9 b4 38 32 1a bd 37 c0 d2 09 38
       5.6886216e-05 8.62649e-05 2.2542754e-05 3.285962e-05
0000c0 6e c4 0b 37 b2 62 dc 36 9b c6 1e b8 62 38 34 b7
       8.3307805e-06 6.5680006e-06 -3.78551e-05 -1.0741964e-05
0000d0 e5 9a 1f 35 a2 7d e6 37 8e fe e1 37 1b b3 b7 37
       5.9457517e-07 2.7476639e-05 2.6940626e-05 2.1898702e-05
0000e0 57 16 3a 38 77 43 8a b8 65 75 8b b8 2e df b6 b7
       4.436666e-05 -6.592919e-05 -6.649903e-05 -2.1800017e-05
0000f0 b6 bc b5 36 bd 59 6e b8 13 44 3c b7 cf 87 a9 b7
       5.416189e-06 -5.6827197e-05 -1.1221523e-05 -2.020961e-05
000100 f9 8e 53 b8 48 7b 02 35 cb 89 4d 36 53 0e 53 38
       -5.0439474e-05 4.860817e-07 3.0627587e-06 5.031966e-05
000110 31 91 23 38 3c a0 87 38 28 d2 fe b8 d6 94 5e b9
       3.899745e-05 6.4671476e-05 -0.000121508085 -0.00021227016
000120 af 14 14 b9 5e 41 82 b8 c2 e7 4b b8 dc 6a 59 b7
       -0.00014122085 -6.211059e-05 -4.8614813e-05 -1.2959088e-05
000130 a4 22 ac b6 ab a4 af b7 06 f1 2c 32 ce 4d 61 35
       -5.130032e-06 -2.0938305e-05 1.006652e-08 8.393225e-07
000140 e1 cc 04 37 2b 3d a7 37 f4 0c 59 b6 e5 f2 3d b8
       7.915515e-06 1.9936435e-05 -3.234306e-06 -4.5287325e-05
000150 b5 17 28 b9 0f 06 0a b8 7b cb 18 b7 f5 2b 53 b7
       -0.0001603056 -3.2907406e-05 -9.1072825e-06 -1.2586815e-05
000160 51 01 9c 36 28 88 4e 37 d5 ed 42 b6 04 00 00 80
       4.6493155e-06 1.2310258e-05 -2.904669e-06 -6e-45
000170 b2 ff 8c 35 d2 44 3f 37 44 a9 54 37 38 e8 fa 37
       1.050523e-06 1.1400511e-05 1.2675595e-05 2.9910458e-05
000180 8a 23 6d 36 6c e2 9f b8 e4 75 3f b8 ce 0e ba b7
       3.5336438e-06 -7.623885e-05 -4.5647743e-05 -2.2179822e-05
000190 f3 80 37 b5 c7 87 dc 37 69 57 33 36 c0 ec 91 35
       -6.836046e-07 2.628927e-05 2.6723958e-06 1.0872245e-06
0001a0 04 00 00 80 a5 9a b2 35 64 47 37 34 13 1e 14 b4
       -6e-45 1.3307041e-06 1.7069175e-07 -1.3794515e-07
0001b0 bd 56 01 38 c3 b0 93 37 55 ed 24 b8 c0 b9 2b b8
       3.0836778e-05 1.7606077e-05 -3.932168e-05 -4.094257e-05
0001c0 df 89 74 b8 cc 5f 3f 36 10 56 ac 37 a5 9a b2 35
       -5.8302536e-05 2.851698e-06 2.0544074e-05 1.3307041e-06
0001d0 c0 ec 91 35 82 56 61 2c 15 c7 92 33 11 38 c2 b5
       1.0872245e-06 3.2022445e-12 6.8348676e-08 -1.4470444e-06
0001e0 df 3c ce 37 32 3b b1 37 15 a4 c4 38 13 c9 29 38
       2.4585459e-05 2.112761e-05 9.376571e-05 4.0480005e-05
0001f0 6d 42 b4 37 22 19 dc 37 56 77 a5 37 33 71 ae 35
       2.1488604e-05 2.6237747e-05 1.9725103e-05 1.2996956e-06
000200 15 c7 92 33 52 3d c7 35 6e 4b 78 35 4d 16 a3 36
       6.8348676e-08 1.4844502e-06 9.2496964e-07 4.8603747e-06
000210 30 21 74 37 9a 26 e7 37 5a c0 46 38 33 23 81 38
       1.455126e-05 2.7555321e-05 4.738602e-05 6.157756e-05
000220 7a cb 0a 38 09 cc db b7 d8 a7 9d b7 49 c2 73 b7
       3.3091266e-05 -2.6201846e-05 -1.8794017e-05 -1.4529164e-05
000230 8e b6 c2 36 e8 b0 5e b4 61 4b 66 35 6e 4b 78 35
       5.8029027e-06 -2.0739719e-07 8.579137e-07 9.2496964e-07
000240 6f 7c 92 37 2d 1a 31 38 17 4d 5a 38 d1 fe 2a 38
       1.74625e-05 4.2224467e-05 5.2047046e-05 4.0768475e-05
000250 18 4f 04 38 7b 17 92 37 b5 6e 72 b7 e7 9c 39 b6
       3.1544914e-05 1.741549e-05 -1.44501e-05 -2.7658477e-06
000260 f6 32 8f b7 5a f8 05 37 20 3f e4 b5 61 4b 66 35
       -1.7070659e-05 7.985242e-06 -1.7005696e-06 8.579137e-07
000270 bc 4f 7f b5 b7 56 c4 36 f1 09 18 38 4a d4 7a 38
       -9.511093e-07 5.85135e-06 3.6248883e-05 5.9802354e-05
000280 c9 2f 4e 38 35 25 8e b6 f6 7d 8a b5 d6 3a 13 b7
       4.915873e-05 -4.2362612e-06 -1.0318461e-06 -8.775582e-06
000290 b7 a5 f4 b7 80 6a 6c b6 d1 03 07 b7 01 a3 89 b7
       -2.9164234e-05 -3.5228732e-06 -8.047516e-06 -1.6407577e-05
0002a0 e1 52 ef 34 94 d3 b4 37 6b 59 e8 37 bc a3 4c 37
       4.457752e-07 2.1556196e-05 2.7698194e-05 1.219747e-05
0002b0 51 d7 0e 38 99 1d a2 37 3d d3 d8 b7 c6 df c7 b4
       3.4055967e-05 1.9325687e-05 -2.5847572e-05 -3.7229455e-07
0002c0 17 a4 d0 36 1a d9 78 b6 2f c1 72 b7 4b 68 2c b7
       6.2179856e-06 -3.708125e-06 -1.4469303e-05 -1.02762815e-05
0002d0 06 21 96 b7 f2 44 fb b7 59 3f c0 34 91 4c 2a 37
       -1.7896771e-05 -2.9953637e-05 3.5808878e-07 1.0150617e-05
0002e0 2d fb 23 38 cb 79 0f 38 6f b2 a6 35 4c 6c a4 b8
       3.9096154e-05 3.4207285e-05 1.2419895e-06 -7.840301e-05
0002f0 15 ec f9 b7 8f c8 81 37 24 76 fc b7 89 5c f8 b5
       -2.9793047e-05 1.547139e-05 -3.0095754e-05 -1.8504371e-06
000300 5e d4 90 b6 90 b5 92 b7 34 81 96 b6 0b 7e 6d 35
       -4.316257e-06 -1.7489103e-05 -4.4853896e-06 8.8472797e-07
000310 f0 c9 00 36 f5 d3 d9 36 46 f7 4b b7 ee 37 c5 36
       1.919103e-06 6.491779e-06 -1.2157316e-05 5.8775686e-06
000320 f8 75 0a b7 5d 64 7b b7 92 37 98 37 a3 07 e5 b7
       -8.252908e-06 -1.49841335e-05 1.8145689e-05 -2.7302483e-05
000330 9a 80 64 37 b9 14 5b 35 8e 2a a5 b6 26 dd e9 34
       1.3619801e-05 8.1614013e-07 -4.922337e-06 4.356054e-07
000340 6e 4b 78 35 a4 3e 88 34 31 c1 0e 37 ba fa 8a 37
       9.2496964e-07 2.537755e-07 8.50884e-06 1.6567636e-05
000350 f3 5a 7d 37 b3 79 d4 b7 e4 b5 a7 b7 24 d3 c5 b7
       1.5101151e-05 -2.532904e-05 -1.999265e-05 -2.358255e-05
000360 5d 85 1a b8 a6 60 92 37 37 89 41 37 10 79 b6 34
       -3.6840665e-05 1.7449562e-05 1.1535644e-05 3.3988226e-07
000370 61 4b 66 35 6e 4b 78 35 a5 4f 02 35 57 5e df b5
       8.579137e-07 9.2496964e-07 4.854467e-07 -1.6642251e-06
000380 9b 1f f7 36 26 a6 5d 37 6d c0 72 b7 a3 3c 12 b8
       7.364853e-06 1.3211311e-05 -1.4469127e-05 -3.4865585e-05
000390 7b 44 9a b7 77 a0 bd b6 69 d9 01 36 fb 8a 09 37
       -1.839012e-05 -5.6513195e-06 1.9349047e-06 8.198195e-06
0003a0 a5 4f 02 35 61 4b 66 35 04 00 00 00 78 81 bc 36
       4.854467e-07 8.579137e-07 6e-45 5.6179088e-06
0003b0 fa 87 a4 29 f3 45 4d 39 f1 e5 cd 38 11 7c 24 3a
       7.306651e-14 0.00019576382 9.817992e-05 0.0006274591
0003c0 21 2c 73 39 7a 0a 95 3a ff 05 65 39 44 ee 21 3a
       0.00023190725 0.001137092 0.00021841376 0.0006177167
0003d0 b8 61 70 38 78 81 bc 36 04 00 00 80 04 00 00 00
       5.7311467e-05 5.6179088e-06 -6e-45 6e-45
0003e0 d3 56 8f 35 9c 9c 62 38 6c b8 c7 39 69 95 05 3a
       1.0679599e-06 5.4028453e-05 0.00038093643 0.0005095811
0003f0 1e 18 45 3a 3f 85 8f 3a 23 56 b5 3a 55 8e 88 3a
       0.00075185474 0.0010949745 0.0013834875 0.0010418395
