server_report/ae_hexa/ae_hexa_mask_upgrade_32/autoencoder_20251230_165729.pth (torch, 397358 bytes, 51 tensors)

enc1.kernel0 f4 [8, 1, 5, 1]
000000 c0 84 31 bf 9d 1e 5b bc 1f c4 c4 3f de c5 81 3d
       -0.69343185 -0.013373998 1.5372351 0.06336568
000010 1d dc 44 bf d6 6c 30 3f 64 47 99 be 9f 77 81 be
       -0.76898366 0.6891607 -0.2993728 -0.25286576
000020 31 60 cc 3e 9d ce 63 3d fa ae 10 3f 6c bf 9c 3e
       0.39917138 0.055616964 0.56516993 0.30614793
000030 9a 34 c7 be 69 75 d4 be b4 c4 d1 3e e3 de 25 3e
       -0.3890732 -0.41495827 0.40970385 0.16198306
000040 d0 e1 e7 be 9d 35 47 3e 73 8f 18 3f d9 2e 31 3e
       -0.4528947 0.19454046 0.59593886 0.17303027
000050 c9 5a a3 bd d2 0e 45 bf ef 88 8e be f3 9c 3a 3f
       -0.079763 -0.7697574 -0.27838847 0.72895736
000060 03 a9 30 3f a6 bb 9d 3d fc e0 bd bc 8f 9c e8 be
       0.6900789 0.07701807 -0.02317857 -0.45431945
000070 9d c4 0b bf a9 12 c1 be da 16 d5 be 39 0b 8d be
       -0.54596883 -0.3770955 -0.41618997 -0.27547625
000080 69 49 80 be 0f 7f 81 3e 97 87 29 3e 55 d6 82 3e
       -0.25056008 0.2529225 0.1655563 0.25554147
000090 40 92 9d 3f ef 85 56 3e 40 e2 e9 bd 63 8b 1a 3e
       1.2310257 0.20949529 -0.11420107 0.15092234

enc1.kernel1 f4 [8, 1, 4, 2]
000000 90 9b bf be e8 ac d0 be 9f d9 53 3e c8 88 19 3e
       -0.37423372 -0.40756917 0.20688485 0.14993584
000010 05 94 a1 3e 69 f0 1d 3f df df 05 bf 6f 48 6b 3e
       0.31558242 0.6169496 -0.52294725 0.2297685
000020 58 20 d0 be 89 6b d6 3e ce 98 37 bf ee df c7 3e
       -0.40649676 0.41878918 -0.71717536 0.39038032
000030 9f 42 d2 bd 53 1e 01 3f 93 96 0a 3f 50 9b 8d 3e
       -0.10266613 0.50436896 0.5413601 0.27657557
000040 22 42 0c 3f 5e 13 64 3f 87 ef 0e bc a1 44 09 3d
       0.5478841 0.8909205 -0.0087241 0.033512715
000050 15 65 f9 be 6e 71 df be 99 f4 9a be be de df 3e
       -0.48709932 -0.43641227 -0.30264738 0.43724626
000060 45 b6 cb 3e f3 e0 02 be 0b 88 00 3f e0 7f 45 be
       0.39787498 -0.12781124 0.50207585 -0.19287062
000070 b7 f1 cb 3e 4c be a8 3e 80 10 02 3f 0a a9 a3 3e
       0.3983285 0.32957685 0.50806427 0.31964904
000080 65 0a 3a bf 1a 1a b1 bd b4 0a 10 3e 1a 5a 1e bf
       -0.7267211 -0.086475566 0.14066583 -0.61856234
000090 79 1c 5a 3f 67 17 2c bf 83 f1 1e 3f 0c 46 be bd
       0.85199696 -0.6722321 0.6208727 -0.09290704
0000a0 c8 52 90 3e 22 5c 89 bd 06 e3 b0 3e 02 d3 90 be
       0.28188157 -0.06707026 0.34548205 -0.28285986
0000b0 2d ad 4a be b6 26 92 be 06 39 b1 be 53 80 83 bd
       -0.19792624 -0.2854516 -0.34613818 -0.0642096
0000c0 64 2f 4f be c5 c5 67 3e e6 5e 36 3c 12 75 87 3e
       -0.20232922 0.22634037 0.011131024 0.26456505
0000d0 ee 1b d0 be 9d 72 08 3f fe d7 c9 be 33 d9 8b 3e
       -0.4064631 0.53299886 -0.394226 0.27314147
0000e0 52 06 d7 3e 74 8a 4b 3e 8d 3a fb 3e 2a fd 28 3f
       0.4199701 0.19877034 0.49068108 0.660113
0000f0 95 c2 ea 3e a0 89 91 be 11 1c e0 bd d5 1b fc be
       0.4585158 -0.28425312 -0.10942853 -0.49239984

enc1.kernel2 f4 [8, 1, 3, 2]
000000 1f 89 d9 be ab 9c 20 bf bd 85 aa 3e bb 72 62 3d
       -0.42487428 -0.62739056 0.3330516 0.055285197
000010 3a 1d 09 3e 4d e5 b6 3e fc c3 91 be df 35 49 3e
       0.13390055 0.35721818 -0.28469837 0.19649456
000020 22 fe a7 be 82 f2 f7 3d db d7 43 3f ea f1 a6 bd
       -0.32811075 0.121068016 0.76501244 -0.0815161
000030 f0 20 20 be eb d9 b8 be 67 eb 74 3c 85 9e 1a bf
       -0.15637565 -0.36103758 0.014948702 -0.6039813
000040 9a 2b c1 3c 1a 6c 12 bc 92 06 20 3e b3 9a d3 bd
       0.023580361 -0.008936906 0.15627506 -0.10332241
000050 6d e8 0b bf 13 e4 ed 3c 88 3e 30 3e 70 29 17 bd
       -0.5465153 0.029039418 0.17211354 -0.036904752
000060 1f 4d c9 3d 16 e2 b9 3d 2b 14 2d 3f 23 2c f6 bd
       0.09829163 0.090763256 0.676089 -0.12020137
000070 6c 8d 53 be 71 73 e1 bd f2 13 82 3e d2 ed 08 be
       -0.20659417 -0.11008347 0.25405842 -0.13371971
000080 ad db 0d 3f 16 02 d9 bd d9 c0 03 3f c4 de 87 3d
       0.55413324 -0.10596101 0.5146614 0.06634286
000090 12 35 11 3f 4e 82 3b 3f 51 34 58 3d 4e b1 7b 3f
       0.56721604 0.73245704 0.052784268 0.9831742
0000a0 eb d2 8d be a4 6e f1 3e e6 0e 04 3e 92 fa 9f 3e
       -0.2769998 0.47154725 0.12896308 0.31245857
0000b0 9e 2c d6 3e bc 2d da 3d 50 2b 5a be 3f 51 17 be
       0.41830915 0.106532544 -0.21305585 -0.14777087

enc1.bias_tensor f4 [8]
000000 cf 9d fb bb d4 76 56 3b d8 6c fe ba fe 31 28 3d
       -0.0076787244 0.0032724636 -0.00194111 0.0410633
000010 5f 2c 5c 3c 0d b1 e3 3b e7 b8 8b 3c 1b 03 08 3c
       0.013438313 0.0069485963 0.017055942 0.008301522

enc2.kernel0 f4 [4, 8, 3, 1]
000000 76 f7 03 be a7 1c ec be 4e 07 09 3e 2f f4 5d be
       -0.12887368 -0.4611561 0.13381693 -0.2167518
000010 c2 d4 06 bd c9 a7 95 3e d6 17 6a bd 39 bc 00 bd
       -0.032917745 0.29229572 -0.057151638 -0.031429503
000020 47 7d 00 3e 2a 01 2e bc 76 89 b1 be cb e4 64 3e
       0.1254779 -0.010620395 -0.34675187 0.22352903
000030 d2 19 8a 3d 76 94 c7 be 49 53 60 3e 7c 90 9e 3c
       0.06743206 -0.38980454 0.21906771 0.019356005
000040 d4 5b 9c be 50 2c 17 bd a1 5c a3 be 9a f4 8f be
       -0.3053881 -0.036907494 -0.31906608 -0.28116304
000050 59 81 12 bd 69 db 95 be 4f 90 99 be 9d f4 f2 3d
       -0.035767887 -0.2926896 -0.2999291 0.118630625
000060 06 93 c6 bd 1c 2f 27 be dc 35 24 be 87 87 90 be
       -0.09696011 -0.16326565 -0.1603617 -0.282284
000070 93 26 8b be 61 cd 7b be 75 e6 ea be 6a 14 db bd
       -0.27177867 -0.24590065 -0.4587895 -0.10697253
000080 dc 02 2d 3e bf 13 07 3e 84 a8 2d 3c 38 63 e0 3c
       0.16895622 0.13191126 0.010599259 0.027391061
000090 d9 cd f2 bb 32 58 ea bd 0b ef ad bc bd d2 03 bd
       -0.007409793 -0.11442603 -0.021232149 -0.032183398
0000a0 e3 1c 9f 3e 8f ba 51 3d 22 b5 7b be 67 2f 36 be
       0.31076726 0.051203307 -0.24580815 -0.1779152
0000b0 be 85 87 be db 9c 0f be 34 25 50 3e 08 50 13 3e
       -0.26469225 -0.1402468 0.20326692 0.14385998
0000c0 9e 0b 98 be af e8 80 3d 0d af 97 3d 2f fe 4e bd
       -0.29696363 0.06294381 0.07406435 -0.050535377
0000d0 31 e2 70 3d 0c b1 1e be 1d 74 bd bd 7b a9 27 3e
       0.058809463 -0.15497226 -0.092506625 0.16373245
0000e0 4d 94 12 be a3 00 fc bd ee dd 90 3e 0a 4b 4c 3e
       -0.14314385 -0.12304809 0.2829432 0.199505
0000f0 46 d3 4e be 82 d1 2c bc 94 f5 01 3e 41 c2 74 3e
       -0.20197782 -0.010547997 0.12691337 0.23902227
000100 0d d7 a7 3e 79 1c 7e 3e f5 8a 97 bd 73 0c 8e 3d
       0.32781258 0.24815549 -0.07399551 0.06935968
000110 a0 59 ef bd 60 ed 10 be 3c ff 24 3e 9e ee dd bd
       -0.116870165 -0.14153051 0.16112989 -0.10836528
000120 35 57 96 3e f9 23 fa bd b2 ba 4c 3b cc de 64 3e
       0.2936341 -0.122138925 0.0031239209 0.22350615
000130 4e 89 b2 be 93 9c 24 be 97 0d d2 3e cf 4d 94 be
       -0.3487038 -0.16075353 0.41025993 -0.28965613
000140 d2 de e4 3c 14 16 1b be ec a4 b5 bd 0b 60 32 be
       0.02793828 -0.15145141 -0.08869347 -0.1741945
000150 17 1a fe bc 4f 83 4e be 14 97 cc be 5c 06 38 3d
       -0.0310183 -0.20167278 -0.39959013 0.04492794
000160 36 77 09 3e 95 a6 b5 be 86 a3 40 3e c8 62 81 be
       0.13424382 -0.35478655 0.18812379 -0.25270677
000170 5c 8f a8 bd e5 dc 6b 3e e9 61 e8 be a1 eb 85 bd
       -0.08230469 0.23033483 -0.453872 -0.06539083

enc2.kernel1 f4 [4, 8, 2, 2]
000000 46 da ab bd bc 3f a1 bd 8e e4 8f 3e a3 23 5a 3e
       -0.08391242 -0.078734845 0.2810406 0.21302657
000010 49 c6 51 3d 70 0e a8 3a c0 a7 d6 3e c1 e0 aa 3e
       0.05121449 0.0012821686 0.41924858 0.333746
000020 68 d6 3c be 5b cd 20 3e 89 2a 41 3e 1c 14 9a 3e
       -0.18441164 0.15703337 0.18863882 0.30093467
000030 82 42 1d 3e 3a 70 1f be be b8 39 bd 2b 67 eb bc
       0.15357402 -0.15570155 -0.0453422 -0.028735718
000040 97 0c a3 bd 8f 79 2c 3d 6a 66 c2 3e 20 80 10 be
       -0.07961386 0.042108115 0.3796876 -0.14111376
000050 c8 cf d5 3d 02 30 80 3e 31 be 0b be 51 8b 83 bc
       0.10440022 0.25036627 -0.13646771 -0.016057642
000060 81 b0 47 be 14 f2 32 3e 02 5f 40 3e a1 48 cb 3e
       -0.19500925 0.17475158 0.18786243 0.3970385
000070 ec b9 5f 3c a6 ba 1b 3e 87 6a 83 3e 9e a5 bc 3e
       0.013655167 0.1520792 0.2566721 0.36845106
000080 f6 13 c9 3d 8a 80 15 3e 86 b3 da 3d 63 8c ea bc
       0.0981826 0.14599815 0.10678773 -0.028631395
000090 ac b6 9a be 05 91 5a bd cc f4 b3 be 38 ce e2 bd
       -0.30217493 -0.053360958 -0.35147703 -0.11074489
0000a0 f9 36 87 be f0 a7 b7 be df 4d c6 bd 53 11 ec be
       -0.26409128 -0.35870314 -0.096828215 -0.46106967
0000b0 24 e8 dd 3d db d8 24 3f 78 98 40 be 2f 35 a2 3e
       0.10835293 0.64393395 -0.18808162 0.316812
0000c0 85 cf 39 3d 3e 27 6e be 7d 23 b2 bd 69 87 4b bc
       0.04536392 -0.23257157 -0.08698175 -0.012422421
0000d0 5b 12 7f be ed 0d 24 3d eb eb 24 bf 79 1f d1 bd
       -0.24909346 0.040052343 -0.6442248 -0.10211081
0000e0 95 ea 19 bd d9 e7 79 be a5 e2 6b 3d 02 49 82 be
       -0.03757723 -0.24404849 0.057589192 -0.25446326
0000f0 7c f1 40 be d8 5c d1 3d d9 9c 7e be 1f 09 e1 bc
       -0.18842119 0.10222787 -0.2486452 -0.02747017
000100 a3 ac 56 bd 4d a5 c2 3d ff 19 62 3e db 57 8e 3d
       -0.052410733 0.09504185 0.22080229 0.06950351
000110 de ce 8f 3d fa 98 00 3e fe 72 72 3e a4 61 76 bd
       0.07021879 0.12558356 0.23676679 -0.06015171
000120 6a e4 be bc f8 1c 49 3d 50 fd 8d 3d 31 03 0c bc
       -0.023302276 0.049099892 0.06933081 -0.008545683
000130 4c 61 4b 3d 7e 66 53 3c 34 a3 a7 3e 56 1a 40 3e
       0.049653336 0.012902854 0.32741702 0.18760046
000140 c1 50 4b 3e cc cd 0f bd 14 8f 4f 3e 48 ae bf 3d
       0.19855024 -0.035108373 0.20269424 0.093594134
000150 3e d2 98 bd 34 7d 77 3d e2 26 59 3e 74 c2 8e bd
       -0.074619755 0.060422137 0.21206239 -0.06970683
000160 83 8c 8e 3c 48 01 9c 3d 2a 5a b1 3e 95 26 bd bd
       0.017400986 0.07617432 0.34639102 -0.092358746
000170 46 26 2a 3e 56 c6 da 3d df ef eb 3e 34 27 5d 3c
       0.16616163 0.10682361 0.46081445 0.013498116
000180 70 4b bf 3d e2 60 ea 3e 9e 33 aa 3d 00 61 ab bd
       0.093405604 0.4577704 0.083106264 -0.08368111
000190 7a e3 b5 bc 2c 14 3f 3e b4 1f f7 bc 9d 67 5f be
       -0.022203196 0.18660039 -0.030166484 -0.21816869
0001a0 5d ca 8c bd 35 cd e4 3d 33 c8 12 bd 64 88 89 be
       -0.06874535 0.11171953 -0.035835456 -0.2686187
0001b0 bd 7f 4d 3e cf 05 ad 3e 07 f4 e4 3e c7 ff 76 be
       0.2006826 0.33793494 0.44717428 -0.24121009
0001c0 78 79 ae 3d 56 59 ac 3e fb 2e df 3d 61 29 b7 3b
       0.08519262 0.33661908 0.10897633 0.0055896495
0001d0 00 4d 3f 3f 71 e3 7d be 9a 32 08 3f 55 82 f3 bd
       0.7472687 -0.24793793 0.5320221 -0.11890093
0001e0 93 12 76 3e e3 cc 55 3e 1a d1 0c 3e 1f b0 62 bd
       0.24030523 0.2087894 0.13751641 -0.055343743
0001f0 38 d9 18 3e ed 09 81 3e 66 10 86 3e 1c 18 c1 be
       0.14926612 0.25202885 0.26184386 -0.37713706

enc2.bias_tensor f4 [4]
000000 3b 39 73 3d b3 69 07 3e 03 77 9a bd fa 0e fd 3c
       0.05938075 0.13223915 -0.07542231 0.03089093

fc_enc.weight f4 [32, 468]
000000 61 48 e0 bd a7 2f dc bd 9f 1a 0e bc 9b a8 87 bd
       -0.10951305 -0.107512765 -0.008673339 -0.06623956
000010 3f 46 18 3e 06 00 30 3d ac 55 69 3e ce e4 17 bc
       0.14870547 0.042968772 0.22786587 -0.00927086
000020 38 f6 3a 3d 6f 02 91 bd d2 6c e1 3d 26 ca eb bd
       0.04564497 -0.07080542 0.11007084 -0.11513166
000030 32 d6 c9 bd 25 bb 8a bd 70 4e 12 be b3 03 aa bd
       -0.09855308 -0.06773976 -0.14287734 -0.08301487
000040 bb b2 0c 3e 7d 7b 0e bd eb 4c 86 3c d4 dd 01 be
       0.13740055 -0.034785736 0.0163941 -0.12682277
000050 01 c7 8b bd b4 93 8e bd ac 5a ef bd 9a 39 0e 3e
       -0.06825066 -0.06961766 -0.11687216 0.13889161
000060 22 d0 60 3e 18 2c 92 bd 67 e3 0b be 1c ad 99 bd
       0.21954396 -0.071373165 -0.13660966 -0.07503721
000070 14 42 ff 3c a8 3c 7b 3d ab 39 8d 3b 57 a0 b8 3d
       0.031159438 0.061337143 0.004309853 0.090149574
000080 41 9b 26 3e 9f 97 75 bd a1 fc 2f bd c8 14 8d 3d
       0.16270162 -0.05995905 -0.042965535 0.06888729
000090 7e 5b f5 bd 01 66 8b 3d 77 da e2 bc 2f e7 9a 3c
       -0.119803414 0.06806565 -0.027692063 0.018909065
0000a0 ef 59 16 3e e0 c6 0e be f4 09 9d 3d 3d dd 03 bd
       0.14682744 -0.13943052 0.07667914 -0.03219341
0000b0 00 04 18 be 08 5d 65 3d 34 17 3a bd 59 96 b3 3d
       -0.14845276 0.055996925 -0.045432284 0.08768911
0000c0 b9 8f 35 bd fe 85 7d 3d 08 98 76 bd 28 ca e5 3b
       -0.044326518 0.061895363 -0.060203582 0.0070126243
0000d0 f8 09 d0 bd 96 f1 8a 3d 06 17 ff bd 41 ba c8 bc
       -0.101581514 0.0678436 -0.12455563 -0.024502875
0000e0 3f de d9 3d a1 27 f0 3d 42 31 6f bc d5 55 b1 bd
       0.10638093 0.117263086 -0.014599146 -0.08658949
0000f0 81 4a 35 3d 18 6b 9a 3d e3 80 f7 3d 6e 57 2b bd
       0.044260506 0.07539958 0.1208513 -0.041831426
000100 a6 c5 db bb 71 4d 31 3c db 49 ac bd 1f 04 28 3e
       -0.006706911 0.010821686 -0.08412524 0.16407822
000110 2b 78 d2 3c 77 cd a6 3c 12 80 23 3e 54 c4 82 bd
       0.025692066 0.020361645 0.15966824 -0.06385103
000120 9e ea 3d bc a9 82 02 3e f5 d1 4e bd ec 8a 2c be
       -0.011591582 0.12745155 -0.0504932 -0.1684987
000130 5c b7 b9 3d 06 6c 6a 3e 12 8b c1 bd d0 c9 d7 3b
       0.09068176 0.2289277 -0.09450354 0.006585337
000140 74 7f 87 3d fd b5 9e 3b 4e 22 a8 bc d5 1e d9 3d
       0.06616107 0.004843472 -0.02052417 0.10601584
000150 9f 85 92 bd 99 07 8f bc af 83 d4 3d 9f eb 3c bc
       -0.071543925 -0.017459678 0.10376679 -0.011530786
000160 09 bd 59 bc b4 bd 93 3c 15 c0 3b bd 4c 76 9a bd
       -0.013289698 0.018034793 -0.04583748 -0.075420946
000170 8a 55 af bd b4 11 b3 bd 78 f2 0b 3e 1d 2f 1b 3e
       -0.08561237 -0.08743611 0.13666713 0.15154691
000180 ec 60 b5 3d 0e 22 9c 3c 59 40 02 3e 3c 89 7c bc
       0.08856377 0.019059207 0.12719859 -0.015413579
000190 07 11 f0 ba c5 86 07 bd 60 f3 da bd 8b 4c d4 bd
       -0.0018315621 -0.03308751 -0.10690951 -0.10366162
0001a0 34 b9 ee bd 40 97 9a bd 6b ab 67 be 4f 70 bc bc
       -0.116564184 -0.0754838 -0.22623985 -0.023002772
0001b0 da ea 24 3d 81 2a 9f bd 5d 25 0f be b3 19 9f 3d
       0.040263034 -0.07771779 -0.13979097 0.077685736
0001c0 d5 90 3d 3d c9 84 5f be f8 0b dd 3d fe c7 02 be
       0.0462807 -0.21827997 0.107932985 -0.12771603
0001d0 db 9f 97 bd 13 a5 03 bd f8 67 a5 bc e8 cb 14 3b
       -0.07403537 -0.03213985 -0.020191178 0.0022704545
0001e0 c1 d4 3b 3d 8d 4c d7 bd c5 ac a7 bd 2a 34 12 be
       0.045857195 -0.10512648 -0.0818725 -0.14277712
0001f0 41 78 9c bd 4a 49 44 be 87 5c 47 3d 79 46 11 be
       -0.07640124 -0.19168583 0.048672225 -0.1418704
000200 a9 4a 1c bd bc 0b 14 bd 15 64 13 bd f6 f8 78 bd
       -0.03815714 -0.036144003 -0.035984118 -0.060784303
000210 92 ee 3f 3e 8f fb 97 3c 99 02 84 bc 98 dc f0 3c
       0.18743351 0.01855257 -0.01611452 0.029402062
000220 41 c5 be 3c 13 22 37 3e 40 86 a1 3d 60 1c 2a 3e
       0.023287417 0.17884092 0.07886934 0.16612387
000230 5c 4e 81 3d 05 96 dd bc 29 36 6d bd ce f1 d7 bd
       0.06313774 -0.027049074 -0.05791298 -0.105441675
000240 e8 4a 91 bd 4c 66 5d 3d 33 86 0d 3d d7 8a 9c bb
       -0.07094365 0.054052636 0.03455181 -0.004777293
000250 9b 9b e4 ba c3 03 14 3d c6 25 dc 3d 6c 95 8c 3e
       -0.0017441394 0.0361364 0.10749392 0.2745775
000260 cd c9 ee 3b 17 03 fe 3b 39 f4 b3 bd 16 c7 8e bd
       0.00728724 0.007751833 -0.08786816 -0.069715664
000270 16 48 94 bc e5 58 37 bd 78 ca da 3d 1a 6e 65 3e
       -0.01810078 -0.04476251 0.10683149 0.22405282
000280 d6 56 98 3d 29 2d 84 3d 79 a6 1a be 3c ec 02 bd
       0.07438438 0.06453926 -0.15102567 -0.031963572
000290 cf a6 7c 3d de cd 88 3d 78 cb 3c be ec 9c 8a bd
       0.06168252 0.06679891 -0.18436992 -0.06768212
0002a0 e6 ba 0b be c1 e1 00 bd 44 12 f4 3c 87 8b 03 3e
       -0.13645515 -0.031465296 0.029793866 0.12846194
0002b0 a0 75 6a 3e d5 3b 8f 3e d2 93 0f 3e 3a 55 f4 bd
       0.22896433 0.27975336 0.14021233 -0.11930318
0002c0 a0 f8 da bd 7b c2 32 3d 63 11 42 bd 05 54 57 be
       -0.10691953 0.043642502 -0.047379863 -0.21028145
0002d0 22 c0 2e bd 0c b1 b9 bc 7d 8e b0 bd a6 60 c3 bc
       -0.0426637 -0.02266743 -0.086209275 -0.023849797
0002e0 ee a5 ce bc 16 5f 45 bd ab d6 08 3e 42 2b 61 bb
       -0.025225606 -0.048186384 0.1336314 -0.003435806
0002f0 b4 00 12 be 83 91 5b bd c9 36 45 3d e5 f9 95 bd
       -0.1425808 -0.053605568 0.04814795 -0.07323054
000300 d4 a5 d9 3c 9a fd 2b 3e fb c1 56 3e 13 3c d8 bd
       0.02656833 0.1679596 0.20972435 -0.10558333
000310 f7 f6 a0 bd 0c 31 01 be 9b 5f 7d bd 4a 8f 6c bc
       -0.07859605 -0.12616366 -0.061858755 -0.01443846
000320 64 ae e1 bd 31 10 a3 bd bc d2 22 bc b1 0a 06 3a
       -0.110195905 -0.07962073 -0.009937938 0.00051132875
000330 2b f4 8d 3c 3d 45 4f 3d 9c 5a 3f 3e be 01 a7 3c
       0.017328342 0.05060314 0.18686908 0.020386573
000340 30 e8 d5 bd 66 42 b3 bd 50 73 9d 3a 59 53 9f 3c
       -0.10444677 -0.08752899 0.0012012515 0.019448923
000350 f8 84 e1 ba 4e 6e 16 be d9 7f 7e 3a 6d 08 3e 3d
       -0.0017205765 -0.14690515 0.0009708382 0.046394754
000360 b4 e2 b5 b9 c4 71 df 3c e5 09 ee 3d 5e 6d 2d bd
       -0.00034691917 0.027275927 0.11622981 -0.04234063
000370 4e 97 12 bd 38 23 83 bd 47 85 e5 bc eb 28 bf bc
       -0.035788827 -0.06403202 -0.028017653 -0.02333494
000380 f5 58 78 3e 51 b7 30 3c 4c 59 a6 be 1c 02 ca bd
       0.24252684 0.010785894 -0.32490003 -0.098636836
000390 c3 af 2a 3e 81 43 90 3e 04 eb 4d 3e d3 8c 01 3e
       0.1666861 0.281765 0.20109183 0.12651376
0003a0 93 19 b4 bd 72 65 cf bd 60 ff c3 3c a2 dc 37 bc
       -0.087939404 -0.10126771 0.023925483 -0.011222037
0003b0 9e 9b da bc ec 76 ed bd c8 1d 62 3e 5b 2a c5 3d
       -0.026685532 -0.11594948 0.22081673 0.09627219
0003c0 ea e7 66 bb a0 aa 15 3e a9 9d 2d 3d 43 fc 0e bd
       -0.0035233446 0.1461587 0.042386685 -0.034908544
0003d0 89 17 70 3d b5 13 4d bd 5a 34 a6 3b be aa 5e bc
       0.058616195 -0.050067622 0.0050721588 -0.013590513
0003e0 f0 db 7a 3d a3 11 a1 bc c7 5e bd bb e1 a9 82 3d
       0.061244905 -0.01966173 -0.0057791206 0.06380058
0003f0 a1 ee c0 bd 2d 9b d5 bd 3f 80 09 3e 61 8b 32 be
       -0.09420515 -0.10429988 0.13427828 -0.17435981

fc_enc.bias f4 [32]
000000 03 ac 49 bd 39 ff 3f ba 94 6a 71 bd db 0f 37 3d
       -0.04923631 -0.0007324103 -0.05893953 0.044692855
000010 5f c5 98 3d 81 a6 37 3a 1d 17 3f 3c 12 b9 91 bd
       0.074595205 0.0007005707 0.0116632255 -0.071153775
000020 d9 65 85 bd bd 8f e5 b9 e0 b2 0a bd c2 fe 8a bd
       -0.065135665 -0.00043785377 -0.033861995 -0.067868724
000030 5f 58 8e 3d 0d 0e 8e 3d af 83 d5 3d 4a ab 87 3d
       0.06950449 0.06936274 0.10425507 0.06624468
000040 ab 48 44 bd db b7 b7 3c 1c 95 05 bd 41 92 af bc
       -0.047920864 0.022426536 -0.032612905 -0.021432044
000050 48 a7 7c 3c 60 c8 87 3d e8 b1 a8 3c 9c 62 79 bd
       0.015420742 0.066300154 0.020592645 -0.060885057
000060 03 9c 22 bb 6e 34 90 bd 10 ee eb 3b 27 f0 78 bd
       -0.0024812229 -0.0704125 0.00720001 -0.060775902
000070 51 5d 5b 3d 71 dc 17 bd 0c d6 b6 bd f3 8a 09 bd
       0.05355579 -0.037075464 -0.08927545 -0.033579778

fc_dec.weight f4 [468, 32]
000000 a9 3c 05 be dd 9f 23 bb 8d 09 9d be b8 c4 23 3e
       -0.13011421 -0.0024967112 -0.3067135 0.15993011
000010 91 f2 6f 3e ce 8d a5 3d fa 36 e8 3b 79 e2 25 3e
       0.23432375 0.08083688 0.007086632 0.16199674
000020 05 15 95 bd 94 38 0d be 91 5e 39 3e d1 f9 be bd
       -0.072794 -0.13791114 0.1810248 -0.093249924
000030 ef cb 32 3e 6a ee 1d 3e 06 32 73 3e c8 11 8a 3e
       0.17460607 0.15422979 0.23749551 0.2696669
000040 34 6a f6 bd 5a 11 19 3a 3b 2a af 3c 7e 96 f1 3d
       -0.120319754 0.00058390724 0.021382442 0.11796282
000050 17 f9 f4 bc 10 2d 7a 3e ec 07 ad 3d 78 ab 91 be
       -0.029903932 0.24431252 0.084487766 -0.28451133
000060 06 fe 12 3e 15 32 09 3e df a4 d0 bb 3a 4f 5b 3d
       0.14354715 0.13398011 -0.0063673104 0.053542353
000070 56 5f 02 3e 88 5e b3 bc ed 34 75 be 68 f6 ac bd
       0.1273168 -0.021895662 -0.23945971 -0.08445436
000080 c5 32 d1 be a6 de fc bd e0 0d 6d be e8 04 48 bc
       -0.40859047 -0.12347154 -0.23149824 -0.012208201
000090 aa f9 87 3e b5 46 7d 3e e7 2e 28 3e a8 d2 3a 3c
       0.26557666 0.24734004 0.16424142 0.011402763
0000a0 8b 97 1c bf 88 5d 90 be fb a2 09 be 4d 2e af bd
       -0.61168736 -0.2819636 -0.13441078 -0.08553753
0000b0 e4 9d 05 3c ae 74 29 bc 51 8d 0c 3d 84 9e 15 3e
       0.00815532 -0.01034276 0.034314457 0.1461125
0000c0 a2 4d f8 be 92 7c c1 bd a4 23 5c 3e cf b8 b2 3d
       -0.4849673 -0.09447588 0.21497971 0.08726656
0000d0 0e a7 a0 3d 0b fd a8 3e 1f 4c 11 3e 68 c6 43 be
       0.07844363 0.33005556 0.14189194 -0.19118655
0000e0 e8 a6 f5 3d e0 7a 24 bd 60 1d ff bc 77 78 55 be
       0.119947255 -0.040156245 -0.031141937 -0.20846735
0000f0 4c 43 b8 3c 88 58 13 be 81 a2 52 be 26 70 63 be
       0.022493027 -0.1438924 -0.20569803 -0.2221075
000100 26 49 ba bd 27 58 10 bd 83 d9 9f be b5 21 b1 3e
       -0.09095983 -0.03524032 -0.31220636 0.3459603
000110 09 a6 1d 3e b6 62 20 be 3f 54 88 bd 19 7a af bd
       0.15395369 -0.15662655 -0.06656694 -0.0856821
000120 00 1a 39 3d 6e bb 40 be af 6c 33 bd f9 9f 98 be
       0.04519081 -0.18821499 -0.04380482 -0.2980955
000130 7a 25 4d 3e e4 0d 87 bc 93 6b 92 3e 51 7d 12 be
       0.20033827 -0.016486116 0.28597698 -0.14305617
000140 fd 35 55 be 63 22 f7 3d a5 3d a3 bd f2 fa de 3c
       -0.20821376 0.120671056 -0.07970742 0.02721927
000150 c4 c0 c5 3d 48 c7 0c 3e b5 13 fc 3c 4a ca f5 bd
       0.09655908 0.13747895 0.030771116 -0.12001474
000160 fc 0a 5d 3e fc c7 1e 3e ad 92 2d 3d 31 fa 08 3e
       0.21586221 0.15505975 0.04237621 0.1337669
000170 35 e2 1f 3e 4d b7 20 be e7 68 0d be 39 9b d1 3c
       0.15613635 -0.15694924 -0.13809548 0.025586711
000180 08 9a 29 be 5b 3e 23 bd 04 78 4d be 18 57 b0 3e
       -0.16562665 -0.03985439 -0.20065314 0.34441447
000190 6e f8 21 3e 82 2a bc bb 5e 6a 4b 3c dc 84 b2 bd
       0.15817425 -0.005742372 0.012415497 -0.08716747
0001a0 41 73 97 bd 72 f9 ad bc 7e 25 a0 bd 5d d8 32 be
       -0.0739503 -0.021237109 -0.07819651 -0.17465349
0001b0 46 46 9f 3e 43 f4 25 bd 13 77 bf 3d b3 85 da 3d
       0.31108302 -0.04051615 0.093488835 0.10670032
0001c0 6a be 5c be 4d fb 24 3e 21 8a e7 bd b2 15 51 3d
       -0.21557012 0.16111489 -0.11305643 0.05104608
0001d0 85 ab 28 3e 44 e5 a8 3e 08 f0 c5 3d cf 8e 5d be
       0.1647168 0.32987416 0.09664923 -0.21636508
0001e0 45 0e b1 bd 73 bb 12 3e 25 a6 ea 3d 24 08 f3 3d
       -0.086453 0.14329319 0.11457471 0.11866787
0001f0 a0 40 8a bd 95 ae 58 be ea a2 9e bc ad 45 ad 3d
       -0.067506075 -0.21160348 -0.019364793 0.08460555
000200 4c 25 8f bd 7b c0 2e be ca d3 e2 bd 20 10 bf 3d
       -0.06989536 -0.17065613 -0.11075552 0.093292475
000210 d6 4f c8 bd 5f 74 67 bd 60 79 67 be 4d 70 2b 3d
       -0.097808525 -0.056507464 -0.22604895 0.041855145
000220 23 e3 54 be 7d 71 9a 3c 19 d0 09 3e dd 3d e7 bd
       -0.20789771 0.018852944 0.13458289 -0.11291096
000230 7c 9e b1 3e 82 4e c1 3d bc c8 ab 3e 15 c1 ac 3d
       0.34691226 0.09438802 0.33551586 0.08435265
000240 76 79 ed be 10 9f 3c 3d 20 ef a3 bd 1b de 89 3d
       -0.4638173 0.04605013 -0.08004594 0.067318164
000250 3d e5 89 3e 08 49 a3 3e d3 cd b9 3d 3e ad b9 bd
       0.26932707 0.31891656 0.09072461 -0.090662464
000260 44 f5 5a 3d 9d 5f 53 3d 8c 54 e7 bb ae 5c a2 bd
       0.05345656 0.051604856 -0.0070596393 -0.079278335
000270 38 35 86 3e 1a f0 8c bb ee 61 fb 3b 78 e7 78 bd
       0.26212478 -0.0043010833 0.0076715862 -0.06076762
000280 c1 db 02 be 37 db 4a 3d 36 16 45 3d 92 7e 3b 3e
       -0.12779142 0.049525466 0.048116885 0.18310001
000290 ea d6 78 3e a5 5b 35 bd 74 2a 83 bd 8c 00 ee 3c
       0.24300733 -0.044276852 -0.06404582 0.029052995
0002a0 bd e3 26 be bd 9b cd 3d c4 c9 6c bd cc a2 cc bc
       -0.16297813 0.1003947 -0.057809606 -0.024979971
0002b0 2e 2b 29 3e fe 55 8b 3d dd db 8a 3e c2 f9 04 3e
       0.16520378 0.06803511 0.27120867 0.129859
0002c0 44 61 94 be cd d7 52 3e 5d e8 9c bd d9 92 77 be
       -0.28980458 0.20590134 -0.07661507 -0.24177112
0002d0 4b 36 ea 3d 09 22 17 3e d8 13 59 3d 35 e8 c6 bd
       0.11436137 0.14759077 0.05299744 -0.09712259
0002e0 91 24 01 3e 6e fa 96 3d bd 6c 44 bc 6e 59 46 3e
       0.12611605 0.073719844 -0.011988816 0.19370052
0002f0 8f 15 ec 3d 64 77 81 be d6 f7 b4 bd 5b 06 5e 3b
       0.115275495 -0.252864 -0.088363335 0.00338783
000300 12 5b 82 3d 4a cb a7 bc 9f a1 2a 3d 87 93 cc 3d
       0.063650265 -0.020482678 0.04165804 0.09989076
000310 54 80 36 3e a3 a4 a2 bd 26 2d 2d 3d 47 db 5b 3e
       0.17822391 -0.07941558 0.042279385 0.21470366
000320 2d 28 5f be 7e 5c 22 bd 30 a6 de 3c 45 84 a3 bd
       -0.2179267 -0.03963899 0.027178854 -0.07984213
000330 38 27 90 3e 35 a2 83 3e 01 af a0 3e 25 26 8e 3c
       0.28154922 0.25709692 0.31383517 0.017352173
000340 b1 95 c7 be dd 47 83 3d d7 c5 91 3d 8c a3 d0 3d
       -0.38981393 0.06410191 0.07117813 0.10187444
000350 e3 ef 14 3e 23 9e ff 3e 29 2e e9 3e 65 1a a0 bd
       0.14544635 0.49925336 0.4554303 -0.07817534
000360 db cc 07 3d e9 a7 64 3c f1 b1 e1 bd 97 0e ca bd
       0.03315435 0.0139560485 -0.11020268 -0.09866064
000370 01 ad db bb 24 d6 97 be cf a1 8d be 07 04 53 bd
       -0.0067039733 -0.29655564 -0.27662513 -0.051517513
000380 22 68 ed bd 5a 36 54 3e 7a 1c 4f 3d 0d 60 51 3e
       -0.115921274 0.20723858 0.050564267 0.20446797
000390 9a de d5 3d f2 f5 d4 3d 09 f6 73 3c 2a 70 09 3d
       0.104428485 0.10398473 0.014890202 0.033554234
0003a0 09 77 60 be 27 e2 e5 bd 70 89 68 3d 8a f3 7c be
       -0.21920408 -0.11224776 0.056771696 -0.24702278
0003b0 d5 94 54 3e 14 ae 9c 3d 83 7a 96 3e 6d 2f 39 3c
       0.207599 0.0765039 0.29390344 0.011302811
0003c0 3b af 7c be a4 ef 8c 3c d6 42 fd bd 18 22 cb bd
       -0.2467622 0.017204113 -0.123662636 -0.09918612
0003d0 52 7d 27 bd 38 f1 53 3e a3 83 19 3e 0e 78 2d 3c
       -0.040891 0.20697486 0.14991622 0.010587705
0003e0 df 42 08 3e ad f3 fa 3c 21 f7 d5 bc a7 99 7d 3d
       0.1330676 0.030633772 -0.026118817 0.061914112
0003f0 ed fa c0 3e 8b bb ce be b5 a0 ff bd 7d 56 86 bd
       0.3769144 -0.4037746 -0.12481824 -0.06559465

fc_dec.bias f4 [468]
000000 92 00 8e bd 33 60 b8 bd 32 db f0 bd 03 aa e8 bd
       -0.069337025 -0.090027235 -0.11760558 -0.11360552
000010 f6 46 bd bd 07 b7 43 be f4 34 99 bc 6b 94 df bd
       -0.0924205 -0.19112788 -0.018702008 -0.1091698
000020 0c d9 99 bd 8d d5 37 be 84 9d 25 bd 87 aa 23 3d
       -0.075121015 -0.17952557 -0.04043342 0.03995755
000030 91 37 a9 bd a0 82 4b be aa a2 94 bd 15 df d1 bd
       -0.082625516 -0.19874048 -0.07257588 -0.10247628
000040 dd 16 87 bd 22 b6 90 bd c5 3a d4 bc e3 ca cd bd
       -0.06596158 -0.07065989 -0.02590693 -0.10048463
000050 cb 15 22 be 85 41 36 bd 9a cf b5 bd 6c 1c 05 be
       -0.15828626 -0.044496078 -0.088774875 -0.12999123
000060 fb 8b dc bc 09 c5 ed bc 1c 76 12 bd b2 7a 87 bc
       -0.026922217 -0.029024618 -0.03575717 -0.016537998
000070 b7 8e 22 bc 23 0b 45 bd fe f8 3d bc 9e 84 48 bb
       -0.009921721 -0.048106324 -0.011595009 -0.0030596624
000080 45 89 02 bd 91 2b 3a bd b0 d4 33 be 6b c3 26 be
       -0.03186919 -0.045451704 -0.17561603 -0.16285484
000090 a1 e7 d7 bd 3b b3 db bd f2 9e ff bd 55 0f 27 be
       -0.105422266 -0.10727545 -0.12481488 -0.16314442
0000a0 60 41 8b bd 90 87 5f bd ef fb 9a bd f7 fc bc bd
       -0.06799579 -0.05457264 -0.07567584 -0.09227937
0000b0 d3 f0 5f bd 43 63 b5 bd 28 63 f5 bd cc c9 1a bd
       -0.054673027 -0.08856823 -0.11981803 -0.037790105
0000c0 4c 70 2a be 68 7d 00 be 0d 10 c1 bc 83 07 80 bd
       -0.166444 -0.12547839 -0.023567224 -0.06251433
0000d0 89 dc 0e be d3 05 60 bd d5 76 16 be ec c0 30 bc
       -0.13951315 -0.054693054 -0.14693768 -0.010788184
0000e0 c8 7f 1a be 7a 0a 82 bd c9 80 cc bd ba 1c 6f bd
       -0.15087807 -0.063496545 -0.09985501 -0.058377005
0000f0 68 a1 ee bd 51 0a 4e bc ca 36 b8 bd 7b 34 58 bd
       -0.116518795 -0.012575702 -0.08994825 -0.052784424
000100 9a d4 30 3d 99 06 ff bd 75 94 f0 bd 3e 2c 21 bd
       0.043171503 -0.1245243 -0.11747066 -0.039348833
000110 33 a7 f0 bd 6f 6d 11 be 91 b6 09 be 05 fe e1 bd
       -0.11750641 -0.14201902 -0.1344855 -0.110347785
000120 28 e9 07 be 96 90 89 bd f4 23 65 bd af d1 e2 bd
       -0.13272536 -0.06717031 -0.05594249 -0.1107515
000130 00 87 b4 3c 65 71 dd bd e9 0d d3 bd 75 9c f8 bc
       0.02203703 -0.10812644 -0.103053875 -0.030348042
000140 93 bf 5a 3d 4b d5 d1 bd f8 f7 81 bd 60 05 ce bd
       0.053405356 -0.102457605 -0.063461244 -0.10059619
000150 92 ae 1e be 57 4b b4 bd 5c 81 84 bd 96 ca 0c be
       -0.15496281 -0.088034324 -0.06469986 -0.13749155
000160 d7 cc 9b bc 84 5f bf bc d8 13 e6 bd 48 8f 21 be
       -0.019018574 -0.023360975 -0.11234254 -0.15777314
000170 23 64 2f 3d d8 1b 0b be 80 b0 8e bc 72 82 f0 3a
       0.042820107 -0.1358484 -0.017418146 0.0018349423
000180 03 cf 07 bd 63 95 75 bd c2 e0 ff bd 8c a3 e1 bd
       -0.033156406 -0.05995692 -0.12494041 -0.11017522
000190 2b f4 c6 bd 15 41 00 3c 94 1e 7f be 89 e4 c2 bd
       -0.0971454 0.007828017 -0.24914008 -0.09516246
0001a0 cf e4 05 3d 48 78 c1 3c 03 96 12 be c3 ed fd bd
       0.032688912 0.023616925 -0.14315037 -0.12398865
0001b0 5b d7 fa bd f5 6a f8 bd d7 e8 51 be 90 77 6c be
       -0.12248107 -0.121297754 -0.20498978 -0.23092484
0001c0 9f fa c7 bd ff 1d 69 bd 30 00 d1 bd 3a ce 77 bd
       -0.09764599 -0.056913372 -0.10205114 -0.060499407
0001d0 88 4c 1e be b8 0f 96 3d 8f 2b f0 3c dc 96 3f bd
       -0.15458882 0.07327217 0.029317645 -0.04677473
0001e0 25 1f fc bc 7a 95 a7 3c ed c0 df 3b ef 5c b1 3c
       -0.03077657 0.020457018 0.0068284185 0.02165076
0001f0 7d 21 bf 3d 84 18 62 3d 8d 76 92 3d 21 d6 0c bd
       0.09332559 0.05519916 0.07151518 -0.034383897
000200 e0 a6 38 3c c4 e5 10 be 94 d3 61 3d 62 5b 27 3d
       0.011270255 -0.14150149 0.055133417 0.040858634
000210 94 33 84 3c 91 98 e6 3d 73 58 6c bb 47 9b 63 bd
       0.016137876 0.112595685 -0.0036063462 -0.055568006
000220 2c 44 92 3b a6 92 cc 3d 96 f0 f4 3b 8c 9b f7 3d
       0.004463693 0.099889085 0.007474969 0.12090215
000230 ed 94 3c 3e c6 c8 44 bd 21 6f de bc d0 fa 3b 3d
       0.18416186 -0.048043035 -0.0271526 0.04589349
000240 c3 c0 05 3d f2 70 05 3d 76 82 fe 3c 86 de 94 3d
       0.032654535 0.032578416 0.031068068 0.072690055
000250 be c2 8b 3d 4d ba 73 bd 96 cd f3 3b ce dd 83 bc
       0.068242535 -0.059503842 0.0074402792 -0.016096976
000260 99 c9 3d bc 8b 7f 0e 3c 4f 3a 45 3e 0e 32 36 be
       -0.011583709 0.008697401 0.19260524 -0.17792532
000270 3a d8 b0 bc da 70 a6 3c 2f 8a 44 3e 30 58 02 3d
       -0.02158748 0.020317484 0.19193338 0.031822383
000280 cc 78 10 3e a2 9d 0a 3e a0 1e 4c bd a0 47 47 3d
       0.1410858 0.13536695 -0.049833894 0.04865229
000290 58 1d 9f bd ea ab 96 3d 55 cd cc bc e9 de 27 3c
       -0.07769269 0.07357009 -0.025000254 0.010246017
0002a0 d0 48 fb 3b f2 8f 05 3c ba 5b 2a 3c 77 63 ef 3d
       0.007668592 0.008151995 0.010397846 0.11688893
0002b0 f8 10 8e 3b 40 ac 75 3d 25 2c 6b 3b be 59 13 3c
       0.004335519 0.059978724 0.0035884466 0.008993564
0002c0 03 c4 4d 3d c9 bc e6 bb 68 3e 70 bc e1 81 9f 3c
       0.05023576 -0.007041548 -0.014663316 0.01947111
0002d0 af 87 54 3d 33 13 f2 bd a4 16 8e bc ca a5 04 3e
       0.05188721 -0.11820068 -0.01734478 0.12953869
0002e0 1d c0 9f 3b ce 86 d1 3d e7 94 cf 3c ba bb 38 3d
       0.0048751966 0.1023079 0.025339557 0.045100905
0002f0 c2 92 a3 3d 37 21 89 bc ff b5 8e 3b 08 4c 19 3b
       0.07986976 -0.01673947 0.0043551917 0.0023391265
000300 a4 a2 c2 3d bc 83 99 bc 1b 49 b4 3c 08 8b 0f bd
       0.095036775 -0.018739574 0.022007516 -0.0350447
000310 1c a9 b7 3d 04 d0 9a 3d e8 af 01 3d 4e cb a0 bc
       0.08967802 0.07559207 0.031661898 -0.019628193
000320 49 25 77 bd e6 d4 ee 3c 1a 48 fe bc ac c9 fa bb
       -0.060338292 0.029154252 -0.03104024 -0.0076534357
000330 44 b1 66 3d 94 d6 8b 3c 70 1a ca 3c a6 fc f9 bd
       0.056321397 0.017070092 0.02467081 -0.12206392
000340 00 a2 06 3e be 16 b4 bd 26 7b aa 3d b6 20 5c bb
       0.13147736 -0.087934 0.0832427 -0.0033588833
000350 79 37 c0 3d b5 c9 63 3d be cd 32 3c e9 c3 47 bd
       0.093855806 0.055612285 0.010913311 -0.04877082
000360 ab ac 5d bd 53 f3 90 3d 04 15 9c 3d b0 44 4e be
       -0.054119747 0.070776604 0.07621196 -0.2014339
000370 80 75 d4 3c 45 50 ce 3c 9f ea c2 3b 06 fa 64 3c
       0.025934935 0.02518476 0.005948379 0.013975626
000380 a3 5f e3 bc f8 dc 9a bd e7 a5 e8 bc 1c 80 04 3e
       -0.027755564 -0.07561678 -0.02839942 0.12939495
000390 70 03 b6 3d b8 ed a8 bb 4a 2f f4 3d 46 cb a6 bd
       0.088873744 -0.0051552914 0.11923082 -0.0814424
0003a0 3e 0e b9 bd 81 52 26 be c9 b5 4d be 9c 9c f3 3c
       -0.090359196 -0.1624241 -0.20088877 0.029737763
0003b0 9c 4c 0b 3d 4b f5 21 3e 35 7e 98 3d 2f f5 9a 3d
       0.034008607 0.15816228 0.07445947 0.07566296
0003c0 d8 da 9a 3d 22 b9 d2 3d 75 e0 5e 3d 17 fb c3 3b
       0.075612724 0.102892175 0.054413278 0.00598086
0003d0 a2 3e 4b 3d 92 47 90 3d a7 39 a4 bc 07 e6 8d 3d
       0.04962028 0.07044901 -0.020047022 0.0692864
0003e0 2d 59 e0 bc 29 96 e5 3d 3b bb 59 3d 2d 7d da bb
       -0.027386272 0.112102814 0.053157073 -0.006667754
0003f0 36 40 29 bd 7e ab 22 bc fb 9f b2 bd 2c db ba bd
       -0.041321002 -0.009928582 -0.0872192 -0.09123835

dec1.kernel0 f4 [8, 4, 3, 1]
000000 38 c5 51 3e 94 75 7a 3e 21 3b e7 3e 9a df a5 3e
       0.20485389 0.24458915 0.451623 0.32397157
000010 ad 6e b8 be 31 96 17 bd 65 08 9b 3d 1c 2f 87 be
       -0.3602194 -0.037008468 0.075699605 -0.2640313
000020 ad 95 1b 3f ec e6 30 be 53 0d cb be dd 01 7e 3c
       0.6077526 -0.1727559 -0.39658603 0.015503374
000030 51 70 c0 3e 6e e3 09 3f 8f 04 39 3f ba 14 91 3e
       0.3758569 0.53862655 0.7227258 0.28336126
000040 93 60 b2 3e a2 fb 8e be e3 69 a4 3d 4e a3 f5 be
       0.34839305 -0.27926356 0.08028009 -0.47976154
000050 f6 94 ca bd ae 5a a0 be 3a 12 8d be 7c 8b 0d 3f
       -0.09891693 -0.31319183 -0.27552968 0.5529096
000060 50 cb 77 bd 7b e1 93 3e a8 f2 83 3e 2b 0c c3 be
       -0.06049663 0.28882965 0.2577107 -0.3809522
000070 46 d3 0f bf be bb ea bd cd ea b3 be a9 76 47 3e
       -0.5618175 -0.1146159 -0.35140076 0.19478859
000080 2d d5 0c 3e 78 fb 92 be 86 4e 06 3c 0d a5 a9 3d
       0.13753195 -0.2870748 0.008197432 0.08283434
000090 e4 17 71 3e 1a 09 e0 3d cd 5a ab 3d f4 45 d4 3c
       0.2354427 0.10939236 0.08366928 0.025912262
0000a0 d6 10 0c bc 89 15 b4 3e 1c fb ba bc ee 2e 94 3e
       -0.008548936 0.3517268 -0.022824816 0.28942055
0000b0 3f ab 61 3d c0 37 21 be 02 03 f2 3d ed 01 c9 3c
       0.055094954 -0.15743923 0.1181698 0.024537051
0000c0 d8 12 12 3e 70 37 0c 3f 42 2b 99 3e 6d d0 9e be
       0.14265001 0.5477209 0.29915816 -0.3101839
0000d0 55 2f 31 bf 77 55 a6 3e 1a ba 01 bf eb 6b 20 3f
       -0.6921285 0.3248708 -0.50674593 0.6266467
0000e0 c8 80 71 3d 80 d3 bf be e0 25 95 3d 76 9b 49 3e
       0.058960706 -0.3746605 0.07282615 0.1968821
0000f0 d2 d3 12 3f 4f f2 45 3f ed e2 fc 3e be 1d fb 3e
       0.5735446 0.7732286 0.4939188 0.4904613
000100 5a 4b 2d 3e c0 a7 11 3e 9f f1 ac bd f0 e1 cb be
       0.16923276 0.14224148 -0.08444523 -0.39820814
000110 94 6e c8 be e7 57 22 bb 3d f4 af 3b 95 a5 98 3d
       -0.39146864 -0.0024771632 0.0053696916 0.07453457
000120 7d 2b b1 3f c3 03 4d 3e 65 18 3c 3e 1b 80 5a 3f
       1.3841397 0.20020966 0.18368681 0.85351723
000130 96 e6 50 3e 60 6c 7d 3e b5 37 88 be a6 96 67 3e
       0.20400462 0.24748373 -0.26605 0.22616062
000140 18 27 7b 3d 5b 8d ac be db bc c2 3e 64 a4 e5 bd
       0.06131658 -0.33701596 0.3803471 -0.11212996
000150 0f e3 e3 3d 6b b5 9c 3e 71 7e f3 3e d0 d9 33 3c
       0.11127292 0.3060716 0.47557405 0.0109772235
000160 ba 11 68 bf 96 f7 3e 3e ee f8 83 be 50 86 08 3e
       -0.9065205 0.18649134 -0.25775856 0.13332486
000170 70 3c 2d 3f d6 77 4a be 8b 4d 94 be c5 56 8b 3e
       0.67670345 -0.19772276 -0.2896541 0.27214637

dec1.kernel1 f4 [8, 4, 2, 2]
000000 ba a1 19 bf 4b b3 26 3f 7c 34 ef 3d 28 f6 d2 3e
       -0.600124 0.6511733 0.116799325 0.41203427
000010 95 0e 9f be cc 05 56 3e 23 0b cf be eb ea d3 3e
       -0.31065813 0.20900649 -0.40438184 0.41390166
000020 db 19 a1 3e 69 a0 38 be 53 73 8d 3d 09 8d f8 bd
       0.3146504 -0.18029942 0.06906762 -0.12136275
000030 75 75 9f be a9 90 e9 39 22 a3 f5 3e 3a 1a ee be
       -0.311443 0.00044549003 0.47976023 -0.46504384
000040 dd 60 01 3f f9 05 19 3f 0b cf 87 3e 18 d2 ef 3e
       0.50538427 0.5977474 0.2652515 0.46839976
000050 a8 df 08 3f 28 aa ac 3e 92 8e 99 3e b4 4c 88 bd
       0.5346627 0.3372357 0.29991585 -0.06655255
000060 21 76 3d 3b 40 b2 a5 3c f5 40 04 bf 5b 9e 81 3c
       0.0028909522 0.020226598 -0.51661617 0.01582258
000070 26 17 84 3e 15 29 00 3f ad 8a 00 bf 58 41 00 3e
       0.2579891 0.50062686 -0.502116 0.12524927
000080 fb 76 1c bd c1 27 ad 3e c5 2e 5c 3e 44 5b 18 be
       -0.038199406 0.33819392 0.21502216 -0.14878565
000090 4b 82 68 bc ba dc 33 bd f3 3c e2 bd 11 b2 8a bd
       -0.0141912205 -0.043911673 -0.110467814 -0.06772245
0000a0 6c 9f f5 bd 27 b6 09 3e d9 45 b7 be e6 2a 52 3e
       -0.11993298 0.13448392 -0.35795477 0.20524177
0000b0 6f b8 1a 3e 25 c3 cb be e1 92 80 3e 5f 41 66 3d
       0.15109418 -0.3979732 0.2511206 0.056214686
0000c0 d2 3c a1 be 44 68 7e 3e 02 0a 83 3e bc c2 3c 3e
       -0.31491715 0.24844462 0.25593573 0.1843366
0000d0 68 32 16 be e9 b9 a9 3d 00 88 e9 be e3 c9 d8 bc
       -0.14667666 0.08287413 -0.45611572 -0.026463455
0000e0 a0 26 25 be 75 ec 00 be e7 6a 1e be 26 10 73 3c
       -0.16128016 -0.12590201 -0.15470468 0.014835393
0000f0 30 c3 f6 bd 6e a0 fd bd 41 ad 78 3e 2a 7a ed bd
       -0.12048948 -0.12384115 0.24284841 -0.115955666
000100 62 e3 56 3d 17 4a 90 3e f7 77 b7 3e 50 3d 9b be
       0.052462943 0.28181526 0.35833713 -0.30320215
000110 e1 37 3c 3e 73 c1 00 3c 39 19 cc bc 5f fc 29 be
       0.18380691 0.007858622 -0.02491437 -0.16600178
000120 7b bc 70 be 3c fd 8b 3d 60 26 ba be 1b 3f 3f 3e
       -0.235094 0.0683541 -0.36357403 0.18676417
000130 5e 91 5b 3e 62 f8 1c bf ea 07 c2 3d 29 f7 da 3d
       0.21442172 -0.613165 0.09474166 0.10691673
000140 58 c7 13 3f ca 89 03 3f aa cb 55 3f 78 c6 f9 3e
       0.5772605 0.51382124 0.8351389 0.48784232
000150 21 15 0b 3f 54 e6 93 b9 42 33 af 3d f5 ea ed 3e
       0.54329115 -0.00028209633 0.085546985 0.4646832
000160 62 85 30 3f 42 e5 a3 be 58 d1 a7 3e a6 97 63 bd
       0.68953526 -0.32010847 0.32776904 -0.055564545
000170 2a f5 28 bd 1b 22 d5 bc bc 8c 39 bd e1 b4 44 bf
       -0.04124943 -0.02601724 -0.04530023 -0.768385
000180 b5 f0 dc 3e e2 35 2f 3f 24 d6 91 3f c7 0b b4 be
       0.43152395 0.68441594 1.1393476 -0.35165235
000190 90 60 80 3e f3 55 9e 3d 98 e0 81 bd ab 5d 8c bd
       0.2507367 0.07731237 -0.06341666 -0.06853803
0001a0 a4 46 86 3e 2f ab 88 be 73 c2 8c 3e 72 9c 4b be
       0.2622577 -0.26693103 0.27492103 -0.19883898
0001b0 0c 55 20 3e 45 9b 45 be 7b d7 65 3e 84 3a f1 be
       0.15657443 -0.19297512 0.2244548 -0.47114956
0001c0 ce 27 be be b2 6b 0b 3f 6c d2 93 3e ab 27 f6 3c
       -0.37139744 0.54461205 0.28871477 0.030048212
0001d0 e0 39 a5 bd ed df 25 3e 2b 5a cc be 09 88 8e 3e
       -0.080676794 0.16198702 -0.39912543 0.27838162
0001e0 35 bf d5 bd f7 f5 7c bb 19 6c b6 be 59 ce f5 3d
       -0.104368605 -0.0038598755 -0.35629347 0.12002248
0001f0 d0 8b 82 bc c7 c6 79 be e6 69 70 3e aa 0e 8e be
       -0.015935808 -0.24392234 0.23477897 -0.27745563

dec1.bias_tensor f4 [8]
000000 b6 0f 54 be f1 0d 10 be 99 83 f8 bd 1d 68 55 be
       -0.20709118 -0.14067818 -0.12134475 -0.20840497
000010 67 7b e2 be 46 db bd bd c0 c2 18 3d cd ef b6 be
       -0.44234774 -0.09270339 0.037295103 -0.35729828

dec2.kernel0 f4 [1, 8, 5, 1]
000000 22 cc c0 bc a6 9e 63 3e fd 6f 19 be f0 4c bf bc
       -0.023534838 0.22228488 -0.14984126 -0.023352116
000010 d9 84 bf bc 32 5c d6 bc a8 f4 c6 bc 07 c2 11 bd
       -0.023378776 -0.026167009 -0.024286583 -0.03558543
000020 2b 23 b5 3c 45 69 43 3e ea 2c 1a bd 26 4d af 3d
       0.022111496 0.19083126 -0.03764049 0.08559637
000030 dc a3 6f 3d c3 db 27 3d 04 50 0b bd 4d 20 ad 3d
       0.058505878 0.040981065 -0.034011856 0.084534265
000040 b3 ed c8 be 33 7f 4d bd c2 f6 5c 3e 90 13 15 be
       -0.3924385 -0.050170135 0.21578506 -0.14558244
000050 6a 00 b6 3d fa 6c 61 be 5b fa e4 3d ef 36 4f be
       0.08886798 -0.22014228 0.11180564 -0.20235799
000060 df 15 a7 bd cf 12 35 be 40 79 0f 3e d6 08 39 3e
       -0.081584685 -0.17682956 0.14011097 0.18069777
000070 6e 7e 9d be 72 83 cb 3c 8b c5 98 3c a9 91 02 3e
       -0.3076052 0.024842951 0.018648883 0.12750877
000080 12 e5 00 be 6a 36 4d 3e ae 05 15 be 49 a8 1c be
       -0.12587383 0.20040289 -0.14552948 -0.1529857
000090 39 fe b4 3e 8a 4c 81 3e 59 6c cd bd 9f 97 91 3d
       0.35350206 0.25253707 -0.10030431 0.071089976

dec2.kernel1 f4 [1, 8, 4, 2]
000000 3a 89 50 bc 3f 4a c9 bc dd 8f 21 be 39 98 d3 3d
       -0.01272803 -0.024571536 -0.15777536 0.103317685
000010 2d 4c 9c 3d cd 19 62 3c bb 3c 8f 3b 2a 92 08 3d
       0.07631717 0.013800097 0.0043712533 0.033342518
000020 2c bd 1a 3d a4 ad 82 3c 4b 4f 0c 3d 98 ee 07 bd
       0.037778065 0.015951939 0.034255307 -0.033186525
000030 e5 70 e4 bd 0a d2 d2 3d 36 90 79 3d c4 4f d8 bd
       -0.111543454 0.10293968 0.060928546 -0.10562089
000040 c6 d7 8f 3c d5 1d ac bb c9 5a 74 3d 4a c9 85 3b
       0.017558943 -0.0052525797 0.059656892 0.0040828334
000050 32 b0 0b 3e 81 e3 0a 3d 3c ce 38 3d cb 5a 5d bc
       0.13641432 0.03390837 0.045118555 -0.013510416
000060 3e 57 65 3e 4f bc c2 3d 31 63 3b be 1c a6 91 bc
       0.22396562 0.09508573 -0.18299557 -0.017779402
000070 fa a1 3e bd 9c 21 2c 3f 43 8e a2 3c f3 e4 75 be
       -0.04654119 0.67238784 0.019843226 -0.24013118
000080 29 61 82 3d 1d 3c 90 3c 5d 1e 32 be c4 25 b1 3c
       0.06366188 0.01760679 -0.17394395 0.021624453
000090 88 6f 0d 3f a6 31 6e bd c9 b0 0a be d5 b2 40 3d
       0.5524831 -0.058152817 -0.13544 0.047045548
0000a0 b4 61 72 3e 9b 1a c7 3d 90 19 a5 3d 18 5c 0f bd
       0.23670083 0.097218715 0.08061516 -0.034999937
0000b0 66 39 44 bc 5c 1f e4 bd 9b 14 b3 bd 86 95 a3 3e
       -0.0119765755 -0.11138794 -0.087441646 0.31950015
0000c0 2a 36 02 bd be 56 59 3d 63 4e 78 3d aa e2 66 be
       -0.031789936 0.05306124 0.06062163 -0.22547403
0000d0 95 ce 1b be b1 24 a6 bc c6 4a ac 3d 0c aa 3a 3e
       -0.15215524 -0.020281168 0.084126994 0.1822893
0000e0 70 54 a8 be f2 be b9 bd 7c b7 9e 3e 8a 80 17 3c
       -0.3287692 -0.09069623 0.30999362 0.009246955
0000f0 f5 5f 67 be 19 2e 9b be 89 17 1f bb 6b 07 13 3c
       -0.22595198 -0.30308607 -0.0024275503 0.008973937

dec2.kernel2 f4 [1, 8, 3, 2]
000000 51 87 77 3c 53 71 ad bd 67 03 c7 3c 6c f4 30 3d
       0.015107946 -0.084688805 0.024293615 0.04320185
000010 29 3c bb bc d9 72 3d 3c be f0 bd 3d cf bc 15 bc
       -0.022855835 0.011563026 0.092744336 -0.009139254
000020 44 8e 83 be b8 ee ca 3c b2 50 76 3d 8f b7 56 bd
       -0.25694478 0.024772033 0.06013555 -0.05242115
000030 60 1b f9 3c 4d 74 25 bc 15 fd bd 3d 73 28 a2 bb
       0.030408561 -0.010098529 0.09276787 -0.0049486696
000040 a7 41 53 3d 03 13 dd bb 01 ca 23 3d 80 6d 7a bd
       0.051576283 -0.006746651 0.039987568 -0.061139584
000050 28 61 88 3c 7a 7b 6b 3b 63 f8 8e 3c 00 b3 a4 be
       0.01664789 0.0035931752 0.017452424 -0.32167816
000060 0e ba ac bd 80 58 56 3c c8 5e 56 3c d1 48 35 bc
       -0.084339246 0.0130826235 0.013084121 -0.011064724
000070 a8 1a 9f bd 88 ec 81 3d 2b ea 2b be ce 6e 5d be
       -0.07768756 0.06343943 -0.16788547 -0.216243
000080 d6 0a cc be 67 cd 66 be b8 a9 c0 3c 9f 3e 4b 3d
       -0.39852017 -0.22539292 0.023518428 0.049620267
000090 b8 e8 0a 3c 35 3e 20 be b3 f9 0e 3d 16 b3 42 3e
       0.008478336 -0.1564873 0.0349061 0.19013628
0000a0 3f af a8 bc 0d c8 fd 3e e1 c2 a6 bd 35 e8 92 bc
       -0.020591376 0.4956669 -0.08142639 -0.01793299
0000b0 44 55 c2 bd 5f a6 90 bd 34 40 94 bc c1 d9 8f 3d
       -0.094889194 -0.07062983 -0.01809702 0.07023955

exp_avg f4 [8, 1, 5, 1]
000000 6e 3a d8 34 a7 b9 f6 32 25 bc 8b 34 5a ad 7d 34
       4.0275648e-07 2.8722594e-08 2.602766e-07 2.3625526e-07
000010 3f 8f c9 33 4f de de b4 5c 28 9d 35 34 3f 3b 34
       9.385848e-08 -4.1512473e-07 1.1709158e-06 1.7438725e-07
000020 09 c9 6a b5 40 1d a0 34 51 38 2a 34 0a 5f 57 35
       -8.746434e-07 2.9823605e-07 1.5852972e-07 8.023204e-07
000030 a9 1e 24 35 40 aa 3e 33 fa 07 dc b4 89 a4 c2 35
       6.113938e-07 4.4392664e-08 -4.0983997e-07 1.4502012e-06
000040 99 76 a5 b5 54 52 8a 35 b2 cf ba b4 5b e9 89 b4
       -1.2327974e-06 1.0305762e-06 -3.4796318e-07 -2.5688027e-07
000050 bf 81 85 b4 28 0d 14 b5 21 ee 08 35 33 f7 f8 b4
       -2.4867583e-07 -5.515344e-07 5.101047e-07 -4.637346e-07
000060 23 98 f0 b5 0d ee 3d 36 7a cb 8f 34 52 2c 04 35
       -1.7925671e-06 2.8301758e-06 2.6783874e-07 4.9238326e-07
000070 42 f3 85 b5 8e 80 02 b5 b3 d9 e8 34 27 c3 c8 b3
       -9.98007e-07 -4.8615846e-07 4.3371764e-07 -9.348724e-08
000080 ac 0f 18 b5 8d 59 62 b4 e7 c4 c1 b2 85 45 28 35
       -5.664722e-07 -2.1080469e-07 -2.2557698e-08 6.268604e-07
000090 ca 28 05 b4 3a a7 8b 34 7e 5b be 32 66 53 e0 b4
       -1.2401429e-07 2.601244e-07 2.2160517e-08 -4.1783932e-07

exp_avg_sq f4 [8, 1, 5, 1]
000000 d5 6b ec 2c 6d 47 ec 2d 96 f2 83 2e 15 3b 66 2e
       6.719495e-12 2.6861813e-11 6.000282e-11 5.234842e-11
000010 57 03 9d 2d 12 ce 25 2e 63 50 f5 2d 91 93 2b 2e
       1.7850317e-11 3.7699684e-11 2.7888974e-11 3.9011964e-11
000020 c4 37 7c 2e 62 19 8f 2e ef 68 0d 2e 6e 1c f7 2d
       5.7347696e-11 6.507396e-11 3.2152888e-11 2.8093274e-11
000030 d0 3c fe 2c d4 9b ab 2c c5 95 9e 2d 00 58 74 2e
       7.2258657e-12 4.8774127e-12 1.8029031e-11 5.5557337e-11
000040 2b 98 83 2e cc 16 c2 2e c0 2e b9 2e 20 48 77 2e
       5.984221e-11 8.826148e-11 8.4211305e-11 5.6225358e-11
000050 75 b1 9a 2c d5 5e cb 2c a9 87 9f 2d cb 2b 31 2e
       4.396645e-12 5.7801355e-12 1.8136452e-11 4.0284037e-11
000060 7b a7 24 2e 55 2a 60 2e 7a b8 2c 2e a2 81 5e 2d
       3.7438035e-11 5.09693e-11 3.927212e-11 1.2648023e-11
000070 74 dc ae 2c 2c d0 9e 2c 67 2c 8e 2d f3 b5 04 2e
       4.9698527e-12 4.513742e-12 1.616325e-11 3.017493e-11
000080 0a 3c 2e 2e a0 e3 45 2e 9a 78 4c 2e c7 60 b5 2e
       3.9616345e-11 4.4994786e-11 4.6491345e-11 8.248118e-11
000090 7d 3f d8 2e 60 86 dd 2e 8f 4e 88 2e c8 f1 38 2e
       9.8338206e-11 1.0073786e-10 6.198519e-11 4.20515e-11

exp_avg f4 [8, 1, 4, 2]
000000 c3 2b 46 35 0c eb 43 35 ac c8 cf 33 a4 2b 09 b6
       7.382443e-07 7.29852e-07 9.675691e-08 -2.0439993e-06
000010 43 9e a9 34 10 ee dd b5 40 63 a0 35 5f 7a 01 35
       3.1593854e-07 -1.6535068e-06 1.1949815e-06 4.823432e-07
000020 e0 0e 37 34 98 4e 3d 35 c7 1d bf 33 12 06 ab 34
       1.7048615e-07 7.0522356e-07 8.899547e-08 3.185565e-07
000030 ea 1b 13 b5 95 46 4e b5 9d d3 27 b5 ac db e0 b4
       -5.480239e-07 -7.684369e-07 -6.2520286e-07 -4.1883084e-07
000040 00 76 b0 35 31 b2 87 35 6b 6e 94 35 a4 9f 26 35
       1.3147364e-06 1.0110144e-06 1.1058995e-06 6.2072127e-07
000050 c6 a7 cc b4 02 3d 0c b4 e4 b6 98 b5 a8 2d 85 b5
       -3.8120032e-07 -1.306071e-07 -1.1378111e-06 -9.92256e-07
000060 58 cd 97 33 8d 14 32 b5 18 71 19 b6 63 73 33 b6
       7.068837e-08 -6.634007e-07 -2.2864606e-06 -2.6740242e-06
000070 61 39 58 b6 70 60 c4 b5 9c 79 90 b5 b0 cb 67 34
       -3.2219907e-06 -1.4631205e-06 -1.0764229e-06 2.1587653e-07
000080 d0 38 bb b4 b3 b3 ff b4 ee 35 a7 b5 3a 3a 81 b4
       -3.48728e-07 -4.76282e-07 -1.2458165e-06 -2.4070488e-07
000090 65 f3 d7 b5 73 38 08 b5 92 37 82 b5 23 71 31 34
       -1.6089585e-06 -5.074609e-07 -9.701928e-07 1.6525568e-07
0000a0 a6 c5 ea 34 3a b8 c7 35 c6 b1 38 b6 d2 47 d5 b4
       4.3729705e-07 1.4880272e-06 -2.7521614e-06 -3.9726598e-07
0000b0 8f 34 13 b6 04 14 44 33 6d f0 59 b5 57 3f 30 b4
       -2.19353e-06 4.565301e-08 -8.1188665e-07 -1.641432e-07
0000c0 2a 5e d6 33 c2 f2 86 35 96 18 2d b5 5b d0 cd b5
       9.98228e-08 1.005443e-06 -6.44833e-07 -1.533433e-06
0000d0 8e 99 02 35 f6 8a a2 b5 22 b5 9a b5 52 2d 04 b5
       4.8652225e-07 -1.2110384e-06 -1.1526611e-06 -4.923978e-07
0000e0 70 76 a6 35 8e ee b1 35 37 8c b6 b4 1b 7b c0 b5
       1.2402434e-06 1.3256956e-06 -3.4002161e-07 -1.4340943e-06
0000f0 29 4f 13 b6 35 9b 07 b5 ef 6f 78 b5 d4 86 60 b4
       -2.1950784e-06 -5.0517275e-07 -9.2550084e-07 -2.0910676e-07

exp_avg_sq f4 [8, 1, 4, 2]
000000 ad 42 36 2d 39 7c 60 2d d3 a5 28 2e 6c 50 28 2e
       1.0360307e-11 1.2760509e-11 3.834606e-11 3.8270206e-11
000010 fa e6 77 2e 7e f7 84 2e 00 49 06 2e bf 50 2b 2e
       5.6366446e-11 6.0466285e-11 3.053291e-11 3.8952615e-11
000020 05 13 86 2d 60 7e 59 2e 78 7a 5a 2d 82 4b 53 2e
       1.5242483e-11 4.945233e-11 1.2419059e-11 4.804291e-11
000030 81 15 3f 2e da 5f 7f 2e 17 4e 95 2e 74 7f 86 2e
       4.344747e-11 5.806542e-11 6.789607e-11 6.116255e-11
000040 b6 aa 06 2e 6f f3 23 2e 82 09 91 2d 48 04 7d 2d
       3.0619694e-11 3.727812e-11 1.6488814e-11 1.4382336e-11
000050 1f ef b8 2c a5 52 b2 2c 67 be e1 2c c5 16 86 2d
       5.2561423e-12 5.0682397e-12 6.4160235e-12 1.5244148e-11
000060 76 c6 aa 2e 32 24 21 2e df f0 d2 2e 1b b3 68 2e
       7.765959e-11 3.663931e-11 9.592482e-11 5.290977e-11
000070 54 c7 e0 2e 04 48 9f 2e 81 41 b8 2e bd bd 73 2e
       1.02217484e-10 7.2432754e-11 8.378987e-11 5.5420325e-11
000080 3f 65 04 2d f2 af 4d 2c 25 9a d9 2d 34 4b ba 2c
       7.5258124e-12 2.9229921e-12 2.4738498e-11 5.294787e-12
000090 be e7 51 2e d9 6c 72 2d 7c ed 52 2e c1 6b d1 2d
       4.7726927e-11 1.3780276e-11 4.79594e-11 2.3808401e-11
0000a0 b4 dc bd 2e cc b9 bd 2d 8b 6e a6 2e 9a 96 2a 2d
       8.63393e-11 2.1569323e-11 7.5684424e-11 9.6968215e-12
0000b0 df 51 2f 2e d3 e9 70 2c 23 29 c9 2d 1f 76 37 2c
       3.986311e-11 3.423585e-12 2.2869323e-11 2.6071435e-12
0000c0 ec 76 9a 2d e4 4d 21 2e 56 d5 e6 2d 05 a2 61 2e
       1.7560585e-11 3.6676343e-11 2.6242713e-11 5.130298e-11
0000d0 9d c1 bf 2d 83 39 89 2e 70 c6 c6 2d 45 37 78 2e
       2.1800168e-11 6.240255e-11 2.2598118e-11 5.643776e-11
0000e0 1a d6 b1 2e 55 dc d5 2e b2 3e d7 2e 02 38 d8 2e
       8.08706e-11 9.7252574e-11 9.788205e-11 9.832492e-11
0000f0 a7 cd c0 2e b7 94 a4 2e 2b f7 5e 2e 9a e2 0e 2e
       8.76768e-11 7.4842736e-11 5.0696485e-11 3.2488325e-11
