server_report/ae_hexa/ae_hexa_mask_upgrade_peak/autoencoder_20251230_132415.pth (torch, 757294 bytes, 51 tensors)

enc1.kernel0 f4 [8, 1, 5, 1]
00000000: a284 ba3d bb3b 383e 63bd de3e 60b0 153f
00000010: 87de b63e 07af 9c3b 1858 203f bd1c 893e
00000020: d816 f0be 9d69 6cbe 80a0 e2be 8a8a b4be
00000030: 1a79 b7bc 7c0b a1be 25c7 d8be e1e4 5fbe
00000040: e2b0 e6be ef18 29be bcd1 6f3d 3cc7 173e
00000050: bead bbbe a59c f9be de0e 92bd 9acb c63e
00000060: 35a9 0d3e 8523 51bd 2418 4fbf d082 233f
00000070: 90d2 a73f c0e2 a93e 8f51 8c3e fc7b 3b3e
00000080: 8904 013f 5f45 6f3d 7593 42be b81b 163c
00000090: 5899 b03e 5491 bb3e c1fc aa3e 4e30 4d3e
0.09107329 0.17991535 0.43503866 0.5847225 0.3571665 0.004781607 0.6263442 0.26779738
-0.46892428 -0.23087163 -0.44263077 -0.35261947 -0.022396613 -0.31454074 -0.42339435 -0.21864654
-0.45056826 -0.16513418 0.058549628 0.14822096 -0.36655992 -0.48752323 -0.07131742 0.3882721
0.13834079 -0.051059265 -0.8089621 0.6387148 1.3111134 0.3318081 0.27405974 0.18309015
0.50397545 0.058415767 -0.19001563 0.009161882 0.34491992 0.36634314 0.3339596 0.20037958

enc1.kernel1 f4 [8, 1, 4, 2]
00000000: 11ea 813c 1e46 c83d 858e cabd 34f5 2b3e
00000010: 9361 8a3e 0032 fb3e 6078 f43e d940 c63e
00000020: 05da d73d a10f ca3e c345 1e3f 82b5 1b3f
00000030: e955 ed3e d8be 41bd ac9e 823c f779 58bf
00000040: e46e 12bf 8079 40bf 242b 83be e44f bcbe
00000050: 3b95 bdbd b72e 85be bcd3 33bf a89e 26bf
00000060: 8391 84be 3791 a0be 2b35 92be 997f aabe
00000070: 6699 91be e4f7 afbd e750 863e 87db ea3e
00000080: e67b 933d 98f5 f4be 8f2d 843e 25f7 0ebf
00000090: 376d e53e f4d8 45be df7a 8e3e a24d 593e
000000a0: b5cb dbbe 40e6 993e 3fe8 01bf f6ad 583e
000000b0: 7ebc 953e c1e6 fe3e 6844 623e 9f25 a03e
000000c0: e05a 623e e22a 843e 97d8 993e 5b31 ab3e
000000d0: 715f 2abe b6c5 4bbd d578 163e 8ed2 05bc
000000e0: 49bc 24bc f260 83bd 136d 763e 90b8 bf3e
000000f0: 629a cd3e a08a 3f3f 66f0 303d b921 953e
0.015858682 0.09778999 -0.09890465 0.16792756 0.27027568 0.49061584 0.4774809 0.3872135
0.10539631 0.3946505 0.618252 0.60823834 0.46354607 -0.047301143 0.015944801 -0.84561104
-0.57200456 -0.75185394 -0.2561885 -0.36779702 -0.09256979 -0.26012203 -0.70244956 -0.6508584
-0.25892267 -0.3136079 -0.2855619 -0.33300474 -0.28437346 -0.08592203 0.262336 0.4587061
0.07201366 -0.47843623 0.25816008 -0.5584586 0.44809887 -0.19321042 0.27828118 0.21221021
-0.42928854 0.3005848 -0.50745004 0.21160111 0.2924537 0.49785426 0.22096407 0.31278703
0.22104979 0.25813967 0.30048057 0.33436093 -0.1663797 -0.0497491 0.14694531 -0.008167876
-0.010054656 -0.06414975 0.24065046 0.37445498 0.40156847 0.748209 0.04319801 0.2912729

enc1.kernel2 f4 [8, 1, 3, 2]
00000000: 5ff4 e2bd d764 7ebe d7db d5bb 6ce7 52bd
00000010: 95b1 9a3e f817 19bd 42dc 62bd 01c4 7c3e
00000020: aa6d 733e c709 f23d 6708 5d3e fb02 1abf
00000030: ed69 f4be fd8f 9ebe b846 4bbf d0d7 eebe
00000040: c0cd 4bbf d039 92be 59a3 dfbd 179e bc3b
00000050: f89c 3cbe ed39 e2bd d83b 033e dc39 6b3e
00000060: 8196 963e f102 b3be 0e1e d33e 0acd a1be
00000070: 5b1d 173e c7e5 3abe f594 9cbe b769 af3e
00000080: b373 22bf dcfc c53e e83a f63d f770 e4bd
00000090: 7ea6 cd3e cbf3 313f e034 1bbe 7dea d73e
000000a0: 4f67 64bc f1f9 063f c7cc 70bd d2cf 51bd
000000b0: 7e70 7d3e d2f1 ea3d 9657 873c 7623 b8bc
-0.11081766 -0.24843155 -0.006526451 -0.051490232 0.3021361 -0.037376374 -0.055385835 0.24684145
0.23772302 0.11818271 0.21585236 -0.601608 -0.47737065 -0.3096923 -0.79404783 -0.46649027
-0.79610825 -0.28559732 -0.10919828 0.0057561505 -0.18419254 -0.11046205 0.12815797 0.2297129
0.294117 -0.34963182 0.41233867 -0.31601745 0.14757292 -0.18251716 -0.30582395 0.34260342
-0.63457793 0.3866948 0.12022954 -0.11154359 0.40166086 0.69512624 -0.15156889 0.42171088
-0.013940646 0.5272513 -0.05878904 -0.051223584 0.24749944 0.11471905 0.016521256 -0.022477847

enc1.bias_tensor f4 [8]
00000000: 0c3d d73d d898 3c3d 6a93 e33e 00ff cdbb
00000010: 83b1 7ebb 5c02 f1bb 46b8 6c3c 3f76 1d3f
0.10509691 0.0460442 0.44448406 -0.006286502 -0.003886313 -0.0073550176 0.014448231 0.61508554

enc2.kernel0 f4 [4, 8, 3, 1]
00000000: 78f9 36be 54e7 9dbd 7674 c13c 077b 0fbd
00000010: e2dd 56bd f96d 64bd 7df9 27be def1 74be
00000020: c539 673d 066c 753d f595 8cbc 916a 48bd
00000030: bde9 f7bc 77d3 b5bc 6502 453b caa3 a13b
00000040: dea1 42bd 267c 4fbd ac3d 18bd dfb5 77bd
00000050: 2696 55bd 0869 de3d f00f bebd 1871 a0bd
00000060: 5c77 39bd 2a17 7d3e 70aa 16be 3783 8d3c
00000070: e17b 803d 7355 fe3c 798e 13bc fc7b 86bf
00000080: cfdf 2dbe 42f1 4bbd b20d 183e 9e97 21bd
00000090: 623a 0d3c 4a7e 053e ebeb 1f3c 8964 153c
000000a0: 0a84 113e a9e7 ad3d 8363 95bb 43c9 c13e
000000b0: 2a5e 2abe 60c1 2b3c 3779 313f e267 72bd
000000c0: 2ca5 873d 88de 973d 6f22 b1bd 1354 253d
000000d0: e22b 1ebd 2411 463d 16b3 a83e fdaa c13d
000000e0: ec33 65bd 51f4 06be 3ff6 c53e 3b7b ae3e
000000f0: 62d5 013d a4f2 a13c fe20 5a3d 85b0 5cbc
00000100: 3f2d b03d 32b7 e83c edb7 1a3e 7e02 d8bc
00000110: 16b4 a2bd 47cb 8dbe 5ebf 4abd cbd4 803d
00000120: 76f3 21be e882 c73d 270c 2a3e 7fcf 9fbc
00000130: 0415 9b3c b63c 60bd 735a f93d baad f43d
00000140: 2bae b73e 5b5c 98b8 6c4b f03c ec2c 383e
00000150: b8a1 9d3c 5906 b7bd 67f1 b0bb 8dfa 25bd
00000160: d8ce 68bd 656a 7cbd 5660 673c 93c2 67b9
00000170: 67c8 8ebe c83d 07be 4156 0cbf dd83 e6be
-0.17868602 -0.07710138 0.023615103 -0.035029437 -0.052457698 -0.05576894 -0.16403766 -0.2392039
0.056451578 0.059917472 -0.017161349 -0.048929755 -0.030262822 -0.02219556 0.0030061242 0.0049328553
-0.04751765 -0.050655507 -0.03716819 -0.06047618 -0.052145146 0.10859877 -0.092803836 -0.07834071
-0.045279846 0.24715868 -0.14713454 0.017274482 0.06273628 0.031046605 -0.009006136 -1.0506587
-0.16979907 -0.04979063 0.14848974 -0.039451234 0.008619877 0.13036457 0.009760837 0.009118208
0.14210525 0.08491451 -0.004558982 0.37848863 -0.16637483 0.010483116 0.69325584 -0.0591811
0.06623301 0.07415491 -0.08649146 0.040363383 -0.03861607 0.04835619 0.32949132 0.094564416
-0.05595772 -0.13179137 0.38664433 0.34078392 0.03169764 0.01976902 0.05325412 -0.01346982
0.0860238 0.028407667 0.15109225 -0.026368376 -0.07944505 -0.2769415 -0.04949891 0.06290587
-0.15815529 0.09741765 0.16606198 -0.019508122 0.01893092 -0.0547454 0.12175455 0.11947198
0.35875067 -7.265127e-05 0.029332839 0.17985886 0.019242153 -0.089367576 -0.005399871 -0.040522147
-0.056837887 -0.061624903 0.014122089 -0.00022102361 -0.2788727 -0.13207161 -0.54819113 -0.4502248

enc2.kernel1 f4 [4, 8, 2, 2]
00000000: 6c29 493e d0c2 033c 65f3 80be 2265 463e
00000010: 0a67 733d 9b6b 4dbc 60e8 c83d 6d73 963b
00000020: d4b2 28bf 8565 e03d b4e2 31bf 0654 d13d
00000030: 9058 83bd 9871 253c 6b60 97be 0751 163d
00000040: b2fc a5bd aa29 4e3c 8c5f 9a3d 81bf 9eba
00000050: 285f 033e 363b 60bc d968 583d 89a2 9d3c
00000060: 98a6 c53d 0750 423d 2638 2e3e e3cf a23c
00000070: bf80 e73e c0e4 7abd 1aea d93e 9cf1 6bbd
00000080: 92f1 48be 41b2 a9be c7f1 e0bc 535e 0bbd
00000090: 9031 81bd 903d 47bd 6a84 5bbb 2ddb df3d
000000a0: 59d3 333e 9940 47be db11 dc3d 5f70 89be
000000b0: 1d62 6b3e 5733 653e 5c97 5e3d a0ae 71be
000000c0: 2573 1e3e 13fd 6dbc e6e9 3dbd 9be4 a03d
000000d0: 33fb f6bc f10b 633d 581d b5bb 959f 18bc
000000e0: c07f 47bd 9534 4abe 009c 8cba 0696 883d
000000f0: faa2 8fbd afa0 3d3e 306d dbbd a820 03be
00000100: 2283 85bd 191f 8cbd 1755 cdbe 9694 5cbd
00000110: 8f04 d0bb 08fa 363e 2594 493d 433b ac3d
00000120: 3d46 673d f5f5 0d3e d1f6 1cbe 252b d9bc
00000130: 4a3c 113f ad40 56bd 30f4 fa3d 78ba c93d
00000140: 0d4d 193f 71e5 9a3d bf96 a03e 9b82 453d
00000150: b5d4 cb3c 89f7 8d3d 1134 2b3d 8a34 123d
00000160: 007e 08bd 14ad 33bd ccf3 2e3d 257b 493d
00000170: 34ca ce3d 0b59 4b3d b499 823e d7ba 46bb
00000180: 0e6b cd3d 2b0f a23e 4c61 97be 03f0 87bc
00000190: 0b0e 743d f022 c33c b0e9 61bd 8ed4 b93e
000001a0: 7789 fcbd 3348 cbbe 64ac b2bd 259f afbe
000001b0: 5800 043e 1519 7d3e 8288 6f3e 5c24 853d
000001c0: ed6a 233e 2f73 1b3e 79d4 2d3e 249c 203f
000001d0: 7b5d c03d 6d4a d73c ec7c f63d 2333 703d
000001e0: c03d b2bc 5505 4fbd 0fb0 f6bc 32e0 383e
000001f0: b139 3e3e 221c 813e 9b32 bc3e bef0 293e
0.19644707 0.008042052 -0.25185695 0.19374517 0.059424438 -0.012537862 0.09809947 0.0045913965
-0.6589787 0.10956863 -0.69486547 0.10221104 -0.06413376 0.010097884 -0.2956575 0.036698367
-0.081048384 0.012583176 0.07537755 -0.0012111516 0.12829268 -0.013685992 0.052834366 0.019242542
0.09650916 0.0474396 0.17013606 0.019874519 0.45215413 -0.06125331 0.42561418 -0.057603464
-0.19623402 -0.3314381 -0.027459038 -0.0340255 -0.063082814 -0.048642695 -0.0033495673 0.10930476
0.17561091 -0.19458236 0.10745593 -0.26843545 0.22986646 0.22382866 0.054343566 -0.2360177
0.15473612 -0.01452567 -0.04636564 0.07856103 -0.030149078 0.05543131 -0.0055271797 -0.009315391
-0.048705816 -0.19746621 -0.0010727644 0.0666924 -0.07013507 0.18518327 -0.10714185 -0.12805426
-0.06519152 -0.06841869 -0.4010398 -0.05385264 -0.0063481997 0.17868817 0.049213547 0.08409741
0.05646347 0.13863356 -0.15328528 -0.02650983 0.5673262 -0.052307773 0.12253606 0.09850019
0.59883195 0.07563294 0.3136501 0.04822026 0.0248817 0.06931979 0.0417977 0.035694636
-0.033323288 -0.043866232 0.04271297 0.049189705 0.10097161 0.049645465 0.2550789 -0.0030323768
0.10030185 0.31652197 -0.2956642 -0.016593939 0.059583705 0.02382037 -0.055154502 0.3629498
-0.12330907 -0.3970352 -0.08724287 -0.34301105 0.12890756 0.247166 0.23391917 0.065010756
0.15958758 0.15180658 0.16975583 0.6273825 0.0939283 0.026280606 0.12035546 0.058642518
-0.02175796 -0.050542194 -0.030113248 0.18054274 0.18576695 0.25216776 0.3675736 0.16595742

enc2.bias_tensor f4 [4]
00000000: 538b 803e ccfd ba3e 4b6f efbd 3004 723e
0.25106296 0.36521757 -0.11691149 0.2363441

fc_enc.weight f4 [64, 468]
00000000: e527 26bb 7989 5b3c 0192 cf3d baf3 203e
00000010: 9406 1dbe 2b1f 29be 7741 a43d 1aa6 953d
00000020: dca1 fdbd cee0 57be a9d9 e2bd 06d1 2b3d
00000030: 3616 f7bb c736 57bc a10f bb3d e2b8 583e
00000040: ebe8 31bd c20a 82ba af33 fd3d 2663 38bd
00000050: f31e 003d 32eb 37be ebb7 a03d 2fa0 6cbb
00000060: a61d 9d3d 429b b53d 760a 5bbc 6cac 41be
00000070: 1910 e93d 7587 703e 1c62 e8bd 0bc7 e3bc
00000080: 4013 10bd a53d 2cbe 8432 1e3e 0606 963e
00000090: ba28 f73d e7fa 843e 8be5 c83d 1a20 8c3d
000000a0: 2eb8 d43c 3c61 2abe 0edf ca3d c112 8ebd
000000b0: 55fa f73c 6c72 a73e fd3f cf3c a0cd e1bc
000000c0: 6da8 003e c31a c4be 0459 22be 00ec 46be
000000d0: 50ab 753e bb27 553d a44c d1bc 400d 39bd
000000e0: bc52 d73e 34c4 20be 8524 0cbe da1b 69be
000000f0: 074e 8ebd f4d9 a0bd ca04 9e3b 4f74 943d
00000100: 2f46 b23c a8fc 8abd c62f 03be ad7d 8dbd
00000110: 60a2 283a eeb0 f4bd 069f 203e 0953 14bd
00000120: 62bf 6a3d 8e11 133e fb44 3b3d 719a 34bd
00000130: 94b1 16bd 4cf1 1c3e 1858 113d e308 85be
00000140: 99c7 fcbd 9552 e7bc e07e 753d 4de2 06be
00000150: a216 ef3d 1be1 c1bd f169 edbd d248 f03d
00000160: 5703 85bd 9b71 fdbd c2de 17be 4468 a4bc
00000170: 15dc a33d 9980 4dbe 85a3 953c f49e efbd
00000180: 1735 3b3d 0fcd 433d a36e 803d ccbc e93c
00000190: 3b78 9c39 7595 a6bd ac87 c53d ffce 9a3d
000001a0: d9a3 b23c 45d6 02bd 344c 1ebe a68a 793d
000001b0: 6f0f c0bd 06aa 943e 6321 403d 4694 d8bd
000001c0: 8b21 223e 194d 07be cd85 813d 658f a73c
000001d0: 7f37 f73c 8467 42bd 8f2a 933d d40d adbd
000001e0: 93bb 2a3e acdb 013e 90bc f4bd 3826 063e
000001f0: dd8b ff3c be19 da3e fc83 263e 1fe1 44bd
00000200: cd0e 6b3d 8951 75bc f0e8 a83c a693 e6bd
00000210: a9d4 e1bd b146 0fbe 9b65 1c3d 2750 fbbd
00000220: 09ff 98bd 07ee 39be c8a3 4a3d fc9d b13d
00000230: 3941 f83b 0ef2 d83c 2fc2 a1bc fa51 8dbc
00000240: 3026 393e f4f5 c5bd bfb5 8e3d 85e6 873d
00000250: 5560 8a3d 27fd b63e 15f3 05be e4be 33be
00000260: 4931 203e be0e efbc bb4e 7abe b9f4 31bc
00000270: 6bf9 723e a2ce fc3d 11aa adbd 1a93 f8bb
00000280: 675d a939 b927 3fbd d4a8 24bd 2dba 513c
00000290: 9619 8c3d 6c94 6abe 1eb9 bd3d b6fb 0fbd
000002a0: b37f 89bc ca8c b2bd 6258 243c a895 6f3e
000002b0: 8697 85be 7c82 823e 1e54 ffbc 01b5 17be
000002c0: b9af 75bd bdb6 2c3d 39cb 1d3d 2ccb 14be
000002d0: ff76 943e 7bbb 4b3d 2dcf 8bbd cf4e 423c
000002e0: fa3b 07be 3292 66bd 36ee 34be 1101 ff3c
000002f0: adee d33d 2990 e1bd f4c1 c6bd 74b1 cb3e
00000300: 0980 ed3d 18e3 91be 6882 bbbd d312 113d
00000310: f55c b93d 9933 50be fb97 863e fcbf 613e
00000320: f4be 9cbd dd36 83bd f66d 2f3d c550 303d
00000330: 1022 66be b58c f3bd f712 22be 88f3 0abd
00000340: 8691 97bc 9209 d23d 2599 cb3d 0963 cabe
00000350: d53b 8b3e e927 1ebe 7110 32bd e922 873e
00000360: 3f23 7d3d dbd5 6f3e 774e 1cbe aa57 9e3d
00000370: d64b dbbc e453 21bd f47d 703c 0b3f 92bc
00000380: a25e 1cbd b4df 46be bcae 473e 4378 f93d
00000390: 743d 9abe 6fb7 e23b 7ed5 fcbc eb75 0dbe
000003a0: 45f5 b13c 786c 8dbb b7ac 02bc 0da3 e13c
000003b0: bb7e b9be 2701 9b3e e0e6 33be 2c95 fa3d
000003c0: 22b3 80bc 275a 3cbd 4ce0 81be 3a88 10be
000003d0: 9ec4 83ba 2948 053c fda9 383c 6485 473d
000003e0: 8e9d 8abd ed72 09bd 5872 a3be 029c e5bd
000003f0: 6d35 08be f685 5e3e 3cd0 603e 9f9b 28ba
-0.002535337 0.013399475 0.1013527 0.15717974 -0.1533454 -0.16515796 0.08020299 0.07307072
-0.12384388 -0.2108185 -0.11076672 0.041947387 -0.0075404895 -0.0131356185 0.0913384 0.21164277
-0.04343502 -0.0009921419 0.123633735 -0.04501643 0.031279515 -0.17960814 0.078475796 -0.003610622
0.076716706 0.08867504 -0.013369193 -0.1891343 0.113800235 0.23489173 -0.11346838 -0.027804872
-0.03517461 -0.1682039 0.15448958 0.2930147 0.12068315 0.25972673 0.09809407 0.068420604
0.02596673 -0.16638654 0.099058256 -0.06937171 0.030270735 0.32704484 0.025299067 -0.02756387
0.1256425 -0.38301668 -0.1585427 -0.19425964 0.23991132 0.052039843 -0.02554924 -0.04517865
0.4205531 -0.15699846 -0.13685806 -0.22764531 -0.06948476 -0.07854071 0.0048223482 0.072487466
0.021761982 -0.067864716 -0.12811193 -0.069087364 0.0006432887 -0.11947809 0.15685663 -0.036212
0.057311423 0.14362165 0.04572008 -0.0440926 -0.036790445 0.15326422 0.035484403 -0.25983343
-0.12342758 -0.02823762 0.05993545 -0.13172264 0.11674239 -0.094667636 -0.11592472 0.11732639
-0.06494778 -0.12375184 -0.14831069 -0.020069249 0.08000962 -0.20068587 0.018266449 -0.1170024
0.045704927 0.04780298 0.06271102 0.028532408 0.00029844217 -0.081339754 0.09645018 0.075590126
0.021806644 -0.031942625 -0.15458757 0.06092324 -0.09377944 0.29035968 0.04690684 -0.10575156
0.15833108 -0.13213004 0.063243486 0.020454118 0.03017783 -0.047462 0.07185852 -0.08449903
0.16673116 0.12681454 -0.11950028 0.13100517 0.031194622 0.42597765 0.16261286 -0.048066255
0.057387162 -0.014973053 0.020618886 -0.112586305 -0.1102689 -0.1399181 0.038182836 -0.12271147
-0.07470519 -0.18157206 0.0494726 0.08672711 0.0075761345 0.026482608 -0.019745914 -0.017251004
0.18080974 -0.096660525 0.06968259 0.06635765 0.06756655 0.35740015 -0.1308101 -0.17553288
0.15643801 -0.029181834 -0.24444096 -0.010861569 0.23727958 0.123440996 -0.08479703 -0.0075858952
0.00032303782 -0.04666874 -0.04020007 0.012800735 0.06840818 -0.22908181 0.09263824 -0.03515216
-0.016784525 -0.0871826 0.010030838 0.23396933 -0.26092166 0.25490177 -0.03116804 -0.14815141
-0.059982035 0.04216646 0.038523886 -0.14530629 0.28997037 0.049739342 -0.06826625 0.01185961
-0.13206473 -0.056291766 -0.17668995 0.031128438 0.10348258 -0.110138245 -0.097049624 0.39783823
0.115966864 -0.2849357 -0.091557324 0.035418343 0.09050933 -0.20332183 0.26287827 0.22045892
-0.07653609 -0.06406949 0.042829476 0.043045778 -0.22473931 -0.11892072 -0.15827547 -0.033923656
-0.018502008 0.10255732 0.099413194 -0.39528683 0.27194086 -0.15444912 -0.04347271 0.26393822
0.06180119 0.23421423 -0.15264307 0.07731564 -0.02676956 -0.039386645 0.014678467 -0.017852327
-0.038176186 -0.19421273 0.1950025 0.12181141 -0.3012501 0.0069188396 -0.03086352 -0.13814513
0.021723399 -0.004315909 -0.007975749 0.027543569 -0.362295 0.30274317 -0.1756854 0.122354835
-0.015710417 -0.045984413 -0.25366437 -0.14114466 -0.0010053103 0.00813488 0.011270997 0.048711196
-0.067683324 -0.033556867 -0.31923175 -0.11211397 -0.1330163 0.2173079 0.21954435 -0.0006431881

fc_enc.bias f4 [64]
00000000: c001 283d 5d7e f23c 025c ee3c a089 a63b
00000010: c209 143d 0804 e53c 44c7 71bd 93e5 303d
00000020: 650a a73d 9f68 2f3d e70c 0dbe 01bb 873c
00000030: 498c e63c f237 78bd ca46 293d 0a9e 4f3c
00000040: 4f37 533d d9ba e33d 9ecc 7f3d b167 b23d
00000050: c772 8fbd 9b69 c63c 0126 a5bb 5def 03bc
00000060: 7b59 483d 7c3e 223d faee 2e3d 9931 e73c
00000070: 029d 223d cdef 063c ab56 963b 868f bfbc
00000080: b22e 003d d727 ca3d bfc5 763c 3e18 a9bd
00000090: 87e5 b3bd e287 923b d20a 2d3d 36ba 763b
000000a0: a1b5 e4bc 1ae4 283d 594a e03b fd11 a0bd
000000b0: 0b88 c6bd 9af7 043c d975 1b3d 33de cc3c
000000c0: 8d6d 8dbd 4660 973d 842c 803c d8b1 003d
000000d0: 00bb f13b a5a9 053c 4bf7 3fbd b2b3 92bd
000000e0: f574 de3c 873b 5abd 2c60 5b3b 1e60 3abd
000000f0: 7a43 093d 2a92 3b3d 5529 bdbc 595f da3d
0.041017294 0.02960127 0.029096607 0.005082324 0.03614212 0.027956024 -0.059027925 0.04318769
0.081562795 0.042824384 -0.13774453 0.016568663 0.028143065 -0.06060023 0.041327275 0.012671957
0.05156642 0.11119623 0.062450998 0.08711184 -0.07004314 0.024220278 -0.005039931 -0.008052674
0.04891346 0.03961037 0.042708375 0.028221892 0.039700516 0.008235884 0.0045879683 -0.023383867
0.031294532 0.0987088 0.015061795 -0.08256577 -0.08784013 0.004471765 0.042246647 0.0037647611
-0.027918639 0.04123316 0.0068448004 -0.07815931 -0.09693917 0.008115673 0.037954185 0.025008297
-0.06905661 0.073914096 0.015646227 0.031419605 0.0073770285 0.008158122 -0.046866696 -0.071631804
0.027155379 -0.053279426 0.003347407 -0.04550182 0.033511616 0.04579369 -0.023090998 0.10662717

fc_dec.weight f4 [468, 64]
00000000: c7e0 793d 2279 633d cb05 13bd 55dd 1b3e
00000010: e8e5 38be 1693 143e f676 e63c 665a 7ebe
00000020: d300 95bb 5829 c0bd 66e4 da3c 97fe 0d3e
00000030: 4c86 113c aca2 483e 4431 0c3e 66f8 903c
00000040: 2bf7 043d bad8 133d c770 353e 58de 973e
00000050: 8e91 16be 031c 403e 06da 13be 59e4 70be
00000060: 4332 e1bd 91cf 73bd 58c3 703e 5ee1 853d
00000070: 33dd c7bd dd54 863e 8743 513d b5ce 04bd
00000080: 674c 8c3e a132 5c3e 2feb 283e 2e9a d63d
00000090: d70c 24be 5e09 1ebe c25b a63b 09e1 7a3d
000000a0: cf0a efbb ca46 663e 685e 4cbc ec3c e9bc
000000b0: 4b23 9fbd 136f b1bc 3064 0abe bfe3 fb3d
000000c0: 57fe 54be ffa6 4bbd f98a bdbd fe82 1f3c
000000d0: 56fa d2bb d37d 453e bcd9 30be 8f92 803d
000000e0: a74c 5f3d dbe3 a7bd 031d ec3d a57a 683d
000000f0: 9af2 8a3d ebc3 d13d a956 e93d 1212 fcbd
00000100: ef05 f6bd f8dc d83d 9a1b a13d 5074 9bbd
00000110: a640 973c e40c b63d ebbc acbd 9f46 cb3d
00000120: 43b0 e1be 836a 2bbe 044a d33d a583 c93e
00000130: 3d03 463c 7bff 2e3c 229b 81bd 00ac e13e
00000140: f995 0d3e 760c 1dbe 2a3a 1c3e 0469 7abe
00000150: a7dc 10be 566b 2bbe 0f57 bb3e 17a7 b8be
00000160: 78f0 893e 65b6 7c3e a94b e13e 5114 12be
00000170: 6b58 ed3e d448 02be 4401 5b3d 2846 f7bd
00000180: 8211 c2bd 80eb 5b3e 9e12 363c 8f7f a53d
00000190: 671c 79bd 3612 d03e bb0e 6abe e641 05be
000001a0: 2ae0 7ebe da36 19be 9be8 ce3d 43a5 853e
000001b0: 1112 94be eb66 a2bd fb1c 36be dd20 24be
000001c0: 1428 033c af6d f03d 75a9 7e3e f526 0eb9
000001d0: 74fc 1abe 4b75 4cbe bb22 7ebc deda d4be
000001e0: f837 00bf b33b a13d 53b4 7dbe 2edc ecbe
000001f0: fa20 c23a 3ed3 ffbd fa2a e63e c6d6 5cbe
00000200: 1a7f 5538 9684 7b3d 54cf 003e 743d 52be
00000210: 12e3 84be edb2 96bd b674 133e 213e d03d
00000220: b1b0 793e 052a 023f f751 063e b50f 50be
00000230: a179 05be 261a 94bd a087 563e ed3f 36bd
00000240: e889 31be 37b0 033e 8295 a53e 5814 553e
00000250: d589 4c3c 162a ef3a a838 183f 50e9 1cbf
00000260: d0a1 ef3d ca62 613d a6a5 b73e f3ac bebe
00000270: 4f89 da3e 8aa6 273e 9daa b03e 73f6 cb3d
00000280: db96 bd3e 5fa7 d43d f4c9 85be acfc 183e
00000290: a064 5fbe 5d0f 15bd b4df e4be 3649 c03d
000002a0: f61e b73e aa7a 58be bfe7 10bd 5a14 1b3e
000002b0: 9cd7 d4bd 699b d1be 0e72 4bbe 3377 d6be
000002c0: 497a 50be 9d34 a23e 4243 5fbd 8003 933d
000002d0: db00 833e 1d37 a43e 7510 f6be bc09 a6be
000002e0: de73 8ebc 0aa8 083d adfb 50be 3314 323e
000002f0: ab3b 883d cee5 393e d0bb b93e 2692 45be
00000300: 588e 7c3c 7b76 a93e e625 32bd d1a9 8c3d
00000310: 3f0c 03be f841 2e3e 26e3 c3bd 52f9 7c3d
00000320: 85b6 73be aa8a 6e3e bbe6 463e cfcf 963d
00000330: 1ee5 6fbe 6a26 b53d 67ea 4e3e 2e2b 963e
00000340: 4982 9a3e 13c6 993e a1f1 89be b869 f43d
00000350: ab47 f83d 9867 4b3e 3ade 243c 671d babd
00000360: 2ee7 7abe b685 16bf d920 023f d94b 043e
00000370: 591c ffbd 02d2 97bc 8aab 23be d97b 2d3d
00000380: 4523 283e b284 c8bd 3f74 a6be 3fe1 52bd
00000390: bfeb 0a3e b2c3 e1be 6688 8ebe 7fe2 aa3d
000003a0: ee5d 423e 58fa 263c 0bae aa3d 66b0 bc3e
000003b0: d434 c2bd 69ff 8cbe cdda 73be 76cd 9c3d
000003c0: 02c3 0ebe 7ee3 933c f451 8c3e 84e8 abbd
000003d0: aaa2 dfbd 9398 a8be 4034 3a3e 9abc f5bd
000003e0: 34f9 133e 0578 c43e f546 79be 07e9 853d
000003f0: b800 023e e5b4 983d f227 583d e6a1 dbbc
0.06100538 0.055535443 -0.035894196 0.1522115 -0.18056452 0.14509234 0.028132897 -0.24839172
-0.0045472174 -0.09382886 0.026720237 0.1386665 0.0088821165 0.19593304 0.13690668 0.01769657
0.03246228 0.03609536 0.17718802 0.29661822 -0.14703962 0.18760686 -0.14438638 -0.23524608
-0.10995915 -0.059524123 0.23512018 0.06537126 -0.09758987 0.2623662 0.05108979 -0.032423694
0.2740204 0.21503688 0.16495965 0.10478626 -0.16020523 -0.15433261 0.0050768564 0.061249766
-0.0072949897 0.22487941 -0.01247368 -0.028471433 -0.077704035 -0.02165941 -0.13514781 0.122992985
-0.20800148 -0.049719807 -0.092550226 0.009735821 -0.006438534 0.1928628 -0.17270559 0.06277954
0.05451646 -0.08197757 0.11528971 0.056757588 0.06784554 0.102424465 0.11393482 -0.12308134
-0.120128505 0.105890214 0.07866593 -0.07590544 0.018463444 0.088891774 -0.08434471 0.09925579
-0.4407979 -0.1673985 0.10316852 0.3935825 0.012085733 0.0106810285 -0.06328417 0.44076538
0.13826741 -0.15336785 0.15256563 -0.24454123 -0.14146672 -0.16740164 0.36589858 -0.3606498
0.26941276 0.24678953 0.44003037 -0.14265563 0.4635652 -0.12723094 0.053468004 -0.12073928
-0.094759956 0.21476555 0.011112837 0.080809705 -0.060818102 0.40638894 -0.22857182 -0.1301342
-0.248902 -0.1496233 0.1010296 0.26102647 -0.28920034 -0.07929786 -0.17784493 -0.16028161
0.008005161 0.117396705 0.2486933 -0.00013556688 -0.15135366 -0.19966619 -0.01551121 -0.41573232
-0.500854 0.07872715 -0.2477582 -0.46261734 0.0014810853 -0.12491463 0.44954664 -0.21566305
5.090153e-05 0.06140574 0.1257909 -0.20531255 -0.2595449 -0.07358346 0.1439999 0.101681
0.24383809 0.50845367 0.13117205 -0.20318492 -0.13034679 -0.0723155 0.20950174 -0.044494558
-0.17337763 0.1286019 0.32340628 0.20808542 0.012484034 0.0018246796 0.5946145 -0.61293507
0.11700785 0.055025853 0.35868567 -0.37241325 0.42682883 0.16372123 0.34505168 0.09959116
0.37029156 0.10383486 -0.2613064 0.14940137 -0.21815729 -0.036391605 -0.44701922 0.09388964
0.3576581 -0.21140543 -0.03537726 0.15144482 -0.10392687 -0.4093888 -0.19867727 -0.41887817
-0.20359148 0.31680766 -0.0545075 0.07178402 0.2558659 0.32073298 -0.4805943 -0.32429302
-0.017389234 0.03336338 -0.20408507 0.17390518 0.06652006 0.1815407 0.36276102 -0.19294032
0.015414797 0.33098206 -0.043493174 0.068683274 -0.1279764 0.17017353 -0.095648095 0.061761208
-0.23800094 0.23295084 0.19423954 0.07363855 -0.23427245 0.088452175 0.20206605 0.29329818
0.30177525 0.3003393 -0.2694216 0.11934227 0.121230446 0.19863737 0.010062749 -0.09087639
-0.2450225 -0.58797777 0.5083137 0.12919559 -0.12456579 -0.018532757 -0.15983406 0.04235444
0.16419704 -0.097909346 -0.32510564 -0.051484343 0.13566492 -0.44094616 -0.2783844 0.08343982
0.18981144 0.010191523 0.08333977 0.3685333 -0.094827324 -0.27538612 -0.23813935 0.07656376
-0.13941577 0.018052813 0.27406275 -0.08393958 -0.109196976 -0.32928905 0.18183994 -0.119988635
0.14450532 0.38372818 -0.24343474 0.06538587 0.12695587 0.07456378 0.05277247 -0.026810598

fc_dec.bias f4 [468]
00000000: 7561 a63e 4f5b 633e f5df 8ebd 6069 58bd
00000010: 11de 12be 3aec a53e af30 67bd 93f6 083e
00000020: c991 9d3d 12ee d73e c154 adba a126 663e
00000030: 9af1 673e cf9e 9b3e ef15 4bbd 062c adbd
00000040: 1931 1a3d 4d5f fa3d ec38 363e 8d7f 66bd
00000050: ee72 5d3d e013 91bd 7d58 1b3e 6a35 ac3d
00000060: eb74 893e 9dca b43d dd68 aa3e 0670 d8bc
00000070: 9858 733d 37ba 203d 5975 cbbc e395 c03d
00000080: 7fdb 18be e821 d03d 5708 24bc 8d76 603d
00000090: c34e 843d d44b 133d 99af 0f3f 597b 793e
000000a0: a281 a93d c823 d1bd e5ae 40be b866 263d
000000b0: a5e9 1b3d 33a7 223e fa7a cc3d bb80 d33d
000000c0: e791 25be ee72 69be e356 25bc a32d 043f
000000d0: 6092 5e3e 7357 12be 2ac0 6cbd 0385 35bc
000000e0: 1900 113e 81ac b73d ce26 a9be 8cc2 99be
000000f0: 36f6 b63c feef 523c 8cf7 243e 7879 143e
00000100: 75c4 813e 86eb a0bd e81c 133e 6c05 3cbe
00000110: a69b 0b3b 06c7 a43e c8c7 95bc ab25 163e
00000120: 2fe2 733d 0e77 24bb 5420 453e bb1e 9e3e
00000130: 5864 d7be 9e89 c63e ad95 f33d 9440 09bc
00000140: b603 5b3e 7c05 813e fe82 6f3e c3ad 663b
00000150: 31cd 7ebe 4c61 70bd 4a89 803e 8a7a 7ebd
00000160: 3452 bc3d 7c6f b53d bcd4 0f3f 1a87 3c3e
00000170: 6e8c 923d d9ac 3abd 3dca ad3d 06c5 38bc
00000180: f232 f13d 9e0e 5e3e 66cd ad3d 05f9 8a3e
00000190: 0e18 f4bd 04a1 58be 4bc1 4d3e ece5 4d3e
000001a0: 1bbb fa3d 1ba5 f73e 10c8 723d aa1f 813d
000001b0: b338 aabe f234 303e f5e1 edbc 925d fd3d
000001c0: 259b f0bd e0d7 16be e698 083f 6752 9f3e
000001d0: 455d 563e c311 65be a553 b6bd 1641 b2bd
000001e0: e3b9 39be 1598 e1bd 4bad 8cbe c629 a23d
000001f0: fa50 f4bd 5a39 f13d aa76 6eb9 45ad 87be
00000200: 77fe 3ebd 5b81 893d 2531 17be 18dc 4abe
00000210: 6ee9 d43c 7740 043d ac71 c63e 715a 64bb
00000220: 9791 f8bd 3b77 513e 3ad4 303e 9f68 3c3e
00000230: 7b1d debd b46b 253e 6e8f 163d e56f 69be
00000240: 3afc a0bd 0f75 adbd 0d09 aebd 5fdb ec3d
00000250: 2743 443e ceed 29be 383c 1cbc 8b74 35be
00000260: 6b1f 85bc e0ec f13c f7c2 21be 8dff 40bd
00000270: a34c d33d bf87 823d 1f6c edbc 637a e6bd
00000280: 474f dc3d 86a9 d33d 5caa 9cbd 3652 b4be
00000290: 4cb8 433e 82bb 2b3e 7e0c bebd 0e7a aabe
000002a0: 5931 943e 068c aebe 2e65 883d c905 62bd
000002b0: d6d6 143d e638 2c3d af03 423c 934e 87be
000002c0: 2e95 4e3e 43b7 8f3e 6fba 10be a09a 25be
000002d0: ab42 d6bc b64d 3a3e ad5a 5f3e 28c4 d53b
000002e0: 005a 15be 4db1 2abd 9eec 34be 16d2 a9bd
000002f0: 371c 97bd f905 98bd 5f92 f8bd 9f5a 5ebd
00000300: 8d66 31be 1ead e33d 59c9 893e 699c 71bf
00000310: f406 b13d 7dc2 acbd b3d1 13be a5b3 203e
00000320: 921e 913c 494c 2dbd 852d 7ebd 912e 013d
00000330: 4330 ec3d 8e32 60be d492 c5bd eaa4 883e
00000340: c787 77be 77b7 85bc 096d f7be 40a5 4a3e
00000350: 740e bdbd c243 8b3d e9ff acbd d5b0 373d
00000360: f367 b23e e0b7 19be 430d b2bd 9749 973c
00000370: ad4f 91bc 7f9f c0bd e26e 8abe 531e 8c3d
00000380: c4b8 35be 0eec 39be 18ef 233e 95a2 9abd
00000390: 6a0b 843d 9d92 3dbe 962b c1bd 7e23 1c3e
000003a0: 42ac c7bd e0db 363e cb92 0cbf 9c02 82be
000003b0: 808a b7be 085b 1bbf 5b89 8dbe c03e b8bd
000003c0: fc09 26be 8cd8 34be 0fc0 16be afb5 78bd
000003d0: b0ba 35bf a454 0bbf 3c6c 36be 276a 7fbf
000003e0: 5b9a 2dbe ae43 afbe 2f0c 4bbe 8463 75be
000003f0: ae25 33be 54cb b2bd ead4 30be 4183 77be
0.3249623 0.222028 -0.0697631 -0.05283487 -0.14342524 0.3240679 -0.056442913 0.1337531
0.07693822 0.4217382 -0.0013224111 0.22475673 0.22650757 0.303946 -0.049581464 -0.084556624
0.03764448 0.122252084 0.17795151 -0.056273986 0.054064684 -0.07083869 0.15170474 0.084086254
0.26847014 0.08827708 0.3328313 -0.026420604 0.05941066 0.03924009 -0.02483623 0.094035886
-0.14927481 0.10162717 -0.010011754 0.05480056 0.06460335 0.035960987 0.56127316 0.2436346
0.082766786 -0.10211903 -0.18816717 0.040625304 0.038064618 0.15884094 0.099843934 0.10327288
-0.16168939 -0.22797748 -0.010091516 0.51632136 0.21735525 -0.14291172 -0.05780045 -0.011079076
0.14160194 0.089684494 -0.33037418 -0.3003124 0.0223342 0.012874601 0.16110057 0.14499462
0.25345197 -0.078574225 0.14366496 -0.18361443 0.002130249 0.32183093 -0.01828374 0.14662807
0.059541877 -0.0025095376 0.19250613 0.3088282 -0.42068744 0.3877687 0.11893783 -0.008377213
0.21388134 0.25199497 0.23389813 0.0035198785 -0.24882962 -0.05868654 0.25104743 -0.06212858
0.091953665 0.088591546 0.5618398 0.18410912 0.07155691 -0.045574997 0.084858395 -0.011277443
0.11777295 0.21685264 0.08486442 0.27143112 -0.119186506 -0.21155173 0.20093267 0.2010724
0.12242719 0.48368153 0.059272826 0.063048676 -0.33246383 0.17207697 -0.029038409 0.12371363
-0.117483415 -0.14730787 0.53358305 0.31117555 0.20934017 -0.22370057 -0.08902673 -0.087038204
-0.18137316 -0.110153355 -0.27475962 0.07918124 -0.119295076 0.11778517 -0.00022741655 -0.26499382
-0.046629395 0.06714126 -0.14764841 -0.19810522 0.025990214 0.03228804 0.387586 -0.0034843946
-0.12137144 0.20455639 0.17268458 0.18399285 -0.10845467 0.16154367 0.03675788 -0.2279659
-0.078606084 -0.08469593 -0.0849782 0.11565279 0.19166242 -0.16594622 -0.009535842 -0.17720239
-0.016250333 0.029531896 -0.1579703 -0.047118712 0.10317352 0.06373548 -0.02898222 -0.11253812
0.107573085 0.103350684 -0.07649681 -0.35218972 0.19113272 0.16770747 -0.092797264 -0.33296245
0.289439 -0.34091204 0.066599235 -0.0551813 0.036337696 0.04204645 0.011841699 -0.26427135
0.20174095 0.28069505 -0.14133619 -0.16172266 -0.026154837 0.18193707 0.21811934 0.006523628
-0.14585114 -0.041672993 -0.17668387 -0.08292024 -0.073784284 -0.07423014 -0.12137293 -0.05428564
-0.17324276 0.11117004 0.2691143 -0.9437929 0.08643904 -0.08435533 -0.14435463 0.15693529
0.017714772 -0.04230908 -0.06205513 0.03153855 0.11532643 -0.21894285 -0.09647146 0.2668832
-0.24172889 -0.016322834 -0.48325375 0.197896 -0.09231272 0.06800033 -0.084472485 0.044846375
0.34844932 -0.15011549 -0.08693936 0.018467708 -0.017738188 -0.094054215 -0.27037722 0.068417214
-0.17746264 -0.18156454 0.16009176 -0.07550541 0.064474896 -0.1851296 -0.094321415 0.15247914
-0.097496524 0.17857313 -0.5491149 -0.25392616 -0.35847855 -0.6068578 -0.27643856 -0.089963436
-0.16214746 -0.17660731 -0.14721702 -0.060720142 -0.7098799 -0.54426026 -0.17814726 -0.9977135
-0.16953413 -0.34231323 -0.19828866 -0.23963743 -0.17494842 -0.08730188 -0.1726872 -0.24171163

dec1.kernel0 f4 [8, 4, 3, 1]
00000000: c9de ac3c 34c4 bebe b950 aa3c 7974 a3be
00000010: a6d5 bb3d b6ea 34be 6117 2cbd 57cd 773e
00000020: ecc5 e53c 79e9 2d3e 48ff 1bbc 22da 88be
00000030: 5423 72bd 5f93 e6be b173 013e ecf1 d1be
00000040: 8069 783e 0547 81be 94c6 e43b e51f a63e
00000050: 8595 a9bd b182 ba3e 594b 42be 37a9 00be
00000060: 8d8b c3bd 926a 7e3c 47ae 34bd 72c3 9e3e
00000070: 229a cebc 251f a43d 5b3f ee3d 1845 623d
00000080: 0e48 d1bd 50bf 74be 1049 903e 890d bcbe
00000090: 766b 6bbe 7273 46bd 21c3 aebd 5087 8f3e
000000a0: e8b9 0dbe 506e 413e 6645 303e 696a 73be
000000b0: dbbc 00be 5771 84be 5d18 15bd c6ca 03bf
000000c0: 0598 80bd 6ffb 0e3e d73d 0fbe e186 063e
000000d0: 7826 40be e22e 0f3e 8878 f83d e74a e63d
000000e0: ae8e 8cbd 803c e3bd aabc 803e 8c0f 6bbe
000000f0: 0d43 0e3d 5d1d 42bd 6323 a6bd 0dad 853a
00000100: 498d aebe 617f cabd 79e2 193d f5a9 fd3d
00000110: d3f3 a43d d851 20bd 9016 683e d227 07be
00000120: 53ac 88bd 4f4a 433d e76e 76bd 198f 5a3c
00000130: 3ed7 72be 4053 1f3d 067e 083e ab65 a53b
00000140: e412 47bd 3136 eb3d dddb ff3d 0e55 6bbe
00000150: f4df 78bd 1439 a33d 3e8a dcbc 2097 9f3d
00000160: 9a91 2ebe 5a30 423d 3f11 793d db4c 423c
00000170: ea18 0d3e 1a01 22be ed15 963e 585c b5be
0.021102326 -0.37259066 0.020790445 -0.319248 0.091716096 -0.1766766 -0.042014483 0.24199425
0.028048478 0.16983594 -0.009521313 -0.26728922 -0.059115723 -0.4503431 0.12641789 -0.41004884
0.24258995 -0.25249496 0.00698168 0.3244621 -0.08280472 0.36427835 -0.18974055 -0.1256455
-0.095481016 0.015528338 -0.044111516 0.31008488 -0.02521998 0.08013753 0.11633178 0.055241674
-0.102188215 -0.23901105 0.28180742 -0.36729077 -0.22990212 -0.04844994 -0.08533312 0.28032923
-0.13840449 0.18889737 0.17213973 -0.23771061 -0.12572043 -0.2586772 -0.036400188 -0.5148128
-0.062789954 0.13963102 -0.13988434 0.1313739 -0.18764675 0.13982728 0.121323645 0.11244755
-0.068631515 -0.11095524 0.2514394 -0.2295515 0.034731913 -0.047391284 -0.08112218 0.0010198668
-0.34092167 -0.09887577 0.037569497 0.12385932 0.08054318 -0.039140552 0.22664857 -0.13198784
-0.06673493 0.047678288 -0.06016436 0.013339781 -0.23714921 0.038897753 0.13329324 0.00504752
-0.048602 0.114849456 0.124931075 -0.22981665 -0.060760453 0.07969871 -0.026921388 0.07792497
-0.1704773 0.047409393 0.060807463 0.011859144 0.13779035 -0.15820733 0.29313603 -0.35422015

dec1.kernel1 f4 [8, 4, 2, 2]
00000000: 45b6 443e 92ef 5fbd f8e2 453c 0315 3e3e
00000010: b273 e6bc cd27 bb3d 5a4c ef3d 6ee2 a3ba
00000020: eeda 053e df5f 1e3d 9553 203e a24b f83d
00000030: 693c 1a3e d8b7 dcbd 45d5 273e 4001 cdbd
00000040: dfb4 563e 56ed 163a cf16 82bd 9ee8 8d3e
00000050: cc7b a33d adc3 af3d 5669 c73d 5efe 5abd
00000060: c163 0d3e ca1f 293e 0f5e 453d d645 153e
00000070: 7063 593e deef 82be c36d 3b3d 1d88 98bd
00000080: bdd2 67bc 9030 d5bc 4dfe 273a 6bc9 adbd
00000090: 7564 b0bd 7a1d f13d 6636 eb3d 4d7a 353e
000000a0: dc01 b83c 0127 34bd d1b3 9c3d 16ce 583e
000000b0: fd4d 7fbc f7ce b7bc 185a 8a3b fb35 1dbe
000000c0: fbbc 093e 0fba bd3c 8569 aabd af24 6b3d
000000d0: feca a13d bb52 4abd 942c bcbd fdd2 253e
000000e0: 6acd c83d 06f1 3bbd 72cc f53d 5dd2 123e
000000f0: e0be 583d 5acd 8a3d 1a3a 133d 1a0f db3c
00000100: 39d7 00be 59d7 e7bd dbc9 ee3c 2ec6 7cbd
00000110: 7875 2b3d dfe8 b33d 0918 483e 205b 5e3e
00000120: b038 fb3d ca62 7f3d 415c 9bbc 61bb 87bc
00000130: 229b b93d d07f 4abb e077 e7bd f35c 4bbe
00000140: 541b 5abc 0627 35bb 6485 153e 9ed2 b0bd
00000150: b5b5 c13e ba46 82bd 6818 8d3d 535f 5a3e
00000160: c7c1 b73b 122a bdbb 24f5 08be 3642 293e
00000170: cf26 57be fc6d de3d 8583 a2bd f4c7 35be
00000180: 119d 9ebc 7fb8 92bd d165 3c3d b50a 933b
00000190: 0368 6a3e e378 2f3e 566b 6d3d 3560 503d
000001a0: 6d61 a7bd 6632 e43d f43c e43d aacd 153e
000001b0: 0d26 fabd 7781 2bbe 3ab9 ac3d 4d25 25be
000001c0: 249d d4bd b7f9 06bd d85a 083c 675b 223c
000001d0: b3b2 873e 1fde 603e 1c2b 0abe 043a 253d
000001e0: a857 1ebd 1dc0 e43c dfa8 bcbd 2840 b03d
000001f0: 40c9 36be 8117 8e3b 0102 e83c 9fb7 46be
0.19210155 -0.05467183 0.012078039 0.18562703 -0.02813134 0.09138451 0.11684485 -0.0012503394
0.13071796 0.03866565 0.15656884 0.12123801 0.15062107 -0.10777253 0.1638995 -0.10010004
0.20967434 0.0005757412 -0.06352007 0.27716535 0.07982597 0.08582244 0.09736888 -0.05346524
0.13807584 0.16516033 0.048185404 0.14577422 0.21229339 -0.2557363 0.045758974 -0.074478365
-0.014149365 -0.026024133 0.0006408438 -0.08485683 -0.08612911 0.117732 0.11484985 0.17722435
0.022461824 -0.04398251 0.07651485 0.21172366 -0.015582559 -0.022437556 0.004222166 -0.15352623
0.13450997 0.023160009 -0.083209075 0.05740803 0.07900046 -0.049395304 -0.0918819 0.16193767
0.098048046 -0.045884155 0.120018855 0.1433806 0.052916408 0.06777449 0.03594408 0.0267406
-0.12582101 -0.11320371 0.029148987 -0.061712436 0.041860074 0.08784651 0.19540419 0.21714449
0.12266672 0.062350072 -0.018964889 -0.016568841 0.09062792 -0.0030898936 -0.11302161 -0.19859676
-0.01331218 -0.0027641668 0.14601666 -0.08633922 0.37833944 -0.06361146 0.06889421 0.21325426
0.005607817 -0.0057728374 -0.13374764 0.16529164 -0.21010898 0.108608216 -0.079352416 -0.17752057
-0.019362004 -0.07164096 0.045995537 0.0044873604 0.2289124 0.17135958 0.05796369 0.050873
-0.08172879 0.11142425 0.111444384 0.14629236 -0.12214289 -0.16748606 0.08433767 -0.1612751
-0.10381535 -0.03295299 0.00832244 0.009909487 0.26503524 0.21959732 -0.13493007 0.04033853
-0.038657814 0.027923638 -0.09211897 0.08605987 -0.17850208 0.004336298 0.028321268 -0.19405983

dec1.bias_tensor f4 [8]
00000000: ed15 febe a7b9 31bf 9a1c 80bf 1d2e b3bf
00000010: 5556 70bf 0645 75bf 50c5 5cbf ae64 5abf
-0.49626103 -0.6942391 -1.0008729 -1.3998448 -0.9388173 -0.95808446 -0.86238575 -0.85309875

dec2.kernel0 f4 [1, 8, 5, 1]
00000000: 7ed3 6abd bbe9 ec3c d6b3 573e 8d05 81bd
00000010: 7d34 ec3c ff7f 193d 7fc9 3bbd 9155 073c
00000020: 40d7 133e 05fb b1bd cdc4 cdbc 0f6c 463d
00000030: 3c5e c5bd 86c7 2f3d 6a5d 653d 444a ea3c
00000040: a23a fcbc 5cca 003c dea1 c03b 7f76 92bb
00000050: cb2b 53be d093 2f3e 90f1 94bc 8ac4 54bc
00000060: d6c6 f738 ca15 9f3c 5564 8ebd 4520 7d3d
00000070: 7a74 15bd daa9 97ba ffe3 81bb 43c4 b1bc
00000080: 436c 17bd b5b0 a63d c1ed 573b 37df 23bd
00000090: c416 d03c 43da 673d d9db 41bc 45d7 433d
-0.0573306 0.028920045 0.21064696 -0.06299887 0.028833622 0.037475582 -0.04584646 0.008260147
0.1443758 -0.08690456 -0.025118256 0.048442896 -0.096371144 0.04291489 0.05599729 0.028599866
-0.030789677 0.007860746 0.005878671 -0.0044696922 -0.20622174 0.1714623 -0.018181592 -0.012986312
0.00011814914 0.01941957 -0.069527306 0.061798353 -0.036488034 -0.0011571005 -0.003963947 -0.02170003
-0.03696848 0.08139173 0.003294811 -0.040007796 0.02540148 0.056604635 -0.011832201 0.04781272

dec2.kernel1 f4 [1, 8, 4, 2]
00000000: cf15 20bd f4f2 673c 9fae d93b 5508 223e
00000010: a43f 73bc 35d1 5f3c 3e44 20bd 4ace a83c
00000020: c151 b33c e10f 85bc 9cdb 33bd f8bf 37bd
00000030: 3af5 c23d e126 ecba 2297 823d 5e80 6bbd
00000040: e837 c63d 99a0 aa3d 09ce 4fbe e9a8 f7bc
00000050: 5b1f 613d 677e 593e f48c eebd 21fb 4ebd
00000060: 478b 283c 983d 8abd 3726 233d 9b58 233d
00000070: 75d5 5cbd 23fd 833c 54bc 0b3d 013f 0fbc
00000080: 196d 4d3d c698 ec3d 099d 2fb9 b9f0 9fbc
00000090: db1d 52bd 921e 49bc f311 50bc 574d 9fbc
000000a0: 7a36 be3c 3e30 ce3b bf5b 4d3d 3421 0bbd
000000b0: 4502 b23c 4653 b0bd bddd bf3a 523e 253d
000000c0: 9200 6fbc 50e8 b1bc 04d7 e23d ec62 42bc
000000d0: 7abf 2abe 7d20 31bc 0256 e6bc 0549 433d
000000e0: eaf5 ebbc a39e ce3c 0b69 4fbe cdb6 313c
000000f0: 67a0 223e a804 693d 3530 3e3c 8ba2 9e3d
-0.0390833 0.014157046 0.006643131 0.15823491 -0.014846716 0.013660719 -0.03912758 0.020606179
0.02188957 -0.016242923 -0.043910608 -0.04486081 0.095194295 -0.0018016958 0.063764825 -0.057495467
0.09678632 0.08331413 -0.2029344 -0.03023191 0.054961544 0.21239625 -0.116479784 -0.050532464
0.010287113 -0.06750029 0.039831366 0.039879423 -0.053914506 0.016111916 0.03411515 -0.008743049
0.05015287 0.11552577 -0.000167478 -0.019523965 -0.051298004 -0.012275355 -0.012699592 -0.019446058
0.023219336 0.006292372 0.050136324 -0.03396721 0.021729598 -0.08609633 0.0014638227 0.040342636
-0.014587538 -0.02171722 0.11076167 -0.011864405 -0.16674605 -0.0108109685 -0.028117184 0.04767706
-0.028803784 0.025222128 -0.20254914 0.010846806 0.15881501 0.056889206 0.011608173 0.07745846

dec2.kernel2 f4 [1, 8, 3, 2]
00000000: 3571 133d 7c2e 44bd 1bfe f4bc 848c 3e3c
00000010: 5c15 113d 40d1 4abc 1450 88b7 a617 253d
00000020: 30ee afbc 7251 05bd e050 64bd 9aec 7e3c
00000030: e36b 053d 8e57 ffbc 047b ad3d 191f cf3c
00000040: 0918 a4bd 281b c7bd f325 f7bc 2505 c03d
00000050: d37d 083c 8a33 36be bf20 cfbb 2189 8e3d
00000060: 1363 8e3d a936 6a3d 9b20 32bc e70a 87bd
00000070: 126d 37bc dde2 97bc caa6 1abd 51bc 06bc
00000080: f0ed 75bc 69a0 043c 67b9 7d3c 34b0 0d3d
00000090: 6be3 9bbd 49f7 cfbc 65ea e83d be30 a43b
000000a0: 9dc8 fdbc 6cb8 44bc 3585 e53d aa42 cfbc
000000b0: 5a1a 03be 9576 6b3d 699d c23d 7388 1bbd
0.035996635 -0.047895893 -0.029906323 0.011630181 0.03542076 -0.012378991 -1.6249753e-05 0.040305756
-0.021475881 -0.032548375 -0.05574119 0.01555934 0.032573592 -0.031169679 0.08470729 0.025283383
-0.08012397 -0.097219765 -0.030169463 0.09375981 0.00833078 -0.17793098 -0.0063210423 0.06959749
0.06952491 0.057181034 -0.010872032 -0.06593876 -0.011195438 -0.018540794 -0.03775672 -0.008223609
-0.015010342 0.008094885 0.015486098 0.03459187 -0.07611736 -0.02538647 0.11372832 0.0050106933
-0.030979449 -0.01200686 0.11207048 -0.025300343 -0.12803021 0.057486136 0.0950268 -0.037971925

exp_avg f4 [8, 1, 5, 1]
00000000: 8c85 7bb6 bbdb 21b5 2f50 adb6 9c12 d8b6
00000010: 7e79 deb6 5ee6 73b2 4573 5eb6 e7cb 41b6
00000020: f6bc 2fb6 0588 33b5 350e 4eb5 7ea6 1534
00000030: 3dcc 3c34 7796 f6b4 e958 1535 b13a 4634
00000040: 106f 9f34 d9fa 0136 8a1e eab4 52c4 9c35
00000050: 5514 a735 d0c6 7334 937e a2b2 c4aa 71b3
00000060: 5f58 8535 9918 0336 0a4a 2336 c208 2336
00000070: 4b8d 9635 bd6e ed35 d08f a535 5a1b 1934
00000080: c290 1736 d382 0636 0fa9 c835 41d6 2437
00000090: 4fa2 5037 a978 2737 9b3e eb36 5b87 1d37
-3.747965e-06 -6.0296924e-07 -5.1651364e-06 -6.439468e-06 -6.630259e-06 -1.4196841e-08 -3.3147674e-06 -2.8877928e-06
-2.6187022e-06 -6.688063e-07 -7.6761654e-07 1.3937276e-07 1.7583166e-07 -4.5930548e-07 5.5636207e-07 1.8461539e-07
2.9696866e-07 1.936851e-06 -4.3608117e-07 1.1680042e-06 1.2448387e-06 2.2703466e-07 -1.8916841e-08 -5.6267496e-08
9.934992e-07 1.953484e-06 2.433199e-06 2.429399e-06 1.1216993e-06 1.7690105e-06 1.2335313e-06 1.4259186e-07
2.2585014e-06 2.0043706e-06 1.4950364e-06 9.825047e-06 1.24355565e-05 9.982069e-06 7.010834e-06 9.389444e-06

exp_avg_sq f4 [8, 1, 5, 1]
00000000: 6b23 5330 945f 8630 0203 9c30 b005 af30
00000010: 6eb5 b730 899e 9e30 1072 b430 19e8 9e30
00000020: 4227 7d30 f55e 6030 4c26 2f2e 5c0e e62b
00000030: 4536 0e2c fddc 0c2c 4968 1e2e a7ce 892c
00000040: 9c08 ed2b 3c70 882e 20a9 a52f f056 1530
00000050: 8583 802f fc22 bb2f 0979 1430 c9d8 6530
00000060: 8746 7530 e689 ca2f f736 fd2f a74a 2830
00000070: 30d4 3330 c4cd 1c30 296d 1c30 b085 3d30
00000080: ef2e 4930 a4a9 2d30 57ec ff2f 7b61 1032
00000090: 9bef 3732 dcd2 5332 e178 5132 719e 3932
7.6811685e-10 9.776948e-10 1.1351349e-09 1.2734542e-09 1.3366568e-09 1.1541071e-09 1.3129142e-09 1.1561979e-09
9.209665e-10 8.162567e-10 3.9824408e-11 1.6346468e-12 2.020954e-12 2.001787e-12 3.6017665e-11 3.916717e-12
1.6842252e-12 6.204501e-11 3.0133496e-10 5.432943e-10 2.3376515e-10 3.403996e-10 5.401409e-10 8.3617785e-10
8.9230706e-10 3.684157e-10 4.6059487e-10 6.122413e-10 6.5421357e-10 5.704488e-10 5.6907595e-10 6.894778e-10
7.319007e-10 6.3178107e-10 4.655216e-10 8.404068e-09 1.0706482e-08 1.232976e-08 1.2192886e-08 1.0804443e-08

exp_avg f4 [8, 1, 4, 2]
00000000: 7c54 8fb5 d015 5bb6 9031 40b6 4b45 9ab6
00000010: b5c4 c3b6 68f2 f8b6 b392 71b6 fca0 a5b6
00000020: 6695 2cb6 c6e8 27b4 29d5 13b6 5718 84b5
00000030: 3dfa 98b5 95f4 4fb5 e231 c8b5 d9bf 94b5
00000040: b238 2335 e843 dc34 21eb d9b3 d67f 4634
00000050: da0a c433 d634 04b4 9b31 3eb4 95bf a934
00000060: d1fa 1e35 dd2c 95b4 4a54 7d35 0f6e b335
00000070: aa6d e135 7301 1536 fced c435 b0b8 0035
00000080: dc5c 7535 108e eb34 5e91 8c35 1625 c2b2
00000090: 11f8 8035 5dd5 8eb4 37dc ab35 7011 3333
000000a0: 1843 8435 2c05 7fb3 4fd5 cc35 da2d 8235
000000b0: dea6 2436 c50c 8034 9084 b135 cfb1 de35
000000c0: 1cde e334 388b f535 62b0 b0b1 31e1 2bb4
000000d0: 8d6d e135 008d 2b35 1619 b735 50dd d435
000000e0: 17de e536 d4cc af36 fa6d 1f37 f1a2 1d37
000000f0: de2d e336 7f2e 0a37 8dd0 ab36 2a3a 0937
-1.0678918e-06 -3.264624e-06 -2.8639079e-06 -4.5976244e-06 -5.8343526e-06 -7.4191958e-06 -3.5997189e-06 -4.9361242e-06
-2.5716959e-06 -1.563777e-07 -2.2028782e-06 -9.84185e-07 -1.1397711e-06 -7.7469423e-07 -1.4915679e-06 -1.1082694e-06
6.0804734e-07 4.1027602e-07 -1.01476196e-07 1.8486693e-07 9.128935e-08 -1.231268e-07 -1.7713175e-07 3.1618097e-07
5.922457e-07 -2.7786055e-07 9.43725e-07 1.336857e-06 1.6795723e-06 2.2203574e-06 1.46724e-06 4.795247e-07
9.140474e-07 4.3875525e-07 1.047312e-06 -2.2601437e-08 9.60894e-07 -2.6604803e-07 1.2804584e-06 4.1692545e-08
9.854293e-07 -5.9376518e-08 1.5261265e-06 9.699099e-07 2.4535034e-06 2.385115e-07 1.3226108e-06 1.6592038e-06
4.244365e-07 1.829444e-06 -5.1423266e-09 -1.600754e-07 1.679569e-06 6.3907646e-07 1.3641863e-06 1.5859641e-06
6.8505865e-06 5.2392515e-06 9.502744e-06 9.395867e-06 6.770467e-06 8.236267e-06 5.1204756e-06 8.179379e-06

exp_avg_sq f4 [8, 1, 4, 2]
00000000: d906 7f30 62a2 4e30 6584 a930 bcf0 7530
00000010: 7191 bc30 6587 9430 58c4 b930 03af 9b30
00000020: eb3e 9330 2de9 a430 9037 9630 6872 ac30
00000030: 5d8f 8d30 5a21 8f30 c19a 6c30 c50f 6d30
00000040: 6be6 222d 7b86 b72c 4fd8 062c ee89 272c
00000050: 90e2 f82b 2f39 dd2c 6044 b52c 14b5 082d
00000060: 283a d72c 8244 2f2d 020f 9b2d d61f 252e
00000070: 9595 152f 15d9 5f2f ec04 dc2f e451 1230
00000080: 646d 0c30 0330 fe2e 816d 4930 5e23 532f
00000090: f10d 8d30 768b d02f 5216 8e30 b6de 3830
000000a0: c14a b72f 679b fe2f 7f6a ed2f 7915 2230
000000b0: 9719 0f30 4d01 3130 3713 1030 8c80 2630
000000c0: c69c 0f30 9ccf 2a30 6442 2630 9106 4c30
000000d0: 69b0 2a30 0526 4030 2a1b 1530 76c3 1830
000000e0: 7649 1132 07f5 1b32 41f0 3632 fe2d 3d32
000000f0: 476c 4832 7214 5032 31e2 3932 23b0 4332
9.277819e-10 7.5173123e-10 1.2333997e-09 8.9472585e-10 1.3720137e-09 1.0806899e-09 1.3516326e-09 1.1327476e-09
1.071354e-09 1.1998843e-09 1.0929728e-09 1.2547163e-09 1.0299847e-09 1.0414098e-09 8.607622e-10 8.624251e-10
9.259797e-12 5.216103e-12 1.916262e-12 2.3808694e-12 1.7684344e-12 6.2875464e-12 5.1519206e-12 7.770912e-12
6.117124e-12 9.96281e-12 1.7628125e-11 3.7544932e-11 1.3604613e-10 2.0358855e-10 4.0021264e-10 5.3230864e-10
5.1087157e-10 1.1559111e-10 7.327899e-10 1.9202903e-10 1.0263063e-09 3.7934073e-10 1.0338204e-09 6.72553e-10
3.3340622e-10 4.631275e-10 4.318572e-10 5.896577e-10 5.205946e-10 6.4394073e-10 5.24142e-10 6.0573124e-10
5.2245885e-10 6.214067e-10 6.0484795e-10 7.42241e-10 6.2096334e-10 6.990322e-10 5.4244487e-10 5.5575045e-10
8.456814e-09 9.0779e-09 1.0648422e-08 1.1011705e-08 1.1666152e-08 1.2111842e-08 1.0819847e-08 1.1390543e-08

exp_avg f4 [8, 1, 3, 2]
00000000: 1871 64b6 94d8 9ab6 4345 f9b6 6827 e9b6
00000010: fc52 f6b6 c8d8 b2b6 8e55 d235 8073 3f34
00000020: fd21 bb34 702e 73b5 be28 1bb5 3f40 c7b5
00000030: b576 c4b4 c4e8 1235 0fbf 21b4 c8d9 c234
00000040: 9dd9 0435 35e1 8135 47af a435 050c 0936
00000050: 0eb6 b235 0c44 e435 30ec 0836 9e67 fc35
00000060: bb0f 1136 14af 4e34 779c 4d36 8219 a9b4
00000070: ffaa e435 b238 9db5 d980 0a36 3c7e 8535
00000080: 696e 1636 cf34 c834 6f09 1636 b660 a334
00000090: ea40 2536 2c19 7736 58c9 a6b5 4741 3a36
000000a0: c86c 13b4 058c 73b5 a6ae 5e37 f803 3237
000000b0: c9ae 2237 e88d 3237 05ba 5037 3f00 c936
-3.4040477e-06 -4.6147707e-06 -7.4288414e-06 -6.9485286e-06 -7.341032e-06 -5.33005e-06 1.5671119e-06 1.783028e-07
3.4856194e-07 -9.059213e-07 -5.780129e-07 -1.4845353e-06 -3.6594216e-07 5.4727957e-07 -1.50638e-07 3.6293773e-07
4.94905e-07 9.676793e-07 1.2269965e-06 2.0421587e-06 1.3315018e-06 1.7007128e-06 2.0403058e-06 1.880562e-06
2.161584e-06 1.9248938e-07 3.0638455e-06 -3.1497262e-07 1.703709e-06 -1.1713912e-06 2.0638602e-06 9.946011e-07
2.241601e-06 3.7291326e-07 2.2357233e-06 3.0431482e-07 2.46247e-06 3.682052e-06 -1.2426563e-06 2.7754156e-06
-1.3730016e-07 -9.072831e-07 1.3272895e-05 1.0610551e-05 9.696648e-06 1.0642667e-05 1.2441077e-05 5.9902954e-06

exp_avg_sq f4 [8, 1, 3, 2]
00000000: 8a78 8d30 b406 4130 b21a ad30 fd37 6430
00000010: b3b7 b730 d02e 6a30 9ab7 8630 8f72 9430
00000020: bf2f 8230 ae89 9030 9fcf 7e30 d6b4 6a30
00000030: 6b20 052e a735 a52e b45a a32c 623a ca2d
00000040: 79e5 d02c 114c 652e d53f 132e 468c e42e
00000050: 6877 d42e 715a 402f f237 a02f d6af f42f
00000060: 91ed 6c30 a774 022f 6f6a 9530 5067 4a2f
00000070: c376 a130 1459 c82f 3de9 a92f ad43 0330
00000080: b6a1 c92f 3fd0 1630 77e1 e42f f896 1130
00000090: 734f 0c30 df9c 1c30 004e 0f30 badb 2730
000000a0: e5cb 0d30 71ac 2330 70ab 0c32 766a 1932
000000b0: 2eef 2032 788a 2e32 e95e 2532 c200 2e32
1.029336e-09 7.0222517e-10 1.2594994e-09 8.302548e-10 1.3367213e-09 8.519523e-10 9.801966e-10 1.0800977e-09
9.472315e-10 1.051651e-09 9.269971e-10 8.538569e-10 3.0269492e-11 7.512862e-11 4.6428087e-12 2.2990668e-11
5.937192e-12 5.2136132e-11 3.3480625e-11 1.0393157e-10 9.6618546e-11 1.749443e-10 2.9143582e-10 4.450828e-10
8.61939e-10 1.1864874e-10 1.0871427e-09 1.8408497e-10 1.1748046e-09 3.6443082e-10 3.0906647e-10 4.7753695e-10
3.667659e-10 5.486562e-10 4.163316e-10 5.296523e-10 5.104461e-10 5.6975397e-10 5.213394e-10 6.1066496e-10
5.158525e-10 5.954411e-10 8.188053e-09 8.9299785e-09 9.367609e-09 1.0159617e-08 9.625844e-09 1.0128305e-08

exp_avg f4 [8]
00000000: d46f a1b7 4011 2936 a909 d336 1d03 6736
00000010: a1bc 3a36 e741 30b5 a7ba c536 2cc9 0c37
-1.924477e-05 2.5193003e-06 6.2894146e-06 3.4423495e-06 2.7825956e-06 -6.566101e-07 5.8927867e-06 8.391489e-06

exp_avg_sq f4 [8]
00000000: 1fd8 2632 ad06 2333 1138 a233 36c2 e531
00000010: 8c3b 1033 4335 6331 969b 2030 7752 2332
9.711612e-09 3.7957467e-08 7.553911e-08 6.6868564e-09 3.358177e-08 3.3063123e-09 5.842876e-10 9.506599e-09

exp_avg f4 [4, 8, 3, 1]
00000000: 6ab6 fa37 1b14 8c37 77c2 01b7 45cb 3437
00000010: c7ba 6237 1427 5d37 5758 09b6 7c6c 6e35
00000020: 9bba 2f35 9e66 5a33 7da4 24b6 dc65 2c35
00000030: 6cf8 d736 ea32 6bb7 752e 12b7 0106 7c37
00000040: a5ae e836 f91a 1eb7 a071 9937 e72b be37
00000050: 5793 6835 ba95 0938 5e11 8237 f46d f7b6
00000060: 9bb8 d537 cbc2 ab37 42dd 9436 07b5 9037
00000070: 67d8 6437 340d af37 ccb6 68b6 e490 7534
00000080: 9c5c 2936 939a cbb5 669b 4bb6 94f2 dbb3
00000090: 6938 f136 821b b735 02fe 8936 e829 7f37
000000a0: 4218 9736 2bc1 18b7 24cf c337 2cb1 ba37
000000b0: 8824 1d37 3938 f537 1e84 c137 d6eb 4d37
000000c0: cb9c a036 3a2a 2937 7c02 a636 507d c9b6
000000d0: f125 8f36 fb05 6636 48be c636 d137 9536
000000e0: 78ec 8a36 a42f 3036 3c93 cf35 8571 1db5
000000f0: ecf6 d436 0766 d936 0edb 3236 acfd e936
00000100: 5f2f 3636 66dc 80b5 c549 56b7 d2b4 0f36
00000110: 86f2 8b36 a768 0537 6678 8937 ba4e 4337
00000120: bd6d 02b7 6a8c 68b7 6b7d 16b7 3d87 8736
00000130: 2a07 13b7 28a1 afb6 e1e1 eab6 1672 7cb6
00000140: 0804 a3b6 e6b4 2bb6 8d22 2fb6 7cb4 8035
00000150: 8544 eeb6 eb25 8eb6 a020 5eb5 af9e 9b34
00000160: f01b 02b7 116e 1fb7 cf86 d836 3f0c 07b7
00000170: 0783 5cb7 6c69 30b7 aa18 d2b7 3a52 abb7
2.9887266e-05 1.6698663e-05 -7.734277e-06 1.0776163e-05 1.3514137e-05 1.3181725e-05 -2.0466011e-06 8.8819775e-07
6.5464127e-07 5.085041e-08 -2.453365e-06 6.422322e-07 6.4364194e-06 -1.4018946e-05 -8.713095e-06 1.5021768e-05
6.93447e-06 -9.423814e-06 1.8291932e-05 2.2670209e-05 8.664114e-07 3.280279e-05 1.5505295e-05 -7.373974e-06
2.5477542e-05 2.0475496e-05 4.4365015e-06 1.7250435e-05 1.3640244e-05 2.0867774e-05 -3.4677096e-06 2.2870114e-07
2.5236868e-06 -1.5169666e-06 -3.033981e-06 -1.0242107e-07 7.1889267e-06 1.3642568e-06 4.1124886e-06 1.52089415e-05
4.5029747e-06 -9.104881e-06 2.3342269e-05 2.225543e-05 9.366435e-06 2.9232457e-05 2.3068915e-05 1.2273862e-05
4.7866247e-06 1.0083017e-05 4.9474747e-06 -6.004855e-06 4.266149e-06 3.4276152e-06 5.9230115e-06 4.447044e-06
4.140249e-06 2.6253774e-06 1.5465553e-06 -5.865225e-07 6.346838e-06 6.4789815e-06 2.6651574e-06 6.9734724e-06
2.7147687e-06 -9.600888e-07 -1.277257e-05 2.1413912e-06 4.1707563e-06 7.951784e-06 1.6387738e-05 1.1641236e-05
-7.774154e-06 -1.386097e-05 -8.969898e-06 4.0390573e-06 -8.763551e-06 -5.2341675e-06 -7.000039e-06 -3.7617333e-06
-4.858248e-06 -2.5586282e-06 -2.6097143e-06 9.589271e-07 -7.1009295e-06 -4.236344e-06 -8.274892e-07 2.8986457e-07
-7.7551085e-06 -9.502765e-06 6.4529954e-06 -8.049478e-06 -1.3143529e-05 -1.0514963e-05 -2.5045436e-05 -2.0423078e-05
