server_report/ae_graph/ae_graph_peak/autoencoder_20251229_174328.pth (torch, 15622 bytes, 21 tensors)

conv1.bias f4 [32]
0	0x3ddd18b2	0.10795726
1	0x00000000	0.0
2	0x00000000	0.0
3	0x3e137ebc	0.14403814
4	0x3e87c22f	0.26515338
5	0x00000000	0.0
6	0x00000000	0.0
7	0x00000000	0.0
8	0x00000000	0.0
9	0xbd1da7ee	-0.03849023
10	0x00000000	0.0
11	0xbd504d2d	-0.05085485
12	0xbd5f510a	-0.054520644
13	0xbd81e88b	-0.06343182
14	0x00000000	0.0
15	0xbda5e1e0	-0.08099723
16	0xbd6e3667	-0.05815735
17	0x00000000	0.0
18	0x00000000	0.0
19	0x3e305a8c	0.17222041
20	0x3cc0e73a	0.023547757
21	0x00000000	0.0
22	0x00000000	0.0
23	0xbc93485f	-0.017978845
24	0xbc5d445e	-0.01350507
25	0xbe84d860	-0.2594633
26	0x00000000	0.0
27	0x00000000	0.0
28	0x3da92333	0.08258667
29	0x00000000	0.0
30	0xbd162c0c	-0.0366631
31	0xbe517324	-0.20454079

conv1.lin.weight f4 [32, 1]
0	0x3e95fc0f	0.29293868
1	0xbdd147be	-0.10218762
2	0xbed2851e	-0.41117185
3	0x3e05f6e5	0.13082464
4	0xc125f18b	-10.37147
5	0xbd8611cc	-0.06546363
6	0xbe02d176	-0.12775216
7	0xbddcc116	-0.10779016
8	0xbe5044ee	-0.20338795
9	0x3e890041	0.26758006
10	0xbd4c52aa	-0.049883522
11	0x3eefa3e2	0.4680472
12	0x3ec26fef	0.37976024
13	0x3ee1a41f	0.44070527
14	0xbe7223bc	-0.23646444
15	0x3f1185b0	0.56844616
16	0x3d5bc266	0.05365219
17	0xbebec8de	-0.37262625
18	0xbec259d3	-0.37959155
19	0x3e65803f	0.22412203
20	0x3e932777	0.28741047
21	0xbe917523	-0.2840968
22	0xbd1dd086	-0.03852894
23	0x3f04ac1c	0.5182512
24	0x3eb17b66	0.34664458
25	0x3f0a019b	0.539087
26	0xbea3bea4	-0.31981385
27	0xbed21b08	-0.41036248
28	0x3ee14ca7	0.44003794
29	0xbe06850c	-0.13136691
30	0x3e8214a7	0.2540638
31	0x3f276db8	0.6540179

conv2.bias f4 [4]
0	0xbd8ea619	-0.06965274
1	0x3d3a5e5b	0.04550014
2	0xbd9d7f3a	-0.07690282
3	0xbe05d1f5	-0.13068374

conv2.lin.weight f4 [4, 32]
0	0x3e67d9e0	0.22641706
1	0x3eb65051	0.35608152
2	0xbeb994c1	-0.36246303
3	0x3ec82475	0.39090315
4	0xc05c5487	-3.4426591
5	0xbe926f81	-0.28600696
6	0x3de1f70d	0.11033449
7	0x3e11c4cb	0.14235227
8	0xbda37637	-0.07981532
9	0xbc810bc5	-0.015752682
10	0xbde5bca2	-0.112176195
11	0x3e1dc0c6	0.15405568
12	0xbee4c214	-0.4467932
13	0xbec97ec6	-0.39354533
14	0x3d5ebe8b	0.054380935
15	0xbd99069c	-0.07471964
16	0x3d23f0dc	0.040024623
17	0x3d1c7b36	0.03820344
18	0xbe13e589	-0.1444303
19	0x3eac26e9	0.33623436
20	0x3ecaa05e	0.39575475
21	0x3e65ebb2	0.22453192
22	0x3c18ea86	0.0093332585
23	0x3e952529	0.29129913
24	0x3eaa5856	0.3327052
25	0x4018eb7a	2.3893723
26	0x3e81d6c6	0.25359172
27	0x3ea7c1c5	0.32765022
28	0x3e59f6d2	0.2128556
29	0x3d999f94	0.0750114
30	0x3c6c175f	0.014409869
31	0xbe54d853	-0.20785646
32	0x3f04c3de	0.5186137
33	0x3e07b0a6	0.1325098
34	0xbddaf1dd	-0.10690663
35	0x3f3d4328	0.739306
36	0xbefaad14	-0.48960173
37	0xbe806c7c	-0.25082767
38	0x3ec9979d	0.39373484
39	0x3dfd0c6f	0.12355887
40	0x3d413db1	0.047177974
41	0xbeb3469f	-0.35014817
42	0x3da41be4	0.08013132
43	0xbf3026d2	-0.68809235
44	0xbf0ccb26	-0.5499748
45	0xbf2eb56e	-0.6824559
46	0xbeb635ca	-0.35587913
47	0xbecc1161	-0.3985701
48	0x3e979419	0.29605177
49	0xbe85642c	-0.26052988
50	0xbc0e6f1b	-0.008693482
51	0x3f2e0ec9	0.6799131
52	0xbdd8e99a	-0.10591431
53	0x3e34ecba	0.17668429
54	0xbbaa696a	-0.0052005546
55	0xbf0c1d8e	-0.54732597
56	0xbec4acc1	-0.3841305
57	0xbfaa7fcc	-1.332025
58	0x3e41c9d0	0.18924642
59	0xbc8862d3	-0.016648686
60	0x3daeddb1	0.08538378
61	0xbeb49ac4	-0.35274327
62	0xbea98991	-0.33112767
63	0xbf698d10	-0.9123087
64	0x3e131b7f	0.14365958
65	0x3ebfb19a	0.37440187
66	0x3e52332f	0.20527337
67	0x3c1a62ea	0.009422997
68	0x3f9105ae	1.1329858
69	0xbe9f3ba7	-0.311002
70	0x3e780b25	0.24223001
71	0xbd7ef8c8	-0.062248975
72	0x3da704f8	0.081552446
73	0xbf0b8e3b	-0.545139
74	0xbe95748f	-0.2919049
75	0x3ead964d	0.33903733
76	0xbea7b47a	-0.3275488
77	0xbebc0683	-0.36723718
78	0x3e8ad63f	0.27116582
79	0xbdd6d7eb	-0.10490402
80	0xbe339208	-0.17536175
81	0xbe14d3f0	-0.14533973
82	0x3eacdaf1	0.3376079
83	0xbdfede09	-0.124446936
84	0xbdba63a1	-0.09101034
85	0xbe0daeb5	-0.13836177
86	0xbe579d23	-0.21056037
87	0xbe47a060	-0.19494772
88	0xbe8dd005	-0.2769777
89	0x3fe533aa	1.7906392
90	0x3e02cdad	0.12773772
91	0xbe4d2476	-0.2003344
92	0xbe80c973	-0.25153694
93	0x3d3a4aa6	0.045481347
94	0xbef55e45	-0.47923484
95	0xbf499df6	-0.78756654
96	0x3eff51df	0.4986715
97	0x3e35b4d2	0.17744759
98	0x3e9ef72c	0.31047952
99	0x3e4a3696	0.19747385
100	0xc0813d2f	-4.0387187
101	0x3eabd390	0.33559847
102	0x3eb6ff92	0.3574186
103	0xbe80036b	-0.25002608
104	0x3ea150b9	0.315069
105	0xbefb4b21	-0.49080756
106	0x3e8b0ed6	0.27159756
107	0xbef73b63	-0.48287496
108	0xbeea29a8	-0.45734906
109	0xbe59d570	-0.21272826
110	0xbbdbe422	-0.006710545
111	0xbf44a25d	-0.76810247
112	0xbdc75c55	-0.09734408
113	0x3e98591d	0.29755488
114	0xbeabcc38	-0.33554244
115	0xbcdea4bb	-0.027178159
116	0x3e941197	0.2891967
117	0x3e89306a	0.2679475
118	0xbe4d30a2	-0.20038083
119	0x3ef4a755	0.47783914
120	0x3c5819d4	0.013189752
121	0xbfb0a428	-1.3800097
122	0x3e8dd721	0.27703193
123	0xbe9b9499	-0.3038681
124	0x3ede1057	0.4337184
125	0xbe112e57	-0.14177833
126	0xbed39c1a	-0.41330034
127	0x3fc892c1	1.5669786

decoder.0.weight f4 [32, 4]
0	0x3f6dc5cc	0.9287994
1	0xbe0b3f60	-0.13598394
2	0x3e174a00	0.14774323
3	0x3fb2a402	1.3956301
4	0xbe8e4a1e	-0.27790922
5	0x3e72d104	0.23712546
6	0x3ed33916	0.4125449
7	0x3ef69158	0.48157763
8	0x3de25bea	0.110526875
9	0x3e7c1f66	0.24621353
10	0x3e05627d	0.13025852
11	0xbeb731ee	-0.3578028
12	0xbeb3593c	-0.35029018
13	0xbe4b87ef	-0.19876073
14	0xbeb60cab	-0.3555654
15	0xbe03c3db	-0.12867682
16	0x3e3a868f	0.18215393
17	0x3d7452f7	0.059649434
18	0xbe8b2e2c	-0.27183664
19	0x3d0d13d6	0.034442745
20	0xbebd9927	-0.37030908
21	0xbf5601d0	-0.83596516
22	0x3ea03ac5	0.31294838
23	0xbeafc9dd	-0.34333697
24	0x3e0d9656	0.1382688
25	0x3e0e489f	0.1389489
26	0xbd9dcb45	-0.07704786
27	0xbe99d2b2	-0.3004356
28	0xbf0cf07b	-0.55054444
29	0xbfa4f6d1	-1.2887822
30	0xbf353e3b	-0.7079808
31	0xbf006ba0	-0.5016422
32	0xbdf60589	-0.120127745
33	0x3f9511b0	1.1646023
34	0xbeaaa25e	-0.33327
35	0x3e0dfe77	0.13866602
36	0x3f54a893	0.83069724
37	0x3ec821b2	0.39088207
38	0xbe8f4d64	-0.27988732
39	0x4014021e	2.3126292
40	0xbed6c6f8	-0.41948676
41	0x3e2dc4bf	0.16969584
42	0xbead9383	-0.33901605
43	0x3e96bd56	0.29441327
44	0xbdd8685d	-0.10566781
45	0xbeeabb71	-0.4584613
46	0xbef629c5	-0.48078743
47	0xbecf0366	-0.4043228
48	0x3f8dbb49	1.107278
49	0xbe84af4f	-0.25915
50	0xbf108478	-0.5645213
51	0x3fe2f4cc	1.7730956
52	0x3ef03bd2	0.4692064
53	0x3de7268c	0.11286649
54	0xbe9a24f0	-0.30106306
55	0xbf46d53b	-0.77669114
56	0xbdd0cd49	-0.10195405
57	0x3b9ae01a	0.004726422
58	0x3e7fa038	0.24963462
59	0xbe916afe	-0.2840194
60	0xbeb45f4f	-0.35228965
61	0x3f00e3f9	0.5034786
62	0xbee25948	-0.4420874
63	0x3dace601	0.08442307
64	0x3ef069cd	0.4695572
65	0x3e44dbf1	0.19224526
66	0x3f03b8fa	0.51454127
67	0x3f5ac35f	0.8545436
68	0x3f412d78	0.75460005
69	0x3e520856	0.20510992
70	0xbf59dce3	-0.8510267
71	0x402a7761	2.6635363
72	0xbe95181c	-0.29119956
73	0xbeec9b70	-0.4621234
74	0x3e020de8	0.12700617
75	0x3e8f2ebc	0.27965343
76	0x3e599b5f	0.21250676
77	0xbd7cbeac	-0.061705276
78	0x3eac0435	0.3359696
79	0xbebbd45d	-0.36685458
80	0x3eab21d4	0.33424246
81	0xbe88a5d3	-0.26689014
82	0xbe8c4d80	-0.27402878
83	0xbeb866a8	-0.3601582
84	0xbe3115e6	-0.1729351
85	0x3e89e90a	0.26935607
86	0xbed051c6	-0.40687388
87	0x3e7c749d	0.2465386
88	0xbc0329ff	-0.008005618
89	0x3e813365	0.25234523
90	0xbef254f2	-0.47330433
91	0xbeaec0f8	-0.34131598
92	0x3ae36fa9	0.0017352003
93	0x3ec9e0c1	0.39429286
94	0x3e8c1541	0.27359965
95	0xbd996e67	-0.07491761
96	0xbe588b92	-0.21146992
97	0x3cb7128c	0.022347711
98	0x3eb21099	0.34778288
99	0x3db6112a	0.088899925
100	0x3e33b221	0.1754842
101	0x3e74a7c2	0.2389212
102	0x3e295540	0.16536427
103	0xbe50598c	-0.2034666
104	0xbf75c431	-0.9600249
105	0x3ce80d91	0.028326781
106	0xbe5ebe59	-0.217523
107	0x3d9e0791	0.07716287
108	0x3ee4c4e7	0.44681475
109	0xbe48d264	-0.19611508
110	0x3b634110	0.0034676231
111	0xbeb4aad7	-0.3528659
112	0xbe8ca663	-0.27470693
113	0xbf49931f	-0.78740114
114	0xbe0a6fea	-0.13519254
115	0x3ddb2f4c	0.107023805
116	0xbecc8ed2	-0.39952713
117	0xbefcdc22	-0.49386698
118	0x3e0c32d8	0.1369127
119	0x3d872108	0.06598097
120	0x3edef769	0.43548134
121	0xbe15d17b	-0.14630692
122	0xbdb4e2c5	-0.08832315
123	0xbf3de4ad	-0.74177057
124	0x3e8201c4	0.25391972
125	0x3e861b1f	0.26192567
126	0x3d8ce278	0.06879133
127	0xbdd0e61a	-0.102001384

decoder.0.bias f4 [32]
0	0xbe26eeb2	-0.16301993
1	0xbeed6fc0	-0.4637432
2	0x3ea4f999	0.32221678
3	0xbecc6b1d	-0.3992547
4	0x3eaaf2b2	0.33388287
5	0x3ef7866d	0.48344746
6	0xbe80feea	-0.25194484
7	0x3e2d78cb	0.1694061
8	0x3e89a1f6	0.2688138
9	0xbe8bd7c1	-0.27313045
10	0x3ecb76b1	0.39738992
11	0x3b38cfea	0.0028200098
12	0xbe78bf97	-0.24291836
13	0x3d21d76c	0.039512083
14	0x3d7a463e	0.061102144
15	0x3e623d03	0.22093587
16	0x3e01b6e8	0.1266743
17	0xbf18dff3	-0.5971672
18	0xbea38c1e	-0.31942838
19	0xbebb9648	-0.36638093
20	0x3ea18f51	0.31554654
21	0x3e9f5777	0.31121418
22	0xbec4bad9	-0.38423803
23	0xbe2b5386	-0.1673108
24	0xbe6013c6	-0.21882543
25	0xbe50a7c8	-0.20376503
26	0x3ddf29dc	0.10896656
27	0x3da83ac8	0.08214337
28	0x3e895c27	0.2682812
29	0xbebab440	-0.36465645
30	0x3d267e17	0.040647592
31	0x3ecb8321	0.3974848

decoder.2.weight f4 [1, 32]
0	0x3f6171fd	0.8806456
1	0xbceda4d1	-0.029009255
2	0x3e1e16d4	0.15438396
3	0x3de7d182	0.11319257
4	0x3e000ddd	0.12505288
5	0xbceb39b4	-0.028714038
6	0xbdafbd5e	-0.08581041
7	0xbeb2dc6d	-0.34933797
8	0xbf2b7892	-0.6698085
9	0x3f776686	0.96640813
10	0x3da708d1	0.081559785
11	0xbdf3a745	-0.118971385
12	0x3f80ce87	1.0063027
13	0x3e1a770d	0.15084477
14	0x3e090b98	0.13383329
15	0xbddd4a47	-0.10805183
16	0x3f614b97	0.88005966
17	0xc0140745	-2.3129437
18	0xbd3eee61	-0.046614055
19	0x3deaa40e	0.11457072
20	0x3b82b0fe	0.0039883843
21	0x3c5c9b08	0.013464697
22	0xbd0581ee	-0.032594614
23	0x3e0ea621	0.1393056
24	0xbd855a0c	-0.06511316
25	0x3d82a381	0.06378842
26	0x3e251d5b	0.1612448
27	0xbcc220ad	-0.023697222
28	0xbd8f7192	-0.07004084
29	0x3d35aab9	0.044352267
30	0x3d8771e7	0.06613522
31	0x3e29da4f	0.16587184

exp_avg f4 [32]
0	0x39d1f6f7	0.0004004759
1	0x00000000	0.0
2	0x00000000	0.0
3	0x399a2994	0.00029404147
4	0xb5da515b	-1.6265943e-06
5	0x00000000	0.0
6	0x00000000	0.0
7	0x00000000	0.0
8	0x00000000	0.0
9	0xb9baa33d	-0.00035598307
10	0x00000000	0.0
11	0xb822dccf	-3.8829454e-05
12	0xba035a5f	-0.000501072
13	0xb9bc81f7	-0.00035954986
14	0x00000000	0.0
15	0xb9c004cd	-0.0003662467
16	0x00000004	6e-45
17	0x00000000	0.0
18	0x00000000	0.0
19	0x38f709fb	0.00011779737
20	0x39b28d7d	0.00034056223
21	0x00000000	0.0
22	0x00000000	0.0
23	0x39bdeeca	0.000362268
24	0x39019570	0.00012358068
25	0x3a1654fa	0.00057347084
26	0x00000000	0.0
27	0x00000000	0.0
28	0x398f22c2	0.00027300982
29	0x00000000	0.0
30	0xb99292ac	-0.0002795657
31	0x39026959	0.00012437011

exp_avg_sq f4 [32]
0	0x35b9f214	1.3854028e-06
1	0x00000000	0.0
2	0x00000000	0.0
3	0x35436171	7.2784957e-07
4	0x3039a8dd	6.7542577e-10
5	0x00000000	0.0
6	0x00000000	0.0
7	0x00000000	0.0
8	0x00000000	0.0
9	0x3580550e	9.561497e-07
10	0x00000000	0.0
11	0x348988b1	2.5617695e-07
12	0x35fcf7c5	1.8847574e-06
13	0x35855d67	9.936456e-07
14	0x00000000	0.0
15	0x35ba4742	1.3878819e-06
16	0x15275970	3.3795935e-26
17	0x00000000	0.0
18	0x00000000	0.0
19	0x33f9d9d7	1.1634591e-07
20	0x35851101	9.914221e-07
21	0x00000000	0.0
22	0x00000000	0.0
23	0x35ab5d33	1.2767617e-06
24	0x3412463f	1.3622865e-07
25	0x367ef4fd	3.7991551e-06
26	0x00000000	0.0
27	0x00000000	0.0
28	0x3563e341	8.489479e-07
29	0x00000000	0.0
30	0x352947c1	6.306182e-07
31	0x35456a54	7.3542947e-07

exp_avg f4 [32, 1]
0	0x39077939	0.00012919762
1	0x00000000	0.0
2	0x00000000	0.0
3	0x38d6406e	0.00010216316
4	0x33df6724	1.0403008e-07
5	0x00000000	0.0
6	0x00000000	0.0
7	0x00000000	0.0
8	0x00000000	0.0
9	0xb9125e26	-0.00013958718
10	0x00000000	0.0
11	0x369afb7a	4.6188334e-06
12	0xb94b85e4	-0.00019409467
13	0xb91e4603	-0.00015094136
14	0x00000000	0.0
15	0xb90ac152	-0.00013232723
16	0x00000004	6e-45
17	0x00000000	0.0
18	0x00000000	0.0
19	0x383b147d	4.4603355e-05
20	0x38df5f50	0.00010651222
21	0x00000000	0.0
22	0x00000000	0.0
23	0x38d50244	0.000101570535
24	0x3810ebfc	3.4552053e-05
25	0x39c0a208	0.00036741816
26	0x00000000	0.0
27	0x00000000	0.0
28	0x3896bb9e	7.187504e-05
29	0x00000000	0.0
30	0xb8ec904d	-0.00011280235
31	0x3777867e	1.4753661e-05

exp_avg_sq f4 [32, 1]
0	0x341151ed	1.3533982e-07
1	0x00000000	0.0
2	0x00000000	0.0
3	0x33b8b8b4	8.601765e-08
4	0x2a253e31	1.4676521e-13
5	0x00000000	0.0
6	0x00000000	0.0
7	0x00000000	0.0
8	0x00000000	0.0
9	0x3412ef46	1.3684357e-07
10	0x00000000	0.0
11	0x331f2129	3.705023e-08
12	0x348cd165	2.6229387e-07
13	0x34372318	1.705597e-07
14	0x00000000	0.0
15	0x3413d657	1.3768418e-07
16	0x1473e5bb	1.2313671e-26
17	0x00000000	0.0
18	0x00000000	0.0
19	0x3291b6e0	1.6963384e-08
20	0x33c2f6e3	9.0787374e-08
21	0x00000000	0.0
22	0x00000000	0.0
23	0x33cdf147	9.5899445e-08
24	0x322ca2f5	1.004877e-08
25	0x35cefb45	1.5421325e-06
26	0x00000000	0.0
27	0x00000000	0.0
28	0x33794323	5.803589e-08
29	0x00000000	0.0
30	0x33c4ca80	9.163796e-08
31	0x34468cf0	1.849146e-07

exp_avg f4 [4]
0	0x3a0ced9e	0.0005375984
1	0xb7d1e608	-2.5021858e-05
2	0x39808df0	0.00024519814
3	0x3a0b8c55	0.00053233403

exp_avg_sq f4 [4]
0	0x361d66a1	2.345456e-06
1	0x32bac8a8	2.1744498e-08
2	0x358649a7	1.0005214e-06
3	0x3641a7fc	2.885702e-06

exp_avg f4 [4, 32]
0	0x38efc06c	0.000114322494
1	0x00000000	0.0
2	0x00000000	0.0
3	0x38d6c304	0.0001024064
4	0xb6026226	-1.942864e-06
5	0x00000000	0.0
6	0x00000000	0.0
7	0x00000000	0.0
8	0x00000000	0.0
9	0x380cb31f	3.354542e-05
10	0x00000000	0.0
11	0x388a7fe2	6.604173e-05
12	0x38494947	4.799038e-05
13	0x38696566	5.5645964e-05
14	0x00000000	0.0
15	0x38986bbf	7.267994e-05
16	0x80000004	-6e-45
17	0x00000000	0.0
18	0x00000000	0.0
19	0x390df5b3	0.00013538338
20	0x388f6517	6.837601e-05
21	0x00000000	0.0
22	0x00000000	0.0
23	0x38bda83d	9.043559e-05
24	0x387b38a2	5.9895807e-05
25	0x37718e8c	1.4397909e-05
26	0x00000000	0.0
27	0x00000000	0.0
28	0x3907256c	0.00012888544
29	0x00000000	0.0
30	0x38052398	3.174282e-05
31	0x382d90a6	4.138113e-05
32	0xb6728a3e	-3.6141278e-06
33	0x00000000	0.0
34	0x00000000	0.0
35	0xb688267f	-4.0575974e-06
36	0x3548ac01	7.4756105e-07
37	0x00000000	0.0
38	0x00000000	0.0
39	0x00000000	0.0
40	0x00000000	0.0
41	0x33b898f3	8.595989e-08
42	0x00000000	0.0
43	0xb20398f4	-7.659981e-09
44	0x33f7e5e1	1.15436485e-07
45	0x3411c6af	1.3576458e-07
46	0x00000000	0.0
47	0x3427d75c	1.5631434e-07
48	0x80000004	-6e-45
49	0x00000000	0.0
50	0x00000000	0.0
51	0xb6a95498	-5.0464405e-06
52	0xb5c26129	-1.4482404e-06
53	0x00000000	0.0
54	0x00000000	0.0
55	0xb587a97c	-1.010761e-06
56	0xb52ae54e	-6.366362e-07
57	0x35a220b8	1.2079463e-06
58	0x00000000	0.0
59	0x00000000	0.0
60	0xb6642f91	-3.4002335e-06
61	0x00000000	0.0
62	0x33b586ec	8.4530114e-08
63	0x35914a40	1.0824951e-06
64	0x3881df92	6.1928426e-05
65	0x00000000	0.0
66	0x00000000	0.0
67	0x3858b933	5.1670893e-05
68	0xb65aedde	-3.2622988e-06
69	0x00000000	0.0
70	0x00000000	0.0
71	0x00000000	0.0
72	0x00000000	0.0
73	0x37bf853a	2.2831013e-05
74	0x00000000	0.0
75	0x38371991	4.365441e-05
76	0x3809053b	3.2668217e-05
77	0x381ed918	3.787232e-05
78	0x00000000	0.0
79	0x384f83ec	4.9475508e-05
80	0x80000004	-6e-45
81	0x00000000	0.0
82	0x00000000	0.0
83	0x38925bec	6.978944e-05
84	0x3829399a	4.0346386e-05
85	0x00000000	0.0
86	0x00000000	0.0
87	0x386fbf28	5.716007e-05
88	0x381f3619	3.7958936e-05
89	0x37592639	1.2943107e-05
90	0x00000000	0.0
91	0x00000000	0.0
92	0x3898ec18	7.291901e-05
93	0x00000000	0.0
94	0x37b54a4d	2.161148e-05
95	0x3813b8e1	3.5219713e-05
96	0x38cb150c	9.6837146e-05
97	0x00000000	0.0
98	0x00000000	0.0
99	0x38c299e3	9.2793045e-05
100	0x3589c251	1.0263849e-06
101	0x00000000	0.0
102	0x00000000	0.0
103	0x00000000	0.0
104	0x00000000	0.0
105	0x37af4b8d	2.0896807e-05
106	0x00000000	0.0
107	0x38351fac	4.318326e-05
108	0x37faaa4f	2.9881629e-05
109	0x381160d9	3.466089e-05
110	0x00000000	0.0
111	0x383dc597	4.524513e-05
112	0x80000004	-6e-45
113	0x00000000	0.0
114	0x00000000	0.0
115	0x38fc54f7	0.00012032122
116	0x385ccfb0	5.264551e-05
117	0x00000000	0.0
118	0x00000000	0.0
119	0x38854062	6.3539264e-05
120	0x382fc810	4.1909574e-05
121	0x36683df0	3.4606746e-06
122	0x00000000	0.0
123	0x00000000	0.0
124	0x38da9e43	0.000104245286
125	0x00000000	0.0
126	0x37a5c90b	1.976315e-05
127	0x376b9a05	1.4042952e-05

exp_avg_sq f4 [4, 32]
0	0x33df0309	1.0384799e-07
1	0x00000000	0.0
2	0x00000000	0.0
3	0x33b26ae9	8.308218e-08
4	0x32405fb7	1.1197634e-08
5	0x00000000	0.0
6	0x00000000	0.0
7	0x00000000	0.0
8	0x00000000	0.0
9	0x3214f0e1	8.669503e-09
10	0x00000000	0.0
11	0x330db8be	3.2997143e-08
12	0x3297a4e5	1.7653699e-08
13	0x32ce207b	2.3996327e-08
14	0x00000000	0.0
15	0x332ac9d4	3.976477e-08
16	0x13e16d2d	5.690564e-27
17	0x00000000	0.0
18	0x00000000	0.0
19	0x341b3ef6	1.4458405e-07
20	0x3323ef4a	3.8169027e-08
21	0x00000000	0.0
22	0x00000000	0.0
23	0x33901acf	6.710399e-08
24	0x32f99d99	2.9059082e-08
25	0x30d18524	1.5244592e-09
26	0x00000000	0.0
27	0x00000000	0.0
28	0x340f9858	1.3373335e-07
29	0x00000000	0.0
30	0x3206292d	7.809189e-09
31	0x32634ca9	1.32305695e-08
32	0x303d5dd8	6.889116e-10
33	0x00000000	0.0
34	0x00000000	0.0
35	0x30336a75	6.5271105e-10
36	0x302f15ac	6.3695427e-10
37	0x00000000	0.0
38	0x00000000	0.0
39	0x00000000	0.0
40	0x00000000	0.0
41	0x2e7f8e88	5.810688e-11
42	0x00000000	0.0
43	0x2f6747ef	2.1034884e-10
44	0x2f0226d2	1.1837223e-10
45	0x2f311a0e	1.6107313e-10
46	0x00000000	0.0
47	0x2f927630	2.6641223e-10
48	0x1361fc5d	2.8523417e-27
49	0x00000000	0.0
50	0x00000000	0.0
51	0x309328f5	1.0707298e-09
52	0x2f75499b	2.230877e-10
53	0x00000000	0.0
54	0x00000000	0.0
55	0x2fd97c02	3.9560183e-10
56	0x2f3d139d	1.7196418e-10
57	0x2e0c9a91	3.1969597e-11
58	0x00000000	0.0
59	0x00000000	0.0
60	0x306044d8	8.158856e-10
61	0x00000000	0.0
62	0x2e662e81	5.233725e-11
63	0x2f1c3344	1.420633e-10
64	0x3345005a	4.5867957e-08
65	0x00000000	0.0
66	0x00000000	0.0
67	0x33170ee9	3.5170988e-08
68	0x330089dc	2.9927705e-08
69	0x00000000	0.0
70	0x00000000	0.0
71	0x00000000	0.0
72	0x00000000	0.0
73	0x31d548c4	6.2073884e-09
74	0x00000000	0.0
75	0x32bef81e	2.2231742e-08
76	0x32592f9b	1.2641887e-08
77	0x3293b0b3	1.7193406e-08
78	0x00000000	0.0
79	0x32f47d02	2.8462185e-08
80	0x12b7442b	1.1565728e-27
81	0x00000000	0.0
82	0x00000000	0.0
83	0x33845465	6.16208e-08
84	0x32a38aa4	1.9038744e-08
85	0x00000000	0.0
86	0x00000000	0.0
87	0x3329524b	3.9423224e-08
88	0x3293c407	1.7202195e-08
89	0x30f2eeaa	1.767565e-09
90	0x00000000	0.0
91	0x00000000	0.0
92	0x33868c81	6.265419e-08
93	0x00000000	0.0
94	0x31c0219a	5.5917555e-09
95	0x326020db	1.30459865e-08
96	0x33d50348	9.919182e-08
97	0x00000000	0.0
98	0x00000000	0.0
99	0x33c38c9f	9.105974e-08
100	0x30c1410d	1.4061087e-09
101	0x00000000	0.0
102	0x00000000	0.0
103	0x00000000	0.0
104	0x00000000	0.0
105	0x317b6e73	3.658809e-09
106	0x00000000	0.0
107	0x3288a176	1.5905908e-08
108	0x31ffe5cf	7.447603e-09
109	0x322dc31d	1.0114289e-08
110	0x00000000	0.0
111	0x32902f3f	1.6785291e-08
112	0x142eb902	8.8212414e-27
113	0x00000000	0.0
114	0x00000000	0.0
115	0x34233f83	1.5203663e-07
116	0x33002fd8	2.9845836e-08
117	0x00000000	0.0
118	0x00000000	0.0
119	0x3331c6b8	4.1391758e-08
120	0x32980a44	1.7699797e-08
121	0x2e9dc2b9	7.174123e-11
122	0x00000000	0.0
123	0x00000000	0.0
124	0x33f6c9fb	1.1492008e-07
125	0x00000000	0.0
126	0x316276b3	3.29548e-09
127	0x3100e707	1.8757775e-09

exp_avg f4 [32, 4]
0	0x3873ae18	5.8097852e-05
1	0xb7cf4ef5	-2.471309e-05
2	0xb87bba7e	-6.0016748e-05
3	0x36e16ec5	6.718418e-06
4	0x00000000	0.0
5	0x00000000	0.0
6	0x00000000	0.0
7	0x00000000	0.0
8	0x376a7fd3	1.3977248e-05
9	0xb68a2afc	-4.1177245e-06
10	0xb744a9d4	-1.1722052e-05
11	0x36b41682	5.3670383e-06
12	0x80000004	-6e-45
13	0x80000004	-6e-45
14	0x00000004	6e-45
15	0x80000004	-6e-45
16	0x37410051	1.150377e-05
17	0xb6656fab	-3.4188658e-06
18	0xb721602a	-9.618738e-06
19	0x369629d2	4.475217e-06
20	0xb6301a48	-2.6241341e-06
21	0x354ff682	7.7472225e-07
22	0x3612dcde	2.1884257e-06
23	0xb589e4ab	-1.0273847e-06
24	0x80000004	-6e-45
25	0x80000004	-6e-45
26	0x00000004	6e-45
27	0x80000004	-6e-45
28	0xb7fa2063	-2.9817404e-05
29	0x375b1dec	1.3060384e-05
30	0x37dcb985	2.6312433e-05
31	0xb73d7218	-1.1291842e-05
32	0xb838b77e	-4.403991e-05
33	0xb59db189	-1.1749081e-06
34	0x3820c4fc	3.833043e-05
35	0xb7b9a5c3	-2.2130907e-05
36	0x388d2605	6.7304856e-05
37	0xb7bd6cf9	-2.25813e-05
38	0xb892a0e2	-6.991789e-05
39	0x3706123a	7.991266e-06
40	0x36f8d891	7.4161876e-06
41	0xb6128740	-2.1834421e-06
42	0xb6d0a996	-6.2186255e-06
43	0x363fc0ed	2.8573515e-06
44	0xb7298603	-1.0104387e-05
45	0x36947ac7	4.425037e-06
46	0x3715635a	8.904224e-06
47	0xb67cb3eb	-3.7655652e-06
48	0x388fccf5	6.8569476e-05
49	0xb7dd78fb	-2.6401589e-05
50	0xb895554b	-7.120761e-05
51	0x37050d10	7.930459e-06
52	0x3765962e	1.368443e-05
53	0xb687965f	-4.040819e-06
54	0xb7407894	-1.1472166e-05
55	0x36b08050	5.2601463e-06
56	0x36470f4e	2.966222e-06
57	0xb307472f	-3.1496878e-08
58	0xb52d8e6b	-6.465477e-07
59	0x3671de03	3.6041026e-06
60	0xb7059b95	-7.963642e-06
61	0x34bd2926	3.5233933e-07
62	0x36eac72c	6.99693e-06
63	0xb67bae4c	-3.7503369e-06
64	0x38817f07	6.17486e-05
65	0xb7c209ff	-2.3131257e-05
66	0xb886efe5	-6.434302e-05
67	0x36e8313a	6.9198695e-06
68	0xb8e3d055	-0.00010863008
69	0x38a8bb1c	8.045716e-05
70	0x38e49dd5	0.00010901286
71	0xb77c169f	-1.5025637e-05
72	0x00000000	0.0
73	0x00000000	0.0
74	0x00000000	0.0
75	0x00000000	0.0
76	0x80000004	-6e-45
77	0x80000004	-6e-45
78	0x00000004	6e-45
79	0x80000004	-6e-45
80	0x34f2603c	4.5146032e-07
81	0xb4200324	-1.4902304e-07
82	0xb4c7563b	-3.712938e-07
83	0x344f37fb	1.9298743e-07
84	0x35b178d0	1.3222689e-06
85	0xb4d91d2d	-4.0440628e-07
86	0xb593947a	-1.0995566e-06
87	0x350ee993	5.323902e-07
88	0x99134fdc	-7.615849e-24
89	0x180bb8aa	1.805856e-24
90	0x18152641	1.9277112e-24
91	0x99421641	-1.0034059e-23
92	0x364ecf32	3.0816996e-06
93	0xb529ef88	-6.330597e-07
94	0xb554f7e8	-7.9336905e-07
95	0x3687a5a5	4.042597e-06
96	0x80000004	-6e-45
97	0x00000004	6e-45
98	0x00000004	6e-45
99	0x80000004	-6e-45
100	0x80000004	-6e-45
101	0x00000004	6e-45
102	0x00000004	6e-45
103	0x80000004	-6e-45
104	0x36737aa1	3.62812e-06
105	0x34033707	1.2220345e-07
106	0xb55b1388	-8.161228e-07
107	0x3693c9d8	4.404439e-06
108	0xb604ed32	-1.9807599e-06
109	0x3515270b	5.556364e-07
110	0x35e19b64	1.6809031e-06
111	0xb5400a89	-7.1540904e-07
112	0xb6c39236	-5.828474e-06
113	0x3627e4b8	2.501807e-06
114	0x36a54b54	4.9261525e-06
115	0xb614882f	-2.2132988e-06
116	0x00000000	0.0
117	0x00000000	0.0
118	0x00000000	0.0
119	0x00000000	0.0
120	0x36c92718	5.994818e-06
121	0xb5edbf2c	-1.7713514e-06
122	0xb6a8ca84	-5.030366e-06
123	0x361a2306	2.2968175e-06
124	0x377d1e07	1.5086966e-05
125	0xb6959cff	-4.458823e-06
126	0xb7541712	-1.2641556e-05
127	0x36c30c79	5.812905e-06

exp_avg_sq f4 [32, 4]
0	0x32ff6f38	2.9736483e-08
1	0x326d5f1e	1.3816843e-08
2	0x33198195	3.5740943e-08
3	0x303c0a00	6.840821e-10
4	0x00000000	0.0
5	0x00000000	0.0
6	0x00000000	0.0
7	0x00000000	0.0
8	0x32e27a6a	2.636553e-08
9	0x310486b1	1.9285091e-09
10	0x3148741e	2.9169835e-09
11	0x33384ff9	4.2913573e-08
12	0x1d361335	2.409743e-21
13	0x17bd36fd	1.222772e-24
14	0x1b68c6e7	1.9254859e-22
15	0x1d909754	3.8272952e-21
16	0x328ce312	1.6401405e-08
17	0x30a62194	1.2087633e-09
18	0x30f9db43	1.8179452e-09
19	0x32e535dd	2.6683603e-08
20	0x308b7c2a	1.0148871e-09
21	0x2ea1482d	7.334253e-11
22	0x2ef687c3	1.1210901e-10
23	0x30e31768	1.6523076e-09
24	0x209b3127	2.6290548e-19
25	0x1b36fc96	1.5136302e-22
26	0x1eda29a0	2.3098864e-20
27	0x21006d98	4.3513133e-19
28	0x340b5f52	1.2980061e-07
29	0x3228fc2b	9.836223e-09
30	0x3269fd6a	1.3620005e-08
31	0x34649f22	2.1292047e-07
32	0x34fe5715	4.7374547e-07
33	0x32e3a888	2.6502917e-08
34	0x332b9763	3.9951725e-08
35	0x355806f4	8.047639e-07
36	0x331c103c	3.6336345e-08
37	0x328c6c22	1.6347318e-08
38	0x333b4277	4.359978e-08
39	0x30673511	8.411272e-10
40	0x31e9e7ae	6.8075314e-09
41	0x3009fec6	5.0202364e-10
42	0x304f4050	7.5397555e-10
43	0x323e553b	1.1078835e-08
44	0x32772234	1.4385069e-08
45	0x30956347	1.0869393e-09
46	0x30d2140f	1.5285212e-09
47	0x32ca552e	2.355463e-08
48	0x332af1cf	3.9801133e-08
49	0x329b289c	1.8062842e-08
50	0x334d74ed	4.7836625e-08
51	0x307b7505	9.1479563e-10
52	0x32d5b792	2.4879942e-08
53	0x30fad014	1.8249033e-09
54	0x313d5681	2.7552292e-09
55	0x332de0f7	4.0484306e-08
56	0x329d624c	1.8321906e-08
57	0x308deb51	1.0325981e-09
58	0x3095b59a	1.0892791e-09
59	0x330a79bc	3.2241346e-08
60	0x3248e9de	1.1694707e-08
61	0x3040082c	6.9860806e-10
62	0x309a4aa9	1.1226194e-09
63	0x32a7f2ba	1.9551738e-08
64	0x32f46d5e	2.8455073e-08
65	0x324c4ee2	1.1892299e-08
66	0x331496ef	3.459621e-08
67	0x3035ed05	6.618424e-10
68	0x340f09ff	1.332155e-07
69	0x33df57e5	1.04002346e-07
70	0x34263338	1.5478588e-07
71	0x313b42d2	2.7250064e-09
72	0x00000000	0.0
73	0x00000000	0.0
74	0x00000000	0.0
75	0x00000000	0.0
76	0x1e53a9ab	1.12053335e-20
77	0x188ee386	3.693588e-24
78	0x1c91a949	9.639054e-22
79	0x1eacc385	1.8292073e-20
80	0x2d4e6626	1.1732426e-11
81	0x2b478f00	7.0897455e-13
82	0x2bbb6bb0	1.3317038e-12
83	0x2da6f220	1.897954e-11
84	0x2ef735f3	1.1241843e-10
85	0x2d10a379	8.2217505e-12
86	0x2d5f9d99	1.2711076e-11
87	0x2f483399	1.8208225e-10
88	0x2472c5b7	5.2642856e-17
89	0x2177ae6e	8.391771e-19
90	0x229f8a1e	4.3243274e-18
91	0x24cdc189	8.923244e-17
92	0x32aa9cf8	1.9861986e-08
93	0x30977e46	1.1022585e-09
94	0x30a3701b	1.1891673e-09
95	0x3315d404	3.4884593e-08
96	0x1c3a6485	6.1672156e-22
97	0x15fc1f4e	1.0183138e-25
98	0x1a8b2695	5.7551385e-23
99	0x1c9c5a75	1.0346597e-21
100	0x1e694048	1.234821e-20
101	0x194c82cb	1.0572966e-23
102	0x1cb01bc3	1.1653879e-21
103	0x1ec4b900	2.0828821e-20
104	0x32e064ef	2.6122931e-08
105	0x30caa5f5	1.4744602e-09
106	0x30d546f0	1.5517951e-09
107	0x33456dac	4.5967383e-08
108	0x3061d431	8.2156065e-10
109	0x2e80587b	5.8364834e-11
110	0x2ec6f6cf	9.0478396e-11
111	0x30b7ea73	1.3381637e-09
112	0x31d88c56	6.3023817e-09
113	0x2ff9cbd0	4.5437654e-10
114	0x303ef12e	6.9464334e-10
115	0x32305a03	1.0265015e-08
116	0x00000000	0.0
117	0x00000000	0.0
118	0x00000000	0.0
119	0x00000000	0.0
120	0x31a430e1	4.778585e-09
121	0x2fc0a58f	3.5042233e-10
122	0x30117cc6	5.2928006e-10
123	0x32059448	7.775334e-09
124	0x33020e36	3.028091e-08
125	0x31188891	2.219654e-09
126	0x316669b1	3.3529484e-09
127	0x3353a17c	4.9274135e-08

exp_avg f4 [32]
0	0x3930f789	0.00016876882
1	0x00000000	0.0
2	0x37f91abb	2.969556e-05
3	0x00000004	6e-45
4	0x37cafa56	2.4196848e-05
5	0xb6b894ca	-5.5009486e-06
6	0x00000004	6e-45
7	0xb87da248	-6.0471037e-05
8	0xb8de0cc2	-0.00010588161
9	0x3959169f	0.0002070316
10	0x3783f8e4	1.5732316e-05
11	0xb7abd963	-2.0486017e-05
12	0x3957656d	0.00020541782
13	0x37f394df	2.903718e-05
14	0xb5e39b8d	-1.6958089e-06
15	0xb79e693f	-1.8884077e-05
16	0x39449e4a	0.00018750984
17	0xb9886282	-0.00026013335
18	0x00000000	0.0
19	0x00000004	6e-45
20	0x356a0ca6	8.71902e-07
21	0x3635b062	2.707377e-06
22	0x1922cb76	8.416292e-24
23	0xb661251e	-3.3549218e-06
24	0x00000004	6e-45
25	0x00000004	6e-45
26	0xb5e6e8f2	-1.7204131e-06
27	0xb693a4da	-4.4001326e-06
28	0xb73d7162	-1.1291677e-05
29	0x00000000	0.0
30	0x3755d7b2	1.274601e-05
31	0x38060e89	3.1961627e-05

exp_avg_sq f4 [32]
0	0x3489599b	2.5583435e-07
1	0x00000000	0.0
2	0x3337d74a	4.2803812e-08
3	0x1d91fd9d	3.864341e-21
4	0x32e4f327	2.6653266e-08
5	0x30e20093	1.6443827e-09
6	0x20efdb33	4.063323e-19
7	0x3459c514	2.0281396e-07
8	0x354d7fc5	7.655438e-07
9	0x34ade4cc	3.2390233e-07
10	0x323e3156	1.1070673e-08
11	0x32c24c09	2.261915e-08
12	0x34bc8232	3.5112458e-07
13	0x332d824d	4.039821e-08
14	0x32f575b3	2.8575277e-08
15	0x32a3c3d3	1.9064748e-08
16	0x348cb0c7	2.6205655e-07
17	0x354f8e48	7.7320556e-07
18	0x00000000	0.0
19	0x1ea41ebd	1.7376888e-20
20	0x2da0f069	1.8296658e-11
21	0x2f486276	1.8224874e-10
22	0x24b05ef6	7.64887e-17
23	0x33034e7e	3.0572203e-08
24	0x1c6713c5	7.645704e-22
25	0x1e84725b	1.402334e-20
26	0x332ef5bf	4.0736037e-08
27	0x30b642fd	1.3261282e-09
28	0x322effd3	1.0186301e-08
29	0x00000000	0.0
30	0x32054a3b	7.758497e-09
31	0x335327b2	4.916337e-08

exp_avg f4 [1, 32]
0	0x38128781	3.493531e-05
1	0x00000000	0.0
2	0x3835ea1b	4.337179e-05
3	0x00000004	6e-45
4	0x38d49f04	0.00010138567
5	0x383f24cf	4.557223e-05
6	0x80000004	-6e-45
7	0x388d2ce4	6.7317655e-05
8	0x387c1c5d	6.0107897e-05
9	0x37fc9cbf	3.0113732e-05
10	0x38935b1b	7.026476e-05
11	0x3803f000	3.145635e-05
12	0x38b66d2b	8.6987704e-05
13	0x38358674	4.3278982e-05
14	0xb747d5eb	-1.1911131e-05
15	0x3831c4f3	4.238351e-05
16	0x37cdd617	2.4537598e-05
17	0x37974486	1.8032511e-05
18	0x00000000	0.0
19	0x00000004	6e-45
20	0x38e00f8e	0.000106840496
21	0x38a17324	7.698525e-05
22	0x95a26115	-6.558445e-26
23	0xb5b1c595	-1.3245032e-06
24	0x80000004	-6e-45
25	0x00000004	6e-45
26	0xb7a460eb	-1.9595454e-05
27	0x384bfc18	4.8633752e-05
28	0x3881c5d6	6.188049e-05
29	0x00000000	0.0
30	0x3808036b	3.242811e-05
31	0x38b03f1d	8.40409e-05

exp_avg_sq f4 [1, 32]
0	0x32685c50	1.3525167e-08
1	0x00000000	0.0
2	0x35493332	7.4952834e-07
3	0x163ee00d	1.5418776e-25
4	0x33d2031c	9.7794526e-08
5	0x35ebde68	1.7573593e-06
6	0x1ccc65c1	1.352589e-21
7	0x357affa9	9.350429e-07
8	0x34824ee4	2.4271787e-07
9	0x3235403a	1.055019e-08
10	0x34904853	2.6874713e-07
11	0x344c5641	1.903036e-07
12	0x33abb586	7.995827e-08
13	0x34afa747	3.2718e-07
14	0x34d1d588	3.9084648e-07
15	0x349b3c5d	2.891492e-07
16	0x3182206f	3.7871852e-09
17	0x31ac63c6	5.0172018e-09
18	0x00000000	0.0
19	0x19d874b8	2.2381019e-23
20	0x348dcd9e	2.6412903e-07
21	0x33bb1858	8.712294e-08
22	0x2142f692	6.605609e-19
23	0x31285947	2.4497966e-09
24	0x14515c2f	1.05699835e-26
25	0x1474e261	1.2363497e-26
26	0x3578ca7d	9.268186e-07
27	0x32e86f66	2.7059013e-08
28	0x33e43cf5	1.06281654e-07
29	0x00000000	0.0
30	0x34a1bedb	3.0127453e-07
31	0x3487a906	2.526869e-07
