server_report/ae_hexa/ae_hexa_modified_bilinear/autoencoder_20260113_181331.pth (torch, 216228 bytes, 64 tensors)

enc1.kernel0 f4 [2, 1, 5, 1]
0	0xbf4e9b8f	-0.80706114
1	0xbdfcc5eb	-0.12342437
2	0xbcef2885	-0.029194126
3	0xbdfb68a1	-0.12275816
4	0xbf5d8ca0	-0.865427
5	0x3f2e8bb0	0.68181896
6	0x3f1e65bd	0.6187399
7	0xbd315569	-0.043294344
8	0x3f08a2fb	0.5337369
9	0x3f1fbadb	0.62394494

enc1.kernel1 f4 [2, 1, 4, 2]
0	0xbf110080	-0.5664139
1	0xbf32b68a	-0.6980978
2	0xbe5e9f24	-0.21740395
3	0xbd916608	-0.07099539
4	0xbe6eb9dd	-0.23313089
5	0xbcf5e78e	-0.03001764
6	0xbef0e304	-0.470482
7	0xbf6fc11f	-0.93654054
8	0x3f23d0a5	0.6399024
9	0x3eb4290e	0.35187572
10	0x3f32e94e	0.69887245
11	0x3efb94f6	0.49137086
12	0x3f0f1e8d	0.5590599
13	0x3f4c1127	0.7971367
14	0x3eee42ee	0.46535438
15	0x3f64806d	0.8925846

enc1.kernel2 f4 [2, 1, 3, 2]
0	0xbee1bd43	-0.44089708
1	0xbf58e18a	-0.84719145
2	0xbf19ce42	-0.6008035
3	0xbf728f5c	-0.9475
4	0xbed6175a	-0.4181469
5	0xbf543305	-0.8289035
6	0x3f1bfecf	0.6093568
7	0x3f2c3494	0.6726773
8	0x3f89771b	1.0739473
9	0x3f88bafc	1.0682063
10	0x3f453bde	0.77044475
11	0x3f425ace	0.75919807

enc1.bias_tensor f4 [2]
0	0x3c6f7477	0.01461517
1	0xbb8a04ad	-0.004211983

bn1.weight f4 [2]
0	0x3f2f6b22	0.68522847
1	0x3efb41d4	0.4907366

bn1.bias f4 [2]
0	0x3f3fe7cb	0.74963063
1	0x3f093e71	0.53610903

bn1.running_mean f4 [2]
0	0xbeff6016	-0.49877995
1	0x3f2dd42b	0.6790187

bn1.running_var f4 [2]
0	0x40c322da	6.0980043
1	0x41339db9	11.2260065

enc2.kernel0 f4 [1, 2, 3, 1]
0	0xbda9a5f0	-0.08283603
1	0xbf0902b8	-0.53519773
2	0xbec40a16	-0.38288945
3	0xbd033c07	-0.03203967
4	0x3ec28431	0.3799148
5	0x3e7f8acb	0.24955289

enc2.kernel1 f4 [1, 2, 2, 2]
0	0x3db7a862	0.08967663
1	0xbf47809c	-0.7793062
2	0x3dd871dc	0.10568592
3	0xbfbd3c4f	-1.478403
4	0xbe572b10	-0.21012521
5	0x3f18fbea	0.5975939
6	0xbe80d102	-0.2515946
7	0x3f4d5f59	0.80223614

fc_enc.weight f4 [64, 117]
0	0x3d24ae40	0.04020524
1	0x3e11645c	0.1419844
2	0xbdfaba39	-0.122425504
3	0x3c33ec1a	0.010981584
4	0x3e0f2eda	0.13982716
5	0xbee29ed6	-0.44261807
6	0xbcb0fb9a	-0.021604348
7	0x3e51a620	0.20473528
8	0xbe0b0c03	-0.13578801
9	0x3dffc06e	0.12487875
10	0x3d36af33	0.044600677
11	0x3e6c3b82	0.23069575
12	0x3c56e7f8	0.013116829
13	0x3dd3f3b5	0.10349218
14	0x3a682a55	0.00088564056
15	0xbdf4c0bd	-0.119508244
16	0xbdc0245a	-0.093819335
17	0x3dd57c53	0.104241036
18	0x3d8a4018	0.06750506
19	0x3d6ca7eb	0.057777327
20	0xbcd6df71	-0.026229592
21	0x3dbebd95	0.09313504
22	0xbceac4b8	-0.028658256
23	0x3e2a13b1	0.16609074
24	0x3f32aac6	0.6979183
25	0xbdb35b3b	-0.08757635
26	0x3e10b544	0.14131647
27	0xbe03a3ab	-0.12855403
28	0x3dde8825	0.10865811
29	0x3c399454	0.011326868
30	0x3dc989d4	0.09840742
31	0xbe85d09a	-0.26135713
32	0x3e274c6b	0.16337745
33	0x3e06fe7d	0.13183017
34	0xbe19d013	-0.1502078
35	0xbded83e8	-0.11597425
36	0x3dcac8eb	0.09901603
37	0xbd415e1c	-0.04720889
38	0xbd3029d0	-0.043008626
39	0xbe10a128	-0.14123976
40	0x3d9a8f6e	0.07546888
41	0x3dc8cb21	0.09804369
42	0x3c9368a7	0.017994238
43	0x3e02c727	0.12771283
44	0x3d9e0370	0.077154994
45	0x3d919813	0.07109084
46	0xbdb04619	-0.0860712
47	0xbdb65949	-0.089037485
48	0x3e6a5af4	0.22886258
49	0xbef4e615	-0.4783179
50	0xbdd0f433	-0.10202827
51	0x3d8752ab	0.066075645
52	0x3dee6c66	0.11641769
53	0x3e0ee858	0.1395582
54	0xbe1e7aa0	-0.15476465
55	0x3d0a8c3f	0.033825155
56	0xbcfaaf86	-0.030601274
57	0xbd863bb5	-0.06554357
58	0x3c63dcff	0.01390767
59	0xbe9b3773	-0.30315742
60	0x3dbd072e	0.09229885
61	0xbe3845b8	-0.17995346
62	0x3ebc1844	0.36737263
63	0xbe1ee902	-0.15518573
64	0x3c897a61	0.016781988
65	0xbecc04b0	-0.39847326
66	0x3e9a696e	0.3015856
67	0xbe689a12	-0.22715023
68	0x3eb012b9	0.34389284
69	0x3e0ecfeb	0.13946502
70	0xbe5f6346	-0.21815214
71	0xbdb0a1f5	-0.08624641
72	0x3d06c32f	0.032900985
73	0x3e5037b5	0.2033375
74	0xbdae93dc	-0.08524296
75	0xbc033381	-0.008007885
76	0xbe0e36e4	-0.13888127
77	0xbd60ff35	-0.054930884
78	0xbea78068	-0.32715154
79	0x3df85c3f	0.121269695
80	0xbe232bdf	-0.15934704
81	0x3c6eaab6	0.014567068
82	0x3cd7fce8	0.026365712
83	0x3dd36149	0.1032129
84	0x3cc5d23a	0.024148095
85	0x3e45ec1f	0.19328354
86	0x3e4f80cd	0.20263977
87	0x3d64675e	0.05576264
88	0x3e2203f1	0.15821816
89	0x3f2263fb	0.6343381
90	0x3d7b8df3	0.06141467
91	0x3dda339d	0.10654376
92	0xbf35bc55	-0.70990497
93	0xbe2acb4a	-0.16679111
94	0x3e7b09ea	0.245155
95	0xbdeb7e40	-0.1149869
96	0xbe5a76c0	-0.21334362
97	0xbe255f88	-0.16149724
98	0x3da7b062	0.08187939
99	0x3d8ea6f7	0.0696544
100	0x3df4f94a	0.119616106
101	0x3e00add3	0.12566309
102	0x3e83ee2c	0.25767648
103	0xbbc04f03	-0.005868794
104	0x3debf955	0.11522166
105	0x3d854507	0.065073065
106	0xbe7248b1	-0.23660542
107	0xbd5bff0e	-0.053710036
108	0xbe13fa44	-0.14450938
109	0x3db62755	0.08894221
110	0xbdd518bd	-0.10405109
111	0xbd2fab51	-0.04288799
112	0x3d994952	0.07484688
113	0x3cfbf24b	0.030755183
114	0xbf1eb0e4	-0.61988664
115	0x3ddf2ae7	0.10896855
116	0x3ce5739c	0.028009228
117	0x3e206acc	0.1566574
118	0x3f9c14b7	1.2193822
119	0xbef0538f	-0.4693875
120	0xbd2db0c6	-0.042404912
121	0x3e551a80	0.2081089
122	0xbd3da982	-0.046304233
123	0x3d660d12	0.05616481
124	0x3e0d63fd	0.13807674
125	0x3e6615ab	0.22469203
126	0x3d1a7069	0.03770486
127	0xbdcaad87	-0.09896379
128	0x3fb1c134	1.3887086
129	0x3d230320	0.039797902
130	0x3ed6c06e	0.41943687
131	0xbdd2d4ce	-0.102944955
132	0x3e3b37e2	0.18283036
133	0x3db3c3e1	0.08777595
134	0xbd2354a6	-0.03987565
135	0x3d243d61	0.040097598
136	0xbca94a84	-0.020665415
137	0x3cd876e8	0.026423886
138	0x3e243ce8	0.16038859
139	0xbdea7c12	-0.11449446
140	0xbd516b95	-0.05112799
141	0x3ef2ec69	0.47445992
142	0xbd83e90e	-0.06440936
143	0x3efbde12	0.49192864
144	0x3e077585	0.13228424
145	0xbe229952	-0.158788
146	0xbd66bb9a	-0.056331255
147	0xbe788d4d	-0.24272652
148	0xbe6d2484	-0.23158461
149	0xbdf7dc74	-0.12102595
150	0xbdf1ebdd	-0.118125655
151	0xbe3f84c8	-0.18702996
152	0x3db71b2b	0.08940729
153	0x3d9a6068	0.07537919
154	0xbd4bb5ee	-0.04973405
155	0x3da7ad72	0.08187379
156	0xbde5b1c7	-0.11215549
157	0x3e1c32b8	0.15253723
158	0xbe1d54c9	-0.15364374
159	0x3ec0004a	0.3750022
160	0x3ebb0ad1	0.3653169
161	0xbe8c1da0	-0.27366352
162	0x3e7f2ecf	0.249202
163	0x3dc5f1e0	0.096652746
164	0xbd173dee	-0.036924295
165	0xbe3aaf6b	-0.18230979
166	0x3d8592d1	0.06522144
167	0x3c10574c	0.008809876
168	0xbd5ff25f	-0.054674502
169	0xbdb90256	-0.09033649
170	0xbe34dbff	-0.17662047
171	0x3d1a9261	0.037737254
172	0xbecaaed9	-0.39586523
173	0x3e0f352c	0.13985127
174	0x3d4281dc	0.047487125
175	0xbe9afd13	-0.30271205
176	0x3df9924a	0.121861055
177	0x3eac660e	0.33671612
178	0x3cd72323	0.026261872
179	0xbe31029b	-0.1728615
180	0xbdb42e3f	-0.08797883
181	0xbc1b3a1f	-0.009474306
182	0x3e8c4759	0.27398184
183	0x3d53da70	0.05172199
184	0x3dd06be1	0.10176826
185	0x3da2d7f6	0.079513475
186	0xbcf46d4c	-0.029837273
187	0x3e1951a2	0.14972547
188	0x3d10bf30	0.03533858
189	0xbda04a68	-0.07826692
190	0x3cf559c3	0.029950028
191	0xbdb56bc1	-0.08858443
192	0xbd37c032	-0.044861026
193	0x3ee364ef	0.44412944
194	0x3c54938b	0.01297463
195	0x3e112bf8	0.14176929
196	0xbe0b3057	-0.13592659
197	0xbe46d3ea	-0.19416776
198	0xbe72e188	-0.23718846
199	0xbe34a4d5	-0.17641003
200	0xbd850ec6	-0.064969584
201	0x3d70c6e3	0.058783423
202	0xbda697a3	-0.08134391
203	0x3b297d18	0.0025861915
204	0x3e5106c1	0.20412733
205	0x3dcf8240	0.10132265
206	0x3f25c2bf	0.64750284
207	0x3e105d5a	0.14098111
208	0x3f060fa3	0.5236761
209	0x3eb71a2c	0.35762155
210	0x3e2a3181	0.16620447
211	0x3e388508	0.18019497
212	0x3e8b930e	0.2726063
213	0x3e655c50	0.22398496
214	0xbe2a1d6e	-0.16612789
215	0x3deace69	0.11465151
216	0xbe1cb537	-0.15303503
217	0xbe523bf6	-0.20530686
218	0x3e7149aa	0.23563257
219	0x3f9cc9ef	1.2249125
220	0xbd54736a	-0.05186788
221	0x3ecefbb9	0.40426424
222	0x3d994c4a	0.07485254
223	0xbc8bfe13	-0.017088925
224	0x3d1daae1	0.03849304
225	0xbdfe43cb	-0.12415274
226	0xbf05a903	-0.52211016
227	0x3d9ed98b	0.07756337
228	0xbe2f6c0d	-0.17131062
229	0x3e4c36e6	0.19942817
230	0x3ed070f9	0.4071119
231	0x3f84f413	1.0386986
232	0xbc981cf8	-0.0185685
233	0x3d690816	0.056892477
234	0x3e7844d1	0.24245001
235	0x3fba3568	1.4547548
236	0xbe37fbbf	-0.17967127
237	0x3e1c2e88	0.15252125
238	0xbd7888ce	-0.060677342
239	0x3e0c44f3	0.13698177
240	0xbed8308c	-0.42224538
241	0xb9a8a79d	-0.0003216834
242	0x3b254f36	0.0025224215
243	0x3d967012	0.073455945
244	0x3e92d023	0.2867442
245	0x3fbfb879	1.4978172
246	0x3c100506	0.00879026
247	0x3ebe82af	0.3720908
248	0xbdb6e194	-0.08929744
249	0x3e836e31	0.25670007
250	0x3d07f115	0.033188898
251	0xbe29d826	-0.1658636
252	0x3d785177	0.060624566
253	0x3dd31da9	0.103083916
254	0xbe8c9391	-0.27456334
255	0x3daa7699	0.08323402

fc_enc.bias f4 [64]
0	0x3c34f030	0.011043593
1	0xbe3cd68b	-0.18441217
2	0xbd84b744	-0.06480268
3	0xbc748f02	-0.014926674
4	0x3d9b2d90	0.0757705
5	0x3d853a85	0.06505302
6	0xbdb711b4	-0.089389235
7	0x3d50f296	0.051012598
8	0xbd98c681	-0.074597366
9	0xbdb935e7	-0.09043484
10	0xbda6473f	-0.08119058
11	0xbe69248d	-0.2276785
12	0x3c7a7fa2	0.015289219
13	0x3db7d426	0.08976011
14	0xbe6261ed	-0.22107668
15	0xbb8a5b5f	-0.004222318
16	0xbdbee0f4	-0.0932025
17	0x3e485e7b	0.19567291
18	0x3e49721f	0.1967244
19	0xbda304ef	-0.079599254
20	0xbe1cf711	-0.15328623
21	0xbd00e13b	-0.031464797
22	0xbcb9ec42	-0.022695664
23	0x3de7d8e4	0.113206655
24	0x3e0f0e18	0.1397022
25	0xbe616c62	-0.22014001
26	0xbd01c3a0	-0.031680703
27	0x3e0e0b0d	0.13871403
28	0xbd08a6f1	-0.033362333
29	0x3e526ed6	0.20550093
30	0x3cef9b1b	0.029248765
31	0x3e0eac44	0.13932902
32	0x3bc1eda0	0.0059182197
33	0xbdbcd2c1	-0.092198856
34	0x3d245c43	0.04012705
35	0xbe3202ae	-0.17383835
36	0xbe163045	-0.14666851
37	0x3d171177	0.03688189
38	0x3cfe62ea	0.031053025
39	0xbe42cb81	-0.19022943
40	0xbe0483fa	-0.1294097
41	0xbe06e497	-0.13173138
42	0x3d50a3e1	0.050937537
43	0x3cca2c26	0.024679255
44	0xbd323d09	-0.04351524
45	0x3d2a8a97	0.041636076
46	0x3d1bba08	0.03801921
47	0xbcfb5a78	-0.030682787
48	0xbdcd9a09	-0.100391455
49	0x3de99aed	0.11406503
50	0x3e40361e	0.18770644
51	0xbb5c1738	-0.0033583175
52	0xbe3bd5ef	-0.18343328
53	0xbe241d96	-0.16026911
54	0x3d1469f5	0.03623386
55	0xbc8a068f	-0.01684883
56	0xbd7fa0af	-0.0624091
57	0x3dbcbabc	0.09215304
58	0x3d9dc8c0	0.07704306
59	0x3da24d5a	0.0792491
60	0xbe7acd54	-0.24492389
61	0xbca609ec	-0.020268403
62	0x3d2faef2	0.04289145
63	0xbde6487b	-0.11244293

fc_dec.weight f4 [117, 64]
0	0xbdcf1eff	-0.10113334
1	0xba8c7036	-0.0010714594
2	0x3e816758	0.25274158
3	0x3cf1b762	0.029506389
4	0x3dd5fdd9	0.10448808
5	0xbdc1d504	-0.09464458
6	0x3db82ba8	0.08992702
7	0xbdaaa712	-0.083326474
8	0xbede9334	-0.43471682
9	0x3de479bb	0.11156031
10	0x3e72f165	0.23724897
11	0xbb905d6c	-0.004405668
12	0xbdd27f5f	-0.102782
13	0xbbe9f912	-0.007140287
14	0xbccff3e8	-0.025384858
15	0x3c9e2166	0.019303035
16	0x3d1cbd98	0.03826675
17	0x3b8db44b	0.004324471
18	0xbce307db	-0.027713707
19	0x3dd11cf3	0.102106
20	0x3dd45292	0.103673115
21	0x3e280f35	0.16412051
22	0x3d85d3d9	0.06534547
23	0xbc01ecc9	-0.007929989
24	0xbea828d3	-0.32843646
25	0xbe5f3357	-0.21796928
26	0x3d021b7c	0.031764492
27	0xbde0b101	-0.10971261
28	0xbdae2508	-0.08503157
29	0xbe250a43	-0.16117196
30	0xbe490951	-0.1963246
31	0xbe0caf1e	-0.13738677
32	0x3ce6eb55	0.028188387
33	0x3e1d9618	0.15389287
34	0xbda03c0d	-0.07823954
35	0xbe707f19	-0.23485984
36	0x3e1f7f71	0.15575959
37	0xbe11c381	-0.14234735
38	0x3e3cf71f	0.18453644
39	0xbd67cc11	-0.056591097
40	0xbda3de01	-0.08001328
41	0x3cb3bb20	0.021939814
42	0x3e06ab36	0.1315125
43	0x3dabd844	0.08390859
44	0xbd2f534a	-0.04280404
45	0x3e40e00d	0.18835469
46	0xbe442102	-0.19153216
47	0x3c9fbc08	0.01949884
48	0x3e374287	0.17896472
49	0xbdca97c9	-0.09892232
50	0x3d73b52f	0.059498962
51	0x3cb1f93e	0.021725293
52	0x3d93e91c	0.072221965
53	0x3cc5603e	0.024093743
54	0x3b9e78e1	0.004836187
55	0x3e35eddc	0.17766517
56	0x3d837925	0.06419591
57	0xbe56d8b6	-0.20981106
58	0x3cb21f9d	0.02174359
59	0xbe311789	-0.17294134
60	0xbddb9c28	-0.10723144
61	0x3dd04cd3	0.10170903
62	0xbdd21d15	-0.10259453
63	0xbd002a33	-0.031290244
64	0x3db46dab	0.0880998
65	0x3e741ed2	0.23839882
66	0xbdf15b77	-0.11785024
67	0xbe202f27	-0.15642987
68	0xbd40f871	-0.047111932
69	0xbdce3ec6	-0.10070567
70	0xbccc7fbe	-0.024963256
71	0x3e1365ef	0.14394353
72	0x3e895d6a	0.26829082
73	0x3e3bdd1d	0.18346067
74	0xbf0406c8	-0.5157285
75	0xbcae00b6	-0.021240573
76	0x3d9d3cfd	0.07677648
77	0x3e0e6adf	0.13907956
78	0x3ddce6b1	0.107861884
79	0xbe016b76	-0.1263865
80	0x3c886ca7	0.016653372
81	0xbe15981e	-0.1460881
82	0x3dbe0a4f	0.0927931
83	0x3d976b34	0.07393494
84	0x3d20dfde	0.039275996
85	0xbe87ec9d	-0.2654771
86	0xbe984086	-0.29736727
87	0xbb6d6f7d	-0.0036229782
88	0xbe3d5fbd	-0.18493553
89	0xbd088f7a	-0.033339955
90	0xbc66a8be	-0.014078317
91	0xbd97aac9	-0.074056216
92	0xbd8ba474	-0.06818476
93	0x3e5931a7	0.21210347
94	0x3c9603dd	0.018312389
95	0x3c6b1b1d	0.014349726
96	0x3e041e4a	0.1290218
97	0xbe96e5f4	-0.29472315
98	0xbd86ad0a	-0.06575973
99	0x3e799f98	0.24377286
100	0x3cd146f0	0.025546521
101	0x3cedaefa	0.0290141
102	0x3e8e49b1	0.27790597
103	0xbe282747	-0.16421233
104	0xbe332047	-0.17492782
105	0xbd8faf3f	-0.070158474
106	0xbe727508	-0.23677456
107	0xbed8b0d4	-0.4232241
108	0xbbd40582	-0.006470383
109	0x3dd908eb	0.10597404
110	0x3d5623b8	0.052280158
111	0x3e2e0c85	0.16996963
112	0xbe2a01d3	-0.16602258
113	0x3e7ebfde	0.24877879
114	0x3dc9f030	0.09860265
115	0xbe4a7958	-0.19772851
116	0xbd5838ee	-0.052788667
117	0xbeac861a	-0.3369606
118	0x3e380fc5	0.17974766
119	0x3dc0548f	0.09391128
120	0x3ed270aa	0.4110158
121	0x3d8bf6d6	0.068341896
122	0xbe944d2d	-0.2896513
123	0x3ec2039b	0.37893376
124	0xbdb539d5	-0.08848921
125	0xbe7035e1	-0.23458053
126	0xbde5b515	-0.11216179
127	0xbe3e073c	-0.18557447
128	0xbe65ffc2	-0.22460845
129	0xbe52f8e8	-0.20602763
130	0x3e868f98	0.26281428
131	0x3e4b2f3b	0.19842236
132	0xbd61a518	-0.055089086
133	0x3e294f2d	0.1653411
134	0x3e21e630	0.15810466
135	0xbeb410b4	-0.35168993
136	0xbe664766	-0.22488174
137	0x3d1bff96	0.038085543
138	0x3eb22bff	0.3479919
139	0xbd2b3929	-0.04180256
140	0x3da6e708	0.081495345
141	0x3ea011b8	0.31263518
142	0xbda5cfc5	-0.080962695
143	0xbe9e8417	-0.30960152
144	0x3be23dc1	0.0069043343
145	0x3ddd6407	0.10810094
146	0xbe1c1f74	-0.15246373
147	0xbe93b962	-0.28852373
148	0x3d8e2916	0.0694143
149	0xbd37921c	-0.044817075
150	0x3d984b37	0.07436221
151	0x3da7c0b5	0.08191053
152	0xbe997dd0	-0.299788
153	0xbe9d53a5	-0.30727878
154	0xbce45525	-0.027872631
155	0xbda2a906	-0.07942395
156	0xbc53eff6	-0.012935629
157	0xbd3fa436	-0.046787463
158	0x3d59c420	0.053165555
159	0x3e23cc8a	0.15995994
160	0x3ddd6c08	0.10811621
161	0x3dc957e6	0.098312184
162	0xbdeb488d	-0.11488447
163	0xbe99d895	-0.3004805
164	0x3d975221	0.07388712
165	0xbd9b3197	-0.07577818
166	0x3dc4cb4b	0.096090876
167	0xbde2c711	-0.11073125
168	0x3d05f584	0.032704845
169	0x3e8f19ff	0.2794952
170	0x3eb34835	0.35016027
171	0x3d65cfa2	0.056106217
172	0x3d645106	0.055741332
173	0x3c1fb931	0.009748743
174	0xbe35a1fb	-0.17737572
175	0xbe90d2a4	-0.28285706
176	0x3e40f9f6	0.18845353
177	0xbeab6aa6	-0.33479804
178	0xbd07ea72	-0.03318257
179	0xbe9cf23f	-0.3065357
180	0x3d46f02d	0.048568893
181	0x3e86b13b	0.2630709
182	0xbe2879fe	-0.16452786
183	0xbdca8a85	-0.09889702
184	0x3c4b3ebf	0.012405097
185	0xbd904805	-0.07044987
186	0xbed3f5a7	-0.41398355
187	0xbee711b7	-0.45130703
188	0x3e120e5f	0.14263295
189	0x3b2bc66b	0.0026210796
190	0xbc1685fa	-0.009187216
191	0x3de4716e	0.111544475
192	0x3d61e791	0.05515248
193	0x3e5bc611	0.21462275
194	0x3e1b7d58	0.15184534
195	0xbe7c9e93	-0.24669866
196	0x3e949899	0.29022673
197	0xbb100eb9	-0.0021981432
198	0x3df3aeee	0.118985996
199	0x3eb32572	0.34989506
200	0xbdd343be	-0.10315655
201	0xbeadac4f	-0.33920524
202	0xbe035694	-0.12825996
203	0x3df07643	0.11741307
204	0xbdbdf681	-0.092755325
205	0xbda5f40d	-0.081031896
206	0x3e418dc5	0.18901737
207	0x3df837f1	0.12120045
208	0x3e460b8c	0.19340342
209	0xbe5b648e	-0.21425077
210	0xbe479176	-0.19489083
211	0x3df759d0	0.12077677
212	0x3ea8bd0d	0.32956734
213	0xbe9734b8	-0.2953241
214	0x3e3ca9cb	0.18424146
215	0xbe82edf3	-0.25572166
216	0xbd97096a	-0.073748425
217	0xbeaa447d	-0.33255377
218	0xbddb25b5	-0.107005514
219	0xbde16152	-0.110048905
220	0x3c5346d9	0.012895309
221	0x3d3457ea	0.044029154
222	0x3df1ba53	0.11803117
223	0x3e8222ae	0.25417084
224	0xbe557513	-0.20845442
225	0xbc5ad0dd	-0.013355461
226	0x3e8e23ec	0.2776178
227	0xbdbcaafe	-0.09212302
228	0x3e34cdd4	0.17656642
229	0x3e0e571d	0.13900419
230	0x3e17ac83	0.14811902
231	0xbe8d07b4	-0.2754494
232	0xbcef79ae	-0.029232826
233	0xbd8a7b18	-0.067617595
234	0xbd7bfe47	-0.061521795
235	0xbdac7fa0	-0.0842278
236	0x3e3466cd	0.1761734
237	0x3cc204a1	0.023683848
238	0x3dc37f72	0.09545793
239	0x3dfda5a0	0.12385106
240	0xbe66e865	-0.22549589
241	0x3db0f305	0.08640102
242	0x3de8b167	0.11361962
243	0x3d16305c	0.036667213
244	0x3d6782b1	0.05652112
245	0x3d166548	0.036717683
246	0x3c60bcfe	0.013716934
247	0x3d75b8b2	0.059990592
248	0xbea93d01	-0.33054355
249	0x3cf941b6	0.030426841
250	0xbdcbe053	-0.09954896
251	0x3f00a6e3	0.5025465
252	0xbdcc5628	-0.099773705
253	0xbe1b81f2	-0.15186289
254	0xbdb6d6a1	-0.08927656
255	0x3db364d9	0.087594695

fc_dec.bias f4 [117]
0	0xbbb05334	-0.0053810123
1	0x3e4ffece	0.20312044
2	0x3e5209c8	0.20511544
3	0x3eae03c5	0.3398725
4	0x3e0c296e	0.13687679
5	0x3e8505d5	0.25981012
6	0x3ea1f905	0.316353
7	0x3ea03bd8	0.31295657
8	0x3e215446	0.15754804
9	0x3e1aa2c3	0.15101151
10	0x3e492daa	0.19646326
11	0x3ee7e030	0.4528823
12	0x3dbd7344	0.09250501
13	0x3d0e71be	0.03477644
14	0x3e5c124f	0.21491359
15	0x3e9ed245	0.31019798
16	0x3d2f23d7	0.04275879
17	0x3e3db8c6	0.18527517
18	0x3c2a43cf	0.010392143
19	0x3de46b14	0.11153236
20	0x3eb0c88c	0.34528005
21	0x3bf4e069	0.007473041
22	0x3ec7a97d	0.38996497
23	0x3e8410c3	0.25794038
24	0x3f01b35c	0.50664306
25	0x3e5c0411	0.21485926
26	0x3d4cd4b5	0.05000754
27	0x3e0a92f1	0.13532616
28	0x3e7b12d5	0.24518903
29	0x3e646235	0.22303088
30	0x3da4cd12	0.080469266
31	0x3ea0f08c	0.31433523
32	0x3e9edf9c	0.31029975
33	0x3ea3fadf	0.32027337
34	0x3eae3ae9	0.3402932
35	0x3e61bf2a	0.2204558
36	0x3eef672f	0.4675841
37	0x3eaad679	0.33366755
38	0x3eb6474e	0.35601276
39	0x3e855615	0.26042238
40	0x3d0b5423	0.034015786
41	0x3e8b8377	0.27248737
42	0x3e5ad384	0.2136975
43	0x3e84bbd4	0.2592455
44	0x3e42a1cc	0.19007033
45	0x3eb541df	0.35401818
46	0xbbf69117	-0.0075246203
47	0x3eb70527	0.35746118
48	0x3c205225	0.00978521
49	0x3e096557	0.13417564
50	0x3e377936	0.17917332
51	0x3dbbdc20	0.09172845
52	0x3dbfba07	0.09361654
53	0x3e36205a	0.17785779
54	0x3eac78b6	0.33685845
55	0x3e8dfd68	0.27732396
56	0x3e2c755c	0.16841644
57	0x3eaab376	0.33340043
58	0x3e051710	0.12997079
59	0x3d193e2c	0.037412807
60	0x3df34d32	0.11879958
61	0x3e0bb0a1	0.13641597
62	0x3e358ffe	0.1773071
63	0x3e139609	0.14412703
64	0x3e9516b3	0.2911888
65	0x3de08027	0.10961943
66	0x3d23f2db	0.040026527
67	0x3e712ef7	0.23553072
68	0x3eaa824d	0.33302537
69	0x3ec851a8	0.391248
70	0x3ea718b4	0.32636034
71	0x3dc01354	0.093786865
72	0x3d6cdd73	0.057828378
73	0x3d6ced09	0.05784324
74	0x3d4340b1	0.047669116
75	0x3e7ee33f	0.24891375
76	0x3e6db373	0.23212986
77	0x3e17f692	0.14840153
78	0x3ca84627	0.020541264
79	0x3e1c5944	0.15268427
80	0x3e62024b	0.22071187
81	0x3ef2e29d	0.47438517
82	0xbca148cb	-0.01968803
83	0x3ef3e891	0.47638372
84	0x3eb612d7	0.3556125
85	0x3e462f27	0.19353925
86	0x3e0a770d	0.13521977
87	0xbdc62aa8	-0.09676105
88	0x3dc8a2d0	0.09796679
89	0x3de0afc7	0.10971027
90	0x3ecd5c6c	0.40109575
91	0x3d835099	0.06411857
92	0x3e909122	0.28235728
93	0x3e6b0a3c	0.22953123
94	0x3d06a0c0	0.032868147
95	0x3eaca359	0.33718374
96	0x3e15293c	0.14566511
97	0x3db73264	0.08945158
98	0x3e306ce4	0.17229038
99	0x3df6dc1f	0.120537035
100	0xbd5d6b31	-0.054057304
101	0xbd2af87f	-0.04174089
102	0x3e805809	0.25067165
103	0x3e7cf9a1	0.24704601
104	0x3c49c051	0.012313918
105	0x3ecc8530	0.39945364
106	0x3eae5358	0.3404796
107	0x3ede5632	0.43425137
108	0x3da7d515	0.08194939
109	0x3eaa44b1	0.33255532
110	0x3eb6a884	0.35675442
111	0x3dba09c7	0.09083896
112	0x3eb3754e	0.35050434
113	0x3e924eba	0.2857569
114	0x3e932f06	0.28746814
115	0x3df499c3	0.1194339
116	0x3e69a1ca	0.22815624

dec1.kernel0 f4 [2, 1, 3, 1]
0	0xbf4149f9	-0.755035
1	0xbe926b4b	-0.28597483
2	0xbf605f65	-0.8764556
3	0x3f80fbdf	1.0076865
4	0x3f82b0cf	1.0210208
5	0x40118898	2.273962

dec1.kernel1 f4 [2, 1, 2, 2]
0	0xbcf56cb0	-0.029959053
1	0xbead9842	-0.33905226
2	0x3dde0823	0.10841396
3	0xbe492fb2	-0.196471
4	0x3f8d5a28	1.1043139
5	0x3f02c65f	0.5108394
6	0x3e8b43f4	0.27200282
7	0x3d33fee9	0.043944273

dec1.bias_tensor f4 [2]
0	0x3ce56316	0.02800135
1	0x3d08ed30	0.033429325

bn3.weight f4 [2]
0	0x3ef90b8f	0.4864163
1	0x3ed1d480	0.40982437

bn3.bias f4 [2]
0	0xbf521563	-0.82063884
1	0xbf5faabb	-0.8736989

bn3.running_mean f4 [2]
0	0xbfbfb58b	-1.4977278
1	0x4081fefd	4.0623765

bn3.running_var f4 [2]
0	0x3fefcc32	1.873419
1	0x414e309f	12.88687

dec2.kernel0 f4 [1, 2, 5, 1]
0	0xbe4a49f1	-0.19754769
1	0x3df3eaad	0.11909995
2	0x3e52db36	0.20591435
3	0x3e8107fc	0.25201404
4	0xbe612e7d	-0.2199039
5	0x3d8cc306	0.06873135
6	0x3e90e272	0.28297764
7	0xbd96aacf	-0.07356798
8	0xbe2885d1	-0.16457297
9	0x3e5b6620	0.21425676

dec2.kernel1 f4 [1, 2, 4, 2]
0	0x3cac50bb	0.021034589
1	0xbdeb5091	-0.11489976
2	0x3d3b980e	0.045799308
3	0x3ed64b70	0.4185443
4	0xbe93cf2f	-0.28869006
5	0x3f43e015	0.765138
6	0x3e6b9ee8	0.23009837
7	0xbea41078	-0.32043815
8	0x3f7653e9	0.96221787
9	0xbe9c7782	-0.30559927
10	0x3eab7257	0.33485672
11	0x3d7ed877	0.062218156
12	0xbe359c56	-0.17735419
13	0x3d21efa0	0.039535165
14	0xbd62092b	-0.055184525
15	0xbd87232b	-0.06598505

dec2.kernel2 f4 [1, 2, 3, 2]
0	0xbe04752d	-0.12935324
1	0xbde9b454	-0.11411348
2	0x3e41837f	0.18897818
3	0x3f9040b8	1.126975
4	0xbe52a375	-0.20570166
5	0xbe23d15d	-0.15997835
6	0x3f6c4b18	0.92302084
7	0xbe0b949b	-0.13630907
8	0x3eb55a13	0.35420284
9	0x3d7bb70e	0.06145387
10	0xbee033b3	-0.43789443
11	0x3ba0bbb8	0.0049051903

exp_avg f4 [2, 1, 5, 1]
0	0xb80a0630	-3.2907526e-05
1	0xb7b2b224	-2.1302207e-05
2	0xb78f2a8a	-1.7066737e-05
3	0x363046df	2.6267296e-06
4	0xb73f5c01	-1.14059085e-05
5	0x3822bd64	3.8800194e-05
6	0x381341c4	3.510878e-05
7	0x38542f1e	5.058862e-05
8	0xb6e540b7	-6.8322656e-06
9	0x37a0c51b	1.916527e-05

exp_avg_sq f4 [2, 1, 5, 1]
0	0x3244dd9d	1.1459091e-08
1	0x32a3aafb	1.905345e-08
2	0x332539a5	3.8469484e-08
3	0x32b94535	2.1568306e-08
4	0x31ff8863	7.436982e-09
5	0x328cf6f8	1.6410453e-08
6	0x3287d1cc	1.5811473e-08
7	0x32ed100f	2.7597734e-08
8	0x327d7824	1.4753855e-08
9	0x3276b57c	1.4360349e-08

exp_avg f4 [2, 1, 4, 2]
0	0xb78d1fe4	-1.682336e-05
1	0xb7c31873	-2.3257197e-05
2	0xb6c4db39	-5.866776e-06
3	0xb730f200	-1.05467625e-05
4	0xb6c15514	-5.7617526e-06
5	0xb7732f97	-1.4495009e-05
6	0x36b69917	5.4418447e-06
7	0x3607e306	2.0248713e-06
8	0x37997a20	1.829589e-05
9	0x37c7ed86	2.3833254e-05
10	0x38140715	3.5292545e-05
11	0x37bdc9a4	2.2624452e-05
12	0xb549f9d2	-7.524187e-07
13	0x36f447c1	7.28012e-06
14	0x368c36e3	4.178715e-06
15	0x36ab40ce	5.1037414e-06

exp_avg_sq f4 [2, 1, 4, 2]
0	0x3210be86	8.425223e-09
1	0x31d721bf	6.26116e-09
2	0x32454bb0	1.14841185e-08
3	0x32fb2fa2	2.9241907e-08
4	0x3257d4ff	1.2563077e-08
5	0x32fb4c3c	2.9254913e-08
6	0x320d3c67	8.221014e-09
7	0x32142252	8.622537e-09
8	0x3270528f	1.398861e-08
9	0x32468ffb	1.1557854e-08
10	0x3280b0c8	1.4981552e-08
11	0x32775d76	1.4398543e-08
12	0x32830e1c	1.5256823e-08
13	0x3251b357	1.2206178e-08
14	0x3253910e	1.2314798e-08
15	0x32429a50	1.1327373e-08

exp_avg f4 [2, 1, 3, 2]
0	0x36fa967f	7.4681006e-06
1	0x37ddb34f	2.642875e-05
2	0x380fe987	3.4311346e-05
3	0x375128c7	1.2466865e-05
4	0x3813a511	3.520126e-05
5	0xb71baab0	-9.278461e-06
6	0xb776fd9f	-1.4721793e-05
7	0xb818dfa8	-3.644792e-05
8	0xb82bfe44	-4.100638e-05
9	0xb7d1aa86	-2.4994148e-05
10	0xb79f91ab	-1.9022109e-05
11	0xb6b79ba2	-5.471943e-06

exp_avg_sq f4 [2, 1, 3, 2]
0	0x3343bac9	4.5571856e-08
1	0x31ffeece	7.4486257e-09
2	0x328b7bad	1.6237971e-08
3	0x3225363f	9.616598e-09
4	0x331284db	3.4114105e-08
5	0x31b1b30b	5.171733e-09
6	0x32b94064	2.1566116e-08
7	0x329e1f6c	1.840791e-08
8	0x3279c30e	1.4538058e-08
9	0x3276a625	1.43568615e-08
10	0x3284f039	1.5476063e-08
11	0x32ca4586	2.354751e-08

exp_avg f4 [2]
0	0x2e8f9b0a	6.5304276e-11
1	0x2d986e88	1.7329485e-11

exp_avg_sq f4 [2]
0	0x21a30410	1.1046385e-18
1	0x201b1351	1.3135402e-19

exp_avg f4 [2]
0	0xb9d60fd5	-0.00040829057
1	0x3aacb97e	0.001317784

exp_avg_sq f4 [2]
0	0x37ae7271	2.0795707e-05
1	0x38bc7564	8.986404e-05

exp_avg f4 [2]
0	0xbaaa38e7	-0.0012986929
1	0x3a92d283	0.0011201653

exp_avg_sq f4 [2]
0	0x3906192f	0.00012788617
1	0x393022cf	0.00016797635

exp_avg f4 [1, 2, 3, 1]
0	0x394bcd83	0.00019436148
1	0xb4732e0a	-2.2647887e-07
2	0x3950e906	0.00019923234
3	0x394e9e85	0.00019704744
4	0x394d2967	0.00019565747
5	0x3938e598	0.00017633138

exp_avg_sq f4 [1, 2, 3, 1]
0	0x36a1e829	4.825201e-06
1	0x3423840c	1.5228596e-07
2	0x35d6f93a	1.6016777e-06
3	0x364a47a0	3.0142037e-06
4	0x36bab802	5.5646533e-06
5	0x36b9750d	5.527056e-06

exp_avg f4 [1, 2, 2, 2]
0	0xba04e110	-0.00050689373
1	0x3a08d553	0.0005219776
2	0xba16fd8d	-0.0005759828
3	0x39e68af9	0.0004397256
4	0xba10c941	-0.0005523153
5	0x3a256ca4	0.0006310439
6	0xba4ac405	-0.00077348977
7	0x3a11b0ab	0.00055576366

exp_avg_sq f4 [1, 2, 2, 2]
0	0x384e88db	4.9241684e-05
1	0x37e9c989	2.7869612e-05
2	0x38c67a28	9.464129e-05
3	0x37558e2a	1.27288895e-05
4	0x37e2c39a	2.7032384e-05
5	0x37fc3855	3.0066973e-05
6	0x3812446c	3.4872835e-05
7	0x3801d490	3.095396e-05

exp_avg f4 [64, 117]
0	0xb5f89655	-1.8521192e-06
1	0xb494f637	-2.7746293e-07
2	0xb647271d	-2.9676078e-06
3	0xb7c8651c	-2.388894e-05
4	0xb5c50cac	-1.4681332e-06
5	0x3552f032	7.8580626e-07
6	0xb660df4b	-3.3508575e-06
7	0xb78810b3	-1.622024e-05
8	0x365c2215	3.2802393e-06
9	0x3687e763	4.0502505e-06
10	0xb6128fe0	-2.1839442e-06
11	0xb494f637	-2.7746293e-07
12	0xb69798cd	-4.517939e-06
13	0xb4d84abc	-4.0287512e-07
14	0xb6bf968c	-5.7097695e-06
15	0xb71a4aee	-9.196561e-06
16	0xb7b34f25	-2.1375317e-05
17	0xb71c6627	-9.322109e-06
18	0xb827df69	-4.002397e-05
19	0xb7b207ab	-2.1222824e-05
20	0xb7b180d1	-2.1160029e-05
21	0x36714988	3.59546e-06
22	0x37a25905	1.9353358e-05
23	0xb4a650f5	-3.0978813e-07
24	0xb504fd2d	-4.954225e-07
25	0xb68da49f	-4.221292e-06
26	0xb4d84abc	-4.0287512e-07
27	0xb770d465	-1.4354567e-05
28	0xb7dcc2c7	-2.6316744e-05
29	0xb7f7d8d9	-2.9545672e-05
30	0xb7c14207	-2.303814e-05
31	0xb833eae3	-4.289568e-05
32	0xb7947c7c	-1.7700942e-05
33	0xb75a7913	-1.3022002e-05
34	0x377178fc	1.4392888e-05
35	0x37d481aa	2.5332749e-05
36	0xb6e2959f	-6.752743e-06
37	0xb638b18e	-2.7521487e-06
38	0xb68da49f	-4.221292e-06
39	0xb5d95a32	-1.619401e-06
40	0xb71a2255	-9.187109e-06
41	0xb801ffea	-3.0994335e-05
42	0xb83b537d	-4.466203e-05
43	0xb85b82af	-5.2335377e-05
44	0xb84a6a37	-4.8259473e-05
45	0xb7ad213c	-2.0638683e-05
46	0x35dadcaa	1.6306487e-06
47	0x3744c7a2	1.1728991e-05
48	0x368823ba	4.057275e-06
49	0xb7182b5c	-9.070001e-06
50	0xb6680c37	-3.4577804e-06
51	0xb6622849	-3.3700073e-06
52	0x36aa625d	5.077846e-06
53	0xb79cf1ca	-1.8709241e-05
54	0xb8217ac6	-3.8499733e-05
55	0xb82c87ba	-4.11344e-05
56	0xb8810b69	-6.153325e-05
57	0xb881905e	-6.17809e-05
58	0xb7cef1fa	-2.4669793e-05
59	0x35233717	6.08024e-07
60	0x3736e30f	1.0900912e-05
61	0x35226280	6.049304e-07
62	0xb70b692a	-8.309531e-06
63	0x37006d04	7.654777e-06
64	0xb60ab05f	-2.0666264e-06
65	0x360c6ccb	2.0924952e-06
66	0x37234ba3	9.733168e-06
67	0xb7ac8171	-2.0564274e-05
68	0xb7977c40	-1.8058461e-05
69	0xb84402d1	-4.6732664e-05
70	0xb81a7df4	-3.6833764e-05
71	0xb7c2b168	-2.3209213e-05
72	0xb7a1e1a1	-1.9297762e-05
73	0xb751d03a	-1.2505852e-05
74	0xb545825a	-7.3577905e-07
75	0x3712835e	8.732864e-06
76	0x36fdf57c	7.5685657e-06
77	0xb68b6a46	-4.1548947e-06
78	0x35db673d	1.6346818e-06
79	0x368aa1ce	4.131557e-06
80	0xb797e4a3	-1.810707e-05
81	0xb7cb66cd	-2.4247356e-05
82	0xb7dc2da1	-2.6247291e-05
83	0xb7f66132	-2.9370745e-05
84	0xb8086d66	-3.2526812e-05
85	0x379126df	1.7303448e-05
86	0xb76c4db4	-1.4084788e-05
87	0xb6b55f75	-5.405333e-06
88	0x37f391e9	2.9035802e-05
89	0xb4d07a38	-3.8831945e-07
90	0xb6a10676	-4.798926e-06
91	0xb4d84abc	-4.0287512e-07
92	0x3505612e	4.9687776e-07
93	0xb79318ad	-1.7535256e-05
94	0xb830d5d5	-4.2160817e-05
95	0xb883a9e9	-6.278215e-05
96	0xb80177a5	-3.0867424e-05
97	0xb73eaada	-1.1364662e-05
98	0x37e2068c	2.6944348e-05
99	0xb61d59d3	-2.3447108e-06
100	0xb817bec9	-3.6178888e-05
101	0x36879934	4.0411487e-06
102	0xb4572d96	-2.004002e-07
103	0xb68da49f	-4.221292e-06
104	0xb4d84abc	-4.0287512e-07
105	0xb579134a	-9.27878e-07
106	0xb708b731	-8.148884e-06
107	0xb7fc95da	-3.0110521e-05
108	0xb89049d0	-6.880204e-05
109	0xb7a0cc58	-1.9168641e-05
110	0xb6733d8f	-3.6245654e-06
111	0xb5d7c712	-1.6076685e-06
112	0xb78fae55	-1.7128108e-05
113	0xb784ef1c	-1.584697e-05
114	0xb511eb99	-5.435955e-07
115	0xb579134a	-9.27878e-07
116	0xb68da49f	-4.221292e-06
117	0x376cab7a	1.4106621e-05
118	0x34a1cfce	3.0139785e-07
119	0x375c557b	1.3132924e-05
120	0x369b320d	4.6251866e-06
121	0x3519fb9d	5.7363087e-07
122	0xb79f056c	-1.8956802e-05
123	0x36f91828	7.4235904e-06
124	0xb7cb1c19	-2.421257e-05
125	0x36cc04dc	6.0802395e-06
126	0x37031320	7.812661e-06
127	0x376d3369	1.4138271e-05
128	0x34a1cfce	3.0139785e-07
129	0x3820a332	3.829896e-05
130	0x3566cdae	8.598098e-07
131	0x36a1151a	4.8006304e-06
132	0x3702b0a9	7.789736e-06
133	0x3836ceb3	4.3584685e-05
134	0xb6f80627	-7.391692e-06
135	0xb79743f8	-1.8032253e-05
136	0xb7b6f018	-2.1807893e-05
137	0xb7d298b9	-2.5105068e-05
138	0xb6763a56	-3.6690813e-06
139	0x37692c5c	1.389821e-05
140	0x3588f639	1.020445e-06
141	0x343ae4b0	1.7405796e-07
142	0x38167572	3.5872166e-05
143	0x3566cdae	8.598098e-07
144	0x379b5115	1.8515197e-05
145	0x382947d9	4.0359653e-05
146	0x3895901c	7.131716e-05
147	0x386c9d9a	5.6413563e-05
148	0x36d1a206	6.2475474e-06
149	0xb78915df	-1.6341857e-05
150	0x376f153a	1.4250452e-05
151	0x3774be0f	1.4587785e-05
152	0x3716e266	8.993409e-06
153	0x341d692a	1.4660023e-07
154	0xb4eb3e15	-4.3817332e-07
155	0x38167572	3.5872166e-05
156	0xb5d0c571	-1.5554671e-06
157	0x372eca90	1.0418371e-05
158	0x37f63f01	2.9354824e-05
159	0x38120206	3.4810997e-05
160	0x38611729	5.366575e-05
161	0x387b3508	5.9892453e-05
162	0x36ffed52	7.62722e-06
163	0x36b55549	5.404149e-06
164	0x376bf500	1.4064135e-05
165	0xb6b3d49d	-5.359367e-06
166	0xb6444348	-2.9245439e-06
167	0xb5ca83b2	-1.5088501e-06
168	0x38176c4d	3.610207e-05
169	0xb6d5e7c9	-6.374878e-06
170	0xb6c9f641	-6.0189345e-06
171	0xb6c56297	-5.882535e-06
172	0x37a6a47e	1.986534e-05
173	0x389b8afb	7.416863e-05
174	0x385e649f	5.3022635e-05
175	0xb774ce88	-1.459162e-05
176	0xb79ddbe2	-1.881825e-05
177	0xb7670974	-1.3770874e-05
178	0xb6830930	-3.905174e-06
179	0x37841417	1.5744981e-05
180	0x3708dcf1	8.157674e-06
181	0x3815945b	3.5662535e-05
182	0xb6bdcf6f	-5.6567874e-06
183	0xb7e75d59	-2.7580814e-05
184	0xb7aa634a	-2.0311814e-05
185	0x363cb02f	2.8116735e-06
186	0x3860cbab	5.3595442e-05
187	0x37ef7c82	2.8548999e-05
188	0xb4ed2169	-4.4169e-07
189	0x3803d8d5	3.1434774e-05
190	0x353b181f	6.969803e-07
191	0x374bef34	1.2155437e-05
192	0x3764f448	1.3646735e-05
193	0x33d34152	9.837335e-08
194	0x38158c30	3.5654928e-05
195	0xb545e3f0	-7.371991e-07
196	0xb77dc9db	-1.5126973e-05
197	0xb7f66da1	-2.9376535e-05
198	0x36ff8cb8	7.615974e-06
199	0x37357655	1.0815992e-05
200	0x3799ecab	1.8349228e-05
201	0x37765978	1.4683574e-05
202	0x3832af0c	4.2601532e-05
203	0x3816fd84	3.599889e-05
204	0x3681e227	3.870827e-06
205	0x36d002f4	6.199227e-06
206	0x34d7cf3c	4.0197654e-07
207	0x38163077	3.5807923e-05
208	0x3566cdae	8.598098e-07
209	0xb52f1a1d	-6.523058e-07
210	0xb4921c54	-2.721523e-07
211	0x3823d153	3.9057177e-05
212	0x3853e605	5.0520543e-05
213	0x3819ac56	3.6638543e-05
214	0x37f517ce	2.921736e-05
215	0x37b09c39	2.1053582e-05
216	0x37145f6b	8.843704e-06
217	0xb817776b	-3.6112422e-05
218	0xb6c7201f	-5.9344015e-06
219	0x34e762df	4.309904e-07
220	0x38167572	3.5872166e-05
221	0x3566cdae	8.598098e-07
222	0x36cfec40	6.196584e-06
223	0x374bd260	1.2148725e-05
224	0x383bf482	4.481199e-05
225	0x388b1cc4	6.6333945e-05
226	0x3871bb22	5.763316e-05
227	0x381c64fd	3.728735e-05
228	0x36ffd51b	7.624401e-06
229	0xb8065679	-3.2028624e-05
230	0xb7623d6a	-1.3484949e-05
231	0x34d85ddc	4.0301427e-07
232	0x36cfec40	6.196584e-06
233	0x38167572	3.5872166e-05
234	0x37034420	7.82407e-06
235	0x32eb9cd5	2.742892e-08
236	0x37894290	1.6362668e-05
237	0x38316177	4.229086e-05
238	0x37880c07	1.6218064e-05
239	0x38083d41	3.2481974e-05
240	0x37da94d9	2.6056938e-05
241	0x36791245	3.7114526e-06
242	0xb629e00f	-2.5313382e-06
243	0xb56cf543	-8.8273754e-07
244	0x36f18d61	7.1988184e-06
245	0x32eb9cd5	2.742892e-08
246	0x37b43b2f	2.1485232e-05
247	0x34c64e08	3.693715e-07
248	0x371fbe33	9.521423e-06
249	0x38367db5	4.3509255e-05
250	0x37f044fb	2.8642351e-05
251	0x379d75a3	1.8770637e-05
252	0xb68bec90	-4.1700623e-06
253	0x36dbab8a	6.5466784e-06
254	0xb7bc9186	-2.2479111e-05
255	0xb7540906	-1.2638286e-05

exp_avg_sq f4 [64, 117]
0	0x30e4bd0f	1.6642917e-09
1	0x2c937023	4.190441e-12
2	0x31683999	3.3793184e-09
3	0x32900459	1.6765783e-08
4	0x3267f5e1	1.3501876e-08
5	0x32d47ac6	2.473588e-08
6	0x326bc7d1	1.3724233e-08
7	0x32adee0e	2.0248105e-08
8	0x32287a4a	9.806692e-09
9	0x3213b65f	8.5979925e-09
10	0x30dde59d	1.6145126e-09
11	0x2c937023	4.190441e-12
12	0x324c3bd8	1.188797e-08
13	0x2d6ccfb3	1.3461165e-11
14	0x30cc5309	1.4866554e-09
15	0x322cce3a	1.0058608e-08
16	0x32b43ec4	2.09833e-08
17	0x32d92d51	2.5282732e-08
18	0x32f28a67	2.8235446e-08
19	0x32e3ffc2	2.6542583e-08
20	0x32e9e4e7	2.7228863e-08
21	0x32b5a427	2.1145821e-08
22	0x32cd92b2	2.393185e-08
23	0x30b9fb2d	1.353191e-09
24	0x2d12ac78	8.337435e-12
25	0x3231f05a	1.0357406e-08
26	0x2d6ccfb3	1.3461165e-11
27	0x32253673	9.616644e-09
28	0x32964238	1.7492411e-08
29	0x32e2ecb8	2.641751e-08
30	0x32f0da29	2.8038885e-08
31	0x33032f07	3.0543585e-08
32	0x33040a15	3.0742815e-08
33	0x330d56d6	3.2908098e-08
34	0x33032cb2	3.0541464e-08
35	0x332e4f67	4.0584748e-08
36	0x329391dc	1.7179381e-08
37	0x30e5b0ea	1.6712225e-09
38	0x3231f05a	1.0357406e-08
39	0x30d68847	1.5609282e-09
40	0x32944d2e	1.7264565e-08
41	0x32bca1ee	2.1959718e-08
42	0x3308d89c	3.1861973e-08
43	0x330a49b7	3.2197672e-08
44	0x33147b7d	3.4571247e-08
45	0x330fd5ca	3.3489222e-08
46	0x333401ec	4.1911264e-08
47	0x332ff8e6	4.0971734e-08
48	0x332f269a	4.078047e-08
49	0x3313c8fe	3.4408906e-08
50	0x325db8b4	1.290589e-08
51	0x322a962b	9.929447e-09
52	0x31e7eb08	6.749705e-09
53	0x329dec4d	1.8384663e-08
54	0x32e13ca9	2.6221032e-08
55	0x332b94a4	3.9949228e-08
56	0x33257d96	3.8531276e-08
57	0x332b01e7	3.981577e-08
58	0x33334f69	4.174891e-08
59	0x334dee46	4.794699e-08
60	0x333d9667	4.4141782e-08
61	0x332f1fe8	4.077438e-08
62	0x330b9e07	3.2507184e-08
63	0x32840632	1.536964e-08
64	0x3230def3	1.0295241e-08
65	0x3167ab85	3.3712422e-09
66	0x328a8506	1.6125806e-08
67	0x32f9ddad	2.9088222e-08
68	0x333288b1	4.1568175e-08
69	0x333c1ffa	4.3801244e-08
70	0x33377355	4.27129e-08
71	0x33446169	4.57234e-08
72	0x3364ab61	5.3241255e-08
73	0x335f58a1	5.200184e-08
74	0x337c1cf9	5.8699673e-08
75	0x3310a649	3.3678848e-08
76	0x318df044	4.130955e-09
77	0x32296c99	9.861787e-09
78	0x2e8c5858	6.382156e-11
79	0x31a8f1c4	4.916929e-09
80	0x32e3971e	2.6494998e-08
81	0x330b6c51	3.2461973e-08
82	0x332cc75a	4.022818e-08
83	0x33392d28	4.311474e-08
84	0x333a163c	4.332672e-08
85	0x337c6dab	5.8773065e-08
86	0x33a5ccfd	7.7206984e-08
87	0x33a14af6	7.510782e-08
88	0x32ff7007	2.9736851e-08
89	0x2c9634fb	4.2691384e-12
90	0x322ed37b	1.0176218e-08
91	0x2d6ccfb3	1.3461165e-11
92	0x2e8ef195	6.500326e-11
93	0x329da835	1.8353697e-08
94	0x32ee15f5	2.7716831e-08
95	0x3319445d	3.5685265e-08
96	0x3335a213	4.2289752e-08
97	0x332b55cb	3.989207e-08
98	0x333f48bf	4.4536815e-08
99	0x33aa650f	7.934624e-08
100	0x3329455b	3.9411457e-08
101	0x3202fe72	7.62485e-09
102	0x2c8aa722	3.9407514e-12
103	0x3231f05a	1.0357406e-08
104	0x2d6ccfb3	1.3461165e-11
105	0x2fc2add0	3.5411896e-10
106	0x31a2dcdb	4.739929e-09
107	0x3260b6af	1.30800535e-08
108	0x32ffb3ce	2.9767673e-08
109	0x32bd5a4e	2.2043562e-08
110	0x33077136	3.15351e-08
111	0x32994f14	1.7847505e-08
112	0x332b4618	3.987779e-08
113	0x31a0e0b4	4.6821587e-09
114	0x2c9f95e1	4.5356917e-12
115	0x2fc2add0	3.5411896e-10
116	0x3231f05a	1.0357406e-08
117	0x31976c80	4.4070134e-09
118	0x2d6ec5b0	1.3572629e-11
119	0x31ec805a	6.883096e-09
120	0x32c3a5e3	2.2776424e-08
121	0x32a41eb3	1.9106073e-08
122	0x32c638b4	2.307602e-08
123	0x32951a6d	1.73579e-08
124	0x32d35ea5	2.4606672e-08
125	0x3287fa39	1.5829857e-08
126	0x3239e8b9	1.0821332e-08
127	0x3192355b	4.255225e-09
128	0x2d6ec5b0	1.3572629e-11
129	0x3305d8ce	3.116366e-08
130	0x2e382085	4.186564e-11
131	0x313edff4	2.7775942e-09
132	0x327e5fad	1.48065e-08
133	0x330a09ce	3.2139546e-08
134	0x33013665	3.0084625e-08
135	0x333075b6	4.108525e-08
136	0x33094645	3.1961708e-08
137	0x330e8c9a	3.3189828e-08
138	0x32e32f1d	2.6447703e-08
139	0x32ab070f	1.991023e-08
140	0x3082b6a5	9.510656e-10
141	0x2da0b33b	1.8269488e-11
142	0x32e93b1b	2.7151648e-08
143	0x2e382085	4.186564e-11
144	0x32945168	1.7266487e-08
145	0x33040c56	3.0744864e-08
146	0x33453e02	4.5924033e-08
147	0x33497876	4.6908518e-08
148	0x339466e0	6.9105e-08
149	0x33503134	4.8473524e-08
150	0x33309dae	4.1121602e-08
151	0x32faed22	2.9211666e-08
152	0x32e06d75	2.6126807e-08
153	0x32268b85	9.694195e-09
154	0x30984f36	1.1081969e-09
155	0x32e93b1b	2.7151648e-08
156	0x311f40b6	2.317433e-09
157	0x32ccf282	2.3859005e-08
158	0x331f498d	3.7086966e-08
159	0x33712ef2	5.615488e-08
160	0x339566a3	6.957023e-08
161	0x33aadef1	7.956795e-08
162	0x338a0c51	6.428366e-08
163	0x3349dd4c	4.7000228e-08
164	0x331cf495	3.6544026e-08
165	0x3304c897	3.091608e-08
166	0x32b795f3	2.1372193e-08
167	0x32238336	9.517683e-09
168	0x32e407e9	2.654629e-08
169	0x321785c7	8.819774e-09
170	0x32ac6ca3	2.0072838e-08
171	0x330fd5aa	3.348911e-08
172	0x3354e61d	4.9569383e-08
173	0x3392edcd	6.8419105e-08
174	0x339d2f13	7.319445e-08
175	0x338bdf2f	6.513289e-08
176	0x33429642	4.5305804e-08
177	0x333616c9	4.23959e-08
178	0x3310691d	3.3623213e-08
179	0x32d532d5	2.481958e-08
180	0x325474b6	1.2366561e-08
181	0x32e8bf6b	2.7095401e-08
182	0x3180b9d3	3.746416e-09
183	0x328903d4	1.595064e-08
184	0x33064d62	3.1269686e-08
185	0x33530671	4.9133124e-08
186	0x3377c6bd	5.768992e-08
187	0x3372b66b	5.6510924e-08
188	0x3367a146	5.3930556e-08
189	0x3328ed45	3.9331344e-08
190	0x3322195e	3.7741636e-08
191	0x33081aee	3.168946e-08
192	0x32cd7946	2.392029e-08
193	0x3156f503	3.1280372e-09
194	0x32e23f83	2.6338745e-08
195	0x2eddc488	1.00848274e-10
196	0x31bd8fba	5.5169638e-09
197	0x330b1ba5	3.2388602e-08
198	0x333bcc80	4.3725322e-08
199	0x3358a149	5.0438107e-08
200	0x3356384d	4.9876963e-08
201	0x3342f7f9	4.5394675e-08
202	0x33221f84	3.7747228e-08
203	0x330f93fa	3.3429366e-08
204	0x32ea0b2b	2.7246264e-08
205	0x32850122	1.5483753e-08
206	0x2d77b004	1.4079408e-11
207	0x32e6df82	2.6877164e-08
208	0x2e382085	4.186564e-11
209	0x2ed8067e	9.823696e-11
210	0x32d645dc	2.4944647e-08
211	0x332e19d1	4.0536012e-08
212	0x33519c6f	4.880388e-08
213	0x3361aab9	5.2542166e-08
214	0x33403ac3	4.4756927e-08
215	0x330f007b	3.329522e-08
216	0x32f0402d	2.7968861e-08
217	0x328c129e	1.6306611e-08
218	0x315f93c9	3.2534777e-09
219	0x2d6dad98	1.3510436e-11
220	0x32e93b1b	2.7151648e-08
221	0x2e382085	4.186564e-11
222	0x3081d3bd	9.446165e-10
223	0x31ed5b6a	6.9080004e-09
224	0x32cc684a	2.379615e-08
225	0x3358081b	5.029879e-08
226	0x330d092d	3.2837466e-08
227	0x332697cf	3.8787956e-08
228	0x32a0ee1e	1.8734735e-08
229	0x32cc1ab3	2.3760867e-08
230	0x31812130	3.758167e-09
231	0x2d77777f	1.4066858e-11
232	0x3081d3bd	9.446165e-10
233	0x32e93b1b	2.7151648e-08
234	0x31e28d59	6.593535e-09
235	0x2dbd32aa	2.1509312e-11
236	0x324754bc	1.1602591e-08
237	0x33311609	4.1231065e-08
238	0x330b7612	3.2470844e-08
239	0x3347e3c4	4.654045e-08
240	0x331e8368	3.6906755e-08
241	0x331e77be	3.6896147e-08
242	0x32d7c04b	2.5116739e-08
243	0x325ef977	1.29788225e-08
244	0x31d9d433	6.3396555e-09
245	0x2dbd32aa	2.1509312e-11
246	0x33477f9a	4.644935e-08
247	0x2e9052b4	6.563053e-11
248	0x317df856	3.6957508e-09
249	0x32e9bf7d	2.7211849e-08
250	0x33657f6e	5.3434114e-08
251	0x336374dd	5.2958843e-08
252	0x3390bd4d	6.739956e-08
253	0x336d3998	5.5233244e-08
254	0x3328f9ec	3.934285e-08
255	0x3304e93c	3.094577e-08

exp_avg f4 [64]
0	0xb6a1970a	-4.815757e-06
1	0x38370bb0	4.3641485e-05
2	0x37d2b73d	2.5119278e-05
3	0xb7d1fbfc	-2.503208e-05
4	0x3835ca59	4.3342214e-05
5	0xb7b11b18	-2.111266e-05
6	0x38231ddf	3.8890048e-05
7	0x38260918	3.9585953e-05
8	0x38612769	5.3680884e-05
9	0x3843d11b	4.6686368e-05
10	0x358053ff	9.561189e-07
11	0x38799271	5.950261e-05
12	0x380f9ff2	3.4242817e-05
13	0x378b0ebf	1.6576958e-05
14	0x35aecb6e	1.3023216e-06
15	0xb5a23f87	-1.208843e-06
16	0x3841f7e5	4.6245656e-05
17	0xb7c70963	-2.372702e-05
18	0x36c9a0b4	6.008975e-06
19	0xb7cfa059	-2.475099e-05
20	0x37c3e8c9	2.335421e-05
21	0x36c01692	5.7246734e-06
22	0x37a51071	1.9677189e-05
23	0xb86e883b	-5.6870496e-05
24	0xb7b8cfae	-2.2031218e-05
25	0xb89d5927	-7.502949e-05
26	0x385d732f	5.279778e-05
27	0x369f9590	4.7559806e-06
28	0xb880e62a	-6.146387e-05
29	0xb7e9375a	-2.780154e-05
30	0xb708d131	-8.154938e-06
31	0x37e2cb78	2.7036047e-05
32	0x37d3b9d6	2.5239697e-05
33	0x37518035	1.2487221e-05
34	0x34e03da7	4.176811e-07
35	0xb7dc719e	-2.627895e-05
36	0xb650b6a5	-3.1100728e-06
37	0xb7605448	-1.3371064e-05
38	0x38237dd4	3.8979415e-05
39	0x375a3b12	1.3007566e-05
40	0x374b4e2a	1.2117942e-05
41	0x37ad0b5c	2.0628497e-05
42	0xb7fe3ef9	-3.0308483e-05
43	0xb7309c38	-1.052679e-05
44	0x37840695	1.5738691e-05
45	0x38b11cd2	8.445386e-05
46	0xb76e8521	-1.4216902e-05
47	0xb64d3610	-3.057885e-06
48	0x379f5a2a	1.8996263e-05
49	0xb7442c70	-1.1692857e-05
50	0xb7aca44d	-2.0580506e-05
51	0xb7df842c	-2.6645219e-05
52	0x38b9372a	8.8317625e-05
53	0x38354f66	4.322771e-05
54	0x378e4c91	1.6963373e-05
55	0x370b7cea	8.314129e-06
56	0xb7216398	-9.619536e-06
57	0xb787e4f8	-1.6199876e-05
58	0xb603c3da	-1.9634522e-06
59	0xb75817e8	-1.2880169e-05
60	0x381c1c1b	3.7219474e-05
61	0x381c8f83	3.7326954e-05
62	0xb8867494	-6.411332e-05
63	0xb83c8ccf	-4.495383e-05

exp_avg_sq f4 [64]
0	0x327ab5e1	1.459327e-08
1	0x332393c4	3.8085787e-08
2	0x33737f91	5.6693867e-08
3	0x3354f84c	4.958592e-08
4	0x331947ec	3.56885e-08
5	0x33c8b579	9.3462354e-08
6	0x338a06ab	6.427339e-08
7	0x32a010c3	1.8634074e-08
8	0x329c7e7a	1.8218305e-08
9	0x33d399cb	9.853428e-08
10	0x32de95ae	2.5912268e-08
11	0x33d1c4a7	9.768092e-08
12	0x32a0fcee	1.874147e-08
13	0x3369f249	5.4469897e-08
14	0x332768ad	3.897792e-08
15	0x329dfe23	1.8392774e-08
16	0x33242beb	3.822417e-08
17	0x33617bfe	5.2499665e-08
18	0x3333da56	4.187526e-08
19	0x32d9504a	2.5298636e-08
20	0x335d944b	5.1590444e-08
21	0x328688aa	1.56618e-08
22	0x32d42a2c	2.4699226e-08
23	0x32ad9508	2.0207622e-08
24	0x339c3997	7.2747916e-08
25	0x354a26eb	7.5307497e-07
26	0x3300c080	2.99774e-08
27	0x34706910	2.2389963e-07
28	0x346a3a5e	2.1814182e-07
29	0x33613d20	5.2442488e-08
30	0x32aa8763	1.9852171e-08
31	0x333df2e0	4.4225885e-08
32	0x3366f088	5.376981e-08
33	0x338fb9c4	6.692747e-08
34	0x32bf99de	2.2305297e-08
35	0x32b4fab3	2.1068763e-08
36	0x32b6a033	2.1260439e-08
37	0x32ecfda0	2.7589351e-08
38	0x328be2ac	1.6284808e-08
39	0x32a98dba	1.973864e-08
40	0x334be890	4.7476135e-08
41	0x330253b3	3.0344108e-08
42	0x328bade0	1.6260799e-08
43	0x33ab3331	7.97212e-08
44	0x3342590a	4.5250125e-08
45	0x34aa8962	3.1764927e-07
46	0x342e0de0	1.621006e-07
47	0x32641a16	1.3277278e-08
48	0x332f2fe2	4.0788912e-08
49	0x329112a5	1.68887e-08
50	0x329c1005	1.8168075e-08
51	0x328a8af0	1.6128496e-08
52	0x35174d1f	5.636411e-07
53	0x32e09518	2.6144832e-08
54	0x32d1a7d5	2.4407123e-08
55	0x348b1abf	2.5910228e-07
56	0x332ea009	4.0658083e-08
57	0x33291f48	3.937683e-08
58	0x32a329f3	1.8994774e-08
59	0x33290c92	3.935981e-08
60	0x33006384	2.989283e-08
61	0x331e5a7e	3.6869544e-08
62	0x354d1023	7.6391933e-07
63	0x328b9c02	1.6252674e-08

exp_avg f4 [117, 64]
0	0x364929ee	2.997574e-06
1	0xb5e6488e	-1.7157452e-06
2	0xb622cf3e	-2.4260512e-06
3	0xb5820dac	-9.689734e-07
4	0x3693f286	4.409175e-06
5	0x35e7ca76	1.7269765e-06
6	0xb4e572b6	-4.2738037e-07
7	0xb6c9beae	-6.012465e-06
8	0xb7293c85	-1.0087276e-05
9	0xb41f4935	-1.4834661e-07
10	0x339003e7	6.7062324e-08
11	0x34c1ac2e	3.607433e-07
12	0xb6cf510b	-6.1785154e-06
13	0x3635e22c	2.710275e-06
14	0xb6fe21f6	-7.5737435e-06
15	0xb628d406	-2.5157365e-06
16	0xb613997f	-2.1994053e-06
17	0x370bdfa6	8.337118e-06
18	0x36d31301	6.2905024e-06
19	0xb69f9b88	-4.7566755e-06
20	0xb6c7902a	-5.947445e-06
21	0xb710edd6	-8.638444e-06
22	0x36e8c405	6.9369585e-06
23	0x3506d954	5.0235144e-07
24	0x36a48aef	4.903755e-06
25	0x367ad038	3.7374102e-06
26	0xb608ed69	-2.040377e-06
27	0xb68e4e8d	-4.2410743e-06
28	0x34f46fb5	4.552982e-07
29	0xb66555b0	-3.4173536e-06
30	0xb429a6f2	-1.5800086e-07
31	0x36636719	3.3885647e-06
32	0x36f86933	7.4032228e-06
33	0xb67cc3ea	-3.7664963e-06
34	0xb61b787e	-2.3166936e-06
35	0xb698f760	-4.5587512e-06
36	0x35522061	7.8278214e-07
37	0xb69c9ba3	-4.667281e-06
38	0xb6dbd138	-6.551065e-06
39	0xb67ffb03	-3.814407e-06
40	0xb5ccef6b	-1.5268864e-06
41	0xb6901131	-4.2935358e-06
42	0x360f5b64	2.1361857e-06
43	0x36ebe1f3	7.0298497e-06
44	0xb689c0ae	-4.105349e-06
45	0x35ded38b	1.6601856e-06
46	0x35bce870	1.407474e-06
47	0x37003d6f	7.643698e-06
48	0x348a31cc	2.5740735e-07
49	0x356861a0	8.65688e-07
50	0xb4e5fd86	-4.2839036e-07
51	0xb6053b52	-1.9853073e-06
52	0xb7116ecf	-8.668473e-06
53	0xb6bbf5b3	-5.6016374e-06
54	0xb6b03b31	-5.2520995e-06
55	0x36dee68d	6.642955e-06
56	0x35fa582a	1.8652111e-06
57	0x34928234	2.7289354e-07
58	0xb5df1929	-1.6622117e-06
59	0xb616495f	-2.239445e-06
60	0xb532988d	-6.653216e-07
61	0xb7193c12	-9.133497e-06
62	0xb7498e9b	-1.20137365e-05
63	0xb6b76ea2	-5.4667044e-06
64	0x360f4470	2.1348496e-06
65	0xb6432a37	-2.9081837e-06
66	0xb45e5df1	-2.0709537e-07
67	0x338e2e62	6.620827e-08
68	0xb683de47	-3.9299807e-06
69	0x3593e764	1.1019697e-06
70	0x360b83da	2.0789362e-06
71	0xb690d443	-4.316245e-06
72	0xb470bcbb	-2.2420402e-07
73	0x36719896	3.6000615e-06
74	0x35f89832	1.8521735e-06
75	0xb5651a4a	-8.5347403e-07
76	0x36587da1	3.2259634e-06
77	0xb58275e8	-9.72007e-07
78	0xb6acba6c	-5.147702e-06
79	0x369079c7	4.305711e-06
80	0xb53c1c2b	-7.007645e-07
81	0x37598c7e	1.2966919e-05
82	0xb63593a6	-2.7057044e-06
83	0xb5e6422c	-1.7155594e-06
84	0x341b73d9	1.4477645e-07
85	0xb608a3ed	-2.0360997e-06
86	0x36fe9e24	7.5882e-06
87	0xb6d89161	-6.454226e-06
88	0xb162e77c	-3.3018912e-09
89	0xb71b1d77	-9.24558e-06
90	0xb5886393	-1.016177e-06
91	0x3625fac6	2.4732885e-06
92	0xb6cb9b5d	-6.067958e-06
93	0xb58fa66a	-1.0702763e-06
94	0xb6655edc	-3.4178875e-06
95	0x369aa220	4.6084315e-06
96	0x358de456	1.0571773e-06
97	0xb5cc6792	-1.5229327e-06
98	0x34ff570b	4.7560783e-07
99	0xb6c33710	-5.817863e-06
100	0xb66db26a	-3.5419603e-06
101	0xb6a27915	-4.842072e-06
102	0x35b40aa4	1.3414142e-06
103	0xb625cba1	-2.4705444e-06
104	0x357996ed	9.2979354e-07
105	0xb2b8e189	-2.152298e-08
106	0xb6c1db0c	-5.7773486e-06
107	0x358e8773	1.0619245e-06
108	0xb6323ca8	-2.6559374e-06
109	0x3697f018	4.5281013e-06
110	0x36b8b0e9	5.5042224e-06
111	0x36803f26	3.8220487e-06
112	0xb693ff81	-4.410686e-06
113	0x367500dd	3.6508347e-06
114	0x35de72d2	1.6573706e-06
115	0x369498ee	4.428547e-06
116	0xb662cf17	-3.3797166e-06
117	0xb67ccbde	-3.7669593e-06
118	0xb5df4094	-1.663359e-06
119	0x36cd9524	6.1268383e-06
120	0x3614a04e	2.2147028e-06
121	0x35d86b38	1.6124459e-06
122	0xb617d32a	-2.2623667e-06
123	0xb67d4c42	-3.7744326e-06
124	0x3721509f	9.615119e-06
125	0xb6a2cd18	-4.8518523e-06
126	0xb732d84c	-1.0659987e-05
127	0xb5b84c9f	-1.3731368e-06
128	0x361fbf12	2.3804064e-06
129	0xb580cddb	-9.596655e-07
130	0x381bb81a	3.7126338e-05
131	0x35ac9f2a	1.2861321e-06
132	0xb6ad7f1f	-5.1706006e-06
133	0xb684e6e3	-3.9607853e-06
134	0x37b574b7	2.1631231e-05
135	0xb4be4613	-3.5441244e-07
136	0x34a1d1b0	3.0141155e-07
137	0x36d91322	6.4693313e-06
138	0xb4fe620f	-4.7382534e-07
139	0x34e28d45	4.2198567e-07
140	0x35b49f3b	1.3457387e-06
141	0x33f5c0f3	1.1443799e-07
142	0xb6fad9dc	-7.4759428e-06
143	0x368f985f	4.2794704e-06
144	0x372a0207	1.0133262e-05
145	0x37efc308	2.8581839e-05
146	0xb7a745d7	-1.9940473e-05
147	0xb77e76f4	-1.5167276e-05
148	0x37842214	1.5751495e-05
149	0x370061c7	7.65216e-06
150	0x37bca1b5	2.2486647e-05
151	0xb7bacff4	-2.2269764e-05
152	0x36f19501	7.199706e-06
153	0xb89a2929	-7.350959e-05
154	0x366c3ff1	3.520396e-06
155	0x374effba	1.2338098e-05
156	0xb76816db	-1.3833599e-05
157	0xb75befc8	-1.3109246e-05
158	0xb60a6c0c	-2.0626494e-06
159	0x370de001	8.45641e-06
160	0x35503a14	7.7570553e-07
161	0x36ce7ed5	6.1540436e-06
162	0xb6e10e56	-6.7071915e-06
163	0xb7a2ba4f	-1.9398662e-05
164	0x3689bdd9	4.1050193e-06
165	0x3700b74f	7.672074e-06
166	0x348a0962	2.571133e-07
167	0xb72903ef	-1.0074101e-05
168	0x36d5f542	6.3764464e-06
169	0x3719e5bf	9.173003e-06
170	0x36ed897f	7.079157e-06
171	0xb719595c	-9.140316e-06
172	0xb5cdb802	-1.5327244e-06
173	0x37e8c7d9	2.7749616e-05
174	0xb640e8d5	-2.8745756e-06
175	0xb7aeee0c	-2.0853266e-05
176	0xb7e783cc	-2.7598719e-05
177	0x338da2ee	6.595461e-08
178	0x375b748a	1.3080551e-05
179	0x371c1859	9.3039935e-06
180	0xb7080d5b	-8.109341e-06
181	0xb6c29b1c	-5.7997077e-06
182	0xb7a4754b	-1.9604942e-05
183	0x380b74a5	3.3248816e-05
184	0x35a793cf	1.2485488e-06
185	0x36517984	3.1214158e-06
186	0xb74cc77a	-1.2205792e-05
187	0xb66348a0	-3.386791e-06
188	0xb5cec47c	-1.540538e-06
189	0x34118d5c	1.3555604e-07
190	0xb80e6524	-3.3949633e-05
191	0x380878ab	3.2537308e-05
192	0xb70dcae7	-8.451497e-06
193	0x37365bdf	1.0869436e-05
194	0x38232b5e	3.8902617e-05
195	0xb581c383	-9.66815e-07
196	0xb667ed9c	-3.455999e-06
197	0xb7b057ec	-2.1021777e-05
198	0x38187b49	3.6354442e-05
199	0x362b349e	2.5511613e-06
200	0xb79ed40f	-1.8933815e-05
201	0x349e5622	2.9492463e-07
202	0x36bc232d	5.6069316e-06
203	0xb6b2680c	-5.316926e-06
204	0x379ffd5b	1.9072255e-05
205	0x36eb85e3	7.019132e-06
206	0xb77dfbca	-1.5138599e-05
207	0x35dc04ef	1.6392713e-06
208	0x36982469	4.5341917e-06
209	0x379fd58b	1.9053716e-05
210	0xb70b1160	-8.289091e-06
211	0xb81d95b3	-3.7571135e-05
212	0xb5926972	-1.0908536e-06
213	0x378ca213	1.6764772e-05
214	0xb7427c22	-1.1592203e-05
215	0xb703bc14	-7.851999e-06
216	0x379dba67	1.8802659e-05
217	0x3779b62e	1.4883974e-05
218	0x372443d1	9.7909515e-06
219	0xb713f631	-8.819204e-06
220	0x36cf56d4	6.179189e-06
221	0xb6ce31a5	-6.145058e-06
222	0x349cc34a	2.9199356e-07
223	0xb614b72f	-2.2160345e-06
224	0x376fb252	1.42870285e-05
225	0x36f5861c	7.3171814e-06
226	0xb78219c7	-1.5509211e-05
227	0xb806ad7b	-3.2109656e-05
228	0x366859a8	3.462288e-06
229	0x3687fbaa	4.052611e-06
230	0xb7b3d358	-2.1436877e-05
231	0xb7e5800b	-2.7358552e-05
232	0x373290f4	1.0643376e-05
233	0x3705499d	7.944557e-06
234	0x37320f23	1.0613151e-05
235	0xb76c4565	-1.4082853e-05
236	0xb7a232ab	-1.9335499e-05
237	0x38407576	4.588576e-05
238	0xb81474e8	-3.5394827e-05
239	0xb61e107b	-2.3553428e-06
240	0xb7baa2ad	-2.224868e-05
241	0x375d1460	1.317737e-05
242	0x36f41e4e	7.2752946e-06
243	0x3750ae80	1.2438395e-05
244	0xb7fc7359	-3.0094454e-05
245	0x37d3a02b	2.5227744e-05
246	0xb80e784c	-3.3967473e-05
247	0x37e22f7b	2.696341e-05
248	0xb77071eb	-1.4331638e-05
249	0x34d56db1	3.9754153e-07
250	0xb7f87844	-2.9619907e-05
251	0x37285084	1.0032327e-05
252	0xb8089f76	-3.2573436e-05
253	0xb79b5cd9	-1.8520675e-05
254	0xb7836381	-1.5662752e-05
255	0x378d5d70	1.685202e-05
