server_report/ae_graph/ae_graph_mask/autoencoder_20251229_133441.pth (torch, 15622 bytes, 21 tensors)

conv1.bias f4 [32]
000000 00 00 00 00 00 00 00 00 05 42 0b bc 00 00 00 00
       0.0 0.0 -0.008499627 0.0
000010 00 00 00 00 00 00 00 00 00 00 00 00 00 00 00 00
       0.0 0.0 0.0 0.0
000020 b7 e5 9f bd 8c 29 72 3c ed f2 34 3c 00 00 00 00
       -0.078074865 0.014780413 0.011044246 0.0
000030 ce 2b 7c 3b 7b 79 a5 39 00 00 00 00 42 9b 3f bd
       0.0038478258 0.00031561762 0.0 -0.046778925
000040 c5 46 de 3b 00 00 00 00 00 00 00 00 b3 bb 6d 3a
       0.0067833387 0.0 0.0 0.0009068802
000050 b0 e5 41 3b 5b 80 1d bc 00 00 00 00 ef 7e 14 be
       0.0029586367 -0.009613122 0.0 -0.14501546
000060 28 04 06 3a 00 00 00 00 cb f0 d3 3e 4e d7 b2 bc
       0.00051123137 0.0 0.41394648 -0.02183118
000070 77 de be bd 2a 0d 23 3a 00 00 00 00 00 00 00 00
       -0.093197756 0.0006219918 0.0 0.0

conv1.lin.weight f4 [32, 1]
000000 5f cb d8 be 15 41 c6 be e0 4f 1c bb f0 a7 43 bd
       -0.4234266 -0.3872153 -0.002385132 -0.04776758
000010 85 19 c2 be 13 48 d8 be fc 07 d4 be bc 7b ae be
       -0.37910095 -0.42242488 -0.41412342 -0.34078777
000020 89 e4 9d 3d 3e 0b ec 3e b7 84 af 3e 91 d8 15 be
       0.07709605 0.46102327 0.3428094 -0.14633395
000030 5f 7b 06 3f 02 51 31 3f 5b b5 86 be e9 70 60 3f
       0.52532 0.69264233 -0.26310238 0.8767229
000040 14 82 2d 3f c1 a6 b5 bd 2f d1 03 be 8a a1 bf 3e
       0.6777661 -0.088696964 -0.12872766 0.37427932
000050 09 10 36 3f 8d 6a ff ba 9d 5e d7 be 92 a6 1b 3f
       0.7111822 -0.0019486711 -0.42064372 0.6080104
000060 25 86 f7 3e 22 c7 ab be 78 4b 68 3e f7 ca 2b 3f
       0.48344532 -0.33550364 0.22685039 0.67106575
000070 af 64 64 3f 22 92 29 3f 64 fb b0 bd e7 f1 2c be
       0.8921613 0.66238606 -0.08641699 -0.16889153

conv2.bias f4 [4]
000000 29 1e 8f bd 75 26 5e bd 99 bc cd bc 33 67 0d bd
       -0.069881745 -0.054235894 -0.025114344 -0.034522247

conv2.lin.weight f4 [4, 32]
000000 02 5c 89 be 85 37 93 bd 5c 10 89 be a0 a2 1b 3e
       -0.2682801 -0.07188324 -0.26770294 0.15198755
000010 56 d4 e5 3c 96 71 51 3e 87 9a 99 be 04 4b 09 3e
       0.028055351 0.20453486 -0.30000708 0.13407522
000020 43 72 55 be 0d 08 dd 3d 4e a7 b0 be e3 e7 9d 3e
       -0.20844369 0.10792551 -0.34502643 0.30840978
000030 aa 95 a0 be e7 0f 0f 3e ee 68 61 be 0f 6d b6 be
       -0.31364185 0.1397091 -0.22012684 -0.3563008
000040 63 b0 02 bf 7d a3 e9 bd 10 11 8b bd 35 37 5e bc
       -0.51050395 -0.11408136 -0.06790364 -0.013562967
000050 aa 81 f2 be ac 9f ae 3e c5 7a 93 be f5 2c 99 3f
       -0.4736455 0.34106195 -0.28804603 1.1966845
000060 66 c2 10 3d d0 aa e9 bd 36 9b 00 bd 26 39 1a bf
       0.035341643 -0.11409533 -0.03139802 -0.6024345
000070 19 55 38 3f 8f 7d 05 be 77 37 a2 3e 45 22 a4 be
       0.7200485 -0.13036178 0.3168294 -0.32057396
000080 85 d8 02 3d ea 6c fb bd 3e 7a 92 3e 9d c7 a2 3e
       0.03194477 -0.12276633 0.28608888 0.31792918
000090 63 70 b0 bc 95 9f 02 be 1d fa a5 3e 68 23 b0 bd
       -0.021537965 -0.12756188 0.32417384 -0.08600503
0000a0 e4 36 35 3e 59 87 cf be d2 c3 4c be 4e b1 a0 be
       0.1769672 -0.4053295 -0.19996575 -0.31385273
0000b0 7c a6 a4 be 32 6c 19 bf bf 0d 59 be bd 2d f1 3e
       -0.32158267 -0.5993072 -0.2119665 0.47105208
0000c0 3e cb bb bd 45 f4 06 be 0d 17 57 3e 24 b8 ba bd
       -0.09169625 -0.13179119 0.21004887 -0.09117153
0000d0 9d ad c8 bc 6d 5f b0 bd b8 bc 92 be 79 1d 0f 3e
       -0.024496848 -0.08611951 -0.28659606 0.13976087
0000e0 99 8f 22 be 36 ed ae 3e 2f 8c d0 3d e6 eb 0b bc
       -0.1587509 0.34165353 0.10182988 -0.008540129
0000f0 c0 b5 7b 3f b2 d5 e9 bd 0e f0 42 3e e5 bd 73 bc
       0.98324203 -0.11417712 0.19036886 -0.014876817
000100 35 db 71 3e ea 94 8e be 13 f8 f7 3d 1e 12 9b 3d
       0.23618777 -0.27847987 0.12107863 0.07571815
000110 07 a5 70 bd bb 08 90 3d 73 dd 9d 3e 45 16 cd be
       -0.058751132 0.07032915 0.30833015 -0.40056053
000120 db 00 6f 3d d0 e4 36 be 5c 4c 22 be 0c 1a 98 be
       0.058350425 -0.17860723 -0.15849441 -0.29707372
000130 7d cc bb be 13 1b ea be 79 22 a6 be d7 49 03 3f
       -0.3667945 -0.4572378 -0.32448176 0.51284546
000140 91 14 eb be 0f 2b af be e5 60 64 3e cd 28 72 be
       -0.45914128 -0.3421254 0.22302587 -0.23648377
000150 65 53 8e be 2d c4 cb 3d 02 9e 31 be 2f 6f 97 3c
       -0.27798 0.09949527 -0.17345431 0.018485634
000160 36 a1 b6 be af 80 b3 be 17 ca 87 3d b9 d9 c0 3d
       -0.3566987 -0.35059115 0.066303425 0.09416527
000170 cd 4d 88 3f e1 61 ff be be f5 f6 3d 0e 7e ad 3e
       1.0648743 -0.49879363 0.1205859 0.33885235
000180 24 74 58 be 64 1f 4b be db f0 22 3d 2c 29 2c be
       -0.21138054 -0.19836193 0.03978048 -0.16812581
000190 92 d5 90 be 2d 9c e6 3d 65 44 44 3e 63 88 59 bd
       -0.2828794 0.11260257 0.19166715 -0.053108584
0001a0 7e 7c a3 be e4 56 ac 3d d5 6f af bd f5 05 09 3e
       -0.31930918 0.084150106 -0.08566252 0.13381179
0001b0 9a 1d b5 be 37 ec 11 bf 48 79 9d 3e f1 ec 1b 3e
       -0.35374147 -0.5700106 0.30756593 0.15227105
0001c0 7c e8 c0 be dd 45 ed 3d 8a a7 b1 3e 0f b2 1d bd
       -0.37677372 0.11585591 0.34698135 -0.038499888
0001d0 24 79 20 bf 20 75 31 be e3 c0 93 be 65 2a b3 3f
       -0.62684846 -0.17329836 -0.28858098 1.3997313
0001e0 b8 71 24 be f0 2b c9 bd 00 7b 40 3f b6 14 de be
       -0.16059005 -0.098228335 0.75187683 -0.43375176
0001f0 8e 1a 4b 3f 65 b6 da be cb 7f b2 3e 63 87 09 3e
       0.79337394 -0.4271728 0.34863123 0.13430552

decoder.0.weight f4 [32, 4]
000000 c9 d9 90 3e 96 e2 9a 3d 96 5b a0 be cb ad 77 be
       0.28291157 0.07562749 -0.31319875 -0.2418739
000010 18 d3 f0 3d b7 1b 36 bf 8d 0f 39 bf 82 6f b0 3e
       0.11759013 -0.7113604 -0.72289354 0.34460074
000020 76 32 d5 be 64 66 42 bf 6f aa dc be a0 7a eb bf
       -0.4164006 -0.75937486 -0.4309878 -1.8396797
000030 c8 be 76 bc 30 b7 c9 3e 13 c6 90 be 41 71 88 3e
       -0.015060134 0.39397573 -0.2827612 0.26648906
000040 92 fb e0 bb f6 08 2e 3f 2b a5 75 3e 09 20 bf be
       -0.006865927 0.67982423 0.23988788 -0.37329128
000050 9a c2 33 bd 58 99 2d 3e 3b c7 25 3f 01 43 50 be
       -0.04388676 0.16953027 0.64757127 -0.2033806
000060 3b ea 66 3d 75 57 aa 3e 8d f7 08 bf 20 aa cf 3e
       0.056375723 0.3326985 -0.5350273 0.40559483
000070 44 dd 20 3e fb 9b 33 3e 1b 22 69 3e 1e 10 2b bd
       0.15709406 0.1753997 0.22766916 -0.041763417
000080 48 6f 09 3d fd 4c ee be 3b 1d 54 be 28 21 3f 3e
       0.03355339 -0.46543112 -0.20714276 0.18664992
000090 74 30 18 bf 7e 0d 99 be 01 74 78 be 59 cf 11 c0
       -0.59448934 -0.29893106 -0.24263002 -2.2782805
0000a0 11 b2 28 3e 6f 6b 37 3f 73 86 c5 3e ed a3 5e bf
       0.16474177 0.71648306 0.3857914 -0.8696888
0000b0 b0 ad cf 3d 40 fb 22 be 68 df af 3e b0 0f bf be
       0.1014055 -0.15916157 0.34350133 -0.37316656
0000c0 70 2f 38 bf 98 56 a8 bf e8 2e 8a bf 17 13 9c bf
       -0.71947384 -1.3151426 -1.0795565 -1.2193326
0000d0 d9 15 41 bf 9d 10 79 bf 94 96 70 bf 67 11 2d 3f
       -0.7542396 -0.97290975 -0.93979764 0.6760468
0000e0 4d 41 3a 3f 39 5e 11 3f 7a 6e 88 be 73 1b a9 3d
       0.7275589 0.567844 -0.26646787 0.08257189
0000f0 2b d0 0d bf b8 6c 02 3f 74 82 3f be 78 96 7f 3d
       -0.55395764 0.5094714 -0.18702108 0.062399358
000100 a4 98 31 bf fe 15 e5 be e5 e4 de be f9 8c d8 bf
       -0.69373536 -0.4474334 -0.43534008 -1.6918021
000110 0a e8 e0 3e 38 29 96 3d f8 9f 13 be 1c 1e 11 be
       0.43927032 0.073320806 -0.14416492 -0.14171642
000120 32 a3 ae 3c b1 66 ae be a9 bb 1c 3f 15 d6 37 3e
       0.021318052 -0.34062722 0.61223847 0.1795276
000130 da 86 e3 3e f5 f9 f2 bd 01 97 f0 3d 97 cc 29 bf
       0.4443882 -0.11864082 0.11747552 -0.66327804
000140 7d 2a c8 bc d0 9b 27 3b 83 d1 01 3e 96 66 b0 be
       -0.024434322 0.002557505 0.12677579 -0.34453267
000150 f8 4a 2c 3e 94 a2 a8 3e 3c eb d6 be 14 c7 21 3e
       0.16825473 0.32936537 -0.41976345 0.15798599
000160 34 78 4f 3e 4a 8f cd be 6e 6e f0 3e d6 fe ec be
       0.20260698 -0.40148383 0.4695925 -0.46288174
000170 a2 64 bb be f6 58 c1 3e 39 42 bf 3e c2 37 80 3c
       -0.36600214 0.37763184 0.3735521 0.015651587
000180 df 54 c2 bc 51 ef ed bf 9d cb 86 bf 2c 5d c2 be
       -0.02372211 -1.8588659 -1.0530888 -0.3796171
000190 cc 1b 07 be 02 f1 06 3f 22 8a 2a 3f ce 01 cf be
       -0.13194197 0.527115 0.66617024 -0.40431064
0001a0 fc 10 0c be 9a 08 87 be 73 76 92 bc 1b 57 1d 3e
       -0.13678354 -0.2637375 -0.017878747 0.1536526
0001b0 81 67 d1 3e 6b 04 fd be 78 4b 08 bf 1b 5c 3a 3e
       0.4089928 -0.49417433 -0.53240156 0.18199198
0001c0 70 9e ad bc 5f 08 e2 be b5 52 bd be 65 35 29 bf
       -0.021193713 -0.44147012 -0.36977163 -0.660971
0001d0 c0 bd a9 3e aa 06 f7 be 80 c1 4a be e8 67 6f be
       0.3315258 -0.48247272 -0.19800377 -0.23379481
0001e0 cc 56 e0 3d 36 7f c4 3e a2 53 00 bf c9 92 b7 3e
       0.10954055 0.38378304 -0.50127614 0.35854176
0001f0 46 cd b4 3e 5c 16 ba be 10 d6 29 be 3c fc b6 be
       0.3531286 -0.36345184 -0.16585565 -0.35739315

decoder.0.bias f4 [32]
000000 25 66 99 3d 2b 7a 19 be 70 46 59 be 8d c0 8a be
       0.07490186 -0.1498801 -0.21218276 -0.2710003
000010 8e 19 a9 3d 01 05 a4 3e 90 af cc 3e 01 89 b0 3e
       0.08256827 0.32035068 0.39977694 0.34479526
000020 a6 51 ee bd 78 1f 92 be 6f 19 62 3e c0 47 1b be
       -0.11636667 -0.28539634 0.22080015 -0.15164089
000030 32 40 d2 be d4 5b 07 bf 82 9c 96 3e 19 fe 97 3e
       -0.41064602 -0.52874494 0.2941628 0.2968605
000040 06 1d cc be 50 4b 97 bd bf c2 d1 3d c9 e7 50 3e
       -0.39865893 -0.073874116 0.10242223 0.20400919
000050 cb 61 03 3f 68 b0 10 be 80 58 e0 bd c3 29 f9 be
       0.51321095 -0.14129794 -0.1095438 -0.48664674
000060 06 0b 76 be fc 1d ff 3d 38 f5 95 3d 99 c5 9b 3b
       -0.24027643 0.12456891 0.073221624 0.00475378
000070 c2 26 2f 3b d8 18 d1 be f5 40 96 3e 74 90 0d be
       0.0026725982 -0.40839267 0.29346433 -0.13824636

decoder.2.weight f4 [1, 32]
000000 91 df 2b 3e 09 32 1f 40 3f 01 a7 3f 2f 61 ec 3d
       0.16784503 2.487429 1.3047255 0.11541974
000010 0d fd 5d 3e 23 c0 76 bd 1d fb fd 3d 45 42 2e bd
       0.21678562 -0.06024183 0.12401412 -0.04254367
000020 78 e0 b9 be 35 2d 08 40 d4 af 0a bf f5 85 45 3d
       -0.3630407 2.1277592 -0.5417454 0.048223455
000030 4d b7 9e 3f 74 90 d4 c0 b0 6a 0f 3d fe f3 f9 bd
       1.2399689 -6.6426334 0.035013855 -0.12204741
000040 fb d7 b4 3f 82 43 e3 bb 4e 7a 3f bd 2c 51 38 3b
       1.4128412 -0.006935538 -0.0467475 0.0028124554
000050 f5 7b 43 3e 7c cd 17 be 88 e9 0b 3e a3 87 2f 3d
       0.19090255 -0.1482448 0.13663304 0.042853963
000060 06 4d c9 3f 22 39 06 3e 13 82 34 3d d0 a1 42 3e
       1.5726631 0.13107732 0.04406936 0.19007039
000070 8f 20 77 3e 82 86 02 be 05 fc 05 3e de 4b ff bd
       0.24133514 -0.12746623 0.13084419 -0.124656424

exp_avg f4 [32]
000000 00 00 00 00 00 00 00 00 04 00 00 00 00 00 00 00
       0.0 0.0 6e-45 0.0
000010 00 00 00 00 00 00 00 00 00 00 00 00 00 00 00 00
       0.0 0.0 0.0 0.0
000020 04 00 00 00 13 f4 72 b9 39 c2 88 b9 00 00 00 00
       6e-45 -0.00023169843 -0.0002608465 0.0
000030 5d d5 35 ba 89 3b 94 ba 00 00 00 00 a7 65 18 3a
       -0.00069363957 -0.0011309247 0.0 0.0005813487
000040 55 cc 20 ba 00 00 00 00 00 00 00 00 c0 68 47 b9
       -0.00061339635 0.0 0.0 -0.00019017141
000050 b4 49 45 ba 04 00 00 00 00 00 00 00 b4 2e ab 3a
       -0.0007525936 6e-45 0.0 0.0013060183
000060 8b eb d4 b9 00 00 00 00 74 12 60 3a 18 03 d9 b9
       -0.00040611284 0.0 0.00085476716 -0.0004139177
000070 f3 19 d3 3a 91 df 38 ba 00 00 00 00 00 00 00 00
       0.0016105756 -0.0007052357 0.0 0.0

exp_avg_sq f4 [32]
000000 00 00 00 00 00 00 00 00 d4 b0 c0 14 00 00 00 00
       0.0 0.0 1.9456792e-26 0.0
000010 00 00 00 00 00 00 00 00 00 00 00 00 00 00 00 00
       0.0 0.0 0.0 0.0
000020 6f c5 2c 19 a1 03 c8 35 30 9f ab 35 00 00 00 00
       8.932063e-24 1.4902217e-06 1.2786822e-06 0.0
000030 23 86 12 37 9e 3a c9 37 00 00 00 00 22 0d f6 36
       8.733509e-06 2.3988363e-05 0.0 7.3329e-06
000040 56 b7 da 36 00 00 00 00 00 00 00 00 54 be 4b 35
       6.5182494e-06 0.0 0.0 7.5900357e-07
000050 6f c5 22 37 85 e5 67 17 00 00 00 00 fa 62 d1 37
       9.701921e-06 7.492982e-25 0.0 2.4960831e-05
000060 3b 03 56 36 00 00 00 00 3a 3a 60 37 07 2f 42 36
       3.1890365e-06 0.0 1.3364997e-05 2.8935626e-06
000070 ca 9c 46 38 07 65 17 37 00 00 00 00 00 00 00 00
       4.73529e-05 9.023824e-06 0.0 0.0

exp_avg f4 [32, 1]
000000 00 00 00 00 00 00 00 00 04 00 00 00 00 00 00 00
       0.0 0.0 6e-45 0.0
000010 00 00 00 00 00 00 00 00 00 00 00 00 00 00 00 00
       0.0 0.0 0.0 0.0
000020 04 00 00 00 b4 59 5f b8 4b 3b a6 b8 00 00 00 00
       6e-45 -5.3250886e-05 -7.926541e-05 0.0
000030 93 0b 6f b9 d6 09 c5 b9 00 00 00 00 a8 63 45 39
       -0.00022797128 -0.00037582096 0.0 0.00018824509
000040 8c c2 56 b9 00 00 00 00 00 00 00 00 08 09 5f b8
       -0.00020481105 0.0 0.0 -5.3175754e-05
000050 d4 ed 90 b9 04 00 00 00 00 00 00 00 37 ef 0b 3a
       -0.00027643016 6e-45 0.0 0.0005338075
000060 91 f0 03 b9 00 00 00 00 90 e7 aa 39 dd 60 27 b9
       -0.00012582752 0.0 0.00032597454 -0.00015962445
000070 26 0b 13 3a 27 81 78 b9 00 00 00 00 00 00 00 00
       0.0005609266 -0.00023699236 0.0 0.0

exp_avg_sq f4 [32, 1]
000000 00 00 00 00 00 00 00 00 8a b6 a6 12 00 00 00 00
       0.0 0.0 1.0521072e-27 0.0
000010 00 00 00 00 00 00 00 00 00 00 00 00 00 00 00 00
       0.0 0.0 0.0 0.0
000020 a9 79 71 18 17 69 95 33 60 ab db 33 00 00 00 00
       3.1209943e-24 6.957469e-08 1.0229155e-07 0.0
000030 55 c9 55 35 4d 5a 12 36 00 00 00 00 f1 24 22 35
       7.964166e-07 2.1808257e-06 0.0 6.040346e-07
000040 f8 50 2a 35 00 00 00 00 00 00 00 00 9d f9 4e 33
       6.344776e-07 0.0 0.0 4.8190135e-08
000050 72 14 9c 35 70 48 78 15 00 00 00 00 a0 c0 8a 36
       1.1628856e-06 5.0140344e-26 0.0 4.135145e-06
000060 95 a1 85 34 00 00 00 00 e6 d5 df 35 97 17 d5 34
       2.4890747e-07 0.0 1.6677047e-06 3.9691506e-07
000070 cc 9a a6 36 d4 6c 66 35 00 00 00 00 00 00 00 00
       4.9652062e-06 8.584004e-07 0.0 0.0

exp_avg f4 [4]
000000 6e c7 0b b8 8e fb 1c 3a 94 86 dd 39 5c 91 85 3a
       -3.3325916e-05 0.00059884123 0.00042252673 0.0010190415

exp_avg_sq f4 [4]
000000 46 c4 9f 34 e5 18 05 37 a9 a6 94 36 89 5c a0 37
       2.9758866e-07 7.933214e-06 4.4301455e-06 1.9116576e-05

exp_avg f4 [4, 32]
000000 00 00 00 00 00 00 00 00 04 00 00 00 00 00 00 00
       0.0 0.0 6e-45 0.0
000010 00 00 00 00 00 00 00 00 00 00 00 00 00 00 00 00
       0.0 0.0 0.0 0.0
000020 04 00 00 00 d4 15 bc b6 4e 66 8c b6 00 00 00 00
       6e-45 -5.6053777e-06 -4.184235e-06 0.0
000030 80 37 ca b6 94 09 03 b7 00 00 00 00 0e f6 22 b7
       -6.02653e-06 -7.810439e-06 0.0 -9.7132415e-06
000040 f1 99 03 b7 00 00 00 00 00 00 00 00 06 0c 8e b6
       -7.844051e-06 0.0 0.0 -4.2333295e-06
000050 d3 fd 07 b7 04 00 00 00 00 00 00 00 47 35 90 b6
       -8.105725e-06 6e-45 0.0 -4.2977367e-06
000060 6e de b6 b6 00 00 00 00 93 a4 6e b7 d4 f6 f3 b6
       -5.449917e-06 0.0 -1.4224223e-05 -7.270699e-06
000070 d7 ad 2e b7 4b 10 fb b6 00 00 00 00 00 00 00 00
       -1.0411683e-05 -7.4822797e-06 0.0 0.0
000080 00 00 00 00 00 00 00 00 04 00 00 00 00 00 00 00
       0.0 0.0 6e-45 0.0
000090 00 00 00 00 00 00 00 00 00 00 00 00 00 00 00 00
       0.0 0.0 0.0 0.0
0000a0 04 00 00 80 46 8f b5 38 67 a7 86 38 00 00 00 00
       -6e-45 8.657439e-05 6.420799e-05 0.0
0000b0 af d9 be 38 ba 2d f6 38 00 00 00 00 64 3b f7 38
       9.100453e-05 0.00011738711 0.0 0.0001178894
0000c0 96 ed f8 38 00 00 00 00 00 00 00 00 4e 41 85 38
       0.00011869815 0.0 0.0 6.354098e-05
0000d0 aa 13 00 39 04 00 00 00 00 00 00 00 d3 7c 08 38
       0.00012214357 6e-45 0.0 3.254118e-05
0000e0 e9 bc ab 38 00 00 00 00 91 b4 95 39 d2 8a cc 38
       8.189103e-05 0.0 0.00028554027 9.753335e-05
0000f0 72 ba cd 38 53 c6 eb 38 00 00 00 00 00 00 00 00
       9.80989e-05 0.00011242614 0.0 0.0
000100 00 00 00 00 00 00 00 00 04 00 00 00 00 00 00 00
       0.0 0.0 6e-45 0.0
000110 00 00 00 00 00 00 00 00 00 00 00 00 00 00 00 00
       0.0 0.0 0.0 0.0
000120 04 00 00 80 72 aa 53 38 77 e7 1c 38 00 00 00 00
       -6e-45 5.046506e-05 3.7408867e-05 0.0
000130 39 a3 5a 38 23 4b 8c 38 00 00 00 00 6f 21 86 38
       5.2127263e-05 6.6897155e-05 0.0 6.3958454e-05
000140 51 ed 8e 38 00 00 00 00 00 00 00 00 1e f2 17 38
       6.815291e-05 0.0 0.0 3.6226695e-05
000150 8c 6d 92 38 04 00 00 00 00 00 00 00 97 bd 87 37
       6.982227e-05 6e-45 0.0 1.6181539e-05
000160 e8 b9 43 38 00 00 00 00 29 4c 4d 39 32 ba 60 38
       4.666476e-05 0.0 0.00019578695 5.357917e-05
000170 a1 18 5c 38 9f 68 86 38 00 00 00 00 00 00 00 00
       5.2475025e-05 6.409105e-05 0.0 0.0
000180 00 00 00 00 00 00 00 00 04 00 00 80 00 00 00 00
       0.0 0.0 -6e-45 0.0
000190 00 00 00 00 00 00 00 00 00 00 00 00 00 00 00 00
       0.0 0.0 0.0 0.0
0001a0 04 00 00 80 6c 7c 50 39 51 bb 1a 39 00 00 00 00
       -6e-45 0.00019882777 0.00014756365 0.0
0001b0 f2 bd 5f 39 ad 25 91 39 00 00 00 00 78 90 9f 39
       0.00021337697 0.00027684626 0.0 0.0003043448
0001c0 f6 76 91 39 00 00 00 00 00 00 00 00 1b 2b 1d 39
       0.00027745188 0.0 0.0 0.00014988745
0001d0 ae 74 96 39 04 00 00 80 00 00 00 00 43 b6 cc 38
       0.00028697163 -6e-45 0.0 9.761427e-05
0001e0 a7 98 4a 39 00 00 00 00 26 52 06 3a 67 dc 80 39
       0.00019321089 0.0 0.00051239354 0.00024578275
0001f0 15 c1 88 39 49 f4 8a 39 00 00 00 00 00 00 00 00
       0.000260838 0.00026503418 0.0 0.0

exp_avg_sq f4 [4, 32]
000000 00 00 00 00 00 00 00 00 f7 1e 8c 0e 00 00 00 00
       0.0 0.0 3.4542483e-30 0.0
000010 00 00 00 00 00 00 00 00 00 00 00 00 00 00 00 00
       0.0 0.0 0.0 0.0
000020 7a cf 4e 14 e4 37 9a 31 63 29 27 31 00 00 00 00
       1.044126e-26 4.488344e-09 2.4325224e-09 0.0
000030 2e bc a9 31 bf 42 0d 32 00 00 00 00 23 a3 21 32
       4.939941e-09 8.2224565e-09 0.0 9.408526e-09
000040 62 c5 0f 32 00 00 00 00 00 00 00 00 f0 98 25 31
       8.368575e-09 0.0 0.0 2.4097595e-09
000050 ab 40 19 32 1f 88 e2 0e 00 00 00 00 2a f5 7a 30
       8.920476e-09 5.584438e-30 0.0 9.129787e-10
000060 44 a0 89 31 00 00 00 00 6d 71 89 33 d0 5a dc 31
       4.005445e-09 0.0 6.400192e-08 6.413167e-09
000070 7e 13 e9 31 c7 4e 02 32 00 00 00 00 00 00 00 00
       6.7834085e-09 7.584908e-09 0.0 0.0
000080 00 00 00 00 00 00 00 00 c2 2a aa 0d 00 00 00 00
       0.0 0.0 1.0487352e-30 0.0
000090 00 00 00 00 00 00 00 00 00 00 00 00 00 00 00 00
       0.0 0.0 0.0 0.0
0000a0 88 47 56 13 88 82 11 34 f3 bb 9c 33 00 00 00 00
       2.7045865e-27 1.3551664e-07 7.298504e-08 0.0
0000b0 c5 11 1d 34 57 06 82 34 00 00 00 00 5a a1 83 34
       1.4628229e-07 2.4219e-07 0.0 2.451805e-07
0000c0 7c 49 85 34 00 00 00 00 00 00 00 00 a6 79 98 33
       2.4826647e-07 0.0 0.0 7.100179e-08
0000d0 53 99 8d 34 db 4d 08 0e 00 00 00 00 c8 c3 72 32
       2.6374855e-07 1.680078e-30 0.0 1.4130769e-08
0000e0 56 63 fd 33 00 00 00 00 df 86 e8 35 db 10 3e 34
       1.17993e-07 0.0 1.73246e-06 1.7701261e-07
0000f0 24 9c 27 34 cb 3a 70 34 00 00 00 00 00 00 00 00
       1.560989e-07 2.237313e-07 0.0 0.0
000100 00 00 00 00 00 00 00 00 bb 9f 4e 0f 00 00 00 00
       0.0 0.0 1.0187347e-29 0.0
000110 00 00 00 00 00 00 00 00 00 00 00 00 00 00 00 00
       0.0 0.0 0.0 0.0
000120 47 7a 02 15 6c 14 70 33 06 ad 00 33 00 00 00 00
       2.634975e-26 5.5897928e-08 2.9959686e-08 0.0
000130 22 a5 7b 33 99 ad ce 33 00 00 00 00 28 1b c9 33
       5.859068e-08 9.6242e-08 0.0 9.3647316e-08
000140 38 1e d6 33 00 00 00 00 00 00 00 00 f4 79 f2 32
       9.970648e-08 0.0 0.0 2.8227966e-08
000150 93 21 e2 33 7b bd a6 0f 00 00 00 00 bc 67 9f 31
       1.0530052e-07 1.6441849e-29 0.0 4.6393023e-09
000160 9a 6a 49 33 00 00 00 00 fe 9e 78 35 ee c5 93 33
       4.6895913e-08 0.0 9.2618563e-07 6.881224e-08
000170 80 a5 75 33 e4 2b bf 33 00 00 00 00 00 00 00 00
       5.719403e-08 8.902114e-08 0.0 0.0
000180 00 00 00 00 00 00 00 00 02 81 00 0e 00 00 00 00
       0.0 0.0 1.5839333e-30 0.0
000190 00 00 00 00 00 00 00 00 00 00 00 00 00 00 00 00
       0.0 0.0 0.0 0.0
0001a0 5f 6f f5 13 18 ca 2b 35 74 fb ba 34 00 00 00 00
       6.1956515e-27 6.399655e-07 3.4828156e-07 0.0
0001b0 66 ea 43 35 76 81 a4 35 00 00 00 00 23 b3 be 35
       7.2984255e-07 1.225663e-06 0.0 1.4208239e-06
0001c0 0a 6d a5 35 00 00 00 00 00 00 00 00 be bb c0 34
       1.2325193e-06 0.0 0.0 3.5899387e-07
0001d0 85 99 b1 35 27 8b 4e 0e 00 00 00 00 7d e0 12 34
       1.3232208e-06 2.545846e-30 0.0 1.3678978e-07
0001e0 9e 41 20 35 00 00 00 00 e2 8f 9e 36 38 7b 81 35
       5.970013e-07 0.0 4.725517e-06 9.64711e-07
0001f0 a1 6b 8b 35 38 94 97 35 00 00 00 00 00 00 00 00
       1.0387631e-06 1.1293514e-06 0.0 0.0

exp_avg f4 [32, 4]
000000 47 1c 0b 37 ef 96 b0 35 07 38 a6 36 34 7c 40 b5
       8.2916295e-06 1.3156949e-06 4.953708e-06 -7.1706313e-07
000010 8c ad 98 38 48 57 83 37 fe 21 38 38 84 ea 37 b7
       7.2802504e-05 1.565706e-05 4.3900676e-05 -1.0962252e-05
000020 55 18 4c 38 60 41 eb 36 57 75 f2 37 bf 04 b1 35
       4.866005e-05 7.0111564e-06 2.8903289e-05 1.3188909e-06
000030 04 00 00 80 04 00 00 00 04 00 00 80 04 00 00 80
       -6e-45 6e-45 -6e-45 -6e-45
000040 77 d8 65 36 d5 b1 81 34 15 c0 05 36 5a 2d 9e 34
       3.4249658e-06 2.4157512e-07 1.993035e-06 2.946279e-07
000050 d7 f4 7c b6 28 9c 2f b5 b0 2a f8 b5 c3 10 2c 36
       -3.7693442e-06 -6.541982e-07 -1.8489864e-06 2.5639754e-06
000060 ca b2 00 37 00 73 b2 35 c4 33 7d 36 53 22 ad b6
       7.671022e-06 1.3295503e-06 3.773007e-06 -5.1597976e-06
000070 6e 33 33 b6 da e7 f8 b4 20 ae af b5 a3 86 f4 35
       -2.6703015e-06 -4.6362294e-07 -1.3089193e-06 1.8218601e-06
000080 04 00 00 80 04 00 00 80 04 00 00 80 04 00 00 00
       -6e-45 -6e-45 -6e-45 6e-45
000090 31 a6 63 38 4c 06 a4 36 cf 7a 04 38 ad 20 5e 36
       5.4275795e-05 4.888314e-06 3.1585627e-05 3.3099598e-06
0000a0 80 2d c8 b7 c1 bd 8d b6 b6 53 74 b7 62 72 a2 33
       -2.3863045e-05 -4.2242177e-06 -1.4563024e-05 7.564519e-08
0000b0 00 00 00 00 00 00 00 00 00 00 00 00 00 00 00 00
       0.0 0.0 0.0 0.0
0000c0 db 41 5f 38 97 e9 0c 37 02 b1 06 38 f2 ea 06 34
       5.3228676e-05 8.399037e-06 3.211294e-05 1.2565195e-07
0000d0 43 1f 11 b9 b9 8c 34 b7 2b f0 a7 b8 74 1f 46 b7
       -0.00013839923 -1.0761601e-05 -8.007915e-05 -1.1809043e-05
0000e0 1d 54 10 36 68 09 c8 34 3b 5b 8e 35 e5 00 c0 b5
       2.1506632e-06 3.7259747e-07 1.0606376e-06 -1.4305375e-06
0000f0 61 6f ff b6 c6 48 b1 b5 da dc 7a b6 51 00 ad 36
       -7.6125584e-06 -1.3208708e-06 -3.7381456e-06 5.1558386e-06
000100 13 f6 dc 37 a0 be 0c 36 34 18 80 37 8b d7 01 36
       2.6340631e-05 2.0972584e-06 1.527006e-05 1.934796e-06
000110 00 00 00 00 00 00 00 00 00 00 00 00 00 00 00 00
       0.0 0.0 0.0 0.0
000120 e7 ef c8 b5 72 96 a9 b4 f9 5e 23 b5 5c ad 0b 36
       -1.4970982e-06 -3.1588166e-07 -6.0860435e-07 2.0813522e-06
000130 07 22 fb 33 3a 42 a0 32 7a 6e 94 33 e6 74 83 b2
       1.1694288e-07 1.8656568e-08 6.9118826e-08 -1.5303566e-08
000140 78 5c 46 37 ee 89 09 36 2f 10 c3 36 ec 9c 05 b7
       1.1823249e-05 2.0494876e-06 5.813337e-06 -7.963954e-06
000150 00 00 00 00 00 00 00 00 00 00 00 00 00 00 00 00
       0.0 0.0 0.0 0.0
000160 00 00 00 00 00 00 00 00 00 00 00 00 00 00 00 00
       0.0 0.0 0.0 0.0
000170 04 00 00 80 04 00 00 00 04 00 00 80 04 00 00 80
       -6e-45 6e-45 -6e-45 -6e-45
000180 91 3c 91 38 4d 54 11 37 f7 9b 2c 38 fc f7 14 36
       6.92542e-05 8.662301e-06 4.115325e-05 2.2198064e-06
000190 32 5f a0 36 02 37 2e 35 29 e1 01 36 da e3 9d b6
       4.779454e-06 6.49001e-07 1.9353558e-06 -4.70549e-06
0001a0 c7 a2 35 36 52 96 fb 34 4e eb b2 35 ef f1 f2 b5
       2.706585e-06 4.6861766e-07 1.3330516e-06 -1.8100817e-06
0001b0 e1 a8 d0 36 3d e1 bb 35 8b 1b 2c 36 72 2b 0b b7
       6.218543e-06 1.3998139e-06 2.564603e-06 -8.295161e-06
0001c0 17 0e 3a 37 0b 49 c7 35 42 60 dd 36 4f 6c bc 33
       1.10897445e-05 1.4847914e-06 6.597519e-06 8.7741334e-08
0001d0 00 00 00 00 00 00 00 00 00 00 00 00 00 00 00 00
       0.0 0.0 0.0 0.0
0001e0 12 d2 07 37 13 55 bc 35 4a 9a 85 36 ec bd b6 b6
       8.095538e-06 1.4031851e-06 3.9816705e-06 -5.4461325e-06
0001f0 00 00 00 00 00 00 00 00 00 00 00 00 00 00 00 00
       0.0 0.0 0.0 0.0

exp_avg_sq f4 [32, 4]
000000 f9 37 8f 30 8d 93 33 2e 65 15 cd 2f 22 de a0 2d
       1.0420528e-09 4.083094e-11 3.7304485e-10 1.828854e-11
000010 56 46 12 34 ca 72 f9 31 d2 7b 54 33 f7 41 23 31
       1.3622898e-07 7.259904e-09 4.947271e-08 2.3757118e-09
000020 b6 6e 22 33 77 f8 79 30 92 7e 6b 32 bd ec 71 2e
       3.7819255e-08 9.093876e-10 1.3707579e-08 5.500732e-11
000030 0f 2d d1 0e f1 4a 8a 0e 3b 43 33 0d 38 62 ff 0d
       5.1565868e-30 3.4091792e-30 5.523956e-31 1.5739234e-30
000040 89 4e ef 2e 83 bc 6c 2b 05 dc 30 2e 54 16 58 2b
       1.0882412e-10 8.4105655e-13 4.0213183e-11 7.67696e-13
000050 ee 7d d6 2f b6 2e b1 2d 50 b7 8c 2e 69 12 9d 30
       3.9015852e-10 2.0143314e-11 6.399026e-11 1.1428486e-09
000060 17 1a d9 30 cc 09 b3 2e e8 5d 8e 2f 7f a6 9e 31
       1.5796243e-09 8.141718e-11 2.5896374e-10 4.6173336e-09
000070 7b f8 59 2f 53 32 34 2d e5 06 0f 2e d2 c4 1f 30
       1.9824313e-10 1.024299e-11 3.252056e-11 5.812356e-10
000080 69 65 d9 17 d0 31 0e 17 ab eb 90 17 87 f0 0a 17
       1.4048896e-24 4.5945547e-25 9.365273e-25 4.4893793e-25
000090 97 50 5a 33 96 ba 52 30 15 f0 9d 32 fa 6f 6e 2f
       5.0830376e-08 7.666271e-10 1.8386382e-08 2.1685756e-10
0000a0 7e a0 e6 31 cc 46 50 2f ce 5e 26 31 b5 36 0c 2d
       6.712127e-09 1.8942642e-10 2.421007e-09 7.970226e-12
0000b0 00 00 00 00 00 00 00 00 00 00 00 00 00 00 00 00
       0.0 0.0 0.0 0.0
0000c0 ce 27 45 33 a6 71 b9 30 b1 58 8f 32 41 8a 49 2e
       4.590384e-08 1.3492822e-09 1.6687723e-08 4.5824903e-11
0000d0 45 77 dd 34 1c fb e1 31 99 40 21 34 36 21 bd 30
       4.1251238e-07 6.5769097e-09 1.5017794e-07 1.3760999e-09
0000e0 b8 c7 0a 2f 41 2c e5 2c b3 11 b6 2d 9e 20 cb 2f
       1.2621981e-10 6.5134846e-12 2.0698864e-11 3.694866e-10
0000f0 2e 57 d8 30 bd 9a b2 2e 2b eb 8d 2f 8d 4d 9e 31
       1.5740846e-09 8.12199e-11 2.5814847e-10 4.6072217e-09
000100 4d d9 8d 32 97 dc 5d 2f 46 7b ce 31 95 4b bd 2e
       1.6513377e-08 2.0178202e-10 6.0094036e-09 8.608151e-11
000110 00 00 00 00 00 00 00 00 00 00 00 00 00 00 00 00
       0.0 0.0 0.0 0.0
000120 31 a0 17 2f 5b cb 25 2d a8 91 74 2d ec c8 3a 30
       1.3790281e-10 9.424318e-12 1.3902136e-11 6.7951933e-10
000130 69 ad 49 2b 4a fe 4c 29 af cb 2b 2a 0d 45 1c 2c
       7.16502e-13 4.551766e-14 1.5258518e-13 2.2207264e-12
000140 10 81 81 31 cc a5 55 2f 12 dc 29 30 6d 52 3d 32
       3.769067e-09 1.943114e-10 6.179458e-10 1.1019989e-08
000150 00 00 00 00 00 00 00 00 00 00 00 00 00 00 00 00
       0.0 0.0 0.0 0.0
000160 00 00 00 00 00 00 00 00 00 00 00 00 00 00 00 00
       0.0 0.0 0.0 0.0
000170 8e 8a 3d 0f 55 1a 02 0f 89 af 9c 0d 54 28 5e 0e
       9.345104e-30 6.414566e-30 9.656501e-31 2.738303e-30
000180 fc 74 c5 33 a3 37 64 31 16 d9 0f 33 30 f7 cf 2f
       9.194807e-08 3.3209993e-09 3.349222e-08 3.7828718e-10
000190 9e 92 5a 30 da 3f 33 2e 55 e7 69 2e 7f f0 9f 31
       7.9516294e-10 4.07566e-11 5.318353e-11 4.6548503e-09
0001a0 b6 bf 6b 2f 6a 5d 43 2d 9d c7 1a 2e aa 3e 2d 30
       2.1441235e-10 1.1105209e-11 3.5192838e-11 6.3026084e-10
0001b0 18 2b 27 31 39 a9 35 2f d3 5b 8f 2f 6a 66 44 32
       2.4326194e-09 1.6521974e-10 2.6076794e-10 1.1431988e-08
0001c0 05 98 11 31 c1 62 a8 2e 06 b5 53 30 7a 0b 22 2d
       2.118669e-09 7.657298e-11 7.70186e-10 9.211182e-12
0001d0 00 00 00 00 00 00 00 00 00 00 00 00 00 00 00 00
       0.0 0.0 0.0 0.0
0001e0 88 ee f1 30 67 86 c7 2e bd a6 9e 2f f3 ce b0 31
       1.7602853e-09 9.073347e-11 2.8858507e-10 5.1458016e-09
0001f0 00 00 00 00 00 00 00 00 00 00 00 00 00 00 00 00
       0.0 0.0 0.0 0.0

exp_avg f4 [32]
000000 c7 5d d5 b7 80 db 80 b9 ee 1f 07 b9 04 00 00 00
       -2.5435247e-05 -0.00024577603 -0.00012886498 6e-45
000010 ef 38 0f b7 7d 0e 94 37 11 fb 15 b8 39 07 52 37
       -8.53672e-06 1.7649721e-05 -3.5758192e-05 1.2518657e-05
000020 04 00 00 00 71 4a 10 b9 a4 22 8b 38 00 00 00 00
       6e-45 -0.00013760642 6.634489e-05 0.0
000030 3a fe 19 b9 5a 28 b2 39 c6 74 27 b7 ec 3f 15 38
       -0.00014685924 0.0003398087 -9.981164e-06 3.55839e-05
000040 a8 13 89 b8 00 00 00 00 31 94 27 37 35 f2 c8 b4
       -6.53633e-05 0.0 9.988479e-06 -3.7429132e-07
000050 17 4b 67 b8 00 00 00 00 00 00 00 00 04 00 00 00
       -5.5144625e-05 0.0 0.0 6e-45
000060 d9 f2 41 b9 d8 e3 d7 b7 36 2f 53 b7 3c 19 2a b8
       -0.00018496382 -2.5736095e-05 -1.2587572e-05 -4.055466e-05
000070 a4 26 00 b8 00 00 00 00 40 4a 1e b8 00 00 00 00
       -3.0553565e-05 0.0 -3.7739286e-05 0.0

exp_avg_sq f4 [32]
000000 d8 00 2e 32 16 d6 ba 35 b5 b9 96 34 a0 eb 3a 0f
       1.0128325e-08 1.3920387e-06 2.8074797e-07 9.215888e-30
000010 7b 18 3f 30 3a 2a b2 32 96 0d b4 33 fa 2d 35 32
       6.9520184e-10 2.074113e-08 8.3843744e-08 1.05460405e-08
000020 ad c9 54 1a 56 e0 b7 34 52 46 66 33 00 00 00 00
       4.4003485e-23 3.4249632e-07 5.3615004e-08 0.0
000030 3c b8 c3 34 ca 23 38 36 94 70 e6 31 ec 98 b3 33
       3.6455629e-07 2.7438969e-06 6.7066797e-09 8.3631534e-08
000040 3d 2b e7 33 00 00 00 00 f6 dd 39 32 f5 a1 2e 2e
       1.0764641e-07 0.0 1.0818885e-08 3.9706866e-11
000050 36 d9 56 34 00 00 00 00 00 00 00 00 48 19 ac 0f
       2.0009324e-07 0.0 0.0 1.6970247e-29
000060 62 4a 57 35 bb 66 97 33 31 54 44 32 7c c0 45 34
       8.020198e-07 7.050172e-08 1.14278444e-08 1.841708e-07
000070 02 8e 9f 32 00 00 00 00 ef a7 c8 33 00 00 00 00
       1.8574614e-08 0.0 9.343773e-08 0.0

exp_avg f4 [1, 32]
000000 6f d0 a0 b6 04 5d af b4 3d d5 26 b7 04 00 00 00
       -4.7926364e-06 -3.2663968e-07 -9.944019e-06 6e-45
000010 ab 0f 62 b5 10 f5 89 b8 4c b9 14 b9 f5 96 a7 b8
       -8.421436e-07 -6.5783155e-05 -0.00014183408 -7.9912985e-05
000020 04 00 00 80 fc a8 95 b6 8d 06 82 b6 00 00 00 00
       -6e-45 -4.4602184e-06 -3.8750645e-06 0.0
000030 aa 34 a0 b7 a9 f1 ed b4 d7 df 3d b8 1e 9b 01 b9
       -1.909801e-05 -4.432052e-07 -4.526958e-05 -0.00012360184
000040 8b d0 0e b6 00 00 00 00 d2 bb c3 b7 f9 d0 70 b6
       -2.1281037e-06 0.0 -2.3333272e-05 -3.5884425e-06
000050 42 0b 0a b9 00 00 00 00 00 00 00 00 04 00 00 00
       -0.000131649 0.0 0.0 6e-45
000060 a1 72 37 b7 b7 5b 0b b6 e9 a4 24 b8 9d 98 cf b6
       -1.0934339e-05 -2.0766e-06 -3.925423e-05 -6.1868473e-06
000070 40 af 6e b7 00 00 00 00 fa 70 da b8 00 00 00 00
       -1.4226709e-05 0.0 -0.000104160936 0.0

exp_avg_sq f4 [1, 32]
000000 82 07 e5 2f 8b 16 63 2e e9 72 e2 30 b9 c8 ae 0a
       4.1660192e-10 5.1633847e-11 1.6476324e-09 1.6831094e-32
000010 c0 d9 a6 2c 82 0a bd 34 2f 7e b6 35 49 f0 0a 35
       4.742179e-12 3.521164e-07 1.3596781e-06 5.1758667e-07
000020 64 b4 16 12 e2 9d be 2f df 8e bc 2f 00 00 00 00
       4.7554003e-28 3.467298e-10 3.4298517e-10 0.0
000030 65 f1 d5 31 4d 8e 9b 2d dd cc 91 34 b0 f6 51 35
       6.2265593e-09 1.7684654e-11 2.7157412e-07 7.8217545e-07
000040 72 3f 01 2f 00 00 00 00 4b b5 ea 33 b5 ed 82 30
       1.1755022e-10 0.0 1.0929451e-07 9.526305e-10
000050 9d ef 89 35 00 00 00 00 00 00 00 00 3f 82 73 0d
       1.0277032e-06 0.0 0.0 7.5036934e-31
000060 1d a2 4e 31 52 98 eb 2f 53 bd e3 33 99 ea ba 31
       3.0069096e-09 4.285448e-10 1.0604949e-07 5.439983e-09
000070 39 22 62 31 00 00 00 00 1f d2 4a 35 00 00 00 00
       3.2906782e-09 0.0 7.555663e-07 0.0
