server_report/ae_hexa/ae_hexa_modified_bilinear_4_2_32/autoencoder_20260113_220404.pth (torch, 219108 bytes, 75 tensors)

enc1.kernel0 f4 [4, 1, 5, 1]
-0.2729769 -0.03163194 0.7111564 0.8523428 0.36115927 -0.41625366 -0.31944197 0.31039917
0.55823183 0.36874488 0.50541246 1.2289181 0.5158907 -0.4161995 -0.07876699 -1.0564036
-0.00324015 0.35995388 0.20605677 -1.0850886
00000000: a1c3 8bbe 7e90 01bd 590e 363f 2333 5a3f
00000010: dee9 b83e 331f d5be e68d a3be a4ec 9e3e
00000020: 48e8 0e3f 21cc bc3e b662 013f 304d 9d3f
00000030: 6a11 043f 1a18 d5be 9650 a1bd 3c38 87bf
00000040: b258 54bb e04b b83e 8c00 533e 2fe4 8abf

enc1.kernel1 f4 [4, 1, 4, 2]
-0.15831591 -0.63162524 0.35889572 -0.4157879 1.4681891 0.2379898 0.6314918 0.22847278
-0.78319454 0.4611016 -0.30161548 0.7288462 -0.70114344 1.3349614 0.5402574 0.792823
0.46145716 0.7445401 0.36617827 1.1668103 -0.31824437 0.18714823 -0.59557074 -0.43848044
-0.6682269 -1.0738868 -0.19870463 0.16228907 0.10630085 0.267747 -0.65051585 -0.91049904
00000000: 911d 22be 31b2 21bf 2ec1 b73e 27e2 d4be
00000010: 9fed bb3f 99b3 733e 72a9 213f c5f4 693e
00000020: 707f 48bf 8215 ec3e 586d 9abe aa95 3a3f
00000030: 237e 33bf 04e0 aa3f 4f4e 0a3f 73f6 4a3f
00000040: 1d44 ec3e 2e9a 3e3f b87b bb3e 0a5a 953f
00000050: edf0 a2be c9a3 3f3e 5377 18bf 8280 e0be
00000060: eb10 2bbf 1f75 89bf 3a79 4bbe 1b2f 263e
00000070: 43b4 d93d 2316 893e 3588 26bf 7716 69bf

enc1.kernel2 f4 [4, 1, 3, 2]
-0.0651886 -0.2956184 0.44555354 -0.22657874 0.19222397 -0.16649607 -0.39320326 0.25428402
-0.38681784 0.9235366 -0.27453116 0.1925845 0.2175044 0.5575833 -0.17544512 0.107128166
-0.38189685 -0.36246213 -0.64239305 -0.9200434 -0.8571878 -1.0262176 -0.86628205 -0.8402996
00000000: 9a81 85bd 4c5b 97be 981f e43e 4204 68be
00000010: 5cd6 443e f27d 2abe f051 c9be 8431 823e
00000020: fd0c c6be e56c 6c3f 598f 8cbe df34 453e
00000030: 79b9 5e3e c7bd 0e3f e3a7 33be 0366 db3d
00000040: fc87 c3be a394 b9be df73 24bf f787 6bbf
00000050: a970 5bbf 195b 83bf a9c4 5dbf e01d 57bf

enc1.bias_tensor f4 [4]
0.018525759 0.01294691 0.012996091 -0.051756967
00000000: 55c3 973c 471f 543c 8eed 543c 1dff 53bd

bn1.weight f4 [4]
1.0458542 0.7568421 0.543816 0.71660185
00000000: 8dde 853f 67c0 413f 8637 0b3f 3873 373f

bn1.bias f4 [4]
0.12979037 0.08008336 0.06414316 0.7122668
00000000: c4e7 043e bf02 a43d 7d5d 833d 1e57 363f

bn1.running_mean f4 [4]
0.20953003 0.184066 0.20477393 -0.6144982
00000000: 0a8f 563e cc7b 3c3e 42b0 513e c14f 1dbf

bn1.running_var f4 [4]
1.8243358 1.9501461 2.0084581 6.9537077
00000000: d683 e93f 639e f93f 948a 0040 c684 de40

enc2.kernel0 f4 [2, 4, 3, 1]
-0.4165264 -0.11129573 -0.1258484 -0.18979076 -0.21988404 -0.63582957 -0.74922884 0.31686056
-0.100840375 -0.055030536 -1.1638204 -0.18264952 0.21963283 0.35750028 0.2783477 0.12003561
0.29737803 0.22500709 0.3340627 0.5798097 0.24227242 -0.50408375 -1.6231295 -0.63390285
00000000: f342 d5be 04ef e3bd 67de 00be 8258 42be
00000010: 4829 61be bac5 22bf 76cd 3fbf 8c3b a23e
00000020: 6685 cebd b367 61bd 11f8 94bf 7a08 3bbe
00000030: 6ee7 603e 470a b73e 9783 8e3e 3bd5 f53d
00000040: ef41 983e 4268 663e 440a ab3e 696e 143f
00000050: 4316 783e a20b 01bf b5c2 cfbf 7547 22bf

enc2.kernel1 f4 [2, 4, 2, 2]
-0.47806644 0.0064369217 -0.416716 0.19063534 0.23105982 -0.47375223 0.017947063 -0.44792667
-0.35246575 -0.11629552 0.09797115 -0.073863104 0.16641866 0.35456657 0.7341707 0.5307674
0.17187761 0.10166744 0.2839731 0.26860243 0.030552926 0.08034865 0.120369874 0.29098976
0.33020818 0.40209502 0.481472 0.5554091 -0.22020908 -0.61705714 -0.42458093 -0.4561118
00000000: 20c5 f4be d0ec d23b cd5b d5be e935 433e
00000010: f29a 6c3e a78f f2be b805 933c a556 e5be
00000020: 6476 b4be 582c eebd 19a5 c83d 8a45 97bd
00000030: a769 2a3e c089 b53e 9cf2 3b3f 5fe0 073f
00000040: af00 303e 0537 d03d ec64 913e 4286 893e
00000050: 214a fa3c d58d a43d 7b84 f63d 9cfc 943e
00000060: 0c11 a93e 66df cd3e 7f83 f63e 4a2f 0e3f
00000070: 7d7e 61be 75f7 1dbf ac62 d9be 7c87 e9be

enc2.bias_tensor f4 [2]
-0.0071299127 -0.020922415
00000000: 0ba2 e9bb 7c65 abbc

bn2.weight f4 [2]
1.0737238 0.8963981
00000000: c86f 893f 597a 653f

bn2.bias f4 [2]
0.13658929 0.28304523
00000000: 10de 0b3e 4eeb 903e

bn2.running_mean f4 [2]
-0.32081932 -2.7927346
00000000: 6e42 a4be 2abc 32c0

bn2.running_var f4 [2]
3.6714454 11.852729
00000000: f6f8 6a40 c7a4 3d41

fc_enc.weight f4 [32, 234]
0.15324675 0.02874848 -0.09477841 -0.24574612 0.117088795 0.11806595 0.29478252 0.145666
-0.049043152 -0.31201932 -0.055634297 0.04603208 0.88719064 0.37554958 0.09551611 0.117157094
-0.0065572206 -0.28642064 -0.2087096 -0.2375266 -0.02447697 0.068955034 -0.0037195624 -0.09934177
0.010329888 0.7802193 0.39178535 -0.0985379 0.19289002 -0.056242812 0.06950459 0.17539413
-0.19881776 -0.24721795 0.17303245 0.06250468 0.073337615 -0.02629654 0.78505445 0.45302787
3.392229e-05 -0.24695168 -0.22321375 -0.13369103 -0.112563916 -0.019180492 -0.14982942 -0.27284518
0.05167823 0.03341361 -0.062474795 0.6401496 0.3938739 -0.09045134 0.23019329 0.3153005
-0.08736161 0.105970025 0.2459038 0.27134287 0.24165216 -0.00063543394 -0.19537362 0.08147236
0.6136471 0.102017395 -0.38410175 0.043361615 0.033213876 -0.04059478 0.0044312356 -0.014148493
-0.329473 0.25192094 -0.39988005 -0.2860733 -0.023998564 0.7938321 0.4750978 0.060778417
-0.07163208 -0.038879603 0.08592371 0.12344207 -0.30673817 0.14826035 -0.124384984 -0.20592663
-0.22347252 -0.082466446 0.6853492 0.36581355 -0.009554009 -0.011314827 -0.1174014 0.03879312
-0.20392229 0.15534848 0.190544 -0.020791318 -0.15069826 -0.0066370107 -0.013463807 0.75448805
0.43485284 0.06381715 -0.05148203 0.14493017 -0.042044964 0.0071064136 -0.23740336 0.016955618
0.12777866 0.14674267 -0.16517851 0.050850894 0.74442005 0.016933179 0.45396614 -0.02978694
0.40321812 -0.34402984 0.04104577 -0.31031367 -0.11139185 0.12461557 0.22202654 -0.06788735
0.35723174 -0.005543448 0.01888654 -0.4547091 -0.264421 -0.028000757 0.30260643 -0.07632556
0.32514474 -0.04133812 -0.1111175 -0.11319101 0.11481751 0.035246264 -0.0579604 0.045613166
0.2138789 -0.24408919 0.0072733983 -0.17673044 -0.16798042 0.055779025 0.055619027 -0.20857169
0.08068948 -0.08619019 0.02885498 -0.019579086 0.06805603 -0.2311652 0.34530938 -0.0857888
0.21686494 0.09628548 0.102309324 0.04585222 0.22880566 -0.06643936 -0.020405194 0.1344031
-0.10059053 -0.19148509 0.11154966 -0.11508888 -0.06917466 -0.019652076 -0.038920376 -0.22654806
-0.01558922 -0.2374457 -0.059070814 0.04668074 0.00089422823 -0.042246353 0.28160882 0.19457546
-0.056236736 -0.0057420568 0.11440589 0.06766149 -0.17339958 0.34049654 -0.26896873 0.28438383
0.18907525 -0.214285 -0.06608079 0.06572655 -0.045813985 -0.176952 0.19565795 -0.13291281
-0.17620707 0.21964428 -0.09795495 -0.051490445 0.04680069 -0.008583613 0.080805145 -0.07559998
0.06719364 -0.40893736 -0.0934941 0.2397598 -0.2610978 0.3825296 -0.2844262 -0.10156431
-0.07422787 0.18498442 -0.11946234 -0.013532109 -0.13088216 -0.0070352918 -0.6994745 -0.28241947
-0.18716824 0.21075492 -0.2480852 0.25199953 -0.18946268 0.11272155 -0.29752907 -0.005737609
-0.64929485 -0.0916413 -0.17209725 0.023496963 0.040186513 0.03178881 -0.06603723 0.020332262
0.34527797 0.09114878 0.04744684 -0.06290942 -0.021332944 -0.011742033 -0.45395717 -0.13826166
0.029671773 0.005767049 0.03514051 -0.064450435 -0.046284426 0.051064704 -0.27570623 -0.20101748
00000000: b7ec 1c3e ef81 eb3c 2f1b c2bd dfa4 7bbe
00000010: 40cc ef3d 90cc f13d bced 963e 7829 153e
00000020: 79e1 48bd ffc0 9fbe cae0 63bd 228c 3c3d
00000030: ed1e 633f 0948 c03e f39d c33d 0ff0 ef3d
00000040: f4dd d6bb baa5 92be f8b7 55be 2c3a 73be
00000050: ed83 c8bc 4c38 8d3d e7c3 73bb b373 cbbd
00000060: b13e 293c 74bc 473f 1798 c83e 3dce c9bd
00000070: f684 453e dd5e 66bd 6c58 8e3d 859a 333e
00000080: e296 4bbe b426 7dbe 6b2f 313e 7402 803d
00000090: 0832 963d d76b d7bc 54f9 483f 45f3 e73e
000000a0: c847 0e38 e7e0 7cbe 2592 64be 4de6 08be
000000b0: e987 e6bd 6820 9dbc e26c 19be 5db2 8bbe
000000c0: 8dac 533d b6dc 083d 92e5 7fbd d8e0 233f
000000d0: d7a9 c93e 8d3e b9bd cab7 6b3e 116f a13e
000000e0: a5ea b2bd d006 d93d 35ce 7b3e 74ed 8a3e
000000f0: aa73 773e 4093 26ba 0610 48be fbda a63d
00000100: fa17 1d3f 7fee d03d fca8 c4be f39b 313d
00000110: 460b 083d b646 26bd e633 913b 15cf 67bc
00000120: afb0 a8be c8fb 803e 14bd ccbe 3378 92be
00000130: a398 c4bc 9538 4b3f 0540 f33e caf2 783d
00000140: d7b3 92bd 3840 1fbd c5f8 af3d 32cf fc3d
00000150: c90c 9dbe 90d1 173e 8ebd febd 6ede 52be
00000160: fbd5 64be 2be4 a8bd 0c73 2f3f ea4b bb3e
00000170: 6b88 1cbc d361 39bc 2570 f0bd 89e5 1e3d
00000180: 01d1 50be ac13 1f3e f71d 433e 8e52 aabc
00000190: a550 1abe 487b d9bb 4d97 5cbc 2126 413f
000001a0: 08a5 de3e 91b2 823d d2de 52bd 9368 143e
000001b0: 5737 2cbd ebdc e83b de19 73be 82e6 8a3c
000001c0: 69d8 023e b643 163e 8e24 29be 0749 503d
000001d0: 5092 3e3f 73b7 8a3c 406e e83e be03 f4bc
000001e0: 9b72 ce3e ae24 b0be 9c1f 283d 6fe1 9ebe
000001f0: 6921 e4bd 7336 ff3d ed5a 633e 8608 8bbd
00000200: 14e7 b63e d0a5 b5bb f2b7 9a3c a2cf e8be
00000210: 3062 87be d861 e5bc 3bef 9a3e 9350 9cbd
00000220: 5f79 a63e 2952 29bd 9291 e3bd b0d0 e7bd
00000230: 7125 eb3d 635e 103d e267 6dbd dfd4 3a3d
00000240: 1203 5b3e 84f2 79be b055 ee3b d3f8 34be
00000250: 0f03 2cbe 8c78 643d c7d0 633d d193 55be
00000260: 8740 a53d 7b84 b0bd 4761 ec3c 5264 a0bc
00000270: f660 8b3d 92b6 6cbe 64cc b03e 0ab2 afbd
00000280: d811 5e3e 5231 c53d 8d87 d13d 8acf 3b3d
00000290: 084c 6a3e 5c11 88bd cb28 a7bc f7a0 093e
000002a0: 6802 cebd ab14 44be 2674 e43d b8b3 ebbd
000002b0: 72ab 8dbd 64fd a0bc f96a 1fbd 37fc 67be
000002c0: ee69 7fbc f724 73be 3df4 71bd 4e34 3f3d
000002d0: a46a 6a3a 830a 2dbd 082f 903e ca3e 473e
000002e0: 7e58 66bd dd27 bcbb a34d ea3d 1b92 8a3d
000002f0: a98f 31be 9055 ae3e 45b6 89be c29a 913e
00000300: f19c 413e 876d 5bbe 5d55 87bd a49b 863d
00000310: 72a7 3bbd e832 35be 8f5a 483e 4c1a 08be
00000320: a06f 34be 6eea 603e 9b9c c8bd a5e7 52bd
00000330: 15b2 3f3d 48a2 0cbc 2b7d a53d 2ad4 9abd
00000340: d29c 893d 3d60 d1be d679 bfbd 9883 753e
00000350: 9cae 85be ebda c33e 50a0 91be f300 d0bd
00000360: c804 98bd 8e6c 3d3e aca8 f4bd c7b5 5dbc
00000370: f905 06be 4e88 e6bb c310 33bf 4999 90be
00000380: 08a9 3fbe 23d0 573e 0c0a 7ebe 1506 813e
00000390: 8102 42be 8eda e63d bb55 98be 8e02 bcbb
000003a0: 3038 26bf 6fae bbbd 433a 30be b47c c03c
000003b0: 9d9a 243d fc34 023d 873e 87bd d88f a63c
000003c0: 46c8 b03e 36ac ba3d 9e57 423d a7d6 80bd
000003d0: 6dc2 aebc a861 40bc 136d e8be 7794 0dbe
000003e0: 3812 f33c 83f9 bc3b 7fef 0f3d 97fe 83bd
000003f0: bd94 3dbd 3929 513d 5e29 8dbe 87d7 4dbe

fc_enc.bias f4 [32]
0.10506534 -0.16072051 0.09385066 -0.1962412 0.19464895 0.037894867 0.0005807098 -0.03338952
-0.07477207 0.09445027 0.113932796 0.0040988107 0.08774591 0.079024136 -0.13027912 0.2066685
0.14379077 0.0855243 0.046469104 0.024054088 -0.11306248 -0.2238012 -0.12589455 -0.09845076
-0.13866481 -0.014565404 -0.17407228 0.16484234 -0.10597141 0.10644628 0.110151686 0.13829768
00000000: 7f2c d73d eb93 24be c634 c03d 74f3 48be
00000010: 0e52 473e a637 1b3d c63a 183a 73c3 08bd
00000020: 1922 99bd 256f c13d 9955 e93d 514f 863b
00000030: 21b4 b33d 68d7 a13d e467 05be e8a0 533e
00000040: e33d 133e 5d27 af3d 6356 3e3d 140d c53c
00000050: 4d8d e7bd 242c 65be 80ea 00be 8da0 c9bd
00000060: 26fe 0dbe bba3 6ebc 0140 32be 6ecc 283e
00000070: 8a07 d9bd 8200 da3d 3597 e13d e89d 0d3e

fc_dec.weight f4 [234, 32]
0.1148424 0.004427231 0.043162297 0.095910355 0.041347023 -0.002849046 -0.044164743 -0.038964804
-0.005275707 0.046036705 -0.00251359 0.018321218 -0.08320789 0.02610013 0.053210326 0.030731874
-0.111155 0.004277619 0.03172203 -0.033067487 -0.06517573 0.042372704 0.041353617 -0.14827205
-0.037069235 -0.015137104 0.035760723 -0.05731054 0.043026846 -0.024727674 0.08699937 -0.15351394
-0.24192545 -0.032479133 -0.049807932 0.22806104 -0.06954547 0.3380196 0.042778883 0.046131276
0.17515776 -0.03626854 0.06594608 0.08904372 0.03549768 -0.13821958 0.22632426 0.036050636
-0.13735288 -0.091481194 0.19072214 -0.03751587 0.059625056 0.08466143 0.123914726 -0.018295635
-0.16732816 -0.15897344 0.15437753 0.3206084 0.1300476 -0.0033106073 -0.06864749 -0.1452986
-0.29880688 0.21866088 -0.1631487 -0.15935192 -0.03972125 -0.39306888 -0.08085519 -0.10292054
-0.12726218 -0.006404915 -0.1045476 0.14434983 0.07283155 -0.14114805 -0.24229228 0.05741204
-0.088040315 -0.07865151 -0.010289952 0.036053233 0.05434818 -0.28364405 -0.312987 0.10168306
0.10744391 0.023036154 -0.11807916 -0.12360374 -0.2519604 0.06862224 -0.1262743 0.17100626
-0.35506576 0.12073229 0.08926018 0.0021740731 -0.037346408 0.009423107 0.14432745 0.29728094
0.03385161 -0.08468664 -0.15294333 0.03436884 -0.014787133 0.06855435 0.26893434 0.08310238
0.04842534 0.27096972 -0.32950982 -0.060840227 0.100211084 -0.11902523 -0.09483289 -0.019209353
0.26549605 0.08237392 -0.3920379 -0.094966136 -0.3753573 0.41644934 -0.20471166 0.18619005
-0.04134379 -0.075082816 0.022827057 -0.1803141 -0.2244416 -0.087957434 -0.26977363 0.10706316
0.37502968 -0.14703402 -0.08071211 0.4299003 -0.037139706 0.05024171 -0.07591454 0.12079618
-0.029866938 -0.034479674 -0.048215795 -0.099972494 0.28272367 0.30126256 -0.10202096 -0.16624877
-0.07610269 -0.13214552 -0.024768405 -0.15820476 0.12324682 0.27205935 0.30270842 -0.045701664
-0.022816721 -0.053293046 -0.39594117 -0.0033569692 0.09115145 -0.056284253 -0.20091917 0.2659492
0.070325226 -0.054686666 -0.091671005 0.184534 -0.12135161 -0.04266291 0.15468296 0.032900244
-0.1742609 0.102148354 -0.1903997 -0.4802725 -0.195516 0.030008506 -0.021810723 -0.16672671
-0.06892506 0.37765846 -0.12892632 -0.04808141 -0.10780247 -0.15362658 0.052517824 0.07015189
0.059909612 0.17140158 -0.17108643 -0.20652395 -0.16956663 0.29760498 -0.13810165 0.16524062
-0.264266 -0.30074602 0.11666683 0.20152982 -0.012959524 -0.04839278 0.10931158 0.1312628
-0.050852355 -0.101736374 -0.13789661 0.00679166 -0.3868744 0.023327233 -0.16920282 -0.12407849
0.05610239 -0.11037498 0.014306629 -0.012511688 0.2972605 0.17463444 -0.014008057 -0.019017052
0.10861072 -0.14786084 -0.17892984 -0.17985545 0.051870007 -0.10716155 0.18024041 0.3133605
-0.12716816 0.025213094 0.028334495 -0.2688496 -0.016990794 -0.4080795 0.24480847 0.0755884
-0.1566193 0.054161113 -0.016820738 0.13150978 0.008617296 0.28622892 -0.25719193 -0.15251268
-0.14501616 -0.10040646 -0.008638181 -0.033784207 0.32553715 0.10552715 0.07620464 -0.07812288
00000000: 7e32 eb3d 4e12 913b f3ca 303d a66c c43d
00000010: 7f5b 293d 0fb7 3abb 17e6 34bd 8f99 1fbd
00000020: d7df acbb fc90 3c3d 0bbb 24bb 6116 963c
00000030: e668 aabd f1cf d53c 12f3 593d 69c1 fb3c
00000040: 3ca5 e3bd 452b 8c3b f6ee 013d c671 07bd
00000050: da7a 85bd 008f 2d3d 6962 293d a1d4 17be
00000060: e9d5 17bd 9e01 78bc d679 123d 75be 6abd
00000070: eb3c 303d b191 cabc ba2c b23d c232 1dbe
00000080: 4ebb 77be d708 05bd 6703 4cbd d588 693e
00000090: db6d 8ebd e810 ad3e e938 2f3d 26f4 3c3d
000000a0: 8e5c 333e 528e 14bd bd0e 873d 8e5c b63d
000000b0: 0466 113d 6f89 0dbe 8cc1 673e d5a9 133d
000000c0: 3ca6 0cbe 7e5a bbbd aa4c 433e 3eaa 19bd
000000d0: 6739 743d f962 ad3d 01c7 fd3d bae0 95bc
000000e0: 1358 2bbe efc9 22be 2515 1e3e c926 a43e
000000f0: 332b 053e c6f6 58bb 0e97 8cbd 28c9 14be
00000100: 37fd 98be a3e8 5f3e 7410 27be 262d 23be
00000110: c0b2 22bd 5340 c9be 6897 a5bd 01c8 d2bd
00000120: 0451 02be 52e0 d1bb 0d1d d6bd 71d0 133e
00000130: b528 953d 1d89 10be 781b 78be e328 6b3d
00000140: 7b4e b4bd 0b14 a1bd 3097 28bc 8eac 133d
00000150: 329c 5e3d cb39 91be d53f a0be 353f d03d
00000160: 8d0b dc3d 51b6 bc3c 7dd3 f1bd f523 fdbd
00000170: f400 81be d189 8c3d 0d4e 01be 441c 2f3e
00000180: 2ecb b5be 7e42 f73d 0bce b63d e57a 0e3b
00000190: 8cf8 18bd 6063 1a3c 93ca 133e 3535 983e
000001a0: fca7 0a3d 3070 adbd 2d9d 1cbe 57c6 0c3d
000001b0: bb45 72bc 3966 8c3d c3b1 893e 9531 aa3d
000001c0: a659 463d 8bbc 8a3e 83b5 a8be 9a33 79bd
000001d0: 783b cd3d 80c3 f3bd bf37 c2bd ef5c 9dbc
000001e0: 19ef 873e a8b3 a83d 31b9 c8be 9b7d c2bd
000001f0: d52e c0be d938 d53e ef9f 51be 9ba8 3e3e
00000200: 1b58 29bd 05c5 99bd cfff ba3c 42a4 38be
00000210: 05d4 65be 0723 b4bd c51f 8abe ee43 db3d
00000220: e403 c03e 1690 16be 644c a5bd e41b dc3e
00000230: ce1f 18bd 40ca 4d3d 1579 9bbd fd63 f73d
00000240: 82ab f4bc 8f3a 0dbd ed7d 45bd 61be ccbd
00000250: 28c1 903e 163f 9a3e 5df0 d0bd 1e3d 2abe
00000260: badb 9bbd 2851 07be 1ce7 cabc 6e00 22be
00000270: d468 fc3d 5d4b 8b3e 99fc 9a3e ab31 3bbd
00000280: 22ea babc cf49 5abd cdb8 cabe 9900 5cbb
00000290: 9dad ba3d 518a 66bd c1bd 4dbe 7e2a 883e
000002a0: ac06 903d 20ff 5fbd 02be bbbd 7bf6 3c3e
000002b0: 3187 f8bd 4ebf 2ebd 3665 1e3e 68c2 063d
000002c0: 7371 32be 2833 d13d 24f8 42be 47e6 f5be
000002d0: 5935 48be 66d4 f53c 67ac b2bc 68ba 2abe
000002e0: 9528 8dbd 735c c13e 4305 04be 03f1 44bd
000002f0: 8bc7 dcbd 4950 1dbe ee1c 573d cbab 8f3d
00000300: c863 753d e583 2f3e 4831 2fbe 047b 53be
00000310: e0a2 2dbe ae5f 983e 856a 0dbe d634 293e
00000320: e04d 87be 62fb 99be 05ef ee3d d55d 4e3e
00000330: 2f54 54bc 8237 46bd c0de df3d c169 063e
00000340: 8f4a 50bd 295b d0bd c534 0dbe 938c de3b
00000350: 6714 c6be c118 bf3c 8143 2dbe dd1c febd
00000360: 9fcb 653d 470c e2bd 5a66 6a3c d3fd 4cbc
00000370: 8732 983e 5fd3 323e 0d82 65bc a6c9 9bbc
00000380: 4c6f de3d d568 17be 6239 37be 072c 38be
00000390: a575 543d 8477 dbbd f190 383e ca70 a03e
000003a0: 5f38 02be b18b ce3c be1d e83c a8a6 89be
000003b0: 4730 8bbc ccef d0be 12af 7a3e 17ce 9a3d
000003c0: cf60 20be 0bd8 5d3d a5cb 89bc 80aa 063e
000003d0: 8f2f 0d3c 998c 923e a9ae 83be 492c 1cbe
000003e0: 1e7f 14be e7a1 cdbd 2887 0dbc 4f61 0abd
000003f0: ceac a63e 9e1e d83d 2e11 9c3d e3fe 9fbd

fc_dec.bias f4 [234]
-0.32859123 -0.07480046 0.24702542 0.20883402 0.3274589 0.14927104 0.10893798 0.29829234
0.11667158 0.16915397 0.05222527 0.03669059 -0.15172526 -0.11669374 0.44328588 0.4820755
0.1143846 0.15263829 -0.077721685 0.06362263 0.16113204 -0.1477264 0.34227106 0.17451261
-0.0024367755 -0.035217173 -0.06079479 0.2860181 0.011600007 0.08303796 0.105413586 0.04901303
-0.21168406 -0.22485092 0.10655945 0.37406248 0.066608146 0.095420636 -0.02302145 0.23854953
0.25106078 0.072397366 0.08259047 -0.09945856 -0.15584382 0.02494222 -0.23172788 -0.20132974
0.2016024 0.051370744 0.04149456 0.21300833 0.5316674 0.39467975 -0.007348169 0.10679466
0.009529003 -0.20768934 -0.07681028 -0.5008838 -0.14940737 0.2112707 0.08147796 -0.16525558
0.14904964 0.1700984 0.39864555 0.35313988 0.37712896 -0.22863154 -0.35909915 -0.28311023
-0.078443885 0.20297244 -0.15758717 -0.040335465 0.3023098 -0.16019674 0.2622598 -0.1204447
0.61671704 0.25835365 -0.113941304 0.30309504 0.16982135 0.029785633 0.19275898 -0.117599525
0.16232008 0.10820746 -0.10621938 0.3252355 0.10286715 0.41666278 0.455083 0.102486216
0.073548704 -0.06989034 0.020257318 0.26774892 0.283524 0.24526969 -0.21215813 -0.46481252
-0.31007692 -0.2720829 0.46407673 0.4537405 0.2870807 0.2246428 0.29520783 0.14433126
0.17550933 0.47316062 -0.19259664 -0.21671368 -0.39372593 0.89089006 1.0343874 -0.20420702
-0.14781459 -0.14146802 0.025786303 0.08869975 0.033502273 -0.08632725 0.24468996 0.18729496
0.66331035 0.97255254 0.5441587 0.42188397 -0.06550069 0.071957156 -0.040413834 -0.16653384
0.0924383 -0.17473128 -0.2954594 0.122812055 -0.039344054 0.1726042 0.6682754 0.560762
0.049422275 0.03741885 0.173738 -0.03990734 -0.042336036 0.0075652124 -0.08350662 -0.080296636
0.083545364 0.0673185 0.3580207 0.26384968 0.081439905 -0.01326031 0.0067511075 0.097759075
0.046886873 -0.19180988 -0.5376393 -0.023182828 0.2840815 -0.2438715 -0.22182262 0.13543047
0.18833107 -0.09360089 -0.16908187 0.181418 0.028566547 0.122540645 0.59734 0.23757465
-0.10748567 0.29365045 0.26309943 0.11857307 -0.06485288 0.30269942 -0.67699873 -0.28745955
0.24186839 -0.009589794 -0.16874243 0.10145433 -0.25240508 -0.118420094 0.13422637 0.1852755
0.09030202 0.027488517 0.38960138 -0.8921628 -0.57934624 0.20967695 0.12344254 -0.3155888
-0.20334285 0.14117171 0.35277617 -0.08527833 -0.09159622 0.18785273 0.25741842 0.53958327
-0.2457665 -0.3562182 -0.06197123 -0.123802304 0.1119681 0.03165847 -0.27154344 -0.13112152
-0.028726319 -0.23613963 0.16632314 0.37822935 1.0992731 -0.2725664 0.14712201 -0.16704656
-0.02574281 -0.00050185213 -0.09582722 -0.091043726 -0.055891648 0.16294774 0.058865678 0.052918203
0.45626897 0.58339673
00000000: 1c3d a8be fc30 99bd 3bf4 7c3e 96d8 553e
00000010: b1a8 a73e 82da 183e e01a df3d c6b9 983e
00000020: 82f1 ee3d b336 2d3e 2aea 553d df48 163d
00000030: de5d 1bbe 21fd eebd 5ef6 e23e 9ad2 f63e
00000040: 7942 ea3d 364d 1c3e 8c2c 9fbd 954c 823d
00000050: ccff 243e 9745 17be 273e af3e 6fb3 323e
00000060: 4fb2 1fbb e23f 10bd f503 79bd f770 923e
00000070: f50d 3e3c ce0f aa3d 14e3 d73d e3c1 483d
00000080: b5c3 58be 523f 66be d73b da3d 1e85 bf3e
00000090: da69 883d e56b c33d 7b97 bcbc 5446 743e
000000a0: 0a8b 803e 1245 943d 3125 a93d eeb0 cbbd
000000b0: 8695 1fbe a053 cc3c 134a 6dbe 6229 4ebe
000000c0: dc70 4e3e 216a 523d 33f6 293d db1e 5a3e
000000d0: 5b1b 083f 7713 ca3e e9c8 f0bb 29b7 da3d
000000e0: 891f 1c3c 84ac 54be b54e 9dbd ec39 00bf
000000f0: 3ffe 18be 5957 583e ebdd a63d c238 29be
00000100: 78a0 183e 462e 2e3e 451b cc3e c0ce b43e
00000110: 0c17 c13e 631e 6abe d8db b7be d3f3 90be
00000120: 30a7 a0bd 02d8 4f3e 885e 21be cd36 25bd
00000130: 5ac8 9a3e 9d0a 24be eb46 863e b6ab f6bd
00000140: 2be1 1d3f ee46 843e 0f5a e9bd 462f 9b3e
00000150: a6e5 2d3e 0001 f43c 9c62 453e 05d8 f0bd
00000160: 3c37 263e df9b dd3d 8c89 d9bd 4485 a63e
00000170: 03ac d23d d354 d53e a400 e93e 4be4 d13d
00000180: b4a0 963d ab22 8fbd adf2 a53c 6316 893e
00000190: 0f2a 913e fa27 7b3e fb3f 59be e8fb edbe
000001a0: 67c2 9ebe 734e 8bbe 779b ed3e ad50 e83e
000001b0: 3efc 923e c308 663e 7b25 973e 93cb 133e
000001c0: b8b8 333e 1c42 f23e 0e38 45be 31ea 5dbe
000001d0: 7296 c9be 5f11 643f ce66 843f a51b 51be
000001e0: b55c 17be fedc 10be cc3d d33c 37a8 b53d
000001f0: ae39 093d 57cc b0bd 0190 7a3e 40ca 3f3e
00000200: b5ce 293f 34f9 783f fc4d 0b3f 2d01 d83e
00000210: 3a25 86bd 465e 933d fa88 25bd d987 2abe
00000220: 4b50 bd3d c2ec 32be 7446 97be e384 fb3d
00000230: 3b27 21bd 28bf 303e 1914 2b3f 198e 0f3f
00000240: 036f 4a3d 8244 193d 60e8 313e e175 23bd
00000250: 8d68 2dbd 9ae5 f73b 8505 abbd 9072 a4bd
00000260: d519 ab3d 48de 893d 7d4e b73e 4e17 873e
00000270: f7c9 a63d c541 59bc 6538 dd3b e935 c83d
00000280: 730c 403d cf69 44be bba2 09bf eae9 bdbc
00000290: 2173 913e 73b9 79be 7825 63be 49ae 0a3e
000002a0: dcd9 403e d3b1 bfbd cc23 2dbe a4c5 393e
000002b0: 6404 ea3c 97f6 fa3d 46eb 183f c546 733e
000002c0: 7221 dcbd 5a59 963e f8b4 863e 70d6 f23d
000002d0: 96d1 84bd 6bfb 9a3e ca4f 2dbf e62d 93be
000002e0: 59ac 773e 831e 1dbc d1ca 2cbe 4ac7 cf3d
000002f0: 3d3b 81be 3c86 f2bd a372 093e dcb8 3d3e
00000300: 44f0 b83d 992f e13c d579 c73e c864 64bf
00000310: 0950 14bf 8eb5 563e 71cf fc3d db94 a1be
00000320: 1c39 50be 518f 103e 149f b43e 68a6 aebd
00000330: cd96 bbbd 775c 403e 59cc 833e 2122 0a3f
00000340: 37aa 7bbe 3b62 b6be 8bd5 7dbd 108c fdbd
00000350: 884f e53d 50ac 013d be07 8bbe b844 06be
00000360: 7553 ebbc 96ce 71be 9d50 2a3e 47a7 c13e
00000370: fbb4 8c3f d38d 8bbe 27a7 163e 410e 2bbe
00000380: 96e2 d2bc ba8e 03ba 1041 c4bd 2275 babd
00000390: a4ee 64bd c6db 263e 231d 713d c2c0 583d
000003a0: 169c e93e 7d59 153f

dec1.kernel0 f4 [4, 2, 3, 1]
-0.28671688 -1.3696201 -0.7079962 0.5043511 -0.08474725 -0.56097955 -0.22348724 -0.78199375
-0.1269009 0.5017701 -0.08898778 0.476117 0.4821905 -0.64637053 -0.78523153 0.33768842
0.78089964 -0.5240879 -0.25525352 -1.0640608 0.6646135 0.4309643 -1.5246019 -1.0854664
00000000: 8ecc 92be b64f afbf 3d3f 35bf 271d 013f
00000010: f78f adbd 5b9c 0fbf d7d9 64be be30 48bf
00000020: 4ff2 01be 0174 003f 3a3f b6bd 9cc5 f33e
00000030: ace1 f63e 8a78 25bf ef04 49bf 7fe5 ac3e
00000040: 0ae9 473f a02a 06bf 97b0 82be 2533 88bf
00000050: 1c24 2a3f 5aa7 dc3e 2826 c3bf 90f0 8abf

dec1.kernel1 f4 [4, 2, 2, 2]
-0.04649122 -0.39411396 -0.13537012 0.0060939183 -0.11631326 0.023678027 -0.20585726 0.2180767
-0.01381978 -0.05323605 -0.209968 0.34575683 -0.019728232 0.1590239 -0.35588676 0.2704748
-0.029529406 -0.48814312 0.239128 -0.15061352 0.30900678 -0.12109208 -0.12507077 0.31849077
0.9033366 -0.951237 -0.17189182 0.31774884 -0.35073397 0.18047325 -0.012475493 0.0984121
00000000: 946d 3ebd 4ec9 c9be 779e 0abe 7eaf c73b
00000010: a535 eebd 6cf8 c13c 3fcc 52be 804f 5f3e
00000020: 5c6c 62bc 0b0e 5abd da01 57be 0a07 b13e
00000030: 1a9d a1bc 29d7 223e ca36 b6be ac7b 8a3e
00000040: a7e7 f1bc e5ed f9be f8dd 743e 6e3a 1abe
00000050: 2336 9e3e 20ff f7bd 8d12 00be 3911 a33e
00000060: 1141 673f 4584 73bf 6904 30be faaf a23e
00000070: 6793 b3be fbcd 383e 0366 4cbc 488c c93d

dec1.bias_tensor f4 [4]
0.029845892 0.038541354 0.018696612 0.0155106895
00000000: 5f7f f43c 8add 1d3d a329 993c 8c20 7e3c

bn3.weight f4 [4]
0.65559554 0.62054944 0.56318116 0.5325036
00000000: 1cd5 273f 54dc 1e3f a42c 103f 2852 083f

bn3.bias f4 [4]
-0.7615861 -1.0924215 -1.0416902 -1.1496555
00000000: 4ff7 42bf 78d4 8bbf 1b56 85bf e927 93bf

bn3.running_mean f4 [4]
-0.74457467 -0.09767231 -0.11921363 -0.5096471
00000000: 729c 3ebf 6c08 c8bd 4726 f4bd 3b78 02bf

bn3.running_var f4 [4]
10.858854 1.4388102 2.551372 5.7944636
00000000: debd 2d41 ef2a b83f ae49 2340 3f6c b940

dec2.kernel0 f4 [1, 4, 5, 1]
0.112283945 0.4971235 0.5305601 -0.013865611 -0.050574686 -0.28596973 -0.09147745 -0.24659164
-0.37665576 0.25513342 0.71022874 -0.24614918 -0.71028244 0.33316213 -0.0705369 -0.12759176
-0.29105192 0.07854465 0.063888796 -0.6075688
00000000: 20f5 e53d f986 fe3e c9d2 073f 962c 63bc
00000010: 6727 4fbd a06a 92be 8858 bbbd 8582 7cbe
00000020: 06d9 c0be d9a0 823e 8dd1 353f 880e 7cbe
00000030: 12d5 35bf 3a94 aa3e a675 90bd 6aa7 02be
00000040: c204 95be 04dc a03d 21d8 823d a189 1bbf

dec2.kernel1 f4 [1, 4, 4, 2]
0.11790212 0.089974344 0.36323503 0.54418594 0.31784695 0.16464086 -0.22184035 -0.15650706
-0.17952791 0.1293843 -0.41066703 0.4346025 -0.32949355 -0.17044134 0.2847025 0.027625212
0.05856095 -0.08534189 -0.31775865 -0.64006335 -0.45195705 0.0065180566 0.264167 0.17792095
-0.42567956 0.29358724 0.017027207 -0.6094379 0.5094723 -0.20182842 0.28018495 0.027216217
00000000: ab76 f13d 7844 b83d f1f9 b93e c54f 0b3f
00000010: d6bc a23e 9d97 283e 1e2a 63be 6343 20be
00000020: 2ad6 37be 517d 043e f342 d2be 3884 de3e
00000030: 61b3 a8be 2d88 2ebe 87c4 913e 454e e23c
00000040: 9bdd 6f3d bbc7 aebd 43b1 a2be 31db 23bf
00000050: ea66 e7be 6c95 d53b e640 873e e930 363e
00000060: acf2 d9be 1151 963e a47c 8b3c 1f04 1cbf
00000070: c76c 023f 1cac 4ebe 6774 8f3e 8bf4 de3c

dec2.kernel2 f4 [1, 4, 3, 2]
-0.015142135 -0.2973302 -0.008664307 0.3304911 -0.14676608 -0.33584723 0.15094383 0.53927594
0.0432143 -0.19014603 0.103033386 0.0015218721 -0.065070815 0.110914454 -0.008903282 0.22601849
0.14689954 0.19183278 -0.3026921 0.30226836 0.25743288 -0.18511061 0.6379464 0.19050564
00000000: b816 78bc aa3b 98be bdf4 0dbc 2136 a93e
00000010: d949 16be 2bf4 abbe 0591 1a3e fd0d 0a3f
00000020: 7a01 313d a4b5 42be 2b03 d33d 8e79 c73a
00000030: d943 85bd 1e27 e33d 12df 11bc 6471 673e
00000040: d56c 163e d06f 443e 75fa 9abe ebc2 9a3e
00000050: 3ece 833e a38d 3dbe 7550 233f e913 433e

exp_avg f4 [4, 1, 5, 1]
0.00011212492 7.634544e-05 2.4386061e-05 1.6120124e-05 0.0001310164 0.00011361438 0.00011292935 8.1392114e-05
0.000120030425 0.00014577972 3.93691e-05 1.8075738e-05 5.6353452e-05 8.563177e-05 0.00011628023 2.8197155e-06
-1.8801974e-06 -1.1807815e-05 -1.6820751e-06 1.4473807e-06
00000000: 9c24 eb38 a51b a038 ab90 cc37 b439 8737
00000010: 7261 0939 4144 ee38 7cd4 ec38 0fb1 aa38
00000020: d8b8 fb38 72dc 1839 4020 2538 5aa1 9737
00000030: 0f5d 6c38 3595 b338 79db f338 583a 3d36
00000040: 175b fcb5 2e1a 46b7 a9c3 e1b5 9f43 c235

exp_avg_sq f4 [4, 1, 5, 1]
6.10164e-07 4.4639273e-07 1.9331593e-07 9.594342e-08 3.5266248e-07 6.530562e-07 5.960189e-07 3.597451e-07
2.991902e-07 3.61805e-07 2.4118158e-08 2.1711582e-08 6.796841e-08 1.586225e-07 1.9588389e-07 1.2878508e-09
1.8077627e-09 2.0884694e-09 1.6377124e-09 1.614184e-09
00000000: 27ca 2335 c0a7 ef34 4792 4f34 7409 ce33
00000010: 9055 bd34 ae4d 2f35 1bfe 1f35 fd22 c134
00000020: 63a0 a034 1a3e c234 642c cf32 4680 ba32
00000030: 07f6 9133 d251 2a34 2754 5234 3900 b130
00000040: ff74 f830 be84 0f31 e215 e130 0dda dd30

exp_avg f4 [4, 1, 4, 2]
7.683973e-05 0.00013411959 3.7655296e-05 0.00010090644 1.1747465e-05 7.919914e-05 8.882779e-05 0.00014180636
0.00013331369 0.0001230081 0.000183042 6.303657e-05 0.00016828123 3.7774367e-05 0.0001901748 0.000100505866
3.7264468e-05 5.1952786e-05 6.564364e-05 5.3026688e-05 9.532625e-05 6.045092e-05 0.00012636006 9.85904e-05
8.774171e-06 -6.4313467e-06 1.1426401e-06 -1.3093446e-05 1.6876415e-07 -1.6311087e-05 7.30279e-06 -1.814353e-05
00000000: 0425 a138 74a2 0c39 11f0 1d38 bc9d d338
00000010: fa16 4537 b717 a638 0e49 ba38 dbb1 1439
00000020: 1fca 0b39 bcfb 0039 f6ee 3f39 8032 8438
00000030: a674 3039 eb6f 1e38 a969 4739 adc6 d238
00000040: 6b4c 1c38 e1e7 5938 29aa 8938 f968 5e38
00000050: e4e9 c738 ae8c 7d38 857f 0439 51c2 ce38
00000060: c734 1337 d9cc d7b6 d15c 9935 ecab 5bb7
00000070: 8935 3534 cbd3 88b7 7d0a f536 ef32 98b7

exp_avg_sq f4 [4, 1, 4, 2]
4.4776698e-07 7.361228e-07 1.9904456e-07 5.9828136e-07 2.9286268e-08 4.2509532e-07 8.8125525e-08 4.9871267e-07
8.540215e-07 4.819287e-07 7.889556e-07 2.635952e-07 6.4919647e-07 1.0682109e-07 5.517817e-07 1.5810387e-07
5.07256e-08 1.9660932e-08 8.3928114e-08 3.5765982e-08 1.401519e-07 9.905192e-08 1.820059e-07 1.5821898e-07
1.2493122e-09 1.3176638e-09 1.416604e-09 1.8824415e-09 1.4268486e-09 1.6323758e-09 1.526856e-09 1.2644102e-09
00000000: a064 f034 f999 4535 f4b8 5534 9599 2035
00000010: 2f91 fb32 a838 e434 853f bd33 46df 0535
00000020: e93f 6535 e35d 0135 9ec8 5335 4084 8d34
00000030: 7144 2e35 8465 e533 261e 1435 43c3 2934
00000040: 63dd 5933 d9e2 a832 f83b b433 1d9d 1933
00000050: a97c 1634 5eb6 d433 676d 4334 e7e2 2934
00000060: 44b4 ab30 2c19 b530 52b2 c230 435c 0131
00000070: c61a c430 1e5a e030 78d9 d130 7bc7 ad30

exp_avg f4 [4, 1, 3, 2]
7.25355e-05 0.00011109598 3.380231e-05 0.00011954496 0.00010646053 0.00010210855 0.00016417536 7.687207e-05
0.00018406888 3.7509235e-05 0.00018460667 5.2011954e-05 7.6908924e-05 3.7411657e-05 5.485694e-05 3.4611225e-05
0.00012201447 4.7047353e-05 5.5755954e-06 -1.20741215e-05 1.4830152e-05 -8.239018e-06 8.859606e-07 -2.4005644e-07
00000000: 331e 9838 33fc e838 f4c6 0d38 36b4 fa38
00000010: 9043 df38 1c23 d638 7d26 2c39 6136 a138
00000020: 9d02 4139 3c53 1d38 fa92 4139 6927 5a38
00000030: 2a4a a138 76ea 1c38 3116 6638 852b 1138
00000040: 05e2 ff38 b654 4538 0016 bb36 f591 4ab7
00000050: 05cf 7837 503a 0ab7 c0d2 6d35 1be1 80b4

exp_avg_sq f4 [4, 1, 3, 2]
3.1611566e-07 8.148119e-07 1.6786821e-07 7.3652257e-07 1.3115395e-07 7.136502e-07 9.1664094e-07 3.313182e-07
8.666718e-07 1.3865423e-07 7.3449746e-07 1.5412108e-07 1.1402076e-07 6.282345e-08 1.3297881e-07 9.404163e-08
1.709625e-07 1.394657e-07 1.6862355e-09 2.158111e-09 1.5415095e-09 1.1646129e-09 1.8214834e-09 2.1528472e-09
00000000: 9bb6 a934 73b9 5a35 433f 3434 72b5 4535
00000010: 53d3 0c34 ab91 3f35 160f 7635 07e0 b134
00000020: 3ca5 6835 fce0 1434 482a 4535 7b7c 2534
00000030: 93db f433 8fe9 8633 f0c8 0e34 eff3 c933
00000040: d091 3734 0ac0 1534 23c1 e730 e44d 1431
00000050: 0bdd d330 2c10 a030 c057 fa30 4af1 1331

exp_avg f4 [4]
1.5480802e-11 -8.109136e-13 3.6572405e-11 1.5359623e-10
00000000: ab2b 882d 7c40 64ab ded8 202e 7fe1 282f

exp_avg_sq f4 [4]
5.70271e-20 2.5614758e-20 1.800438e-20 4.704221e-19
00000000: c4a6 861f afec f11e eb0b aa1e 17d8 0a21

exp_avg f4 [4]
0.0021633392 0.0024433434 0.0008089868 -0.0009854011
00000000: cfc6 0d3b 8020 203b 2f12 543a 9328 81ba

exp_avg_sq f4 [4]
9.402863e-05 0.00013267405 4.8633832e-05 3.119894e-05
00000000: 3d31 c538 6b1e 0b39 2efc 4b38 9bdb 0238

exp_avg f4 [4]
0.0006266644 0.00073944853 0.00041681243 -0.005646198
00000000: bc46 243a 8dd7 413a 9e87 da39 be03 b9bb

exp_avg_sq f4 [4]
8.660295e-06 1.4013468e-05 5.0139392e-06 0.0007475765
00000000: af4b 1137 631b 6b37 693d a836 02f9 433a

exp_avg f4 [2, 4, 3, 1]
-0.0015309625 -0.0015471755 -0.0014843752 -0.0010309004 -0.0010552644 -0.0010742762 -0.00061896007 -0.00075224496
-0.00077504676 0.00033165322 0.0004905429 0.000760516 -5.6394914e-05 3.6023484e-05 0.00049332686 -8.193226e-05
-6.806736e-05 0.00016585084 7.135974e-05 -3.14144e-05 -0.0001043211 -7.8539044e-05 -4.5253862e-05 0.00034835946
00000000: 94aa c8ba 98ca caba 5e8f c2ba 471f 87ba
00000010: cc50 8aba bace 8cba b541 22ba 4e32 45ba
00000020: 822c 4bba bee1 ad39 c797 003a 5d5d 473a
00000030: 9489 6cb8 ec17 1738 9b52 013a 0cd3 abb8
00000040: 63bf 8eb8 3fe8 2d39 f8a6 9538 f5c2 03b8
00000050: f7c6 dab8 54b5 a4b8 f7ce 3db8 04a4 b639

exp_avg_sq f4 [2, 4, 3, 1]
5.3713156e-05 5.7861125e-05 4.9160117e-05 2.4878465e-05 2.8264547e-05 2.5078238e-05 1.0590058e-05 1.3388221e-05
1.5183291e-05 2.5674458e-06 5.0487997e-06 1.3464897e-05 8.720325e-07 8.0331284e-07 1.1902611e-06 4.3254104e-07
4.2028057e-07 6.0592424e-07 2.9730765e-07 2.3949784e-07 1.5098331e-07 1.0194925e-07 3.7700755e-08 4.058733e-06
00000000: 104a 6138 e9af 7238 4631 4e38 19b2 d037
00000010: a719 ed37 1b5f d237 f4ab 3137 f99d 6037
00000020: bdbb 7e37 624c 2c36 dc68 a936 4be7 6137
00000030: 9e15 6a35 3da3 5735 0fc1 9f35 fd37 e834
00000040: eca2 e134 cca6 2235 a79d 9f34 5594 8034
00000050: fa1d 2234 31ef da33 6bec 2133 4030 8836

exp_avg f4 [2, 4, 2, 2]
-0.0014989738 -0.0015105014 -0.0014570203 -0.0015109639 -0.0011100784 -0.0010732983 -0.0010546636 -0.0011057867
-0.00069218606 -0.00070513535 -0.00080293807 -0.0008011611 -0.0015035474 -0.0027058118 -0.0013412369 -0.0029582141
6.716168e-05 -0.00019260451 0.00042876418 0.00023221923 -4.3284276e-06 -6.1749142e-06 6.7332854e-05 0.00017491491
-2.9611825e-05 -2.1612585e-05 -6.731313e-05 -0.00013748545 -5.0812782e-06 6.766601e-05 4.8029706e-05 0.00015200138
00000000: 3779 c4ba 04fc c5ba 7df9 beba 890b c6ba
00000010: 0d80 91ba eaad 8cba a33c 8aba 0bf0 90ba
00000020: d273 35ba d5d8 38ba 437c 52ba 0305 52ba
00000030: ae12 c5ba fd53 31bb 71cc afba 99de 41bb
00000040: 27d9 8c38 e1f5 49b9 c1cb e039 e07f 7339
00000050: e93c 91b6 1c32 cfb6 0d35 8d38 5d69 3739
00000060: e966 f8b7 ac4c b5b7 762a 8db8 f829 10b9
00000070: d97f aab6 eae7 8d38 8173 4938 8f62 1f39

exp_avg_sq f4 [2, 4, 2, 2]
5.3155225e-05 5.6006505e-05 5.1018273e-05 5.649336e-05 2.6355638e-05 2.5656876e-05 2.7149888e-05 2.4611134e-05
1.1953985e-05 1.1391652e-05 1.5190141e-05 1.4960661e-05 5.294838e-05 0.00018365834 3.8440732e-05 0.00021532536
1.1642802e-06 5.738137e-07 1.2124989e-06 9.038925e-07 3.3812043e-07 6.0122744e-07 3.9114997e-07 6.7495534e-07
2.8065833e-07 3.2561482e-07 2.6963897e-07 2.889743e-07 5.9084567e-08 5.4562906e-07 3.538605e-08 9.188015e-07
00000000: fdf2 5e38 87e8 6a38 74fc 5538 49f3 6c38
00000010: 4d16 dd37 b939 d737 f1bf e337 0274 ce37
00000020: fa8d 4837 c61e 3f37 29d9 7e37 8dff 7a37
00000030: e414 5e38 6994 4039 6c3b 2138 f6c8 6139
00000040: 5d44 9c35 2d08 1a35 25bd a235 05a3 7235
00000050: eb86 b534 0964 2135 3eff d134 942e 3535
00000060: 63ad 9634 29d0 ae34 e6c2 9034 5324 9b34
00000070: 2bc4 7d33 5877 1235 60fb 1733 8fa3 7635

exp_avg f4 [2]
-4.878735e-10 -5.2186085e-11
00000000: 0c1b 06b0 4f84 65ae

exp_avg_sq f4 [2]
3.895937e-18 1.429817e-19
00000000: 16bc 8f22 91cd 2820

exp_avg f4 [2]
-0.0017335908 0.0015320542
00000000: a839 e3ba 35cf c83a

exp_avg_sq f4 [2]
7.0259026e-05 5.97627e-05
00000000: 0758 9338 b6a9 7a38

exp_avg f4 [2]
0.009211742 -0.0033839548
00000000: d9ec 163c 57c5 5dbb

exp_avg_sq f4 [2]
0.002163581 0.0003249137
00000000: deca 0d3b 2e59 aa39

exp_avg f4 [32, 234]
-6e-45 8.444657e-05 4.170161e-05 7.3797164e-05 3.732895e-05 5.9299182e-05 3.1546857e-05 4.984748e-05
2.7657248e-05 5.0103183e-05 3.3429485e-05 8.444657e-05 2.2428826e-06 1.009506e-05 8.092852e-05 7.675427e-05
7.3554125e-05 6.854227e-05 6.207717e-05 5.6559988e-05 4.7165697e-05 4.0316856e-05 5.636006e-05 5.295103e-05
6.520245e-05 1.1349802e-05 1.009506e-05 8.5672364e-05 8.264997e-05 7.017675e-05 7.776275e-05 7.8983816e-05
5.19498e-05 4.581452e-05 4.2216772e-05 5.1627114e-05 5.8284873e-05 5.838529e-05 1.1349802e-05 1.05474155e-05
7.872303e-05 7.598147e-05 7.0241134e-05 7.4635806e-05 7.503639e-05 5.9822618e-05 5.064324e-05 4.3563447e-05
3.4083827e-05 4.592513e-05 5.015516e-05 8.520215e-06 1.007087e-05 8.18566e-05 7.3279836e-05 7.211199e-05
6.750972e-05 7.054988e-05 5.8854017e-05 4.9612907e-05 3.496084e-05 3.7921847e-05 4.0378134e-05 3.660766e-05
7.991229e-06 1.0291802e-05 8.573449e-05 7.983258e-05 8.1056314e-05 7.5907614e-05 8.677734e-05 6.5405045e-05
6.433707e-05 3.84909e-05 4.345257e-05 3.8128263e-05 4.1510313e-05 5.540616e-06 1.006123e-05 8.5147134e-05
8.076548e-05 6.796421e-05 7.736141e-05 6.3285064e-05 7.512607e-05 7.5831274e-05 5.2284035e-05 6.0035803e-05
4.5117118e-05 5.367262e-05 7.1816457e-06 1.009506e-05 8.48738e-05 8.060394e-05 7.477671e-05 6.874323e-05
6.7587236e-05 7.803934e-05 8.468165e-05 8.865466e-05 7.4191346e-05 6.2683845e-05 7.87725e-05 1.1349802e-05
1.009506e-05 9.949839e-05 8.151888e-05 9.397192e-05 6.63824e-05 7.891706e-05 8.28487e-05 0.000105278144
8.576167e-05 9.205434e-05 7.656635e-05 9.949839e-05 1.1349802e-05 6.494025e-05 -1.3229531e-07 5.3504544e-05
4.6899757e-05 0.000119231845 0.00014003232 0.00020638425 0.0002968033 0.0002823326 0.00030700339 8.850417e-05
-1.3229531e-07 6.616462e-05 2.2271746e-05 4.0388745e-06 1.8094726e-05 4.8009257e-05 8.357296e-05 8.986651e-05
0.00018680397 0.00022773155 0.0003476161 0.00033936874 0.00016479498 2.8634144e-05 3.8591905e-05 2.2271746e-05
1.3434869e-05 3.9175757e-05 4.5939e-05 9.1183574e-05 8.6182015e-05 9.716766e-05 0.00012858937 0.00027334187
0.00024014499 0.00018672211 5.8371505e-05 3.8591905e-05 1.8440556e-05 -2.249291e-05 8.267684e-06 3.2681015e-05
7.7806195e-05 2.2543769e-05 2.3970251e-05 0.000100401725 0.00022006818 0.0002546039 0.00013999043 0.0001354604
6.3314925e-05 4.676548e-06 -2.9031648e-05 -2.1106875e-05 3.212821e-05 4.5733756e-05 -2.3631148e-05 -3.4798863e-06
6.5964305e-05 0.00022328517 0.0004029045 0.00029412514 0.00021641122 0.00010803335 1.6111017e-05 -1.091221e-05
-1.0067299e-05 3.4225635e-05 1.5211672e-05 -1.0888021e-05 -2.6573614e-05 9.317395e-05 0.00023913737 0.0004092298
0.0004545446 0.00022447751 7.9663216e-05 2.2516528e-05 -7.269823e-06 -5.6387416e-06 3.0526342e-05 1.5441496e-05
3.818712e-05 4.500022e-05 0.0001167689 0.00022013627 0.0002462652 0.00038895782 9.040556e-05 4.2177457e-05
2.2271746e-05 -4.771008e-07 7.784891e-06 0.00010128268 8.021732e-05 4.221721e-05 5.6925728e-05 -3.8452104e-05
5.694857e-05 2.1655886e-05 0.00012564275 2.1397595e-06 3.8591905e-05 2.2271746e-05 2.188509e-05 2.0791518e-05
6.0581053e-05 6.378614e-05 5.6745066e-06 -4.0835377e-05 -2.7288836e-05 -3.9728842e-05 3.5763893e-05 -1.8351957e-06
2.188509e-05 3.8591905e-05 6e-45 -8.689995e-05 -4.6221056e-05 -7.60524e-05 -4.1812844e-05 -7.38991e-05
-4.5855133e-05 -8.80543e-05 -4.7216894e-05 -7.896964e-05 -4.2424665e-05 -8.689995e-05 -1.7104418e-06 -9.802682e-06
-8.204077e-05 -7.7011326e-05 -7.321388e-05 -7.909934e-05 -8.197628e-05 -7.690806e-05 -8.483824e-05 -8.5250416e-05
00000000: 0400 0080 e818 b138 c3e8 2e38 8dc3 9a38
00000010: a891 1c38 03b8 7838 2e51 0438 5313 5138
00000020: 7d01 e837 e225 5238 a336 0c38 e818 b138
00000030: 6e84 1636 f45d 2937 2bb8 a938 23f7 a038
00000040: 1241 9a38 5abe 8f38 6d2f 8238 d33a 6d38
00000050: c8d3 4538 e519 2938 2764 6c38 bc17 5e38
00000060: 4cbd 8838 076b 3e37 f45d 2937 00ab b338
00000070: 5d54 ad38 db2b 9338 8f14 a338 1da4 a538
00000080: ace4 5938 f728 4038 ea11 3138 318a 5838
00000090: e876 7438 bae2 7438 076b 3e37 cef4 3037
000000a0: 1b18 a538 3e58 9f38 6c4e 9338 cb85 9c38
000000b0: db5c 9d38 0cea 7a38 c469 5438 e5b7 3638
000000c0: 3bf5 0e38 bc9f 4038 b15d 5238 0bf2 0e37
000000d0: 0ff6 2837 6daa ab38 d0ad 9938 d43a 9738
000000e0: 0194 8d38 2ef4 9338 05da 7638 7417 5038
000000f0: eba2 1238 460e 1f38 b15b 2938 2d8b 1938
00000100: 1112 0637 f4aa 2c37 5bcc b338 ca6b a738
00000110: c7fc a938 9730 9f38 3bfc b538 112a 8938
00000120: b4ec 8638 4a71 2138 d740 3638 e9eb 1f38
00000130: 5c1b 2e38 87e9 b936 a7cc 2837 0591 b238
00000140: a360 a938 0288 8e38 173d a238 e9b7 8438
00000150: 008d 9d38 9b07 9f38 8e4b 5b38 f4ce 7b38
00000160: 233c 3d38 891e 6138 def9 f036 f45d 2937
00000170: 46fe b138 e909 a938 71d1 9c38 3e2a 9038
00000180: 9fbd 8d38 0da9 a338 1d97 b138 1cec b938
00000190: 2d97 9b38 2275 8338 aa32 a538 076b 3e37
000001a0: f45d 2937 cba9 d038 1ef5 aa38 ca12 c538
000001b0: c836 8b38 4680 a538 0fbf ad38 c6c8 dc38
000001c0: f2da b338 4c0d c138 3f92 a038 cba9 d038
000001d0: 076b 3e37 8830 8838 0f0d 0eb4 116a 6038
000001e0: 3bb6 4438 1c0c fa38 a4d5 1239 da68 5839
000001f0: 449c 9b39 0a06 9439 4cf5 a039 519b b938
00000200: 0f0d 0eb4 dcc1 8a38 36d4 ba37 ab85 8736
00000210: 21ca 9737 8c5d 4938 e443 af38 b776 bc38
00000220: cfe0 4339 39cb 6e39 3e40 b639 4ded b139
00000230: d1cc 2c39 5b33 f037 bedd 2138 36d4 ba37
00000240: 5366 6137 a650 2438 a0ae 4038 cf39 bf38
00000250: 9ebc b438 7ec6 cb38 f2d5 0639 534f 8f39
00000260: 6ecf 7b39 d6ca 4339 edd3 7438 bedd 2138
00000270: cbb0 9a37 28af bcb7 6fb5 0a37 f912 0938
00000280: e22b a338 601c bd37 b913 c937 c48e d238
00000290: 1ac2 6639 5b7c 8539 65ca 1239 600a 0e39
000002a0: f1c7 8438 3eeb 9c36 fd88 f3b7 ab0e b1b7
000002b0: 67c1 0638 3fd2 3f38 813b c6b7 fe87 69b6
000002c0: 5156 8a38 a821 6a39 ed3c d339 cf34 9a39
000002d0: 72ec 6239 f78f e238 2526 8737 9613 37b7
000002e0: b8e6 28b7 7f8d 0f38 a235 7f37 b2ab 36b7
000002f0: 67ea deb7 6266 c338 f3c0 7a39 e58d d639
00000300: f24f ee39 b961 6b39 dd10 a738 e0e1 bc37
00000310: 4eef f3b6 6c34 bdb6 6909 0038 5c88 8137
00000320: 1c2b 2038 9ebe 3c38 d3e1 f438 61d4 6639
00000330: 281d 8139 09ed cb39 1e98 bd38 b3e7 3038
00000340: 36d4 ba37 1e12 00b5 da9b 0237 ba67 d438
00000350: 593a a838 6212 3138 89c3 6e38 a247 21b8
00000360: 10dc 6e38 a9a9 b537 f8be 0339 ca98 0f36
00000370: bedd 2138 36d4 ba37 df95 b737 7269 ae37
00000380: 6918 7e38 ecc4 8538 a467 be36 a746 2bb8
00000390: 54ea e4b7 85a2 26b8 3001 1638 d850 f6b5
000003a0: df95 b737 bedd 2138 0400 0000 0e3e b6b8
000003b0: 7bdd 41b8 527e 9fb8 3360 2fb8 47fa 9ab8
000003c0: 9354 40b8 cba9 b8b8 c10a 46b8 819c a5b8
000003d0: 23f1 31b8 0e3e b6b8 5592 e5b5 3376 24b7
000003e0: 4e0d acb8 2481 a1b8 678a 99b8 23e2 a5b8
000003f0: aeea abb8 b349 a1b8 2feb b1b8 78c8 b2b8

exp_avg_sq f4 [32, 234]
2.9889648e-14 7.368105e-08 1.981881e-08 5.6563607e-08 1.755641e-08 5.3729483e-08 1.8129134e-08 5.9137125e-08
1.9527489e-08 6.428774e-08 2.1036822e-08 7.368105e-08 2.2276482e-10 1.361961e-09 6.572683e-08 5.8553358e-08
5.055857e-08 5.0579576e-08 4.849464e-08 5.347571e-08 5.3496766e-08 5.8253075e-08 5.8774347e-08 6.440865e-08
6.68842e-08 1.6727771e-09 1.361961e-09 6.163484e-08 5.516002e-08 4.9089845e-08 4.6695778e-08 4.6798057e-08
4.9810943e-08 5.0591765e-08 5.3546927e-08 5.2999916e-08 5.9261787e-08 6.133643e-08 1.6727771e-09 1.2136906e-09
6.007735e-08 5.412944e-08 5.0372098e-08 4.7094183e-08 4.7444228e-08 4.779266e-08 4.7845667e-08 4.9552845e-08
4.6418638e-08 5.260803e-08 5.4960825e-08 1.4121668e-09 1.1726333e-09 6.148217e-08 5.4914217e-08 5.2225257e-08
4.8989286e-08 4.8655394e-08 4.7358878e-08 4.5230998e-08 4.458088e-08 4.180605e-08 4.6536233e-08 5.03111e-08
1.3133931e-09 1.1900468e-09 6.3429034e-08 5.692793e-08 5.4093917e-08 5.066703e-08 4.8976506e-08 4.7412776e-08
4.5316224e-08 4.178508e-08 4.026094e-08 4.2816627e-08 5.0147708e-08 1.2938521e-09 1.3071622e-09 6.578017e-08
5.976459e-08 5.4733693e-08 5.090676e-08 5.001071e-08 4.8233833e-08 4.61337e-08 4.1985224e-08 4.3450875e-08
4.4757428e-08 5.3710856e-08 1.4030582e-09 1.361961e-09 7.18714e-08 6.084624e-08 5.71028e-08 5.2638157e-08
5.3412613e-08 5.0315293e-08 5.1786564e-08 4.659979e-08 5.158781e-08 5.0366637e-08 6.804156e-08 1.6727771e-09
1.361961e-09 1.0230129e-07 6.354821e-08 8.6630045e-08 5.6784348e-08 8.27897e-08 5.670719e-08 8.4801e-08
5.551941e-08 8.472878e-08 5.9253686e-08 1.0230129e-07 1.6727771e-09 4.3305675e-08 3.3826152e-12 3.1492025e-08
1.7367667e-07 1.8604229e-07 2.4764114e-07 1.5747237e-07 1.8440984e-07 1.1822217e-07 1.1955514e-07 3.1225632e-08
3.3826152e-12 4.566231e-08 5.0598032e-09 1.8186607e-09 5.988926e-08 2.945799e-07 3.141086e-07 3.090903e-07
2.5335197e-07 2.595281e-07 1.9990551e-07 2.0371515e-07 5.018949e-08 4.1216386e-09 1.6598236e-08 5.0598032e-09
4.4830642e-08 1.7809401e-07 3.1382746e-07 3.4516688e-07 3.4793374e-07 3.1685215e-07 3.3818557e-07 2.832654e-07
2.7344015e-07 1.6086598e-07 5.8787275e-08 1.6598236e-08 7.953142e-09 1.1391369e-07 2.2099546e-07 2.8177982e-07
3.3630792e-07 3.5158064e-07 3.7457946e-07 4.1617997e-07 3.6141506e-07 3.5000676e-07 2.4561788e-07 1.5910575e-07
2.6834199e-08 3.5275797e-08 1.2511195e-07 1.9352804e-07 2.2032215e-07 3.004872e-07 3.2972505e-07 4.0052333e-07
4.5493755e-07 4.2792334e-07 4.4700965e-07 3.2764643e-07 2.1026861e-07 7.159873e-08 1.9425158e-08 5.6386558e-08
1.5314858e-07 1.9398692e-07 2.5549696e-07 2.9632753e-07 3.897234e-07 4.5051866e-07 4.784269e-07 5.0186935e-07
3.9281645e-07 1.3810197e-07 4.524219e-08 5.305106e-09 8.567162e-09 1.2123752e-07 1.8370669e-07 2.3563112e-07
2.846229e-07 3.4109814e-07 3.707788e-07 4.7076801e-07 4.4494445e-07 3.7692865e-07 2.3010232e-08 1.7591569e-08
5.0598032e-09 4.8344547e-11 6.365497e-08 1.4880078e-07 2.396568e-07 2.410349e-07 2.7869024e-07 2.7082334e-07
3.5432137e-07 2.8174452e-07 1.7015763e-07 5.227407e-11 1.6598236e-08 5.0598032e-09 5.4530407e-09 1.0106408e-08
7.382862e-08 1.9394373e-07 1.5529116e-07 2.1448601e-07 1.6086453e-07 2.5069147e-07 1.044376e-07 1.8576182e-08
5.4530407e-09 1.6598236e-08 3.616818e-14 3.2786378e-08 9.071846e-09 2.5906242e-08 8.138305e-09 2.5016687e-08
8.571344e-09 2.7509625e-08 9.074644e-09 2.8874275e-08 9.444684e-09 3.2786378e-08 1.1398297e-10 6.3493544e-10
2.8632359e-08 2.6292653e-08 2.2353479e-08 2.28188e-08 2.2096977e-08 2.4684075e-08 2.3816058e-08 2.6605319e-08
00000000: 6b9c 0629 963a 9e33 063e aa32 58f0 7233
00000010: f4ce 9632 31c4 6633 63ba 9b32 f5fd 7d33
00000020: 67bd a732 8f0e 8a33 76b4 b432 963a 9e33
00000030: b9ee 742f be2f bb30 b525 8d33 197c 7b33
00000040: bc25 5933 d53c 5933 6c48 5033 2aad 6533
00000050: 51c4 6533 ef31 7a33 146f 7c33 0851 8a33
00000060: faa1 8f33 9de7 e530 be2f bb30 1d5c 8433
00000070: 15e9 6c33 dbd6 5233 8d8e 4833 02ff 4833
00000080: b6ef 5533 3c4a 5933 78fb 6533 06a2 6333
00000090: 0687 7e33 0fb8 8333 9de7 e530 f1ce a630
000000a0: df03 8133 f37b 6833 b558 5833 9a44 4a33
000000b0: 7bc5 4b33 9644 4d33 de7e 4d33 eed3 5433
000000c0: d55d 4733 24f3 6133 110e 6c33 3416 c230
000000d0: 5e2a a130 2e08 8433 d2da 6b33 474e 6033
000000e0: 4a68 5233 2cf9 5033 a367 4b33 0244 4233
000000f0: 3279 3f33 3d8e 3333 21df 4733 a415 5833
00000100: e982 b430 0d8f a330 7b36 8833 ec80 7433
00000110: e454 6833 fd9c 5933 3d5a 5233 e6a2 4b33
00000120: b7a1 4233 2e77 3333 5feb 2c33 61e5 3733
00000130: fd61 5733 60d3 b130 aea7 b330 0843 8d33
00000140: ee57 8033 5514 6b33 93a4 5a33 5bcb 5633
00000150: a929 4f33 8a24 4633 3e53 3433 be9e 3a33
00000160: 503b 4033 b6af 6633 b9d5 c030 be2f bb30
00000170: b857 9a33 93aa 8233 3141 7533 4414 6233
00000180: ca67 6533 401a 5833 ee6b 5e33 0325 4833
00000190: 6691 5d33 b452 5833 3e1e 9233 9de7 e530
000001a0: be2f bb30 bbb0 db33 ff77 8833 5f09 ba33
000001b0: 0de3 7333 1eca b133 378e 7333 d81b b633
000001c0: 3d74 6e33 24f4 b533 1e7e 7e33 bbb0 db33
000001d0: 9de7 e530 18ff 3933 c707 6e2c d941 0733
000001e0: e17b 3a34 eac2 4734 8af3 8434 ad15 2934
000001f0: 3102 4634 53e1 fd33 115f 0034 f21c 0633
00000200: c707 6e2c 3e1e 4433 80da ad31 6ff4 f930
00000210: 789c 8033 c126 9e34 c2a2 a834 0cf1 a534
00000220: 6e04 8834 4555 8b34 9ca5 5634 cbbc 5a34
00000230: ee8f 5733 519e 8d31 e893 8e32 80da ad31
00000240: d08b 4033 1c3a 3f34 1e7c a834 604f b934
00000250: a6cb ba34 d41b aa34 df8f b534 b313 9834
00000260: 54cd 9234 81ba 2c34 4b7d 7c33 e893 8e32
00000270: 4aa2 0832 b7a0 f433 c54a 6d34 8647 9734
00000280: cf8d b434 e0c0 bc34 cf19 c934 576f df34
00000290: 8208 c234 90e8 bb34 77dd 8334 a8d6 2a34
000002a0: 0781 e632 2682 1733 8356 0634 95cc 4f34
000002b0: b191 6c34 a552 a134 1105 b134 8207 d734
000002c0: 243e f434 56bd e534 8afc ef34 62e7 af34
000002d0: 32c6 6134 d1c1 9933 60dc a632 ad2d 7233
000002e0: 2971 2434 b84a 5034 3c2b 8934 f216 9f34
000002f0: 2d3b d134 d0de f134 3f6d 0035 33b8 0635
00000300: 48e4 d234 2e49 1434 5050 4233 3548 b631
00000310: c72e 1332 842d 0234 e940 4534 ca01 7d34
00000320: 46ce 9834 2c20 b734 730f c734 ddbd fc34
00000330: b3e0 ee34 ae5c ca34 09a8 c532 451c 9732
00000340: 80da ad31 1f9f 542e b1b2 8833 0cc6 1f34
00000350: 2eaa 8034 9667 8134 e59e 9534 ad65 9134
00000360: 8f39 be34 ac42 9734 93b4 3634 5fe7 652e
00000370: e893 8e32 80da ad31 745d bb31 74a0 2d32
00000380: b78b 9e33 d93e 5034 1cbe 2634 774d 6634
00000390: 1bba 2c34 c696 8634 2e47 e033 7591 9f32
000003a0: 745d bb31 e893 8e32 13e3 2229 01d1 0c33
000003b0: 67da 1b32 6e88 de32 a5d0 0b32 47e4 d632
000003c0: 2b41 1332 4e4e ec32 b5e6 1b32 3407 f832
000003d0: 2942 2232 01d1 0c33 b5a6 fa2e 9c87 2e30
000003e0: 39f3 f532 28da e132 d203 c032 1203 c432
000003f0: c4cf bd32 db08 d432 1194 cc32 b789 e432

exp_avg f4 [32]
0.00016461834 -0.00017168345 3.2321586e-05 5.655285e-05 -7.2924086e-05 6.00209e-05 -1.3838489e-05 -8.248646e-05
0.00012702726 -2.5197694e-06 6.258265e-06 -1.0479901e-05 0.00020218459 6.0558894e-05 -4.5268065e-05 6.032474e-05
2.0106198e-05 -1.70824e-05 -1.0099123e-05 -0.0001523859 -8.7711574e-05 -2.4450521e-06 -9.2991315e-05 -0.00015709795
-6.2007144e-05 -9.97806e-05 -0.00012532243 4.8125195e-05 -6.377517e-05 1.1885226e-05 9.63407e-05 2.5428662e-05
00000000: 669d 2c39 ed05 34b9 0a91 0738 2933 6d38
00000010: d2ee 98b8 f3be 7b38 dc2b 68b7 95fc acb8
00000020: 9f32 0539 4f19 29b6 16fe d136 d5d2 2fb7
00000030: 8301 5439 9e00 7e38 37de 3db8 3205 7d38
00000040: bba9 a837 2d4c 8fb7 676f 29b7 c7c9 1fb9
00000050: cbf1 b7b8 ad15 24b6 5504 c3b8 a9ba 24b9
00000060: d509 82b8 4d41 d1b8 fc68 03b9 09da 4938
00000070: 09bf 85b8 a866 4737 850a ca38 a34f d537

exp_avg_sq f4 [32]
3.021126e-07 1.3401596e-07 6.184079e-08 1.7856384e-07 1.7884143e-07 6.8433735e-08 5.273102e-08 7.546022e-08
9.700354e-08 1.8592824e-07 1.2986055e-07 6.1724556e-08 2.851368e-07 1.12132035e-07 8.624411e-08 1.9463025e-07
7.675053e-08 2.547834e-07 6.270802e-08 6.579217e-08 1.12441505e-07 6.767586e-08 2.2365036e-07 3.2067598e-07
1.5819302e-07 8.699935e-08 2.330411e-07 1.5011769e-07 1.357763e-07 1.2496801e-07 3.7073178e-07 1.5012199e-07
00000000: 0a32 a234 07e6 0f34 55cd 8433 41bb 3f34
00000010: 8f07 4034 d8f5 9233 5f7a 6233 b20c a233
00000020: 4350 d033 91a3 4734 cc6f 0b34 6f8d 8433
00000030: e714 9934 3dcd f033 3335 b933 8efb 5034
00000040: 0dd2 a433 2ac9 8834 19aa 8633 a149 8d33
00000050: 5f77 f133 3355 9133 8b24 7034 5f29 ac34
00000060: c4db 2934 66d4 ba33 da39 7a34 0930 2134
00000070: e8c9 1134 f22e 0634 fd08 c734 3831 2134
