server_report/ae_hexa/ae_hexa_log_4_2_64/autoencoder_20260101_171612.pth (torch, 388782 bytes, 51 tensors)

enc1.kernel0 f4 [4, 1, 5, 1]
0.08255698 0.11658035 0.23587814 -0.30857533 -0.55081844 0.077214725 0.08572445 0.15961984
0.1662982 0.10452281 0.09413202 0.23479834 0.21561433 -0.055078574 -0.098184645 0.28119832
0.29245904 0.15131798 0.14610799 -0.20038208
00000000: a213 a93d aec1 ee3d 0a8a 713e 96fd 9dbe
00000010: 7002 0dbf c122 9e3d 4d90 af3d 6273 233e
00000020: 134a 2a3e 0e10 d63d 4ac8 c03d fa6e 703e
00000030: 01ca 5c3e 129a 61bd 0815 c9bd 3af9 8f3e
00000040: 31bd 953e 1af3 1a3e 559d 153e f630 4dbe

enc1.kernel1 f4 [4, 1, 4, 2]
-0.35018817 0.45683092 -0.18944867 0.9088826 -0.28144905 0.21357508 -0.47883844 -0.4409012
0.088295914 0.035591245 0.09809371 0.013992246 0.15129878 0.026097823 0.16177948 0.048298236
0.17121695 0.0412491 0.21173944 0.25627226 -0.037004437 0.23138903 -0.090120114 -0.03260427
0.06764059 0.4042512 0.27730078 0.016633054 0.17700222 -0.43411055 -0.017883856 -0.08468155
00000000: dd4b b3be bee5 e93e d5fe 41be 88ac 683f
00000010: 171a 90be 6db3 5a3e 502a f5be cdbd e1be
00000020: 7dd4 b43d 20c8 113d 5be5 c83d bc3f 653c
00000030: 11ee 1a3e 1acb d53c 85a9 253e 5fd4 453d
00000040: 7f53 2f3e d1f4 283d 39d2 583e 1e36 833e
00000050: f791 17bd 3ff1 6c3e e590 b8bd 0e8c 05bd
00000060: 2687 8a3d 03fa ce3e 5efa 8d3e 0b42 883c
00000070: 1240 353e bd43 debe 2a81 92bc 856d adbd

enc1.kernel2 f4 [4, 1, 3, 2]
-0.23450597 0.41051558 0.009779237 0.4978461 0.09630906 -0.32256803 0.052359995 0.00765814
0.013690749 -0.020719044 0.090340085 0.022346219 0.12271438 0.17338954 0.025085207 0.25349063
-0.043131687 0.110536456 -0.120565385 -0.22035596 0.047721513 -0.57960945 0.04006352 -0.22666198
00000000: 5522 70be 192f d23e 1839 203c afe5 fe3e
00000010: af3d c53d a327 a5be 6f77 563d 22f1 fa3b
00000020: 2a4f 603c fcba a9bc 3904 b93d 6b0f b73c
00000030: ad51 fb3d 078d 313e 7e7f cd3c 86c9 813e
00000040: daaa 30bd f060 e23d fcea f6bd fea4 61be
00000050: a277 433d 4961 14bf a519 243d 141a 68be

enc1.bias_tensor f4 [4]
8.718527e-06 0.0046147383 0.0005723725 -0.00046732256
00000000: ca45 1237 3b37 973b 450b 163a f902 f5b9

enc2.kernel0 f4 [2, 4, 3, 1]
0.056690335 0.07796429 0.06678748 -0.5982037 0.3497902 -0.021114431 0.25422034 0.34204686
-0.21742862 0.10890737 0.10267566 0.07928673 0.018922454 -0.006412755 -0.059046105 0.12335795
0.021298166 -0.045198034 -0.027493741 -0.12593496 -0.023604086 -0.038895592 0.030476402 0.047619995
00000000: 2034 683d beab 9f3d e0c7 883d e123 19bf
00000010: b317 b33e 2cf8 acbc 2b29 823e c420 af3e
00000020: 9ca5 5ebe d40a df3d 9e47 d23d 1561 a23d
00000030: 4303 9b3c 1722 d2bb 54da 71bd 18a3 fc3d
00000040: 7e79 ae3c 9321 39bd 8e3a e1bc 18f5 00be
00000050: 5b5d c1bc fc50 1fbd a6a9 f93c 2f0d 433d

enc2.kernel1 f4 [2, 4, 2, 2]
0.048338722 -0.0025686866 -0.008242972 0.044214595 -0.38540468 -0.3919525 0.009040054 0.6253388
0.09426922 -0.010730982 0.38020235 -0.18137857 0.03219178 0.053329747 0.11264004 -0.030016154
-0.0021359508 0.063178934 0.0050216513 0.017796952 0.118701175 -0.15167484 0.02841609 0.42067936
0.031167096 0.09829999 -0.13969398 0.35734448 -0.030190019 0.05535519 -0.030485189 0.10437519
00000000: d3fe 453d 6957 28bb 880d 07bc 5d1a 353d
00000010: c353 c5be 00ae c8be bc1c 143c 3416 203f
00000020: 3910 c13d 00d1 2fbc e2a9 c23e 4ebb 39be
00000030: 87db 033d 4b70 5a3d d2af e63d 70e4 f5bc
00000040: 4ffb 0bbb f563 813d aa8c a43b eaca 913c
00000050: 9a19 f33d a650 1bbe dcc8 e83c 4963 d73e
00000060: 2352 ff3c 8151 c93d f00b 0fbe dbf5 b63e
00000070: 0f51 f7bc 20bc 623d 13bc f9bc a9c2 d53d

enc2.bias_tensor f4 [2]
0.025617886 0.020041175
00000000: 9adc d13c 642d a43c

fc_enc.weight f4 [64, 234]
0.008166577 -0.091230065 -0.011708737 -0.15602787 0.14031786 -0.16898131 -0.059171963 0.32846758
-0.22184612 -0.3485438 0.2553641 -0.07265942 -0.008103983 -0.055907745 0.0152995875 0.16229258
-0.0876283 0.27211875 0.18383284 0.05332169 0.0050434396 0.0059213853 0.37210292 0.3060599
0.48142803 -0.10617488 -0.034907375 0.067011975 0.095411375 -0.24727018 0.13778529 -0.18949223
-0.20941558 0.45222643 -0.14785106 -0.2701203 0.12596616 -0.13633108 -0.09723102 -0.7038903
0.20272931 -0.084982686 -0.05860509 0.02628174 0.020137787 -0.28179827 0.069639504 0.075530924
0.13988315 0.122473285 0.20461635 -0.020979805 0.055136416 -0.17841753 -0.062753566 -0.1936627
0.15401702 -0.052254766 0.27782637 -0.10070299 0.015150643 0.036498547 -0.053745456 0.19067597
-0.24368325 0.24406153 -0.28081182 0.108683154 0.036535475 -0.070901245 0.20525517 -0.13314743
0.15973866 -0.13184355 0.0916866 0.0065319613 -0.09405384 -0.27852783 0.031860095 0.04663461
-0.012368376 0.052657522 -0.254222 -0.033313114 -0.16285935 0.13209765 0.082145765 0.10027396
-0.11095736 0.40708476 0.28030425 -0.00679618 -0.32332328 0.017849244 -0.049474355 0.04490931
-0.21720631 0.21057984 -0.17434424 -0.06835343 -0.1741499 0.089971304 -0.06980359 -0.10457749
-0.06425002 -0.13722537 0.63462484 -0.20794456 0.21529032 -0.01778081 0.0144530395 -0.0033178646
0.121495046 0.29238027 -0.12080565 -0.05562539 -0.12221031 0.053157717 0.0096573075 0.5124113
-0.17482075 -0.14042078 0.019381106 -0.20957206 -0.08093622 -0.117277764 -0.18714246 -0.29242733
0.10915048 0.024688274 0.07010451 -0.113261215 0.01868958 0.1876572 0.03778519 0.31718326
0.06936313 0.036504887 0.18037942 -0.010945577 0.18989733 -0.15925346 0.1526634 0.11722255
0.1683967 0.100722216 -0.008410816 -0.14613488 -0.115959324 -0.22916855 0.04245786 0.031446625
-0.11095335 0.1312254 -0.1326118 0.068797156 0.29953992 -0.0818879 0.02470863 -0.21295983
-0.119606175 0.19913319 -0.027895875 0.044207945 0.06427356 -0.14360796 -0.075865045 0.032757934
-0.3836507 -0.06039378 0.13164765 0.04392427 -0.043706022 0.07456029 0.110088706 0.03619534
-0.22034763 -0.011386497 0.0020958628 0.3077946 -0.15598454 0.21463719 -0.08924475 0.07434352
-0.13798894 -0.026272668 -0.11076343 0.10631358 -0.005675122 0.19223511 -0.04613069 0.16226412
-0.34222573 -0.06652068 0.29104313 0.036708687 -0.1886694 0.25303903 0.23779054 -0.06263379
-0.10516717 -0.024444247 -0.0435378 -0.08950324 -0.015441638 0.09448461 0.13418488 0.4625432
0.009751061 0.0612953 0.1697677 0.15886392 -0.17571948 -0.14626063 0.098888226 0.012884799
0.1251957 -0.25095737 -0.22521687 -0.49819362 0.08980186 0.0686657 0.043080155 0.018863885
0.13559158 -0.054185964 0.12991154 -0.14568269 0.1020552 -0.43086675 -0.07656189 -0.35769948
0.12249066 0.029138023 -0.07170643 -0.07293011 -0.15783979 -0.04335603 0.048677616 0.08113772
0.04857921 0.16593486 -0.074686654 -0.14210595 0.040270578 -0.09759931 -0.02822181 -0.0852102
0.017194286 0.08386984 0.06607585 -0.2522246 -0.16871655 0.083295636 -0.11284157 0.10622914
00000000: 1bcd 053c d4d6 babd 01d6 3fbc c5c5 1fbe
00000010: 7caf 0f3e 7009 2dbe 4d5e 72bd e72c a83e
00000020: a12b 63be 5574 b2be 15bf 823e 76ce 94bd
00000030: 91c6 04bc 85ff 64bd 1fab 7a3c 0730 263e
00000040: 7776 b3bd 2653 8b3e ad3e 3c3e d867 5a3d
00000050: 7043 a53b 2e08 c23b 4684 be3e e2b3 9c3e
00000060: bc7d f63e 3772 d9bd 09fb 0ebd 933d 893d
00000070: 0a67 c33d 6534 7dbe 9617 0d3e 400a 42be
00000080: 0a71 56be 398a e73e 4566 17be 354d 8abe
00000090: 46fd 003e 609a 0bbe 0f21 c7bd 2832 34bf
000000a0: 4698 4f3e 670b aebd e40b 70bd ce4c d73c
000000b0: 00f8 a43c dd47 90be 289f 8e3d f5af 9a3d
000000c0: 873d 0f3e 46d3 fa3d f386 513e d7dd abbc
000000d0: b9d6 613d 16b3 36be f184 80bd 844f 46be
000000e0: a3b6 1d3e 1809 56bd 423f 8e3e 5f3d cebd
000000f0: 673a 783c 807f 153d 3224 5cbd 9040 433e
00000100: 1a88 79be 44eb 793e 91c6 8fbe 4695 de3d
00000110: 39a6 153d ac34 91bd 692e 523e cd57 08be
00000120: 8892 233e ff01 07be 2fc6 bb3d 100a d63b
00000130: 4d9f c0bd 339b 8ebe bb7f 023d ef03 3f3d
00000140: bba4 4abc 6aaf 573d 6329 82be 5573 08bd
00000150: 9ac4 26be 9b44 073e 0a3c a83d 6f5c cd3d
00000160: 9d3d e3bd 6a6d d03e 0a84 8f3e 7db2 debb
00000170: a18a a5be 9438 923c 9fa5 4abd d3f2 373d
00000180: 556b 5ebe 3ea2 573e 4c87 32be e2fc 8bbd
00000190: 5a54 32be e042 b83d 2ff5 8ebd b92c d6bd
000001a0: 8495 83bd cf84 0cbe c676 223f 6bef 54be
000001b0: 1175 5c3e 10a9 91bc 71cc 6c3c 8870 59bb
000001c0: 65d2 f83d deb2 953e f468 f7bd 73d7 63bd
000001d0: 6649 fabd e8bb 593d af39 1e3c 632d 033f
000001e0: 3604 33be 77ca 0fbe 20c5 9e3c 0f9a 56be
000001f0: e4c1 a5bd 532f f0bd 46a2 3fbe 09b9 95be
00000200: 498a df3d 103f ca3c f492 8f3d 7ff5 e7bd
00000210: e41a 993c 3629 403e a5c4 1a3d d865 a23e
00000220: 420e 8e3d 2686 153d 62b5 383e 1455 33bc
00000230: 7274 423e 5713 23be cb53 1c3e 6012 f03d
00000240: 2f70 2c3e 7347 ce3d 85cd 09bc 62a4 15be
00000250: 157c edbd 29ab 6abe 4be8 2d3d 2dce 003d
00000260: 833b e3bd f45f 063e 63cb 07be 86e5 8c3d
00000270: 4c5d 993e d8b4 a7bd c169 ca3c 2412 5abe
00000280: 15f4 f4bd 92e9 4b3e e485 e4bc 6413 353d
00000290: dba1 833d f70d 13be 225f 9bbd 2f2d 063d
000002a0: dd6d c4be 785f 77bd a4ce 063e efe9 333d
000002b0: 1605 33bd 11b3 983d 3076 e13d 9141 143d
000002c0: cfa2 61be 6e8e 3abc be5a 093b 4197 9d3e
000002d0: 69ba 1fbe dac9 5b3e f4c5 b6bd 6a41 983d
000002e0: f94c 0dbe c739 d7bc f0d7 e2bd efba d93d
000002f0: 60f6 b9bb 48d9 443e 89f3 3cbd 9128 263e
00000300: 3638 afbe ff3b 88bd 9b03 953e d95b 163d
00000310: 8d32 41be 558e 813e 5d7f 733e 2546 80bd
00000320: e361 d7bd 4d3f c8bc b154 32bd 7a4d b7bd
00000330: edfe 7cbc 2681 c13d c367 093e 76d2 ec3e
00000340: eac2 1f3c c810 7b3d 95d7 2d3e 39ad 223e
00000350: cfef 33be 59c5 15be e985 ca3d c41a 533c
00000360: 4d33 003e 7c7d 80be 409f 66be 3c13 ffbe
00000370: 0aea b73d 9aa0 8c3d d174 303d 6f88 9a3c
00000380: 85d8 0a3e 1af2 5dbd 8807 053e d82d 15be
00000390: 5102 d13d 919a dcbe 7bcc 9cbd 6324 b7be
000003a0: 62dc fa3d ddb2 ee3c d2da 92bd 625c 95bd
000003b0: c1a0 21be 1896 31bd 2e62 473d 882b a63d
000003c0: fefa 463d d4ea 293e 51f5 98bd 3984 11be
000003d0: c3f2 243d 26e2 c7bd 6d31 e7bc af82 aebd
000003e0: 08db 8c3c f3c3 ab3d c652 873d 9523 81be
000003f0: 08c4 2cbe e796 aa3d 7b19 e7bd aa8e d93d

fc_enc.bias f4 [64]
-0.0578354 0.12834188 0.094517715 -0.19362259 0.019443156 7.6752614e-05 0.06704513 0.15159555
-0.020408405 0.045016155 0.0046833116 -0.0030948417 0.030462334 0.060142063 0.0460362 0.12985374
-0.05345013 0.060013156 -0.060239714 0.12856026 -0.0060977195 0.142603 0.037627466 0.0040293746
-0.0032861102 0.0928239 0.028335063 -0.0447975 -0.39073083 0.03205964 -0.010529862 0.0042651724
-0.055770576 -0.0013828123 0.4044124 0.0076235514 0.05938385 -0.15497333 0.0066092215 -0.15710431
0.01654219 -0.0052548693 -0.030923773 0.07894034 -0.1485645 -0.006994248 0.20791039 -0.17858306
0.041959334 -0.016483026 -0.035600662 0.09060036 0.037949026 -0.015537839 -0.092873 -0.09602102
0.059182197 0.046731144 -0.0044069365 -0.17900458 0.03829436 -0.20331366 0.02979198 0.080665424
00000000: d0e4 6cbd 0e6c 033e 8192 c13d 0045 46be
00000010: 4147 9f3c 3ff6 a038 f54e 893d dd3b 1b3e
00000020: 872f a7bc dc62 383d 7776 993b d4d2 4abb
00000030: 258c f93c 8657 763d 7490 3c3d 61f8 043e
00000040: 86ee 5abd 5bd0 753d ebbd 76bd 4da5 033e
00000050: 61cf c7bb 8506 123e 421f 1a3d d808 843b
00000060: c85b 57bb 751a be3d ef1e e83c 957d 37bd
00000070: df0d c8be f850 033d 7185 2cbc dcc2 8b3b
00000080: b06f 64bd 7b3f b5ba 240f cf3e fcce f93b
00000090: 7b3c 733d 54b1 1ebe 2b92 d83b f4df 20be
000000a0: 7d83 873c 0a31 acbb da53 fdbc 79ab a13d
000000b0: 4b21 18be 0130 e5bb 76e6 543e 7ade 36be
000000c0: 8ddd 2b3d 6907 87bc 00d2 11bd ae8c b93d
000000d0: 7070 1b3d 6c92 7ebc 3334 bebd aba6 c4bd
000000e0: 0869 723d 2869 3f3d 1068 90bb fa4c 37be
000000f0: 8cda 1c3d 7531 50be 4f0e f43c ea33 a53d

fc_dec.weight f4 [234, 64]
0.10279921 -0.11689129 -0.13165733 -0.108675495 -0.084882304 -0.060027186 -0.20402229 0.10385271
0.0017683362 -0.18621837 0.046064902 0.22717242 0.09780308 -0.18199097 -0.13207285 -0.07735863
-0.121321574 -0.06291946 0.039951924 0.17738466 0.15885136 -0.054247808 0.096035704 -0.095742576
-0.076338544 -0.1299288 0.03522258 0.060503867 0.07058193 -0.11679096 0.15831205 0.062743165
0.10854892 0.09533922 -0.03895348 -0.012821942 0.12584174 -0.053405367 0.114080004 -0.09246218
0.033285256 -0.018192755 -0.047829214 -0.16214852 -0.06034629 0.10649448 0.10698536 0.082194336
0.076091394 -0.006456376 0.033348747 -0.11613255 0.29975355 -0.03114512 -0.00020694091 0.130997
0.08228781 -0.04426124 -0.12405585 -0.025550047 -0.17791054 0.13643415 0.00703343 0.048455197
-0.29799697 0.042017836 -0.11356444 -0.21633701 0.022792047 0.13315034 -0.2063068 -0.19847947
0.21616375 -0.51013863 -0.35656792 0.14321244 0.15065543 -0.2931983 -0.38008896 0.008351312
-0.10235789 -0.29263994 0.1847104 0.13838536 0.21093707 -0.080047876 0.027220441 -0.044482943
-0.025717817 -0.40353692 -0.31868947 0.0403463 0.072444975 -0.22944981 0.01714644 -0.11497156
0.09455548 0.12761678 -0.09406076 0.0675099 -0.012907656 0.020826269 0.064406015 0.28777835
0.081842005 -0.0077650584 -0.3032367 0.022131184 0.34921372 -0.50364596 -0.020304639 -0.18017422
0.099480145 0.36719403 0.3008272 -0.08394234 0.07393194 -0.0027332995 -0.09254691 0.04530138
0.21198444 -0.095816396 -0.23632729 0.010464338 -0.5748168 0.27371946 0.068982795 0.2295074
-0.03166825 -0.028829873 -0.15901393 0.1647724 -0.14092955 -0.028238636 -0.08579221 0.0023447191
-0.07628183 0.03219367 0.0945881 0.025098486 0.11308151 0.1501765 0.025897251 -0.09858378
0.11081877 -0.020417094 -0.10782609 0.29980308 0.24154982 0.08999785 -0.17680334 -0.056253754
0.16898887 -0.09448972 0.23483154 -0.09369396 0.10498868 -0.10000911 -0.23181443 0.10838375
-0.2638997 -0.0700833 0.0037126117 -0.020417284 -0.14857201 -0.03149392 0.032311313 -0.10528988
-0.14146754 0.01710421 -0.025517538 -0.076590925 -0.16252942 -0.09092752 -0.0024897226 -0.023922922
-0.19587593 -0.00716456 -0.07158144 -0.012430492 0.036981106 0.04252883 -0.00778925 0.099413194
0.13215895 0.18002878 0.037659116 -0.042229302 -0.24624625 -0.15164238 -0.06761427 -0.12483801
0.12547787 0.12971984 0.25711057 -0.1506864 0.1978517 0.21334839 -0.17315573 0.06318127
0.23043361 0.02346119 -0.14810109 0.22314952 0.011577389 0.024675779 -0.26888174 0.1255213
0.23736615 0.11247235 0.008430247 0.034188755 -0.063695215 -0.3056094 0.13390623 -0.08187787
-0.11417191 -0.2217191 0.13325635 0.31501564 -0.021466859 0.15918213 0.069979995 -0.18888064
0.13284485 -0.06209686 0.056170043 -0.06710899 -0.059191898 -0.041339435 0.047779158 0.06345005
0.17594515 0.15323327 0.07774822 -0.13272537 -0.09051771 -0.21358055 0.008715797 -0.18490575
-0.01996424 0.41310123 0.2849612 -0.098416604 0.1965947 -0.19679531 0.22188321 0.12175757
0.118266255 0.18440971 -0.28799218 0.16280618 -0.084534235 0.17331508 0.3000448 0.14059773
00000000: 6488 d23d b364 efbd 2ed1 06be 4291 debd
00000010: c6d6 adbd 11df 75bd 38eb 50be bbb0 d43d
00000020: 84c7 e73a 07b0 3ebe 8dae 3c3d e39f 683e
00000030: fb4c c83d d75b 3abe 1b3e 07be 346e 9ebd
00000040: 7277 f8bd ebdb 80bd a1a4 233d 53a4 353e
00000050: eea9 223e f332 5ebd 5eae c43d af14 c4bd
00000060: 6257 9cbd 0e0c 05be 8d45 103d e7d2 773d
00000070: 428d 903d 1930 efbd 8e1c 223e 7d7f 803d
00000080: e54e de3d 3541 c33d af8d 1fbd 1f13 52bc
00000090: a8dc 003e 96bf 5abd c7a2 e93d d05c bdbd
000000a0: 1f56 083d f908 95bc 91e8 43bd 430a 26be
000000b0: ac2d 77bd c719 da3d 241b db3d 8155 a83d
000000c0: ced5 9b3d 0290 d3bb b298 083d e7d6 edbd
000000d0: 4c79 993e 0d24 ffbc 47fe 58b9 1424 063e
000000e0: 8386 a83d 464b 35bd fe10 febd 554e d1bc
000000f0: 2e2e 36be 65b5 0b3e b078 e63b f578 463d
00000100: 0f93 98be e51a 2c3d 7994 e8bd 7387 5dbe
00000110: 63b6 ba3c 9058 083e 1742 53be 343e 4bbe
00000120: 085a 5d3e 7298 02bf 1290 b6be 48a6 123e
00000130: 6b45 1a3e 161e 96be 059b c2be f1d3 083c
00000140: 03a1 d1bd e7d4 95be b924 3d3e e4b4 0d3e
00000150: e3ff 573e 24f0 a3bd 67fd de3c bf33 36bd
00000160: 2cae d2bc 649c cebe 442b a3be 2942 253d
00000170: 085e 943d e4f4 6abe b176 8c3c 3676 ebbd
00000180: 4ea6 c13d f9ad 023e eea2 c0bd a142 8a3d
00000190: a27a 53bc da9b aa3c 4de7 833d af57 933e
000001a0: c89c a73d 0872 febb d741 9bbe 754c b53c
000001b0: 24cc b23e f1ee 00bf ea55 a6bc 977f 38be
000001c0: 3fbc cb3d db00 bc3e 0606 9a3e f6e9 abbd
000001d0: a169 973d 2821 33bb 3c89 bdbd f18d 393d
000001e0: 7312 593e 633b c4bd c8ff 71be 9d72 2b3c
000001f0: 3227 13bf f524 8c3e da46 8d3d fd03 6b3e
00000200: 91b6 01bd a02c ecbc 8cd4 22be 19ba 283e
00000210: d64f 10be b654 e7bc d4b3 afbd dca9 193b
00000220: a639 9cbd 82dd 033d 68b7 c13d 579b cd3c
00000230: 4797 e73d dec7 193e 7926 d43c 4be6 c9bd
00000240: f4f4 e23d c041 a7bc edd3 dcbd ca7f 993e
00000250: d658 773e cb50 b83d ef0b 35be 566a 66bd
00000260: 6b0b 2d3e d483 c1bd ae77 703e 9ee2 bfbd
00000270: 4e04 d73d 94d1 ccbd c360 6dbe 4df8 dd3d
00000280: dd1d 87be d587 8fbd 4a4f 733b 2642 a7bc
00000290: 4323 18be c5ff 00bd de58 043d 38a2 d7bd
000002a0: dedc 10be 211e 8c3c 280a d1bc b4db 9cbd
000002b0: 1d6e 26be 3538 babd 9d2a 23bb 01fa c3bc
000002c0: b393 48be afc4 eabb 4a99 92bd 43a9 4bbc
000002d0: 8079 173d b632 2e3d f73c ffbb 2599 cb3d
000002e0: ad54 073e 7759 383e 7240 1a3d a2f8 2cbd
000002f0: fa27 7cbe 2448 1bbe 5a79 8abd 12ab ffbd
00000300: 457d 003e 47d5 043e ffa3 833e 894d 1abe
00000310: a399 4a3e 0078 5a3e bc4f 31be 2f65 813d
00000320: caf6 6b3e ae31 c03c d0a7 17be 4f81 643e
00000330: 17af 3d3c dc24 ca3c deaa 89be a888 003e
00000340: 1d10 733e e757 e63d 051f 0a3c 8209 0c3d
00000350: a372 82bd d678 9cbe b71e 093e 96af a7bd
00000360: f6d2 e9bd 550a 63be 5a74 083e bb49 a13e
00000370: 44db afbc a400 233e ac51 8f3d ed69 41be
00000380: 7b08 083e 4759 7ebd 8f12 663d 7070 89bd
00000390: 3473 72bd 8a53 29bd 14b4 433d 1af2 813d
000003a0: f72a 343e 2fe9 1c3e 753a 9f3d 29e9 07be
000003b0: 5961 b9bd dcb4 5abe b4cc 0e3c ef57 3dbe
000003c0: 0c8c a3bc 0182 d33e 6fe6 913e a58e c9bd
000003d0: 1f50 493e b684 49be 5a35 633e 085c f93d
000003e0: 9435 f23d e6d5 3c3e b673 93be aab6 263e
000003f0: 4920 adbd 8279 313e 799f 993e daf8 0f3e

fc_dec.bias f4 [234]
0.040106766 -0.15738608 0.29216716 0.3829374 0.26012897 0.4153419 0.3613193 0.34700024
0.398528 0.3292566 0.41162765 0.26542285 0.48773688 0.20555964 0.32771894 0.18814492
0.26455662 0.13607463 0.2234534 0.13471894 0.20084889 0.24800327 0.19822659 0.21832366
0.3736451 0.63362104 0.52042633 0.24501732 0.33928633 0.14109214 0.12227916 0.13606147
0.2671719 0.18498722 0.11683383 0.12015425 0.33976638 0.37668374 0.972133 0.36749956
0.14361432 0.18728873 0.051567953 0.13123599 0.20121704 0.08208096 0.18346493 0.11701694
0.14975402 0.22845323 0.3826539 0.39614594 0.36719117 0.15423296 0.120349556 0.21677333
0.097351715 0.15203258 0.1536353 0.17053406 0.21102948 0.20716491 0.19652607 0.3496539
0.22658011 0.6195424 0.4067856 0.14307337 0.24354045 0.107653454 0.11458148 0.19684952
0.17280518 0.1344425 0.17869169 0.24624118 0.41393355 0.65533924 1.003105 0.4566643
0.21929342 0.2174063 0.2097462 0.18676266 0.12168576 0.16979787 0.24229014 0.32784283
0.3306139 0.62973654 0.8735964 1.5326922 0.652676 0.5417977 0.18225288 0.14793244
0.1368501 0.19343457 0.12841053 0.1072273 0.3156902 0.51203436 0.84249383 0.93714064
1.3021342 -0.7208603 0.64106 0.36773992 0.29325885 0.16408661 0.114583805 0.26153716
0.33546513 0.44929552 0.82248056 0.98579913 0.6990767 2.235682 3.1460574 0.33812526
0.36174554 0.22414288 0.32475674 0.22483525 0.086281955 0.17974444 0.40568203 0.68846285
1.2337995 0.33302084 2.2994409 0.54164654 0.03887627 0.22787303 0.083511695 -0.09608441
0.1453268 0.15466145 0.14129911 0.24147233 0.2779174 0.5665002 1.0611047 2.0928895
0.27047822 0.17430088 -0.009917139 -0.11281465 0.06320557 -0.07046817 -0.021037562 -0.099152766
0.044756137 0.31258658 0.5288723 1.0052959 0.32685494 0.17873877 0.1282077 -0.041220803
-0.20549722 -0.043728527 -0.21094172 -0.15973696 -0.09206047 -0.070530966 0.108839 0.3509907
0.71169484 0.28719905 0.16747561 -0.05185466 -0.13459875 -0.1234078 -0.21405879 -0.15572393
-0.07184637 -0.1607742 0.029030098 0.13412042 0.08258741 0.3105824 0.22209893 0.19528809
0.012364986 -0.06993742 -0.06495147 -0.23384418 -0.11386641 -0.13565427 -0.18095759 -0.048083834
0.04794518 0.15001427 0.44999477 2.8255744 0.29545495 0.07416897 -0.0030123277 -0.062434617
-0.024128286 -0.07462864 -0.14977841 -0.028653786 -0.029882684 0.16721231 0.5766613 1.8550119
3.968999 0.65388584 0.26562786 0.15449104 -0.07292989 -0.0035706556 -0.05142017 0.011482677
0.113939345 0.19564083 0.2690564 1.2092152 1.2840478 2.7797651 4.165506 0.5019276
0.17302369 0.2151242 0.24635251 0.14462589 0.18381815 0.16424282 0.14665829 0.933675
3.8802557 0.6758998
00000000: fe46 243d d129 21be ef96 953e 5f10 c43e
00000010: a02f 853e b2a7 d43e d8fe b83e 04aa b13e
00000020: dd0b cc3e 5294 a83e dcc0 d23e 81e5 873e
00000030: a6b8 f93e 3a7e 523e c7ca a73e 10a9 403e
00000040: f773 873e 2657 0b3e f8d0 643e c3f3 093e
00000050: 55ab 4d3e 92f4 7d3e e9fb 4a3e 3d90 5f3e
00000060: 694e bf3e fd34 223f a93a 053f d2e5 7a3e
00000070: f0b6 ad3e 757a 103e 7f6d fa3d b353 0b3e
00000080: c1ca 883e 4a6d 3d3e 9346 ef3d 6e13 f63d
00000090: dcf5 ad3e b1dc c03e b5dd 783f e728 bc3e
000000a0: a20f 133e 9ec8 3f3e eb38 533d ba62 063e
000000b0: d70b 4e3e 101a a83d 3bde 3b3e 94a6 ef3d
000000c0: 1e59 193e a5ef 693e 36eb c33e a4d3 ca3e
000000d0: 7b00 bc3e 3fef 1d3e d479 f63d d4f9 5d3e
000000e0: 5660 c73d 6eae 1b3e 9252 1d3e 7ba0 2e3e
000000f0: 1d18 583e 0a23 543e 213e 493e d605 b33e
00000100: 9e04 683e 559a 1e3f 3446 d03e d381 123e
00000110: ab62 793e 6a79 dc3d b2a9 ea3d ec92 493e
00000120: d7f3 303e 4bab 093e f4fa 363e a626 7c3e
00000130: 19ef d33e 50c4 273f bf65 803f e7cf e93e
00000140: 748e 603e c29f 5e3e b5c7 563e b63e 3f3e
00000150: 6236 f93d 7edf 2d3e e81a 783e 04db a73e
00000160: 3a46 a93e 6a36 213f 03a4 5f3f 422f c43f
00000170: c615 273f 41b3 0a3f 80a0 3a3e 9a7b 173e
00000180: 6f22 0c3e b613 463e 0d7e 033e fd99 db3d
00000190: 25a2 a13e af14 033f adad 573f 73e8 6f3f
000001a0: 55ac a63f 4d8a 38bf 821c 243f 6848 bc3e
000001b0: 0626 963e 5206 283e eaaa ea3d 33e8 853e
000001c0: 16c2 ab3e 100a e63e 168e 523f 555d 7c3f
000001d0: b1f6 323f 6a15 0f40 0159 4940 c11e ad3e
000001e0: b636 b93e b685 653e 8446 a63e 363b 663e
000001f0: 98b4 b03d ed0e 383e 8eb5 cf3e 1a3f 303f
00000200: 24ed 9d3f b581 aa3e 0a2a 1340 59a9 0a3f
00000210: b93c 1f3d 8c57 693e 2e08 ab3d e7c7 c4bd
00000220: 8cd0 143e 925f 1e3e b7b0 103e 8644 773e
00000230: 304b 8e3e 2806 113f 47d2 873f e7f1 0540
00000240: 1f7c 8a3e ee7b 323e 7f7b 22bc 5e0b e7bd
00000250: ec71 813d 9e51 90bd f756 acbc 9b10 cbbd
00000260: 3652 373d 590b a03e 2d64 073f 89ad 803f
00000270: 8859 a73e 4c07 373e e148 033e 25d7 28bd
00000280: dd6d 52be af1c 33bd 1b01 58be 1692 23be
00000290: 338a bcbd 8a72 90bd fbe6 de3d 0eb5 b33e
000002a0: a231 363f c10b 933e ba7e 2b3e 8d65 54bd
000002b0: 41d4 09be 3bbd fcbd 3a32 5bbe 1876 1fbe
000002c0: 3124 93bd fea1 24be 87d0 ed3c dd56 093e
000002d0: 9723 a93d a804 9f3e e76d 633e 9af9 473e
000002e0: 8396 4a3c 5a3b 8fbd 4705 85bd d974 6fbe
000002f0: cb32 e9bd f4e8 0abe f24c 39be 8ef3 44bd
00000300: 2a62 443d 579d 193e b765 e63e 36d6 3440
00000310: df45 973e e7e5 973d 796a 45bb 71bb 7fbd
00000320: afa8 c5bc e7d6 98bd 835f 19be 58bb eabc
00000330: 88cc f4bc b439 2b3e 13a0 133f 0871 ed3f
00000340: 1404 7e40 1065 273f 6000 883e e632 1e3e
00000350: 445c 95bd a901 6abb f59d 52bd d721 3c3c
00000360: 0859 e93d 1256 483e c3c1 893e 90c7 9a3f
00000370: ae5b a43f ace7 3140 d34b 8540 547e 003f
00000380: 1f2d 313e 8549 5c3e d543 7c3e cf18 143e
00000390: d33a 3c3e 452f 283e 972d 163e 5305 6f3f
000003a0: 1c56 7840 c507 2d3f

dec1.kernel0 f4 [4, 2, 3, 1]
0.06258062 -0.10638024 0.12885444 -0.042478062 -0.22655658 -0.24531116 0.3129277 0.116273925
-0.052945442 -0.08554018 -0.094524585 -0.005897095 -0.23481137 -0.139704 -0.22939087 -0.08640647
-0.30123937 -0.082221635 0.12612414 -0.36290562 0.12569302 -0.024263864 -0.18678375 -0.43460527
00000000: 452a 803d e2dd d9bd 6bf2 033e 7afd 2dbd
00000010: 73fe 67be d932 7bbe 0f38 a03e 0621 ee3d
00000020: 52dd 58bd b12f afbd 1b96 c1bd 6b3c c1bb
00000030: 6472 70be 910e 0fbe 71e5 6abe e0f5 b0bd
00000040: 0c3c 9abe d163 a8bd b026 013e c4ce b9be
00000050: acb5 003e 03c5 c6bc 3d44 3fbe 9584 debe

dec1.kernel1 f4 [4, 2, 2, 2]
0.12971812 -0.115067326 0.0414538 0.14172244 0.028595597 -0.09167045 -0.027735066 -0.110881485
-0.063201696 -0.31787494 0.00536295 0.047023058 -0.30611044 0.047525316 -0.1329209 0.11466221
-0.017214715 -0.3863616 0.096469045 -0.116890505 0.01366886 0.17570357 -0.39751866 0.09324317
0.19832319 -0.35467792 0.18427844 0.058350973 0.047921926 0.068290755 -0.12714572 -0.011515057
00000000: d4d4 043e 6ba8 ebbd 76cb 293d b01f 113e
00000010: 5041 ea3c b8bd bbbd a634 e3bc d515 e3bd
00000020: e46f 81bd 81c0 a2be afbb af3b 409b 403d
00000030: 82ba 9cbe e8a9 423d 6b1c 08be 05d4 ea3d
00000040: e005 8dbc 30d1 c5be 9091 c53d 4a64 efbd
00000050: 5bf3 5f3c a3eb 333e 9187 cbbe 46f6 be3d
00000060: 3c15 4b3e 5898 b5be 7db3 3c3e 6e01 6f3d
00000070: c849 443d 06dc 8b3d 7d32 02be a6a9 3cbc

dec1.bias_tensor f4 [4]
-0.4013511 -0.49352515 -0.18366817 -0.720324
00000000: e47d cdbe 54af fcbe 8213 3cbe 2767 38bf

dec2.kernel0 f4 [1, 4, 5, 1]
0.0700354 -0.22394547 0.24645546 0.107826695 -0.18556066 -0.03946178 0.073033825 -0.12525128
0.074915506 -0.04116228 0.0134072 0.050387897 0.15060744 0.059640504 -0.004712866 -0.36360586
0.2691412 0.16562986 0.028667947 -0.19595113
00000000: b86e 8f3d f651 65be d25e 7c3e 3ed4 dc3d
00000010: 9d03 3ebe ada2 21bd c292 953d df41 00be
00000020: 4d6d 993d c799 28bd dfa9 5b3c 8a63 4e3d
00000030: d638 1a3e 9a49 743d 636e 9abb 8c2a babe
00000040: e0cc 893e e09a 293e 0bd9 ea3c 6aa7 48be

dec2.kernel1 f4 [1, 4, 4, 2]
-0.20577525 0.0032357858 -0.119347215 -0.20260786 0.712511 -0.13871789 0.3970381 -0.06749396
-0.03725878 0.02449685 0.051262103 0.039298184 -0.034621324 -0.083319314 0.102489784 -0.21992305
0.036684122 0.083017066 -0.03781272 0.16447277 -0.011229472 0.15133375 0.017596472 0.061599266
-0.20186678 0.012797938 0.12848058 0.10449246 -0.081524655 0.0037760239 -0.14798276 -0.080229715
00000000: bfb6 52be 7a0f 543b 506c f4bd 6f78 4fbe
00000010: 1f67 363f 100c 0ebe 9448 cb3e 463a 8abd
00000020: aa9c 18bd 9ead c83c 36f8 513d 22f7 203d
00000030: 17cf 0dbd 51a3 aabd 2ae6 d13d 8233 61be
00000040: 1742 163d da04 aa3d 83e1 1abd 8d6b 283e
00000050: d2fb 37bc 3cf7 1a3e 7a26 903c 834f 7c3d
00000060: 2ab6 4ebe 71ae 513c 6a90 033e 2500 d63d
00000070: 66f6 a6bd 2b77 773b cb88 17be 7a4f a4bd

dec2.kernel2 f4 [1, 4, 3, 2]
-0.1811145 0.05101343 -0.0073469505 -0.15364203 0.42973822 0.23449397 -0.045072276 0.10417775
-0.05689469 -0.092821956 -0.01975363 -0.19383594 0.008869171 0.118547775 -0.0062300246 0.2285512
-0.015512041 0.08225773 -0.12376182 -0.27641785 -0.024448568 -0.07289204 -0.19145948 -0.18648133
00000000: 1476 39be 75f3 503d b0be f0bb 5654 1dbe
00000010: a606 dc3e 301f 703e b59d 38bd 255b d53d
00000020: 680a 69bd 7019 bebd 5dd2 a1bc ee7c 46be
00000030: 0050 113c 2dc9 f23d 3c25 ccbb 5309 6a3e
00000040: 3726 7ebc be76 a83d d676 fdbd a486 8dbe
00000050: 5d48 c8bc 6c48 95bd f40d 44be f6f4 3ebe

exp_avg f4 [4, 1, 5, 1]
1.4881066e-05 1.990052e-05 2.24519e-05 2.3490335e-05 1.1256706e-05 7.489459e-05 0.00012669929 1.8714807e-05
-0.00025950573 -3.6026595e-05 -4.9058835e-05 -1.9316267e-05 -0.00016194135 -0.00013888755 -0.00029553554 -0.000118969016
-0.00011355625 -0.00010138314 -0.000117673684 -6.363642e-05
00000000: b1a9 7937 0bf0 a637 1757 bc37 1c0d c537
00000010: 2fdb 3c37 ba10 9d38 95da 0439 befd 9c37
00000020: 450e 88b9 431b 17b8 86c4 4db8 5e09 a2b7
00000030: cdce 29b9 58a2 11b9 1cf2 9ab9 017f f9b8
00000040: 0c25 eeb8 a99d d4b8 94c7 f6b8 8b74 85b8

exp_avg_sq f4 [4, 1, 5, 1]
1.7587848e-07 1.6090317e-07 1.249525e-07 6.7286756e-08 4.020178e-08 3.3560805e-06 3.838044e-06 4.176191e-06
3.9719675e-06 3.2983494e-06 2.8285424e-06 2.9692812e-06 2.959789e-06 2.3494358e-06 1.9837826e-06 7.777758e-07
6.8715343e-07 4.806013e-07 3.3163326e-07 2.054479e-07
00000000: 1cd9 3c34 bac4 2c34 af2a 0634 497f 9033
00000010: 53aa 2c33 0639 6136 8cc8 8036 3521 8c36
00000020: f146 8536 3659 5d36 fdd1 3d36 dd43 4736
00000030: caa0 4636 00ab 1d36 2021 0536 59c8 5035
00000040: d374 3835 ab02 0135 540b b234 1799 5c34

exp_avg f4 [4, 1, 4, 2]
7.715234e-06 4.9949485e-05 -6.697629e-06 1.9620762e-05 -9.305595e-06 2.4295505e-05 -4.8831043e-06 9.664071e-07
-0.00011188409 0.00029599087 -0.0002189612 0.00010608469 -5.5223853e-05 -0.0003900606 9.768792e-05 -0.0005080094
-0.0002682183 0.00014631919 -0.0005030923 7.8682446e-05 -0.00044837964 8.986057e-05 -0.000507402 -0.000112400834
-0.00022944862 -3.0746316e-05 -0.00025643245 -4.7645783e-05 -0.00016658474 -2.9231709e-05 -0.00017626597 -3.911366e-05
00000000: ad70 0137 da80 5138 32bc e0b6 4497 a437
00000010: 3a1f 1cb7 33ce cb37 8cd9 a3b6 7fb5 8135
00000020: 50a3 eab8 392f 9b39 f398 65b9 c979 de38
00000030: 29a0 67b8 0c81 ccb9 cddd cc38 ef2b 05ba
00000040: a79f 8cb9 426d 1939 f4e1 03ba 5102 a538
00000050: 7f14 ebb9 8773 bc38 2c03 05ba bdb8 ebb8
00000060: 2598 70b9 9bf5 00b8 c871 86b9 45d7 47b8
00000070: 40ad 2eb9 9e36 f5b7 09d4 38b9 f90d 24b8

exp_avg_sq f4 [4, 1, 4, 2]
1.1805775e-07 2.184506e-07 9.609147e-08 2.0694199e-07 6.6635636e-08 1.2629197e-07 4.0852054e-08 6.89888e-08
3.4047648e-06 2.9869007e-06 4.143059e-06 3.50715e-06 4.4967287e-06 4.03949e-06 3.544929e-06 3.5555133e-06
3.043644e-06 2.906974e-06 3.066534e-06 2.944922e-06 2.7522399e-06 2.5344573e-06 2.0979294e-06 2.164258e-06
8.1128445e-07 5.651841e-07 7.4511564e-07 3.8516916e-07 5.758823e-07 2.3278596e-07 3.7266392e-07 1.667147e-07
00000000: ef86 fd33 3e8f 6a34 d85a ce33 c833 5e34
00000010: 5419 8f33 df9a 0734 4f75 2f33 fe26 9433
00000020: 6a7d 6436 9072 4836 9b04 8b36 615c 6b36
00000030: 9be2 9636 f48a 8736 6be5 6d36 419b 6e36
00000040: 6841 4c36 6f15 4336 a7ca 4d36 60a1 4536
00000050: 1fb3 3836 a515 2a36 27ca 0c36 ab3d 1136
00000060: 0bc7 5935 28b7 1735 f503 4835 3fc9 ce34
00000070: 5596 1a35 b8f3 7934 8a12 c834 3002 3334

exp_avg f4 [4, 1, 3, 2]
-1.6255808e-05 -2.112344e-06 -9.869097e-06 1.36065655e-05 -2.225738e-05 -2.6402029e-06 -1.6015501e-05 0.0001607032
-0.00031553578 -0.00020748918 -8.049693e-05 -0.00049372175 -0.0003454509 0.00014820948 -0.00048753977 -1.5724954e-05
-0.00048373174 -1.6679764e-05 -0.00027229777 -1.05057925e-05 -0.00027670007 -1.2326891e-05 -0.00018876664 -3.6623587e-05
00000000: 155d 88b7 cbc1 0db6 7393 25b7 c147 6437
00000010: 5cb5 bab7 572e 31b6 0759 86b7 7082 2839
00000020: 7f6e a5b9 7491 59b9 76d0 a8b8 1b6d 01ba
00000030: a31d b5b9 ae68 1b39 7b9c ffb9 15e9 83b7
00000040: 609d fdb9 85eb 8bb7 30c3 8eb9 0942 30b7
00000050: 0e12 91b9 98cf 4eb7 a9ef 45b9 479c 19b8

exp_avg_sq f4 [4, 1, 3, 2]
7.715143e-08 2.311178e-07 5.8236385e-08 1.8994281e-07 4.2469868e-08 1.1739877e-07 3.4590898e-06 2.9308587e-06
3.9252777e-06 3.3002266e-06 4.2017996e-06 3.271462e-06 2.8745642e-06 2.864885e-06 2.7933943e-06 2.516841e-06
2.2996144e-06 2.2970826e-06 7.6238933e-07 3.012014e-07 6.8549934e-07 1.8211168e-07 5.3380955e-07 1.1761512e-07
00000000: 72ae a533 2d29 7834 951f 7a33 15f3 4b34
00000010: 1d68 3633 a81c fc33 b622 6836 c5af 4436
00000020: e1b5 8336 7679 5d36 2ffd 8c36 4a8b 5b36
00000030: a3e8 4036 5942 4036 2676 3b36 00e7 2836
00000040: 1353 1a36 9427 1a36 ffa6 4c35 ceb4 a134
00000050: 2803 3835 7a8a 4334 1d4b 0f35 9993 fc33

exp_avg f4 [4]
5.9735827e-05 -0.00016988425 -0.00010865638 -0.00023430295
00000000: db8c 7a38 f522 32b9 73de e3b8 38af 75b9

exp_avg_sq f4 [4]
1.5257885e-07 1.1153363e-06 5.538202e-07 5.191465e-07
00000000: 8ed4 2334 aab2 9535 3caa 1435 7a5b 0b35

exp_avg f4 [2, 4, 3, 1]
-5.779514e-05 0.00039949443 -0.0003788775 -0.00027523687 -0.00040880617 -0.00031197295 -0.00011369797 -0.00016444658
-0.00073491415 -0.00034100105 -0.0003564717 -0.00032079697 0.00030617352 -9.77113e-05 0.00023529716 -0.0005405724
-0.0006791 -0.00040851944 -0.0001702128 -0.0005550334 -0.00049041794 -0.00021045486 -0.00055573136 -0.0004011351
00000000: 0f69 72b8 3c73 d139 14a4 c6b9 ab4d 90b9
00000010: 0955 d6b9 4d90 a3b9 2271 eeb8 4b6f 2cb9
00000020: 41a7 40ba 63c8 b2b9 d2e4 bab9 a430 a8b9
00000030: ea85 a039 5bea ccb8 1aba 7639 33b5 0dba
00000040: a105 32ba 8d2e d6b9 277b 32b9 a97f 11ba
00000050: 648f 00ba 8cad 5cb9 80ae 11ba 714f d2b9

exp_avg_sq f4 [2, 4, 3, 1]
4.60248e-06 5.4376624e-06 4.490477e-06 6.848452e-06 6.4055375e-06 5.631848e-06 1.1881478e-05 1.2529186e-05
1.0728378e-05 1.1606063e-06 2.0901746e-06 1.5089825e-06 4.8424376e-06 6.751011e-06 6.3269404e-06 9.905868e-06
1.0371106e-05 8.282533e-06 1.6514818e-05 1.95423e-05 1.698358e-05 8.6563017e-07 2.4351066e-06 1.7634085e-06
00000000: 016f 9a36 2a75 b636 e7ac 9636 c1cb e536
00000010: 26ef d636 35f9 bc36 8f56 4737 7234 5237
00000020: 08fe 3337 21c6 9b35 ed44 0c36 3e88 ca35
00000030: 397c a236 be86 e236 014c d436 6131 2637
00000040: 90ff 2d37 35f5 0a37 4d89 8a37 c5ee a337
00000050: f677 8e37 a75d 6835 d06a 2336 41ae ec35

exp_avg f4 [2, 4, 2, 2]
0.00015153995 -0.0003312366 1.09972525e-05 0.00024608648 -0.0005850163 -8.9956186e-05 -0.00066210073 -0.0002725584
-0.00026663177 -4.5641635e-05 -0.0008054106 -0.00013308814 -0.00013554892 -8.0913946e-05 -0.00028042367 0.00015029502
-0.0005687225 0.0004023764 -0.00077471754 0.00043324713 -0.00040183737 -0.00015371728 -0.00025428052 -0.00026198398
-0.0006824928 0.00030627032 -0.00080686266 -0.000100723555 5.4599765e-05 -0.0001245151 -8.1199134e-05 8.3393315e-05
00000000: b2e6 1e39 d3a9 adb9 d780 3837 2b05 8139
00000010: c85b 19ba dca6 bcb8 d490 2dba 2be6 8eb9
00000020: b6ca 8bb9 556f 3fb8 3122 53ba 938d 0bb9
00000030: 2322 0eb9 58b0 a9b8 d405 93b9 8398 1d39
00000040: 5216 15ba 0cf6 d239 6a16 4bba 7225 e339
00000050: b3ad d2b9 2b2f 21b9 f450 85b9 e55a 89b9
00000060: 51e9 32ba e892 a039 a383 53ba 8c3b d3b8
00000070: 0d02 6538 4590 02b9 7449 aab8 72e3 ae38

exp_avg_sq f4 [2, 4, 2, 2]
5.4013403e-06 3.54904e-06 5.7042344e-06 4.447064e-06 6.544937e-06 6.426812e-06 5.985324e-06 5.777938e-06
1.2217259e-05 1.15429175e-05 1.1840382e-05 1.0682645e-05 1.4962366e-06 1.4864992e-06 1.7474392e-06 1.801179e-06
5.690163e-06 4.9452547e-06 7.6531605e-06 6.0975194e-06 8.266906e-06 1.0838003e-05 7.640932e-06 1.0206395e-05
1.6027005e-05 1.7621798e-05 1.704322e-05 1.8610628e-05 8.854721e-07 1.992458e-06 1.0978819e-06 2.3626724e-06
00000000: 293d b536 0b2c 6e36 0067 bf36 fd37 9536
00000010: 959c db36 e5a5 d736 8bd5 c836 1ce0 c136
00000020: baf8 4c37 74a8 4137 0ea6 4637 9c39 3337
00000030: 4cd2 c835 b983 c735 8e89 ea35 0ac0 f135
00000040: 21ee be36 6aef a536 1366 0037 4b99 cc36
00000050: 17b2 0a37 ded4 3537 8e31 0037 223c 2b37
00000060: bb71 8637 86d2 9337 09f8 8e37 051e 9c37
00000070: 2eb1 6d35 2bb6 0536 ef5a 9335 678e 1e36

exp_avg f4 [2]
9.63088e-05 0.00012168714
00000000: 65f9 c938 4932 ff38

exp_avg_sq f4 [2]
1.1816173e-06 1.2593777e-06
00000000: 1098 9e35 e307 a935

exp_avg f4 [64, 234]
2.520405e-07 2.2401167e-07 6.41808e-07 -1.2519694e-05 -6.992163e-07 3.5670641e-06 -9.957203e-06 -8.950618e-06
-4.832074e-06 9.941333e-06 1.7031878e-06 2.2401167e-07 2.4397275e-07 2.2515245e-07 7.293862e-07 -2.5322188e-06
1.6420283e-06 5.976793e-06 1.1080183e-05 1.1042221e-07 4.919151e-06 3.8605176e-06 -1.1415474e-05 -2.5719494e-06
-6.625818e-08 2.1955476e-07 2.2515245e-07 1.1588659e-05 -2.2058275e-06 5.5897436e-07 1.278229e-05 -3.4847326e-06
6.4159763e-06 -9.085311e-06 -6.6222515e-06 -1.8609397e-05 -2.2866652e-05 -1.03158e-05 2.1955476e-07 6.485772e-07
2.4425808e-05 3.9540214e-06 -6.677439e-06 9.3062874e-07 -2.210812e-05 -4.094762e-05 -2.1372221e-05 -3.957963e-06
-1.6315757e-05 -2.8522294e-05 -2.781477e-05 1.395831e-07 7.599457e-06 2.0960368e-05 5.3375593e-06 1.33896465e-05
-1.2358772e-05 -1.6282613e-05 -4.5842942e-05 -1.582613e-05 3.3600777e-06 -3.1669445e-06 -2.147878e-05 -1.5703998e-05
-3.592267e-06 3.504638e-06 9.872108e-06 9.192252e-06 7.789588e-06 -9.790767e-06 -1.5047525e-05 -1.5102151e-05
2.9052283e-06 4.7486014e-06 1.7995664e-05 -3.7407274e-06 -7.91496e-06 -3.0353574e-06 1.7663916e-07 1.5109752e-06
5.5242e-06 1.2151018e-05 -5.522447e-07 -2.7259726e-05 -1.6010508e-05 -2.7022809e-06 6.3017974e-06 8.921997e-06
8.13032e-06 9.3017803e-07 2.1172909e-07 2.2515245e-07 2.5054698e-07 3.255675e-06 5.587905e-06 6.856607e-08
-3.1193213e-05 -3.9748797e-05 -6.518589e-06 5.194964e-06 -3.366617e-06 1.3820294e-05 8.3339344e-08 2.1955476e-07
2.2515245e-07 2.280316e-07 1.7347478e-06 -1.0985652e-05 -2.0441481e-05 1.6283252e-06 -2.8398621e-05 -6.0547094e-08
7.5949597e-06 -8.368288e-06 2.2378612e-07 2.280316e-07 2.1955476e-07 1.6937292e-07 1.7255941e-07 -8.069922e-06
-6.341916e-06 4.3715227e-06 -2.8678185e-06 -6.6651287e-06 -2.882635e-06 6.7682226e-06 3.9985607e-06 1.8552845e-07
1.7255941e-07 1.4397975e-07 1.7044002e-07 -1.1823535e-06 -1.31464285e-05 7.3288065e-06 5.4168027e-06 1.0062986e-05
3.825004e-06 -1.5530576e-06 -1.8640094e-06 -1.2438495e-05 -3.0606793e-07 -1.0077098e-07 1.5167008e-07 1.7044002e-07
9.1071215e-06 2.867649e-08 -3.5348726e-06 1.1518089e-05 -8.879049e-06 2.7861424e-06 -1.006967e-05 -2.1690408e-05
-2.2743741e-05 -1.0407856e-05 -1.2878493e-06 1.5167008e-07 7.793771e-06 1.3796752e-05 -8.613792e-06 -7.644513e-06
-6.939034e-06 -5.2577474e-05 -3.169605e-05 -4.4546678e-06 -1.586653e-05 -2.3117389e-05 -2.8317063e-05 -1.2818081e-05
-3.6146062e-07 2.1081729e-05 1.550873e-05 9.097495e-06 1.1174151e-06 -1.47485325e-05 -2.281117e-05 -4.101359e-05
-1.4167653e-05 -1.7405751e-05 -1.4652273e-05 -2.7410846e-05 -1.6100452e-05 -6.1207754e-07 1.231838e-05 7.5928588e-06
1.5483967e-05 8.781679e-06 -1.1639724e-05 -1.8471672e-05 -1.2949567e-05 2.4653127e-06 2.9343407e-06 2.7795302e-06
-4.319711e-06 -2.3955536e-06 2.9471914e-07 4.7814996e-07 3.5816543e-06 9.056178e-06 1.1778022e-05 -6.6489274e-06
-3.5765985e-05 -4.146926e-06 2.6799016e-06 7.728662e-06 1.3877716e-05 -1.9218494e-06 -2.7527764e-07 1.4239799e-08
1.7044002e-07 -6.5701675e-09 1.0820529e-05 -1.0076678e-06 -2.3352562e-05 -3.2396696e-05 -2.18594e-05 2.7134477e-06
-7.2513274e-07 -1.1134185e-06 3.668689e-06 8.0745e-07 1.5167008e-07 1.7044002e-07 1.7432347e-07 -2.8939457e-06
-1.5333258e-05 -1.1617349e-05 -1.6288164e-05 -1.44020805e-05 1.988773e-06 -2.551042e-09 -1.6092902e-06 -3.8756845e-08
1.7432347e-07 1.5167008e-07 4.6352508e-07 4.029482e-07 5.6807814e-08 -4.588383e-06 -3.512729e-06 -1.1313801e-05
8.917946e-06 1.0711014e-05 5.2454516e-06 7.2700195e-06 1.9326587e-06 4.029482e-07 4.4117817e-07 4.135797e-07
6.152369e-07 2.0347104e-06 -1.5326987e-06 -1.9728586e-05 -2.069638e-05 5.3250733e-06 7.2020143e-06 9.984098e-06
00000000: 2f50 8734 dc87 7034 b648 2c35 ad0b 52b7
00000010: c7b1 3bb5 b261 6f36 dc0d 27b7 9d2a 16b7
00000020: 3323 a2b6 b3c9 2637 1699 e435 dc87 7034
00000030: 5cfb 8234 6fc1 7134 0acb 4335 30ef 29b6
00000040: aa63 dc35 438c c836 06e5 3937 4021 ed33
00000050: 2f0f a536 9889 8136 1685 3fb7 c199 2cb6
00000060: d249 8eb3 c1be 6b34 6fc1 7134 e96c 4237
00000070: d407 14b6 6d0c 1635 8473 5637 40db 69b6
00000080: d148 d736 1d6d 18b7 b534 deb6 601b 9cb7
00000090: c3d1 bfb7 0612 2db7 c1be 6b34 e319 2e35
000000a0: 06e6 cc37 c9ac 8436 c40e e0b6 52d0 7935
000000b0: d474 b9b7 2cbf 2bb8 7f48 b3b7 a5ce 84b6
000000c0: d2dd 88b7 2943 efb7 c453 e9b7 4fe0 1534
000000d0: d7fe fe36 0cd4 af37 4919 b336 18a4 6037
000000e0: 8658 4fb7 a596 88b7 7c47 40b8 5bc2 84b7
000000f0: b27d 6136 b187 54b6 542d b4b7 14bc 83b7
00000100: ad12 71b6 3931 6b36 62a0 2537 6c38 1a37
00000110: 07b0 0237 0643 24b7 a174 7cb7 3f5f 7db7
00000120: 71f7 4236 2d56 9f36 65f5 9637 3509 7bb6
00000130: 7fca 04b7 0bb3 4bb6 34aa 3d34 b6cc ca35
00000140: 845c b936 3adc 4b37 f83d 14b5 d1ab e4b7
00000150: 4e4e 86b7 d558 35b6 0774 d336 afaf 1537
00000160: 7567 0837 59b1 7935 a657 6334 6fc1 7134
00000170: ea82 8634 127c 5a36 bd7f bb36 983e 9333
00000180: 75d5 02b8 f2b7 26b8 41ba dab6 6750 ae36
00000190: 0aee 61b6 b6dd 6737 4af8 b233 c1be 6b34
000001a0: 6fc1 7134 d9d8 7434 7bd5 e835 044f 38b7
000001b0: bf79 abb7 d48c da35 9339 eeb7 1e06 82b3
000001c0: 35d8 fe36 8665 0cb7 dc49 7034 d9d8 7434
000001d0: c1be 6b34 e0dc 3534 c548 3934 0d64 07b7
000001e0: a5cc d4b6 18af 9236 bf74 40b6 05a5 dfb6
000001f0: 4b73 41b6 971a e336 602b 8636 ac35 4734
00000200: c548 3934 da98 1a34 3202 3734 5bb1 9eb5
00000210: 7b8f 5cb7 f8e9 f536 fbc1 b536 32d4 2837
00000220: 8958 8036 a772 d0b5 e02e fab5 eeae 50b7
00000230: a851 a4b4 6f67 d8b3 c1da 2234 3202 3734
00000240: caca 1837 4554 f632 a638 6db6 d13d 4137
00000250: 3af7 14b7 90f9 3a36 e7f0 28b7 ccf3 b5b7
00000260: d0c9 beb7 679d 2eb7 2ada acb5 c1da 2234
00000270: fec1 0237 9978 6737 f483 10b7 ef40 00b7
00000280: d9d5 e8b6 a286 5cb8 60f1 04b8 4e79 95b6
00000290: 1d19 85b7 37ec c1b7 6e8a edb7 3d0d 57b7
000002a0: c50e c2b4 abd8 b037 be18 8237 72a1 1837
000002b0: 17fa 9535 7770 77b7 9d5a bfb7 0206 2cb8
000002c0: 9bb1 6db7 9102 92b7 09d3 75b7 58f0 e5b7
000002d0: 750f 87b7 a64d 24b5 0aab 4e37 29c6 fe36
000002e0: 91e3 8137 0655 1337 3c48 43b7 9df3 9ab7
000002f0: f741 59b7 c071 2536 97eb 4436 f787 3a36
00000300: 09f2 90b6 4cc3 20b6 e439 9e34 375a 0035
00000310: 5a5c 7036 fdef 1737 389a 4537 da19 dfb6
00000320: 6f03 16b8 d325 8bb6 5cd8 3336 5aaa 0137
00000330: 56d4 6837 1ff9 00b6 dfc9 93b4 4ca3 7432
00000340: 3202 3734 cebf e1b1 d189 3537 343f 87b5
00000350: 3fe5 c3b7 b0e1 07b8 b45e b7b7 ad18 3636
00000360: bea6 42b5 c570 95b5 9933 7636 8bbf 5835
00000370: c1da 2234 3202 3734 ac2d 3b34 9c35 42b6
00000380: ec9f 80b7 22e8 42b7 91a2 88b7 77a0 71b7
00000390: dc76 0536 684e 2fb1 cafe d7b5 9a75 26b3
000003a0: ac2d 3b34 c1da 2234 67da f834 c754 d834
000003b0: dafc 7333 e9f5 99b6 3abc 6bb6 68d0 3db7
000003c0: 499e 1537 74b3 3337 1602 b036 fef0 f336
000003d0: d3b2 0136 c754 d834 11db ec34 f609 de34
000003e0: c226 2535 0f8c 0836 20b7 cdb5 d17e a5b7
000003f0: 239d adb7 08ae b236 d5a8 f136 6081 2737

exp_avg_sq f4 [64, 234]
9.554963e-12 8.074298e-12 1.7773394e-11 4.2540322e-09 7.719472e-09 6.3142944e-09 9.381198e-09 6.5523733e-09
1.0907422e-08 6.2316525e-09 7.986559e-11 8.074298e-12 9.65664e-12 7.38334e-12 1.4620133e-11 9.419134e-10
5.9023164e-09 5.956353e-09 7.988895e-09 7.474058e-09 8.931e-09 7.513659e-09 6.674405e-09 1.4967748e-09
1.249513e-11 8.177698e-12 7.38334e-12 8.467548e-10 4.49783e-09 6.4674874e-09 7.265432e-09 1.01086455e-08
9.843254e-09 1.1387068e-08 9.235216e-09 7.494969e-09 5.8246816e-09 1.6145774e-09 8.177698e-12 1.1525234e-11
3.8425405e-09 5.481573e-09 8.074763e-09 8.975384e-09 1.0465372e-08 1.1054103e-08 1.1366823e-08 1.0000774e-08
8.621948e-09 6.6066175e-09 5.739371e-09 1.1987339e-11 4.825377e-10 5.1682183e-09 5.8119856e-09 8.994981e-09
9.669583e-09 9.661739e-09 1.0689724e-08 1.0404196e-08 1.0725502e-08 9.6090815e-09 7.224851e-09 5.1404063e-09
7.2799944e-10 1.4977276e-10 3.3338161e-09 6.6112174e-09 8.908045e-09 9.489028e-09 8.750823e-09 9.409611e-09
9.2446815e-09 9.824108e-09 8.707519e-09 7.1732447e-09 3.9864534e-09 2.440248e-10 7.1467957e-12 1.9848688e-10
6.4091226e-09 6.5447985e-09 7.661538e-09 8.190641e-09 8.6003205e-09 7.427593e-09 8.457515e-09 7.768385e-09
6.9691892e-09 4.2473083e-10 7.366455e-12 7.38334e-12 7.737459e-12 3.506486e-09 5.5098583e-09 6.5670838e-09
6.9768658e-09 7.0773347e-09 6.054902e-09 7.845995e-09 6.484655e-09 5.4088463e-09 7.242205e-12 8.177698e-12
7.38334e-12 9.029995e-12 2.138872e-10 2.1076296e-09 5.2963127e-09 6.111861e-09 5.8470992e-09 5.6221614e-09
6.0935186e-09 5.526409e-09 3.527646e-10 9.029995e-12 8.177698e-12 6.8730898e-12 7.0624474e-12 5.202906e-10
5.7861103e-09 3.5269285e-09 7.881824e-09 3.942235e-09 8.874355e-09 4.0920614e-09 2.1693736e-09 6.592184e-12
7.0624474e-12 4.171215e-12 7.1124534e-12 5.120997e-10 4.71539e-09 8.151344e-09 9.2203365e-09 1.19126815e-08
1.0608978e-08 1.2154429e-08 9.672836e-09 7.471188e-09 4.3875507e-11 1.2791669e-11 4.7069124e-12 7.1124534e-12
4.305906e-09 6.271498e-09 1.0063083e-08 1.1115568e-08 1.4875248e-08 1.4055033e-08 1.4769741e-08 1.1478858e-08
9.663377e-09 2.3596234e-09 4.850949e-11 4.7069124e-12 4.431528e-10 5.400148e-09 8.037743e-09 1.2393611e-08
1.416505e-08 1.5970782e-08 1.6486958e-08 1.6809878e-08 1.3201811e-08 1.218419e-08 8.745315e-09 2.168932e-09
1.007e-11 3.0210727e-09 6.5986194e-09 9.95767e-09 1.2985936e-08 1.4217037e-08 1.5023593e-08 1.6364233e-08
1.6652864e-08 1.6022764e-08 1.3089312e-08 9.226367e-09 4.262694e-09 1.029705e-11 2.181921e-09 5.8881233e-09
1.1240982e-08 1.2749685e-08 1.34925395e-08 1.2891093e-08 1.4482713e-08 1.4053996e-08 1.5192292e-08 1.2326688e-08
8.656466e-09 4.5839318e-10 7.1218717e-12 1.9342163e-11 2.4752143e-09 8.870379e-09 8.915823e-09 1.1552386e-08
1.0856151e-08 1.1971381e-08 1.1494154e-08 1.3228629e-08 1.0730563e-08 6.964979e-09 1.0393786e-11 1.2361364e-11
7.1124534e-12 1.9920426e-11 5.5068314e-09 6.65816e-09 9.3947286e-09 8.669424e-09 9.498703e-09 9.157027e-09
1.0354604e-08 6.128877e-09 6.1496064e-10 1.7386505e-11 4.7069124e-12 7.1124534e-12 7.286862e-12 2.0773097e-09
4.568675e-09 7.4363635e-09 5.9048926e-09 7.508476e-09 5.652335e-09 7.522418e-09 3.279424e-10 1.0394237e-11
7.286862e-12 4.7069124e-12 1.44670925e-11 1.1896547e-11 3.2892557e-11 7.0048887e-09 1.1431297e-08 8.8935534e-09
1.4527322e-08 9.934494e-09 1.3297112e-08 7.405363e-09 7.759076e-11 1.1896547e-11 1.4250012e-11 1.1210249e-11
2.6838025e-11 1.900396e-09 1.20257395e-08 1.0198206e-08 1.2904266e-08 1.16009e-08 1.3108294e-08 8.657605e-09
00000000: ba17 282d 680b 0e2d 2056 9c2d dd2a 9231
00000010: 999e 0432 1ff5 d831 f22a 2132 4923 e131
00000020: 5963 3b32 321e d631 55a0 af2e 680b 0e2d
00000030: a4e1 292d 9be3 012d 9d99 802d a274 8130
00000040: 53cd ca31 a3a8 cc31 883f 0932 4167 0032
00000050: f46e 1932 6c15 0132 b054 e531 15b7 cd30
00000060: 10d1 5b2d 14dd 0f2d 9be3 012d 12c1 6830
00000070: 558b 9a31 9f38 de31 6aa3 f931 4baa 2d32
00000080: 171b 2932 dba0 4332 e9a8 1e32 39c3 0032
00000090: 7122 c831 e4e7 dd30 14dd 0f2d 0ac1 4a2d
000000a0: 5807 8431 6d58 bc31 2fb9 0a32 2832 1a32
000000b0: 31cb 3332 76e8 3d32 d147 4332 dfcf 2b32
000000c0: ba1f 1432 6c00 e331 0b34 c531 2de2 522d
000000d0: 92a3 0430 2194 b131 c4b2 c731 5888 1a32
000000e0: 471f 2632 c7fc 2532 e7a5 3732 23be 3232
000000f0: 4243 3832 3015 2532 763e f831 7e9f b031
00000100: 681c 4830 49ad 242f 1d19 6531 e228 e331
00000110: ff09 1932 3005 2332 8756 1632 e8a7 2132
00000120: 8ad2 1e32 e2c6 2832 1398 1532 8778 f631
00000130: 37f9 8831 7027 862f 9d74 fb2c 173d 5a2f
00000140: 3d37 dc31 a8e0 e031 cd9f 0332 d2b6 0c32
00000150: 9cc0 1332 cd35 ff31 8b4c 1132 b875 0532
00000160: a375 ef31 8d7f e92f 9097 012d 9be3 012d
00000170: 6b1e 082d c1f6 7031 3a51 bd31 aea4 e131
00000180: 29b9 ef31 e52c f331 7b0b d031 0dcb 0632
00000190: a1cf de31 b7d8 b931 fccf fe2c 14dd 0f2d
000001a0: 9be3 012d 7bdb 1e2d e52b 6b2f d0d5 1031
000001b0: dcfa b531 7f00 d231 a1e7 c831 0e2d c131
000001c0: 285f d131 cfe2 bd31 34ef c12f 7bdb 1e2d
000001d0: 14dd 0f2d 4ad3 f12c df7c f82c 3204 0f30
000001e0: 2acf c631 625e 7231 a168 0732 4474 8731
000001f0: d375 1832 279a 8c31 0614 1531 1df1 e72c
00000200: df7c f82c f7c2 922c 493f fa2c d0c3 0c30
00000210: 0205 a231 fd09 0c32 7867 1e32 87a8 4c32
00000220: c742 3632 becf 5032 952d 2632 a25a 0032
00000230: 6ef7 402e 8e08 612d 199c a52c 493f fa2c
00000240: 26f3 9331 ae7c d731 e8e1 2c32 c9f6 3e32
00000250: 088e 7f32 b076 7132 02be 7d32 8d34 4532
00000260: fb03 2632 ef26 2231 d558 552e 199c a52c
00000270: 36a0 f32f 348c b931 5e16 0a32 adeb 5432
00000280: 8c5a 7332 1f30 8932 349f 8d32 5065 9032
00000290: 2ece 6232 a252 5132 4d3e 1632 410c 1531
000002a0: 4027 312d 469b 4f31 12ba e231 4c12 2b32
000002b0: c018 5f32 313f 7432 3b0d 8132 5491 8c32
000002c0: 090c 8f32 6ea2 8932 67df 6032 fe81 1e32
000002d0: 0e77 9231 ca25 352d c3f0 1531 7b50 ca31
000002e0: 5d1e 4132 b509 5b32 d1cc 6732 a077 5d32
000002f0: a5cf 7832 2172 7132 3480 8232 59c5 5332
00000300: 8ab7 1432 1b01 fc2f 1e94 fa2c ae22 aa2d
00000310: 6e18 2a31 5764 1832 342c 1932 ee77 4632
00000320: db81 3a32 b1aa 4d32 d377 4532 2044 6332
00000330: 8459 3832 9a50 ef31 73d9 362d a276 592d
00000340: 493f fa2c d038 af2d 9a36 bd31 cbc5 e431
00000350: 7466 2132 88f0 1432 bd2f 2332 0851 1d32
00000360: 08e4 3132 2c96 d231 020a 2930 eeee 982d
00000370: 199c a52c 493f fa2c 1c31 002d 6bc0 0e31
00000380: 7efa 9c31 f282 ff31 fce3 ca31 a0fe 0032
00000390: 7736 c231 f23b 0132 ca49 b42f 7bdb 362d
000003a0: 1c31 002d 199c a52c fe81 7e2d 4949 512d
000003b0: baa9 102e a7af f031 6063 4432 43ca 1832
000003c0: d693 7932 5eac 2a32 5171 6432 4372 fe31
000003d0: b79f aa2e 4949 512d 59b0 7a2d 7936 452d
000003e0: dc11 ec2d 1f98 0231 c399 4e32 2f34 2f32
000003f0: 90b1 5d32 4c4d 4732 e332 6132 8dbc 1432

exp_avg f4 [64]
8.141818e-06 1.4991304e-05 3.6502635e-05 2.6209349e-05 -1.3776529e-06 1.6455295e-05 -7.532148e-05 -2.33183e-05
4.1755047e-05 6.5239925e-05 4.5421217e-05 2.8730596e-05 -8.2567356e-05 8.431883e-05 6.931665e-05 2.5393814e-05
1.1961189e-05 7.234513e-05 1.9949139e-05 3.4965713e-05 1.4870603e-05 -4.7420566e-05 4.7007914e-05 -2.0582078e-05
-0.000107044776 7.228549e-05 4.6176658e-05 4.21915e-05 -4.8994047e-05 4.9305065e-05 -1.8948063e-05 -3.437902e-05
-7.045267e-05 1.4066375e-05 3.2108503e-05 -2.9873765e-05 3.579481e-05 -0.000104214916 -1.3296853e-05 -1.5922633e-05
6.984337e-05 3.1672178e-05 2.2595763e-05 -3.9709037e-05 -3.6034486e-05 -3.7638813e-05 4.759347e-05 -7.2767734e-06
-5.149842e-05 2.5045845e-05 1.605751e-05 2.4205894e-05 8.446449e-05 6.0171413e-05 -7.5564944e-06 -3.858016e-07
-1.0978774e-05 0.000102259844 -2.0916874e-05 -7.945649e-05 -5.6705387e-05 -4.5519006e-05 7.2968273e-06 -6.2565916e-05
00000000: d898 0837 2983 7b37 681a 1938 26dc db37
00000010: cbe7 b8b5 7a09 8a37 e9f5 9db8 ab9b c3b7
00000020: 2422 2f38 6bd1 8838 a982 3e38 7c02 f137
00000030: 0328 adb8 54d4 b038 185e 9138 cd04 d537
00000040: eaac 4837 ffb7 9738 7358 a737 26a8 1238
00000050: c17c 7937 72e5 46b8 5d2a 4538 ada7 acb7
00000060: 3a7d e0b8 fa97 9738 cfad 4138 c7f6 3038
00000070: f57e 4db8 e9cc 4e38 a8f2 9eb7 3132 10b8
00000080: fdbf 93b8 9ffe 6b37 3eac 0638 6c99 fab7
00000090: 6222 1638 f58d dab8 8c15 5fb7 9891 85b7
000000a0: e078 9238 bed7 0438 088c bd37 418d 26b8
000000b0: bc23 17b8 5ede 1db8 199f 4738 022b f4b6
000000c0: 0200 58b8 8b19 d237 3db3 8637 c30d cb37
000000d0: 8722 b138 9060 7c38 cb8d fdb6 2b20 cfb4
000000e0: 7a31 38b7 5674 d638 a576 afb7 e1a1 a6b8
000000f0: f2d6 6db8 a9eb 3eb8 45d7 f436 d235 83b8
