server_report/ae_hexa/ae_hexa_log/autoencoder_20251231_142430.pth (torch, 757166 bytes, 51 tensors)

enc1.kernel0 f4 [8, 1, 5, 1]
0	0xbe5605dc	-0.20900673
1	0xbeb06104	-0.34449017
2	0xbf27745f	-0.65411943
3	0xbf09e082	-0.53858197
4	0x3f050e23	0.51974696
5	0x3e059404	0.13044745
6	0xbe1303c4	-0.14356905
7	0xbeb58c1a	-0.35458452
8	0xbf05819f	-0.5215091
9	0xbebdbfee	-0.37060493
10	0x3e1bae32	0.15203169
11	0xbed473d3	-0.41494617
12	0xbf3d225d	-0.7388056
13	0x3f2c8935	0.6739686
14	0x3e75a51e	0.23988768
15	0xbe09c309	-0.13453306
16	0x3bc23fa4	0.0059279967
17	0x3ea219fe	0.31660455
18	0x3e96cf36	0.29454964
19	0x3b9abd89	0.0047223014
20	0xbe71c69b	-0.23610918
21	0x3fa1f13f	1.2651747
22	0x3f7ebe92	0.9950954
23	0x3e47dad0	0.19517064
24	0xbe09a7c2	-0.13442901
25	0x3f85c871	1.0451795
26	0x3e40b58a	0.18819252
27	0x3e59e258	0.2127775
28	0xbe875b5c	-0.2643689
29	0x3f04dae8	0.51896524
30	0x3dcf351e	0.10117553
31	0x3e4346ea	0.1907002
32	0xbe57c073	-0.21069507
33	0xbeaffe7f	-0.34373853
34	0xbe50ebad	-0.20402403
35	0x3e601a7a	0.218851
36	0xbda4bc0d	-0.0804368
37	0xbede0d64	-0.4336959
38	0x3e861358	0.26186633
39	0x3e9bea58	0.30452228

enc1.kernel1 f4 [8, 1, 4, 2]
0	0xbe20d413	-0.157059
1	0xbe996f73	-0.29967842
2	0xbcb26719	-0.021777676
3	0xbeb5efea	-0.35534602
4	0xbef847a3	-0.48492154
5	0xbe4c7fc5	-0.19970615
6	0xbd83fe35	-0.064449705
7	0x3e42bea5	0.19018038
8	0x3eed27b4	0.46319354
9	0xbec364f3	-0.38162956
10	0x3f3cb146	0.73708
11	0xbe92f3f2	-0.2870174
12	0xbd8f9df3	-0.07012548
13	0xbeb3ee41	-0.3514271
14	0xbf15c576	-0.58504426
15	0xbe70fdfe	-0.2353439
16	0xbf02c836	-0.5108675
17	0xbe8ef726	-0.27922934
18	0xbf55a52f	-0.83455175
19	0xbd39fbfa	-0.04540632
20	0xbe8452af	-0.25844333
21	0xbc5f460d	-0.013627541
22	0x3f914ce4	1.135159
23	0x3f0ce641	0.5503884
24	0xbc7f7183	-0.015591028
25	0x3cbeaff7	0.023277266
26	0x3e289553	0.16463213
27	0x3e560df4	0.2090376
28	0x3e871ed9	0.26390722
29	0x3eb66aa6	0.3562824
30	0x3d487f9d	0.048949827
31	0x3e9c9eb2	0.30589825
32	0x3e437e9b	0.19091265
33	0xbce4f916	-0.027950805
34	0x3f09deb5	0.5385545
35	0x3d115196	0.035478197
36	0xbb24d6a0	-0.002515234
37	0xbe8af9f8	-0.27143836
38	0xbc87ca53	-0.016575968
39	0xbea0d47d	-0.31412116
40	0x3f131e20	0.5746784
41	0x3ec07e54	0.3759638
42	0xbef57d82	-0.47947317
43	0x3d887e28	0.066646874
44	0xbecb39ea	-0.39692622
45	0x3eb01eb5	0.34398428
46	0xbd75935d	-0.05995499
47	0x3e8d0cf8	0.27548957
48	0x3dec0548	0.11524445
49	0x3e06ac95	0.13151772
50	0x3d1bf985	0.038079757
51	0x3e3000d5	0.17187817
52	0xbe85b43b	-0.26114067
53	0xbd9e5042	-0.07730152
54	0xbe0bcb63	-0.13651805
55	0xbe726920	-0.23672915
56	0xbf248173	-0.64260024
57	0x3f01d875	0.5072091
58	0xbf23a44b	-0.63922566
59	0x3f1d633e	0.61479557
60	0xbeb898d6	-0.36054105
61	0x3f01fd20	0.50776863
62	0xbd1735fc	-0.036916718
63	0x3ed055ca	0.40690452

enc1.kernel2 f4 [8, 1, 3, 2]
0	0xbe6c39c0	-0.23068905
1	0x3e8346fe	0.256401
2	0xbe72ef6d	-0.23724146
3	0x3e77f76a	0.24215475
4	0xbc5fc3d4	-0.013657529
5	0x3ec097ad	0.3761572
6	0x3e792c02	0.24333194
7	0xbedc1b44	-0.42989552
8	0x3ee3b53e	0.44474214
9	0xbe0e463d	-0.13893981
10	0xbe05ac54	-0.13054019
11	0xbea3560e	-0.31901592
12	0x3e8f495f	0.27985665
13	0x3c991073	0.018684601
14	0x3e1e744e	0.15474054
15	0xbd234498	-0.039860338
16	0x3ec02fbd	0.3753642
17	0x3d140be5	0.036144156
18	0xbd1f043c	-0.038822398
19	0x3da9fac1	0.08299781
20	0xbc54efee	-0.012996657
21	0x3de0a664	0.109692365
22	0x3d8bd53e	0.06827782
23	0x3e5006d4	0.20315105
24	0xbcd880f7	-0.026428683
25	0xbe976184	-0.29566586
26	0xbd801146	-0.06253295
27	0xbeb57cf9	-0.3544691
28	0xbe90c8b5	-0.28278127
29	0xbed37781	-0.41302112
30	0xbeb0fa4a	-0.34565955
31	0xbef3112c	-0.4747404
32	0x3c6f7c3e	0.014617024
33	0xbf48d714	-0.78453183
34	0xbf0fa876	-0.56116426
35	0x3f9c82f8	1.2227468
36	0x3e7ee73a	0.24892893
37	0x3e27aa90	0.16373658
38	0xbe25c79b	-0.16189425
39	0x3ebc92bc	0.368307
40	0xbd7746ac	-0.060370132
41	0x3c872810	0.016498595
42	0xbe386074	-0.18005544
43	0xbe18be91	-0.14916445
44	0xbe655e9d	-0.22399373
45	0x3f0ebfec	0.557616
46	0xbe9383f5	-0.28811613
47	0xbeeb1c29	-0.45919922

enc1.bias_tensor f4 [8]
0	0x3ec83c68	0.39108586
1	0xbb876692	-0.0041321004
2	0xba1d52d0	-0.0006001415
3	0x3a9d6cdd	0.0012010593
4	0xba1f73b1	-0.0006082608
5	0xba84333b	-0.0010086069
6	0x3b02cec5	0.001995967
7	0xbb617e7c	-0.0034407666

enc2.kernel0 f4 [4, 8, 3, 1]
0	0x3d3abbd4	0.045589283
1	0x3cbfa061	0.023391904
2	0xbdb6e85d	-0.089310385
3	0x3e06c340	0.1316042
4	0x3c6264f5	0.013818015
5	0xbddbd75c	-0.10734436
6	0x3d951040	0.0727849
7	0xbd035a8f	-0.032068785
8	0xbd776c07	-0.060405757
9	0x3ea1dc6a	0.31613475
10	0xbe570472	-0.2099779
11	0xbeae69d9	-0.3406513
12	0x3d29b4a2	0.04143203
13	0x3c05e5ff	0.008172511
14	0xbd698790	-0.057014048
15	0x3ca8a65b	0.020587137
16	0x3d58e2f2	0.052950807
17	0xbc5a4c40	-0.0133238435
18	0x3de48e79	0.11159987
19	0x3e147347	0.144971
20	0xbda418e2	-0.080125585
21	0x3ce41e07	0.02784635
22	0x3d84e4fe	0.06488989
23	0xbcf8ae98	-0.03035669
24	0x3c3b62ae	0.011437101
25	0x3e26e084	0.16296583
26	0xbcc61234	-0.024178602
27	0x3c82d633	0.015971279
28	0x3e102aac	0.14078778
29	0x3ddcddbc	0.1078448
30	0xbc8992bb	-0.0167936
31	0x3d367efd	0.0445547
32	0x3cd12749	0.025531428
33	0x3cec954a	0.02887978
34	0x3f13e994	0.57778287
35	0xbcff84b5	-0.03119121
36	0x3d474559	0.04865012
37	0x3dc87fd8	0.09790009
38	0x3d8834e5	0.06650714
39	0x3d532050	0.051544487
40	0x3dc04ce5	0.093896665
41	0xbaaba3ad	-0.0013095044
42	0xbc0709f8	-0.008242123
43	0x3e5b72e5	0.21430548
44	0x3cbfacca	0.023397822
45	0x3e10588c	0.14096278
46	0x3e274f78	0.16338909
47	0x3e0a7e0d	0.13524647
48	0x3d18b210	0.03727919
49	0xbe0d7d83	-0.1381741
50	0xbe66ffeb	-0.22558562
51	0x3d9e8d4a	0.077417925
52	0x3e145182	0.14484218
53	0xbb80ce61	-0.0039308523
54	0x3c9a8239	0.018860923
55	0x3d727dc2	0.059201963
56	0xbd11ca3a	-0.03559325
57	0xbd0acc29	-0.03388611
58	0x3e47e689	0.19521536
59	0xbddf38f5	-0.108995356
60	0xbcb67bc8	-0.02227582
61	0x3d92465a	0.07142325
62	0x3c6c81ea	0.014435271
63	0xbc6f397c	-0.014601108
64	0x3d264843	0.040596258
65	0x3d4a503a	0.049392916
66	0xbe317eda	-0.17333546
67	0x3e5488cb	0.20755307
68	0x3dbc7ee7	0.09203892
69	0xbc1b58e8	-0.009481646
70	0x3b3e020b	0.0028992917
71	0x3cc5d223	0.024148053
72	0xbd1323f7	-0.03592297
73	0x3bcbd745	0.0062207305
74	0xbdafda8a	-0.08586605
75	0xbd6d0896	-0.057869516
76	0xbd8b5745	-0.06803755
77	0x3b3941e0	0.0028268024
78	0xbc2625af	-0.01014082
79	0x3d06e40e	0.032932334
80	0x3e0d5cbb	0.13804905
81	0xbec70372	-0.38869816
82	0xbd5db910	-0.054131567
83	0x3e720a02	0.2363663
84	0xbd2ee42f	-0.04269808
85	0xbca17c71	-0.019712659
86	0x3d60843b	0.054813605
87	0xbd3480ab	-0.04406802
88	0x3c97a615	0.018511811
89	0x3c9c73ed	0.019098246
90	0xbd3448da	-0.04401479
91	0x3e74cd74	0.23906499
92	0x3d9a98f2	0.07548703
93	0xbc771197	-0.015079877
94	0xbd1bf1f4	-0.03807254
95	0x3d1f9178	0.03895709

enc2.kernel1 f4 [4, 8, 2, 2]
0	0xbcc04242	-0.023469094
1	0xbdc7c83a	-0.09754987
2	0xbc8107db	-0.015750816
3	0x3e6142cc	0.21998137
4	0x3e6cd8a4	0.23129517
5	0x3d750126	0.05981555
6	0x3da26823	0.07930019
7	0xbd540fda	-0.05177293
8	0x3cac9911	0.021069082
9	0x3d5df42f	0.05418795
10	0xbcf839d0	-0.030301005
11	0xbda44258	-0.080204666
12	0x3cef15ef	0.029185263
13	0xbdb3c568	-0.08777887
14	0xbe3479cc	-0.17624587
15	0x3e26174b	0.16219823
16	0x3d552418	0.052036375
17	0x3da66dba	0.081263974
18	0xbdbeacb4	-0.09310284
19	0x3da33540	0.07969141
20	0x3ad042cd	0.0015889049
21	0xbc3a88b0	-0.011385128
22	0xbcc953f4	-0.024576165
23	0x3d7f19b3	0.062280368
24	0x3df97362	0.12180211
25	0x3e0450d5	0.1292146
26	0x3d4fa4c9	0.05069426
27	0x3ea7a322	0.32741648
28	0x3c34793b	0.011015232
29	0xbccb4a47	-0.024815692
30	0xbd98be0d	-0.07458124
31	0x3e1c4f2f	0.15264581
32	0xbd5a6782	-0.05332137
33	0xbc308706	-0.01077438
34	0x3e2db7c8	0.16964638
35	0xbeb664e9	-0.35623863
36	0xbd91cf42	-0.071196094
37	0x3e5e0f3b	0.21685497
38	0x3d25e3c2	0.04050041
39	0x3dbfc489	0.09363658
40	0xbcc9f2b8	-0.02465187
41	0x3d9560ec	0.07293877
42	0x3dc5dfd4	0.096618325
43	0x3cb95fe1	0.022628726
44	0xbe914b71	-0.2837787
45	0xbdbde867	-0.09272843
46	0x3dfb4530	0.12269056
47	0xbeac31c1	-0.3363171
48	0xbdc651ed	-0.09683595
49	0x3db01a3e	0.08598755
50	0xbcc55609	-0.024088876
51	0x3d07e7bf	0.033179995
52	0xbd05fed7	-0.032713737
53	0x3ca95d04	0.020674236
54	0x3d1e5ecb	0.03866462
55	0x3d796aad	0.06089275
56	0xbdd26dd3	-0.102748536
57	0xbe1542fe	-0.14576337
58	0xbd537585	-0.051625747
59	0xbc179e11	-0.009253995
60	0xbd60dedb	-0.05490003
61	0x3d2c5a02	0.042078026
62	0xbbec88e1	-0.0072184657
63	0x3db6634c	0.08905658
64	0xbcb997cc	-0.02265539
65	0xbcdc541b	-0.026895573
66	0xbda03268	-0.07822114
67	0xbdc36e91	-0.09542573
68	0x3e146a46	0.14493665
69	0x3c7d3990	0.0154556185
70	0x3e06ab9e	0.13151404
71	0xbcf912ae	-0.030404415
72	0x3c940850	0.01807037
73	0x3c8f3cf1	0.017485114
74	0xbd79785c	-0.0609058
75	0x3d2fa23d	0.04287933
76	0x3eb16abe	0.3465175
77	0xbddac547	-0.10682159
78	0x3ea7becc	0.32762754
79	0x3d82cdda	0.06386919
80	0x3e01c514	0.12672836
81	0xbba3ff88	-0.005004827
82	0x3de049b7	0.1095156
83	0xbc2f5ecf	-0.0107037565
84	0x3d0128e0	0.031533122
85	0x3c1177b0	0.008878633
86	0x3da6088d	0.081071
87	0x3ce34b30	0.027745813
88	0x3e198fb3	0.14996223
89	0x3d9fda8e	0.07805358
90	0x3e6c748f	0.23091339
91	0x3e143674	0.14473897
92	0x3d7743ea	0.060367502
93	0x3b803c6e	0.003913454
94	0x3d8ff561	0.07029224
95	0xbd673756	-0.056449257
96	0xbcb7d0df	-0.022438465
97	0x3d1beb40	0.03806615
98	0x3d236137	0.039887633
99	0x3eb55bb8	0.35421538
100	0x3e07ac31	0.1324928
101	0xbd419afe	-0.047266953
102	0x3d26e9b7	0.04075023
103	0x3c919a02	0.017773632
104	0x3b547067	0.003241563
105	0xbd7e7389	-0.0621219
106	0x3d1e2124	0.038605824
107	0x3d9276da	0.071515754
108	0xbda8ed6c	-0.0824841
109	0x3ca8a481	0.020586254
110	0x3eec14f5	0.4610974
111	0xbc817869	-0.015804486
112	0xbc42a949	-0.011881181
113	0xbc98d765	-0.018657396
114	0x3d1657a9	0.036704693
115	0xbcb97cd7	-0.022642536
116	0xbcc3f403	-0.023920065
117	0xbc761c8b	-0.015021454
118	0x3d93c02c	0.07214388
119	0xbcaf5864	-0.021404453
120	0xbd0a6c0a	-0.03379444
121	0x3e28a1c5	0.1646796
122	0x3dea0529	0.114267655
123	0x3d63ae90	0.055586398
124	0xbb5e144f	-0.0033886617
125	0xbcf0b241	-0.029381873
126	0x3d5a096d	0.053231645
127	0x3d066db0	0.03281945

enc2.bias_tensor f4 [4]
0	0x3d0d03c8	0.034427434
1	0x3dc6a657	0.096996956
2	0x3e869a2f	0.26289508
3	0xbd4802e5	-0.048830885

fc_enc.weight f4 [64, 468]
0	0xbbb237ea	-0.0054387944
1	0x3bc51b29	0.0060152006
2	0xbd7a6757	-0.06113371
3	0x3d8f81b4	0.07007161
4	0xbe05f707	-0.13082515
5	0xbd415b22	-0.04720605
6	0xbc1cea40	-0.009577334
7	0xbdca69c2	-0.09883453
8	0x3b00f446	0.0019676848
9	0x3b300422	0.0026857932
10	0x3e0ef10e	0.13959143
11	0x3b2fd065	0.0026827094
12	0x3dea4b21	0.11440111
13	0x3d405558	0.04695639
14	0x3c292ab5	0.010325124
15	0x3e342d4b	0.17595403
16	0xbd70f33c	-0.058825716
17	0x3dab9621	0.08378244
18	0xbd82c2dc	-0.06384823
19	0x3b426b27	0.0029665919
20	0xbd31683d	-0.0433123
21	0x3c5cbcc9	0.013472744
22	0x3e128af3	0.14310817
23	0xbe194c78	-0.14970577
24	0x3e07a90a	0.13248077
25	0x3dedbe4f	0.11608564
26	0x3b8824ac	0.0041547623
27	0x3cbda9f2	0.023152325
28	0xbce6c0c1	-0.028168084
29	0xbe03a7d6	-0.12856993
30	0x3d602e6f	0.054731783
31	0x3d2300f5	0.039795835
32	0xbe0110c2	-0.12604049
33	0x3dcdec72	0.10054864
34	0xbdd5620e	-0.10419093
35	0x3ce0a250	0.027421147
36	0x3e6cc855	0.23123296
37	0xbdbb8f20	-0.09158158
38	0x3e1ba4e2	0.15199617
39	0x3cca04b4	0.024660446
40	0x3ddb7a2e	0.10716663
41	0x3c704663	0.014665219
42	0x3db8be2b	0.09020647
43	0x3da9d855	0.08293215
44	0xbd9e1a86	-0.07719903
45	0x3d260915	0.040536005
46	0xbb3f4683	-0.0029186315
47	0xbdb5c1b3	-0.08874836
48	0x3df256d0	0.118329644
49	0xbda36e99	-0.07980079
50	0x3e228752	0.15871933
51	0xbe9aa52b	-0.30204138
52	0xbe769eff	-0.2408409
53	0x3dc1cfc4	0.09463456
54	0xbd9bcd79	-0.0760755
55	0x3d7effd0	0.06225568
56	0xbd4f3310	-0.050585806
57	0xbd091b97	-0.033473577
58	0xbe25c426	-0.16188106
59	0x3d4a845c	0.049442634
60	0xbdc7eeff	-0.09762382
61	0xbd96794b	-0.073473535
62	0xbd4b1e96	-0.049589716
63	0x3c2fcc95	0.0107299285
64	0xbe738bf9	-0.23783864
65	0xbcbdc342	-0.023164395
66	0xbdc80437	-0.09766429
67	0xbccaac4f	-0.024740366
68	0xbe3cd030	-0.18438792
69	0x3dbba136	0.09161608
70	0xbdbcbb9e	-0.09215473
71	0xbd1966e0	-0.037451625
72	0x3de48e0a	0.11159904
73	0x3dd2085d	0.102555014
74	0xbe091258	-0.13385904
75	0x3cf13210	0.029442817
76	0x3d0a1e56	0.033720337
77	0x3e4735b5	0.19454081
78	0xbd0e6e44	-0.034773126
79	0xba6bf7d6	-0.0009001469
80	0xbe02f838	-0.1279
81	0x3d24341c	0.040088758
82	0xbd11e5b9	-0.03561947
83	0xbd83a0d9	-0.06427164
84	0x3e2daf97	0.16961513
85	0xbcd7fa3b	-0.026364436
86	0xbe22cb26	-0.15897807
87	0x3de17a6d	0.11009679
88	0xbd18004a	-0.03710965
89	0x3c3ea890	0.011636868
90	0x3dd243a6	0.10266809
91	0x3c251f78	0.0100783035
92	0x3c91970e	0.017772224
93	0x3bf28821	0.0074014817
94	0x3c7c5cef	0.0154030165
95	0xbd59ea7d	-0.05320214
96	0x3cde16f9	0.027110564
97	0xbcc47194	-0.02397994
98	0xbcf2d37f	-0.029641865
99	0x3e204263	0.15650325
100	0xbd5f8d7c	-0.05457829
101	0x3df7d798	0.12101668
102	0x3da82ffb	0.082122765
103	0x3e10e6b9	0.14150514
104	0x3d0d4ac6	0.034495138
105	0x3d134bf0	0.03596109
106	0x3d05a5bb	0.032628756
107	0xbe3266b6	-0.17421994
108	0xbdf2d083	-0.11856177
109	0x3db2a53d	0.08722923
110	0xbd06700f	-0.03282171
111	0xbbbacc01	-0.0057005887
112	0x3d0adc48	0.033901483
113	0xbd56291e	-0.052285306
114	0x3d83efd8	0.06442231
115	0xbbbfdc8a	-0.0058551477
116	0x3dc79617	0.09745424
117	0xb98b9507	-0.0002662318
118	0x3d7e160f	0.062032755
119	0xbdbd4ea8	-0.09243518
120	0xbdb957a0	-0.09049916
121	0xbde6ceec	-0.11269936
122	0x3cdd401c	0.027008109
123	0xbe15444c	-0.14576834
124	0x3df13a9a	0.117787555
125	0xbdcb904b	-0.09939631
126	0x3e2ee900	0.1708107
127	0xbda20d54	-0.079126984
128	0x3c66c1a6	0.014084255
129	0x3cc10070	0.023559779
130	0x3cd6b711	0.02621034
131	0xbca76c15	-0.02043728
132	0xbd35d68d	-0.044394065
133	0x3dc40463	0.09571149
134	0x3d86a25e	0.06573938
135	0x3de3e453	0.11127534
136	0x3d8e569d	0.06950114
137	0xbe3b0797	-0.18264614
138	0x3c960e28	0.018317297
139	0xbd44b59e	-0.048024766
140	0xbe1986ad	-0.14992781
141	0xbc030abe	-0.007998167
142	0xbd0fbee4	-0.035094157
143	0x3cb269e1	0.021779003
144	0xbcbdfce6	-0.02319188
145	0xbdfe1861	-0.12406994
146	0xbb0d3cba	-0.0021551088
147	0xbd9da14b	-0.0769678
148	0x3d407714	0.04698856
149	0xbe6a9307	-0.22907649
150	0x3e5316ca	0.20614162
151	0x3deaec83	0.11470892
152	0xbd05c5f4	-0.032659486
153	0xbd99e55c	-0.0751445
154	0x3dc554d1	0.09635318
155	0xbcc7892f	-0.024357406
156	0x3dc912f6	0.0981807
157	0xbdad6959	-0.08467359
158	0x3c9dc4c7	0.01925887
159	0x3ca9e666	0.020739745
160	0x3dc3e140	0.095644474
161	0x3bbf95ae	0.0058467006
162	0xbd1f414f	-0.038880643
163	0x3d9aeb52	0.07564415
164	0xbbd5eb21	-0.0065282737
165	0xbe4028d7	-0.18765579
166	0xbc649ce3	-0.01395342
167	0xbdd33a35	-0.103138365
168	0xbdd5049c	-0.1040127
169	0x3e2e950e	0.17049047
170	0xbe652844	-0.22378641
171	0x3d0063a2	0.031345017
172	0x3cb74ac9	0.022374528
173	0xbe661e4d	-0.22472496
174	0x3da0791c	0.078356
175	0xbd7e496d	-0.062081743
176	0x3d175f10	0.036955893
177	0xbd5b4103	-0.053528797
178	0x3d2df0dc	0.04246603
179	0x3d79833c	0.06091617
180	0xbb6cc7b5	-0.0036129777
181	0x3e59293c	0.21207136
182	0x3e208299	0.15674819
183	0x3d9e13bc	0.07718608
184	0xbd9dcb89	-0.07704837
185	0x3db2177e	0.08695887
186	0x3cc60bb9	0.024175512
187	0xbc8f55dd	-0.017496997
188	0x3e157b3e	0.14597794
189	0xbe361915	-0.17783006
190	0x3d13b5e4	0.036062136
191	0x3d197a7f	0.037470337
192	0x3b4ac169	0.0030938035
193	0x3c2ee837	0.0106754815
194	0x3e058d09	0.13042082
195	0x39376c52	0.00017492592
196	0x3c5eb06a	0.013591865
197	0xbdb849d0	-0.089984536
198	0xbc5d4d9a	-0.013507271
199	0x3d64f612	0.055898733
200	0xbdfc060d	-0.123058416
201	0xbda1b01f	-0.078949206
202	0x3c8ebc9a	0.017423917
203	0x3cba1d41	0.022719027
204	0xbd830b92	-0.06398691
205	0xbcc3a122	-0.023880545
206	0x3dbf8e8f	0.09353363
207	0xbdbe650a	-0.092966154
208	0xbc00870f	-0.0078447005
209	0x3d421a2b	0.047388237
210	0xbd5f4ecb	-0.054518502
211	0xbe0226b8	-0.12710083
212	0x3df859d0	0.121265054
213	0x3ddd0b05	0.107931174
214	0x3d95f7d9	0.07322664
215	0x3da07c44	0.07836202
216	0xbb7ae9a1	-0.0038286226
217	0x3dbcb093	0.09213366
218	0x3da6f697	0.08152502
219	0xbda55302	-0.08072473
220	0x3bae16b3	0.0053127646
221	0x3d13cdde	0.036085002
222	0x3d0bb869	0.034111414
223	0x3de8008d	0.1132823
224	0x3ddd6e29	0.10812027
225	0x3e1d8945	0.15384395
226	0xbe4d3179	-0.20038404
227	0xbe32d632	-0.17464522
228	0xbc58b64c	-0.013227057
229	0xbe03bd9d	-0.128653
230	0xbd841947	-0.06450134
231	0x3e3a4fbe	0.18194482
232	0x3d10b90c	0.035332724
233	0x3ad8ca02	0.0016539695
234	0x3d42bac7	0.047541406
235	0xbca3edb7	-0.020010812
236	0x3e19424f	0.14966701
237	0xbd8b4e8b	-0.0680209
238	0x3d5ece7d	0.05439614
239	0xbe537823	-0.20651297
240	0x3e09684a	0.1341869
241	0xbd1b1068	-0.037857443
242	0xbc1d04f7	-0.009583703
243	0x3d65ffc8	0.056152135
244	0x3ee3bf8d	0.4448208
245	0x3d0fbb4f	0.03509074
246	0x3ca1c884	0.019748934
247	0xbc42f225	-0.011898552
248	0xbcfd1974	-0.030895926
249	0x3e20de0f	0.15709709
250	0x3e4985a7	0.1967989
251	0x3d3cfd6b	0.046140116
252	0x3e578b11	0.21049143
253	0x3d51557b	0.05110691
254	0xbd2e5eed	-0.042570997
255	0x3c208e76	0.00979959

fc_enc.bias f4 [64]
0	0xbd33a557	-0.043858852
1	0x3bb1a6a7	0.005421478
2	0xbb97e998	-0.004636001
3	0xbafc9679	-0.0019270919
4	0xbc0b326b	-0.008495907
5	0x3b2de595	0.0026534547
6	0xbc573203	-0.013134482
7	0xbce25792	-0.027629647
8	0x3d0a885c	0.03382145
9	0x3d01240d	0.03152852
10	0xbd1c4cd1	-0.038159195
11	0x3868a9fd	5.5471424e-05
12	0xbcbe962f	-0.023264972
13	0xbd3babd2	-0.045818157
14	0xbbaea909	-0.005330209
15	0xbca1f3cd	-0.019769574
16	0x3d0d89cc	0.03455524
17	0x3d2ba20b	0.041902583
18	0x3cf91037	0.03040324
19	0x3cfbd370	0.03074047
20	0xbd24bf76	-0.040221654
21	0xbd396715	-0.045264322
22	0x3c0a0cbf	0.0084258905
23	0xbd4954ec	-0.049153253
24	0xbcf4627a	-0.029832114
25	0xbd268fe5	-0.040664572
26	0x3c0bd945	0.008535688
27	0x3c3c52de	0.011494366
28	0xbd110bf6	-0.035411797
29	0xbca72e18	-0.020407721
30	0x3d14229c	0.03616582
31	0xbab24240	-0.0013600066
32	0xbd051bbd	-0.032497156
33	0x3d3dcb63	0.046336543
34	0x3ca6b4cb	0.02034988
35	0xbbaf7fb0	-0.0053557977
36	0xbcd415c7	-0.02588929
37	0xbd739afb	-0.059473973
38	0x3ccfca32	0.025364969
39	0xbc997b41	-0.01873553
40	0x3b8ff788	0.0043935217
41	0xbc017b3e	-0.007902918
42	0xbd2e7199	-0.042588804
43	0x3cdea73b	0.027179351
44	0x3d3143fe	0.043277733
45	0xba885f1e	-0.0010404324
46	0xbbd30518	-0.006439816
47	0x3d8df927	0.06932288
48	0xbcad1d73	-0.021132207
49	0xbd4e3869	-0.050346766
50	0x3be3b6e0	0.0069492906
51	0xbc1c8bbb	-0.009554799
52	0xbcc34d2f	-0.023840515
53	0xbd9ba81f	-0.07600426
54	0xbcaf1a06	-0.021374714
55	0x3d3e1f6f	0.046416696
56	0x3d3f750d	0.046742488
57	0xbd0703ee	-0.032962732
58	0xbd0dd8c1	-0.03463054
59	0x3cbaf957	0.022823973
60	0xbc97a7c0	-0.018512607
61	0xbd30ba85	-0.04314663
62	0xbd51b0ec	-0.051194116
63	0xbd045ad8	-0.032313198

fc_dec.weight f4 [468, 64]
0	0xbd773b54	-0.060359314
1	0x3d8c81bb	0.068606816
2	0x3c0a4fa9	0.008441844
3	0xbdd5f7f8	-0.10447687
4	0xbce6dc0a	-0.028181095
5	0x3dd44541	0.10364772
6	0x3d52488b	0.051338714
7	0xbdbe55e8	-0.09293729
8	0xbd254e50	-0.040357888
9	0x3cc9280e	0.024555232
10	0x3d5dbbad	0.05413406
11	0xbdccb8df	-0.09996199
12	0x3c97d1af	0.018532602
13	0x3c0d2cb9	0.00861662
14	0x3cbbe8c6	0.022938143
15	0x3c26a0cd	0.010170174
16	0xbbdbe9d7	-0.0067112255
17	0x3d82fdde	0.063960776
18	0x3d10a22a	0.0353109
19	0xbc94fae6	-0.018186044
20	0x3cf49f69	0.029861169
21	0x3d9ac179	0.07556433
22	0xbd679750	-0.056540787
23	0x3b6fee1f	0.0036610437
24	0x3e5ed13c	0.21759504
25	0x3cec0435	0.0288106
26	0xbcd23603	-0.02566052
27	0x3d908298	0.07056159
28	0x3dd4da33	0.10393181
29	0x3bbc6f2e	0.0057505583
30	0x3db5149f	0.08841824
31	0x3dcd5af1	0.10027111
32	0x3be2bbca	0.006919359
33	0x3d81513d	0.06314323
34	0xbdbfad0e	-0.093591794
35	0xbc84addc	-0.016196184
36	0xbd910abf	-0.07082128
37	0x3cd0c92a	0.025486547
38	0xbe00a2c4	-0.1256209
39	0xbda7719f	-0.081759684
40	0xbd057fcf	-0.03259259
41	0x3d97a9e0	0.07405448
42	0x3e60aecc	0.2194168
43	0xbcd9bbbf	-0.026578782
44	0xbe11a4ad	-0.14222975
45	0x3d41cf53	0.04731686
46	0xbc232c1c	-0.009959247
47	0x3c8543e2	0.01626772
48	0x3d51670a	0.051123656
49	0xbcabe7ea	-0.020984609
50	0x3c2c3ee4	0.010513041
51	0xbd31d22e	-0.043413334
52	0x3c9c317c	0.019066565
53	0xbd393229	-0.045213852
54	0xbc4fbc18	-0.012679122
55	0x3df53540	0.11973047
56	0xbe365dc6	-0.17809209
57	0x3d246a83	0.04014064
58	0xbce3e283	-0.02781797
59	0xbdb72848	-0.0894323
60	0xbd311169	-0.043229494
61	0xbe050188	-0.12988865
62	0xbdec95c4	-0.11552003
63	0xbd553c10	-0.052059233
64	0xbc888c29	-0.016668396
65	0x3c7e840e	0.015534414
66	0xbd47ed51	-0.048810307
67	0xbd399d15	-0.04531582
68	0xbb61991a	-0.003442353
69	0x3e039157	0.12848412
70	0xbd37b02f	-0.044845756
71	0xbd941728	-0.07230979
72	0x3d92cb90	0.07167733
73	0x3daec281	0.085331924
74	0xbe5499df	-0.20761822
75	0xbce31f69	-0.027724938
76	0x3e3a8c65	0.18217619
77	0xbd197355	-0.037463505
78	0xbd18a2b4	-0.03726454
79	0x3cabba45	0.020962844
80	0x3c7259b8	0.014791898
81	0x3d70bd16	0.058774076
82	0xbe2e6424	-0.17030388
83	0x3c17cda8	0.009265341
84	0xbcbf6a83	-0.023366218
85	0x3d82af6f	0.063811176
86	0xbdb17ea4	-0.08666733
87	0x3cfadfbc	0.030624263
88	0x3d967690	0.07346833
89	0x3d03d5b7	0.032186236
90	0xbdfe47ac	-0.12416014
91	0x3d3c6517	0.045994844
92	0x3c188d0e	0.009310974
93	0xbdbe3c52	-0.09288849
94	0xbd3fb689	-0.04680494
95	0xbd2d21b0	-0.042268455
96	0x3d5e33aa	0.05424849
97	0x3d545245	0.05183627
98	0xbcaf31a4	-0.021385975
99	0xbd7c6b52	-0.061625786
100	0xbd208109	-0.039185558
101	0x3cce2a33	0.025166607
102	0xbda68d40	-0.0813241
103	0xbe021005	-0.12701423
104	0x3dd0928d	0.10184202
105	0x3d44d9a9	0.04805914
106	0x3e0539e7	0.13010369
107	0xbe13e96b	-0.1444451
108	0xbdfe761d	-0.12424872
109	0x3e4a04f7	0.19728456
110	0x3d91d1c7	0.0712009
111	0xbca7ed9e	-0.020499047
112	0x3c5f8c00	0.013644218
113	0xbbb93db8	-0.0056531094
114	0x3ca0bc8e	0.01962116
115	0xbc37c2f6	-0.011215916
116	0x3d8cebf3	0.06880941
117	0x3c394cfd	0.011309859
118	0x3c7e422f	0.015518709
119	0xbd74248b	-0.059605163
120	0xbe54f9ad	-0.20798369
121	0x3b78db95	0.0037972678
122	0xbd906e0c	-0.0705224
123	0xbd80d385	-0.06290344
124	0x3d827f20	0.063719034
125	0xbd9b20fd	-0.075746514
126	0xbd3128c2	-0.04325176
127	0xbdc2498c	-0.09486684
128	0x3cacc5ae	0.021090355
129	0xbccb790c	-0.024837993
130	0xbe992c08	-0.29916406
131	0xbe8240c5	-0.2544004
132	0xbb6b542c	-0.0035908325
133	0xbdac00fe	-0.08398627
134	0xbdd9834c	-0.10620746
135	0xbe0d66fd	-0.13808818
136	0x3db2a2b7	0.08722442
137	0xbe115ba7	-0.14195119
138	0x3e384a9f	0.17997216
139	0x3dacaac7	0.08431011
140	0x3c3c2b15	0.011484881
141	0xbdbcfac5	-0.09227518
142	0x3e01fa2a	0.12693086
143	0xbddd753a	-0.10813375
144	0xbdebfe41	-0.115231045
145	0x3d93d940	0.072191715
146	0x3db41259	0.08792562
147	0x3e99502e	0.29943985
148	0xbdf18f03	-0.117948554
149	0x3e7bc70a	0.24587646
150	0xbe2e5d7a	-0.17027846
151	0xbb976486	-0.0046201376
152	0x3d3dc714	0.046332434
153	0xbdfab420	-0.12241387
154	0x3e9e4bbf	0.30917165
155	0x3d9af9e1	0.07567192
156	0xbde4ef72	-0.11178483
157	0x3d3171e0	0.04332149
158	0xbe837fef	-0.25683543
159	0xbe43cb54	-0.19120532
160	0xbd6807ef	-0.05664819
161	0x3d7d5008	0.061843902
162	0xbc5d352c	-0.013501447
163	0x3e27d65b	0.16390364
164	0xbeb7dfc5	-0.3591291
165	0xbd3dd428	-0.046344906
166	0xbe6d4c09	-0.23173536
167	0x3dbb1920	0.091356516
168	0x3e1ce821	0.15322925
169	0x3e7ea924	0.2486921
170	0xbd465db8	-0.04842922
171	0xbe0a4adb	-0.13505118
172	0x3dbbf868	0.09178239
173	0xbb93bf7b	-0.0045089102
174	0xbe399ef7	-0.18127047
175	0xbd80a476	-0.062813684
176	0x3e8b28d7	0.27179596
177	0xbcae015c	-0.021240883
178	0x3dd1387b	0.10215851
179	0x3ee2bf06	0.44286364
180	0x3e22fa4b	0.15915792
181	0x3d723382	0.059131153
182	0xbe1bd8d8	-0.15219438
183	0xbd3d795d	-0.04625832
184	0xbdea22d8	-0.11432427
185	0x3e15997f	0.14609335
186	0x3e8b20fb	0.271736
187	0x3e0ef58b	0.13960855
188	0x3dbaec61	0.09127117
189	0xbd87f435	-0.06638376
190	0x3d9bec1f	0.07613396
191	0xbdf0197a	-0.11723609
192	0xbe3017b5	-0.17196544
193	0x3dd041dc	0.10168812
194	0x3c95ec38	0.018301114
195	0x3d3d8f82	0.046279438
196	0xbeb5b3f4	-0.35488856
197	0xbcb6ac3a	-0.02229892
198	0xbe309c1c	-0.17247051
199	0x3cc3edd1	0.02391711
200	0x3df46f11	0.11935247
201	0x3d7e1b84	0.06203796
202	0x3e858b74	0.26082957
203	0x3c7e651c	0.015527036
204	0xbdece43a	-0.11566968
205	0x3d906bf1	0.07051838
206	0x3e770ab6	0.2412518
207	0xbbb94e3f	-0.0056550796
208	0xbde109ce	-0.10988198
209	0xbd77eef0	-0.060530603
210	0xbe15fb4f	-0.14646648
211	0xbda78d3a	-0.08181234
212	0xbdf75e13	-0.1207849
213	0x3e3a55f6	0.18196854
214	0x3d883fcd	0.06652794
215	0x3c070780	0.008241534
216	0x3d14880e	0.036262564
217	0xbb0e6f19	-0.00217337
218	0xbc008dc5	-0.0078463005
219	0x3dcd5f21	0.1002791
220	0xbde3e164	-0.11126974
221	0xbd9d7c6d	-0.07689748
222	0xbe107c70	-0.14109969
223	0xbcbd23b8	-0.023088321
224	0xbbf05d84	-0.0073353667
225	0xbd6a5ab8	-0.057215422
226	0xbd8e34c0	-0.06943655
227	0x3d47dc62	0.048794158
228	0xbe0a9fc3	-0.13537507
229	0x3de813e9	0.113319226
230	0xbd80fad0	-0.06297839
231	0xbde9449b	-0.113900386
232	0xbdb56f2f	-0.08859097
233	0x3dede2e7	0.11615544
234	0xbda37042	-0.07980396
235	0xbdafbc2c	-0.08580813
236	0xbe10d9c8	-0.14145577
237	0xbdfc7536	-0.12327044
238	0x3bef336e	0.007299832
239	0x3d2d1214	0.04225357
240	0xbe099477	-0.13435541
241	0xbe51066e	-0.20412609
242	0xbd9e038c	-0.0771552
243	0xbd9dcb3f	-0.07704782
244	0xbe1bfa3a	-0.15232173
245	0x3e5db95d	0.21652742
246	0x3e5e2ddf	0.21697186
247	0x3d052614	0.032507017
248	0x3ee22d3e	0.44175142
249	0x3e2c445b	0.1682295
250	0x3c25101e	0.010074643
251	0xbe8575e0	-0.26066494
252	0x3e0672f4	0.13129789
253	0xbc5c6794	-0.013452429
254	0x3e13b1dc	0.14423317
255	0xbc7967f6	-0.01522254

fc_dec.bias f4 [468]
0	0x3daedaf1	0.085378535
1	0x3d0d1089	0.034439597
2	0x3e1d0ad8	0.15336168
3	0x3d9aa28e	0.07550536
4	0x3e162890	0.14663911
5	0xbb8268e1	-0.0039797877
6	0x3d739f6d	0.059478212
7	0xbdb9d423	-0.09073665
8	0x3d0cd4bf	0.034382578
9	0xbd808ff0	-0.06277454
10	0x3c1641de	0.009170977
11	0x3e0154e8	0.12630045
12	0xbd25f227	-0.040514138
13	0xbc1d8246	-0.009613579
14	0x3d8532ed	0.06503854
15	0xbcbf279f	-0.023334322
16	0x3e1b2286	0.15149888
17	0x3d978b26	0.07399587
18	0x3d97660f	0.07392513
19	0x3d8860f3	0.066591166
20	0x3da29509	0.079385825
21	0x3e345124	0.17609078
22	0x3e02b110	0.12762856
23	0x3dbf0c65	0.09328536
24	0x3e02cc4f	0.1277325
25	0x3d864603	0.065563224
26	0x3e31c41a	0.17359963
27	0x3dab372d	0.08360133
28	0x3e331ff8	0.17492664
29	0x3e41be64	0.18920285
30	0x3e478d4d	0.19487496
31	0x3d734dcc	0.059400365
32	0x3d8f3e79	0.069943376
33	0x3e43a5a7	0.1910616
34	0x3d6ee27b	0.058321457
35	0xbce841f7	-0.028351767
36	0x3d894887	0.067032866
37	0xbcf790db	-0.03022044
38	0x3e123342	0.14277366
39	0x3e0f31c2	0.13983825
40	0x3e24695f	0.16055821
41	0x3d34a7f8	0.0441055
42	0x3d8d80de	0.06909345
43	0x3d655ad2	0.055994816
44	0x3df898a2	0.121384874
45	0x3d9313d7	0.071815185
46	0xbd3c2a79	-0.045938943
47	0x3ddd1d90	0.10796654
48	0x3e03a787	0.12856875
49	0x3e0b08b9	0.13577546
50	0x3d741bd4	0.05959685
51	0x3e7a41c4	0.2443915
52	0xbd6207c8	-0.055183202
53	0x3e2d77ea	0.16940275
54	0x3ddb116a	0.10696681
55	0x3e6003ec	0.21876496
56	0x3e3828a5	0.17984255
57	0x3d7f2308	0.062289268
58	0x3c2229bb	0.009897645
59	0xbd093039	-0.033493254
60	0x3cd35ff2	0.025802586
61	0x3ddac775	0.10682575
62	0x3daaafc7	0.08334308
63	0xbe02c205	-0.12769325
64	0x3e71f074	0.23626882
65	0xbe643d02	-0.22288898
66	0x3e03c13d	0.12866683
67	0x3e38bfa3	0.18041854
68	0x3e2a532c	0.1663329
69	0x3ddaa716	0.106764
70	0x3dfd9499	0.123818584
71	0x3dcb2c8f	0.09920608
72	0x3c71813c	0.0147402845
73	0x3d142796	0.036170565
74	0x3d891b0b	0.06694611
75	0xbd5c1531	-0.053731147
76	0x3df35e81	0.118832596
77	0xbc621575	-0.013799061
78	0xbf1417d9	-0.5784889
79	0x3cf55025	0.029945442
80	0x3e520f00	0.20513535
81	0x3dab9485	0.08377937
82	0x3e2d29e5	0.16910513
83	0x3dae5c1f	0.085136645
84	0x3ceca738	0.02888833
85	0x3e3ab931	0.18234707
86	0x3ddaa624	0.1067622
87	0x3de4c90b	0.111711584
88	0x3d3d13af	0.04616135
89	0xbdb17411	-0.08664716
90	0x3e6248d1	0.2209809
91	0xba553547	-0.0008133244
92	0xbdf9f744	-0.12205365
93	0x3dd762a7	0.10516863
94	0x3dd3f79c	0.10349962
95	0x3e4e1993	0.20126943
96	0x3e53a87f	0.20669745
97	0x3e5d003b	0.21582119
98	0x3da7be4c	0.08190593
99	0x3e08f2ed	0.13373919
100	0x3bb5f1a7	0.005552489
101	0x3e2f6cc1	0.1713133
102	0xbe7c74e3	-0.24653964
103	0x3cea97f2	0.028636906
104	0xbbcfb725	-0.006338971
105	0xbcb9d73b	-0.022685638
106	0x3d020218	0.031740278
107	0x3e43f9a4	0.19138199
108	0x3c83a34e	0.01606908
109	0x3e6e5974	0.23276311
110	0xbd9f927f	-0.07791614
111	0x3e6ff04b	0.23431508
112	0x3cba4f5b	0.022742918
113	0x3e691bb9	0.22764482
114	0x3e094f8a	0.13409248
115	0x3d8512b0	0.06497705
116	0xbd064a58	-0.032785743
117	0xbe4df241	-0.20111944
118	0xbd94507e	-0.07241915
119	0xbe55f2cd	-0.20893402
120	0xbeb2ea99	-0.3494461
121	0xbe82afbd	-0.25524703
122	0xbe9b86a7	-0.3037617
123	0xbe5067fd	-0.20352168
124	0xbedb2276	-0.4279973
125	0xbe61fc9e	-0.22069022
126	0xbe0a45af	-0.13503145
127	0xbe6e4f9b	-0.23272555
128	0x3a4d78ac	0.0007838111
129	0xbd56ad6f	-0.052411493
130	0x3c94b644	0.018153317
131	0xbda79f91	-0.08184732
132	0xbe5d7463	-0.2162643
133	0xbe480989	-0.19534887
134	0xbe82e36a	-0.25564128
135	0xbded9051	-0.11599792
136	0xbe81f04d	-0.25378647
137	0xbe29ff0b	-0.16601197
138	0xbdc0c43e	-0.0941243
139	0xbe77bbee	-0.24192783
140	0xbdda0703	-0.10645869
141	0xbebf2c11	-0.37338307
142	0xbe177ab6	-0.14792904
143	0xbef91f5c	-0.48656738
144	0xbeb83277	-0.35976002
145	0xbe5dac8e	-0.21647856
146	0xbe690e60	-0.2275939
147	0xbe186af7	-0.14884554
148	0xbe613a4a	-0.21994892
149	0xbe7e52b3	-0.24836235
150	0xbe45943f	-0.19294833
151	0xbe638849	-0.22219957
152	0xbe27565a	-0.16341534
153	0x3d8c2809	0.068435736
154	0xbd7cd1ad	-0.0617234
155	0xbe570c95	-0.21000893
156	0xbec608a5	-0.3867847
157	0xbe46aa53	-0.19400911
158	0xbe3c8196	-0.18408808
159	0xbe18375d	-0.1486487
160	0xbeb0c007	-0.34521505
161	0xbe7a6bca	-0.24455181
162	0xbdfdd403	-0.12393954
163	0xbe93561f	-0.28776643
164	0xbe8859d7	-0.26631042
165	0xbea7b101	-0.3275223
166	0xbe8a01fe	-0.26954645
167	0xbd228729	-0.03967968
168	0xbe8bb77a	-0.2728842
169	0xbebb0a26	-0.3653118
170	0xbe904876	-0.28180283
171	0xbe5ee462	-0.21766809
172	0xbe53278d	-0.20620556
173	0xbe6c7036	-0.2308968
174	0xbe7e3826	-0.24826106
175	0xbe0d9f56	-0.13830313
176	0xbe74d787	-0.23910342
177	0xbe8c0270	-0.2734561
178	0xbe74a5e4	-0.23891407
179	0xbe60a80c	-0.21939105
180	0xbd8c5825	-0.0685275
181	0xbdf99da1	-0.121882685
182	0xbec5a7a5	-0.38604465
183	0xbe54e25f	-0.20789479
184	0xbe3c7292	-0.1840308
185	0xbe8319d4	-0.25605643
186	0xbe6a1647	-0.2286006
187	0xbe2e0fdf	-0.16998242
188	0xbe965da4	-0.29368317
189	0xbe913620	-0.28361607
190	0xbe81959a	-0.2530945
191	0xbde1f842	-0.110336795
192	0xbe061972	-0.13095644
193	0x3c2ff001	0.010738374
194	0xbdbfdcbd	-0.09368274
195	0xbf431d87	-0.7621693
196	0xbe73f02b	-0.23822086
197	0xbe4ff92c	-0.20309895
198	0xbe2292e7	-0.15876351
199	0xbe214666	-0.15749511
200	0xbe46ccce	-0.19414064
201	0xbe57ac15	-0.21061738
202	0xbe253f4e	-0.1613743
203	0xbdc0a86f	-0.09407126
204	0xbdf9909d	-0.12185786
205	0x3cad4a38	0.021153554
206	0xbbc79bd9	-0.0060915765
207	0xbf46e7a5	-0.7769721
208	0xbdeea187	-0.11651903
209	0xbe9106f2	-0.2832561
210	0xbe65a009	-0.2242433
211	0xbe7db7d7	-0.2477716
212	0xbd423fa3	-0.04742397
213	0xbe1e9188	-0.15485203
214	0xbe5771c8	-0.21039498
215	0xbe65966b	-0.22420661
216	0xbde766ff	-0.11298942
217	0x3cac2f71	0.021018716
218	0x3dbad5c9	0.091228075
219	0x3c8bbcd7	0.01705782
220	0xbeb19658	-0.34685016
221	0xbe655e8c	-0.22399348
222	0xbdf87d6b	-0.121332966
223	0xbe9db322	-0.3080073
224	0xbdb506da	-0.088391975
225	0xbe1cea1a	-0.15323678
226	0x3d6943ae	0.05694931
227	0xbe3e4609	-0.18581404
228	0xbd1cc7e5	-0.03827657
229	0xbdb111eb	-0.08645996
230	0xbd8d634d	-0.06903706
231	0xbd1e754f	-0.038686093
232	0xbe296aeb	-0.16544692
233	0xbe48e426	-0.19618282
234	0x3de39f19	0.1111433
235	0x3cc896cc	0.024485968
236	0xbc7d05b0	-0.015443251
237	0x3e65fb80	0.22459221
238	0x3e0d2e69	0.13787235
239	0x3e79a7b4	0.2438038
240	0x3de9907c	0.11404511
241	0x3e909b83	0.28243646
242	0x3e2e6614	0.17031127
243	0x3ead2ddf	0.3382406
244	0x3e8c790c	0.274361
245	0x3d8a44cb	0.067514025
246	0x3e84d58a	0.25944167
247	0x3e3c2292	0.18372563
248	0x3d847f9c	0.06469652
249	0x3e10dfd7	0.14147888
250	0x3e62e65b	0.22158186
251	0x3e67e301	0.22645189
252	0x3e7dfa86	0.24802598
253	0x3db326d7	0.087476425
254	0x3e2c8ec3	0.16851334
255	0x3dff317f	0.124606125

dec1.kernel0 f4 [8, 4, 3, 1]
0	0xbe0e98f4	-0.13925534
1	0xbe4ac75a	-0.19802609
2	0x3e3a0394	0.18165427
3	0x3c80afd4	0.015708841
4	0xbe33c675	-0.17556174
5	0x3cb3316d	0.021874154
6	0x3ca103ae	0.019655075
7	0xbe95a6d0	-0.2922883
8	0xbe9ad324	-0.30239213
9	0x3cbaa7fc	0.02278518
10	0xbc09b991	-0.008406059
11	0xbe52a276	-0.20569786
12	0xbecd5215	-0.40101686
13	0xbe8ff73f	-0.2811832
14	0x3ec48d05	0.3838884
15	0xbd447e53	-0.047972035
16	0xbe6b4328	-0.22974837
17	0x3d4f21fe	0.050569527
18	0x3e7e693c	0.24844831
19	0xbf113f8d	-0.56737596
20	0xbe21c569	-0.15797962
21	0x3e5a948b	0.21345727
22	0xbba2cb14	-0.0049680565
23	0xbeabb5fc	-0.3353728
24	0xbcfadc7e	-0.030622717
25	0xbdfd0651	-0.123547204
26	0x3e90b862	0.28265673
27	0x3ead1daf	0.3381171
28	0xbe30f970	-0.17282653
29	0x3ecd03cc	0.4004196
30	0xbf007e42	-0.50192654
31	0x3e0d719c	0.1381287
32	0xbe99cc2a	-0.30038577
33	0x3f527565	0.8221038
34	0xbe90556a	-0.28190166
35	0x3c658f79	0.014011257
36	0x3d6a9649	0.05727223
37	0xbeede2a3	-0.46461973
38	0xbbe1c603	-0.00689006
39	0x3e83ac42	0.2571736
40	0x3e673a37	0.22580801
41	0xbdb6fbbb	-0.089347325
42	0x3df79f6a	0.12090953
43	0x3e224f05	0.15850456
44	0xbd7d5371	-0.061847154
45	0xbb201a22	-0.002442964
46	0x3e6f9f71	0.23400666
47	0xbedd481c	-0.43219078
48	0x3da01d4a	0.078180864
49	0xbcafd2b3	-0.021462774
50	0x3e917b92	0.2841459
51	0xbe8e7c0e	-0.2782902
52	0x3cc5d7a2	0.024150673
53	0x3f09f0aa	0.5388285
54	0x3e137add	0.14402337
55	0x3e7d401f	0.24731492
56	0xbf31005b	-0.6914117
57	0x3e0cbbd4	0.13743526
58	0xbe742eab	-0.23845927
59	0x3ef19268	0.47182012
60	0xbedd9dcb	-0.4328445
61	0xbe8316c1	-0.25603297
62	0x3e134be0	0.14384413
63	0x3d867aa4	0.065663606
64	0xbc9a43f5	-0.018831233
65	0xbd939550	-0.072062135
66	0x3d600e4e	0.054701142
67	0xbecde5f6	-0.4021451
68	0xbe44c1b4	-0.19214517
69	0x3e1cf1ee	0.15326664
70	0xbdd28e49	-0.10281045
71	0xbf0522aa	-0.5200602
72	0xbed38033	-0.41308746
73	0x3ed90ed8	0.42394137
74	0x3e1bb174	0.15204412
75	0xbe4dde70	-0.20104384
76	0xbd9e6d7a	-0.07735725
77	0x3da1bd5f	0.07897448
78	0xbe44695d	-0.19180818
79	0xbf319363	-0.6936552
80	0x3e01e947	0.12686644
81	0x3e5eb236	0.2174767
82	0xbe910b47	-0.28328916
83	0xbd9f9419	-0.07791919
84	0x3e565bbd	0.20933433
85	0xbd46294c	-0.048379228
86	0x3dce4c2b	0.10073122
87	0xbee5bc7a	-0.4487036
88	0x3e5baec7	0.21453391
89	0x3e070006	0.13183603
90	0xbe34e4f8	-0.1766547
91	0xbe475aaa	-0.1946818
92	0xbf195861	-0.5990048
93	0x3e9cf7d9	0.30657843
94	0x3dffe91b	0.12495633
95	0x3d81ab4e	0.06331502

dec1.kernel1 f4 [8, 4, 2, 2]
0	0x3e383780	0.17989922
1	0x3e30198f	0.1719725
2	0x3d9710e3	0.07376268
3	0xbe2e674f	-0.17031597
4	0x3d43d56c	0.047810957
5	0x3e38894b	0.18021123
6	0x3e3f19f7	0.18662249
7	0x3d5416dd	0.051779617
8	0xbe03a742	-0.12856773
9	0xbcab6808	-0.02092363
10	0x3dc855b7	0.09781974
11	0x3e63309d	0.22186513
12	0x3d9f3c0e	0.077751264
13	0x3d38822a	0.04504601
14	0x3e0d44b0	0.13795733
15	0x3e3252d6	0.17414412
16	0xbe0e3e53	-0.13890962
17	0x3e70aadb	0.23502676
18	0xbe11fb0a	-0.1425592
19	0x3e438895	0.1909507
20	0x3f006997	0.5016112
21	0x3d2d7c8c	0.042355105
22	0x3c6e9aca	0.014563272
23	0x3effae6f	0.4993777
24	0x3e00ce6a	0.1257874
25	0xbeaccf7f	-0.33752057
26	0x3e0ee855	0.13955815
27	0xbe212f64	-0.15740734
28	0x3e61c7c0	0.22048855
29	0x3e2c6817	0.16836582
30	0xbc38ce3c	-0.011279639
31	0x3e94d6e8	0.2907021
32	0x3e1252f8	0.14289463
33	0x3d9a8636	0.0754513
34	0x3c1d3325	0.009594713
35	0x3d429337	0.047503676
36	0xbc7de37e	-0.015496133
37	0x3e749374	0.23884374
38	0xbd885b5a	-0.06658049
39	0x3af216a8	0.0018469887
40	0x3d16061b	0.036626916
41	0xbd675dd6	-0.056485973
42	0x3da4ab97	0.08040541
43	0xbdd2465c	-0.10267326
44	0x3c9b90fc	0.018990032
45	0xbd3ec188	-0.046571285
46	0xbe8e795a	-0.2782696
47	0x3e058c43	0.13041787
48	0x3e4e2711	0.2013209
49	0xbe86c7c5	-0.26324287
50	0x3d28ffcb	0.04125957
51	0x3dc0a8c9	0.09407193
52	0x3db48044	0.08813527
53	0xbd7e435f	-0.06207597
54	0x3dd58748	0.104261935
55	0x3c1ebeb6	0.009689024
56	0x3cb0e79c	0.021594815
57	0xbdf6865e	-0.12037347
58	0xbc39a0b9	-0.011329823
59	0xbec0b38d	-0.37636986
60	0xbe15de29	-0.14635529
61	0x3e19157f	0.14949606
62	0x3e96d574	0.29459727
63	0xbe32a759	-0.1744665
64	0xbe4ccf94	-0.2000106
65	0xbe49dc32	-0.19712904
66	0xbea77df7	-0.3271329
67	0x3dee956f	0.11649596
68	0x3f172d9d	0.59053975
69	0x3eb330e8	0.3499825
70	0x3e852631	0.260057
71	0xbdd48659	-0.10377187
72	0xbef3ddbc	-0.47630107
73	0xbe9b3a34	-0.30317843
74	0x3c872c70	0.016500682
75	0x3e29d5b9	0.16585435
76	0x3ed9dc21	0.42550758
77	0x3ed369d0	0.41291666
78	0x3dcda4ed	0.10041223
79	0x3e00cd69	0.12578358
80	0xbe418c7d	-0.18901248
81	0x3c2a2080	0.010383725
82	0xbe09dba0	-0.13462687
83	0xbc3e0310	-0.01159741
84	0x3ed2ff90	0.41210604
85	0xbe509f06	-0.20373163
86	0x3da33f7e	0.079710945
87	0x3e73f65f	0.23824452
88	0x3e4f83ca	0.20265117
89	0xbdd4e69a	-0.10395546
90	0x3e1954df	0.14973782
91	0xbe33ef1b	-0.1757168
92	0xbe329c36	-0.17442402
93	0xbd27e4e1	-0.04098976
94	0xbe3039c5	-0.17209537
95	0x3d9dfe29	0.07714493
96	0xbec7f88c	-0.39056814
97	0x3eaadc6b	0.3337129
98	0xba9221eb	-0.0011149024
99	0xbd6d6699	-0.057959173
100	0x3ef49b30	0.4777465
101	0x3e6d7bd2	0.23191765
102	0xbe07f737	-0.13277899
103	0x3eb304fe	0.34964746
104	0x3e0d16a1	0.13778163
105	0x3c93fe52	0.018065605
106	0xbc452174	-0.012031902
107	0x3dbe92c6	0.093053386
108	0x3e6d6de3	0.2318645
109	0x3ca85741	0.020549418
110	0xbe95bdab	-0.29246268
111	0x3eb1812b	0.3466886
112	0xbe7a952a	-0.24470964
113	0x3d4f0bf7	0.05054852
114	0xbd4533bf	-0.048145052
115	0x3d8af88b	0.06785687
116	0x3f1df333	0.6169922
117	0x3ed3dc6a	0.413791
118	0x3ec3a8b0	0.38214636
119	0x3e8434ed	0.2582163
120	0xbdc6058c	-0.09669027
121	0xbbbec34b	-0.0058216206
122	0x3e843135	0.25818792
123	0xbe818872	-0.25299412
124	0x3e68146a	0.22664037
125	0x3cede559	0.029040026
126	0xbe2901b2	-0.16504553
127	0x3f32483b	0.69641465

dec1.bias_tensor f4 [8]
0	0xbf0e9277	-0.5569224
1	0xbea3a5e4	-0.31962502
2	0xbed05047	-0.40686247
3	0xbeeddbfb	-0.46456894
4	0xbe7dc684	-0.24782759
5	0xbec09bbc	-0.37618816
6	0xbeb9cab5	-0.36287466
7	0xbd8e9d60	-0.06963611

dec2.kernel0 f4 [1, 8, 5, 1]
0	0x3dfaae1f	0.12240242
1	0xbe6bcb25	-0.23026712
2	0xbe3d3ad2	-0.1847947
3	0x3e243406	0.1603547
4	0x3c801ebd	0.015639657
5	0xbd73263d	-0.05936264
6	0x3db690ad	0.089143135
7	0x3e306e32	0.17229536
8	0xbd8cb36a	-0.06870158
9	0xbb730c28	-0.0037086103
10	0x3c6bba31	0.014387653
11	0xbd9dd13f	-0.07705926
12	0x3dd8a384	0.10578063
13	0x3e675349	0.22590365
14	0xbeb937eb	-0.36175475
15	0xbcdec664	-0.02719421
16	0xbba193f2	-0.0049309665
17	0xbdcdb40b	-0.10044106
18	0xbc9c131b	-0.019052079
19	0x3cfcbb57	0.03085105
20	0xbb95dd1b	-0.004573477
21	0xbcdb6ea7	-0.026786162
22	0xbbb3fb22	-0.005492584
23	0xbcac6b64	-0.021047302
24	0x3c34b6b4	0.011029888
25	0xba458e9a	-0.0007536203
26	0x3d6a386c	0.057182714
27	0x3d8210e6	0.06350879
28	0x3d11bd43	0.035580885
29	0xbce1b7f8	-0.027553543
30	0x3bca25d7	0.0061690616
31	0xbdc8952e	-0.09794079
32	0xbbc48716	-0.005997549
33	0x3ddaa764	0.106764585
34	0xbd73f30e	-0.059557967
35	0xbc2b6f7b	-0.010463591
36	0x3da1e64d	0.079052545
37	0xbd35d5ab	-0.044393223
38	0xbc08a72d	-0.008340639
39	0x3b4bc7e8	0.0031094495

dec2.kernel1 f4 [1, 8, 4, 2]
0	0x3daa3f5d	0.08312867
1	0xbe2df91e	-0.16989562
2	0x3d3cd1af	0.046098407
3	0x3e1c2c12	0.15251186
4	0xbe28e18e	-0.16492292
5	0x3babb480	0.005240023
6	0x3d62ffa4	0.05541958
7	0xb918742c	-0.00014539127
8	0xbdc0e8ee	-0.09419428
9	0xbd569810	-0.05239111
10	0x3e08f055	0.1337293
11	0x3d4d5551	0.050130192
12	0x3d164ba8	0.036693245
13	0xbdf2da14	-0.11858001
14	0xbd07fc27	-0.033199456
15	0xbcb4dff4	-0.022079445
16	0xbcd1df78	-0.025619254
17	0xb9f73023	-0.00047147376
18	0xbce4b36f	-0.027917592
19	0xbd3352d5	-0.043780167
20	0x3caefba9	0.021360235
21	0xbcc05cd8	-0.023481771
22	0x3c598d6a	0.013278345
23	0x3e633bfa	0.22190848
24	0xbc20e5a3	-0.009820375
25	0xbb4ead29	-0.0031536317
26	0xbd645a6b	-0.05575029
27	0xbd2df220	-0.042467237
28	0xbd51c351	-0.05121166
29	0x3c6bfe10	0.014403835
30	0xbca1f3b1	-0.019769521
31	0xbbac9c3c	-0.005267648
32	0x3d942a3e	0.072346196
33	0x3db535dc	0.088481635
34	0xbd8df66e	-0.06931768
35	0xbc71c0a6	-0.014755404
36	0x3d132870	0.035927236
37	0xbdb959ec	-0.09050354
38	0xbab4a2ab	-0.0013781389
39	0x3d2c01c6	0.04199388
40	0x3cb9a053	0.022659456
41	0x3c346f01	0.0110127935
42	0x3dc13d44	0.094355136
43	0x3ca3ea4d	0.020009184
44	0x3d0788fe	0.03308963
45	0x3cf18942	0.029484395
46	0x3b9ef43e	0.0048508933
47	0x3c23c626	0.009995973
48	0x3b57b4ce	0.0032914164
49	0xbc1bd5dd	-0.009511438
50	0xbdf5e6a3	-0.12006881
51	0xbd8e4609	-0.06946952
52	0xbd3ad648	-0.04561451
53	0x3e978ff7	0.29602024
54	0xbd93a398	-0.072089374
55	0xbc31a8c5	-0.01084346
56	0x3a562236	0.000816855
57	0xbd53c178	-0.051698178
58	0xbb637b08	-0.0034710784
59	0x3d6f42ef	0.058413442
60	0xbd85f13e	-0.06540154
61	0x3d8e2d58	0.069422424
62	0x3b6bcd88	0.003598066
63	0xbc2e447d	-0.010636446

dec2.kernel2 f4 [1, 8, 3, 2]
0	0xbc90b8a6	-0.017666172
1	0x3d53309f	0.05156004
2	0x3c93524f	0.017983584
3	0x3c9338e7	0.01797147
4	0x3c693aad	0.014235181
5	0x3c2107cb	0.009828518
6	0xbd3c9284	-0.046038166
7	0xbb68910e	-0.003548685
8	0xbc940ee7	-0.018073512
9	0xbccaf263	-0.024773782
10	0xbd471918	-0.048607916
11	0x3c420462	0.011841865
12	0xbce4bb02	-0.027921204
13	0xba7eea04	-0.0009724202
14	0x3d2d39bb	0.042291384
15	0xbd17d620	-0.03706944
16	0x3cd28da0	0.025702298
17	0x3be4a342	0.0069774697
18	0x3df9c3d4	0.121955544
19	0x3bfbe50b	0.007687216
20	0x3d4531ed	0.048143316
21	0x3bdb29f4	0.006688351
22	0xbd3e55a3	-0.04646839
23	0xba960730	-0.0011446234
24	0x3ca39b2e	0.019971456
25	0x3c3310b4	0.010929275
26	0xbcd0d2fa	-0.025491226
27	0x3d64da3a	0.05587218
28	0x3b5b300f	0.0033445393
29	0xbd0f86ea	-0.035040773
30	0x3c46636c	0.012108665
31	0xbc4a552a	-0.012349406
32	0x3cfc4016	0.030792277
33	0x3ca68254	0.020325817
34	0xbbbd8cf6	-0.005784626
35	0xbc10d86b	-0.008840661
36	0x3c98d6cd	0.018657112
37	0xbd67d6f5	-0.056601483
38	0xbb481458	-0.0030529704
39	0x3cedc699	0.029025363
40	0xbbf840f2	-0.0075761015
41	0xbd98c8fe	-0.07460211
42	0xbc2b3080	-0.010448575
43	0xbd03adb4	-0.032148078
44	0xbc38ec34	-0.011286784
45	0xbd1ce045	-0.038299818
46	0x3cb4732f	0.02202758
47	0x3b15258e	0.002275798

exp_avg f4 [8, 1, 5, 1]
0	0x362fd7a7	2.6202558e-06
1	0x3505936b	4.976088e-07
2	0x3656e87a	3.2023804e-06
3	0x3714068e	8.823014e-06
4	0x3719d8bd	9.169974e-06
5	0x36f8d6e4	7.4159925e-06
6	0xb76f0639	-1.4246959e-05
7	0x34ce12f8	3.8384292e-07
8	0xb74bd069	-1.2148267e-05
9	0xb7862ccd	-1.5994907e-05
10	0xb78b2567	-1.6587508e-05
11	0xb6e09861	-6.6934595e-06
12	0xb7888a29	-1.62768e-05
13	0xb5b8ce3d	-1.3769092e-06
14	0xb600e9e9	-1.920964e-06
15	0xb932f245	-0.00017065655
16	0xb8bf5ac5	-9.124497e-05
17	0xb7a065ae	-1.9120835e-05
18	0x38d468d6	0.00010128475
19	0x38efa7ab	0.00011427639
20	0xb84a543e	-4.823901e-05
21	0xb79a1833	-1.83695e-05
22	0x378720a9	1.6108463e-05
23	0x3795a3e0	1.7838494e-05
24	0x37af0f4a	2.0868745e-05
25	0xb7c198ea	-2.3078599e-05
26	0xb7ee91bd	-2.8439676e-05
27	0xb79199a0	-1.7356884e-05
28	0xb733b083	-1.0710329e-05
29	0xb670dbcd	-3.5890728e-06
30	0xb7c28b89	-2.3191578e-05
31	0xb7f4669c	-2.9134848e-05
32	0xb8133843	-3.509993e-05
33	0xb7794915	-1.4858572e-05
34	0xb7d1340d	-2.493898e-05
35	0xb7b139e2	-2.1126998e-05
36	0xb76e5fed	-1.420824e-05
37	0xb781d668	-1.5477839e-05
38	0xb6504ce4	-3.1039172e-06
39	0xb5f67163	-1.8361428e-06

exp_avg_sq f4 [8, 1, 5, 1]
0	0x30bc5dd6	1.370547e-09
1	0x302698e8	6.060774e-10
2	0x306120ef	8.1901325e-10
3	0x311c9927	2.2788045e-09
4	0x31f51a6c	7.1334423e-09
5	0x33380743	4.2847443e-08
6	0x32ec585e	2.75142e-08
7	0x3232d4b2	1.0409325e-08
8	0x317d43c0	3.6854857e-09
9	0x30eff237	1.745838e-09
10	0x3278513a	1.4453969e-08
11	0x32a70bb7	1.9446686e-08
12	0x3308a75d	3.1817184e-08
13	0x33764e6a	5.7347656e-08
14	0x33972542	7.0382626e-08
15	0x35a9ea38	1.2659648e-06
16	0x35bbe123	1.3998109e-06
17	0x35c00730	1.4307207e-06
18	0x35beadb5	1.4206659e-06
19	0x35b5dc94	1.3549748e-06
20	0x33f1c428	1.12581176e-07
21	0x341938fe	1.4269969e-07
22	0x340a95f9	1.2906811e-07
23	0x33c55807	9.1895394e-08
24	0x33894be3	6.393363e-08
25	0x33d5939d	9.945436e-08
26	0x33c7ec99	9.3096965e-08
27	0x33c29bf0	9.062194e-08
28	0x33aff4b2	8.193582e-08
29	0x33a825a5	7.829957e-08
30	0x34b9c09c	3.4599077e-07
31	0x348eb16c	2.6578653e-07
32	0x3416066f	1.3972179e-07
33	0x3364f2bf	5.3306163e-08
34	0x330a02bd	3.213312e-08
35	0x33629513	5.2755308e-08
36	0x3354ea52	4.957321e-08
37	0x336d058c	5.5185907e-08
38	0x33890594	6.380574e-08
39	0x33949e08	6.920533e-08

exp_avg f4 [8, 1, 4, 2]
0	0x35b9014b	1.378395e-06
1	0x37958b7a	1.7827133e-05
2	0xb5a400c1	-1.2219172e-06
3	0x372e31ec	1.03828315e-05
4	0xb7019434	-7.723505e-06
5	0x379a4446	1.8390023e-05
6	0xb6c7e958	-5.957827e-06
7	0x378c47c6	1.6722723e-05
8	0xb83d62a8	-4.5152992e-05
9	0x36fb64e9	7.4921304e-06
10	0xb831033c	-4.22031e-05
11	0x36bff810	5.721122e-06
12	0xb81e3230	-3.7716876e-05
13	0xb6dd527d	-6.595916e-06
14	0xb7a2c1d4	-1.9402163e-05
15	0x3554f4f6	7.933262e-07
16	0xb7d2e81c	-2.5142035e-05
17	0xb73d79b0	-1.129361e-05
18	0xb7a12a3b	-1.921236e-05
19	0xb6e9171b	-6.946631e-06
20	0xb70b9b8b	-8.321261e-06
21	0xb75d2ee7	-1.3183547e-05
22	0x37651fde	1.3656883e-05
23	0xb75084e6	-1.2428709e-05
24	0xb9009b97	-0.00012264993
25	0xb91a8615	-0.00014736534
26	0xb8dfd6c1	-0.0001067347
27	0xb833ed47	-4.2897907e-05
28	0x36277be0	2.4957044e-06
29	0x388525f7	6.349006e-05
30	0x38a75ef4	7.980867e-05
31	0x39226d6f	0.00015490291
32	0xb82190fe	-3.8520426e-05
33	0xb7cd47d4	-2.4471352e-05
34	0xb76fde3f	-1.4297256e-05
35	0xb79a1e58	-1.837236e-05
36	0xb6a3fb73	-4.887051e-06
37	0x35723bdf	9.023915e-07
38	0x37698ea8	1.3921097e-05
39	0x37ec3587	2.8158318e-05
40	0xb8104e72	-3.4405333e-05
41	0xb82b57d4	-4.0851373e-05
42	0xb7a78bbf	-1.9973026e-05
43	0xb7c8a194	-2.3917099e-05
44	0xb64c9513	-3.0485141e-06
45	0xb745d105	-1.1790781e-05
46	0x357e6b4a	9.47785e-07
47	0xb4d4a062	-3.960477e-07
48	0xb847a31b	-4.75972e-05
49	0xb894ca85	-7.094912e-05
50	0xb7ea3a0d	-2.7922006e-05
51	0xb7939213	-1.7591787e-05
52	0xb7c2e78c	-2.3234425e-05
53	0xb7dea8b2	-2.6543017e-05
54	0xb7b6c422	-2.1787422e-05
55	0x3731d734	1.0600128e-05
56	0xb7ba3fc2	-2.2202617e-05
57	0xb7d2d371	-2.513241e-05
58	0xb6b294fe	-5.3221584e-06
59	0xb616428d	-2.239048e-06
60	0xb640ae98	-2.8711856e-06
61	0xb61971fd	-2.2865127e-06
62	0x368292e9	3.8914045e-06
63	0x3734af04	1.0769585e-05

exp_avg_sq f4 [8, 1, 4, 2]
0	0x3042427c	7.067127e-10
1	0x31186611	2.217693e-09
2	0x301e83d7	5.766742e-10
3	0x313589df	2.6417337e-09
4	0x30632cb6	8.2645657e-10
5	0x3193e75a	4.3045647e-09
6	0x315ecbc5	3.2421081e-09
7	0x31fdd752	7.387748e-09
8	0x339bb508	7.250679e-08
9	0x325c3636	1.28180115e-08
10	0x3351d025	4.885091e-08
11	0x31cd9b62	5.9839502e-09
12	0x32bac0b5	2.1740883e-08
13	0x310e624d	2.0719597e-09
14	0x31dcfcd2	6.431585e-09
15	0x3084f6bf	9.674394e-10
16	0x3295791f	1.7400962e-08
17	0x328976ed	1.600298e-08
18	0x32e0de61	2.6178158e-08
19	0x32cc557c	2.37876e-08
20	0x33430d38	4.5413998e-08
21	0x332df66a	4.0503814e-08
22	0x339cdbea	7.304318e-08
23	0x3381123c	6.0103474e-08
24	0x35a37621	1.2178826e-06
25	0x35bae6be	1.3925235e-06
26	0x35beb6c3	1.4209294e-06
27	0x35c96a6d	1.5006641e-06
28	0x35b83df0	1.3727094e-06
29	0x35c65076	1.4775567e-06
30	0x35ac97b2	1.2859148e-06
31	0x35c4dab1	1.4666786e-06
32	0x34093389	1.2777868e-07
33	0x33d7c263	1.00470764e-07
34	0x3413aad0	1.3752583e-07
35	0x33e44226	1.062911e-07
36	0x33f0ee7c	1.1219251e-07
37	0x33b897c5	8.5957744e-08
38	0x33aaab94	7.947452e-08
39	0x338bd237	6.51093e-08
40	0x33bad77f	8.7004985e-08
41	0x33cfb6c4	9.6724335e-08
42	0x33a07608	7.4720504e-08
43	0x33cfa828	9.669776e-08
44	0x3393642e	6.8634435e-08
45	0x33d3381e	9.835661e-08
46	0x338c2862	6.5266036e-08
47	0x33cbd6ad	9.4919734e-08
48	0x3496ae3c	2.806645e-07
49	0x34b418a7	3.354555e-07
50	0x34331d8f	1.6681427e-07
51	0x348b6da6	2.5970547e-07
52	0x33a01d5e	7.4559225e-08
53	0x3416ba34	1.4037579e-07
54	0x33155fd6	3.4778928e-08
55	0x33900ee7	6.708233e-08
56	0x32e6d6ba	2.687317e-08
57	0x33aff15a	8.192974e-08
58	0x32de280b	2.586241e-08
59	0x33c1ba1e	9.0211174e-08
60	0x33098a6f	3.2023703e-08
61	0x33cc62c7	9.517458e-08
62	0x332eec2c	4.072733e-08
63	0x33c8a39c	9.342986e-08

exp_avg f4 [8, 1, 3, 2]
0	0x36abf99f	5.125257e-06
1	0x38095093	3.2738386e-05
2	0xb6560b47	-3.189505e-06
3	0x38353060	4.3198816e-05
4	0xb699b2e8	-4.5805828e-06
5	0x3803d9e7	3.143577e-05
6	0xb8595bbc	-5.1822266e-05
7	0x35ff6bd9	1.9030368e-06
8	0xb82cd258	-4.1203893e-05
9	0x362ae111	2.546298e-06
10	0xb834a7e9	-4.3071723e-05
11	0xb6b90694	-5.5141954e-06
12	0xb74b9ee9	-1.2136742e-05
13	0xb730505b	-1.0509127e-05
14	0xb725214d	-9.84252e-06
15	0xb774c10b	-1.458848e-05
16	0xb6586161	-3.224319e-06
17	0xb7e93798	-2.7801652e-05
18	0xb8ef1592	-0.00011400426
19	0xb7c3dc35	-2.3348353e-05
20	0xb8421e9d	-4.6281715e-05
21	0x37c46ce8	2.3415734e-05
22	0x388a1225	6.5837325e-05
23	0x384c7481	4.8745893e-05
24	0xb7a7cdf3	-2.0003854e-05
25	0xb78eabb7	-1.700768e-05
26	0xb640527d	-2.8658244e-06
27	0xb61577f8	-2.2272561e-06
28	0xb68d240b	-4.2063234e-06
29	0x37397bba	1.1055667e-05
30	0xb7d3fc74	-2.5270718e-05
31	0xb81074cf	-3.4441062e-05
32	0xb7869b21	-1.6046282e-05
33	0xb7a35cf5	-1.94744e-05
34	0xb7a371a1	-1.9484027e-05
35	0xb7035064	-7.826926e-06
36	0xb806074d	-3.195489e-05
37	0xb7ef8c88	-2.855646e-05
38	0xb7b7ad59	-2.1896021e-05
39	0xb7a7ec56	-2.0018004e-05
40	0xb785e6a1	-1.596223e-05
41	0xb7fd827e	-3.0220715e-05
42	0xb7ba8f3b	-2.2239625e-05
43	0xb7f01d95	-2.8624005e-05
44	0xb767cd68	-1.3816498e-05
45	0xb69cfe4d	-4.678767e-06
46	0xb5b4af16	-1.3462002e-06
47	0xb68ad25f	-4.137211e-06
