server_report/ae_hexa/ae_hexa_peak/autoencoder_20251229_180100.pth (torch, 757294 bytes, 51 tensors)

enc1.kernel0 f4 [8, 1, 5, 1]
0.00629283 -0.2978093 0.38073093 -0.03085561 0.0026641586 -0.9154646 -0.26445067 -0.10299859
-0.22705936 -0.34317783 0.07417169 -0.35558978 -0.38888854 -0.48931298 -1.0124134 0.07986708
-0.2623656 -0.22908276 1.0998536 0.06018283 -0.15906298 -0.14548714 -0.020197656 -0.14638492
-0.26266053 -0.22855692 -0.11498 0.08384923 -1.0370924 -0.12700637 -0.033505347 0.45984948
0.20275854 0.11075576 -0.038617365 -0.67732644 -0.15167353 -0.40475547 -0.4992382 0.42066088
00000000: 1634 ce3b 767a 98be 2aef c23e e7c4 fcbc
00000010: 2a99 2e3b e35b 6abf 1466 87be edf0 d2bd
00000020: 4082 68be 01b5 afbe 54e7 973d dd0f b6be
00000030: 661c c7be 3b87 fabe c396 81bf 5a91 a33d
00000040: c954 86be ac94 6abe 01c8 8c3f 4582 763d
00000050: 68e1 22be 95fa 14be 8e75 a5bc eee5 15be
00000060: 717b 86be d30a 6abe a27a ebbd 25b9 ab3d
00000070: 72bf 84bf f50d 02be e73c 09bd 6471 eb3e
00000080: ef9f 4f3e ead3 e23d 3e2d 1ebd 4465 2dbf
00000090: 4e50 1bbe 1c3c cfbe 269c ffbe dd60 d73e

enc1.kernel1 f4 [8, 1, 4, 2]
-0.017412469 -0.061891295 0.057201125 -0.10851734 0.26580736 0.5320591 -0.00239405 0.6351219
-0.34709448 -0.81272656 -0.2700998 -0.24231228 -0.23243919 -0.23633227 -0.33169886 -0.43140772
-0.1227502 -0.13315235 -0.40107366 -0.45733637 -0.36529905 -0.19504498 -0.12685175 -0.7122326
0.019490259 0.11109579 -0.11592772 -0.17012902 0.36785412 -0.55693483 0.17362753 0.051496215
0.021330548 -0.12153416 -0.37596893 0.26797464 0.13617168 -0.31243664 0.078920454 -0.24798322
0.09626964 0.06380926 0.78117347 -0.16805634 0.5232612 -0.5941044 -0.1589266 -0.25320938
0.010173198 0.009029979 0.039247412 0.3075227 -0.14848927 0.21300964 -0.030044815 -0.2005235
-0.07485251 -0.5421598 -0.2101915 0.0365717 -0.11323772 -0.34180072 0.14886852 -0.35689044
00000000: 98a4 8ebc ba81 7dbd ba4b 6a3d 573e debd
00000010: e717 883e 0635 083f 7ee5 1cbb 5997 223f
00000020: 5eb6 b1be d90e 50bf 854a 8abe b620 78be
00000030: 8a04 6ebe 1601 72be 6fd4 a9be 79e1 dcbe
00000040: 7564 fbbd 1759 08be 8759 cdbe fe27 eabe
00000050: 7a08 bbbe dfb9 47be 6de5 01be e054 36bf
00000060: 09aa 9f3c 3186 e33d 836b edbd 4d36 2ebe
00000070: 6057 bc3e 4893 0ebf 6acb 313e b2ed 523d
00000080: 67bd ae3c e7e6 f8bd 007f c0be f933 893e
00000090: 9770 0b3e b2f7 9fbe 0ca1 a13d 50ef 7dbe
000000a0: 0429 c53d 6eae 823d fcfa 473f f616 2cbe
000000b0: 72f4 053f 3a17 18bf a8bd 22be a9a4 81be
000000c0: 7cad 263c 7af2 133c e5c1 203d 9e73 9d3e
000000d0: 920d 18be 331f 5a3e 8b20 f6bc 0856 4dbe
000000e0: 464c 99bd fcca 0abf 713c 57be 35cc 153d
000000f0: 2ee9 e7bd 8100 afbe fd70 183e 58ba b6be

enc1.kernel2 f4 [8, 1, 3, 2]
0.078586146 0.10072092 -0.054689717 0.061598487 0.03529652 0.24888916 -0.30808583 -0.3558414
-0.41974378 -0.40165976 -0.27426526 -0.31334156 0.29902312 0.06220258 0.106861964 -0.27234682
0.27807444 -0.19952331 -0.0060025817 0.017679151 0.227165 0.0018381934 -0.065840736 0.06402018
-0.096686244 0.16919467 -0.07479314 0.012022059 0.09784891 -0.29901543 -0.22083339 -0.013315982
0.16309078 -0.025877576 -0.002285866 -0.106094755 -0.12030437 -0.074853525 -0.055327933 0.033828292
-0.031112216 -0.11773164 -0.26500073 -0.59786314 0.07604419 -0.28239262 0.036311846 -0.0043189055
00000000: c6f1 a03d c546 ce3d 5302 60bd b24e 7c3d
00000010: 1593 103d cddc 7e3e 6dbd 9dbe d830 b6be
00000020: a8e8 d6be 59a6 cdbe 7f6c 8cbe 4e6e a0be
00000030: 8f19 993e 22c8 7e3d 72da da3d 0b71 8bbe
00000040: c65f 8e3e d74f 4cbe 4eb1 c4bb ded3 903c
00000050: f19d 683e 89ef f03a 82d7 86bd 031d 833d
00000060: 7003 c6bd 5e41 2d3e 252d 99bd 2cf8 443c
00000070: 0265 c83d 8d18 99be 2622 62be 472b 5abc
00000080: 4501 273e 36fd d3bc 78ce 15bb 3548 d9bd
00000090: 2362 f6bd ce4c 99bd 8b9f 62bd 898f 0a3d
000000a0: 0cdf febc 491d f1bd 2dae 87be 8f0d 19bf
000000b0: 0ebd 9b3d c495 90be bbbb 143d 9b85 8dbb

enc1.bias_tensor f4 [8]
0.0013180526 0.37807578 0.2823998 -0.06220101 0.000842357 0.014683841 0.74611056 0.10208851
00000000: 82c2 ac3a 2693 c13e b596 903e 7cc6 7ebd
00000010: 9fd1 5c3a 7e94 703c 1a01 3f3f c813 d13d

enc2.kernel0 f4 [4, 8, 3, 1]
0.032269284 0.38154194 -0.013190766 0.0062311366 -0.70163435 -0.12015302 -0.005977109 -0.34057754
0.04708841 0.019630644 0.061417364 -0.03880066 -0.06796315 0.2789813 -0.105178766 -0.048133083
0.019706903 0.0132661825 -0.06654373 0.46493074 0.041868877 0.06572468 -0.28306207 -0.1117961
0.36972174 -0.110551305 -0.011488797 -0.633531 0.037984975 -0.106399804 -0.43788412 0.065443814
0.013643174 0.07962346 -0.09353219 0.05410917 0.25873914 -0.117971495 0.08454101 0.0536454
-0.050525106 0.029139204 0.5237657 -0.0822731 0.02599764 -0.24122672 -0.30993778 0.27794832
0.01874251 -0.087286726 -0.11427152 0.092323765 0.06610076 0.06363803 -0.10437025 0.0951468
0.23455784 0.006348845 -0.074120626 0.009214284 -0.022305219 0.05437987 0.038975067 -0.081563346
-0.08858613 0.045700155 -0.012409297 -0.11112477 -0.1539553 0.029341478 -0.04379755 0.19544692
-0.0973788 0.06282191 -0.056846075 0.04506135 -0.31388056 -0.014929 0.08216268 -0.052453373
0.093835734 -0.052124683 0.056923825 -0.016896322 -0.10510565 0.00039402882 -0.084365934 -0.004058897
0.018819416 -0.029755034 -0.10027424 0.13192876 -0.064388745 0.022609707 0.05074515 0.023611832
00000000: cc2c 043d 7759 c33e 151e 58bc 902e cc3b
00000010: 4f9e 33bf c912 f6bd a0db c3bb 2e60 aebe
00000020: c7df 403d 72d0 a03c c690 7b3d 71ed 1ebd
00000030: 4430 8bbd a3d6 8e3e f767 d7bd 3227 45bd
00000040: 5f70 a13c 675a 593c 1448 88bd 670b ee3e
00000050: b37e 2b3d a99a 863d 83ed 90be 5bf5 e4bd
00000060: 2b4c bd3e b968 e2bd 823b 3cbc 162f 22bf
00000070: 2296 1b3d 24e8 d9bd 5932 e0be 6807 863d
00000080: 9f87 5f3c a011 a33d ce8d bfbd 94a1 5d3d
00000090: 7579 843e 0a9b f1bd d623 ad3d 47bb 5b3d
000000a0: 6af3 4ebd 57b5 ee3c 8215 063f cd7e a8bd
000000b0: 01f9 d43c 2304 77be 2ab0 9ebe 3e4f 8e3e
000000c0: e489 993c 62c3 b2bd 3007 eabd 3e14 bd3d
000000d0: d65f 873d a854 823d 12c0 d5bd 53dc c23d
000000e0: ee2f 703e f909 d03b 8ecc 97bd 82f7 163c
000000f0: 6fb9 b6bc 6dbd 5e3d 52a4 1f3d af0a a7bd
00000100: a56c b5bd 1630 3b3d 5d50 4bbc 6295 e3bd
00000110: 75a6 1dbe 8a5d f03c 0f65 33bd 3d23 483e
00000120: 896e c7bd c6a8 803d 6ed7 68bd 4092 383d
00000130: f4b4 a0be c498 74bc e844 a83d 59d9 56bd
00000140: f32c c03d b180 55bd f528 693d 286a 8abc
00000150: a241 d7bd a795 ce39 0cc8 acbd 7f00 85bb
00000160: 2d2b 9a3c d4c0 f3bc 955c cdbd 5518 073e
00000170: 3fde 83bd fe37 b93c 25da 4f3d 9a6d c13c

enc2.kernel1 f4 [4, 8, 2, 2]
-0.011082586 -0.13508965 -0.093357556 -0.058778007 -0.11150199 0.19665962 0.27551714 -0.27530938
0.033635896 0.085512176 0.13680442 0.069566 0.030201996 -0.05491175 0.007921289 0.09052876
-0.004040364 -0.0036534253 -0.067296386 0.042222217 0.021951413 -0.03715425 -0.025801234 0.08401016
0.106934726 -0.18642835 -0.25177914 0.15008071 -0.0383467 0.16765372 0.19512162 0.044730444
-0.029999709 -0.07134629 0.06460722 0.030832848 -0.010185536 0.082156934 -0.070588104 -0.018491004
0.117514566 0.1870719 -0.03795873 0.009316221 -0.023022873 0.024992144 0.07713767 -0.022751454
0.014122471 -0.12776983 0.032405723 0.1107303 0.024201695 -0.011941052 0.09559756 0.0045714406
-0.057490468 -0.17166457 0.08970689 0.061624248 -0.035950046 0.2797322 0.0586409 0.03370724
-0.035601076 0.07403158 0.09634338 0.21791491 -0.13450947 0.05401095 -0.23757897 -0.713257
0.1498113 0.010553619 -0.102915384 -0.1876092 0.03404419 -0.0036902123 0.17036879 0.101683296
0.17433332 -0.09577243 0.14439881 0.41489142 0.1363922 -0.03932473 0.1459813 0.16416323
0.023230806 -0.1256085 0.17812899 0.56178474 0.09228478 0.23407845 0.07293203 -0.32547352
0.14403266 0.031565126 0.21522547 -0.022084314 -0.03321872 -0.026452178 -0.55438673 0.09197877
-0.11338469 -0.02062752 -0.21088523 0.025542246 -0.010030835 0.01316103 0.022575425 -0.025145022
0.09636821 0.026819559 0.18453448 -0.19015497 -0.06487329 0.024185171 0.049466025 -0.06468471
0.06801661 0.07388623 0.42488185 -0.087480105 -0.012402688 -0.04017649 -0.44033602 0.05103464
00000000: bc93 35bc f154 0abe 3f32 bfbd 35c1 70bd
00000010: 285b e4bd 2461 493e 9510 8d3e 5af5 8cbe
00000020: cbc5 093d 0221 af3d 7516 0c3e 9e78 8e3d
00000030: 2d6a f73c 25eb 60bd 4bc8 013c 2467 b93d
00000040: 0865 84bb 4e6e 6fbb b0d2 89bd 34f1 2c3d
00000050: 73d3 b33c 0e2f 18bd 1c5d d3bc 850d ac3d
00000060: 9800 db3d 13e7 3ebe 32e9 80be c2ae 193e
00000070: 6e11 1dbd 6bad 2b3e f6cd 473e 4537 373d
00000080: f3c1 f5bc 011e 92bd ca50 843d 2b95 fc3c
00000090: 3ce1 26bc e541 a83d 7f90 90bd 727a 97bc
000000a0: 7aab f03d c78f 3f3e 9d7a 1bbd 10a3 183c
000000b0: 779a bcbc 53bc cc3c 5bfa 9d3d 4261 babc
000000c0: f061 673c 18d6 02be ddbb 043d 91c6 e23d
000000d0: a242 c63c 67a4 43bc a7c8 c33d 06cc 953b
000000e0: 207b 6bbd d6c8 2fbe 3fb8 b73d b569 7c3d
000000f0: 5b40 13bd 0f39 8f3e 7131 703d 9a10 0a3d
00000100: 6fd2 11bd de9d 973d ae4f c53d 1625 5f3e
00000110: dabc 09be 963a 5d3d e747 73be 0398 36bf
00000120: 2268 193e 16e9 2c3c 4dc5 d2bd a01c 40be
00000130: ec71 0b3d 7dd7 71bb 2875 2e3e 553f d03d
00000140: 6f84 323e 5624 c4bd 48dd 133e a66c d43e
00000150: 66aa 0b3e f812 21bd 1f7c 153e 681a 283e
00000160: 884e be3c 849f 00be 7267 363e 20d1 0f3f
00000170: ceff bc3d 43b2 6f3e 635d 953d 77a4 a6be
00000180: 4c7d 133e 6f4a 013d 1164 5c3e 2aea b4bc
00000190: 5a10 08bd 3db2 d8bc 4aec 0dbf 5e5f bc3d
000001a0: 3b36 e8bd 0bfb a8bc 4cf2 57be f93d d13c
000001b0: 5f58 24bc 5ca1 573c 19f0 b83c effc cdbc
000001c0: b25c c53d b1b4 db3c 9bf6 3c3e fcb7 42be
000001d0: 4adc 84bd fb1f c63c e39c 4a3d 6b79 84bd
000001e0: 4b4c 8b3d aa51 973d 1d8a d93e c528 b3bd
000001f0: a534 4bbc 1a90 24bd b973 e1be b309 513d

enc2.bias_tensor f4 [4]
0.080244906 0.0037522258 -0.021076003 0.068673015
00000000: 7157 a43d e7e7 753b 95a7 acbc 70a4 8c3d

fc_enc.weight f4 [64, 468]
0.00026873444 -0.051450823 0.0815683 -0.015778448 0.060741957 -0.07200043 -0.1358714 0.053296443
-0.2716129 0.0012882052 -0.0104614105 -0.103441775 -0.06179758 0.00028515494 -0.013153439 0.2410091
0.04613547 -0.2627421 -0.08066629 -0.07720288 -0.2072238 0.10872838 -0.16824599 0.07172369
-0.11218943 -0.06741448 0.043565776 0.04256444 -0.12553309 0.012249205 0.06303377 -0.366956
-0.048217017 0.2442728 -0.022344043 -0.020239042 -0.06575114 -0.16925701 -0.090687655 0.42526105
0.07107406 0.15112631 -0.2638544 0.069683425 0.016138824 0.10961382 -0.25270426 0.052643564
0.30320394 -0.1841439 -0.13203573 0.15767711 -0.035339337 -0.15762427 0.24963927 -0.11033969
-0.023899363 0.13962714 0.043279197 0.0070643993 -0.12930489 0.011771049 0.14780882 0.23537278
-0.043985814 -0.19731468 0.006632976 -0.10850709 0.072426096 0.06754972 0.17073974 0.042924814
-0.28786415 0.09217332 0.05084092 0.12997024 -0.34396046 0.077880576 -0.05314071 0.08597206
-0.11805627 0.18998711 0.22104166 -0.027910953 -0.29614827 -0.0065876893 0.122001015 0.17681758
-0.21479699 -0.052177627 -0.098033205 -0.006637087 -0.10241089 0.0631779 -0.04017257 -0.19024487
-0.04565591 0.12498962 0.11587897 0.24599056 -0.1944662 0.30025357 0.20962805 -0.07541996
-0.03219488 -0.11970735 0.120242305 0.11131259 -0.2536736 0.34730563 0.23409659 -0.16694629
0.33601058 -0.039877735 0.0772445 -0.094734654 -0.052314516 0.08364885 -0.02661356 0.050025947
0.26090565 -0.13313633 -0.060419794 0.024969654 -0.15051624 0.08436701 -0.2468913 -0.02546377
-0.02749635 0.11715105 -0.0139794 -0.05654228 -0.16537477 -0.21651214 -0.0031782712 0.07503297
0.17312743 -0.077590376 -0.016560145 0.082327954 -0.012030517 -0.073715545 0.008506968 0.008725158
-0.29464865 0.21198867 0.06454457 0.059029736 0.01777022 -0.20507616 0.28753066 0.11420699
-0.005664049 0.21399002 -0.049712807 0.04842249 0.020320563 -0.031322572 -0.037944894 -0.22203848
0.0458352 -0.19217347 -0.08999182 -0.13553768 -0.039435405 0.15870677 -0.11992752 0.08244051
0.1768476 0.30145374 0.018774038 0.23759195 -0.112808615 0.030784665 -0.1790621 0.3388399
-0.09439016 0.054772485 0.06370231 0.15045993 -0.3812659 0.14962447 0.088778205 0.017080959
-0.015170359 -0.06623724 0.16169025 0.09063031 0.17297447 -0.13466135 -0.015935017 0.07466513
-0.33388367 0.11896334 -0.38133624 -0.048558645 -0.065399855 -0.2452769 0.12807135 -0.03177312
-0.042141657 -0.20914438 0.049095813 0.12670565 0.19979471 0.020137055 0.17731148 -0.20604643
-0.017520553 -0.100311406 0.07291196 -0.11761938 -0.12843771 -0.034171194 0.07274002 -0.056822952
-0.007884344 0.025875386 0.1754288 0.23299761 0.005813658 -0.014683151 -0.009387243 -0.10023333
0.15610822 0.19886859 0.06930407 -0.1793671 -0.19734372 -0.05623611 0.2794732 0.19894578
-0.032798022 -0.004880661 -0.0009364431 -0.10964378 0.0180697 -0.20647277 0.13005309 0.07203378
0.030112205 -0.08790127 -0.009132505 0.057009097 -0.120785214 -0.17897138 -0.018735003 -0.020704696
-0.18348703 -0.043610223 0.20371422 -0.033297047 0.2084687 -0.13808796 0.17878631 0.45329377
00000000: ede4 8c39 19be 52bd 480d a73d ce41 81bc
00000010: 8fcc 783d f674 93bd df21 0bbe 5f4d 5a3d
00000020: d910 8bbe fed8 a83a 5666 2bbc 48d9 d3bd
00000030: 761f 7dbd d980 9539 8681 57bc 17cb 763e
00000040: 8cf8 3c3d 2286 86be 5e34 a5bd 8b1c 9ebd
00000050: 7a32 54be fcac de3d ad48 2cbe dfe3 923d
00000060: 92c3 e5bd 9a10 8abd 0772 323d 0d58 2e3d
00000070: bf8b 00be e4b0 483c d917 813d a8e1 bbbe
00000080: 357f 45bd a622 7a3e db0a b7bc 59cc a5bc
00000090: 89a8 86bd b651 2dbe 73ba b9bd d1bb d93e
000000a0: 478f 913d dbc0 1a3e ed17 87be 2fb6 8e3d
000000b0: 9135 843c 367d e03d 7462 81be c7a0 573d
000000c0: 8c3d 9b3e 3890 3cbe 6034 07be 1c76 213e
000000d0: fbbf 10bd 4268 21be 70a1 7f3e c7f9 e1bd
000000e0: 99c8 c3bc 6bfa 0e3e 8745 313d 7a7c e73b
000000f0: 8068 04be 5cdb 403c 325b 173e 9005 713e
00000100: 782a 34bd dc0c 4abe 6f59 d93b f738 debd
00000110: 2254 943d 8257 8a3d 66d6 2e3e eed1 2f3d
00000120: ee62 93be 5ec5 bc3d 923e 503d eb16 053e
00000130: 961b b0be da7f 9f3d 13aa 59bd 1f12 b03d
00000140: 7cc7 f1bd fb8b 423e bf58 623e 83a5 e4bc
00000150: bfa0 97be 8bdd d7bb abdb f93d ab0f 353e
00000160: bef3 5bbe 35b8 55bd a2c5 c8bd ec7b d9bb
00000170: cdbc d1bd 6a63 813d fe8b 24bd 8dcf 42be
00000180: b101 3bbd 8ffa ff3d f451 ed3d f3e4 7b3e
00000190: 2622 47be d6ba 993e bca8 563e c875 9abd
000001a0: c7de 03bd 2129 f5bd 9941 f63d dbf7 e33d
000001b0: 82e1 81be 0bd2 b13e 04b7 6f3e f8f3 2abe
000001c0: 9409 ac3e d656 23bd 5d32 9e3d 3e04 c2bd
000001d0: bf47 56bd 1750 ab3d ae04 dabc 02e8 4c3d
000001e0: 6d95 853e e454 08be bf7a 77bd 298d cc3c
000001f0: ee20 1abe 9cc8 ac3d 13d1 7cbe 6599 d0bc
00000200: 0740 e1bc e4ec ef3d da09 65bc e198 67bd
00000210: 0158 29be 5cb5 5dbe 8b4a 50bb e3aa 993d
00000220: 5148 313e b4e7 9ebd 24a9 87bc 8f9b a83d
00000230: a51b 45bc 2df8 96bd cf60 0b3c f7f3 0e3c
00000240: 30dc 96be 8f13 593e f22f 843d 2ac9 713d
00000250: da92 913c 7cff 51be 3837 933e 5be5 e93d
00000260: 7d99 b9bb 3320 5b3e a89f 4bbd a956 463d
00000270: 4f77 a63c 194c 00bd 1b6c 1bbd 0e5e 63be
00000280: b1bd 3b3d 1fc9 44be a24d b8bd 64ca 0abe
00000290: 0587 21bd 0784 223e 8f9c f5bd 92d6 a83d
000002a0: 8a17 353e 2558 9a3e 03cc 993c 4e4b 733e
000002b0: 3408 e7bd 1f30 fc3c 0e5c 37be 6c7c ad3e
000002c0: a14f c1bd 1d59 603d 5b76 823d 2b12 1a3e
000002d0: 4935 c3be 2837 193e 59d1 b53d 5eed 8b3c
000002e0: 198d 78bc 64a7 87bd 2192 253e 629c b93d
000002f0: 3820 313e aae4 09be 278a 82bc 08ea 983d
00000300: cdf2 aabe 0da3 f33d 813e c3be 6ee5 46bd
00000310: 5cf0 85bd de29 7bbe 2325 033e 8824 02bd
00000320: bb9c 2cbd f229 56be b118 493d 20bf 013e
00000330: fc96 4c3e 77f6 a43c 2491 353e d6fd 52be
00000340: 4387 8fbc 1170 cdbd de52 953d 6ee2 f0bd
00000350: 2d85 03be 18f7 0bbd b8f8 943d 2fbf 68bd
00000360: 562d 01bc 9ef8 d33c 9ba3 333e ed96 6e3e
00000370: 7f80 be3b 9991 70bc f3cc 19bc 2247 cdbd
00000380: d5da 1f3e 35a4 4b3e 4bef 8d3d 02ac 37be
00000390: 7914 4abe d657 66bd 1c17 8f3e 71b8 4b3e
000003a0: 3857 06bd f4ed 9fbb a27b 75ba eb8c e0bd
000003b0: e806 943c 996d 53be a32c 053e 7286 933d
000003c0: dfad f63c 9505 b4bd 81a0 15bc 5f82 693d
000003d0: 3d5e f7bd 4644 37be 267a 99bc e59c a9bc
000003e0: 06e4 3bbe a2a0 32bd 769a 503e 7c62 08bd
000003f0: d278 553e ee66 0dbe c213 373e 1f16 e83e

fc_enc.bias f4 [64]
0.009706304 -0.011520713 -0.022839721 0.009454612 0.030895442 -0.029180503 -0.010084487 0.000625255
-0.017450456 0.0011315168 0.035206433 0.047538605 -0.015877401 -0.118144594 -0.020299206 0.15518323
0.023765052 0.04575925 -0.17325234 0.050016854 -0.039318968 -0.058785383 -0.02294993 -0.032346204
-7.287325e-05 -0.02181422 0.057739373 0.036155872 0.04375456 -0.024078153 0.0128189735 0.03144289
0.022238353 0.0073541184 0.0434831 -0.0397203 -0.0031029494 -0.019828247 -0.11619573 -0.013102014
0.001207779 -0.16707912 -0.0037488036 0.055602666 0.06963229 -0.03564092 0.16547662 -0.046605106
0.033783745 -0.023338035 -0.03615052 -0.038700737 0.018916326 -0.00744097 -0.045518342 -0.08025618
0.0010780881 -0.00711046 0.016574375 -0.047344364 0.021431511 0.027640993 -0.018583905 0.005390595
00000000: 3107 1f3c 5fc1 3cbc 5e1a bbbc 84e7 1a3c
00000010: 7018 fd3c f30b efbc 6739 25bc 27e8 233a
00000020: 42f4 8ebc 674f 943a 9f34 103d d7b7 423d
00000030: 5311 82bc cbf5 f1bd 854a a6bc 5ae8 1e3e
00000040: edae c23c 0d6e 3b3d 1069 31be 79de 4c3d
00000050: ed0c 21bd f1c8 70bd 7e01 bcbc 747d 04bd
00000060: 87d3 98b8 bcb3 b2bc 1f80 6c3d 2e18 143d
00000070: fb37 333d 8c3f c5bc ac06 523c 43ca 003d
00000080: 352d b63c d1fa f03b 561b 323d c1b1 22bd
00000090: da5a 4bbb d96e a2bc 07f8 edbd d4a9 56bc
000000a0: 574e 9e3a ca16 2bbe 7dae 75bb 9fbf 633d
000000b0: 609b 8e3d 37fc 11bd b472 293e ffe4 3ebd
000000c0: d360 0a3d 682f bfbc 9112 14bd aa84 1ebd
000000d0: 69f6 9a3c 61d3 f3bb 7171 3abd 5a5d a4bd
000000e0: a24e 8d3a ddfe e8bb fcc6 873c 2aec 41bd
000000f0: 2391 af3c 5d6f e23c 463d 98bc 97a3 b03b

fc_dec.weight f4 [468, 64]
-0.20890903 -0.06423193 0.049123954 0.040728003 -0.0070835873 0.02168508 -0.057918917 0.09261403
0.12948842 0.027353298 0.16691129 -0.006985281 -0.1362982 0.20225367 0.01626334 -0.2603069
-0.17016003 -0.11890556 0.16830021 0.23515834 0.016673598 0.13487138 0.09799039 -0.19019105
-0.0761259 0.12970385 0.12451329 0.029182889 0.06011004 -0.048470728 0.09248068 -0.06659514
0.03162613 -0.24548867 0.16920228 0.16049574 0.13485053 0.15596248 0.13833886 -0.02696421
0.058068357 0.045132607 0.042233422 -0.1278174 -0.0032541454 0.0974586 -0.10206703 -0.02616194
-0.030509768 0.05861154 0.034909725 0.08716042 -0.025928551 0.12593918 0.0327229 -0.014883151
-0.10800317 -0.18879554 -0.12068408 -0.0431706 -0.034981932 0.052164502 0.0025136927 0.09018085
-0.29383323 -0.087243244 -0.18341424 -0.12698133 0.32449052 0.124600515 -0.08311733 -0.17254224
-0.016814996 -0.20046875 -0.1317768 -0.07944613 -0.05521378 0.20724076 0.4978409 -0.18599404
0.104923785 -0.0064249644 0.04619294 -0.023909934 -0.039385095 -0.23445703 -0.067378536 -0.021423561
-0.025761861 0.2738533 -0.019958926 -0.01580949 0.11459783 0.25593507 0.08577525 -0.30902824
0.23407035 -0.38208678 -0.12402251 -0.08520963 -0.09213173 0.22298351 0.039939027 0.19210766
-0.088264406 0.017129635 0.03907749 -0.03657902 0.09640375 -0.17715219 -0.32069892 0.12830192
-0.15863037 0.6003173 0.0012344746 -0.054285757 0.085145414 -0.09130158 0.052010857 0.19744676
-0.13213809 0.553844 -0.22230846 0.01585597 -0.4209141 -0.11345921 0.19255772 0.07047144
0.049684633 -0.010594954 0.23040992 -0.08214515 -0.101615004 -0.26776543 0.07998986 0.16538177
-0.012082109 -0.009165327 0.15559326 0.015406229 0.19372131 -0.1407975 0.119656704 -0.14741549
0.12414165 0.0037868645 0.1098619 0.17317817 0.069613874 -0.538153 0.023825344 -0.05475106
-0.5386043 -0.07490516 0.18848617 0.25136113 -0.06746143 -0.21688017 -0.28432444 0.050846435
-0.07889333 -0.042655114 -0.12872985 0.0096226325 0.0030371172 -0.3346594 0.062084015 0.40046927
0.2173734 0.027742306 0.27136257 0.14982167 -0.20804882 0.10319405 0.010915788 0.26230493
0.22573388 0.22429855 0.046782594 0.27468127 0.08241535 0.17227057 -0.028235562 0.20554218
0.09495866 -0.11008001 -0.24861035 0.10379655 -0.2229734 -0.15745096 -0.19576222 0.3076825
-0.39858124 0.20762223 0.18613222 -0.055063494 0.061651096 -0.122857355 -0.43367535 -0.17502174
-0.1618433 -0.07153032 0.18137324 -0.13573228 -0.21675384 -0.13539903 0.2899732 -0.14448893
-0.14925823 -0.1303856 0.13688767 -0.05852866 0.06055315 0.08215143 -0.11895638 -0.223573
-0.06131725 -0.15463348 0.03286357 -0.03835926 0.51920325 -0.21051843 -0.52871424 -0.004596814
-0.005586646 -0.17970982 -0.012792383 0.2968761 0.17755625 -0.10803671 -0.11639992 0.24306373
0.09312867 -0.018945418 0.3295544 0.13741681 0.10031248 0.2599326 -0.11685463 0.20058626
-0.37432867 0.02459366 0.10258567 -0.04742964 0.24519914 0.019738577 0.13805129 0.12310384
0.43657535 -0.14646839 0.15682265 0.21564445 -0.2818182 -0.20393781 0.1688514 -0.263119
00000000: 40ec 55be 088c 83bd 3336 493d 68d2 263d
00000010: 701d e8bb e9a4 b13c 633c 6dbd 6dac bd3d
00000020: 9d98 043e 0614 e03c cbea 2a3e c9e4 e4bb
00000030: c191 0bbe 961b 4f3e b23a 853c f246 85be
00000040: 6e3e 2ebe c284 f3bd e456 2c3e 59cd 703e
00000050: 1297 883c b91b 0a3e 30af c83d 71c1 42be
00000060: e5e7 9bbd 16d1 043e d300 ff3d f410 ef3c
00000070: f235 763d 3e89 46bd 8366 bd3d 0863 88bd
00000080: 678a 013d 6261 7bbe 5d43 2d3e ff58 243e
00000090: 4216 0a3e a1b4 1f3e b4a8 0d3e 0ce4 dcbc
000000a0: 16d9 6d3d f8dc 383d f4fc 2c3d 91e2 02be
000000b0: 8043 55bb 6098 c73d 8508 d1bd 9151 d6bc
000000c0: 9fef f9bc a712 703d 80fd 0e3d 2a81 b23d
000000d0: 1d68 d4bc 33f6 003e 7308 063d 76d8 73bc
000000e0: c430 ddbd 9e53 41be 3729 f7bd a8d3 30bd
000000f0: 3749 0fbd 72aa 553d c4bc 243b bdb0 b83d
00000100: 4f71 96be 96ac b2bd f1d0 3bbe 6507 02be
00000110: 9f23 a63e 8e2e ff3d 6b39 aabd eaae 30be
00000120: 9abf 89bc ae47 4dbe 7ff0 06be a7b4 a2bd
00000130: d827 62bd ec36 543e 01e5 fe3e 3975 3ebe
00000140: 48e2 d63d 8288 d2bb cf34 3d3d c4de c3bc
00000150: 4452 21bd 8115 70be c2fd 89bd 7780 afbc
00000160: 8a0a d3bc 8036 8c3e e780 a3bc e782 81bc
00000170: 44b2 ea3d ec09 833e efaa af3d f338 9ebe
00000180: 23b0 6f3e e1a0 c3be 84ff fdbd 6382 aebd
00000190: 8faf bcbd ca55 643e 1b97 233d dfb7 443e
000001a0: f8c3 b4bd 7353 8c3c b80f 203d e2d3 15bd
000001b0: 546f c53d 6267 35be a632 a4be 9461 033e
000001c0: 0070 22be 65ae 193f 18ce a13a be5a 5ebd
000001d0: b860 ae3d 53fc babd 5609 553d 7c2f 4a3e
000001e0: 354f 07be b8c8 0d3f d4a4 63be 61e4 813c
000001f0: 0e82 d7be 4d5d e8bd da2d 453e 5553 903d
00000200: 1d82 4b3d 7596 2dbc 94f0 6b3e b73b a8bd
00000210: 871b d0bd 8d18 89be b9d1 a33d d759 293e
00000220: 0af4 45bc 2b2a 16bc d753 1f3e 686a 7c3c
00000230: e15e 463e 382d 10be 930e f53d 16f4 16be
00000240: fa3d fe3d 0b2d 783b 47ff e03d 9e55 313e
00000250: b891 8e3d 65c4 09bf 5e2d c33c a642 60bd
00000260: f9e1 09bf e067 99bd 8502 413e 68b2 803e
00000270: 3829 8abd d615 5ebe f992 91be 5a44 503d
00000280: d492 a1bd 21b7 2ebd c2d1 03be 3fa8 1d3c
00000290: 5f0a 473b 7a58 abbe cf4b 7e3d 4f0a cd3e
000002a0: 2297 5e3e d543 e33c 09f0 8a3e da6a 193e
000002b0: c00a 55be 6757 d33d 22d8 323c d54c 863e
000002c0: c826 673e 85ae 653e 1b9f 3f3d 06a3 8c3e
000002d0: 61c9 a83d b267 303e 444e e7bc a679 523e
000002e0: b079 c23d a171 e1bd b693 7ebe 4993 d43d
000002f0: 2453 64be d33a 21be e475 48be 9088 9d3e
00000300: d712 ccbe ec9a 543e 7299 3e3e 428a 61bd
00000310: dc85 7c3d a39c fbbd b20a debe e638 33be
00000320: 40ba 25be 7d7e 92bd e8b9 393e 67fd 0abe
00000330: b8f4 5dbe 0ba6 0abe 5e77 943e e8f4 13be
00000340: 26d7 18be cd83 05be 482c 0c3e c0bb 6fbd
00000350: 9406 783d 023f a83d 679f f3bd 52f0 64be
00000360: cc27 7bbd 3d58 1ebe f39b 063d 991e 1dbd
00000370: 81ea 043f 2592 57be d159 07bf dfa0 96bb
00000380: 2f10 b7bb da05 38be 2597 51bc 2500 983e
00000390: 4ed1 353e 5a42 ddbd 1563 eebd b3e5 783e
000003a0: 3eba be3d 6c33 9bbc 5bbb a83e feb6 0c3e
000003b0: a170 cd3d e315 853e 7b51 efbd 7c66 4d3e
000003c0: 02a8 bfbe a578 c93c 7018 d23d 9545 42bd
000003d0: 7c15 7b3e ccb2 a13c 515d 0d3e de1d fc3d
000003e0: ce86 df3e cffb 15be 1e96 203e e6d1 5c3e
000003f0: 7a4a 90be 13d5 50be 62e7 2c3e 89b7 86be

fc_dec.bias f4 [468]
-0.032141972 -0.1433473 -0.24051715 -0.17533533 -0.2967384 -0.2580497 -0.09534567 -0.17549355
-0.04024421 -0.044822738 -0.28452417 -0.2206533 -0.06940867 0.012291137 -0.0878995 -0.27139986
-0.059871793 -0.09560737 -0.10127837 -0.229387 -0.21819496 -0.17084348 -0.12725027 -0.43453148
-0.41776732 -0.15309036 0.063458376 -0.028678184 -0.32641625 -0.21604505 -0.14899907 -0.1415726
-0.15755114 -0.2531522 -0.19798395 -0.16378088 -0.10240426 -0.1681348 -0.3423813 -0.028212462
-0.22376534 -0.16969533 -0.29741088 -0.24642834 -0.115833476 -0.12696028 -0.030186702 -0.09964212
-0.119097985 -0.15802367 -0.205981 -0.41235423 -0.2468881 -0.15314405 -0.15198281 -0.14200065
-0.22994806 -0.17290202 -0.17572221 -0.1875729 -0.121156864 -0.15406232 -0.12605973 -0.101443455
0.043920126 -0.16230352 -0.12600887 -0.19319098 -0.09390236 -0.066985406 -0.1355639 -0.16604383
-0.2045736 -0.28285453 -0.14508992 -0.10709119 0.010414639 0.19574426 0.100402944 -0.18634918
-0.06302432 -0.21215007 -0.25219956 -0.20845526 -0.24452558 -0.20408547 -0.17914231 -0.15091343
0.070817456 -0.145567 -0.27183685 -0.19121307 0.034503963 -0.1904236 -0.13912618 -0.085011825
-0.26119474 -0.14147721 -0.19653791 -0.13832512 -0.07723148 0.088392556 -0.29347968 -0.0960433
-0.044646822 -0.36168188 0.010474275 -0.14127369 0.06738255 -0.076081485 0.09839447 -0.12905876
-0.016842851 -0.047350418 0.17712994 -0.44908231 -0.13372365 0.12354167 -0.081548356 0.28567597
0.375602 0.19084162 0.29510975 0.2791182 0.26547822 0.32868937 0.25983584 0.23139445
0.42978927 0.15110214 0.51147074 0.31738016 0.32114688 0.35017428 0.25550392 0.24466866
0.41485253 0.27764195 0.3402473 0.30617234 0.3232395 0.50874436 0.29694852 0.437844
0.21518987 0.39855108 0.27243447 0.27704155 0.28602168 0.260866 0.25367576 0.26515934
0.30712062 0.30903444 0.16869259 0.4034694 0.3124695 0.31226936 0.25871643 0.3914988
0.3106185 0.3602335 0.25688243 0.22309414 0.35459787 0.25677708 0.41732374 0.2525025
0.014827649 0.24622034 0.38511363 0.20742281 0.19942199 0.29942587 0.25989783 0.2955564
0.20836213 0.26707628 0.3335054 0.34917775 0.35902447 0.14191712 0.14749426 0.19094947
0.33857742 0.2486662 0.23771682 0.19277738 0.2541027 0.28081274 0.2206599 0.20013782
0.29969418 0.2045081 0.21556202 -0.28326336 0.2509441 0.3117427 0.27977958 0.2897621
0.21490794 0.30029234 0.34027374 0.38291907 0.25666004 0.33282834 0.249781 0.35497203
0.2707179 0.20286421 0.24364622 0.29103774 0.22678514 0.18745027 0.30622014 0.18674088
0.31031236 0.29113427 0.16730303 0.28277653 0.3678349 0.16340622 0.15925474 0.06216895
0.15149513 0.21592475 0.31213427 0.1405804 0.39475125 0.21893075 0.40425926 0.23768954
0.344316 0.30750167 0.28990278 0.09227154 0.063162684 0.22722818 0.22659911 0.11055277
0.18393841 0.29141673 0.282092 0.28094012 0.20896313 0.035312552 0.036256015 0.23150846
0.07774323 0.19973402 0.20782796 0.15541157 0.1147157 0.15698908 0.14517945 0.17379843
00000000: 4da7 03bd a2c9 12be 214a 76be 1b8b 33be
00000010: 18ee 97be 171f 84be 9744 c3bd 95b4 33be
00000020: 1dd7 24bd 0c98 37bd 27ad 91be f0f2 61be
00000030: 2226 8ebd c460 493c a704 b4bd ecf4 8abe
00000040: 203c 75bd cccd c3bd 096b cfbd 6de4 6abe
00000050: 806e 5fbe 98f1 2ebe e54d 02be e97a debe
00000060: 99e5 d5be b8c3 1cbe 77f6 813d 83ee eabc
00000070: 0820 a7be ea3a 5dbe 3693 18be 68f8 10be
00000080: 1655 21be 2a9d 81be 4ebc 4abe 2db6 27be
00000090: 53b9 d1bd 872b 2cbe 9a4c afbe d21d e7bc
000000a0: be22 65be 9dc4 2dbe 3d46 98be b657 7cbe
000000b0: 1a3a edbd e001 02be 1a4a f7bc 2b11 ccbd
000000c0: a5e9 f3bd f5d0 21be afec 52be 1820 d3be
000000d0: 3cd0 7cbe cbd1 1cbe 62a1 1bbe 9e68 11be
000000e0: 8177 6bbe 3a0d 31be 86f0 33be 1c13 40be
000000f0: 1721 f8bd 83c2 1dbe cd15 01be 96c1 cfbd
00000100: 97e5 333d e532 26be 7808 01be dbd3 45be
00000110: e14f c0bd a52f 89bd 43d1 0abe 6507 2abe
00000120: be7b 51be 4fd2 90be 7492 14be a052 dbbd
00000130: 29a2 2a3c 2f71 483e 0fa0 cd3d 52d2 3ebe
00000140: e512 81bd de3d 59be 4d20 81be 4c75 55be
00000150: ea64 7abe c8fb 50be 1571 37be 0d89 1abe
00000160: be08 913d 840f 15be 332e 8bbe 5ccd 43be
00000170: 0754 0d3d 67fe 42be 1877 0ebe ae1a aebd
00000180: 51bb 85be 67df 10be 3c41 49be 1aa5 0dbe
00000190: 8a2b 9ebd 2807 b53d f842 96be 5ab2 c4bd
000001a0: 96df 36bd 5e2e b9be 4b9c 2b3c 0daa 10be
000001b0: ddff 893d 9cd0 9bbd 0a83 c93d fb27 04be
000001c0: 05fa 89bc 83f2 41bd 8d61 353e 1eee e5be
000001d0: daee 08be 6a03 fd3d d302 a7bd 1f44 923e
000001e0: e84e c03e fc6b 433e a018 973e 95e8 8e3e
000001f0: c3ec 873e f949 a83e 3409 853e abf2 6c3e
00000200: 570d dc3e 85ba 1a3e bfef 023f a77f a23e
00000210: 5d6d a43e 0b4a b33e 69d1 823e 6c8a 7a3e
00000220: 8d67 d43e 1627 8e3e e534 ae3e 9fc2 9c3e
00000230: a67f a53e 123d 023f a309 983e 172d e03e
00000240: bc5a 5c3e e30e cc3e 887c 8b3e 64d8 8d3e
00000250: 6f71 923e 3a90 853e cae1 813e f7c2 873e
00000260: ea3e 9d3e c339 9e3e c0bd 2c3e 8b93 ce3e
00000270: 01fc 9f3e c5e1 9f3e 7b76 843e 8872 c83e
00000280: 6309 9f3e 8670 b83e 1886 833e ca72 643e
00000290: da8d b53e 4978 833e 75ab d53e 0248 813e
000002a0: abef 723c 2f21 7c3e 9d2d c53e a566 543e
000002b0: 4735 4c3e 594e 993e 5411 853e 2b53 973e
000002c0: e25c 553e 39be 883e 38c1 aa3e 6dc7 b23e
000002d0: 0ed2 b73e b952 113e bc08 173e 4288 433e
000002e0: 055a ad3e 5aa2 7e3e 0a6c 733e 6f67 453e
000002f0: c019 823e b0c6 8f3e abf4 613e eef0 4c3e
00000300: 8471 993e 926a 513e 4abc 5c3e e507 91be
00000310: bf7b 803e bd9c 9f3e 453f 8f3e b35b 943e
00000320: d410 5c3e ebbf 993e 5c38 ae3e f80d c43e
00000330: f268 833e 7a68 aa3e 97c6 7f3e e5be b53e
00000340: 899b 8a3e a3bb 4f3e 657e 793e e602 953e
00000350: 5d3a 683e f7f2 3f3e e3c8 9c3e 0039 3f3e
00000360: 43e1 9e3e 8d0f 953e 7c51 2b3e 16c8 903e
00000370: db54 bc3e f653 273e ad13 233e dea4 7e3d
00000380: 8a21 1b3e 611b 5d3e 10d0 9f3e 4ff4 0f3e
00000390: d61c ca3e 622f 603e 12fb ce3e e364 733e
000003a0: 304a b03e dc70 9d3e 236e 943e dcf8 bc3d
000003b0: 705b 813d 81ae 683e 9909 683e 7e69 e23d
000003c0: 5a5a 3c3e 9334 953e 5d6e 903e 62d7 8f3e
000003d0: 6efa 553e e5a3 103d 3081 143d 8e10 6d3e
000003e0: d837 9f3d 1387 4c3e dad0 543e 3624 1f3e
000003f0: 11f0 ea3d bfc1 203e eca9 143e 37f8 313e

dec1.kernel0 f4 [8, 4, 3, 1]
0.21684381 -0.17305955 0.23748703 -0.46396303 0.07995081 -0.3709444 0.3361451 0.022536257
0.11175254 0.43528715 0.12382675 0.044337075 0.17046489 0.4208265 -0.493196 0.17851238
0.19732758 -0.16063078 -0.027445924 -0.53956336 -0.59116256 -0.07678927 -0.32118568 0.053508256
-0.11300848 0.46621913 -0.4378367 0.04884398 0.22262302 -0.12840849 0.012175929 -0.2519182
-0.49577597 0.032808404 -0.2599756 0.008907522 0.3440192 -0.2639966 0.32302007 -0.46249175
0.1922358 -0.29798657 0.16627127 -0.086198375 -0.07704969 0.32174695 0.18679368 0.29116124
0.1184535 -0.20864026 -0.17913039 -0.28231332 0.33585492 -0.2002832 0.10983916 -0.55104125
0.11057711 0.15152597 -0.004124314 0.2792881 0.5122797 -0.40523314 -0.41811788 0.21292701
-0.2145483 -0.05183471 -0.40433183 -0.8384292 -0.15782005 -0.398849 -0.15218596 -0.017682694
0.37904805 -0.03826959 0.2212304 -0.658987 0.2611463 -0.10417782 0.57350624 -0.20491633
-0.17904569 0.37900385 -0.0055511706 0.3395132 0.38709617 -0.8085372 0.05292749 -0.040740643
-0.34868735 0.05280991 -0.6112839 -0.33394253 0.11322056 -0.3746992 0.11195208 -0.12417362
00000000: 4e0c 5e3e 8636 31be cd2f 733e 908c edbe
00000010: 40bd a33d 6dec bdbe 361b ac3e f59d b83c
00000020: 84de e43d f5dd de3e e198 fd3d cb9a 353d
00000030: 598e 2e3e 9276 d73e 3084 fcbe f3cb 363e
00000040: 3e10 4a3e 657c 24be 46d6 e0bc d320 0abf
00000050: 6e56 17bf b143 9dbd 7372 a4be 792b 5b3d
00000060: fd70 e7bd 46b4 ee3e 222c e0be a010 483d
00000070: 4af7 633e 847d 03be 8c7d 473c 6cfb 80be
00000080: 59d6 fdbe 1b62 063d 861b 85be dbf0 113c
00000090: 4923 b03e 902a 87be e362 a53e b8cb ecbe
000000a0: 76d9 443e b291 98be 0443 2a3e c688 b0bd
000000b0: 3acc 9dbd 04bc a43e d846 3f3e 1613 953e
000000c0: c097 f23d cba5 55be f56d 37be 5f8b 90be
000000d0: 2df5 ab3e 0a17 4dbe 5bf3 e03d 0a11 0dbf
000000e0: 4076 e23d a029 1b3e 4125 87bb dafe 8e3e
000000f0: c324 033f b87a cfbe 8c13 d6be 8a09 5a3e
00000100: 8db2 5bbe a250 54bd 9504 cfbe 4ca3 56bf
00000110: 949b 21be f035 ccbe a3d6 1bbe 4cdb 90bc
00000120: 9612 c23e 93c0 1cbd 398a 623e 5fb3 28bf
00000130: f8b4 853e 2e5b d5bd 4ed1 123f 96d5 51be
00000140: c157 37be cb0c c23e 98e6 b5bb add4 ad3e
00000150: 7831 c63e 4bfc 4ebf 7fca 583d a9df 26bd
00000160: 2687 b2be 344f 583d 1a7d 1cbf 84fa aabe
00000170: 2ee0 e73d 93d8 bfbe 2247 e53d bd4e febd

dec1.kernel1 f4 [8, 4, 2, 2]
-0.061907258 0.32988796 0.12891296 -0.06489145 -0.13266605 -0.081251934 -0.24050614 -0.012235433
-0.06417348 -0.26522103 0.2554889 0.004369433 0.33190137 0.038514517 -0.06615607 0.1365919
-0.227754 0.11983955 0.35543564 -0.0711118 -0.028398314 -0.5740009 0.09920867 -0.19356918
0.022004375 0.032060284 -0.00744733 -0.045956615 -0.0439717 -0.008211172 0.39046884 0.055928685
-0.24059336 0.07815476 0.20852897 0.041723244 -0.012036288 -0.34744084 0.016661085 -0.3153122
0.0010619238 0.054464065 -0.03042228 0.039384834 -0.16167124 0.017127125 0.30022404 0.079890944
0.010719892 0.033260036 0.21826631 0.22893701 -0.2912655 0.025131261 -0.20211186 -0.22315668
-0.09186468 0.031718682 0.12976915 0.16531567 0.26525876 0.5420708 0.25297567 -0.041849267
0.12900072 0.36606216 0.5415496 -0.10200029 -1.0159681 -0.34967265 0.044560485 -0.039069295
0.5929969 0.432188 -0.111999735 -0.2678085 0.13279675 0.36096352 0.5171509 0.22514553
0.03779008 0.0049152854 0.39444986 0.124993674 0.104364194 -0.75916034 0.047039106 0.11855315
-0.1324897 0.22171208 -0.25804648 0.09296071 0.03348196 0.12038907 0.60175836 0.10922271
-0.021048587 -0.15460734 0.15566853 0.09353638 -0.03169453 0.3076204 -0.30946666 -0.22628261
-0.15091017 -0.24963816 0.10852158 0.1965202 0.16301508 0.30671063 0.22672987 0.086131774
0.15350118 -0.022904873 0.19280174 0.2523876 0.11291903 -0.47023335 -0.029443994 0.36274236
-0.3103193 0.31440163 -0.24752527 0.0099509405 0.110668816 0.15627381 0.5406475 0.06590116
00000000: 7792 7dbd 13e7 a83e c201 043e cfe5 84bd
00000010: 9cd9 07be 6a67 a6bd 3e47 76be 2077 48bc
00000020: 636d 83bd 0dcb 87be 71cf 823e 762d 8f3b
00000030: faee a93e 66c1 1d3d d57c 87bd bfde 0b3e
00000040: 5838 69be 706e f53d a9fb b53e 10a3 91bd
00000050: 95a3 e8bc b9f1 12bf ea2d cb3d 0037 46be
00000060: 8542 b43c a551 033d bb08 f4bb 013d 3cbd
00000070: ab1b 34bd 2788 06bc 88eb c73e 7a15 653d
00000080: 1b5e 76be 9a0f a03d 9e88 553e fee5 2a3d
00000090: da33 45bc c4e3 b1be d47c 883c 9a70 a1be
000000a0: 4030 8b3a b615 5f3d 2538 f9bc fe51 213d
000000b0: 258d 25be 2f4e 8c3c f7b6 993e dd9d a33d
000000c0: 7ca2 2f3c ad3b 083d 3481 5f3e 776e 6a3e
000000d0: c020 95be 13e0 cd3c 69f6 4ebe 2f83 64be
000000e0: 8d23 bcbd 73eb 013d 34e2 043e 8348 293e
000000f0: ffcf 873e 27c5 0a3f 0786 813e 236a 2bbd
00000100: c418 043e 806c bb3e ffa2 0a3f 87e5 d0bd
00000110: 3e0b 82bf 4b08 b3be 0e85 363d 2007 20bd
00000120: a5ce 173f bf47 dd3e 1e60 e5bd 321e 89be
00000130: dffb 073e 36d0 b83e 0064 043f 8d8c 663e
00000140: c5c9 1a3d 6710 a13b 55f5 c93e affc ff3d
00000150: e5bc d53d 5558 42bf 14ac 403d fecb f23d
00000160: 61ab 07be 7e08 633e ab1e 84be 2f62 be3d
00000170: 6124 093d 8b8e f63d d60c 1a3f 28b0 df3d
00000180: 166e acbc 6351 1ebe 9267 1f3e 0090 bf3d
00000190: 20d2 01bd 6c80 9d3e 6a72 9ebe a1b6 67be
000001a0: 3288 1abe 25a1 7fbe 9040 de3d 973c 493e
000001b0: 6ded 263e 2d09 9d3e e02b 683e db65 b03d
000001c0: 6a2f 1d3e 00a3 bbbc d26d 453e f338 813e
000001d0: 1842 e73d 6dc2 f0be 8834 f1bc 5eb9 b93e
000001e0: 2ce2 9ebe 40f9 a03e 4477 7dbe 4509 233c
000001f0: 55a6 e23d 3e06 203e e067 0a3f 30f7 863d

dec1.bias_tensor f4 [8]
-0.5305052 -0.6659194 -0.5461464 -0.76226836 -0.8982639 -0.75904053 -0.5501269 -0.6089144
00000000: 30cf 07bf b279 2abf 40d0 0bbf 0524 43bf
00000010: 9ff4 65bf 7b50 42bf 1ed5 0cbf d0e1 1bbf

dec2.kernel0 f4 [1, 8, 5, 1]
0.037241913 -0.15123789 0.10495339 0.060038276 -0.12790671 -0.18185635 0.34947026 -0.23008151
-0.05841228 0.034148607 0.02021477 0.069973014 -0.17878543 0.2399257 -0.10648234 -0.014527428
0.045325033 -0.073715344 -0.2882118 -0.047427382 0.021468967 -0.10731703 0.047473006 0.29821515
-0.20064795 0.07725927 -0.14802478 0.61880344 -0.1942648 0.09213322 0.04667345 0.0019434494
0.09549094 0.19523172 -0.22224714 -0.021139264 0.04858447 -0.34972456 0.37901455 -0.16577269
00000000: fa8a 183d 1bde 1abe cef1 d63d b2ea 753d
00000010: faf9 02be 8d38 3abe c4ed b23e 7d9a 6bbe
00000020: b741 6fbd 69df 0b3d 7299 a53c 034e 8f3d
00000030: 8713 37be 15af 753e 6a13 dabd 7304 6ebc
00000040: bea6 393d 12f8 96bd 7f90 93be 3743 42bd
00000050: b0df af3c 08c9 dbbd 0e73 423d a8af 983e
00000060: a876 4dbe 1c3a 9e3d cf93 17be e769 1e3f
00000070: 5aed 46be 57b0 bc3d a92c 3f3d 57bb fe3a
00000080: c190 c33d d3ea 473e c194 63be 402c adbc
00000090: 8200 473d 190f b3be 320e c23e 51c0 29be

dec2.kernel1 f4 [1, 8, 4, 2]
0.124444366 -0.0507222 -0.07925432 0.111797005 -0.11272145 -0.10830003 0.28321522 0.03908999
0.087737955 0.069794476 0.43987182 -0.030514939 -0.16950381 -0.014636166 0.074318334 0.07736319
0.176884 -0.21328813 -0.41837016 -0.1593233 0.1452551 0.11511679 -0.06282564 -0.10647412
-0.021150494 -0.019533236 0.1113967 -0.0618306 -0.11452167 0.11678797 0.123212926 0.11928945
0.026523808 -0.005137181 -0.044507507 0.055675145 0.16071959 -0.19364892 0.06393798 0.029399635
-0.043824557 -0.0730879 -0.11886465 0.05409551 0.09997108 -0.017228242 -0.061964907 -0.054903187
-0.06162973 -0.05334005 -0.09555036 -0.0075283623 0.38947725 -0.15221295 0.13110498 -0.007906469
0.034381412 0.03809639 0.06870649 -0.04580309 -0.15381289 0.19261432 0.02226575 0.09950018
00000000: b0dc fe3d 15c2 4fbd 1750 a2bd d4f5 e43d
00000010: 81da e6bd 68cc ddbd 9601 913e d31c 203d
00000020: f5af b33d 68f0 8e3d e136 e13e 77fa f9bc
00000030: 6892 2dbe 88cc 6fbc 3634 983d 9870 9e3d
00000040: 1421 353e 3468 5abe 9d34 d6be a625 23be
00000050: c1bd 143e 5ac2 eb3d bbaa 80bd 1a0f dabd
00000060: cd43 adbc 2a04 a0bc f423 e43d 1542 7dbd
00000070: 568a eabd 882e ef3d 0f57 fc3d 074e f43d
00000080: 7548 d93c cc55 a8bb 814d 36bd 9f0b 643d
00000090: ad93 243e e74b 46be eaf1 823d 81d7 f03c
000000a0: 6181 33bd 1caf 95bd 4f6f f3bd 4193 5d3d
000000b0: a3bd cc3d 3e22 8dbc eace 7dbd 2ae2 60bd
000000c0: 756f 7cbd 197b 5abd e8af c3bd 7bb0 f6bb
000000d0: 9069 c73e b6dd 1bbe 6240 063e 228a 01bc
000000e0: 86d3 0c3d f60a 1c3d fdb5 8c3d 059c 3bbd
000000f0: 2081 1dbe b03c 453e aa66 b63c c0c6 cb3d

dec2.kernel2 f4 [1, 8, 3, 2]
-0.08344308 0.017838273 0.111961104 -0.04282992 -0.086309895 0.02541449 -0.12611634 -0.0331734
0.017068438 0.03363465 0.0029423237 -0.016415762 -0.063173845 0.08805858 0.074041374 0.07471417
-0.028541457 -0.03384588 -0.06653148 0.022723611 0.0036313478 0.10981691 -0.119452104 -0.17283013
-0.0042376965 0.021344991 -0.053327627 -0.029287074 0.0058939294 0.04069098 0.054968283 0.039308753
-0.0737585 -0.04418799 0.052507453 0.034766655 0.015630217 0.035622142 -0.009606335 -0.06480993
-0.12151431 0.13691941 -0.037080776 -0.005389014 0.08396087 0.052059837 -0.024040096 -0.20032455
00000000: 35e4 aabd 9221 923c dd4b e53d 6d6e 2fbd
00000010: 3ec3 b0bd 0c32 d03c a424 01be d5e0 07bd
00000020: 1cd3 8b3c 7dc4 093d 00d4 403b 597a 86bc
00000030: 4a61 81bd 0f58 b43d 01a3 973d be03 993d
00000040: c6cf e9bc faa1 0abd a841 88bd de26 ba3c
00000050: e8fb 6d3b b0e7 e03d 4ea3 f4bd 62fa 30be
00000060: 60dc 8abb b1db ae3c 126e 5abd 72eb efbc
00000070: dd21 c13b 96ab 263d 6c26 613d 3702 213d
00000080: b20e 97bd 77fe 34bd 0e12 573d 7b67 0e3d
00000090: f10a 803c 86e8 113d e463 1dbc 12bb 84bd
000000a0: 7fdc f8bd 9a34 0c3e 03e2 17bd 5396 b0bb
000000b0: adf3 ab3d b23c 553d bcef c4bc e121 4dbe

exp_avg f4 [8, 1, 5, 1]
7.3713504e-06 4.619461e-06 5.1040474e-06 1.453999e-05 5.220283e-06 -5.0462694e-07 -4.789414e-07 1.962144e-07
-6.024057e-07 9.509166e-07 -2.5012976e-06 -7.5434275e-07 -3.6013944e-07 -1.2501362e-06 4.8527582e-08 2.971786e-06
2.2669278e-06 2.2767508e-06 5.0058743e-06 2.9768717e-06 1.652329e-06 2.8597954e-06 -1.1046955e-07 1.3196424e-06
3.7686178e-07 -1.1290917e-06 -1.3339046e-06 -1.4493995e-06 -2.3967652e-07 -1.1688742e-07 1.5222877e-05 1.174276e-05
5.23178e-06 2.7942033e-05 1.1853576e-05 7.1480734e-08 1.1751331e-07 9.1534204e-08 -1.1336106e-06 -2.5558364e-08
00000000: 6b57 f736 de00 9b36 6f43 ab36 c8f0 7337
00000010: e429 af36 b375 07b5 9a90 00b5 01af 5234
00000020: 01b5 21b5 7e42 7f35 f7db 27b6 0a7e 4ab5
00000030: 3059 c1b4 5aca a7b5 a46c 5033 e56e 4736
00000040: 8621 1836 48ca 1836 22f8 a736 44c6 4736
00000050: 98c5 dd35 e9ea 3f36 473b edb3 911e b135
00000060: 7d53 ca34 4c8b 97b5 9d08 b3b5 fd88 c2b5
00000070: e4ac 80b4 8a03 fbb3 c265 7f37 c502 4537
00000080: a68c af36 0f65 ea37 b9de 4637 f380 9933
00000090: a05b fc33 7691 c433 9026 98b5 708b dbb2

exp_avg_sq f4 [8, 1, 5, 1]
1.4270264e-09 2.2053022e-09 3.7292036e-09 3.2514587e-09 2.351128e-09 2.7721937e-12 1.3935401e-12 2.0199229e-12
4.190565e-12 7.206351e-11 9.445267e-11 2.5546959e-11 2.2244142e-12 2.1546603e-12 5.796428e-13 8.8958285e-11
1.02878914e-10 1.632439e-10 2.5080038e-10 1.7152908e-10 1.9936995e-11 2.1563145e-11 2.1156634e-11 1.3340556e-11
5.1129066e-12 3.5928635e-11 5.060925e-11 4.2715786e-11 4.916515e-12 5.060079e-12 6.5592483e-09 9.015776e-09
1.0376761e-08 8.286454e-09 5.563258e-09 7.354243e-14 6.969448e-13 1.2171787e-12 1.9526221e-11 1.2433633e-10
00000000: 0721 c430 168c 1731 6c22 8031 4470 5f31
00000010: 7b91 2131 6713 432c 931f c42b b223 0e2c
00000020: 4171 932c 2678 9e2e 20b4 cf2e a3b6 e02d
00000030: 7c87 1c2c e99e 172c aa27 232b 109f c32e
00000040: ae3b e22e 137d 332f 04e1 892f 2599 3c2f
00000050: 1f5e af2d e3ab bd2d 8118 ba2d 86b0 6a2d
00000060: f8e4 b32c 0c04 1e2e f394 5e2e b3dd 3b2e
00000070: 08fc ac2c 2409 b22c c25f e131 cde3 1a32
00000080: 7a45 3232 365c 0e32 ef26 bf31 539a a529
00000090: 2a2c 442b 7c4d ab2b 24c1 ab2d 91b5 082f

exp_avg f4 [8, 1, 4, 2]
8.810187e-06 2.3081295e-06 3.1111026e-06 3.9862753e-06 5.4469683e-06 1.2530589e-05 8.308469e-06 8.125804e-06
-1.0019056e-06 -3.1480042e-07 -4.4445898e-07 -2.482625e-07 3.1674372e-07 5.0082673e-07 -2.9298084e-07 6.3173366e-07
-9.547273e-07 -2.6869293e-06 4.144316e-06 -3.9916255e-08 1.8141246e-06 -3.3929922e-07 1.2924716e-07 1.8817217e-07
4.1322664e-06 3.0972442e-06 2.9934683e-06 2.5329691e-06 1.1924083e-06 4.371403e-06 2.8990137e-06 3.5709932e-06
1.3574299e-06 1.2608164e-06 -4.0753451e-07 -3.7628617e-08 1.9516804e-06 -2.6581654e-07 3.1906688e-07 4.6705786e-08
6.8504926e-07 -3.493457e-07 -1.5130378e-06 -2.908919e-07 -8.399091e-07 -1.6330776e-07 -6.8775813e-07 4.5880915e-07
2.2228838e-05 1.6995404e-05 7.8858775e-06 1.1229951e-05 1.0220071e-05 2.266291e-05 1.899782e-05 1.5679298e-05
6.6189614e-07 -2.9566529e-08 3.7234636e-07 8.826525e-08 5.040928e-07 7.6806955e-08 -3.395571e-07 -1.8748771e-07
00000000: 77cf 1337 5de5 1a36 56c8 5036 d8c1 8536
00000010: 1ac5 b636 783a 5237 9a64 0b37 1054 0837
00000020: 3779 86b5 d701 a9b4 fa9d eeb4 f048 85b4
00000030: ed0c aa34 8d70 0635 fb4a 9db4 6894 2935
00000040: 2e24 80b5 1851 34b6 670f 8b36 6370 2bb3
00000050: d97c f335 ee28 b6b4 30c7 0a34 5f0c 4a34
00000060: e6a7 8a36 40da 4f36 65e3 4836 14fc 2936
00000070: d60a a035 11ae 9236 ad8c 4236 32a5 6f36
00000080: f030 b635 5239 a935 1ecb dab4 1a9d 21b3
00000090: 9df9 0236 8cb5 8eb4 384c ab34 8e99 4833
000000a0: 3ae4 3735 b58d bbb4 9513 cbb5 e12b 9cb4
000000b0: 1d76 61b5 b259 2fb4 619e 38b5 4052 f634
000000c0: 1178 ba37 5a91 8e37 964d 0437 4668 3c37
000000d0: df76 2b37 3b1c be37 825d 9f37 0987 8337
000000e0: 28ad 3135 7cf9 fdb2 e5e6 c734 568c bd33
000000f0: fe50 0735 12f1 a433 5f4c b6b4 3b50 49b4

exp_avg_sq f4 [8, 1, 4, 2]
1.4696202e-09 1.739399e-09 2.269898e-09 2.906912e-09 2.5925386e-09 3.9257784e-09 2.0173496e-09 3.2206993e-09
4.2551258e-11 2.4981516e-12 2.68085e-12 2.2996071e-12 3.695342e-12 4.1415304e-12 3.0561026e-11 2.726068e-11
9.1244526e-11 6.530283e-11 4.4332153e-11 3.243457e-12 3.1996152e-11 2.1486892e-12 3.4095553e-11 5.100994e-13
9.4157376e-11 9.049183e-11 1.4516688e-10 1.0669723e-10 2.1649685e-10 1.4821924e-10 1.8414255e-10 1.6723113e-10
1.9207955e-11 7.715712e-11 1.4596792e-12 1.0834341e-10 3.569572e-11 9.075015e-12 4.239471e-11 4.6937974e-13
5.8337e-11 3.742561e-11 8.3452426e-11 2.6221724e-11 4.9040595e-11 1.1394548e-11 1.4510048e-11 2.0200566e-12
6.3024532e-09 7.2146844e-09 7.764429e-09 9.591819e-09 7.463874e-09 9.869487e-09 5.4554854e-09 7.208398e-09
1.6277665e-11 2.967243e-14 9.805326e-12 6.955966e-13 3.8399724e-11 2.0029536e-12 1.0380523e-10 3.3292927e-11
00000000: aafb c930 a90f ef30 78fc 1b31 f0c2 4731
00000010: 6c28 3231 83e3 8631 97a1 0a31 2453 5d31
00000020: 7524 3b2e b3ca 2f2c e6a5 3c2c 0ad2 212c
00000030: af04 822c 97b7 912c a868 062e 98c9 ef2d
00000040: 1aa6 c82e 3a9a 8f2e 91f9 422e ed3c 642c
00000050: 77b8 0c2e 5833 172c 2ef4 152e 8994 0f2b
00000060: e40d cf2e 5ffe c62e d89c 1f2f 33a1 ea2e
00000070: 720a 6e2f 02f8 222f 8577 4a2f 61df 372f
00000080: 78f4 a82d 99ab a92e 7c6e cd2b eb3f ee2e
00000090: cffd 1c2e 3ca6 1f2d 3374 3a2e 601e 042b
000000a0: d048 802e 7e99 242e 8a83 b72e 13a6 e62d
000000b0: cdae 572e 7b74 482d 7243 7f2d 1b26 0e2c
000000c0: f78c d831 09e5 f731 5264 0532 44c9 2432
000000d0: 773a 0032 768e 2932 f572 bb31 bdad f731
000000e0: 0b2e 8f2d fca1 0529 437f 2c2d 04cb 432b
000000f0: 3fe2 282e 01f2 0c2c 2645 e42e 816c 122e

exp_avg f4 [8, 1, 3, 2]
8.103135e-06 -3.6014355e-06 4.4752455e-06 4.7647677e-06 5.6756353e-06 9.584538e-06 -1.708916e-06 1.0825418e-06
2.1311271e-07 -2.0330956e-06 -4.834943e-07 -1.7938314e-06 2.0621344e-07 -1.3852987e-06 2.2619497e-06 -1.1653235e-06
7.466977e-07 -3.0009428e-06 2.2340182e-06 1.9625015e-06 3.92224e-06 2.6609523e-06 2.8046359e-06 3.2125301e-06
-2.0980709e-08 -9.4828516e-07 3.84614e-08 -5.2264147e-07 1.0901043e-06 -1.062197e-06 -3.3316908e-07 -1.9004877e-07
-1.1413834e-06 5.3158976e-07 -6.3855674e-07 4.510735e-07 1.42887375e-05 1.6962368e-06 1.6289909e-05 1.3777626e-05
1.2054433e-05 2.0799967e-05 1.4328273e-06 3.224598e-08 1.957912e-07 5.200876e-07 -8.402321e-07 -2.876578e-06
00000000: b3f2 0737 31b0 71b6 112a 9636 0be1 9f36
00000010: 5671 be36 47cd 2037 e85d e5b5 da4b 9135
00000020: fad3 6434 5170 08b6 7ac9 01b5 94c3 f0b5
00000030: 856b 5d34 80ee b9b5 00cc 1736 3668 9cb5
00000040: ad70 4835 ce63 49b6 24ec 1536 85b3 0336
00000050: c99b 8336 d092 3236 4737 3c36 d996 5736
00000060: 1139 b4b2 a98d 7eb5 c230 2533 a64b 0cb5
00000070: b34f 9235 d090 8eb5 69de b2b4 3510 4cb4
00000080: a331 99b5 92b2 0e35 4969 2bb5 122b f234
00000090: a9b9 6f37 41aa e335 50a6 8837 7426 6737
000000a0: 653d 4a37 977b ae37 924f c035 d47e 0a33
000000b0: ad3a 5234 269c 0b35 4f8c 61b5 3c0b 41b6

exp_avg_sq f4 [8, 1, 3, 2]
1.3217251e-09 2.001926e-09 1.5108127e-09 2.809885e-09 1.4864703e-09 2.7571267e-09 7.459433e-11 1.0623852e-10
2.217399e-11 2.5064905e-11 5.870559e-11 1.06457586e-10 1.428303e-10 7.520337e-11 9.8778215e-11 3.514562e-11
8.31427e-11 3.424127e-11 1.0908053e-10 8.528771e-11 1.5137344e-10 1.01069715e-10 1.4491562e-10 1.1246018e-10
8.5876905e-12 1.9411357e-10 3.0126943e-11 1.0359141e-10 5.739652e-11 9.7720165e-12 5.2900878e-11 3.140592e-11
5.372516e-11 1.36055125e-11 2.849041e-11 2.7049207e-12 5.071916e-09 6.7205974e-09 5.1855924e-09 7.687889e-09
4.4509543e-09 6.415776e-09 1.6204375e-11 6.2229695e-14 7.5925995e-11 1.8825872e-12 1.05373626e-10 4.4572176e-11
00000000: 11a8 b530 4192 0931 ffa4 cf30 0518 4131
00000010: 864c cc30 e377 3d31 e008 a42e f89e e92e
00000020: 630b c32d 2679 dc2d 4f18 812e 4b1a ea2e
00000030: 280b 1d2f bc5f a52e 3137 d92e 7392 1a2e
00000040: 2ed5 b62e 3e98 162e e1de ef2e b68c bb2e
00000050: d66f 262f 3141 de2e 1f56 1f2f 744d f72e
00000060: 8513 172d 1d6e 552f ec7f 042e c8cc e32e
00000070: bd6e 7c2e 40e9 2b2d 18a9 682e ec1f 0a2e
00000080: 2749 6c2e c859 6f2d b39a fa2d 8557 3e2c
00000090: 0c45 ae31 00eb e631 f42c b231 b213 0432
000000a0: 02ef 9831 c371 dc31 0289 8e2d fa20 8c29
000000b0: 89f6 a62e ad79 042c 14b8 e72e cf07 442e

exp_avg f4 [8]
-1.4907242e-05 4.9891507e-05 -1.9906636e-06 6.552195e-06 -2.2059623e-05 -9.208218e-06 8.465778e-06 3.2013675e-06
00000000: 1e1a 7ab7 9942 5138 5797 05b6 edda db36
00000010: ae0c b9b7 ff7c 1ab7 3d08 0e37 13d7 5636

exp_avg_sq f4 [8]
1.3579391e-08 6.947274e-08 3.4270404e-09 8.7759583e-10 5.5047185e-09 9.430464e-10 2.433149e-08 7.828713e-09
00000000: cb4a 6932 0b31 9533 2281 6b31 513b 7130
00000010: 0424 bd31 7f9c 8130 8301 d132 0b7f 0632

exp_avg f4 [4, 8, 3, 1]
5.4081784e-06 4.0909426e-06 9.277145e-09 -6.240232e-06 -8.161724e-06 -1.0142956e-05 -5.677388e-06 -3.8590706e-06
-7.3864135e-06 7.451265e-06 1.3275215e-05 4.1791094e-07 -1.2615503e-07 8.355484e-08 1.9250645e-06 -1.4345324e-06
-5.805191e-07 2.1871426e-06 -7.760782e-06 -7.302376e-06 -8.771645e-06 -6.917986e-07 -8.3842986e-07 -2.8737538e-06
1.7678376e-05 7.21143e-06 7.4754157e-06 -1.00001635e-05 -8.867416e-06 -1.110892e-05 -4.942275e-06 -1.0164184e-05
-6.910366e-06 8.616678e-06 6.63746e-06 5.623907e-06 3.789608e-07 -1.1498529e-06 2.7736135e-07 -3.2286243e-06
-3.2668765e-07 7.2606485e-06 1.9475347e-05 2.7766512e-06 -2.496829e-06 -4.143652e-06 -7.446025e-07 -2.1765818e-06
1.2615281e-05 2.2357897e-05 1.7088352e-05 7.4853017e-07 -6.935683e-06 -3.454889e-06 1.3678919e-06 -5.9136396e-06
-7.497878e-06 7.0378105e-06 1.6017422e-05 3.7941738e-06 6.4808546e-07 1.3824352e-06 2.2279794e-07 -4.3804803e-07
-1.82373e-06 -7.444163e-07 1.4372803e-07 -5.2400776e-07 1.5228243e-05 1.2858128e-07 -1.2827177e-06 -2.4704007e-06
1.0343067e-05 3.0395737e-05 2.0788259e-05 4.4445333e-06 -2.3379107e-06 8.048274e-06 8.8537345e-06 -1.7243377e-06
4.255984e-06 5.996234e-06 2.3850804e-05 1.0032563e-05 1.0029823e-06 3.8742587e-07 -3.539115e-07 6.6274794e-07
8.385498e-08 7.4624554e-06 2.3355778e-05 1.6585096e-05 5.5720124e-05 2.5248876e-06 1.3547774e-06 3.2764902e-07
00000000: e677 b536 ee44 8936 5161 1f32 2f63 d1b6
00000010: 56ee 08b7 aa2b 2ab7 6480 beb6 2a7d 81b6
00000020: cfd8 f7b6 e105 fa36 9db8 5e37 3e5d e034
00000030: 3b75 07b4 c26e b333 5b30 0136 288a c0b5
00000040: f8d4 1bb5 d3c6 1236 4e34 02b7 ef06 f5b6
00000050: ee29 13b7 0ab4 39b5 7610 61b5 b7da 40b6
00000060: 064c 9437 b6f9 f136 55d5 fa36 60c6 27b7
00000070: 43c5 14b7 7360 3ab7 d2d5 a5b6 d686 2ab7
00000080: 98df e7b6 5a90 1037 59b7 de36 feb4 bc36
00000090: fa73 cb34 a554 9ab5 41e8 9434 58ab 58b6
000000a0: 9c63 afb4 7fa0 f336 fd5e a337 8156 3a36
000000b0: 328f 27b6 b309 8bb6 b2e0 47b5 6411 12b6
000000c0: 38a6 5337 388d bb37 f558 8f37 9aee 4835
000000d0: 10b9 e8b6 8bda 67b6 6898 b735 c76d c6b6
000000e0: 4896 fbb6 5526 ec36 275d 8637 699f 7e36
000000f0: 18f8 2d35 1d8c b935 3b3a 6f34 dd2c ebb4
00000100: e3c6 f4b5 e6d3 47b5 a953 1a34 8aa9 0cb5
00000110: ce7c 7f37 2710 0a34 d829 acb5 29c9 25b6
00000120: 2287 2d37 59fa fe37 7262 ae37 4022 9536
00000130: 00e5 1cb6 1307 0737 808a 1437 cb6f e7b5
00000140: a0ce 8e36 4233 c936 3613 c837 8851 2837
00000150: 369e 8635 68ff cf34 3a01 beb4 b1e7 3135
00000160: c313 b433 0166 fa36 27ec c337 3920 8b37
00000170: 07b5 6938 3d71 2936 ccd5 b535 bde7 af34
