server_report/ae_graph/ae_graph_node_reduce_sag/autoencoder_20260115_125815.pth (torch, 16150 bytes, 24 tensors)

conv1.bias f4 [8]
00000000: 0000 0000 e65c 113b 0000 0000 0000 0000
00000010: 0000 0000 0000 0000 0000 0000 0000 0000
0.0 0.0022180616 0.0 0.0 0.0 0.0 0.0 0.0

conv1.lin.weight f4 [8, 1]
00000000: d0a0 72be b95b 773f cf62 bbbd afe5 debe
00000010: 1b41 b6be 3579 34bf 9db3 e1be a03c 38bf
-0.23694158 0.9662433 -0.091497056 -0.4353461 -0.35596547 -0.7049745 -0.44082347 -0.71967506

pool.gnn.lin_rel.weight f4 [1, 8]
00000000: 67db e33d 68d1 1cc0 1021 713e 8b09 f93c
00000010: 16dc 9ebe 28bb 9cbe 8314 a7bd 4885 78be
0.11125832 -2.4502811 0.23547769 0.030400058 -0.31027287 -0.3061154 -0.08158209 -0.24269593

pool.gnn.lin_root.weight f4 [1, 8]
00000000: 7716 84be a9f6 07c0 c893 833e 7437 223e
00000010: 979a 99be 781a c2bd 1a8d a33e 3fca 9dbd
-0.2579839 -2.12443 0.25698686 0.15841466 -0.30000755 -0.09477705 0.3194359 -0.07704591

conv_latent.lin.weight f4 [1, 8]
00000000: a0b6 3cbe 31bd 45bf 2a2d 013f 98da 9a3d
00000010: 6c70 f23e d186 3b3f 08bf c1be 7afb 2fbe
-0.18429041 -0.7724181 0.5045954 0.07561225 0.47351396 0.7325259 -0.37841058 -0.17185774

decoder.0.weight f4 [8, 1]
00000000: 0ce6 863f cb5d 09bf 70d1 a7bf 55f0 5fbe
00000010: 9aed 98bf 629e 68bf 5764 003f b70a 75bf
1.0538955 -0.5365874 -1.311079 -0.21869023 -1.194751 -0.90866673 0.50153106 -0.95719475

decoder.0.bias f4 [8]
00000000: 80a8 e83e ff91 1cbf 10a3 a8bd 242e af3d
00000010: 69fa cd3e 7868 3e3f d5fb 373f 2d1b ee3e
0.45441055 -0.6116027 -0.08234227 0.085537225 0.4023011 0.74378157 0.7186864 0.46505108

decoder.2.weight f4 [1, 8]
00000000: 7736 90be 4e83 0dbf cb17 b33f be27 313e
00000010: f8c1 5ebd e0b1 33be b111 afbd 698b d63d
-0.28166553 -0.5527848 1.3991636 0.17300317 -0.0543842 -0.17548323 -0.08548296 0.10475809

exp_avg f4 [8]
00000000: 0000 0000 472c 19b9 0000 0000 0000 0000
00000010: 0000 0000 0000 0000 0000 0000 0000 0000
0.0 -0.00014607712 0.0 0.0 0.0 0.0 0.0 0.0

exp_avg_sq f4 [8]
00000000: 0000 0000 16df 2737 0000 0000 0000 0000
00000010: 0000 0000 0000 0000 0000 0000 0000 0000
0.0 1.0005917e-05 0.0 0.0 0.0 0.0 0.0 0.0

exp_avg f4 [8, 1]
00000000: 0000 0000 d26e 05ba 0000 0000 0000 0000
00000010: 0000 0000 0000 0000 0000 0000 0000 0000
0.0 -0.0005090061 0.0 0.0 0.0 0.0 0.0 0.0

exp_avg_sq f4 [8, 1]
00000000: 0000 0000 151b fe37 0000 0000 0000 0000
00000010: 0000 0000 0000 0000 0000 0000 0000 0000
0.0 3.029177e-05 0.0 0.0 0.0 0.0 0.0 0.0

exp_avg f4 [1, 8]
00000000: 0000 0000 7806 642f 0000 0000 0000 0000
00000010: 0000 0000 0000 0000 0000 0000 0000 0000
0.0 2.0738777e-10 0.0 0.0 0.0 0.0 0.0 0.0

exp_avg_sq f4 [1, 8]
00000000: 0000 0000 3309 b91f 0000 0000 0000 0000
00000010: 0000 0000 0000 0000 0000 0000 0000 0000
0.0 7.8365766e-20 0.0 0.0 0.0 0.0 0.0 0.0

exp_avg f4 [1, 8]
00000000: 0000 0000 b320 5d2e 0000 0000 0000 0000
00000010: 0000 0000 0000 0000 0000 0000 0000 0000
0.0 5.0278625e-11 0.0 0.0 0.0 0.0 0.0 0.0

exp_avg_sq f4 [1, 8]
00000000: 0000 0000 85a0 a31d 0000 0000 0000 0000
00000010: 0000 0000 0000 0000 0000 0000 0000 0000
0.0 4.3311714e-21 0.0 0.0 0.0 0.0 0.0 0.0

exp_avg f4 [1, 8]
00000000: 0000 0000 229b 263a 0000 0000 0000 0000
00000010: 0000 0000 0000 0000 0000 0000 0000 0000
0.0 0.0006355514 0.0 0.0 0.0 0.0 0.0 0.0

exp_avg_sq f4 [1, 8]
00000000: 0000 0000 b209 4738 0000 0000 0000 0000
00000010: 0000 0000 0000 0000 0000 0000 0000 0000
0.0 4.7454327e-05 0.0 0.0 0.0 0.0 0.0 0.0

exp_avg f4 [8, 1]
00000000: 2be7 d237 8cef bbb8 05d1 d239 fc33 2138
00000010: 4e89 55b7 58dc 27b8 7e74 a435 347a c137
2.5141597e-05 -8.961474e-05 0.00040210053 3.8433805e-05 -1.2727758e-05 -4.0021114e-05 1.2252856e-06 2.3064298e-05

exp_avg_sq f4 [8, 1]
00000000: 634d 9131 2595 1436 ff1a 9b37 c6a1 9c34
00000010: 15ae eb32 ff96 9934 425b 5f32 a159 e333
4.2288533e-09 2.2140532e-06 1.8490011e-05 2.917497e-07 2.7436764e-08 2.8608335e-07 1.3001058e-08 1.05868146e-07

exp_avg f4 [8]
00000000: 6c69 af38 50fc 9536 fa82 46b9 2c8f b9b8
00000010: 7dfc f137 4504 c038 aa9b 2738 852c 5fb8
8.3642866e-05 4.469919e-06 -0.00018931544 -8.848155e-05 2.8847013e-05 9.156069e-05 3.9960876e-05 -5.3208805e-05

exp_avg_sq f4 [8]
00000000: 62c5 3834 db35 2435 2a18 2737 68e9 7434
00000010: c4fe b832 46a8 7034 37f9 1633 80b5 b133
1.7208143e-07 6.117313e-07 9.959602e-06 2.2809184e-07 2.1536273e-08 2.241296e-07 3.5151256e-08 8.2752194e-08

exp_avg f4 [1, 8]
00000000: d191 6eb9 0ff7 acb8 2c55 bfb9 55cc bfb8
00000010: cacf fab9 a0bc 1aba 8cfd adb9 94c2 edb9
-0.0002275177 -8.2476174e-05 -0.00036493817 -9.1456495e-05 -0.0004783853 -0.0005902741 -0.00033186038 -0.00045349135

exp_avg_sq f4 [1, 8]
00000000: 866b 1735 c58e d734 6635 7a37 21dd 4d35
00000010: 925d af37 aa94 ab37 421b c335 f775 8637
5.640835e-07 4.015075e-07 1.4913594e-05 7.6690236e-07 2.0905198e-05 2.0454016e-05 1.4536565e-06 1.6028976e-05
