server_report/ae_graph/ae_graph_conv_gat/autoencoder_20260115_153034.pth (torch, 22422 bytes, 33 tensors)

conv1.att_src f4 [1, 2, 32]
00000000: 254d 1c3e de31 0e3f 6c88 12bf 87b0 013f
00000010: 5532 1dbe 055b 3bb6 70f6 073f 129b 073f
00000020: e143 a1b7 3ada 64be da9c c73e c716 bb3e
00000030: ace3 8c3e 5c66 b6be c5de 15bf 22a1 07bf
00000040: 0d94 1cbe feb6 c4bd 9f1c 72be e1e5 183e
00000050: 7214 ce3e fda3 423c a28d a639 8719 b0be
00000060: bf0d c4be 5268 05bf 21c2 fd3d e942 363e
00000070: 409e e43e ea17 54be 41f4 983e 5bfa 043f
00000080: 79ed 673e f972 8b3c 5bf0 16be 5931 52be
00000090: e3bb bcbd 10d1 afbe 7527 38be 62c3 6c3e
000000a0: a1f5 d7be 901f 1fbf 3e90 cebe cd08 3bbf
000000b0: ccf8 213e ea46 12bf 7aff 493d 74fe bcbe
000000c0: 57d3 133e 1644 c03e 2c78 2d3e 8493 b3bd
000000d0: a450 d33e e269 fd3e a39d f6be 5a6e 16be
000000e0: 0818 ddbc 3552 59bf 2ad4 e6bd d97c 8fbe
000000f0: fd5d 8e3e 6a5c 0fbe 12c1 1b3e c51c ea3c
0.15263803 0.5554484 -0.57239413 0.50659984 -0.15351231 -2.7918152e-06 0.5311041 0.52970994
-1.9224304e-05 -0.22348872 0.38986856 0.36540815 0.2751745 -0.3562497 -0.58543044 -0.52980244
-0.15290852 -0.096052155 -0.2364373 0.14931442 0.40249974 0.011879918 0.00031767512 -0.34394476
-0.38291737 -0.52112305 0.12390543 0.17798962 0.44651985 -0.20712247 0.2987385 0.5194451
0.22649182 0.017022597 -0.14740126 -0.20526637 -0.09215524 -0.3433919 -0.17983802 0.23121408
-0.42179587 -0.62157536 -0.40344423 -0.73060304 0.15817565 -0.57139456 0.049315907 -0.36912882
0.14436089 0.37551945 0.16940373 -0.08768371 0.4127246 0.49494845 -0.48167142 -0.14690533
-0.026988998 -0.8489106 -0.11270936 -0.2802494 0.27806082 -0.14000097 0.15210369 0.028578172

conv1.att_dst f4 [1, 2, 32]
00000000: 84fd 9abe 51a1 c43e 3a84 913e 3998 88be
00000010: 9e3b bdbe fa94 273d 06d3 c53d 329a d53a
00000020: 279e 4f3e 4db7 8b3d 526e c13e ee8d a73e
00000030: 1304 cc3d c9e4 92be eedd afbe 91e0 aa3c
00000040: 8997 a83d 2148 da3e 9458 c03e 8c60 e23d
00000050: 1bee 663e 3d26 d5bd 82c9 bdbe a8f7 aabe
00000060: 2957 d1be 01ec 90bc 7d6f af3e f8b2 5d3e
00000070: a147 41be b3d2 993e 0391 963e 7251 c73e
00000080: 2fd3 c3be 5b7a fcbe 4d2a dcbd 7e61 0dbe
00000090: f09b c03e cbcf efbd 5ba4 b5bd adaf c1bd
000000a0: 0081 213f 208b 753e 6ca9 133f 660d 473f
000000b0: 7716 9cbe 0b6a 423f ff65 a6be 2074 de3e
000000c0: 7f01 1c3e 6de1 fbbe 8349 25bc 98f7 85be
000000d0: 3097 6d3e 8605 3bbe 3db4 9e3e 3959 523d
000000e0: ea3c c83d 60b4 3e3f 6244 18be 8de4 15be
000000f0: f8dc f43d 7148 a4be 672c b0be b6fc b1be
-0.30271542 0.38404325 0.28421193 -0.26678637 -0.36959547 0.04091356 0.0965939 0.0016296564
0.20275174 0.06822071 0.3777948 0.3272547 0.099617146 -0.28690174 -0.34349006 0.020859035
0.08232028 0.42633155 0.3756758 0.11053571 0.22551768 -0.10407684 -0.370678 -0.33392072
-0.4088681 -0.01769066 0.34264746 0.21650302 -0.1887498 0.30043563 0.2940751 0.38929325
-0.38247058 -0.493121 -0.10750256 -0.13806722 0.3761897 -0.11709555 -0.08869239 -0.094573356
0.63087463 0.23978853 0.5768039 0.7775482 -0.3048589 0.7594306 -0.32499692 0.4344797
0.15234946 -0.49195424 -0.010088327 -0.26165462 0.23202205 -0.18263826 0.30996886 0.05135462
0.097772434 0.7449398 -0.14869836 -0.14637966 0.11956209 -0.32086518 -0.34408876 -0.34763116

conv1.bias f4 [32]
00000000: c26f 57bf 60b2 873b 063c 25be 9a9c 0bba
00000010: 6aa3 09ba 40b6 cabb 943a abbb ddad dd3e
00000020: 0000 0000 0000 0000 ef9c c9bb d0a8 3c3e
00000030: 409d eeba 0000 0000 7b77 fdbd 0000 0000
00000040: e13b 0e3f 2c46 8c3d 0000 0000 53c2 42ba
00000050: 2705 e53c ee26 8b3c 475e 00bd 901a a5bc
00000060: 0000 0000 4d22 92bc e7e9 173c 0000 0000
00000070: 3ca4 433d bf43 f13d 4245 c73d b027 8eba
-0.84154904 0.004141137 -0.16136178 -0.00053257647 -0.0005250486 -0.0061862767 -0.005225489 0.4329671
0.0 0.0 -0.006152741 0.18423772 -0.0018204823 0.0 -0.12376305 0.0
0.5556012 0.06849322 0.0 -0.0007429469 0.027956558 0.016986337 -0.03133991 -0.020154268
0.0 -0.017838622 0.009272075 0.0 0.047764048 0.117805 0.09730007 -0.0010845568

conv1.lin.weight f4 [64, 1]
00000000: 7c23 e63e 0318 913e 3520 9fbe cd26 e2be
00000010: 47e3 953d b3aa 23b6 63ba 973f 972e f13e
00000020: eb3a 9eb7 1711 eebe d208 eb3d 6c76 22bf
00000030: 31f1 103e 7387 5bbe d63c 34bf d1f5 bfbe
00000040: 5f21 aebe d245 263f 1c13 6abe 28f6 0fbe
00000050: ec2e f4bd 82b1 b83e f6e7 4c39 1db0 70be
00000060: 9bea 80be d224 2cbe fb40 9a3e a593 49be
00000070: 69a7 81be 9687 083f a25d 2f3f eb9e babe
00000080: 00b3 203f b360 123f 273b 1f3f 98f5 753f
00000090: 6784 1e3f a71b 92be 2def 84bf 03bb 57bd
000000a0: a28b cfbe a6ec 9fbe 0230 eabe 7615 0d3f
000000b0: cc3b 003f e2b3 b5be c2ec 8d3f 722c eabe
000000c0: 3ddb 143f a803 c33e 45bf d9bd d560 433f
000000d0: a553 003f 3c22 fdba c028 e0be ea0b b83d
000000e0: bb04 98ba 07d8 26be 9a52 133e a353 debe
000000f0: d3c3 513f ba14 1a3e 46bb 753e 3739 573f
0.44948947 0.28338632 -0.3107926 -0.44170228 0.0731874 -2.4388253e-06 1.1853756 0.47105858
-1.8862504e-05 -0.46497414 0.11476292 -0.6346195 0.14154507 -0.21438389 -0.7040533 -0.3749223
-0.34009835 0.6495029 -0.22858852 -0.14058745 -0.11923012 0.36072928 0.00019541368 -0.23504682
-0.2517899 -0.16810921 0.301277 -0.19685228 -0.25323036 0.5333189 0.6850225 -0.3644937
0.6277313 0.571788 0.62199634 0.9607787 0.6192078 -0.28536722 -1.0385491 -0.052668583
-0.4053622 -0.31235236 -0.45739752 0.5511087 0.5009124 -0.35488802 1.1087878 -0.45737034
0.5814703 0.38088727 -0.10632185 0.7631963 0.5012763 -0.0019312571 -0.4378109 0.089866474
-0.001159809 -0.16293345 0.14386979 -0.43423185 0.8193943 0.15046969 0.2399722 0.8407168

conv2.att_src f4 [1, 1, 4]
00000000: 5b61 953d 0acf 183f 562b 41bf 42f0 52c0
0.0729396 0.59690917 -0.7545675 -3.2959142

conv2.att_dst f4 [1, 1, 4]
00000000: 155f 98bf e8e6 08c0 a8bf 9041 e2d2 b9bf
-1.1904017 -2.1390934 18.093582 -1.4517481

conv2.bias f4 [4]
00000000: 1c00 8cbd 0bc7 b5bc d26d 0bbf 1c13 aabd
-0.06835958 -0.022189638 -0.5446445 -0.08304426

conv2.lin.weight f4 [4, 32]
00000000: 808c d33f cc11 d43e a22c f540 87ff b83c
00000010: fe7c bb3e b28b af3e 99b5 a5be 1c55 4cbe
00000020: 4989 4d3c 9e75 28be 2cbd 01be 5883 edbe
00000030: 64b8 c63d 0e43 2d3d 9af4 7d40 d1b7 6cbe
00000040: 2e18 8bbe 66a7 383e 6f9a c2be 716d 1b3e
00000050: 6b04 0e3f 7db0 253f b610 753d 1127 86bc
00000060: 4cb4 c73e 015f a83e 25a1 0f3f 6fa7 ffbd
00000070: 67d7 a0bd 512b 1f3f 502e 103f a039 1e3e
00000080: 3d1c 9fbe 69c3 d7be 5afc 0ec0 c17e 55be
00000090: 4c6a ebbe a302 e8bd 91ae e03f 40eb 1dbf
000000a0: ec0a 5f3e 4400 9ebe 54cd 503e 28e6 d43e
000000b0: 0099 e6be ef10 19be e5ea cdbf 3e77 0bbe
000000c0: 515a 0bbf 4faa 0cbf 775b 9ebb 9414 edbe
000000d0: a44e 01bf b1a7 9cbd cbee 673e 51b2 aabe
000000e0: f63d b3be 8206 6abe 7cf2 1cbf a4be a63e
000000f0: 5459 8ebe 4df7 05bf 3b85 1ebf 3d38 95be
00000100: 3b1f ffbf acc5 f13d 5e22 2cbd 28ae 933f
00000110: c7aa 8e3e 06d1 ecbd 3d37 07c1 cd57 e9bd
00000120: f5bf d03d 24d7 e63d 5b3f a1be c0ad bb3f
00000130: c94e 2c3d c57a 9fbc cc75 7540 3089 aebe
00000140: 808b 2a3f 201a 88be 0aa6 8f3e 9139 673f
00000150: eaf6 373f fe3d cbbe 5164 45be bef3 c4be
00000160: 7113 b23e 4402 b1be a110 e4bc fa4e a9be
00000170: 7851 483f c269 afbe 666d 9bbe 8a46 363f
00000180: ef53 263f 6c56 463f f698 67c0 5d71 183f
00000190: 0d60 aa3f e296 8abe fa37 2c3f c760 40bd
000001a0: 4839 93bd 42c3 a0bd a42b 5abe 580b 473e
000001b0: 63eb 503f 9382 8ebd 261a 18c0 4aaa 0abe
000001c0: bf0f ccbe 88ef 053f 07f1 a8be 3773 713f
000001d0: 3cce 7e3f 8091 f03e 4386 a5be 7a0c 50be
000001e0: b342 aabe fd2e 98be 51c1 833f 6874 23be
000001f0: cc9c 0d3f 704e 253d cf7f f23e fcbe 513f
1.6527252 0.41419828 7.6616983 0.022582782 0.366188 0.34286267 -0.3236511 -0.19954342
0.012544938 -0.16451117 -0.1266982 -0.4638927 0.097031385 0.042300276 3.9680543 -0.23116995
-0.27166885 0.18032607 -0.38008448 0.15178467 0.5547549 0.64722425 0.05983039 -0.01637605
0.39004743 0.32884982 0.5610526 -0.12483107 -0.07853585 0.6217547 0.5632067 0.1545167
-0.31076232 -0.42141274 -2.2341523 -0.20849134 -0.45979536 -0.11328628 1.7553273 -0.6168709
0.2178151 -0.30859578 0.20390826 0.41581845 -0.45038605 -0.14947866 -1.6087309 -0.13619706
-0.54434687 -0.5494737 -0.004832681 -0.46304762 -0.5051062 -0.07649172 0.22649686 -0.3333917
-0.3500821 -0.22854045 -0.613075 0.32567322 -0.27802527 -0.52330476 -0.61922044 -0.2914447
-1.9931406 0.11805281 -0.042024963 1.1537523 0.27864668 -0.115633056 -8.450986 -0.113937
0.10192863 0.112715036 -0.3149365 1.4662399 0.042067323 -0.01946772 3.8353148 -0.3408904
0.6661911 -0.26582432 0.28056365 0.90322214 0.71861136 -0.39695734 -0.19276549 -0.3846721
0.34780458 -0.3457204 -0.02783996 -0.33068067 0.7824931 -0.34260374 -0.30356902 0.71201384
0.6497182 0.7747562 -3.618711 0.5954798 1.3310562 -0.2706824 0.67272913 -0.046967294
-0.0718866 -0.078497425 -0.2130571 0.19437921 0.8160917 -0.06958499 -2.376596 -0.13541523
-0.39855763 0.5231862 -0.3299639 0.9431643 0.9953344 0.46986008 -0.32328996 -0.2031726
-0.33254012 -0.2972335 1.029337 -0.15962374 0.5531738 0.040358007 0.47363135 0.81932044

decoder.0.weight f4 [32, 4]
00000000: ac86 133f 2af1 e03d 6710 cb3d f84b 443e
00000010: 3de3 03bf 4a90 c43d ab44 033f 61a7 9f3e
00000020: 67c6 243f 8ded dcbe 8d95 bc3e c2aa 1ebe
00000030: 3e88 27bf 92f9 a13e f108 b4be 2737 c43e
00000040: 6919 abbe 1ffa 263d 3556 f73d 100f fd3e
00000050: d62b 333f bf54 903e 1c65 283f bb4c ce3e
00000060: d133 76bd 9b29 f53c 7cd0 02bf 17cb 3cbf
00000070: 5e56 08bf a567 cbbd 9c66 6d3a 59f3 e13d
00000080: 3993 38be 5061 f13e d2c9 8dbe 2674 6abf
00000090: 3ac5 ec3d 3ca6 243f 20fa 45bf ee18 57be
000000a0: 07ec 7f3d 6107 17bf 7cf3 433e 1d39 b3be
000000b0: 9cb1 e5bd 4142 9dbe 9038 94bc f485 81bd
000000c0: 75e8 4e3f 7c57 b43d 56ae df3e f780 b13c
000000d0: 19f9 85be ef62 63be 626b e6bd 1a4b 7ebe
000000e0: dc7a c13e 9686 fb3e 2098 dc3d 403c f3bc
000000f0: c515 f8be 4874 06bd 2089 9b3f b0c5 fb3d
00000100: f6fa 80be 2c44 f43e 9437 813e 7064 37bd
00000110: 20f8 61be b9a4 313e 970e debb 4e83 083f
00000120: 109c 2f3f ae07 c5be ba72 d1be d091 58be
00000130: 5bfd 6abe 3139 a33d 1325 99be b0d8 4a3d
00000140: 22bc 4d3f 6953 02bf 6646 493e 2721 77be
00000150: 6dde 72be 1c08 72be 1c0e 013d 0c8c cd3d
00000160: c037 0ebe 8887 26bf cb53 823e 6f2b dcbd
00000170: 856f 483e 9797 093f 289f 4abe 5a5f 86be
00000180: aee7 9bbe 1a77 29be 97d7 a83d f861 923e
00000190: 01f2 aebe 26bf c7be ee47 3ebd 524c f83d
000001a0: 60b6 7abe c9e3 39be 067d 49be cfaf c63c
000001b0: 306d 73be 5596 f7be 6a09 933e d31a e53c
000001c0: 4fef 823e f4de e7be b38a b9be 3dc3 b5be
000001d0: 2ab8 40bd 58c4 c6be 1de0 fa3e fd93 233e
000001e0: 895a d13e 6f85 443e 27fa 55bd 9bb4 d539
000001f0: af2e ee3e 8974 363e b71c ec3e c505 b7be
0.5762737 0.109834984 0.09915238 0.19169605 -0.51518613 0.095978335 0.51276654 0.31182387
0.6436524 -0.43149987 0.36832848 -0.15494826 -0.65442264 0.3163572 -0.35163072 0.38323328
-0.33417824 0.040765878 0.120769896 0.49425554 0.69988763 0.28189656 0.6577928 0.40292916
-0.06010801 0.029927066 -0.5109937 -0.7374739 -0.53256786 -0.09931878 0.00090561225 0.11032743
-0.18024911 0.47144556 -0.2769304 -0.9158348 0.115610555 0.64316154 -0.77334785 -0.21005604
0.062480953 -0.58995634 0.1913585 -0.3500451 -0.11215517 -0.3071461 -0.018093377 -0.06324378
0.8082345 0.08805749 0.43687695 0.02166794 -0.2616661 -0.22205709 -0.112509504 -0.24833336
0.37789047 0.49126118 0.10771203 -0.029691815 -0.4845411 -0.03282574 1.2151222 0.12293565
-0.25191468 0.4770826 0.25237715 -0.04477352 -0.22067308 0.17347993 -0.0067766416 0.53325355
0.6859751 -0.38482422 -0.40907842 -0.21149373 -0.2294821 0.07969893 -0.29911098 0.049523056
0.8036519 -0.50908524 0.19655761 -0.2413374 -0.23717661 -0.23635906 0.031507596 0.100364774
-0.13888454 -0.65050554 0.25454554 -0.10750472 0.19573791 0.5374693 -0.19787276 -0.26244622
-0.30450195 -0.1654934 0.082442455 0.2859037 -0.3416901 -0.39013022 -0.046455316 0.12123932
-0.24483633 -0.181533 -0.19676599 0.024253754 -0.2377212 -0.48356882 0.2871812 0.027966892
0.25573203 -0.45287287 -0.36238632 -0.35500517 -0.047050633 -0.38821673 0.4899911 0.15974422
0.40889385 0.19191526 -0.052240517 0.00040761087 0.46519992 0.17817892 0.46115658 -0.3574659

decoder.0.bias f4 [32]
00000000: 2c11 31bf 26fd cb3e 089d 4dbe b2a4 6a3e
00000010: b42b 783c e245 863d d0a8 543e c0f0 983e
00000020: 2bd7 7f3e c457 d93e 0932 ad3e f15a 743e
00000030: acea bdbd 2a3c cebe 08b1 40be d3f6 723d
00000040: ec2f b7be d308 6e3d c566 cabe 67a6 ef3e
00000050: 7ac3 b2be 7cce a8bd d84b afbe b0d6 12bf
00000060: d4e4 d6bc 7404 f33d 3350 b7bd 5066 023f
00000070: 9169 0a3f 4004 d5be 1995 a7be 9856 a9be
-0.6916683 0.39841574 -0.20079434 0.22914389 0.015147138 0.06556298 0.20767522 0.29871178
0.24984424 0.42449772 0.33827236 0.23862816 -0.09273276 -0.40280277 -0.18817532 0.05931742
-0.3577875 0.058113884 -0.39531532 0.46806642 -0.34914762 -0.08242509 -0.34237552 -0.5735884
-0.02623216 0.11866084 -0.08950844 0.50937366 0.5406733 -0.41604805 -0.3273094 -0.33073878

decoder.2.weight f4 [1, 32]
00000000: f6e2 d9be 1d30 95be a33a a33e 112c 94bf
00000010: 27aa 7abe 3fe2 00bf fc46 6ebe 0dc5 6bbe
00000020: 84cb ba3e 2c38 1b3f e207 623e c1a4 cd3d
00000030: 6755 f0be f1f1 143e 38b2 7bbd 4736 c0be
00000040: 7008 19be 2f85 4ebe 12e6 f63e 952d 5abf
00000050: 8459 d13e 5b56 9fbd 1df4 163e 2186 dcbc
00000060: 04a0 38be b406 143e 44e0 28bd a39c f33d
00000070: b9d5 933e 80a5 53be 368b 8fbe eed6 7a3e
-0.4255597 -0.2913827 0.31880674 -1.1575948 -0.2447897 -0.50345224 -0.23269266 -0.23024388
0.36483395 0.60632586 0.2207332 0.1004119 -0.46940157 0.14545418 -0.06144926 -0.3754141
-0.14944625 -0.20167993 0.48222405 -0.852258 0.40888608 -0.07780143 0.1474156 -0.026919426
-0.18029791 0.14455682 -0.0412295 0.118951105 0.28873995 -0.20668602 -0.28035897 0.24496052

exp_avg f4 [1, 2, 32]
00000000: 9683 b7b7 f6d4 60b7 d624 7d37 d409 b537
00000010: ea90 75b6 7a8f cc2d 0465 71b8 90ad beb7
00000020: 8018 02af ff2c ba37 d71a adb6 6494 0138
00000030: 87cb dfb6 dfd8 2737 1355 0f38 b072 9537
00000040: 841d 8a37 11ed 04b8 686b 3337 b3d6 e436
00000050: e1b0 c536 e129 93b7 eac1 0db2 e8b5 3837
00000060: 6261 4637 c617 0237 1609 75b7 d49f 2737
00000070: 761e 5137 4b1b dab7 5926 0bb8 57e0 9537
00000080: f91c bf38 1e82 ad38 c11f bd38 bef6 1139
00000090: 454b bc38 a70a 30b8 200c 1eb9 32e8 f9b6
000000a0: 8270 79b8 c697 40b8 4588 8cb8 c990 a638
000000b0: f0bc 9838 0bb3 5ab8 fb9a 2839 957d 8cb8
000000c0: bf53 b138 ac3b 6a38 3185 78b7 34f4 e738
000000d0: 630f 9938 98d2 d534 d178 86b8 6b59 5037
000000e0: c95c 08b5 d1b3 cbb7 040a ac37 4844 85b8
000000f0: c4aa f938 d082 b537 9845 1238 c9a9 ff38
-2.1876574e-05 -1.3401024e-05 1.5088552e-05 2.1581458e-05 -3.6592196e-06 2.3255831e-11 -5.7552956e-05 -2.2730586e-05
-1.1832135e-10 2.219388e-05 -5.1589263e-06 3.0894196e-05 -6.6696116e-06 1.000447e-05 3.417309e-05 1.781559e-05
1.6464626e-05 -3.1692038e-05 1.0694239e-05 6.819924e-06 5.891649e-06 -1.7543267e-05 -8.251371e-09 1.1009608e-05
1.1824393e-05 7.754139e-06 -1.4605253e-05 9.991189e-06 1.2464463e-05 -2.6000334e-05 -3.3175897e-05 1.786665e-05
9.112986e-05 8.273519e-05 9.018137e-05 0.00013920196 8.9785586e-05 -4.197159e-05 -0.00015072571 -7.4478094e-06
-5.9471007e-05 -4.5917717e-05 -6.7011024e-05 7.942465e-05 7.283117e-05 -5.2141997e-05 0.00016079463 -6.699112e-05
8.4556166e-05 5.584552e-05 -1.4812963e-05 0.00011060425 7.2984745e-05 3.982757e-07 -6.412122e-05 1.2418585e-05
-5.079897e-07 -2.428322e-05 2.0508662e-05 -6.3546526e-05 0.00011905053 2.1637796e-05 3.4873927e-05 0.000121909725

exp_avg_sq f4 [1, 2, 32]
00000000: f5f8 f734 1390 4534 d6d6 6334 a339 e834
00000010: 6fbb 7632 40e9 172c 12f0 5336 8fb8 0535
00000020: bc3c 202c 0e61 0135 4f99 ef32 572e 5c35
00000030: 670a 6133 cb98 d733 d9ca 9435 4e1e a734
00000040: 4201 8d34 5cd9 8235 b85d f633 a8af 3233
00000050: 4a9d 0333 1ee5 9c34 2a94 d42b f8ff 0134
00000060: d668 1534 7dfc 8233 9aae 6a34 beea c633
00000070: 50c3 1634 1db9 2a35 f57c 8d35 f333 9b34
00000080: a898 f235 12d9 cf35 9875 f235 a3fc 9536
00000090: 6901 f835 d809 d334 1fa9 af36 ecd0 7f32
000000a0: b512 5235 2afc fa34 c52a 8635 1321 ac35
000000b0: 9a48 9f35 87ad 2035 6311 bf36 958f 8635
000000c0: 6132 db35 d770 3535 30ef 7d33 7a60 3c36
000000d0: 8ccf a135 b30e 732f 2b46 7735 66f5 3a33
000000e0: ad7a 082f 1643 0534 9f8b c333 613f 7535
000000f0: 9e96 5936 9c03 ed33 5320 9234 bb5f 6536
4.6188475e-07 1.8399469e-07 2.121918e-07 4.3255304e-07 1.4361702e-08 2.158787e-12 3.158119e-06 4.981493e-07
2.2771082e-12 4.819748e-07 2.7892979e-08 8.202382e-07 5.2396356e-08 1.00395106e-07 1.1085896e-06 3.1128224e-07
2.6264212e-07 9.749015e-07 1.1472315e-07 4.1603613e-08 3.0643868e-08 2.922397e-07 1.510463e-12 1.2107182e-07
1.3914845e-07 6.099524e-08 2.1856468e-07 9.262793e-08 1.4040893e-07 6.359931e-07 1.0541686e-06 2.8908798e-07
1.8074834e-06 1.5485878e-06 1.8064629e-06 4.469957e-06 1.847785e-06 3.9308975e-07 5.2350947e-06 1.4890457e-08
7.825832e-07 4.6749602e-07 9.996226e-07 1.2824624e-06 1.1867553e-06 5.985716e-07 5.6942677e-06 1.0025566e-06
1.6331434e-06 6.759196e-07 5.9123693e-08 2.807034e-06 1.2055839e-06 2.2105943e-10 9.211678e-07 4.352969e-08
1.2412711e-10 1.2410996e-07 9.105792e-08 9.136184e-07 3.242319e-06 1.1036829e-07 2.7218138e-07 3.4179382e-06

exp_avg f4 [1, 2, 32]
00000000: b43f c0ae abd9 71ae 36ab 842e d6cb bc2e
00000010: 01cc 79ad 27d7 6a25 4336 7daf 1125 c9ae
00000020: 8380 eb26 287f c62e abcf c3ad af8c 072f
00000030: b397 f1ad b7fb 362e 2f72 162f a50a a02e
00000040: 935e 912e f9c3 0aaf f31d 432e f7ab f02d
00000050: 9945 cc2d 7358 9aae 6394 c2a8 3fa1 482e
00000060: 95ed 562e 6776 0f2e b0ae 80ae 553b 282e
00000070: f3ab 582e 65d1 e3ae 6049 12af fbc7 9b2e
00000080: cc40 8637 9104 7437 cb15 8537 158f cd37
00000090: d195 8437 0d58 f8b6 53b8 deb7 2b02 b0b5
000000a0: 9488 2fb7 dabe 07b7 0acf 45b7 0fc3 6a37
000000b0: 40f3 5637 04f2 19b7 d196 ed37 14d0 45b7
000000c0: 37f3 7937 9299 2437 e2eb 2db6 5554 a337
000000d0: 95bc 5737 b484 9e33 6c71 3db7 bac7 1136
000000e0: 5dc6 43b3 5a9d 8fb6 7939 7136 b8df 3bb7
000000f0: e9da af37 87b3 7e36 146f cd36 0700 b437
-8.742465e-11 -5.4990384e-11 6.033078e-11 8.585459e-11 -1.4199309e-11 2.0369161e-16 -2.3029494e-10 -9.147006e-11
1.6341234e-15 9.026585e-11 -2.2261156e-11 1.232816e-10 -2.7465896e-11 4.1605577e-11 1.3682987e-10 7.2778485e-11
6.610636e-11 -1.262065e-10 4.4364467e-11 2.7361209e-11 2.3223022e-11 -7.018821e-11 -2.160268e-14 4.561795e-11
4.8868982e-11 3.2619598e-11 -5.851797e-11 3.8251475e-11 4.9265435e-11 -1.0359961e-10 -1.330469e-10 7.0841076e-11
1.6004218e-05 1.45445965e-05 1.5864984e-05 2.4504532e-05 1.580539e-05 -7.4012264e-06 -2.6550295e-05 -1.3113653e-06
-1.0462612e-05 -8.091063e-06 -1.179032e-05 1.39929025e-05 1.281203e-05 -9.175859e-06 2.8322831e-05 -1.1790562e-05
1.4898184e-05 9.810918e-06 -2.591631e-06 1.9470384e-05 1.2858906e-05 7.381587e-08 -1.1291686e-05 2.172294e-06
-4.5582386e-08 -4.2800502e-06 3.5945252e-06 -1.1198157e-05 2.0963564e-05 3.7953448e-06 6.1224073e-06 2.1457685e-05

exp_avg_sq f4 [1, 2, 32]
00000000: 492d 1c20 6ab7 781f f5cb 8f1f fc97 1220
00000010: 03f7 991d afba 5417 f7a1 8521 42a0 2820
00000020: 790a 0917 612b 2320 d65c 171e 3e8c 8b20
00000030: ff87 8c1e e80d 081f 03b6 bb20 90d3 d21f
00000040: 5fae b11f f5c4 a420 576f 1b1f e83b 621e
00000050: 297e 261e efcf c51f f8d4 3417 690e 241f
00000060: de8a 3c1f 7d65 a51e 6255 931f 0b27 fa1e
00000070: 3a79 3e1f 035d 5720 da69 b220 f527 c41f
00000080: 0c18 3134 f4a0 1734 1eee 3034 09c2 da34
00000090: c3df 3434 cef2 1933 a91a 0035 3b21 ba30
000000a0: 6f46 9933 981c 3733 9cc4 c333 df9b fb33
000000b0: e66b e833 fb7b 6a33 1a74 0b35 cd54 c433
000000c0: 9be0 1f34 d96b 8433 73d0 b831 b962 8934
000000d0: db0f ec33 2760 a92d 1262 b433 4cfb 8731
000000e0: e04e 482d 6e94 4232 44c0 0e32 39e0 b233
000000f0: c0b1 9e34 97ca 2c32 d134 d532 5047 a734
1.3228698e-19 5.266776e-20 6.0900274e-20 1.2416968e-19 4.0754167e-21 6.873652e-25 9.055302e-19 1.4283178e-19
4.4280306e-25 1.382099e-19 8.0130715e-21 2.364032e-19 1.4879323e-20 2.8810623e-20 3.1799477e-19 8.928846e-20
7.525089e-20 2.7913016e-19 3.2914625e-20 1.1976729e-20 8.814056e-21 8.377674e-20 5.842994e-25 3.474027e-20
3.9925417e-20 1.7512029e-20 6.2398176e-20 2.6485927e-20 4.033434e-20 1.8241983e-19 3.022442e-19 8.307533e-20
1.6493158e-07 1.4121525e-07 1.6477904e-07 4.0746843e-07 1.684521e-07 3.5843918e-08 4.772251e-07 1.3542726e-09
7.1374295e-08 4.2634014e-08 9.116158e-08 1.1716451e-07 1.08229685e-07 5.459513e-08 5.1950485e-07 9.1423864e-08
1.488974e-07 6.1663464e-08 5.3788027e-09 2.559007e-07 1.09924905e-07 1.9255776e-11 8.399742e-08 3.9575863e-09
1.13861975e-11 1.1326035e-08 8.309204e-09 8.329557e-08 2.9559124e-07 1.0057781e-08 2.4820482e-08 3.115806e-07

exp_avg f4 [32]
00000000: a0b7 8a39 4566 9db7 9e89 983a 150e 42b9
00000010: 915a 2fb9 0400 0000 6700 d5b5 cfa8 5339
00000020: 0000 0000 0000 0000 0400 0000 188a e0b9
00000030: 360f 9bb8 0000 0000 99ec db39 0000 0000
00000040: 612e 8939 e912 9e38 0000 0000 5646 4eb9
00000050: 442f 7fb8 a682 de38 0400 0000 0400 0000
00000060: 0000 0000 0400 0000 a732 4337 0000 0000
00000070: 09bc 62b9 72c0 f939 943d 9739 e810 1cb9
0.00026458222 -1.8763481e-05 0.0011637693 -0.00018506528 -0.00016723039 6e-45 -1.5869854e-06 0.00020185414
0.0 0.0 6e-45 -0.00042827497 -7.393809e-05 0.0 0.00041947214 0.0
0.0002616523 7.5375494e-05 0.0 -0.00019671893 -6.0840757e-05 0.0001061012 6e-45 6e-45
0.0 6e-45 1.1634699e-05 0.0 -0.00021623088 0.00047636364 0.00028846844 -0.00014883617

exp_avg_sq f4 [32]
00000000: 05c2 5c36 4a16 8734 7d4a 9a38 489d d236
00000010: caba f736 2790 9e18 e5d5 4538 a509 8136
00000020: 0000 0000 0000 0000 8c48 b624 090f 3238
00000030: f8e9 c735 0000 0000 3b91 4a37 0000 0000
00000040: 119a 1a37 849b 1a35 0000 0000 c27f 5236
00000050: c7af ec35 0cb6 c336 b35a f81d 57f8 ad19
00000060: 0000 0000 cf1e 0619 cdf2 da34 0000 0000
00000070: 22ac 3737 9b14 5d38 7b0d 9c37 0a04 7736
3.2895489e-06 2.5161927e-07 7.357167e-05 6.2767976e-06 7.3829187e-06 4.09876e-24 4.7167665e-05 3.8456224e-06
0.0 0.0 7.905282e-17 4.245251e-05 1.4894749e-06 0.0 1.2073952e-05 0.0
9.214987e-06 5.7595776e-07 0.0 3.1366803e-06 1.7634528e-06 5.832646e-06 6.5738834e-21 1.7988084e-23
0.0 6.933859e-24 4.0782325e-07 0.0 1.0947728e-05 5.2709696e-05 1.8602927e-05 3.680822e-06

exp_avg f4 [64, 1]
00000000: 3226 c639 46e9 c9b8 724d ad3a fba5 acb9
00000010: d537 6cb9 231f 87ae 8b8b 623a 1060 2739
00000020: cb3c b7af c749 2f37 9d7c 9bb7 d17f 81b9
00000030: 4b81 c9b8 92cd 8d37 ff62 6439 87a6 d437
00000040: 7251 e538 fcd4 b538 61d2 3937 a8a8 90b9
00000050: c88a 6ab9 1198 eb37 5475 c832 08c9 8837
00000060: 64b1 9837 a313 d137 89bf 4bb8 6e3d 18b7
00000070: e692 79b9 ab1a 8639 e4ca 0e39 4b2d 8cb9
00000080: 8df0 b239 2342 b1b8 5851 853a 8959 a8b9
00000090: b74e 6cb9 245d 60b8 34b7 693a 6641 3e39
000000a0: ec09 40b8 6dac b1b8 9ca8 3ab8 3aa6 c6b9
000000b0: 70c7 91b8 85a0 86b8 0da4 7238 9d03 35b8
000000c0: a185 cb38 5644 d938 6610 c637 e2ac 91b9
000000d0: 581d 0fb9 58a4 bf38 a761 83b8 8ff7 a1b7
000000e0: 6562 f0b5 8fca dbb8 1581 9cb8 4d18 3db8
000000f0: cbba 29b9 0021 3a39 2523 0b39 a42b 78b9
0.0003779396 -9.6278774e-05 0.0013221933 -0.00032930062 -0.00022527513 -6.14462e-11 0.00086420093 0.00015962147
-3.3330702e-10 1.04479905e-05 -1.8535467e-05 -0.00024700028 -9.6085096e-05 1.6904236e-05 0.00021780653 2.5349915e-05
0.00010934741 8.670424e-05 1.1075842e-05 -0.0002759148 -0.00022367679 2.8084994e-05 2.3336419e-08 1.6306076e-05
1.8202416e-05 2.4923886e-05 -4.8577353e-05 -9.074209e-06 -0.00023801214 0.0002557834 0.00013617758 -0.00026736627
0.0003413003 -8.4523366e-05 0.0010171337 -0.00032110166 -0.00022536037 -5.3492506e-05 0.0008915544 0.00018144175
-4.5785608e-05 -8.4721345e-05 -4.4502885e-05 -0.0003788935 -6.951287e-05 -6.419517e-05 5.785008e-05 -4.3157128e-05
9.7046846e-05 0.00010360095 2.3611075e-05 -0.00027785363 -0.00013648474 9.138201e-05 -6.264756e-05 -1.9307974e-05
-1.791003e-06 -0.00010480463 -7.462703e-05 -4.5083743e-05 -0.00016186682 0.00017750636 0.00013269165 -0.0002366738

exp_avg_sq f4 [64, 1]
00000000: 712a e936 0d30 2135 f2ec eb38 c0a1 7c36
00000010: 98c9 9136 23d9 422c dba5 a138 137e 8f36
00000020: 44f5 192c 014e ea33 c562 b634 0fa3 fb35
00000030: 017a ca34 1a46 9734 4136 8737 eefe 2735
00000040: 8666 bf35 8b13 9234 7df4 0334 6580 8036
00000050: 5f6a 0b36 a812 3934 0479 e22b e9d4 8c34
00000060: abd7 ae34 f2fb 2235 7e16 9934 8061 a333
00000070: 274f dc35 9742 3136 7705 f835 e983 2936
00000080: 3198 9636 dd45 9e34 cfdf d038 65d8 6e36
00000090: 1887 5436 03e5 3735 3118 8838 2953 ea35
000000a0: f840 ae34 6c42 c935 c23f a734 6e00 cf35
000000b0: 59c5 e934 b924 3535 1ade 4b37 560f a834
000000c0: e34c ae35 bd2b 9b34 53ce 1734 7f0c 4536
000000d0: b124 b536 acf1 4935 e093 4d35 f655 c433
000000e0: 2aea 8c30 69b6 0936 2985 9934 7fd3 0535
000000f0: 796f 8136 7e54 6336 4d62 4b35 2e6f 3936
6.948882e-06 6.0047097e-07 0.00011249808 3.7645077e-06 4.3448053e-06 2.7689593e-12 7.707971e-05 4.276409e-06
2.1878757e-12 1.0910663e-07 3.3972006e-07 1.8748414e-06 3.7714202e-07 2.8176947e-07 1.6118518e-05 6.258332e-07
1.4260447e-06 2.7208839e-07 1.228927e-07 3.8296444e-06 2.077453e-06 1.7236255e-07 1.6091854e-12 2.6231945e-07
3.2566945e-07 6.071633e-07 2.8514836e-07 7.608014e-08 1.6414314e-06 2.6413816e-06 1.847903e-06 2.5259744e-06
4.4880658e-06 2.9480626e-07 9.9599005e-05 3.5590722e-06 3.1669097e-06 6.850607e-07 6.489491e-05 1.7458561e-06
3.2457297e-07 1.4994998e-06 3.1152564e-07 1.5422827e-06 4.354322e-07 6.7481193e-07 1.2151455e-05 3.1303597e-07
1.2986387e-06 2.8902824e-07 1.4138031e-07 2.9362561e-06 5.398492e-06 7.5230014e-07 7.658364e-07 9.1425974e-08
1.0252894e-09 2.0520768e-06 2.8595358e-07 4.985413e-07 3.8574767e-06 3.3874817e-06 7.576644e-07 2.7631863e-06

exp_avg f4 [1, 1, 4]
00000000: 3ae4 0838 1c20 cbb7 b746 5c38 be0e d037
3.263748e-05 -2.4214438e-05 5.2517946e-05 2.4802397e-05

exp_avg_sq f4 [1, 1, 4]
00000000: 199b 2933 fd92 d432 e58d 0134 e359 d232
3.948944e-08 2.474689e-08 1.2065682e-07 2.4488093e-08

exp_avg f4 [1, 1, 4]
00000000: 1c18 e1b7 d253 c337 553c 53b7 3aca 87b7
-2.6833317e-05 2.3284843e-05 -1.2590627e-05 -1.6187423e-05

exp_avg_sq f4 [1, 1, 4]
00000000: b13b 1f33 215e 1333 5cac 4a30 a0bc df32
3.707436e-08 3.4311714e-08 7.373211e-10 2.6046393e-08

exp_avg f4 [4]
00000000: 8c5f d839 df57 dab9 ff72 63b7 3d12 f9b9
0.00041269918 -0.0004164567 -1.3557029e-05 -0.0004750657

exp_avg_sq f4 [4]
00000000: 4bb4 8838 a121 d037 7cc5 8735 9d69 4238
6.5185675e-05 2.4811192e-05 1.0115759e-06 4.6351564e-05

exp_avg f4 [4, 32]
00000000: 6bc6 6d37 675a 8138 227d b8b6 8377 d237
00000010: 1d5e 4138 0400 0080 089b dc37 bac8 6039
00000020: 0000 0000 0000 0000 0400 0080 e1a9 9b38
00000030: cdd2 3838 0000 0000 8f6f 9ab6 0000 0000
00000040: e26d 7e39 5118 dd38 0000 0000 c729 2238
00000050: f572 1238 3994 1838 0400 0000 0400 0080
00000060: 0000 0000 0400 0080 cae6 1e38 0000 0000
00000070: a2e6 5b38 b864 d538 bbee e838 a2fd cb37
00000080: 2daf c0b8 8d99 53b9 831d 99b7 e9c9 b2b8
00000090: f96d 20b9 0400 0000 459d cab8 1513 9bb9
000000a0: 0000 0000 0000 0000 0400 0000 6e94 90b8
000000b0: a507 19b9 0000 0000 4897 18b8 0000 0000
000000c0: 2417 8ab9 c79d 96b9 0000 0000 4c38 04b9
000000d0: 94ae b6b8 d2b8 dbb8 0400 0000 0400 0000
000000e0: 0000 0000 0400 0000 a9d3 f4b8 0000 0000
000000f0: 9258 05b9 266b 6db9 6df3 91b9 6290 a9b8
00000100: 0b8b cab8 eb59 21b9 d967 0eb8 150e b6b8
00000110: fe7f 00b9 0400 0080 5e0d 21b8 5400 d8b8
00000120: 0000 0000 0000 0000 0400 0080 d839 17b7
00000130: 9ae2 efb8 0000 0000 bd9c 7db8 0000 0000
00000140: 1d56 92b8 8bf6 49b9 0000 0000 881b e2b8
00000150: 2231 8db8 02f7 8eb8 0400 0000 0400 0080
00000160: 0000 0000 0400 0080 6858 acb8 0000 0000
00000170: 999c d0b8 0367 0bb9 5481 38b9 6c9d a7b8
00000180: aeed 17b9 767c 52b9 7b48 88b7 2281 d5b8
00000190: 449b 23b9 0400 0080 a9d4 8ab8 fbb6 a1b9
000001a0: 0000 0000 0000 0000 0400 0000 68ca c4b8
000001b0: 54e7 19b9 0000 0000 e55a 00b8 0000 0000
000001c0: c096 9eb9 fa5b 93b9 0000 0000 30cc 0cb9
000001d0: 531f c6b8 0f52 cfb8 0400 0000 0400 0000
000001e0: 0000 0000 0400 0000 3835 ecb8 0000 0000
000001f0: 8001 13b9 f830 6ab9 4999 8eb9 358a c6b8
1.4172499e-05 6.168038e-05 -5.4981947e-06 2.5089603e-05 4.6102436e-05 -6e-45 2.6298236e-05 0.00021437081
0.0 0.0 -6e-45 7.4226184e-05 4.4065342e-05 0.0 -4.602545e-06 0.0
0.00024264262 0.000105426305 0.0 3.8662718e-05 3.4916175e-05 3.6377667e-05 6e-45 -6e-45
0.0 -6e-45 3.7885075e-05 0.0 5.2428462e-05 0.00010175392 0.00011107089 2.4317593e-05
-9.1879025e-05 -0.0002017973 -1.8252764e-05 -8.52531e-05 -0.00015299757 6e-45 -9.661404e-05 -0.0002957812
0.0 0.0 6e-45 -6.894102e-05 -0.00014594065 0.0 -3.6380516e-05 0.0
-0.00026338652 -0.00028727783 0.0 -0.00012609473 -8.710954e-05 -0.00010477159 6e-45 6e-45
0.0 6e-45 -0.000116742514 0.0 -0.00012716863 -0.00022641997 -0.00027837922 -8.0854414e-05
-9.6580094e-05 -0.00015387654 -3.3952154e-05 -8.681059e-05 -0.00012254712 -6e-45 -3.839784e-05 -0.00010299744
0.0 0.0 -6e-45 -9.013769e-06 -0.00011438616 0.0 -6.0465874e-05 0.0
-6.977862e-05 -0.00019260698 0.0 -0.00010781648 -6.7325556e-05 -6.8170964e-05 6e-45 -6e-45
0.0 -6e-45 -8.218066e-05 0.0 -9.9473815e-05 -0.00013294448 -0.00017595786 -7.992503e-05
-0.00014489025 -0.00020073526 -1.6246215e-05 -0.00010180684 -0.00015602732 -6e-45 -6.619964e-05 -0.00030844644
0.0 0.0 6e-45 -9.3837094e-05 -0.00014677393 0.0 -3.060223e-05 0.0
-0.00030248426 -0.00028106553 0.0 -0.00013427506 -9.44721e-05 -9.885814e-05 6e-45 6e-45
0.0 6e-45 -0.0001126327 0.0 -0.00014019571 -0.00022334221 -0.00027198557 -9.467119e-05

exp_avg_sq f4 [4, 32]
00000000: 405d 2431 5cc6 4334 4570 912f 7116 fc32
00000010: e1c6 dd33 2c84 e90e fbfe 7733 4088 5a37
00000020: 0000 0000 0000 0000 7c88 6520 91aa 1436
00000030: 750c cd33 0000 0000 2a61 8030 0000 0000
00000040: 69b9 ab37 8c11 6035 0000 0000 591a 7a33
00000050: 144b cf33 01fb 8933 4ccd 4413 5ee6 9814
00000060: 0000 0000 51e1 4415 d6db 9333 0000 0000
00000070: c878 9534 886d a335 b327 9035 098d e132
00000080: 51a7 3e35 4c5e 5336 b2a3 9233 92f6 5f35
00000090: 9101 0436 df19 7710 d115 d134 a906 0a37
000000a0: 0000 0000 0000 0000 4528 f621 7386 2435
000000b0: 1e97 ea35 0000 0000 f98e 1e34 0000 0000
000000c0: bedb 1837 6f9f cc36 0000 0000 ff7f b635
000000d0: f5d4 3335 d807 3d35 758c ca14 6c7e 2217
000000e0: 0000 0000 497f a717 5736 8435 0000 0000
000000f0: f844 cc35 aa60 7536 fdfb b736 1d0f 4335
00000100: 4e5a c834 3826 c135 7fd5 3233 3f5a ec34
00000110: 453b 7835 a0af cf10 1371 f133 7cfc b235
00000120: 0000 0000 0000 0000 5323 691f 8771 3f32
00000130: fbba 5935 0000 0000 0948 ce33 0000 0000
00000140: 95f6 8035 9ce2 2536 0000 0000 7d2d 3335
00000150: cbe0 9d34 f123 9c34 9bae 8b12 dd19 9c17
00000160: 0000 0000 98ae 1918 096a e634 0000 0000
00000170: f64c 3035 78c7 ab35 9f4e 0d36 07c8 cb34
00000180: 6d7b 1e35 3b5e 2d36 7475 6a33 8396 3735
00000190: 2d27 d835 91d6 f70e 94be a734 76f9 4b37
000001a0: 0000 0000 0000 0000 29f0 4a1f 6bb8 b535
000001b0: 2d02 c035 0000 0000 21a4 fc33 0000 0000
000001c0: 0f41 8437 d066 b236 0000 0000 3c90 9535
000001d0: b6ab 1f35 851b 1e35 fd81 1712 e068 2416
000001e0: 0000 0000 9385 9616 7811 5a35 0000 0000
000001f0: 7dfa b935 d293 6d36 30f5 a536 84b5 1f35
2.3918147e-09 1.8232953e-07 2.645512e-10 2.9346866e-08 1.032729e-07 5.756621e-30 5.7741072e-08 1.3025536e-05
0.0 0.0 1.9442213e-19 2.2153001e-06 9.548322e-08 0.0 9.340841e-10 0.0
2.0471127e-05 8.3472037e-07 0.0 5.8231624e-08 9.652845e-08 6.425217e-08 2.4839897e-27 1.5438942e-26
0.0 3.9759628e-26 6.885209e-08 0.0 2.7841293e-07 1.2176324e-06 1.074039e-06 2.6257583e-08
7.1023993e-07 3.1496338e-06 6.828431e-08 8.343278e-07 1.9670445e-06 4.873209e-29 3.8945157e-07 8.226992e-06
0.0 0.0 1.6680268e-18 6.129041e-07 1.747834e-06 0.0 1.476691e-07 0.0
9.111069e-06 6.0982343e-06 0.0 1.3597308e-06 6.699259e-07 7.04194e-07 2.0452188e-26 5.250459e-25
0.0 1.0824253e-24 9.850581e-07 0.0 1.5219257e-06 3.656411e-06 5.4831603e-06 7.2665154e-07
3.7318608e-07 1.4390744e-06 4.1638028e-08 4.4024088e-07 9.247345e-07 8.1917697e-29 1.1243005e-07 1.3335516e-06
0.0 0.0 4.936889e-20 1.1143476e-08 8.111089e-07 0.0 9.6057256e-08 0.0
9.608508e-07 2.471882e-06 0.0 6.674889e-07 2.9407087e-07 2.9083415e-07 8.815177e-28 1.0087793e-24
0.0 1.9862934e-24 4.291799e-07 0.0 6.56771e-07 1.2798546e-06 2.10564e-06 3.7957236e-07
5.9039195e-07 2.5833858e-06 5.4589194e-08 6.8391836e-07 1.6104656e-06 6.109682e-30 3.1244838e-07 1.2157825e-05
0.0 0.0 4.297382e-20 1.3539224e-06 1.4305748e-06 0.0 1.1764519e-07 0.0
1.5765921e-05 5.3167823e-06 0.0 1.1143343e-06 5.948199e-07 5.8899633e-07 4.780742e-28 1.3280907e-25
0.0 2.4318104e-25 8.123675e-07 0.0 1.3856476e-06 3.5401795e-06 4.945927e-06 5.9496256e-07

exp_avg f4 [32, 4]
00000000: ebbb c7b9 d1e0 e339 42f6 0839 84cd e3b9
00000010: 9bb3 3937 de43 4038 c3ed b436 f002 5636
00000020: d163 8e39 3e9d 9cb9 cf71 2eb9 14d7 a539
00000030: 7e08 65b8 49e4 f239 1afd 2139 d219 beb9
00000040: ae4c 27b9 d25b 4239 5147 d638 d51f 4bb9
00000050: 1350 ebb9 966d f139 c102 8c39 bb88 05ba
00000060: eb3a 7d37 8274 2038 2a7c 19b6 5a0b 4937
00000070: 1341 9336 fb07 8f38 3d65 1538 5de2 46b8
00000080: c50c 8db7 5dc9 7ab8 8eee c3b3 b1be 28b7
00000090: bd84 8a38 66dd b7b8 ecff acb8 1445 ed38
000000a0: f205 3139 3d0a 74b9 8687 e2b8 d3ee 4f39
000000b0: 563d a438 76e8 deb8 1ef7 3ab8 c29e bf38
000000c0: d4b7 d0b9 f59e d139 6a1a 5c39 86a2 dbb9
000000d0: 0400 0000 0400 0080 0400 0080 0400 0000
000000e0: 0000 0000 0000 0000 0000 0000 0000 0000
000000f0: e093 d736 8710 2a38 d051 54b6 3b8e 9737
00000100: 0000 0000 0000 0000 0000 0000 0000 0000
00000110: f382 2eb9 ad52 3739 a4d3 b838 28a0 46b9
00000120: cb3b d239 ca64 e5b9 67d9 5ab9 93d3 f039
00000130: a96d 26b9 d968 ff39 2f90 7e39 997c c3b9
00000140: b0da b139 1e9b b3b9 cc0c 32b9 76c1 c639
00000150: 65db 83b8 88d6 ad38 43a4 1238 42df 96b8
00000160: fe22 f138 988c 21b9 df59 91b8 20c7 0b39
00000170: 0400 0000 0400 0080 0400 0080 0400 0000
00000180: 8c34 1ab9 1671 4b39 219b ab38 cd37 30b9
00000190: a11d ec38 ed05 20b9 3384 86b8 61bf 0939
000001a0: 7eb5 b8b6 88c8 ad37 6b25 8037 c436 91b7
000001b0: 8df3 c038 2963 03b9 c22f 60b8 270f e138
000001c0: 8884 6b39 0d63 9fb9 5e3e 06b9 765a 8939
000001d0: dc67 21b9 0824 2639 275f 9238 2aaf 2db9
000001e0: 6fff 2db9 5d63 ff38 df60 2638 30bd dfb8
000001f0: 73c0 52b6 6e98 5235 8b19 1e36 8449 8fb5
-0.00038096248 0.00043464315 0.00013061709 -0.00043449935 1.1068677e-05 4.5839573e-05 5.392097e-06 3.1890195e-06
0.0002715872 -0.00029871793 -0.0001663633 0.00031631498 -5.4605764e-05 0.00046327923 0.00015448444 -0.00036258862
-0.00015954926 0.00018535487 0.00010217599 -0.00019371447 -0.00044882353 0.0004604875 0.00026704933 -0.0005093922
1.5093693e-05 3.825548e-05 -2.287105e-06 1.1983177e-05 4.388517e-06 6.820258e-05 3.5618654e-05 -4.7417696e-05
-1.6814456e-05 -5.979218e-05 -9.123788e-08 -1.0057979e-05 6.605077e-05 -8.767359e-05 -8.249268e-05 0.000113139075
0.0001688225 -0.00023273467 -0.00010801763 0.00019830027 7.831554e-05 -0.00010629084 -4.4576e-05 9.137161e-05
-0.00039809814 0.0003998202 0.00020990675 -0.00041892024 6e-45 -6e-45 -6e-45 6e-45
0.0 0.0 0.0 0.0 6.4247142e-06 4.054655e-05 -3.1638083e-06 1.8066834e-05
0.0 0.0 0.0 0.0 -0.00016642715 0.00017483039 8.813225e-05 -0.00018942414
0.0004009887 -0.00043753377 -0.00020871089 0.00045934002 -0.00015871845 0.00048715508 0.0002427704 -0.0003728613
0.00033923006 -0.00034257112 -0.0001698017 0.00037909643 -6.287432e-05 8.2892424e-05 3.4962093e-05 -7.1941424e-05
0.00011498293 -0.00015406532 -6.9308786e-05 0.00013330253 6e-45 -6e-45 -6e-45 6e-45
-0.0001470616 0.00019401716 8.1828104e-05 -0.00016805455 0.00011258876 -0.00015260997 -6.414242e-05 0.00013136632
-5.504756e-06 2.0716587e-05 1.5276213e-05 -1.731085e-05 9.200638e-05 -0.00012530074 -5.345024e-05 0.000107316584
0.00022460718 -0.00030400642 -0.0001280247 0.00026198075 -0.00015392847 0.00015844416 6.979546e-05 -0.0001656382
-0.00016593722 0.000121778554 3.9667702e-05 -0.000106687075 -3.1404459e-06 7.845291e-07 2.3558703e-06 -1.0675726e-06

exp_avg_sq f4 [32, 4]
00000000: 02c4 2f37 4133 4637 7c21 8335 c2c8 4437
00000010: ea28 3334 c0af dc35 d620 3831 00c0 d233
00000020: 8b92 c436 4660 e936 3416 1835 b3a8 e436
00000030: c96a 2836 43fd c937 1652 c235 50bc 3b36
00000040: aaed 2036 7289 a536 39c2 c034 3fc7 6936
00000050: 8db9 7537 33a6 8e37 77f0 a535 b1b8 8b37
00000060: d6f4 c633 3d49 5f35 67b3 9531 df3a f232
00000070: 9404 d733 2943 9235 1639 3133 5b81 2934
00000080: 00f9 8134 e2e5 0c36 6064 0731 7774 9c33
00000090: 82d0 8733 ca73 4534 fc2b 8b34 069e 9234
000000a0: ad4f 3536 59ff ab36 1184 9a34 ec0e 5936
000000b0: 83bf 1a35 9a5a 9335 b42a 8d33 e5e0 3a35
000000c0: 4474 5237 8c00 7137 bf7e 8635 29b0 6b37
000000d0: 1f12 0227 75e2 3b28 1f65 5f29 ca7a a928
000000e0: 0000 0000 0000 0000 0000 0000 0000 0000
000000f0: dcb9 9234 398d 2536 5f24 9831 c70a fb33
00000100: 0000 0000 0000 0000 0000 0000 0000 0000
00000110: d2c4 1736 ba8e 3536 5231 8734 04fd 3336
00000120: 35dd 6437 4ae1 8737 bf7a c835 c7c0 8637
00000130: 1a17 3c36 1b04 b437 14c1 fe35 fa77 e336
00000140: 706a 2437 5f88 4337 9426 8c35 9e7b 4137
00000150: 3847 c034 07ff 3835 701a 3133 d096 ea34
00000160: 60d6 9735 eaab 0e36 64d5 e933 79a8 b235
00000170: b1f9 b722 0e9c 0623 5795 8a25 9e9c 0924
00000180: 6202 f235 bf3a 6836 2e3d 6034 2959 1336
00000190: 87ea 9e35 5851 1736 2bff 1034 b7ea bf35
000001a0: 1b33 d331 53b3 f032 c916 2a31 fd83 5e32
000001b0: 06c7 5535 e24c cb35 1795 be33 aec4 8035
000001c0: d12f 9c36 a973 1437 fd99 0e35 b54d bc36
000001d0: 5095 2836 73c4 4236 3ee7 4f34 eb6d 3d36
000001e0: 674d 8436 74f3 8536 e7e2 9c34 1a28 8236
000001f0: 8e1e fb33 2ff1 aa33 acbb fc2f 617e 7e33
1.04764495e-05 1.1813653e-05 9.770006e-07 1.1729253e-05 1.6685559e-07 1.6442427e-06 2.679419e-09 9.8138116e-08
5.858315e-06 6.955149e-06 5.665672e-07 6.8145687e-06 2.5096108e-06 2.4079001e-05 1.4478017e-06 2.7974784e-06
2.3980197e-06 4.933384e-06 3.5904102e-07 3.4835682e-06 1.464634e-05 1.7005112e-05 1.2363442e-06 1.6656095e-05
9.264629e-08 8.318055e-07 4.3568664e-09 2.819928e-08 1.00125504e-07 1.0897394e-06 4.1262943e-08 1.5786411e-07
2.4209294e-07 2.0995435e-06 1.9702142e-09 7.285501e-08 6.324355e-08 1.8389179e-07 2.592277e-07 2.7309596e-07
2.701748e-06 5.1259235e-06 2.8780826e-07 3.2344205e-06 5.7648157e-07 1.0978722e-06 6.573592e-08 6.9617664e-07
1.2544046e-05 1.4364847e-05 1.0020666e-06 1.4048107e-05 1.8050948e-15 1.042969e-14 4.9603655e-14 1.881602e-14
0.0 0.0 0.0 0.0 2.732985e-07 2.4669118e-06 4.427917e-09 1.1690059e-07
0.0 0.0 0.0 0.0 2.2615318e-06 2.705418e-06 2.5181595e-07 2.6820353e-06
1.3641363e-05 1.6198162e-05 1.4936885e-06 1.6063814e-05 2.802763e-06 2.1459584e-05 1.8980668e-06 6.7790943e-06
9.799944e-06 1.1654657e-05 1.044204e-06 1.1532478e-05 3.5814605e-07 6.8916455e-07 4.123507e-08 4.3695627e-07
1.1312768e-06 2.1259716e-06 1.08887235e-07 1.3311065e-06 4.986662e-18 7.2972004e-18 2.404038e-16 2.98398e-17
1.8031099e-06 3.4604889e-06 2.0883883e-07 2.1956605e-06 1.1840174e-06 2.2548102e-06 1.3503875e-07 1.429892e-06
6.1467182e-09 2.8021224e-08 2.4751208e-09 1.2952111e-08 7.96383e-07 1.5147054e-06 8.874684e-08 9.593984e-07
4.654729e-06 8.848417e-06 5.3123205e-07 5.611883e-06 2.5120862e-06 2.9022601e-06 1.9362503e-07 2.8227175e-06
3.9429174e-06 3.9920506e-06 2.9222358e-07 3.8789703e-06 1.1693656e-07 7.960113e-08 4.5971882e-10 5.9253924e-08

exp_avg f4 [32]
00000000: 9462 dbb8 c61f 70b8 25ca 9638 db18 b9b9
00000010: 9c12 57b8 255c aeb8 70a7 6fb8 c674 80b8
00000020: a6f1 ab38 0500 e037 3042 cd38 6141 3538
00000030: 9678 a1b8 0400 0000 0000 0000 a486 67b8
00000040: 0000 0000 1c2b 11b8 5864 d138 e204 acb9
00000050: bed7 6e38 5e66 08b8 0389 8138 0400 0000
00000060: 550b a0b8 5fd5 8138 bfcb 7db7 7596 5738
00000070: f30b 0139 46ff f6b7 7330 59b7 7446 2235
-0.000104610954 -5.725005e-05 7.19021e-05 -0.00035304468 -5.1277326e-05 -8.31413e-05 -5.713798e-05 -6.1252664e-05
8.198926e-05 2.670289e-05 9.78749e-05 4.321465e-05 -7.699539e-05 6e-45 0.0 -5.5200086e-05
0.0 -3.4610843e-05 9.984587e-05 -0.00032810034 5.6944547e-05 -3.2520264e-05 6.17672e-05 6e-45
-7.631505e-05 6.190943e-05 -1.51274135e-05 5.140012e-05 0.0001230685 -2.9444356e-05 -1.2945488e-05 6.0452226e-07

exp_avg_sq f4 [32]
00000000: da06 d834 bb12 4136 94ee 9e34 2a89 2a38
00000010: ad85 e735 2eb2 2f35 bd31 d735 ff66 de35
00000020: 46a2 8836 f630 0033 d609 0336 19b2 df34
00000030: 4ea8 0c35 23cb 7b27 0000 0000 3153 9936
00000040: 0000 0000 378f fb33 579c 3635 51c1 d237
00000050: 01cc 0435 f186 8c34 c8f8 5a35 2189 8822
00000060: 6c35 b135 43cd 6535 e1ce c932 187f 1a35
00000070: 8891 6136 9384 ee33 1173 d733 676e 1230
4.023812e-07 2.8770144e-06 2.9603382e-07 4.0658902e-05 1.7249746e-06 6.5451866e-07 1.6033224e-06 1.6570265e-06
4.072007e-06 2.9846852e-08 1.9526246e-06 4.166657e-07 5.239898e-07 3.4943368e-15 0.0 4.56944e-06
0.0 1.1714149e-07 6.802779e-07 2.512397e-05 4.9470697e-07 2.6175215e-07 8.1573353e-07 3.7008065e-18
1.3203075e-06 8.5607843e-07 2.3493557e-08 5.7554416e-07 3.3612323e-06 1.1106854e-07 1.0032648e-07 5.327138e-10

exp_avg f4 [1, 32]
00000000: 3484 d039 92e1 9038 c85d 133a 37bd a238
00000010: 72ba c438 3ab2 e339 0cc6 ac38 74fd 1339
00000020: 1533 6337 a175 a736 34d7 d739 9d05 9839
00000030: aa22 db39 0400 0000 0000 0000 88fd c637
00000040: 0000 0000 a37a 3c39 0879 553a 5b5a 4e39
00000050: 08ff 413a 748f d838 e588 5e39 0400 0080
00000060: 29e2 1839 83c3 ab39 ab2d df38 231c e639
00000070: 2e4b 433a 5ddc 2c39 f8c9 1c39 5b29 cc34
0.0003977135 6.908471e-05 0.00056215795 7.760006e-05 9.3807364e-05 0.00043429603 8.238488e-05 0.00014113431
1.3542148e-05 4.9906816e-06 0.00041168334 0.0002899588 0.00041796762 6e-45 0.0 2.3721499e-05
0.0 0.00017974763 0.000814334 0.00019679351 0.00074003683 0.00010326403 0.00021222567 -6e-45
0.00014580101 0.0003276133 0.00010641975 0.00043889982 0.00074498623 0.0001648529 0.00014952559 3.802805e-07

exp_avg_sq f4 [1, 32]
00000000: 4926 6c37 fcd6 cb36 5c28 1a38 2a5d 0135
00000010: 4879 9135 d71c d237 e678 2636 82dd ff36
00000020: 5bee 3a34 f9db 8533 7ffe 0b38 2035 5e37
00000030: fd89 b337 d986 ca25 0000 0000 c46c e435
00000040: 0000 0000 4dd6 0f36 afe6 4e38 7391 e536
00000050: 39c4 6638 013c cc35 5e03 fb36 5185 2e1e
00000060: d656 2636 3a53 7137 5b8d f534 1367 3138
00000070: 441e 6538 e659 c336 77b7 f235 f3a0 9031
1.407561e-05 6.074899e-06 3.675405e-05 4.8191816e-07 1.0838639e-06 2.504738e-05 2.48063e-06 7.625379e-06
1.7409313e-07 6.233308e-08 3.33772e-05 1.32446e-05 2.1402719e-05 3.513279e-16 0.0 1.7018979e-06
0.0 2.14334e-06 4.9329068e-05 6.8416643e-06 5.501902e-05 1.5216648e-06 7.480775e-06 9.2390525e-21
2.4786473e-06 1.4384097e-05 4.5737656e-07 4.2296084e-05 5.462604e-05 5.8219184e-06 1.80838e-06 4.2092494e-09
