server_report/ae_hexa/ae_hexa_mask_upgrade/autoencoder_20251230_135817.pth (torch, 757166 bytes, 51 tensors)

enc1.kernel0 f4 [8, 1, 5, 1]
0	0x3f1ccb46	0.6124767
1	0xbdc48072	-0.095948115
2	0xbf354be1	-0.7081891
3	0xbe428017	-0.18994175
4	0x3e314545	0.1731158
5	0x3f14f521	0.5818654
6	0x3f01ca1d	0.50699025
7	0xbe1fc118	-0.15601003
8	0xbe288e95	-0.1646064
9	0xbe2c3123	-0.16815619
10	0xbe98241c	-0.2971505
11	0x3f54dedc	0.83152556
12	0x3f00a41d	0.50250417
13	0xbe87250a	-0.26395446
14	0xbe5de18b	-0.21668069
15	0xbe063b86	-0.13108644
16	0xbe935aaf	-0.28780124
17	0xbf3be466	-0.73395383
18	0xbe97af3f	-0.2962589
19	0x3eec239b	0.46120915
20	0xbee8a8f3	-0.45441398
21	0xbdcff5fd	-0.101543404
22	0x3f41ffd3	0.7578098
23	0x3f196818	0.5992446
24	0x3d7595e1	0.05995739
25	0x3f1a601c	0.603029
26	0x3f3e7108	0.7439122
27	0xbded5c11	-0.11589826
28	0x3db402dd	0.08789609
29	0x3e92ab48	0.28646302
30	0xbf145ab4	-0.579509
31	0xbed8959e	-0.4230165
32	0xbecc3429	-0.39883545
33	0xbf1af581	-0.6053086
34	0x3edd8288	0.4326365
35	0x3d3aad46	0.045575403
36	0xbce5c1e9	-0.028046565
37	0x3e832a90	0.2561841
38	0x3f26884b	0.65051717
39	0xbdcfb17a	-0.10141273

enc1.kernel1 f4 [8, 1, 4, 2]
0	0x3ec13eca	0.37743217
1	0x3c9fe3b2	0.019517753
2	0x3ecb65b1	0.39726022
3	0xbf050424	-0.51959443
4	0x3e4028eb	0.18765609
5	0xbea39987	-0.3195307
6	0x3ed04b85	0.40682617
7	0xbec6b81b	-0.38812336
8	0xbceec7f0	-0.029148072
9	0x3f7d595b	0.9896447
10	0x3edf0a2d	0.4356245
11	0x3f0c3bff	0.54779047
12	0x3e850925	0.2598354
13	0xbe9349e3	-0.2876731
14	0xbd1b18b0	-0.03786534
15	0xbe6d3972	-0.23166445
16	0xbd5cde67	-0.053923037
17	0xbe0c151d	-0.13679929
18	0x3ef048e9	0.46930626
19	0x3f0e2ac7	0.55534023
20	0xbebc091b	-0.36725697
21	0xbe588249	-0.2114345
22	0xbdf51769	-0.11967356
23	0xbef91253	-0.48646793
24	0xbeaeb30b	-0.34120974
25	0xbcabb24e	-0.020959046
26	0xbe0a92a5	-0.13532503
27	0xbe99d385	-0.3004419
28	0xbf26a676	-0.6509775
29	0xbce8113e	-0.028328534
30	0xbef78ad8	-0.48348117
31	0x3efb8b18	0.49129558
32	0xbe2be183	-0.16785245
33	0xbf3f7b00	-0.7479706
34	0x3ef5f6c9	0.48039845
35	0xbef16087	-0.47143957
36	0x3f1f4704	0.62217736
37	0x3ee5a789	0.44854382
38	0xbe95479d	-0.291562
39	0x3eabe61d	0.33574
40	0x3fb1e6d3	1.3898567
41	0x3e03a470	0.12855697
42	0xbe7f0aa9	-0.2490641
43	0x3e1cee7d	0.15325351
44	0xbef686df	-0.48149773
45	0x3f0b7d7f	0.54488367
46	0x3ebeb3b8	0.3724649
47	0x3f2a6a65	0.66568595
48	0xbedfd7ec	-0.43719423
49	0xbf29fe01	-0.66403204
50	0xbf17e1c7	-0.59328884
51	0xbe68781e	-0.22702071
52	0xbe6acd97	-0.22929989
53	0xbeb8b0cd	-0.36072388
54	0x3d5b4507	0.053532626
55	0xbe85d916	-0.26142186
56	0xbf20832f	-0.6270017
57	0x3eca7b49	0.39547184
58	0xbf2d1897	-0.67615646
59	0x3f03042a	0.5117823
60	0x3eb4ba9b	0.3529862
61	0x3f264e66	0.64963377
62	0x3f50c116	0.81544626
63	0x3ecf9dc2	0.40550047

enc1.kernel2 f4 [8, 1, 3, 2]
0	0x3e32b3a2	0.17451337
1	0xbec74128	-0.38916898
2	0x3eae4296	0.34035176
3	0xbe97637f	-0.29568097
4	0x3daed471	0.08536614
5	0xbeb7c051	-0.35888913
6	0x3e40554e	0.18782541
7	0x3ee5ccc3	0.44882783
8	0x3ed497ea	0.4152215
9	0x3f388b8a	0.7208792
10	0x3d58e01e	0.05294811
11	0x3ef64a80	0.48103714
12	0x3e20ddb4	0.15709573
13	0x3e3e3512	0.18574932
14	0xbd2cd23d	-0.042192686
15	0x3e130c41	0.14360143
16	0xbe941374	-0.28921092
17	0xbec899d7	-0.3917987
18	0xbde1697c	-0.11006448
19	0x3ed09935	0.40741888
20	0xbdd1e74d	-0.10249195
21	0x3ef8004c	0.48437726
22	0xbd9b58b1	-0.07585276
23	0x3eb8d26d	0.36098042
24	0x3f0e1469	0.55499893
25	0xbec6e235	-0.38844457
26	0x3f2cd73e	0.67515934
27	0xbf0b7589	-0.5447622
28	0x3e694744	0.22781092
29	0xbe8c290e	-0.27375072
30	0xbe5935fd	-0.21212001
31	0xbe41726b	-0.18891303
32	0xbf035e39	-0.5131565
33	0x3e03d1e9	0.12873043
34	0x3e0fdf1f	0.14049958
35	0x3eb7cbb5	0.35897604
36	0x3f11c746	0.5694469
37	0xbecc5cf3	-0.39914665
38	0x3d97dfd6	0.0741574
39	0xbedda517	-0.43290016
40	0x3e84d4e7	0.25943682
41	0xbe931382	-0.2872582
42	0xbf2fa3c1	-0.68609244
43	0xbdbec7f6	-0.09315483
44	0xbe299f3d	-0.16564651
45	0xbd37de9b	-0.044890027
46	0x3f279e20	0.65475655
47	0xbe0f92be	-0.14020821

enc1.bias_tensor f4 [8]
0	0x3e165e99	0.14684524
1	0x3e809c00	0.2511902
2	0xb9eb29fe	-0.0004485398
3	0x3e0d02cc	0.13770598
4	0x39aa9bf2	0.00032541115
5	0x3e28a531	0.16469266
6	0x3eb26ed4	0.3485018
7	0x3c3dc057	0.011581502

enc2.kernel0 f4 [4, 8, 3, 1]
0	0xbe8564a6	-0.2605335
1	0xbe5f38ca	-0.21799007
2	0x3e063283	0.13105206
3	0xbde3cbfc	-0.11122891
4	0x3ebdec82	0.37094504
5	0xbe39e13e	-0.1815233
6	0xbe5a6a68	-0.21329653
7	0x3e4eda48	0.20200455
8	0xbea1b832	-0.31585842
9	0xbd31e985	-0.043435592
10	0xbe2886fd	-0.16457744
11	0x3d8c49a4	0.06849983
12	0x3c9a88ef	0.018864123
13	0x3e9c5dfb	0.3054045
14	0x3dfcba35	0.12340204
15	0x3dcf1239	0.101108976
16	0x3ea04ccb	0.31308588
17	0x3cec0769	0.028812127
18	0x3cfc20cf	0.030777363
19	0xbf680420	-0.90631294
20	0xbde94234	-0.1138958
21	0xbe86d124	-0.26331437
22	0x3d1f90de	0.038956515
23	0xbe3831a6	-0.1798769
24	0xbd8c4af3	-0.06850233
25	0xbecfabbf	-0.4056072
26	0xbefcc3b4	-0.4936806
27	0x3e444289	0.19166006
28	0x3de051b3	0.10953083
29	0x3e394620	0.18093157
30	0x3e20c1dd	0.15698953
31	0xbe872718	-0.26397014
32	0xbd9adbba	-0.07561441
33	0x3d87cc1e	0.06630729
34	0x3ee73517	0.45157692
35	0x3f09fddc	0.53902984
36	0x3e6531bb	0.22382252
37	0xbdb83ddd	-0.089961745
38	0xbdf97fb3	-0.1218256
39	0x3dd80566	0.10547905
40	0x3d9b4597	0.075816326
41	0x3cfa317f	0.03054118
42	0xbe358eec	-0.17730302
43	0xbcf5b8fb	-0.029995432
44	0xbf3b3b6c	-0.73137546
45	0x3e26064b	0.16213338
46	0x3ecd140b	0.40054354
47	0x3f064486	0.5244831
48	0x3e59bfd3	0.21264581
49	0x3d83595e	0.0641353
50	0x3edafa57	0.4276912
51	0x3db481b8	0.088138044
52	0xbdf6d772	-0.12052812
53	0xbe182b2d	-0.1486022
54	0x3f073f9c	0.52831435
55	0xbeba2ca6	-0.3636219
56	0x3eddeaf5	0.4334332
57	0xbdff5e01	-0.12469102
58	0x3be33c0c	0.0069346484
59	0x3e675581	0.22591211
60	0x3ed97dd8	0.42478824
61	0xbaac7076	-0.0013156075
62	0x3e0172c5	0.12641437
63	0x3ec5ea21	0.3865519
64	0xbda9761c	-0.08274481
65	0x3bb8ed79	0.0056435433
66	0xbe69f20b	-0.22846238
67	0xbe437e92	-0.19091251
68	0xbd19fc30	-0.03759402
69	0x3ed49477	0.4151952
70	0xbd5c3f7d	-0.053771485
71	0x3f20c850	0.6280565
72	0xbcf6bf24	-0.03012044
73	0xbe48f125	-0.1962324
74	0x3d92628a	0.07147701
75	0x3de8ac83	0.11361029
76	0xbddc10c0	-0.10745382
77	0xbe9dbe20	-0.30809116
78	0x3e816f48	0.25280213
79	0xbe7ce223	-0.2469564
80	0x3cb35a20	0.02189356
81	0xbeb637ea	-0.35589534
82	0xbe02f874	-0.1279009
83	0x3f2770f9	0.6540676
84	0x3ee4a037	0.44653484
85	0x3d4a99e9	0.049463186
86	0x3e8f0170	0.27930784
87	0x3daa075e	0.083021864
88	0xbe77ff19	-0.24218406
89	0x3e0a633d	0.13514419
90	0xbdc8abf4	-0.097984225
91	0xbeafe34f	-0.3435311
92	0xbcd011d6	-0.02539913
93	0xbd4e773e	-0.050406687
94	0xbe665b7b	-0.22495835
95	0x3e092939	0.13394631

enc2.kernel1 f4 [4, 8, 2, 2]
0	0xbe5d9e6d	-0.21642466
1	0x3db290ae	0.08719002
2	0x3d08a457	0.03335985
3	0x3e1394d8	0.14412248
4	0x3c9ba0c0	0.01899755
5	0xbd493f90	-0.049132884
6	0x3e5c67ff	0.21524046
7	0x3e2ff3fd	0.17182918
8	0x3e9871f1	0.2977443
9	0x3eb8848b	0.36038622
10	0x3dfe055b	0.12403365
11	0x3e53b042	0.20672706
12	0x3d27ddd5	0.04098304
13	0xbe30e872	-0.17276171
14	0x3e12268a	0.14272514
15	0xbe9733bf	-0.29531667
16	0x3e0cd2a2	0.13752225
17	0x3e1c85a4	0.15285355
18	0xbde3f883	-0.11131384
19	0x3e95f261	0.29286483
20	0x3d98494c	0.07435855
21	0x3dee5aba	0.116383985
22	0xbd9e1933	-0.0771965
23	0x3e362ea3	0.17791228
24	0xbd50fe6b	-0.051023882
25	0xbd20982e	-0.03920763
26	0xbe977a3e	-0.2958545
27	0xbdd466de	-0.10371183
28	0xbcb2bf57	-0.021819754
29	0x3e135cac	0.1439082
30	0x3d416064	0.047211066
31	0xbe2d2f39	-0.16912545
32	0x3dfd80e3	0.12378099
33	0xbc4328f9	-0.011911624
34	0xbe42230b	-0.1895868
35	0xbd2fedcf	-0.0429514
36	0x3e343d71	0.17601563
37	0xbe69d4c5	-0.22835071
38	0x3ea3fa0d	0.3202671
39	0xbd5c73e1	-0.05382145
40	0xbeed6e94	-0.46373427
41	0xbd55afe1	-0.052169684
42	0xbe7f9f84	-0.24963194
43	0x3dd59be9	0.10430128
44	0xbe1f94c1	-0.15584089
45	0x3e9d050b	0.3066791
46	0xbe18751e	-0.14888427
47	0xbc31e61d	-0.010858086
48	0x3df71b9c	0.12065813
49	0xbe95405e	-0.2915067
50	0x3e5c90dc	0.21539634
51	0x3c5c2bac	0.013438147
52	0xbc407aa7	-0.011747993
53	0x3df6bb11	0.12047399
54	0x3cb3f00f	0.021965055
55	0x3e3ef443	0.18647866
56	0x3dc57ba5	0.09642724
57	0xbb1f5750	-0.0024313517
58	0xbc8afca7	-0.016966177
59	0xbdd31a45	-0.10307745
60	0x3c5b081b	0.013368632
61	0x3d5c08bc	0.053719267
62	0x3df5337a	0.11972709
63	0x3ec23536	0.37931222
64	0xbe06e1be	-0.13172051
65	0xbb0a9248	-0.002114432
66	0x3e14feec	0.1455037
67	0xbd4040c2	-0.046936758
68	0x3efba03c	0.49145687
69	0xbdcdbc41	-0.10045672
70	0xbe688672	-0.22707537
71	0x3e43fbec	0.1913907
72	0xbbb14934	-0.005410338
73	0x3e7fb685	0.2497197
74	0xbe9bc441	-0.30423167
75	0xbd8e3697	-0.06944006
76	0xbde1b47b	-0.11020752
77	0xbdb9facd	-0.090810396
78	0x3d8360a2	0.064149156
79	0x3c505525	0.012715613
80	0x38b91ab2	8.82646e-05
81	0xbc1e03f5	-0.009644498
82	0x3d62601d	0.055267442
83	0x3dbb9a2f	0.091602676
84	0x3d26315b	0.040574413
85	0x3cd1be51	0.025603445
86	0xbc548573	-0.01297127
87	0x3da293c0	0.07938337
88	0xbeab9753	-0.3351389
89	0xbb7d3c65	-0.0038640734
90	0x3e1d8a1f	0.1538472
91	0x3d21b59c	0.039479837
92	0x3e380b89	0.1797315
93	0xbdecbd38	-0.11559528
94	0x3dd906b4	0.10596982
95	0xbe153cd2	-0.14573982
96	0x3e78a72d	0.24282522
97	0xbd7b0a42	-0.06128908
98	0x3ec2cf26	0.38048667
99	0x3d228ddc	0.03968607
100	0xbe1aa809	-0.15103163
101	0x3e6e4463	0.23268275
102	0xbe4ef351	-0.20210005
103	0xbd829d59	-0.06377668
104	0x3ee74eae	0.45177215
105	0x3eb2d206	0.3492586
106	0x3d42f1a4	0.047593728
107	0x3d79704e	0.060898118
108	0xbe12b695	-0.14327462
109	0x3e101e7f	0.14074133
110	0x3dbb6bc3	0.09151413
111	0x3f46a948	0.7760205
112	0x3e6dfe7a	0.23241606
113	0x3f164e0f	0.5871286
114	0x3e11a09c	0.14221424
115	0x3eaa9af3	0.33321342
116	0xbe3e4edb	-0.18584768
117	0x3ea32a4a	0.31868201
118	0xbe841c73	-0.25802955
119	0x3e080b03	0.1328545
120	0x3ed18068	0.4091828
121	0xbe96026e	-0.2929873
122	0x3e58b1c4	0.21161562
123	0x3b8d8e29	0.0043199253
124	0x3e084cb5	0.13310511
125	0x3e9d623a	0.30739003
126	0x3e74c8f6	0.23904786
127	0x3dfe91f3	0.12430181

enc2.bias_tensor f4 [4]
0	0x3ec6b8d6	0.38812894
1	0x3da1d3e0	0.0790174
2	0x3b8f799f	0.004378512
3	0x3c21f080	0.009884

fc_enc.weight f4 [64, 468]
0	0x3cccedc0	0.025015712
1	0xbd587b4b	-0.052851956
2	0xbd9e051f	-0.077158205
3	0xbd335f20	-0.04379189
4	0x3d7b8c14	0.061412886
5	0x3de760c8	0.112977564
6	0xbe1ad369	-0.15119709
7	0xbc523b15	-0.012831469
8	0x3df1fbce	0.11815606
9	0xbdb0bf25	-0.08630208
10	0xbe170355	-0.14747365
11	0xbc80a7de	-0.015705045
12	0xbbce5944	-0.0062972624
13	0x3c44df47	0.012016124
14	0xbe27218b	-0.1632139
15	0x3e33f382	0.1757336
16	0x3d3ef052	0.046615906
17	0x3be7c882	0.007073463
18	0x3e070801	0.13186647
19	0x3c241884	0.010015611
20	0x3cebe0e1	0.028793754
21	0xbe0143ea	-0.12623563
22	0xbac029a1	-0.0014660844
23	0x3d5d8251	0.054079358
24	0xbcc95fae	-0.024581756
25	0xbd62305f	-0.05522191
26	0x3cf036af	0.02932295
27	0x3e195fab	0.149779
28	0x3d68cd3e	0.05683636
29	0xbddb82ca	-0.107183054
30	0x3e0e8610	0.13918328
31	0xbc62492d	-0.013811392
32	0x3e27a843	0.1637278
33	0xbc4ec11f	-0.012619286
34	0x3e1f353f	0.15547656
35	0xbda1cc5c	-0.079003066
36	0x3db2458d	0.08704672
37	0x3e24bde5	0.16088064
38	0xbd474ba7	-0.048656132
39	0x3b69461b	0.0035594765
40	0xbe72e5d6	-0.23720488
41	0x3ca6daf3	0.020368075
42	0xbd6fe11e	-0.058564298
43	0xbdc97479	-0.098366685
44	0xbc4d0d74	-0.0125154145
45	0x3d35ef3a	0.044417597
46	0xbcab68bb	-0.020923963
47	0xbd5af2c3	-0.053454172
48	0x3dcf2f7e	0.1011648
49	0xbcee5c14	-0.02909664
50	0xbdeb8877	-0.11500638
51	0xbc0ec014	-0.008712787
52	0xbe081267	-0.1328827
53	0x3da22c22	0.07918574
54	0x3c8c20ce	0.017105486
55	0x3e1194c7	0.1421691
56	0xbdee024f	-0.11621534
57	0xbbbcf32e	-0.005766294
58	0x3d91246e	0.070870265
59	0x3df80f1d	0.12112258
60	0x3d8a7b6d	0.06761823
61	0xbd8b6a1a	-0.06807347
62	0xbddeddcc	-0.10882148
63	0x3e812c02	0.25228888
64	0xbd76ba89	-0.060236488
65	0x3b5537d9	0.0032534509
66	0x3e15df58	0.1463598
67	0xbe116b1e	-0.14201018
68	0x3a5d8c1d	0.00084513595
69	0x3d97c75c	0.07411072
70	0x3d3ce42e	0.046116047
71	0xbe543ef7	-0.20727144
72	0xbddeef77	-0.10885518
73	0x3dc2b21b	0.09506627
74	0xbdf38940	-0.11891413
75	0x3e511791	0.20419146
76	0xbc8f032b	-0.017457565
77	0x3e3084fb	0.17238228
78	0x3d3ef224	0.046617642
79	0xbaff1c72	-0.0019463433
80	0xbd2a466e	-0.041571073
81	0xbe0c4a50	-0.13700223
82	0xbd10f8ac	-0.035393402
83	0x3d8c54ff	0.06852149
84	0xbd9c7f3c	-0.076414555
85	0xbe0c7e1a	-0.13719979
86	0xbd4df0e1	-0.05027855
87	0x3d8c22c2	0.06842567
88	0xbdc73fe9	-0.09728987
89	0xbe2efd63	-0.17088847
90	0x3e8abf86	0.27099246
91	0x3d3f7841	0.046745542
92	0x3bfd678a	0.00773329
93	0xbb8347cb	-0.004006361
94	0x3e1a833d	0.15089126
95	0xbe0adde5	-0.13561209
96	0x3c86cc8f	0.016454963
97	0xbbfb96f9	-0.0076779095
98	0x3e120fac	0.14263791
99	0xbd831bd0	-0.06401789
100	0x3e2b8dd0	0.16753316
101	0xbe17a8a6	-0.14810428
102	0x3d31dbc7	0.043422487
103	0xbd70708a	-0.058701076
104	0x3d109efb	0.035307866
105	0x3c0ece10	0.008716121
106	0xbcb49b36	-0.022046667
107	0x3dc63fac	0.09680113
108	0xbe0304d9	-0.12794818
109	0x3d007ea7	0.031370785
110	0x3d280cd9	0.041027877
111	0x3d25a067	0.040436175
112	0xbd4a3efe	-0.04937648
113	0xbd31c619	-0.04340181
114	0x3e128434	0.14308244
115	0xbbeb4ffa	-0.007181165
116	0xbd3389a5	-0.04383244
117	0xbc489b22	-0.012244018
118	0xbde6ab6c	-0.11263165
119	0x3e223c4b	0.15843312
120	0xbd4ae322	-0.049533017
121	0x3d132c26	0.035930775
122	0xbb88ef19	-0.0041788933
123	0xbc8f7d9d	-0.017515952
124	0x3d7b0dab	0.06129233
125	0xbe229e02	-0.15880588
126	0x3dc3b12a	0.09555276
127	0x3d0d89d1	0.03455526
128	0xbd37da79	-0.044886086
129	0x3cc56248	0.024094716
130	0x3cbdede8	0.023184732
131	0x3c083ec4	0.008315746
132	0x3d05a898	0.032631487
133	0xbbdeae65	-0.006795692
134	0xbd73b9a0	-0.059503198
135	0xbd692c5b	-0.056927066
136	0xbdeb21ab	-0.11481031
137	0xbcef168b	-0.029185554
138	0x3de45e8f	0.11150848
139	0x3d1a693e	0.037698023
140	0xbd6fb61a	-0.058523275
141	0x3de1f13d	0.11032341
142	0xbe0edb38	-0.13950813
143	0x3d13058b	0.035893958
144	0x3e018854	0.12649661
145	0x3da60736	0.08106844
146	0xbd1633b4	-0.0366704
147	0x3d7c72c0	0.06163287
148	0x3d597ff6	0.05310055
149	0xbe03c16b	-0.12866752
150	0x3da585a3	0.0808213
151	0xbdabc6b2	-0.083875075
152	0xbd8b29bb	-0.06795069
153	0x3dad4dea	0.084621266
154	0xbccd1c67	-0.025037957
155	0xbda8b103	-0.08236887
156	0xbc85d9e3	-0.016339248
157	0xbd34b5b9	-0.044118617
158	0x3ce9e7bb	0.02855288
159	0x3d7b7617	0.061391916
160	0xbc76df2d	-0.015067858
161	0x3d47e527	0.04880252
162	0x3e18e11f	0.14929627
163	0xbd9d90e8	-0.07693654
164	0xbde31fc5	-0.11090044
165	0x3e2daeea	0.16961256
166	0x3db6f4ce	0.089334115
167	0xbdfede71	-0.12444771
168	0x3d986cff	0.07442664
169	0xbe4212c5	-0.18952473
170	0x3d57216d	0.05252211
171	0x3da12cf1	0.078699
172	0xbc453ee4	-0.01203892
173	0xbe09e46d	-0.13466044
174	0xbdf33c6d	-0.1187676
175	0x3e1436a3	0.14473967
176	0xbcf6d09d	-0.030128771
177	0x3d2af50b	0.041737597
178	0xbe867274	-0.26259196
179	0xbcc5c3a2	-0.024141137
180	0xbba66c8e	-0.0050788587
181	0x3e26e721	0.16299106
182	0x3cda0d4f	0.026617674
183	0xbcedc381	-0.029023888
184	0x3e3deb39	0.18546762
185	0xbd594b31	-0.053050224
186	0xbdb13345	-0.08652357
187	0x3bac1ce8	0.0052524693
188	0xbd19da7f	-0.03756189
189	0x3e3783af	0.17921327
190	0xbd8e4095	-0.06945912
191	0xbd0afbcd	-0.033931542
192	0xbbcb97bf	-0.006213158
193	0x3e04002f	0.12890695
194	0x3dbd07e3	0.0923002
195	0x3d962352	0.073309556
196	0xbd3dbfe2	-0.04632557
197	0xbcd1a0df	-0.025589405
198	0xbd7b3ac7	-0.06133535
199	0x3e042fe2	0.12908891
200	0xbc16c249	-0.009201595
201	0x3e1f92e3	0.15583377
202	0xbd1a99c6	-0.037744306
203	0xbd6f30c5	-0.05839612
204	0x3d95d662	0.07316281
205	0x3e2b0e74	0.16704732
206	0x3db0b9df	0.08629202
207	0xbe3e9d53	-0.18614702
208	0x3c92bde1	0.017912807
209	0xbd054309	-0.032534633
210	0xbdd40fad	-0.103545524
211	0xbd4fc508	-0.050725013
212	0x3d2bd5ba	0.041951872
213	0x3dfaa25a	0.12237997
214	0xbe0b909f	-0.13629387
215	0xbc7b0562	-0.015321108
216	0xbd544b02	-0.051829346
217	0x39083911	0.0001299123
218	0x3db10e4d	0.08645306
219	0xbd8428d3	-0.06453099
220	0xbdb7f74c	-0.08982715
221	0xbc8fac97	-0.017538352
222	0x3bae6106	0.0053216247
223	0xbe1504f7	-0.14552675
224	0x3e6b1d1c	0.22960323
225	0x3e366385	0.17811401
226	0xbe0ad7ee	-0.13558933
227	0x3e40ca20	0.18827105
228	0xbe77c4f8	-0.24196231
229	0xbd45cead	-0.048292805
230	0xbe5e3008	-0.2169801
231	0x3e055439	0.1302041
232	0x3d393b4e	0.045222573
233	0xbe074140	-0.13208485
234	0x3d13e87b	0.036110383
235	0x3d725eff	0.059172627
236	0xbe25d0eb	-0.16192977
237	0xbe584390	-0.21119523
238	0xbc5d6615	-0.013513108
239	0x3c85c7a8	0.016330555
240	0xbe0b6504	-0.13612753
241	0xbd6742d8	-0.05646023
242	0xbe3c8f13	-0.18413953
243	0xbd803a24	-0.062610894
244	0xbe192303	-0.14954762
245	0x3dd32018	0.10308856
246	0x3d247bb7	0.040157046
247	0x3ce6a21e	0.028153475
248	0xbe26de50	-0.16295743
249	0x3eac84d3	0.33695087
250	0xbe5faa77	-0.21842371
251	0x3e34398b	0.17600076
252	0x3ab34bef	0.0013679246
253	0x3e02ca51	0.1277249
254	0x3d064abc	0.032786116
255	0x3e2db574	0.1696375

fc_enc.bias f4 [64]
0	0x3c889320	0.016671717
1	0xbca33ea4	-0.01992733
2	0x3d7393ad	0.059467006
3	0xbd7153b3	-0.058917712
4	0xbd69a3dd	-0.057041038
5	0x3c864e05	0.016394624
6	0xbc98ff47	-0.018676413
7	0x3abe7472	0.0014530553
8	0xbcfe50dd	-0.031044418
9	0xbd8f7a65	-0.07005767
10	0xbca90efa	-0.020637024
11	0x3d5df2a2	0.05418647
12	0xbd60a3cf	-0.05484372
13	0xbd26da3d	-0.040735472
14	0xbd579068	-0.05262795
15	0x39fb01b8	0.0004787573
16	0xbc899e4b	-0.016799113
17	0x3dc9cf4a	0.098539904
18	0xbcfad060	-0.030616939
19	0x3c6e20d5	0.014534195
20	0x3ccac7cc	0.024753474
21	0x3daa7d68	0.083247006
22	0xbc35b741	-0.011091054
23	0xbd170776	-0.03687235
24	0xbc956071	-0.018234463
25	0xbdc004cb	-0.09375914
26	0xbd46dd6a	-0.048551
27	0x3d382efa	0.044966675
28	0xbc86d78b	-0.0164602
29	0x3b254e76	0.0025223768
30	0xbd8e85bb	-0.06959101
31	0xbc4e24af	-0.012581988
32	0xbd8badca	-0.06820257
33	0xbd9f07f7	-0.07765191
34	0xbd3267ff	-0.04355621
35	0xbc43bba9	-0.011946597
36	0xbd8453bb	-0.06461283
37	0x3ce3e361	0.027818384
38	0x3cbc22d6	0.02296583
39	0xbd3c6c09	-0.046001468
40	0xbdab89ae	-0.0837587
41	0xbd812770	-0.0630635
42	0x3c0cc93a	0.008592898
43	0x3da01b8e	0.07817756
44	0xbd17c19b	-0.03704987
45	0xbd9f3383	-0.07773497
46	0x3d290b66	0.041270636
47	0xbd01e765	-0.031714816
48	0xbdbf8b1d	-0.09352706
49	0x3d1dc164	0.03851451
50	0x3ce6d752	0.028178845
51	0xbd980c9e	-0.074242815
52	0x3d896605	0.06708912
53	0xbcc899db	-0.024487427
54	0x3d46cb3f	0.048533674
55	0xbd98e898	-0.07466239
56	0x3d775d0e	0.06039148
57	0x3d9028ed	0.07039056
58	0x3d926a9d	0.07149241
59	0x3d927f24	0.071531564
60	0x3d8fe9dc	0.07027027
61	0xbd911e22	-0.070858255
62	0x3c7d1dfd	0.015449044
63	0x3d9c1a35	0.07622186

fc_dec.weight f4 [468, 64]
0	0x3dedbba6	0.11608057
1	0x3bbd6a5e	0.005780502
2	0x3dfb6975	0.12275974
3	0x3ce97567	0.028498365
4	0x3e179ad4	0.14805156
5	0x3e4a3a70	0.19748855
6	0x3d45c61b	0.04828463
7	0x3d997956	0.07493846
8	0xbdb14ae9	-0.08656866
9	0xbdeccebb	-0.11562868
10	0x3d4a0cf7	0.04932877
11	0x3b17adef	0.0023144444
12	0x3e2768ac	0.16348523
13	0xbdce3b4d	-0.100699045
14	0xbd703ad0	-0.058649838
15	0x3d5d6e9c	0.054060563
16	0x3d397cb1	0.04528493
17	0x3e5868c5	0.21133716
18	0xbd4c1cb9	-0.04983208
19	0x3d4837ef	0.048881467
20	0x3d0ce007	0.034393337
21	0x3d87286a	0.06599505
22	0xbd60e653	-0.054907154
23	0xbd9c279a	-0.07624741
24	0xbdfef9f2	-0.12450017
25	0xbe0d895f	-0.13821934
26	0xbda5a5d2	-0.08088268
27	0x3e046f83	0.12933163
28	0xbe27754d	-0.1635334
29	0xbd852beb	-0.06502517
30	0xbdfdb1f8	-0.123874605
31	0xbd1db48e	-0.03850227
32	0x3e2fced3	0.17168741
33	0xbdc44937	-0.09584277
34	0xbe55da4a	-0.20884052
35	0x3e619b0d	0.22031803
36	0x3da19f8c	0.07891759
37	0x3d7da6dd	0.06192671
38	0xbe3a383e	-0.18185517
39	0xbe380949	-0.17972292
40	0xbd43eb9d	-0.04783212
41	0xbe0e0ee8	-0.13872874
42	0x3dc3dd82	0.09563734
43	0x3dcaae54	0.09896532
44	0xbd1c1118	-0.03810224
45	0x3d53c56b	0.051701944
46	0x3dbbf56a	0.091776684
47	0xbd718693	-0.05896623
48	0xbdd32842	-0.10310413
49	0xbc4a0f18	-0.0123327
50	0xbd849456	-0.06473605
51	0xbdbd603b	-0.0924687
52	0xbd2dfea9	-0.04247919
53	0xbc46b77d	-0.012128708
54	0x3e4627d7	0.19351135
55	0x3db4aaf9	0.08821673
56	0x3d8e70c0	0.06955099
57	0x3cb133af	0.02163109
58	0x3c939d98	0.018019482
59	0x3e40115d	0.18756624
60	0x3ddac621	0.10682321
61	0x3d6bb39d	0.05754434
62	0x3dbeaf56	0.093107864
63	0x3dd57bdd	0.10424016
64	0x3ebdc673	0.37065467
65	0xbd7794a1	-0.060444478
66	0xbc1ee9b3	-0.009699273
67	0xbdc88fdd	-0.09793065
68	0x3e905ddb	0.28196606
69	0x3e50a78f	0.20376419
70	0x3e7e2c25	0.24821527
71	0xbdc238d2	-0.09483494
72	0xbe3f5f74	-0.18688756
73	0xbe489854	-0.19589359
74	0x3e941f9a	0.2893036
75	0xbdc99276	-0.09842388
76	0x3e60defa	0.21960059
77	0xbe047085	-0.12933548
78	0xbd77e093	-0.060516905
79	0x3daad309	0.08341033
80	0x3de7ddde	0.11321615
81	0x3e3c14ba	0.18367282
82	0xbdc8e6e1	-0.09809662
83	0x3c6caa02	0.01444483
84	0x3dbdaf0f	0.092619054
85	0xbc9c8d88	-0.019110456
86	0xbc252b03	-0.010081056
87	0xbe9401c0	-0.28907585
88	0x3de58767	0.112074666
89	0xbebf2be3	-0.3733817
90	0xbdcdc117	-0.100465946
91	0x3e31ae8e	0.17351744
92	0xbdf95179	-0.12173743
93	0xbe1ed4aa	-0.15510812
94	0xbd428648	-0.04749134
95	0x3d9068fb	0.070512734
96	0x3da7a764	0.08186224
97	0x3cd78379	0.026307808
98	0xbe1becc8	-0.15227044
99	0x3e6bfa25	0.23044641
100	0x3d795c9e	0.060879342
101	0x3e27afbf	0.16375636
102	0xbe8b0635	-0.27153173
103	0xbe94e1e3	-0.29078588
104	0xbe083482	-0.1330128
105	0xbcc3f654	-0.02392117
106	0x3e9a02f4	0.30080378
107	0x3e80f75f	0.2518873
108	0xbc8bff85	-0.017089615
109	0x3dda2c6d	0.10653005
110	0x3e51dc65	0.2049423
111	0xbde3bf5b	-0.111204825
112	0xbe78746c	-0.24263161
113	0xbd819467	-0.063271336
114	0x3ba89b1f	0.005145445
115	0xbe003fd1	-0.12524344
116	0x3dd7e3e3	0.10541513
117	0xbd3ee335	-0.0466034
118	0x3eaa0008	0.3320315
119	0x3b92d87e	0.0044813743
120	0x3d99fb58	0.07518643
121	0x3db5af2a	0.088713005
122	0xbdb6c4c1	-0.089242466
123	0x3e362365	0.1778694
124	0x3e7cdba1	0.24693157
125	0x3d01c727	0.031684067
126	0x3d8c6517	0.06855219
127	0x3eb2fa92	0.34956795
128	0xbbc6d58c	-0.0060679372
129	0xbdb37fbd	-0.087645985
130	0x3e25d4b5	0.16194423
131	0x3e21c358	0.15797174
132	0x3e1bb961	0.15207435
133	0xbca337f2	-0.019924138
134	0x3d249a67	0.040186312
135	0x3e1b9a8c	0.15195674
136	0xbe6c9fe6	-0.23107871
137	0x3b5f24a9	0.003404895
138	0xbd972587	-0.07380205
139	0x3d5cfa4e	0.053949647
140	0xbd33932b	-0.043841522
141	0xbcacd52e	-0.021097746
142	0x3de31ba3	0.11089256
143	0x3d22b4b9	0.03972313
144	0x3e355567	0.1770836
145	0xbde7735d	-0.11301301
146	0x3e20c2d5	0.15699323
147	0x3e876773	0.26446113
148	0xbd1728a2	-0.036903985
149	0xbd100c83	-0.035168182
150	0xbe14448f	-0.14479278
151	0x3ca3d745	0.02000011
152	0xbe00ef1a	-0.1259121
153	0xbd28af3e	-0.04118275
154	0x3d615a2b	0.05501763
155	0x3ddba4ef	0.10724818
156	0x3d2597d8	0.040428013
157	0x3d4d3854	0.050102547
158	0xbe47e755	-0.1952184
159	0xbdbddd5f	-0.09270739
160	0x3d8c4602	0.068492904
161	0x3e213460	0.15742636
162	0xbdf402cd	-0.11914597
163	0x3b8471e3	0.0040418967
164	0xbe2e4c4e	-0.17021295
165	0x3e0802f3	0.13282375
166	0xbe115722	-0.14193395
167	0x3d1b8633	0.03796978
168	0x3e4d21fc	0.20032495
169	0x3e4970b0	0.19671893
170	0xbd6b4189	-0.057435546
171	0x3d9590a7	0.07302981
172	0x3e0d2eeb	0.13787429
173	0x3e55a5b5	0.20863993
174	0x3da6fd47	0.081537776
175	0x3d565848	0.052330285
176	0xbe614fff	-0.22003172
177	0x3e2fc581	0.17165186
178	0x3e0f6883	0.14004712
179	0x3c97696a	0.018482883
180	0xbc819e85	-0.015822658
181	0xbe26a8f8	-0.16275394
182	0xbd90bc8e	-0.07067214
183	0x3d72bf1b	0.059264284
184	0x3dc5c440	0.09656572
185	0x3df893b3	0.121375464
186	0xbbefc3f7	-0.007317062
187	0xbd29d385	-0.041461486
188	0xbe1187c1	-0.14211942
189	0x3d557bec	0.052120134
190	0x3e9e7d0e	0.30954784
191	0x3da59984	0.080859214
192	0xbe3ded2d	-0.18547507
193	0xbe3ae418	-0.18251073
194	0x3d371b7f	0.044703957
195	0x3e69a990	0.22818589
196	0xbe363da6	-0.17796955
197	0x3d7c2777	0.061561074
198	0xbdc1060e	-0.09424983
199	0x3e88822e	0.2666182
200	0xbd23e9b7	-0.04001781
201	0x3e089c8c	0.13340968
202	0xbdd985f9	-0.106212564
203	0x3e208be0	0.15678358
204	0x3e238bde	0.15971324
205	0xbe61f4b3	-0.22066002
206	0x3d92f9f4	0.07176581
207	0xbb232847	-0.0024895833
208	0x3d6cdcda	0.057827808
209	0x3c8942e3	0.016755527
210	0x3ddf07c9	0.10890157
211	0x3e7bd314	0.24592239
212	0x3d2f4fd6	0.042800747
213	0xbc6f8c4e	-0.014620854
214	0xbdc102ab	-0.09424337
215	0xbd608299	-0.054812048
216	0xbe094707	-0.13406001
217	0xbcfa0be5	-0.03052325
218	0xbe2c1f2c	-0.16808766
219	0xbc1ba57b	-0.009499903
220	0x3bc31138	0.0059529804
221	0xbcd43ef4	-0.025908925
222	0xbddcc2c5	-0.10779337
223	0xbe493db4	-0.19652444
224	0xbe283b0f	-0.16428779
225	0xbd165ffc	-0.03671263
226	0xbe05c4a4	-0.13063294
227	0xbd917ded	-0.071040966
228	0x3e484023	0.19555716
229	0xbe1730f1	-0.14764763
230	0xbd4f497b	-0.050607186
231	0x3e1c68e5	0.15274389
232	0x3d7e4120	0.062073827
233	0x3c9948c2	0.018711451
234	0xbdbb32ab	-0.091405235
235	0x3e277f0f	0.16357063
236	0x3d67eac9	0.056620393
237	0xbe09cdb9	-0.13457383
238	0x3e51ffc9	0.2050773
239	0xbd296c19	-0.041362856
240	0x3d0517ca	0.03249339
241	0xbd583b6d	-0.052791048
242	0xbe5f667d	-0.2181644
243	0x3ceda991	0.02901152
244	0xbe8cd2ca	-0.2750457
245	0xbce5c09b	-0.028045943
246	0xbe121009	-0.1426393
247	0x3d9cec29	0.076622315
248	0x3dd7a8dd	0.10530255
249	0x3e1975ce	0.14986345
250	0x3e6a0ed2	0.22857216
251	0x3de534b4	0.11191693
252	0xbe2055e0	-0.15657759
253	0x3cee79d9	0.029110836
254	0xbd0c1e04	-0.034208313
255	0xbe1d5bf9	-0.15367116

fc_dec.bias f4 [468]
0	0x3df5b16d	0.11996732
1	0x3e474b5b	0.1946234
2	0x3d783244	0.060594812
3	0x3e000eae	0.125056
4	0x3e2510fa	0.16119757
5	0x3de5d36f	0.112219684
6	0x3e36b332	0.17841795
7	0x3dd2dbf3	0.10295858
8	0x3e45e2e3	0.19324832
9	0x3dbaa14b	0.091127954
10	0xbd4d02d6	-0.050051533
11	0x3e0d61d6	0.13806853
12	0xbc54e24d	-0.012993407
13	0x3da87d3b	0.08227011
14	0xbcf27305	-0.029595861
15	0x3e2c1280	0.16803932
16	0x3cfbc053	0.030731356
17	0x3d827f4d	0.06371937
18	0x3d4212d1	0.047381226
19	0x3d8d5255	0.06900469
20	0xbc46aba4	-0.012125883
21	0x3e0334f7	0.12813173
22	0x3cc01e1c	0.023451857
23	0x3d3c4e9f	0.045973416
24	0x3dbcc2c2	0.092168346
25	0x3e02ea5b	0.12784712
26	0x3d4b737d	0.049670685
27	0x3cece44e	0.028917458
28	0x3df79f74	0.1209096
29	0x3c3b7e0d	0.011443627
30	0x3d289bfe	0.04116439
31	0x3db7cad7	0.089742355
32	0x3dd0639e	0.101752505
33	0x3d3cc679	0.046087716
34	0x3dd22138	0.10260242
35	0x3e139e2c	0.14415807
36	0x3dab95e3	0.08378198
37	0x3e2a573f	0.16634844
38	0x3dc29ef2	0.09502973
39	0x3d75e13e	0.06002926
40	0x3d25e3d2	0.04050047
41	0x3e034743	0.12820153
42	0x3e260c5a	0.16215649
43	0x3d85ecbd	0.06539295
44	0x3e27b3ea	0.16377226
45	0x3e2a3e9b	0.16625445
46	0x3de23d1f	0.11046814
47	0x3e05f228	0.13080657
48	0x3d860667	0.0654419
49	0x3cc44973	0.023960805
50	0x3d21a37b	0.039462548
51	0x3e68b7c3	0.2272635
52	0x3befc004	0.007316591
53	0x3e0282c7	0.127452
54	0x3d9a07e4	0.07521036
55	0xbca2829d	-0.019837672
56	0x3ddd7ae6	0.10814457
57	0x3e2d3e9c	0.16918415
58	0x3d359b63	0.04433764
59	0x3d96c77a	0.07362266
60	0x3da0bd1f	0.07848572
61	0x3dceb10d	0.100923635
62	0x3d278bf8	0.04090497
63	0x3dd46e60	0.10372615
64	0x3c882752	0.016620312
65	0xbc7d6134	-0.01546507
66	0x3e21670f	0.1576197
67	0x3d2fce6e	0.042921476
68	0xbc9fe854	-0.019519962
69	0x3e3108fd	0.17288585
70	0x3d5014c1	0.050801042
71	0x3dbcc750	0.09217703
72	0x3e2dc706	0.16970453
73	0x3c17a2d2	0.009255128
74	0xbb2fd4e6	-0.0026829778
75	0x3cf6cc5c	0.030126743
76	0x3e0b922f	0.13629983
77	0x3e5b4135	0.21411593
78	0x3e0e44f7	0.13893496
79	0x3e0b1318	0.13581502
80	0x3dd8bc32	0.105827704
81	0x3e20e6d0	0.15713048
82	0x3c185742	0.009298148
83	0x3d95ca5b	0.07313987
84	0x3d72dbc8	0.05929163
85	0x3d8941f7	0.06702035
86	0x3d66b5b9	0.056325648
87	0xbc8b5fb5	-0.01701341
88	0x3dbec594	0.09315029
89	0x3e6da699	0.23208083
90	0xbcf0cdda	-0.029395033
91	0xbc7f0f45	-0.015567605
92	0x3d580f20	0.0527488
93	0x3c2efea3	0.010680827
94	0x3d5fa5e3	0.05460156
95	0x3d1e53f7	0.038654294
96	0x3cd8437d	0.026399368
97	0x3de7c6da	0.11317225
98	0x3c739738	0.014867596
99	0x3d406aff	0.04697704
100	0x3dd55de8	0.10418302
101	0x3cbc572c	0.022990786
102	0xbd657e4f	-0.05602866
103	0x3e611c99	0.21983565
104	0x3e341dc5	0.17589481
105	0xbc2b984d	-0.010473323
106	0x3d0d98fe	0.034569733
107	0x3dd447e9	0.10365278
108	0x3c8010d2	0.01563302
109	0x3d121c55	0.03567155
110	0xbd6c41c5	-0.05767991
111	0x3e10375b	0.14083616
112	0xb9710659	-0.00022985916
113	0x3d7ea958	0.062173218
114	0x3c9feb5d	0.01952141
115	0xbc51ddbe	-0.012809215
116	0x3e6e6c1f	0.23283432
117	0x3d90ce56	0.070706055
118	0x3cfaefca	0.030631918
119	0x3df4604a	0.11932428
120	0x3d3cda83	0.046106827
121	0x3dda5b25	0.10661916
122	0x3d58a40a	0.052890815
123	0x3e1f27db	0.15542547
124	0x3e360eb1	0.17779042
125	0x3ddd42fe	0.10803793
126	0x3c8ed1eb	0.017434081
127	0x3d848abe	0.064717755
128	0x3e0e79c4	0.13913637
129	0x3c56bd19	0.013106608
130	0x3e19267e	0.1495609
131	0x3da2eef5	0.07955734
132	0x3d2d653d	0.042332876
133	0x3d9ee43b	0.07758375
134	0x3e14fea3	0.14550261
135	0x3d8bf7d9	0.068343826
136	0x3e221051	0.15826537
137	0x3e169aab	0.14707439
138	0x3e0dc2b5	0.13843806
139	0x3dc5aa5d	0.09651635
140	0x3e53412b	0.20630328
141	0x3e82c7f2	0.2554317
142	0x3dffa58c	0.124827474
143	0x3da6ade3	0.08138635
144	0x3d29e374	0.04147668
145	0x3dffb100	0.12484932
146	0x3de1cc21	0.110252626
147	0x3de308a3	0.11085632
148	0x3dff8b63	0.12477758
149	0x3d91b242	0.07114078
150	0x3e3a187b	0.18173401
151	0x3e3acd5b	0.182424
152	0x3df47e78	0.119381845
153	0x3e7af65a	0.24508038
154	0x3e084cfe	0.1331062
155	0x3d8c1ea1	0.068417795
156	0x3d18dc66	0.037319563
157	0x3e017581	0.1264248
158	0x3e3806b9	0.17971314
159	0x3da99583	0.0828047
160	0x3e55e8b7	0.20889555
161	0x3e1c5d97	0.15270077
162	0x3e1edbad	0.15513487
163	0x3e2da4bb	0.16957371
164	0x3db0ec83	0.08638861
165	0x3dbc6e7e	0.09200762
166	0x3d440381	0.047854904
167	0x3d6e6cbf	0.058209177
168	0x3de40fa8	0.11135799
169	0x3e000577	0.12502085
170	0x3d96c32e	0.07361446
171	0x3dcedd07	0.10100751
172	0x3dc0312c	0.09384379
173	0x3e3b3601	0.1828232
174	0x3d827732	0.06370391
175	0x3e0d0e56	0.13775
176	0x3e2aa0fc	0.16662973
177	0x3e07f391	0.13276507
178	0x3cd3e1ba	0.02586447
179	0x3d9e55fc	0.07731244
180	0x3cce30a7	0.025169684
181	0x3e18536e	0.14875576
182	0x3e0c7af8	0.13718784
183	0x3e14c27d	0.14527316
184	0x3cd52dc5	0.026022801
185	0x3e594e34	0.21221238
186	0x3e3c8b2b	0.18412463
187	0x3e231d79	0.15929212
188	0x3e410393	0.1884902
189	0x3e26f0ba	0.16302767
190	0x3e1e9d3b	0.15489666
191	0x3e0d7044	0.13812357
192	0x3e32943b	0.17439358
193	0x3d4b909f	0.04969847
194	0x3e74c1f3	0.23902111
195	0x3e6d92b2	0.23200491
196	0xbafd7b47	-0.0019339108
197	0x3e129ca2	0.14317563
198	0x3d8b9198	0.06814879
199	0x3d9ed361	0.07755161
200	0x3e5297fc	0.2056579
201	0x3e3ac646	0.18239698
202	0x3e0a6ee4	0.13518864
203	0x3e0a0e8d	0.13482113
204	0x3e3a46ad	0.18191023
205	0x3d69b9fd	0.057062138
206	0x3dee98a0	0.11650205
207	0x3d561e53	0.052275013
208	0x3e86d7e3	0.26336583
209	0x3d88f659	0.06687612
210	0x3afff8f4	0.001952915
211	0x3dba453c	0.09095237
212	0x3c87f25a	0.016595054
213	0x3db6fa0c	0.089344114
214	0x3d771d8e	0.06033092
215	0x3e27382e	0.16330025
216	0x3e12ea80	0.14347267
217	0x3db7d597	0.08976286
218	0x3e495e1e	0.19664809
219	0x3e2c4d93	0.16826467
220	0x3dc39783	0.09550383
221	0x3e24a9b0	0.16080356
222	0x3d735038	0.059402674
223	0x3ceb6411	0.028734239
224	0x3dedb5eb	0.11606964
225	0x3dba030c	0.090826124
226	0x3e196453	0.14979677
227	0x3e061cef	0.13096975
228	0x3e042813	0.12905912
229	0x3db6dcb0	0.089288116
230	0x3e2ad975	0.16684516
231	0x3e675c3f	0.22593783
232	0x3e9f421f	0.31105134
233	0xbca01262	-0.019540016
234	0x3da10d72	0.078638926
235	0x3cb7c502	0.022432808
236	0x3e146270	0.14490676
237	0x3d77cef7	0.06050011
238	0xbc4d7c8a	-0.012541899
239	0x3d4bb73e	0.0497353
240	0x3d59300a	0.05302433
241	0xbcaf34b8	-0.021387443
242	0x3b643bb2	0.003482562
243	0x3d17f4a8	0.037098557
244	0x3de950fe	0.11392401
245	0xbdabf95e	-0.083971724
246	0xbc731127	-0.014835632
247	0xbbd9dc13	-0.0066485493
248	0x3cfd6aa9	0.030934649
249	0x3d7a713c	0.061143145
250	0xbd0f5d28	-0.03500095
251	0x3df6e258	0.120548904
252	0xbcacfcb0	-0.021116585
253	0x3da9c281	0.08289052
254	0xbd4d9969	-0.05019513
255	0x3db49984	0.08818343

dec1.kernel0 f4 [8, 4, 3, 1]
0	0xbdc66e5e	-0.096890196
1	0xbf469b51	-0.77580744
2	0x3ee30cb2	0.44345623
3	0x3d9449c8	0.07240635
4	0xbf0d739e	-0.5525454
5	0xbdf7ded2	-0.121030465
6	0x3e550d3c	0.2080583
7	0x3edbf917	0.42963478
8	0xbe10f606	-0.1415635
9	0x3f38ca61	0.72183806
10	0xbf12babc	-0.57316184
11	0xbe02608d	-0.12732144
12	0xbe8333cd	-0.25625458
13	0x3e73eb21	0.23820163
14	0xbc8f0283	-0.017457252
15	0xbf339962	-0.7015592
16	0xbe61b14c	-0.2204029
17	0xbee5b302	-0.44863135
18	0x3ee2ebda	0.44320565
19	0xbec5efbc	-0.38659465
20	0x3b59d41d	0.0033238002
21	0xbe91171b	-0.2833794
22	0x3eb55a9f	0.354207
23	0xbe6cc4d3	-0.23121957
24	0xbd963f8a	-0.07336338
25	0xbec6e237	-0.38844463
26	0x3ed27ea9	0.4111226
27	0xbf44ed93	-0.7692501
28	0xbd0dddd4	-0.03463538
29	0xbeb89953	-0.36054477
30	0x3e84b1e4	0.2591697
31	0xbeaff6fb	-0.3436812
32	0xbdc745f4	-0.097301394
33	0x3e30eaad	0.17277022
34	0xbc8696a0	-0.016429245
35	0xbcb9434e	-0.022615101
36	0x3df34bdc	0.118797034
37	0xbf2d4e7a	-0.6769787
38	0xbdbaabc3	-0.09114792
39	0x3d7b3ec3	0.06133915
40	0x3c9ecb42	0.01938403
41	0xbe734087	-0.23755084
42	0xbe88e7cc	-0.26739347
43	0x3f01450f	0.50496
44	0xbdb02d23	-0.08602359
45	0x3f01fc20	0.5077534
46	0x3e12294b	0.14273565
47	0xbe8807bc	-0.265684
48	0xbdac3f3f	-0.08410501
49	0xbda04a49	-0.07826669
50	0x3f0ca1dc	0.5493448
51	0xbf4d015e	-0.8008021
52	0x3d7d7d9f	0.06188738
53	0xbeeaf87a	-0.45892698
54	0x3e4d9fa4	0.2008043
55	0xbdd6dca3	-0.10491302
56	0xbeeb6d18	-0.4598167
57	0x3e7d7053	0.2474988
58	0xbe862511	-0.26200154
59	0x3db64097	0.08899038
60	0x3dc079c6	0.093982264
61	0xbecd008d	-0.40039483
62	0x3ec4e158	0.38453174
63	0xbf3d32a1	-0.7390538
64	0xbe142116	-0.14465746
65	0xbdb9cc0b	-0.09072121
66	0x3ed0676a	0.407039
67	0xbe5e5105	-0.21710594
68	0x3e8df8cc	0.2772888
69	0x3ed4805a	0.41504174
70	0x3e91e66e	0.28496116
71	0xbee3ea71	-0.44514802
72	0x3e1d5b53	0.15366869
73	0xbe932a7f	-0.2874336
74	0x3e673daf	0.22582124
75	0xbf0ed915	-0.5579999
76	0xbea5e57f	-0.32401654
77	0xbe43476c	-0.19070214
78	0xbe2748cb	-0.16336362
79	0xbe0a890f	-0.13528846
80	0xbe6a7b0a	-0.22898498
81	0x3f17351a	0.590654
82	0xbdcb3515	-0.09922234
83	0x3dddcf5f	0.108305685
84	0xbf4bcd9a	-0.796106
85	0x3f0fa53c	0.561115
86	0xbe60c862	-0.2195144
87	0xbedafc26	-0.427705
88	0xbea242d4	-0.3169161
89	0xbe9ad6f8	-0.30242133
90	0xbe80944c	-0.25113142
91	0xbd15a18b	-0.036531013
92	0xbe890b39	-0.26766375
93	0x3e99f406	0.30068988
94	0xbe1ad9b3	-0.15122108
95	0xbca0aba1	-0.019613089

dec1.kernel1 f4 [8, 4, 2, 2]
0	0xbdd7449c	-0.10511133
1	0x3e072ade	0.13199946
2	0xbece5218	-0.40297008
3	0x3e2d2a28	0.16910613
4	0x3dfaa13d	0.12237785
5	0xbe41b848	-0.18917954
6	0x3e6786a3	0.22609954
7	0xbd2b95f4	-0.041891053
8	0xbeb8b09d	-0.36072245
9	0x3e5390d1	0.20660712
10	0x3d676d4b	0.056500714
11	0xbf00ea7f	-0.5035781
12	0x3e87c78b	0.26519427
13	0xbeaa5fbb	-0.33276162
14	0xbe1372b0	-0.14399219
15	0x3e5d9507	0.2163888
16	0xbe42c868	-0.19021761
17	0x3e384842	0.17996314
18	0xbe15b383	-0.1461926
19	0xbdbb874f	-0.091566674
20	0xbf3904b9	-0.7227283
21	0xbebd2c59	-0.36947897
22	0xbf74c4cf	-0.95612806
23	0xbf993ad9	-1.1971084
24	0xbe9b6d3c	-0.30356777
25	0x3e5bd1fa	0.21466818
26	0xbe3997d8	-0.1812433
27	0xbf14af2f	-0.5807981
28	0x3f08413c	0.5322454
29	0x3e487f0a	0.19579712
30	0xbd3975ed	-0.04527848
31	0x3e2d9bb7	0.16953932
32	0x3e019efe	0.12658307
33	0x3e05f0eb	0.13080184
34	0xbeed202f	-0.46313617
35	0xbd3c6114	-0.04599102
36	0xbe8115e4	-0.25212014
37	0xbe815a90	-0.25264406
38	0xbe91bdef	-0.2846522
39	0xbdfec8fb	-0.12440678
40	0xbb2b604d	-0.002614993
41	0xbe0e3143	-0.1388598
42	0xbed3cdba	-0.41367894
43	0xbe45a5f2	-0.19301584
44	0xbb32993d	-0.0027251982
45	0xbe61446e	-0.2199876
46	0xbe1f976c	-0.15585107
47	0xbce35aff	-0.027753351
48	0x3d908687	0.07056909
49	0xbcee5342	-0.029092435
50	0xbe49cd1e	-0.19707152
51	0x3ca0e0ee	0.019638505
52	0xbce55970	-0.027996749
53	0xbdd5f482	-0.10447027
54	0x3ebfc4a5	0.37454715
55	0xbe7858ca	-0.2425262
56	0xbebb4436	-0.36575478
57	0x3ecd87ac	0.40142572
58	0xbd27c214	-0.04095657
59	0xbebaf37a	-0.36513883
60	0x3d070722	0.032965787
61	0xbd50787d	-0.050896157
62	0x3c9f6e20	0.019461691
63	0xbcdd0a30	-0.026982397
64	0xbdd98985	-0.10621933
65	0x3e2682d7	0.16260849
66	0xbede6e22	-0.434434
67	0x3da4c63f	0.08045625
68	0xbe556a9d	-0.20841451
69	0xbf15b5d2	-0.5848056
70	0xbeea75d8	-0.45793033
71	0xbd85c624	-0.06531933
72	0xbdb26408	-0.08710486
73	0xbf2839fc	-0.6571348
74	0xbd1f217c	-0.038850293
75	0x3e47501e	0.19464156
76	0x3c8dae28	0.017294958
77	0xbd94ffed	-0.072753765
78	0x3e002fa9	0.12518181
79	0xbde97b51	-0.11400474
80	0xbe93655a	-0.28788263
81	0x3eb9e7fe	0.36309808
82	0xbf280696	-0.6563505
83	0x3e50da6f	0.20395826
84	0xbeeef15e	-0.46668524
85	0x3ec69850	0.3878808
86	0xbdfb0521	-0.12256838
87	0xbebefbf9	-0.37301615
88	0xbcfe3921	-0.0310331
89	0x3ed71e65	0.42015377
90	0xbf1dcf69	-0.6164461
91	0xbe9358d4	-0.28778708
92	0x3d857029	0.065155335
93	0xbd68fa9b	-0.05687962
94	0xbda5e0b2	-0.08099498
95	0xbd9cebfc	-0.07662198
96	0x3db6b770	0.08921707
97	0xbde5302c	-0.11190829
98	0xbe8f4b66	-0.27987212
99	0x3e378001	0.17919923
100	0xbef2cdcd	-0.4742264
101	0xbf309e46	-0.68991506
102	0xbf443a46	-0.7665142
103	0xbee7dd8d	-0.45286217
104	0xbda09510	-0.078409314
105	0xbe436cc7	-0.19084464
106	0xbe887992	-0.2665525
107	0x3d77e295	0.06051882
108	0x3d8773e2	0.066139
109	0xbe3d8c47	-0.18510543
110	0x3eaa579a	0.3326996
111	0x3ded8a45	0.115986384
112	0xbf042eff	-0.5163421
113	0x3d660513	0.056157183
114	0xbda81f42	-0.08209087
115	0xbd9fd898	-0.07804984
116	0xbf6eac67	-0.93231815
117	0xbf27d962	-0.65566075
118	0xbf1deac4	-0.6168635
119	0xbf56cf7f	-0.83910364
120	0xbea14d9e	-0.3150453
121	0x3e3ef518	0.18648183
122	0xbe59b2b2	-0.21259573
123	0xbece7d7b	-0.4033011
124	0x3eb06aaa	0.34456378
125	0x3e0e1b69	0.13877644
126	0x3e0b63c7	0.13612281
127	0x3e5b9622	0.2144399

dec1.bias_tensor f4 [8]
0	0xbebcb684	-0.36857998
1	0xbea307a4	-0.31841767
2	0xbdd7f145	-0.105440654
3	0xbdddd3cf	-0.10831415
4	0xbe179ae2	-0.14805177
5	0xbe29c649	-0.16579546
6	0xbe46fd6e	-0.19432613
7	0xbe16a8a5	-0.1471277

dec2.kernel0 f4 [1, 8, 5, 1]
0	0x3ce8a033	0.028396701
1	0xbe2feaa7	-0.17179357
2	0x3e1d3770	0.15353179
3	0x3d887b63	0.06664159
4	0xbd443c40	-0.04790902
5	0x3bf289d0	0.0074016824
6	0xbdd8922c	-0.10574755
7	0xbdccd969	-0.10002405
8	0x3dd4c28b	0.103886686
9	0xbd8a481d	-0.06752036
10	0x3c181a84	0.009283666
11	0x3ca86588	0.020556226
12	0xbc257f48	-0.010101147
13	0xbddb3de7	-0.10705166
14	0x3dbb7634	0.09153405
15	0xbc7160c7	-0.014732546
16	0x3e70f3c3	0.23530488
17	0x3dbf89a3	0.09352424
18	0xbd31fa9b	-0.043451887
19	0x3c762e78	0.015025727
20	0xbce54391	-0.02798632
21	0x3e2fc661	0.1716552
22	0xbea399ed	-0.31953374
23	0x3e14dfc3	0.14538483
24	0xbe4e0298	-0.20118177
25	0xbc1b1d66	-0.009467458
26	0x3cdc627d	0.026902432
27	0xbd24a7e3	-0.04019917
28	0xbc98ab14	-0.018636264
29	0x3c7ef19f	0.015560537
30	0xbdb2f5ef	-0.08738314
31	0x3e1e04ca	0.15431514
32	0x3d89cdcd	0.067287065
33	0x3d44002e	0.047851734
34	0x3e4ec81e	0.20193526
35	0xbd3e4bd4	-0.046459034
36	0x3c51781c	0.012784984
37	0x3cf6743c	0.030084722
38	0x3d00dadb	0.031458717
39	0xbc5c591c	-0.01344898

dec2.kernel1 f4 [1, 8, 4, 2]
0	0x3cf6296b	0.030049047
1	0xbb5a45cf	-0.003330577
2	0xbe452bc2	-0.19254974
3	0x38d5b45a	0.000101902246
4	0xbad40c1c	-0.0016177925
5	0x3e590d4c	0.21196479
6	0xbdc325d8	-0.095287025
7	0xbdfae9d2	-0.12251629
8	0x3c6efd75	0.014586796
9	0x3c63610b	0.013878117
10	0x3d5c3fbd	0.053771723
11	0x3e33e9b1	0.17569615
12	0xbbc37bb4	-0.0059656743
13	0x3d83ff3a	0.06445165
14	0x3e765e7f	0.24059485
15	0xbc27f9c6	-0.010252422
16	0x3c390bc9	0.011294314
17	0x3d2afe14	0.041746214
18	0x3d096e2a	0.033552326
19	0xbde629b4	-0.11238423
20	0x3cdbbcf6	0.026823502
21	0x3c871e75	0.016494015
22	0xbd7aae99	-0.061201666
23	0x3e8a96ca	0.27068168
24	0xbca7c82d	-0.020481193
25	0x3b860c65	0.004090833
26	0x3e6f91ff	0.23395537
27	0x3bef1e7c	0.007297335
28	0x3cbff066	0.02343006
29	0xbd35b5e8	-0.044362932
30	0x3a47f755	0.0007628103
31	0x3cea0dc1	0.028571011
32	0xbdb23ab6	-0.087026045
33	0xbcc16c5d	-0.023611242
34	0x3e205008	0.1565553
35	0xbe28ce24	-0.16484886
36	0xbbbf6c6c	-0.0058417823
37	0x3d5217c2	0.05129219
38	0x3d16effa	0.036849953
39	0x3e8d2b24	0.27571976
40	0x3819a850	3.6634796e-05
41	0xbc7871f0	-0.015163884
42	0xbba94a14	-0.0051663015
43	0x3d822732	0.06355132
44	0xbcd8488d	-0.026401782
45	0x3caa59e2	0.020794813
46	0x3d0f1f10	0.034941733
47	0xbcc49667	-0.023997499
48	0xbe1097c5	-0.14120395
49	0x3d3e782d	0.046501327
50	0x3be65b5a	0.007029933
51	0x3cd579c4	0.026059039
52	0xbe583458	-0.21113718
53	0xbe1bb733	-0.15206604
54	0xbde1bfa7	-0.11022883
55	0x3dcd3dd7	0.10021561
56	0xbd5bde1c	-0.053678617
57	0x3dfd1536	0.12357561
58	0x3daa1ea6	0.08306627
59	0xbe249757	-0.16073357
60	0xbdd724f4	-0.10505095
61	0x3d816fab	0.06320127
62	0xbda17f85	-0.078856505
63	0xbe1901eb	-0.14942138

dec2.kernel2 f4 [1, 8, 3, 2]
0	0x3d85c217	0.0653116
1	0xbd84da72	-0.06486978
2	0x3b2420e2	0.0025044014
3	0xbd06c056	-0.03289827
4	0x3ca54736	0.020175558
5	0xbdd2a1fc	-0.10284802
6	0x3e1fb8c1	0.15597822
7	0xbe8a3132	-0.26990658
8	0xbd824a10	-0.063617826
9	0x3dc2e8f6	0.0951709
10	0xbd8dc328	-0.06921989
11	0xbe27da1f	-0.163918
12	0x3c3da7ab	0.01157562
13	0x3cbb7489	0.022882717
14	0xbd42a761	-0.047522906
15	0x3c6750c0	0.014118373
16	0x3dc74d3f	0.097315304
17	0x3e715df5	0.23570998
18	0xbd30164a	-0.042990007
19	0x3bef3c2c	0.007300874
20	0xbc623497	-0.013806484
21	0x3c28ac1c	0.01029494
22	0x3c3a7e93	0.011382717
23	0x3cbccee0	0.023047864
24	0xbda01a34	-0.07817498
25	0x3c509135	0.012729933
26	0x3cd3f2f3	0.025872683
27	0x3e435387	0.19074832
28	0xbd47287b	-0.04862259
29	0xbd59ac11	-0.05314261
30	0xbc3f201b	-0.011665369
31	0xbd540024	-0.051757947
32	0x3cfbcb9a	0.030736733
33	0xbc8e42d1	-0.017365845
34	0xbc596b57	-0.013270221
35	0x3d2f44c6	0.042790197
36	0x3c5f4a00	0.013628483
37	0xbd4c0256	-0.049806915
38	0x3e14e15a	0.1453909
39	0xbcfc49eb	-0.030796966
40	0x3d348f48	0.044081956
41	0xbe7ff70a	-0.24996582
42	0xbdd08d54	-0.10183206
43	0xbd9b2d0f	-0.075769536
44	0x3dc8d6b8	0.09806579
45	0x3cb482a3	0.022034949
46	0xb8c43839	-9.3564806e-05
47	0x3d99fde5	0.0751913

exp_avg f4 [8, 1, 5, 1]
0	0xb3f0b519	-1.12088124e-07
1	0xb4a2082c	-3.0180797e-07
2	0xb4ce4841	-3.8423062e-07
3	0xb4279872	-1.5608546e-07
4	0xb52faad6	-6.544118e-07
5	0xb5891520	-1.0213444e-06
6	0xb4bf0bca	-3.55851e-07
7	0x35a5ef62	1.2363128e-06
8	0x35fb3459	1.8716192e-06
9	0x34d8d3e4	4.0387306e-07
10	0xb5b0b903	-1.3166867e-06
11	0xb61e2807	-2.3567134e-06
12	0xb4a7053a	-3.1109977e-07
13	0x351fd0d4	5.9536e-07
14	0x3480efd5	2.401636e-07
15	0xb405cb91	-1.2460647e-07
16	0x3523db3c	6.104126e-07
17	0x34fa636b	4.6638465e-07
18	0x331d5754	3.6633836e-08
19	0x35b75dd6	1.3661872e-06
20	0xb52e450e	-6.492054e-07
21	0xb5880fb3	-1.0137359e-06
22	0xb52122a6	-6.0027594e-07
23	0x349b92ef	2.8977908e-07
24	0x3500f0fe	4.8034406e-07
25	0xb5685854	-8.655527e-07
26	0xb5ee53a9	-1.775673e-06
27	0xb5a2a516	-1.2117987e-06
28	0xb49c33d9	-2.9094988e-07
29	0xb3c9de9b	-9.4002836e-08
30	0xb4ec2c30	-4.3990576e-07
31	0xb308021a	-3.166688e-08
32	0xb3b5daf8	-8.4682995e-08
33	0x34a58f26	3.08378e-07
34	0x3487a5ff	2.5266488e-07
35	0xb4986084	-2.838243e-07
36	0x34f91552	4.6395377e-07
37	0x35b54276	1.3504894e-06
38	0x35e140df	1.6782686e-06
39	0x344a4cb7	1.8840625e-07

exp_avg_sq f4 [8, 1, 5, 1]
0	0x2db63b75	2.0717409e-11
1	0x2d88a320	1.5533852e-11
2	0x2d095874	7.807189e-12
3	0x2d38303d	1.04699e-11
4	0x2d535d50	1.2014681e-11
5	0x2e2d3bea	3.938886e-11
6	0x2e660238	5.2297916e-11
7	0x2e751838	5.572806e-11
8	0x2e13f751	3.364359e-11
9	0x2db35e1e	2.039174e-11
10	0x2db3d028	2.0442384e-11
11	0x2e309a0b	4.0154585e-11
12	0x2e18356c	3.4608247e-11
13	0x2d403d17	1.0927501e-11
14	0x2ca9fdd0	4.8314477e-12
15	0x2d02f463	7.443909e-12
16	0x2c7b2c1b	3.5693729e-12
17	0x2c68bd27	3.3074184e-12
18	0x2d32fde0	1.01745e-11
19	0x2dd03807	2.3671743e-11
20	0x2ce7e1b9	6.590475e-12
21	0x2d768cc7	1.401474e-11
22	0x2def2a79	2.7190016e-11
23	0x2df8be7b	2.8278926e-11
24	0x2dd8b77a	2.4637837e-11
25	0x2e161753	3.4126767e-11
26	0x2e748b29	5.5602776e-11
27	0x2e896dda	6.249552e-11
28	0x2e5e189d	5.0498817e-11
29	0x2e2094e0	3.6512016e-11
30	0x2bc80314	1.4211709e-12
31	0x2b74fc6b	8.7036514e-13
32	0x2bb8c087	1.3127423e-12
33	0x2c71f44e	3.4383776e-12
34	0x2d53ad03	1.2032378e-11
35	0x2da86c3b	1.9147453e-11
36	0x2dea7bdb	2.6657723e-11
37	0x2e3690d9	4.151066e-11
38	0x2e463d8e	4.507466e-11
39	0x2e0c3b87	3.1885185e-11

exp_avg f4 [8, 1, 4, 2]
0	0xb5691180	-8.682473e-07
1	0x34d0ba4c	3.8878568e-07
2	0xb52f2f9a	-6.526185e-07
3	0xb37665d3	-5.7368947e-08
4	0xb59ed544	-1.1833986e-06
5	0xb45ce76b	-2.0573286e-07
6	0xb4841570	-2.4602514e-07
7	0x3481b2cc	2.4158214e-07
8	0xb59dc17b	-1.1753722e-06
9	0xb4b5f87b	-3.389467e-07
10	0xb3be2f94	-8.856219e-08
11	0xb5f9cf7d	-1.8612333e-06
12	0x3591a3ba	1.0850993e-06
13	0x34f1092f	4.489643e-07
14	0x3516bfbe	5.6158376e-07
15	0x3439f528	1.7318655e-07
16	0xb6171cab	-2.251744e-06
17	0x34b6ec72	3.4072178e-07
18	0xb5ca8951	-1.5090137e-06
19	0xb5252761	-6.1524594e-07
20	0x332a72de	3.968568e-08
21	0xb51e76dc	-5.903255e-07
22	0x34fb23b0	4.677836e-07
23	0xb2a2317a	-1.8881781e-08
24	0x35005a1e	4.7814854e-07
25	0x34ad1090	3.2235812e-07
26	0x3401062a	1.2016304e-07
27	0x350799b3	5.051508e-07
28	0xb49f5aed	-2.9682215e-07
29	0x3549cc39	7.517552e-07
30	0x3420291b	1.4916115e-07
31	0x34e70b74	4.3035436e-07
32	0xb3c2c449	-9.069533e-08
33	0xb5383b6c	-6.863181e-07
34	0xb489db2f	-2.5677716e-07
35	0xb52e8ef8	-6.50281e-07
36	0x358aead4	1.0350145e-06
37	0x33ab03eb	7.963521e-08
38	0x35a07198	1.1953989e-06
39	0x3599288a	1.1411187e-06
40	0xb4b16e17	-3.304892e-07
41	0xb551003d	-7.7858914e-07
42	0xb5681b77	-8.64667e-07
43	0xb64d6be1	-3.0610174e-06
44	0x341b91c5	1.448853e-07
45	0xb4f77eaa	-4.6099495e-07
46	0x358bd42e	1.041806e-06
47	0xb4ddaa25	-4.1288254e-07
48	0xb5156fbb	-5.5669415e-07
49	0xb417cd58	-1.4137674e-07
50	0xb5275d89	-6.234846e-07
51	0x344bcbf9	1.8980053e-07
52	0xb494797b	-2.7655537e-07
53	0xb3cae926	-9.4487675e-08
54	0x3429252d	1.5752876e-07
55	0x34eedd82	4.4492123e-07
56	0xb562030a	-8.4195983e-07
57	0xb4a81f5f	-3.1315264e-07
58	0xb38163d5	-6.02519e-08
59	0x35669cf7	8.591009e-07
60	0x34cb368a	3.785138e-07
61	0x35d91b67	1.6175735e-06
62	0x35cd37c4	1.528992e-06
63	0x35641f5c	8.498225e-07

exp_avg_sq f4 [8, 1, 4, 2]
0	0x2db0c371	2.0095677e-11
1	0x2d5838ab	1.2290761e-11
2	0x2dbde332	2.1587707e-11
3	0x2c8e1228	4.0378985e-12
4	0x2db3c17a	2.0435865e-11
5	0x2c2b09d5	2.430602e-12
6	0x2da72fd7	1.9006947e-11
7	0x2ca7f8cd	4.774048e-12
8	0x2e19a8e4	3.4938177e-11
9	0x2e709262	5.4699696e-11
10	0x2e1d6660	3.5788594e-11
11	0x2e9d3caf	7.150313e-11
12	0x2e11b890	3.3133107e-11
13	0x2e87aaaa	6.169405e-11
14	0x2dbe97b6	2.1667872e-11
15	0x2e255a40	3.7596815e-11
16	0x2e01240f	2.936323e-11
17	0x2dd13721	2.3785031e-11
18	0x2e20e16f	3.6580013e-11
19	0x2e12a483	3.3342672e-11
20	0x2d84720a	1.5057306e-11
21	0x2da24c72	1.8451216e-11
22	0x2cdfc3c5	6.359776e-12
23	0x2cd1c102	5.9615654e-12
24	0x2c191824	2.1756008e-12
25	0x2d7ea83b	1.4475583e-11
26	0x2be9749a	1.6588009e-12
27	0x2d85c3ac	1.5207245e-11
28	0x2bfce7f0	1.7970053e-12
29	0x2dd194ee	2.3826687e-11
30	0x2cfacbb9	7.128045e-12
31	0x2e241719	3.7309798e-11
32	0x2d7237cf	1.3768499e-11
33	0x2ca04274	4.5548513e-12
34	0x2dd7a96b	2.4517907e-11
35	0x2d2e67f2	9.913835e-12
36	0x2e028ca1	2.968348e-11
37	0x2dc5889b	2.2456972e-11
38	0x2de15b50	2.562009e-11
39	0x2dd2128f	2.3882478e-11
40	0x2e2ee853	3.9769365e-11
41	0x2e247373	3.7391822e-11
42	0x2e45675a	4.488441e-11
43	0x2e6e0a6c	5.412419e-11
44	0x2e2fee4c	4.0002043e-11
45	0x2e7ed926	5.794578e-11
46	0x2e19a260	3.493239e-11
47	0x2e5358f6	4.805486e-11
48	0x2c824807	3.702819e-12
49	0x2b80a58d	9.140897e-13
50	0x2c44274d	2.7875092e-12
51	0x2b894df2	9.75607e-13
52	0x2cecf6e1	6.7349325e-12
53	0x2bcf6908	1.4737387e-12
54	0x2d4a042c	1.1483297e-11
55	0x2cdb9c37	6.2416977e-12
56	0x2d38a079	1.0494821e-11
57	0x2e060d66	3.0479973e-11
58	0x2d9e17c5	1.7973076e-11
59	0x2e3c0aa4	4.2755702e-11
60	0x2e1ebda1	3.6093465e-11
61	0x2e58e497	4.9315742e-11
62	0x2e233ac0	3.711409e-11
63	0x2e4a87a4	4.6049956e-11

exp_avg f4 [8, 1, 3, 2]
0	0x32d48964	2.4742526e-08
1	0x34ab9a29	3.1963398e-07
2	0xb4b96a63	-3.4536342e-07
3	0x3525c689	6.1756197e-07
4	0x3484dd9b	2.4748155e-07
5	0xb48a3516	-2.5743128e-07
6	0xb3d303cf	-9.826146e-08
7	0x33ef4d6c	1.1143388e-07
8	0x2fcb7089	3.7005446e-10
9	0x34f7cedb	4.6157842e-07
10	0x354c64d7	7.6142663e-07
11	0xb5793c0a	-9.2847097e-07
12	0xb4849e48	-2.470208e-07
13	0x35a3b1c8	1.2196188e-06
14	0xb3d18258	-9.75603e-08
15	0xb3893cc6	-6.390614e-08
16	0x35597ae8	8.101765e-07
17	0xb552065d	-7.8240356e-07
18	0xb35ee36a	-5.1895235e-08
19	0xb3e0b31e	-1.0463394e-07
20	0x34bfce02	3.5726413e-07
21	0x3570e240	8.9736204e-07
22	0xb37f99ab	-5.9511574e-08
23	0x335b2d5f	5.1031176e-08
24	0x3484d6e5	2.4743272e-07
25	0xb51693a1	-5.609418e-07
26	0x35a3872c	1.2183787e-06
27	0xb48d20d5	-2.6287185e-07
28	0x35f23ff3	1.8049017e-06
29	0xb5156b62	-5.566309e-07
30	0xb5703c48	-8.949469e-07
31	0xb2d0a3a8	-2.428881e-08
32	0xb4e1c617	-4.2053645e-07
33	0xb523b6d3	-6.0988276e-07
34	0x359c6f5c	1.1655316e-06
35	0xb5a4a97c	-1.2268279e-06
36	0xb5bb64a8	-1.396188e-06
37	0x34344235	1.6787892e-07
38	0xb530c64c	-6.585367e-07
39	0x3482b178	2.4343512e-07
40	0xb582b9a1	-9.73978e-07
41	0xb3abda56	-8.002523e-08
42	0xb4376c06	-1.7082502e-07
43	0x3452e442	1.9640814e-07
44	0x3566d9a0	8.5998363e-07
45	0x34f44d83	4.550494e-07
46	0x35845b98	9.861424e-07
47	0xb517a317	-5.648921e-07

exp_avg_sq f4 [8, 1, 3, 2]
0	0x2da07f10	1.8246321e-11
1	0x2cb20e08	5.060622e-12
2	0x2da703d1	1.8987397e-11
3	0x2c232c91	2.3188433e-12
4	0x2d8fe708	1.6359816e-11
5	0x2c1bd1a1	2.2143192e-12
6	0x2ddb9376	2.4962903e-11
7	0x2e95fa67	6.820216e-11
8	0x2df4a89c	2.7814466e-11
9	0x2eaa2f24	7.739079e-11
10	0x2db01b3a	2.0020974e-11
11	0x2e7b0836	5.7078085e-11
12	0x2e01adfc	2.9485733e-11
13	0x2dc800d9	2.2737744e-11
14	0x2d99521b	1.7430548e-11
15	0x2db58464	2.0636111e-11
16	0x2cea3751	6.6568214e-12
17	0x2d0f69de	8.152116e-12
18	0x2c3f80ec	2.7214299e-12
19	0x2e07a86f	3.0845045e-11
20	0x2c2682cf	2.3662632e-12
21	0x2e24eb19	3.749809e-11
22	0x2c871d97	3.840216e-12
23	0x2e3eacc8	4.335446e-11
24	0x2db43cc5	2.0490618e-11
25	0x2ca00cfb	4.5489146e-12
26	0x2de4d081	2.6013193e-11
27	0x2d17b50f	8.623559e-12
28	0x2de6cc7b	2.623878e-11
29	0x2d575b23	1.22415715e-11
30	0x2dede464	2.7045206e-11
31	0x2e17a147	3.4476668e-11
32	0x2dca1f59	2.2978662e-11
33	0x2e5b2513	4.9827763e-11
34	0x2dd647a2	2.4360795e-11
35	0x2e50410c	4.7351498e-11
36	0x2d38dfd7	1.05088915e-11
37	0x2c5942eb	3.0874702e-12
38	0x2d677374	1.31564655e-11
39	0x2c1b1b73	2.2042062e-12
40	0x2d6261f9	1.2868367e-11
41	0x2cc3d816	5.5662237e-12
42	0x2d2823bc	9.557629e-12
43	0x2e0872cd	3.1024783e-11
44	0x2db5031c	2.0578698e-11
45	0x2e3ad149	4.2477386e-11
46	0x2dfa233a	2.8437353e-11
47	0x2e24eec8	3.7501363e-11
