server_report/ae_hexa/ae_hexa_mask_upgrade_16/autoencoder_20251230_170845.pth (torch, 217454 bytes, 51 tensors)

enc1.kernel0 f4 [8, 1, 5, 1]
00000000: 4f62 39be 8fc9 4dbf e0d0 ddbe 3b15 8e3f
00000010: 1244 b73d 4977 ca3c 1128 053f 7c3b 963f
00000020: 08ee 3c3f 226a a83e 7cc4 5e3e 9417 e03e
00000030: eaa8 133f ff7e 193c 12f0 33be b272 023f
00000040: 6e6f a73e ca91 1bbe d4f7 dabe 478d 76bf
00000050: 5133 21be fcf4 30be 50b2 4cbe 03f3 9dbe
00000060: 0473 a5be a67f 43bf d51c 0dbe 0f3d 1cbe
00000070: 661f 0e3f 558f 69bf 9004 dfbe f783 223f
00000080: 77c7 8d3e 873c 5bbe 76c6 60be d0c2 c6be
00000090: 2085 35be 44f1 853e 9fac cb3e fdeb 2e3f
-0.18103908 -0.8038568 -0.4332342 1.1100229 0.0894853 0.024715083 0.5201426 1.1736903
0.73800707 0.32893473 0.2175464 0.4376799 0.5767962 0.009368657 -0.17572048 0.5095626
0.32702202 -0.15192333 -0.42767203 -0.9630932 -0.15742232 -0.17280954 -0.19989896 -0.30849466
-0.32314312 -0.7636665 -0.1378053 -0.15257667 0.5551666 -0.9123433 -0.43558168 0.6348261
0.27691242 -0.21409808 -0.21950707 -0.38820505 -0.17726564 0.26160634 0.39780137 0.6832884

enc1.kernel1 f4 [8, 1, 4, 2]
00000000: f3f6 30bf b64e 5ebf b88e b5be bce1 f6be
00000010: 5ccc e03e 94c8 373f 9086 5c3f 2ffe 373f
00000020: f684 d23e 9a3d 94bf a972 0c3f 0446 26bf
00000030: be47 203e 6f8b 163f 4c27 d8be 5e2c 563f
00000040: fa0f f73d 9005 c33e 2125 993e b4b5 1bbd
00000050: 807d 073f 695e 9cbe ff37 863e 1f92 1cbf
00000060: e786 85ba 47d6 d53e b496 f1be e459 e83e
00000070: 854d efbe a245 fa3e 1ced 1ebf d259 f53c
00000080: b1d7 803e bc3f dfbe 49a6 503e b467 45be
00000090: 5747 b6bb bb6a 40be 7ef6 c9be 1b1a 8fbd
000000a0: bc18 2abf 9cb1 6bbf db62 13bf db8c 8b3b
000000b0: 7382 033f 2c1b a63e ef23 0b3d 830d 2d3e
000000c0: 9bfe bbbc e8df 6d3e 4f9e 0a3f 78c3 943f
000000d0: e8c8 50be d345 383f b5b4 50be 90e0 8e3e
000000e0: be98 1dbf 198e 743e 05aa 9abe e9d1 183f
000000f0: 1453 debe a7c7 e83e 5d88 1b3d b651 5d3e
-0.69126815 -0.86838853 -0.35460448 -0.48219097 0.43905914 0.7179043 0.86142826 0.7187223
0.41117066 -1.1581299 0.5486246 -0.64950585 0.15652367 0.5880651 -0.4221748 0.8366145
0.12063594 0.3809018 0.2991114 -0.038015082 0.5292587 -0.3054078 0.26214597 -0.61160463
-0.0010187299 0.41765043 -0.4718529 0.4538108 -0.4673883 0.4888125 -0.6208055 0.029950056
0.2516456 -0.43603313 0.20375933 -0.19277841 -0.0055627036 -0.18790714 -0.3944587 -0.06987401
-0.6644399 -0.92067885 -0.57572716 0.0042587346 0.51370925 0.32442605 0.033969816 0.16899686
-0.022948554 0.23229945 0.5414781 1.1622152 -0.2038914 0.71981543 -0.20381434 0.27905703
-0.6156119 0.23882331 -0.3020784 0.596953 -0.4342276 0.45464823 0.037971843 0.21613201

enc1.kernel2 f4 [8, 1, 3, 2]
00000000: 55f2 32bf 4b27 a0bf 9195 b43e db6e cdbd
00000010: 90b6 93bc 8936 863f 3f1f b53d 51a9 88bf
00000020: f5af ecbe db2d afbf 3167 4b3e fe0c 1bbb
00000030: ee41 9fbe 7dee f9bd b4e6 c6bd b0c2 16bf
00000040: ecac 003d 3b29 20bf b8c0 29bf 8585 a23e
00000050: 21b8 bfbe ffdc f23e bda9 72be fb58 f43e
00000060: 2428 ad3e 07ca 7cbe a897 b23e 170f 16be
00000070: 993c e33d 94fa 46be 55eb 08bf edcc 683f
00000080: d167 bfbe 8250 7c3f 349d 5e3f 53ec 6cbf
00000090: 0bd9 543e 3b63 143f 4b84 be3c 7644 753f
000000a0: d5a8 e63d 8a14 0b3f eaa1 e4bd 361c 4e3e
000000b0: 6cc8 f6be 2418 1fbe d5db 91be d7d4 e4be
-0.6990102 -1.2511991 0.3527036 -0.1003091 -0.018031389 1.0485393 0.0884385 -1.0676671
-0.46227995 -1.3685869 0.19863583 -0.0023658867 -0.31104988 -0.12203691 -0.09711972 -0.5889082
0.03141491 -0.6256291 -0.6630969 0.31742492 -0.37445167 0.47434232 -0.23697563 0.47724137
0.33819687 -0.24686442 0.3488133 -0.14654194 0.110955425 -0.19431525 -0.5348409 0.9093769
-0.37383893 0.98560345 0.8695862 -0.925481 0.2078592 0.57963914 0.023256442 0.9580759
0.11262671 0.54328215 -0.11163695 0.20127949 -0.48199785 -0.15536553 -0.2848803 -0.44693634

enc1.bias_tensor f4 [8]
00000000: 4e9e 033b 0386 10bd a5b6 b8bb c181 0e3d
00000010: 65d5 b13d 0fe0 0cbb ec79 36bb 61bf 38bd
0.002008337 -0.035284054 -0.0056370073 0.03479171 0.0868328 -0.0021495854 -0.0027843667 -0.04510439

enc2.kernel0 f4 [4, 8, 3, 1]
00000000: 6de9 a93c 2463 603e b0ae 9c3e 6b66 1dbd
00000010: d825 a9bc 286b 653e acc8 f83d 94b4 393d
00000020: 07d6 cfbe 391d f33d 15d8 bb3d b8e5 c23e
00000030: d50f 223e 6ba9 373d d27c eebd 6da7 6c3b
00000040: b569 053d 5b0b c4bd 979d 9fbd 2d01 c1bd
00000050: dbd1 b53b a6f5 6b3d 562b 383e 2ced 25be
00000060: 2571 793e c188 a13e 0871 b83b 450d 913d
00000070: 88d6 ecbd dad0 88bd 7a6a 77bb 461e 0ebe
00000080: 2a27 80be 4292 723e 9314 243e 20d7 ab3c
00000090: d868 e5bc 7cbc 493d 3694 01bd c3e6 3c3e
000000a0: 404d 803e 82ab 42bc 644c 343d d848 b7be
000000b0: 46a9 28be c0f5 c33d 33b1 003e 17f2 a3be
000000c0: 8b41 923d ec95 3c3e d899 8dbd 3e66 1e3d
000000d0: 927b 3a3e f5ff 4f3e b12b ba3e df16 023d
000000e0: ccab 4b3e 2f4c 4f3c 7fc4 ac3e cb66 b93e
000000f0: e9b7 ac3e a3b1 7b3e 374b c43e 5270 5b3e
00000100: 2713 513d 2e11 89bd 4439 b3bc dfd4 3d3d
00000110: 4e40 92bd fc3d c23e 2729 c83e 032a 6c3e
00000120: c08c e6bd f082 223d d4f7 043d f53d cd3d
00000130: 1642 c53d 6882 16bd 9c3c 10be b911 6c3d
00000140: 3d71 a63e 3685 973d fed9 afbc 9df1 bdbc
00000150: 08dd a6bd 31c6 70be 44fb a83c 6ba1 95bc
00000160: d495 013e 4fbf 2a3e 163c 0e3d df09 813e
00000170: 7a43 293e c3d8 97bd 833d bbbc 6465 593e
0.020741189 0.21912819 0.30602026 -0.03842775 -0.020647928 0.22404158 0.1214765 0.04533823
-0.40592977 0.11870808 0.09172074 0.38065886 0.15826352 0.044839304 -0.11644901 0.0036110536
0.032571513 -0.095724784 -0.0779373 -0.094240524 0.0055486984 0.057607315 0.17985281 -0.16203755
0.24359567 0.31549647 0.0056287088 0.07082609 -0.11564356 -0.0668046 -0.0037752674 -0.13878736
-0.2502988 0.23688605 0.16023473 0.020976603 -0.028004095 0.04925202 -0.031635486 0.18447404
0.25058937 -0.011881711 0.044018164 -0.35797763 -0.16470823 0.095683575 0.12567596 -0.32020637
0.071414076 0.18416566 -0.06914109 0.038671724 0.18211201 0.20312484 0.3636146 0.031760093
0.19889754 0.012652441 0.33743665 0.36211237 0.33734062 0.24579482 0.38338634 0.21429566
0.051043656 -0.0669273 -0.021877892 0.046345588 -0.071411714 0.37937915 0.39093897 0.23062901
-0.11257315 0.039675653 0.03246291 0.10021583 0.096317455 -0.03674546 -0.1408562 0.05763409
0.3250827 0.07398455 -0.021466251 -0.0231865 -0.08147627 -0.23513104 0.020627625 -0.018265447
0.12654811 0.16674541 0.03472527 0.25202844 0.16529647 -0.07414391 -0.02285648 0.21230084

enc2.kernel1 f4 [4, 8, 2, 2]
00000000: 4545 6ebe 31b3 a6bd 6839 683d 777b 763e
00000010: 0a81 673e a1bb bfbd 91a7 a23e e4ea 84bd
00000020: 5e44 d6bd 99c2 b83d dff3 7c3d 4c20 cd3d
00000030: 96ca 033f 397d 09bf be34 c33e ccfa 0dbc
00000040: f577 d0bd ef84 c1bc 4d29 8bba 631e 183d
00000050: 1406 42bd ba5c e3bc 9119 9fbd ef57 6b3e
00000060: e040 55bd e0e2 d2bd 585d 993e 681f ff3d
00000070: 9fb8 8f3d d1ab 04be 98f0 09bd 9d76 2abe
00000080: 1746 4e3e 138e 943e a3bc 9b3d bc9f 19bd
00000090: 5148 843d 0bc4 713d 07dd f83d 7ca5 553d
000000a0: d6c4 7b3e c36e b43e 75e1 803e ac5e 30b9
000000b0: 7469 433e 5e70 673d c9a2 8b3e 4419 e3bb
000000c0: ee8e 0c3f 86fd 523e 64e2 ee3d f225 753e
000000d0: 3b5f ee3d 1df0 5e3e 548d f1bc c087 a73c
000000e0: 1fcb 2b3e f5d9 ba3e 8467 38be 634d 97be
000000f0: 2e33 1d3e ab08 ba3e 9d65 803e f608 55be
00000100: 4f85 ce3d fe78 393e aede e33c e3d3 973d
00000110: f416 8a3d 95ba 1b3d 0fea edbd 321f 1c3e
00000120: 800b aabd f184 fd3d 5b83 3c3e f70a 25be
00000130: ecc8 8a3e d085 e1bc f970 ad3d 6efe ba3e
00000140: e28e cbbb 83c5 0d3f 5699 4e3d fa39 723e
00000150: aef7 443d d660 7d3d afa8 dd3c fbdd 9ebd
00000160: 1636 303e 0e75 183c b588 1bbe 97ef e3bd
00000170: 5391 0bbe 114d 9c3d 6abf 963e 7c23 f5bd
00000180: 6104 e63d e3f2 fa3c 5a12 073e 7ca7 5e3e
00000190: 6feb 1b3d 445e 513d 8149 f1bd d3f8 d63d
000001a0: 86af c53c 9a0d e23e a4ac 82bc 268c cc3e
000001b0: 1324 d5bd 0b24 0fbd 9dba 0fbe d513 ecbc
000001c0: c025 d1bd aec2 66bc da6d 05bd 86ce b03c
000001d0: 5a14 12bd 0e99 323e 1764 d43d 86c2 1a3e
000001e0: 52b8 833d 00bb 2e3e 2ac7 0f3d 7983 753e
000001f0: bbc7 8cbd e58b e13e 175d 25be c8f9 d93e
-0.23268612 -0.08139647 0.056695372 0.24070536 0.22607818 -0.09361959 0.31768468 -0.06490114
-0.10462259 0.090214916 0.06175601 0.10015926 0.51480997 -0.537067 0.38126177 -0.008665752
-0.1017913 -0.023622958 -0.0010617167 0.037138354 -0.047369078 -0.027754176 -0.07768548 0.22982763
-0.052063823 -0.10297179 0.29954028 0.12457162 0.070176356 -0.12956168 -0.033676714 -0.1664681
0.20143925 0.29014644 0.07604339 -0.03750585 0.06459106 0.05902485 0.121515326 0.05215977
0.24586806 0.35240754 0.2517201 -0.00016819936 0.19083196 0.056503646 0.27272633 -0.006930502
0.54905593 0.20604524 0.11664274 0.23940256 0.116392575 0.21771283 -0.029486336 0.020450473
0.16776703 0.36494413 -0.18008238 -0.2955123 0.15351555 0.36334738 0.25077525 -0.208042
0.1008402 0.18112561 0.027816143 0.07413461 0.06742659 0.038019735 -0.11616909 0.15246275
-0.08302975 0.12378872 0.18409483 -0.16117464 0.27106416 -0.027529627 0.084688134 0.3652224
-0.0062121013 0.55379504 0.0504392 0.23654929 0.04808777 0.061859928 0.027057974 -0.07757183
0.17208132 0.009305252 -0.15188868 -0.111296825 -0.13629656 0.07631887 0.29442912 -0.11969659
0.11231304 0.030633396 0.13190594 0.21743578 0.038066324 0.05111529 -0.11781598 0.10496678
0.024131548 0.44151002 -0.015951462 0.39950675 -0.10407271 -0.034946483 -0.14036031 -0.02881805
-0.10212278 -0.014084501 -0.032575466 0.021582853 -0.03566394 0.17441198 0.10370653 0.15113267
0.06431641 0.17063522 0.035102047 0.23975934 -0.06874033 0.44052044 -0.16148792 0.4257338

enc2.bias_tensor f4 [4]
00000000: fa4d 1fbd bded a6be 160f 8bbe c12a 543d
-0.038892724 -0.32603255 -0.27159947 0.051798586

fc_enc.weight f4 [16, 468]
00000000: 3dda 403d 7f5f 593d e626 943d 9cb2 dc3d
00000010: dd0f dcbd 290f 013d 71ad cabc 713d 813c
00000020: a046 48be 1e92 d5bd d17e 273e 77db 88bc
00000030: fc56 803d 611c b2bb 564d a4bc a971 393c
00000040: 92c1 a13d cdeb c43d 4124 603d 42ac d1bd
00000050: 17b9 9dbd 93d9 1a3d 7eee 22be 689f 903d
00000060: d6e9 b1bd e78f 3a3d 39f6 1a3d 0f49 0ebe
00000070: cbfd d33d 4065 4e3d 73ef 4a3d 3251 84bd
00000080: 680f 9a3d 4db6 adbd e007 173d d947 bebd
00000090: 429c e53d be81 d13d a591 843c 91f9 223d
000000a0: 2d37 003e 17c3 2ebe 0936 d9bb e62d b73d
000000b0: 866c 0f3e e0fa 2cbd d148 d03c 64c5 5d3c
000000c0: f59c 023e ec1c 96bd eaab 013a e508 3a3d
000000d0: 1ff7 6fbd 9ccb e0bd a7c7 063d 21de 873d
000000e0: 1caa 30bd d0fb 28bd a524 f739 d9ce 073d
000000f0: 152b 26bd b484 23be f57a 8b3d ab62 f73c
00000100: 03b7 2e3c 23f2 3bbd 072b 2e3e 9bb2 d6bd
00000110: 4077 03be 2740 bd3d 03f0 00bd f01f 89bc
00000120: 9ac0 a3bd b11a 22ba 6e51 03be 7dc6 22bb
00000130: 6a75 dfbd 2d96 fb3d 4293 853c 18bf e53d
00000140: 7a74 74bb e795 bb3b 27a9 20be d190 413e
00000150: dfcf 0dbd ea9d 57bd 90c6 4dbd 5795 5e3d
00000160: f1c3 febd 89f9 e4bc 8e1e 71bc 4b02 343c
00000170: 1799 bc3b be6f b63c 8f7a 17be 98b7 85bc
00000180: 282e 91bc 6ee4 c2bc eeb0 b0bd c29a c7bd
00000190: 04a1 e5bd 60a6 93bd 4314 073d 4552 8cbc
000001a0: d66e cf3c 6243 063b 4654 493e 2f5e e63d
000001b0: 80ad 273c 6b3c 5a3c f9bd 86bd ac49 063e
000001c0: fa07 843d 9fb0 1bbd 5636 3fbb 4dbb ca3c
000001d0: 4bec 1c3c 5967 fcbc 6ef1 60ba 223b 4b3d
000001e0: bd05 29bd 906c 8d3c 5f0d dcbd b148 4bbe
000001f0: d3ee 1cbe 0bc9 45be 4f81 99bd b918 dabd
00000200: f191 8abc 48d7 d5bc b184 783c ac6d 0f3e
00000210: ea01 c13d 18bf 49bd b91d 213c 3ac9 8fbd
00000220: 22c1 453e f03d 5abd 2f41 83bd 8c3e 763d
00000230: 2555 8cbd 800d 73bd 1346 b9bc 2b6a ee3b
00000240: c571 f43b 256e babd 3cae 703c 04b4 903b
00000250: 6351 093c f8bd 00be 0800 b83d 2318 0ebd
00000260: efb4 ffbd 04c5 30be b215 9ebd 3811 68bc
00000270: 7a4e c0bd 7673 edbd cbde cd3c 95eb d3bd
00000280: f543 e6bd 7adb 15be ff48 3b3c 57b5 36be
00000290: 4eea 3fbe 4650 00be 7087 dc3d 1658 e5bd
000002a0: a149 e4bd 5927 f8bd 2b1d bebd b135 32bd
000002b0: 5546 f7bd 08d9 163d a45a dcbd ee5e 5fbb
000002c0: 3530 88bd f1e3 2c3e 9b3e fcbd 4d3f 56be
000002d0: 10fa f9bd 07cd ecbd 7c78 98bc 41f9 00be
000002e0: 0249 593d 1a6a ec3d 8c48 8bbe b97d 013d
000002f0: b48b 5cbc d0cb 97bd e788 33be 0ad2 cbbc
00000300: 8e68 7dbd 8ba9 85bc 07a6 1fbc c322 6bbd
00000310: 6911 ecbd 7767 19bd 5546 05be 38d1 eabd
00000320: 7ed0 63be 25e9 f5bd 25b4 7fbc e0fe ebbd
00000330: 0dd3 54be a589 29bd dc59 9bbd 6901 97bd
00000340: e59c bcbc 02e2 143e b347 093d d2f9 16bd
00000350: db56 4fbc 2ae6 80bd 5720 93bd 3b49 56bc
00000360: 51e7 59bd d947 49be 0c2c a4bd a2bf 9f3c
00000370: d213 083c be5c e83c dc3f bc3c f7f5 07be
00000380: 7054 063e 430a 61be 809d 02be f89b 90bd
00000390: d944 0fbe 7cba 2bbe edf2 efbd f4da f1bd
000003a0: 466c 0d3d d937 85bc 987b 373d 8065 34bd
000003b0: 66f6 83bc 3d20 133d 7645 943b 4efa c43d
000003c0: fc38 9dbe 621c 34bc 2c85 aebc 18c2 2abd
000003d0: 678e 80be 9369 efbc b2b7 8bbc 16d5 3b3d
000003e0: a860 14bc a87a 193d a15a b0bd 3318 46bd
000003f0: 2850 4dbe ef78 c43b 3c95 7cbe 4675 fdbc
0.04708313 0.053069588 0.07233982 0.107762545 -0.10745213 0.0315086 -0.024740906 0.015776368
-0.19558191 -0.1042826 0.1635697 -0.016706211 0.06266591 -0.005435512 -0.020056408 0.011318603
0.07898249 0.09615288 0.054722074 -0.10237934 -0.07701319 0.03780515 -0.1591129 0.07061654
-0.08687179 0.045547392 0.037832472 -0.13895057 0.103511415 0.05038953 0.049544763 -0.06460799
0.0752247 -0.08482037 0.036872745 -0.092910476 0.112114444 0.102298245 0.01618273 0.039788786
0.12521048 -0.17066608 -0.006628756 0.08944301 0.14006242 -0.04223144 0.025425347 0.013535831
0.12755187 -0.07329735 0.00049465767 0.04541864 -0.058585282 -0.109763354 0.032905247 0.066341646
-0.04313098 -0.041255772 0.00047138814 0.03315625 -0.04056843 -0.15968591 0.068105616 0.030198416
0.010663751 -0.045885216 0.17008601 -0.10483285 -0.12838459 0.09240752 -0.031478893 -0.016738862
-0.0799572 -0.0006183787 -0.12824032 -0.0024837547 -0.10911067 0.12284503 0.01630557 0.11218089
-0.003730087 0.005724657 -0.15689526 0.189029 -0.03462207 -0.052640833 -0.050238192 0.05434164
-0.124397166 -0.027951019 -0.014716757 0.010986875 0.0057555544 0.02227008 -0.14792846 -0.016322896
-0.017722204 -0.023790564 -0.08627497 -0.097463146 -0.11212352 -0.07209468 0.032978307 -0.017129073
0.025321405 0.002048694 0.19661054 0.11248433 0.010234237 0.013320069 -0.06579203 0.13114041
0.06446834 -0.038010236 -0.0029176674 0.024747515 0.009577821 -0.030810999 -0.00085808977 0.04961694
-0.041265238 0.01726368 -0.10744738 -0.19851948 -0.15325479 -0.19314973 -0.07495367 -0.10649247
-0.016915293 -0.02610363 0.015168355 0.1400668 0.09424193 -0.049254507 0.009833747 -0.07020803
0.19311956 -0.053281724 -0.06408917 0.060118243 -0.068521775 -0.059339046 -0.022616422 0.00727584
0.0074598514 -0.0910304 0.014689978 0.004415991 0.0083812205 -0.12572467 0.08984381 -0.034690987
-0.12485682 -0.17262655 -0.07718982 -0.0141642615 -0.09389968 -0.11594288 0.02513065 -0.10347668
-0.112434305 -0.14634505 0.011430978 -0.17842613 -0.18741724 -0.12530622 0.1076802 -0.11198442
-0.11146856 -0.1211688 -0.09282907 -0.043508235 -0.12073962 0.03682807 -0.10759476 -0.0034083682
-0.0664982 0.16883828 -0.123166285 -0.20922585 -0.12205899 -0.11562543 -0.018612139 -0.12595083
0.05304814 0.11543675 -0.27203786 0.03161404 -0.013461042 -0.07411921 -0.17532693 -0.024880428
-0.06186729 -0.016316196 -0.009744174 -0.0574062 -0.11526758 -0.037452187 -0.13015111 -0.114656866
-0.22247502 -0.120073594 -0.015606915 -0.11523223 -0.20783634 -0.041391034 -0.07585499 -0.07373316
-0.023024032 0.1453934 0.033515643 -0.03685934 -0.012654985 -0.062939 -0.07183903 -0.013078983
-0.053199116 -0.19656314 -0.08016214 0.019500557 0.008305507 0.028364535 0.02297967 -0.13277422
0.13118148 -0.21976571 -0.12755394 -0.07060999 -0.13991107 -0.16770357 -0.11716256 -0.1180934
0.034527086 -0.016261982 0.044795603 -0.04404211 -0.016108703 0.035919417 0.004524882 0.09618054
-0.30707538 -0.010993095 -0.021303736 -0.04168901 -0.25108644 -0.029225146 -0.017055366 0.04585751
-0.009056248 0.03747049 -0.08611036 -0.048362922 -0.20050108 0.0059958617 -0.24666303 -0.03093971

fc_enc.bias f4 [16]
00000000: c693 80bd 5e3c e4bd 3f3f 24bd 18fa 28bd
00000010: 1436 423c d3e9 cf3d 2031 203b a3cd fd3d
00000020: 0084 143e 61ec 19bc ab01 51bd 599e af3d
00000030: df4b 723d f245 c4bd 5428 b73d ac7d d3bb
-0.062781855 -0.111443266 -0.04009938 -0.041254133 0.011853714 0.1015202 0.0024443343 0.12392738
0.14503479 -0.009394736 -0.05102698 0.08575124 0.059154388 -0.095836535 0.08943239 -0.0064541902

fc_dec.weight f4 [468, 16]
00000000: 796c 04bd ba8a d33d 5e11 2bbe 064e 73be
00000010: 6ba9 8ebd e65a 78bd 21ca 09be 1379 0cbe
00000020: e19c 25bd 166a 4f3d ecee cfbd 6c76 49bd
00000030: c7e1 d33d eb6b 8cbd 6580 083e c935 4ebe
00000040: 25ea 2e3e 7cf4 f43d a91a 2bbe 55a4 b53d
00000050: 1de0 c13d 79c3 803e 5c59 30be 4dc0 8c3c
00000060: c2eb 79be 6f20 363e 1397 db3c 3770 04bc
00000070: 80e7 97be 31d3 aebd 1e95 4e3e 603f edbd
00000080: a0bc 99be bfc9 76bd f8e6 b5bd 5946 553e
00000090: 6f46 0e3f 6eb4 a3be 2478 1abe 3816 30bc
000000a0: 2901 963e a455 3ebe 2019 753e f59f 093d
000000b0: 2842 953d 5dca 593e 2a12 8fbe d056 163e
000000c0: 20fb 4f3e af99 63bd 1669 043f 3ae7 993e
000000d0: 0392 f03e bd17 40be 6d66 de39 b6f3 a23e
000000e0: 39d9 b93e 7e9e 913e 98b8 833d 53ff e2bc
000000f0: 7f42 4a3e 5473 4a3d 99b5 2d3e 96cf 93bb
00000100: 0b9a 993e ea90 ae3d 8ec2 4a3d f1c6 e33d
00000110: 613b 4d3f 2212 76be e0fa 6cbd 9095 92be
00000120: 1ca1 8e3e d783 f33d cc2f 473d e085 24bf
00000130: df83 393e 37cd d9bd a93f d83d 289f 3f3c
00000140: 8088 fb3d 90ee 29be 0e9e 14be a420 3a3e
00000150: 8e8f c43e 1da6 7cbe 5836 c6be 4366 53be
00000160: 5908 e93e 7082 e4bd 88ba 533d 14e5 47bd
00000170: 7c60 97be bf1c ddbe e9b8 1dbe 2ec2 92bd
00000180: 442c 03bf 6cf3 7ebe 8523 703e 9c52 ca3e
00000190: 4057 bc3e 915e 8abd 9d77 d1be 6049 2fbe
000001a0: b7d3 28bd ea14 32be c1e9 753e c9e6 2cbe
000001b0: bc56 b23d 90a2 25be 1418 b8be c00f 5fbd
000001c0: 8c47 60bd 379f 333e 9b44 2e3e 9881 643e
000001d0: c5d5 483e ba35 0f3d e976 8bbe 050f 4d3d
000001e0: 5949 683e afdb b0be 67db d83c e28e d4bc
000001f0: c140 723e d0be cabd 5edc 96be f3f2 bbbd
00000200: 57fa 013e 99b2 dd3d 05a3 bfbe b88f 8e3e
00000210: 6d64 d23d e031 2abd 70bf fc3d 8ce0 803e
00000220: 433a 0abe cfc4 f0bd b831 7a3e c4d3 d7be
00000230: f4cd 28be 7516 70be 69d8 bbbe a544 913e
00000240: 0440 c1bd 0b60 463e d50d 32be 9010 1d3d
00000250: b009 2cbe 3c2e bd3d a82f b0be b3f6 863d
00000260: c64a 933d bef0 513d 88fd a23e 1c56 c8be
00000270: 5342 a83e 777f 933e ee82 88be 8458 f53e
00000280: d9d7 c83d d36c 9dbe 106d 7abd 11a0 ba3d
00000290: d9f9 a5bc 91db 0b3c 174b bfbd 66d4 413e
000002a0: 4bf0 3dbe 77ca ffbd ad61 a03e 54a8 aebe
000002b0: 777c 083d 1811 fc3b 04fd 90bd dc26 7f3e
000002c0: 9f7b 863d ca0d ff3b 0fa5 afbd 4530 033e
000002d0: f614 3f3e c9f1 c8bc 2ab1 77be 3909 f4bd
000002e0: d14c 83be 6310 9abd e145 333e ca22 c1bb
000002f0: cf06 d9bd 23e7 b83c 49e9 93bc 31d7 cdbd
00000300: ad6a 613e fe1c 023e 922c 09bd 62d7 0a3e
00000310: e054 35bb 090f a23d 2701 ee3d d8df e63d
00000320: 536c b4bd 79ca a3bd 3c6f 743c 406b c0bd
00000330: c89f 4bbc 88c4 38be c364 17be 6aed 923d
00000340: 993a 173e c75e d63d 0a09 29bc c0fe 353c
00000350: 54a5 0d3e 8620 983c 0ad3 6d3c 9e4b 403c
00000360: 40ee 93bd 36fa babd 32b8 363d b574 9bbd
00000370: 8bb7 3bbd 0b6b 55be 5a7e afbd 0ca8 033d
00000380: ef9b f3bd 6262 583e 4461 dd3c 44e9 f13d
00000390: 1dd7 eabc 2e84 263d 6178 473e d2db 93bd
000003a0: afbb 7ebd 3a88 f43d 2f53 fa3c 8497 1b3d
000003b0: 6e86 a53e b9f4 0fbe 0607 6c3e e861 b53c
000003c0: 960e 8c3d e4c2 d4bd 88a3 83be 0c5f 02bd
000003d0: 35a9 41bd bef3 343e 8acc 13bc 500c 66be
000003e0: 67cb e63c 65bd a0bd 57a3 433e 17cb 483e
000003f0: c7e0 8cbd 24e6 98bd bc6a 30be eb4a 8dbe
-0.03233001 0.10329194 -0.16705844 -0.23760232 -0.06965908 -0.060633563 -0.13456012 -0.13718061
-0.040432815 0.05063828 -0.101529926 -0.0491852 0.10345798 -0.06856521 0.13330229 -0.20137705
0.17081507 0.11960694 -0.16709389 0.088692345 0.09466574 0.25149134 -0.17221588 0.01718154
-0.2440634 0.1778581 0.026805436 -0.008083395 -0.29668808 -0.08536375 0.20174071 -0.115843534
-0.30026722 -0.060250994 -0.088819444 0.20827617 0.55576223 -0.31973594 -0.15084893 -0.010747485
0.2929776 -0.18587357 0.23935366 0.033599813 0.07288009 0.21268602 -0.27943546 0.14681554
0.2031064 -0.055566486 0.5172285 0.30059224 0.46986398 -0.18759055 0.00042419453 0.31826562
0.3629854 0.28441232 0.06431693 -0.027709639 0.19751929 0.04942639 0.16963805 -0.00451083
0.30000338 0.08523734 0.049501948 0.111219294 0.8016873 -0.24030355 -0.05785644 -0.28629732
0.27857292 0.11890381 0.048629567 -0.6426678 0.18116711 -0.10634845 0.10559017 0.011695661
0.12281895 -0.1659491 -0.14513418 0.18176514 0.38390774 -0.24672742 -0.38713336 -0.20644478
0.4551418 -0.111576915 0.051691562 -0.04880245 -0.295658 -0.43185994 -0.15402569 -0.07165943
-0.5123942 -0.24897546 0.2345105 0.3951615 0.36785316 -0.06756318 -0.4091157 -0.17117834
-0.041217532 -0.1739079 0.24014951 -0.16884913 0.087079495 -0.16175294 -0.3595587 -0.05445838
-0.054755732 0.17541204 0.17018358 0.22315061 0.19612797 0.034963347 -0.2723916 0.050063152
0.2268423 -0.34542605 0.026471807 -0.025947038 0.23657514 -0.09899676 -0.29465002 -0.09177198
0.12693153 0.108250804 -0.37429062 0.27844024 0.10273061 -0.04155147 0.12341201 0.25171316
-0.13498788 -0.11756288 0.24433029 -0.42153752 -0.16484815 -0.23446067 -0.36688545 0.28372684
-0.09436038 0.19372575 -0.17388089 0.038345873 -0.1680057 0.09237334 -0.3441136 0.06590023
0.07191996 0.05125498 0.31834054 -0.39128196 0.328631 0.28808185 -0.2666239 0.47919095
0.09806795 -0.3074709 -0.061139166 0.091125615 -0.020260738 0.008536235 -0.09340494 0.1892868
-0.18548696 -0.12489789 0.3132452 -0.341128 0.033321824 0.0076924674 -0.07079509 0.24917167
0.065665476 0.007783626 -0.08576404 0.12811382 0.1866034 -0.024529355 -0.24188676 -0.119158216
-0.25644544 -0.07522657 0.17507125 -0.0058940398 -0.10597002 0.022571152 -0.018055575 -0.1005081
0.2201335 0.12706372 -0.03348977 0.13558725 -0.0027668998 0.07913024 0.116213135 0.112731636
-0.08809724 -0.07997603 0.0149190985 -0.09395456 -0.012428232 -0.1804372 -0.14784531 0.071741894
0.14768447 0.10467296 -0.0103170965 0.0111081 0.13832599 0.018570196 0.014515648 0.011736779
-0.07223177 -0.09129755 0.044609256 -0.075906195 -0.045829337 -0.20841615 -0.085690215 0.032142684
-0.11894976 0.2113128 0.027023919 0.1181207 -0.028667027 0.0406534 0.19479515 -0.07219662
-0.062190708 0.11940046 0.030557243 0.037986293 0.32329124 -0.14058198 0.23049554 0.022141412
0.068387195 -0.10388735 -0.25710702 -0.031828925 -0.04728051 0.17671105 -0.009020934 -0.22465634
0.028173162 -0.07848624 0.19105278 0.19608723 -0.068788104 -0.07465771 -0.17228216 -0.2759622

fc_dec.bias f4 [468]
00000000: c512 06be 084f 443e d97c 89bd 8c95 ec3d
00000010: e2c2 963e b878 bbbb 7f11 d33d 3a3c db3d
00000020: ef9e 283e 9c79 e93c 3113 393d d752 29bd
00000030: b762 79bd 4bb9 a43d b4c3 cfbc 3d01 44bd
00000040: 95a6 053c 841d 4cbd fc46 aabd 94fa 49bd
00000050: 4e49 0cbd 0dc0 303c 73a2 10be 77c6 10bd
00000060: 7dc3 24bd b23a 17be 72da 2fbc 1b87 093e
00000070: 4fdb 3d3d 1e08 3abd 21b8 f2bd 2425 e1bd
00000080: fe5e da3c 0cda dfbd aafa e6bc 4723 6d3c
00000090: 65df 16be f698 3cbe 4f55 913d 81c3 e93c
000000a0: 2e83 1abd 674d d3bd b5e1 323c 9a59 37bd
000000b0: da83 9c3c 7005 4bbe aac5 71bd 4213 433b
000000c0: 9e2b b1bd 2b32 23bd c24c 23be 11f5 853e
000000d0: d669 52bc f0b0 9a3c 4e47 c63d 4761 dd3d
000000e0: a227 1abd 26a6 373d d6e2 283d 193f 8b3c
000000f0: 666c f5bd 943d 513e 6cbd a23d e3e3 bfbc
00000100: cabb b5bc f59c 643d 3ce1 c8bd 0111 08be
00000110: 22b8 a43c c651 20bd 9a7c 76bc 8612 1bbe
00000120: a3ba 8fbc 42b9 c23d 4ac2 0bbd 5f23 45bd
00000130: f128 1ebe fb84 adbd fc3a 46be cd7a 0b3e
00000140: eb9d 76bd a787 a83d f7ad 063d 457b 503d
00000150: e628 a6bd 34d2 f4bd e9b5 b73d 2b1f 19bd
00000160: 6f45 313e ba94 b8bd 010b 7b3d 74f0 ee3d
00000170: 21e6 8f3d 2662 be3c 35b9 3ebd 924f d43b
00000180: 5385 a63d 3013 453c 9f15 0a3d 6ec0 ad3d
00000190: cd57 fe3d 6467 12be 06f1 37be a3ea 1f3e
000001a0: abe0 23be 3288 4a3e 3e50 8abb cf0e bf3d
000001b0: e79a 08be 1a86 00be 4e8e 47bd 5113 c23d
000001c0: d5f5 423d b4d6 b03d 2625 aa3d 507f 84be
000001d0: 65d1 24be bf6f cf3c c67f 5cbd e5c1 463e
000001e0: d195 2d3e 4891 d83d 1f7b bc3a 7622 423d
000001f0: 9e68 bcbd 59d2 08be b727 433d 67af 42be
00000200: de5e 0c3e d55d f43c eea9 7fbe bed0 0c3c
00000210: 1bed 48bd c5ea 0ebe 3ffd a23c e873 903c
00000220: ef2b 5bbd 73c3 08be 2919 30bd a8fa 6cbd
00000230: 5b9b 693e 01fe 873d 9286 4bbd 7e75 ec3d
00000240: a924 c73d 5fd3 0a3d 47ca 5c3b 2c15 ab3d
00000250: 2809 c6bd 174d 513d a4c5 e3bd da51 c1bd
00000260: e699 cbbc 8ce1 263e 0349 f3bc ecfe a8bd
00000270: b968 c8bc bfc5 50bd d4ca 7dbd b1f3 9a3d
00000280: dad1 b63c 5551 1b3c 0dd6 36bd 606a 11bd
00000290: 4e3a 79bd cf3f efbd e42b 053d d150 21be
000002a0: f708 b13d a6f4 d0bd 642b a63d e7f3 03bd
000002b0: 358b a1bc d3c8 e33d e01b 33bd 044b d23d
000002c0: 8a05 e8bc dfad ca3d deab 37bd 9f3b 10be
000002d0: b123 b2bc 0e2b 333e 91b0 453d 594b d2bb
000002e0: 3422 643b 144d 0abe ba71 69bc 9c9a d2bd
000002f0: 6d02 d73d f16c 85bd c7b2 cdbd d533 f6bc
00000300: 5d96 bcbd 9754 b33b 99b9 94bd e173 8fbc
00000310: d09c cc3d 6e29 70bd 0b39 1fbe 8788 a73c
00000320: ca0a 21be 55c7 09be 943f 123e 482c 9dbc
00000330: b8a7 e83c 5ba9 e63d ce42 a1bd b632 53be
00000340: 0da2 e1bd 5b72 cf3d 381e 52bc f3e1 dcbc
00000350: 8395 d33d b295 3dbd 60c2 e13d 108c 99bd
00000360: d6fd f3bd 1ed4 f03b dbef 013d 3091 cf3d
00000370: 7b81 303e 6e4a 9b3d 693e b4bd 9b34 87be
00000380: 322a 233e 27a3 56be d4fc 2d3b 092b 6ebd
00000390: 5767 1d3e 3aa5 293e bf18 14bc 634e ebbd
000003a0: 75f6 dbbd df00 dabd bd63 573e ee6d 333e
000003b0: 76a3 3ebc 5c1f de3c a5b9 87bd 6dba 143e
000003c0: dd0a cb3c 6c2c 193d b65c 233e d671 16bd
000003d0: b24f 553e b501 233b 6145 34be 4c1c 223e
000003e0: 27bf 963d 5a91 91bd 14e4 393d 7c37 753c
000003f0: f0f5 b13d e543 12bd 6865 003e 88b8 be3c
-0.13093098 0.19170773 -0.06713266 0.11551961 0.2944556 -0.005721178 0.103060715 0.10704847
0.16466878 0.02850037 0.045184318 -0.041338768 -0.060885157 0.08043154 -0.025361873 -0.047852743
0.008157392 -0.049832836 -0.083143204 -0.049311236 -0.034249596 0.010787976 -0.1412447 -0.03534552
-0.040225495 -0.14768484 -0.010733234 0.13430445 0.046351727 -0.045417897 -0.11851526 -0.10993412
0.026656624 -0.10930261 -0.028195698 0.014473743 -0.14733656 -0.18417725 0.070963494 0.028535606
-0.03772276 -0.10317498 0.010918071 -0.044763185 0.01910584 -0.19826293 -0.059026398 0.0029766117
-0.086508974 -0.039842766 -0.1594725 0.26163533 -0.012842616 0.018883198 0.09681569 0.1080957
-0.037635453 0.044836186 0.041231953 0.01699786 -0.11983566 0.20433646 0.079462856 -0.023424095
-0.022184271 0.05581375 -0.09808585 -0.13287736 0.020107333 -0.039140485 -0.015044356 -0.15143785
-0.01754505 0.095079914 -0.034120835 -0.048129436 -0.15445305 -0.0847263 -0.19358438 0.13621064
-0.060209196 0.08228999 0.03288075 0.05089881 -0.081132695 -0.119541556 0.089702435 -0.03738324
0.17311643 -0.09012742 0.06128979 0.116669565 0.070263155 0.02324016 -0.046563346 0.006479212
0.08130898 0.0120285 0.033712026 0.08483969 0.124190904 -0.14297253 -0.17963037 0.1561685
-0.16003673 0.19778517 -0.0042209914 0.093289964 -0.1334034 -0.12551156 -0.048719697 0.094763406
0.047597725 0.08634701 0.08307867 -0.25878382 -0.16095503 0.02532184 -0.05383279 0.19409902
0.16951682 0.10574585 0.0014379955 0.047396146 -0.09199642 -0.13361491 0.047645297 -0.19012223
0.13708064 0.029829899 -0.24967167 0.00859469 -0.049054246 -0.13956745 0.019896148 0.017633393
-0.053508695 -0.13355808 -0.042992745 -0.057856232 0.2281317 0.06640244 -0.049688883 0.11545847
0.09723789 0.033892985 0.0033689903 0.083536476 -0.09669715 0.05109891 -0.11121681 -0.0943944
-0.024853658 0.16296977 -0.0296979 -0.082517475 -0.024463998 -0.050969835 -0.06196101 0.07566012
0.022316862 0.00947984 -0.04463773 -0.035501838 -0.06084662 -0.116820924 0.03251256 -0.15753485
0.08644288 -0.10202913 0.08113745 -0.032215025 -0.0197197 0.111222886 -0.043727756 0.10268214
-0.028322954 0.098964445 -0.04484164 -0.14085244 -0.021745535 0.17496893 0.04826409 -0.0064176735
0.0034810426 -0.13505965 -0.014248306 -0.10283396 0.104985096 -0.065149195 -0.10043865 -0.030054012
-0.09208367 0.0054727304 -0.072619624 -0.01751131 0.09990847 -0.05863326 -0.15549104 0.020450843
-0.15726772 -0.13454945 0.14282066 -0.019186154 0.028400287 0.11262771 -0.0787407 -0.20624813
-0.11017237 0.101292334 -0.0128245875 -0.02696321 0.103312515 -0.04628534 0.11023402 -0.07497418
-0.1191365 0.007349505 0.031722885 0.10135114 0.17236893 0.07582556 -0.08800966 -0.26407322
0.15934065 -0.20960675 0.0026548402 -0.05814651 0.15371452 0.16566935 -0.009039103 -0.114895605
-0.10740367 -0.106446974 0.21034141 0.17522404 -0.011635652 0.027114563 -0.06627206 0.14524241
0.024785453 0.03739588 0.15953335 -0.036729656 0.20831183 0.0024872844 -0.17604591 0.15831107
0.07360678 -0.07107802 0.045383528 0.014966842 0.08689487 -0.03570928 0.12538683 0.02328135

dec1.kernel0 f4 [8, 4, 3, 1]
00000000: bca4 603e bd1b 3a3b 0fe4 d2b9 5e2e c03b
00000010: 3e4c 563e ca1a 0dbe 8876 4ebe 1fd8 ffbd
00000020: 3b6f b53e 4cf1 09bf 3781 afbd 9a00 d0be
00000030: 53d9 fa3d ad1d 29bf c923 a93d 647e f23e
00000040: 6f1a 84bc b1e7 e73d e9b6 293d 8582 93be
00000050: f6ae 273e 4a0c 0cbf 161d 8e3b 09c4 c8be
00000060: 224a dc3b a8dd c5be c364 e9be 448c 0ebe
00000070: 4b3c 9e3e f185 123e 9b28 e5be 481b abbe
00000080: e10d 243d 32e6 82bd 4b89 40bf af3d 99be
00000090: 86c0 1f3e e863 763d 04f2 f9be 87e0 ef3d
000000a0: a810 a0be f947 3ebd e87b 9c3e a1e6 5dbe
000000b0: db14 c7bd 21c1 d8be cf10 81be 1247 0bbf
000000c0: f6dc 7fbe 1855 41bd d77e 023f 5965 173f
000000d0: 287e c3be 5701 063e 329f 0dbf 8e20 c4bd
000000e0: 5dcd 92bd 73ca adbe 71ce 41bf 1e01 9cbe
000000f0: ab1d c03d dbe3 19bf efac f33e 1c90 113f
00000100: fa9b 5f3d 0ba1 61be eb57 033d f0ec 1fbf
00000110: 03dd 54be 7708 18be a6ed 9dbe 5c29 3bbf
00000120: 4dde cdbd 4943 61be 0bd5 253f e484 113f
00000130: f722 1cbf ff13 d4bd 7d54 e5be 8ce3 febe
00000140: da89 11be 1e3c 62be e404 30bf c3fd 9abe
00000150: 86ce 32bd 7df0 2ebe 8a3c 043f 258c 003f
00000160: 511c e8be 7fec 05be 5729 d9be 94ab d9be
00000170: ed81 43be 5706 51be ad14 e5be cd2f 9abe
0.21937841 0.002839788 -0.00040224238 0.0058649024 0.20927522 -0.1377975 -0.20162404 -0.12492394
0.35436425 -0.53883815 -0.08569568 -0.4062546 0.122484826 -0.66060907 0.082587786 0.47362053
-0.016125886 0.113234885 0.041434202 -0.28810516 0.16375336 -0.5470625 0.0043369634 -0.39212063
0.0067227045 -0.38645673 -0.45584688 -0.13920695 0.30905375 0.14308907 -0.44757542 -0.3341925
0.0400523 -0.063915625 -0.7520949 -0.29929873 0.15600786 0.06015387 -0.48817456 0.11712747
-0.31262708 -0.046455357 0.30563283 -0.21670009 -0.09720775 -0.42334846 -0.25208136 -0.5440532
-0.24986634 -0.047200292 0.5097479 0.5913902 -0.38182187 0.13086449 -0.5532104 -0.09576522
-0.07168076 -0.3394352 -0.7570563 -0.30469602 0.09380659 -0.60113305 0.47592875 0.5686052
0.05459211 -0.2203409 0.032066267 -0.6247091 -0.20787434 -0.14846979 -0.30845374 -0.73109984
-0.10052166 -0.21998324 0.647782 0.568434 -0.6099085 -0.103553765 -0.44791022 -0.4978298
-0.14212742 -0.22093245 -0.6875746 -0.3027173 -0.043653987 -0.17083926 0.51654875 0.50213844
-0.45334104 -0.13078497 -0.42414352 -0.42513716 -0.19092532 -0.20412575 -0.44742337 -0.30114594

dec1.kernel1 f4 [8, 4, 2, 2]
00000000: f3d9 ea3d f5da 413d f6a6 acbd eaca e3be
00000010: 5a03 4a3e 410e a43b 7a64 a6bd c046 37be
00000020: 158d 4b3e 1a6f 9a3d 17ef a3bd 94cb 00bd
00000030: 556b 4fbe 4f60 d4bc abb8 f7be 1f28 efbe
00000040: 6af9 983d 9ef2 193f c72c 043b 7259 763d
00000050: 7ec1 82be 44c9 c83d b144 173e 2e0f bbbd
00000060: c29d eebe dded e13e 6747 3fbd 85d6 fd3e
00000070: 6a38 fcbe 28aa 1abe 4ebd 68be d978 cabe
00000080: 6c16 5f3f f79b 8cbe d892 1abe f8da fd3e
00000090: 78d4 aa3e 9163 35be 86eb 323e 2b0a 5fbd
000000a0: f373 493e 1487 11be 237a 073d 035c b23e
000000b0: 87b8 983d 7137 8b3d a008 32be 8d3b c3bd
000000c0: 7b5c c63c 1c16 efbd 4a3a db3a 9d9d 4cbe
000000d0: 534f a63e eda2 44be 7d8a 1cbe 96a9 a43d
000000e0: a448 d53e 81d2 02be f069 02be 9daa b63e
000000f0: 1bc7 48bf ca33 51bf 9702 f0be 3194 bfbd
00000100: bb17 23be 3b5a 3a3e 31dc 9dbd 45ec 3b3e
00000110: 1539 bf3e da46 b1be 7e47 06be 7365 443d
00000120: f26e 88bc eb30 b3be 6b2f 123f e50f 18bf
00000130: 77f0 acbe 88ec 753e 6ad2 7abb bedc ccbd
00000140: e8a7 403c d887 7e3c fd3e 3dbe b8df a33e
00000150: 8837 7c3e 4ad5 aebe a826 243e 1c83 36be
00000160: 70d3 13bd 0d8f a7be 25fe ac3e fe01 cdbe
00000170: dffe edbd 479c c33d d026 0fbc d9aa 84bd
00000180: 605b ebbd eb7e 0a3e 3870 51be cb73 403e
00000190: 8300 203f 1068 e2be 9cdb bf3d 7439 803d
000001a0: be86 05be 92b2 84bd 5db0 8d3e 93e4 a7be
000001b0: 06a8 49be 4a91 033e 26cd dcbe fad2 823e
000001c0: 7b4a e3bd f170 f13d d262 ccbd 3a04 d93d
000001d0: d680 ef3e 2197 a7be f916 803d 8a7a 7abc
000001e0: dc76 9ebe 6fe5 26be 7f01 f03d e174 eabe
000001f0: 9e0b 14be d391 203e c0fb 9dbe 38df 2f3e
0.11467352 0.047327954 -0.08430283 -0.4449075 0.19727841 0.005006582 -0.08124633 -0.17898083
0.19878037 0.07540722 -0.08004587 -0.031444147 -0.20255788 -0.02592483 -0.48383078 -0.46710297
0.07469447 0.6013583 0.002016829 0.060143895 -0.25538248 0.09804013 0.14772297 -0.09133755
-0.46604735 0.44126788 -0.046698954 0.49577728 -0.4926179 -0.15103972 -0.22728464 -0.39545324
0.8714359 -0.27462742 -0.15095079 0.49581122 0.33365226 -0.17713763 0.17472658 -0.054453056
0.19673137 -0.14211684 0.033075463 0.34835824 0.07457071 0.06797684 -0.17386103 -0.09532843
0.02421402 -0.11674139 0.0016725746 -0.19982 0.32482395 -0.19202776 -0.15287204 0.080401585
0.41656983 -0.12775613 -0.12735724 0.35677043 -0.7842881 -0.8171965 -0.46876976 -0.09354437
-0.15927021 0.18198483 -0.07708014 0.18351848 0.37348238 -0.34624368 -0.1311321 0.047948312
-0.016654465 -0.3499826 0.57103604 -0.59399253 -0.3377721 0.24016011 -0.003827239 -0.10003041
0.011758782 0.015535317 -0.1848106 0.3200662 0.24630558 -0.34147102 0.16030371 -0.17823452
-0.036090314 -0.32726327 0.33787647 -0.40040582 -0.116208784 0.09551292 -0.008737281 -0.06477899
-0.11492038 0.13524978 -0.20452964 0.18794172 0.6250078 -0.44220018 0.09368059 0.06260958
-0.13039681 -0.06479372 0.27673617 -0.32791576 -0.19693002 0.12848392 -0.43125266 0.25551587
-0.110981904 0.1178912 -0.09979786 0.10596509 0.46777982 -0.3273249 0.06254382 -0.015288005
-0.30950058 -0.1629846 0.11719035 -0.45792297 -0.14457557 0.15680628 -0.30856133 0.17174995

dec1.bias_tensor f4 [8]
00000000: 2454 edbd fe93 e4bd cf9f 0cbe 7774 03be
00000010: beb2 8ebe 8e51 9bbe d734 c0be d2a6 8dbc
-0.11588314 -0.1116104 -0.13732837 -0.12837397 -0.27870744 -0.3033566 -0.37540314 -0.01729146

dec2.kernel0 f4 [1, 8, 5, 1]
00000000: a5ca e0be 2596 f43e 3f2f 523e 0aaa 86bc
00000010: cbbf 0fbe f4ff b63d d4df 21be 7611 7fbd
00000020: 22d8 553e 50a7 07bd 4310 99bb b80d 263d
00000030: 8dbc ad3d be12 82bc c3eb 2abd faec 8ebe
00000040: f295 71be 182f b33d 5d7b 94be 731f 95be
00000050: 8ed3 af3d b518 9abd 5bb8 b93d 4804 133e
00000060: 033c 1abe 664e 65be 8fd0 cc3e b5fe 073e
00000070: c528 65be bbd1 a73d 358c 813d 5bab abbe
00000080: 8425 633e c3eb 633d cf8c afbc cbe6 16bd
00000090: f531 c13d f75e 833c 18da e13d fbb3 ffbc
-0.43904606 0.477708 0.20525835 -0.016438503 -0.14038007 0.08935538 -0.1580804 -0.06227251
0.2088323 -0.033118546 -0.004671128 0.040540427 0.08483229 -0.015878078 -0.041728746 -0.27915174
-0.23592356 0.08749217 -0.2900037 -0.29125556 0.08585273 -0.07524244 0.09068366 0.14357102
-0.15061955 -0.22393188 0.40002868 0.13280757 -0.22378834 0.081943 0.063255705 -0.3352917
0.2218228 0.05564476 -0.021429447 -0.036841195 0.09433357 0.016036494 0.11027926 -0.031213751

dec2.kernel1 f4 [1, 8, 4, 2]
00000000: 4044 173e 6c6d 0a3e aa1d debd f13d f03c
00000010: da4e 3cbe 0115 3bbe a357 8e3c c69b e83d
00000020: 36ca 9fbc b130 323c bd1c 223e e0c0 753e
00000030: 1886 2bbe a885 50bd 6bde a33b 45dc d9bd
00000040: 7e1f b2bc 03b9 da3c 8b8e 44bc d497 07bd
00000050: edb0 19bb 4adb 033e 53ba df3a 4191 543c
00000060: 5dbf 3f3d ee43 e7bd e0b4 ccbd ac06 3a3e
00000070: ad36 563d 149f d03e d91d f0bd 1ab6 31be
00000080: bca1 e03c 4717 e23b 5aed a0bd 6f4a 4ebe
00000090: 9b2f 143e b3bd 66bd 8564 4fbd 404d e53c
000000a0: bb42 90be 1356 4abd 9a3d ba3e 0f48 48bc
000000b0: b582 08be 7993 a9be 87c1 313d 17f1 a63d
000000c0: b43f c43d fa9b 51bd 50c6 90be a369 4f3e
000000d0: 91b0 7cbd fe3f c13e 81ba bdbd 9847 5abe
000000e0: c9b0 24bc 8a28 223d d80f 5a3d 3865 4d3d
000000f0: dbef 893c cd78 023e 6ae7 a83c 8e4b 653b
0.14772129 0.13518304 -0.10845502 0.029326411 -0.18389454 -0.18269731 0.017375773 0.113578364
-0.019505601 0.010875867 0.15831275 0.23999357 -0.16750371 -0.050908715 0.0050008795 -0.10637716
-0.021743532 0.026699549 -0.0119968755 -0.03310378 -0.0023451403 0.12876621 0.0017069079 0.012974084
0.046813358 -0.112922534 -0.09995437 0.18166608 0.052298237 0.40746367 -0.11724443 -0.17354622
0.027420871 0.0068997475 -0.07857771 -0.20145582 0.14471285 -0.056333255 -0.050632972 0.027990937
-0.2817591 -0.049398493 0.36375123 -0.012224211 -0.13331111 -0.33120325 0.043397453 0.08151453
0.09582463 -0.05117414 -0.282763 0.20255141 -0.061691824 0.37744135 -0.092640884 -0.21316373
-0.0100519145 0.039589442 0.053237766 0.050145358 0.016838005 0.12741394 0.02061816 0.003498766

dec2.kernel2 f4 [1, 8, 3, 2]
00000000: bc48 63be 094c 71be 0e3f 783c 5745 11bd
00000010: 7145 9cbd 7ab2 5abe e184 5dbd 4634 d0bd
00000020: c34d 3b3d c8b9 fd3d 4955 803d 4981 0f3e
00000030: ab00 45bb 4dbc 26bc df1f 03bb dd6d 3dbd
00000040: eb67 a8bb 4c60 54bd 7b1b cf3d b87c afbd
00000050: 8912 343e b80d a03e c199 62be c4c6 2a3e
00000060: 2bb4 f73c 3dec 5e3d d7f4 e9bc 0c00 01bd
00000070: 3a29 d2bd 9cef 103d 4a11 dabd 447a 8cbd
00000080: 4801 9ebd 11c3 24bd 709e 23bd 8580 7d3d
00000090: 0551 b03d 1ad9 c5bd 8149 bfbb 8f5b 88bd
000000a0: 2335 863d 2d2c 25be 9d13 ccbc 9fbe 823c
000000b0: 15bf fa3c 68ff b93d 72f5 03bd 483f dc3a
-0.22195715 -0.23564161 0.015151752 -0.03546652 -0.076304324 -0.21357146 -0.0540818 -0.1016622
0.045728456 0.123889506 0.06266267 0.14014162 -0.0030060213 -0.01017673 -0.002000801 -0.046247352
-0.005139341 -0.05184965 0.10112663 -0.0856871 0.17585196 0.31260467 -0.22128965 0.16677386
0.030237278 0.054424513 -0.028559132 -0.031494185 -0.102617696 0.03538476 -0.10647829 -0.06859258
-0.07715088 -0.040225092 -0.03994602 0.061890144 0.08609203 -0.096605495 -0.00583762 -0.066580884
0.06553104 -0.16130133 -0.024911696 0.015960036 0.030608693 0.09081918 -0.032216497 0.0016803527

exp_avg f4 [8, 1, 5, 1]
00000000: c095 ccb4 44cd 80b4 7e0e eab4 1d2c 1234
00000010: d4af 6cb4 c637 1bb5 436b 8fb5 028f 8fb4
00000020: 529f bf35 496e 0d36 a317 2d35 e608 11b6
00000030: 73c0 06b6 bb8e b234 16aa 56b3 ad32 bfb5
00000040: 3e58 79b5 3195 dab5 0b49 abb5 fb93 0ab6
00000050: bf2f 8fb5 215e 2cb4 1534 f6b3 a6c7 78b5
00000060: 6268 52b5 f4ed a534 0401 0eb4 8764 71b5
00000070: 4149 2bb4 a289 36b4 1411 04b6 cf1d 69b5
00000080: f797 27b5 027d 2935 3230 1b36 aa31 18b5
00000090: 11ce 4bb3 26ef eb35 8558 8e35 25f3 7535
-3.8106919e-07 -2.3991208e-07 -4.359644e-07 1.3613358e-07 -2.2043179e-07 -5.782316e-07 -1.0685548e-06 -2.6739878e-07
1.4276977e-06 2.1074832e-06 6.448192e-07 -2.1611863e-06 -2.0079576e-06 3.3258934e-07 -4.998045e-08 -1.4245358e-06
-9.288814e-07 -1.6285686e-06 -1.2761751e-06 -2.0649738e-06 -1.0668226e-06 -1.6052992e-07 -1.1464741e-07 -9.2677726e-07
-7.8382993e-07 3.090678e-07 -1.322515e-07 -8.992578e-07 -1.5952266e-07 -1.7000141e-07 -1.9679474e-06 -8.684264e-07
-6.2433486e-07 6.3139316e-07 2.3124853e-06 -5.6696683e-07 -4.7452037e-08 1.7578466e-06 1.0605587e-06 9.1623434e-07

exp_avg_sq f4 [8, 1, 5, 1]
00000000: ff67 232c 1c42 b82c 0655 ab2d 0f1c 452e
00000010: 3af0 5c2e dd03 422d 639a 9b2d c3ee e62d
00000020: fb95 042e 951c f22d c938 a42e 8fac a52e
00000030: 9c62 822e 68b2 0c2e 5e80 af2d dddd 932e
00000040: 31f4 4e2e f6d8 ef2d 6a2b 7e2d d552 2b2d
00000050: da3b 282e 2498 f32d 6a20 872d 6b42 122d
00000060: 0628 e52c 0042 282b e2e9 2b2c 2008 242d
00000070: 8846 842d d5d4 c32c e210 0d2f 715e 4a2f
00000080: a0dd 3a2f adff 0f2f 081d ad2e b977 832d
00000090: def3 dc2d 51b8 522e 3681 802e e7ce 8c2e
2.3221423e-12 5.236934e-12 1.9478207e-11 4.4817535e-11 5.0235573e-11 1.1028481e-11 1.7690021e-11 2.6254004e-11
3.0146535e-11 2.7524908e-11 7.4679436e-11 7.533984e-11 5.929232e-11 3.199077e-11 1.9952203e-11 6.724197e-11
4.7055863e-11 2.7267504e-11 1.4447868e-11 9.738617e-12 3.8251936e-11 2.7693466e-11 1.5362118e-11 8.313887e-12
6.513015e-12 5.9777183e-13 2.4430393e-12 9.324125e-12 1.5037985e-11 5.5658624e-12 1.2829873e-10 1.8405345e-10
1.6995338e-10 1.3096609e-10 7.872286e-11 1.4946143e-11 2.5119403e-11 4.7912178e-11 5.8437186e-11 6.403216e-11

exp_avg f4 [8, 1, 4, 2]
00000000: b3e1 3fb4 effa a3b3 1b0f b835 fdae 8b34
00000010: 5c76 ea34 df0a 0035 8611 c734 86b0 0c34
00000020: a569 5eb5 a9d9 0eb4 940f eeb3 2b51 e4b3
00000030: 5c35 24b4 57af 1ab4 3aae 1635 f09b eb34
00000040: fb61 d5b5 c3ea bd35 1a69 43b6 bb8e cbb5
00000050: b3eb 57b5 5286 13b6 ad64 c434 01ce 4bb4
00000060: 37e5 eab4 e36a e4b5 d647 92b4 5525 38b6
00000070: 2fd6 7bb5 c36a 5db6 55d9 58b5 8016 46b6
00000080: 43dc f4b5 ab85 a034 ff29 33b6 44b4 9f30
00000090: 8f87 4bb5 750e a0b3 c4f3 99b4 31ae 6ab5
000000a0: de0e 0234 5f48 9033 d3c3 8eb4 8649 aeb5
000000b0: 26b6 16b5 f149 a1b3 973b 02b3 a7b5 bcb4
000000c0: afc9 fab5 5b8a d2b5 ff1c 6e35 ad19 2bb6
000000d0: 62d8 bd31 990d 2d32 b7a0 e135 591d 8a35
000000e0: bc5a 3233 0e96 8a32 80e5 5635 5530 1935
000000f0: a40d 7d35 6bf4 60b5 476a b534 efe0 06b5
-1.787037e-07 -7.6359235e-08 1.3713465e-06 2.6018088e-07 4.3672014e-07 4.7699535e-07 3.7079388e-07 1.3102735e-07
-8.285518e-07 -1.3303965e-07 -1.1085572e-07 -1.0631842e-07 -1.5293102e-07 -1.4406156e-07 5.613289e-07 4.388562e-07
-1.5898253e-06 1.4149922e-06 -2.9118441e-06 -1.5166219e-06 -8.043673e-07 -2.1982892e-06 3.6581096e-07 -1.8980792e-07
-4.3752672e-07 -1.7018432e-06 -2.7246887e-07 -2.7439867e-06 -9.3816465e-07 -3.299371e-06 -8.078253e-07 -2.9517396e-06
-1.8243521e-06 2.989958e-07 -2.6697523e-06 1.1620007e-09 -7.5820657e-07 -7.45321e-08 -2.8675834e-07 -8.7425275e-07
1.2112602e-07 6.718687e-08 -2.6592042e-07 -1.2985408e-06 -5.6144415e-07 -7.5105966e-08 -3.032218e-08 -3.5149898e-07
-1.8685149e-06 -1.5686486e-06 8.8704104e-07 -2.549593e-06 5.525224e-09 1.0073017e-08 1.681058e-06 1.0290343e-06
4.1526377e-08 1.6133551e-08 8.005518e-07 5.7067274e-07 9.4269694e-07 -8.380218e-07 3.3791204e-07 -5.024621e-07

exp_avg_sq f4 [8, 1, 4, 2]
00000000: bd4f 642c 29bf 612c fac8 3e2d 2515 3c2d
00000010: e47b 062e 21d8 272e 5529 562e 4134 5a2e
00000020: c012 b32d 54db 872c 006c f52d 4ccf 172d
00000030: 2987 002e 2f9d ae2d 899b d42d 233f e62d
00000040: 6371 a32e f83d 862e 2ade ad2e 39c9 2c2e
00000050: 3d90 a42e 1d93 992d 9402 682e f2ab 042d
00000060: 26fb 162e 2292 c02e 3d29 8d2d dc5f 9b2e
00000070: dff3 252d 06f0 632e 075b bf2c 6191 132e
00000080: 10af b12e aeb7 352d f2e5 902e 6770 df2c
00000090: 60a7 282e b884 9a2c 5176 a32d 16f4 bc2c
000000a0: 98d1 0f2b 758c 4b2c e15b 3a2c 2868 282d
000000b0: d5a7 6b2d b321 822d 1091 732d 0607 422d
000000c0: 2963 152f 999c 422f d6d7 362f f293 502f
000000d0: bba5 142f 4fb0 342f 5efb c02e e86b 062f
000000e0: 81f0 c12c 6716 3e2e 744e 562d 3088 822e
000000f0: 8421 c02d 5609 962e a1d4 352e 86fb 922e
3.2445012e-12 3.2080538e-12 1.0844875e-11 1.0691258e-11 3.057811e-11 3.8163365e-11 4.8694677e-11 4.9613872e-11
2.035827e-11 3.861281e-12 2.7901237e-11 8.629385e-12 2.9223877e-11 1.9851313e-11 2.4170681e-11 2.6176011e-11
7.432523e-11 6.1046224e-11 7.9065934e-11 3.9286994e-11 7.4834784e-11 1.7459418e-11 5.2752983e-11 7.541511e-12
3.4329116e-11 8.7571075e-11 1.6048158e-11 7.065612e-11 9.433314e-12 5.1827008e-11 5.4386526e-12 3.3553053e-11
8.0801255e-11 1.0329444e-11 6.589208e-11 6.3505204e-12 3.8347436e-11 4.391678e-12 1.8583498e-11 5.3703804e-12
5.1094675e-13 2.8926004e-12 2.6483193e-12 9.572822e-12 1.339547e-11 1.4794254e-11 1.3845161e-11 1.1029183e-11
1.35867e-10 1.7699832e-10 1.6629484e-10 1.897005e-10 1.3519401e-10 1.6433542e-10 8.775801e-11 1.2225565e-10
5.5120912e-12 4.3220896e-11 1.2181912e-11 5.935907e-11 2.1842757e-11 6.822869e-11 4.1343488e-11 6.683991e-11

exp_avg f4 [8, 1, 3, 2]
00000000: 18d5 8f35 9d65 ecb4 a156 f335 e346 8fb4
00000010: adde 0536 0999 c234 5772 c132 a964 2cb4
00000020: fb78 2c35 23f2 e3b4 4bc6 0935 f069 e5b3
00000030: a3aa e3b5 2bda a532 bd2c feb5 c361 57b5
00000040: 36b9 5bb4 f037 0fb4 e827 4b34 29f7 32b6
00000050: 24ff 1a32 4604 cbb5 f385 47b5 3536 51b6
00000060: 98aa f234 1da5 4bb4 23e3 aeb4 d40d ebb4
00000070: ce62 a9b5 f15d aeb2 6163 44b3 33c8 eab4
00000080: 9d0d 16b5 1043 1fb5 7623 9d34 84ee 55b5
00000090: 5fe3 7cb5 4c1a 81b6 c434 a435 891e 35b6
000000a0: bf8d 1736 5be6 ddb4 1c02 8734 449d b7b4
000000b0: c710 6b34 6ac1 9634 7314 b035 89d8 07b6
1.0716349e-06 -4.403236e-07 1.8130123e-06 -2.6687403e-07 1.9948159e-06 3.6246664e-07 2.2520153e-08 -1.6055368e-07
6.4251043e-07 -4.2458223e-07 5.132503e-07 -1.06829134e-07 -1.696248e-06 1.930774e-08 -1.8937495e-06 -8.0236003e-07
-2.0463344e-07 -1.3338263e-07 1.8920366e-07 -2.6667933e-06 9.021992e-09 -1.5125922e-06 -7.43282e-07 -3.117498e-06
4.5200136e-07 -1.8965916e-07 -3.257529e-07 -4.3782222e-07 -1.2620237e-06 -2.0298986e-08 -4.572519e-08 -4.373156e-07
-5.5899164e-07 -5.9329705e-07 2.926933e-07 -7.969577e-07 -9.4208184e-07 -3.847561e-06 1.2234309e-06 -2.6988876e-06
2.258326e-06 -4.1332063e-07 2.5147244e-07 -3.4200832e-07 2.1892184e-07 2.8080404e-07 1.3118973e-06 -2.0242608e-06

exp_avg_sq f4 [8, 1, 3, 2]
00000000: 4e26 fc2c 3fc4 f82c a51d bc2d 3b97 c72d
00000010: 7884 142e 0005 3a2e d48e bf2d 9eb0 f32b
00000020: bcb4 af2d a29f b12c 2d6c bd2d 03f9 742d
00000030: 8d89 6a2e 7d22 fe2d ddd8 922e 0e40 482d
00000040: ef52 8c2e e5e0 8f2c 946a 5f2d 9c74 052f
00000050: ff18 f42c 7115 d22e 99a7 b42c 0d55 942e
00000060: 537b 082f 7e6f a52c d08b f22e 6a86 712c
00000070: 824f 992e b1b6 6d2c 27bd bf2b 36a0 872d
00000080: 0563 f02c 97ca a62d 0e28 8d2d 3302 092d
00000090: 0875 092f b649 462f 468e 092f 07da 3a2f
000000a0: bf73 d22e 7769 182f 7a14 a42c 29a7 7c2e
000000b0: 0948 ea2c c516 7b2e 222f 9a2d 778e 3e2e
7.1665235e-12 7.0703716e-12 2.138629e-11 2.269084e-11 3.376896e-11 4.2295945e-11 2.1777614e-11 1.731521e-12
1.9975459e-11 5.0483654e-12 2.1534852e-11 1.3925086e-11 5.332761e-11 2.8891773e-11 6.677834e-11 1.1382907e-11
6.381195e-11 4.0892728e-12 1.26997475e-11 1.2137708e-10 6.9376722e-12 9.553503e-11 5.1345148e-12 6.745369e-11
1.2412942e-10 4.70196e-12 1.10297216e-10 3.4322775e-12 6.971758e-11 3.378114e-12 1.3623867e-12 1.5418871e-11
6.8322036e-12 1.8961983e-11 1.6047632e-11 7.788037e-12 1.2501655e-10 1.8034182e-10 1.2510623e-10 1.699406e-10
9.570255e-11 1.3861788e-10 4.6634337e-12 5.7446634e-11 6.6586775e-12 5.7091016e-11 1.7528704e-11 4.3327533e-11

exp_avg f4 [8]
00000000: 9264 99b6 7bf0 8b36 43ed 1035 11d8 7835
00000010: 1b94 6637 d3a8 9735 ef14 98b6 e010 ae36
-4.5714633e-06 4.1705184e-06 5.398944e-07 9.270162e-07 1.3743552e-05 1.1299511e-06 -4.53239e-06 5.1875686e-06

exp_avg_sq f4 [8]
00000000: ce87 a131 2914 0931 f60e 9131 08ea 9e32
00000010: e711 3632 6d92 7630 f702 9d31 9205 8e30
4.701156e-09 1.9947584e-09 4.2217563e-09 1.8500046e-08 1.0597865e-08 8.970236e-10 4.5696384e-09 1.0333443e-09

exp_avg f4 [4, 8, 3, 1]
00000000: 4770 cbb6 1a85 10b7 aded b036 922a 35b7
00000010: 42b4 1ab7 7706 2bb6 9634 0eb6 ed7d 6cb6
00000020: 3699 acb6 813e b834 6c00 cdb6 2842 aab6
00000030: c2a4 49b5 54a3 d434 b033 1235 1726 9f35
00000040: d2ed c8b5 4eee 2635 c038 95b6 ac37 80b7
00000050: 152c 0fb7 c301 a8b5 c5d4 4fb6 536d 0db6
00000060: 9c4f c1b5 82f7 13b6 4abf b735 6dbb 0c37
00000070: 2fbf 5836 5728 9434 8677 7236 7df1 9934
00000080: 3c87 e1b5 15a4 4336 bda5 aa36 f876 5136
00000090: de81 c134 2eb9 d7b4 3527 ccb4 4511 4bb6
000000a0: e59b 8035 5c02 7d35 33dc 4c36 45de 69b4
000000b0: 3845 dab5 2b8a 32b6 2883 f5b5 6428 1db5
000000c0: f7e5 2b36 856d a3b5 dc31 7c36 1ae4 0cb6
000000d0: 9a51 5b35 2505 c035 311c 36b6 431e a7b5
000000e0: fd95 16b5 2ea6 2db6 a9dc 09b6 159e 9e34
000000f0: 9b5b 2f35 d7b2 c834 0fa1 8e35 f316 ca35
00000100: e97f 1c36 8423 6db4 5e43 22b6 d401 bf35
00000110: 1090 11b6 460a 71b4 0e6e a035 b1f9 8935
00000120: be5f 57b5 b4e9 dcb6 def1 b436 dd65 2cb7
00000130: 889d 0eb6 053c f036 2470 c1b5 afdc 0a35
00000140: 6454 e234 05c8 c3b5 ec76 51b7 cc32 0bb6
00000150: 0f16 39b4 efd0 a2b5 93c2 2eb3 eff8 1c36
00000160: 6763 adb6 f449 fa35 7297 bbb6 04c6 01b7
00000170: aecc 0e36 0f61 aeb3 0c58 7cb5 9a3e 4936
-6.0629422e-06 -8.614059e-06 5.272878e-06 -1.0798352e-05 -9.221085e-06 -2.5484749e-06 -2.1190258e-06 -3.524004e-06
-5.1438356e-06 3.4318148e-07 -6.109525e-06 -5.0740964e-06 -7.511809e-07 3.9606914e-07 5.4464454e-07 1.1857509e-06
-1.4970376e-06 6.21866e-07 -4.4471526e-06 -1.5284713e-05 -8.533728e-06 -1.2517488e-06 -3.0969252e-06 -2.1074272e-06
-1.440279e-06 -2.2048775e-06 1.3690235e-06 8.388289e-06 3.2297792e-06 2.75965e-07 3.6130382e-06 2.8674177e-07
-1.6803165e-06 2.9152773e-06 5.0856893e-06 3.1212676e-06 3.6043542e-07 -4.0181607e-07 -3.8026488e-07 -3.025941e-06
9.582114e-07 9.425328e-07 3.0526542e-06 -2.1780677e-07 -1.6262411e-06 -2.6604491e-06 -1.8292094e-06 -5.8545834e-07
2.5614843e-06 -1.2176321e-06 3.7579948e-06 -2.0994398e-06 8.1702603e-07 1.4306612e-06 -2.7136523e-06 -1.2451277e-06
-5.6097616e-07 -2.5875738e-06 -2.0543032e-06 2.9544813e-07 6.5325884e-07 3.7383026e-07 1.0626699e-06 1.5056852e-06
2.3320265e-06 -2.2085266e-07 -2.4179094e-06 1.4231141e-06 -2.169054e-06 -2.2448612e-07 1.1952959e-06 1.0279965e-06
-8.0233065e-07 -6.5837175e-06 5.392575e-06 -1.0275716e-05 -2.1251344e-06 7.1595446e-06 -1.4412258e-06 5.1730143e-07
4.2157183e-07 -1.4586846e-06 -1.2485059e-05 -2.0742182e-06 -1.7237493e-07 -1.2130748e-06 -4.0689496e-08 2.339071e-06
-5.1673737e-06 1.8647975e-06 -5.590665e-06 -7.735103e-06 2.1278788e-06 -8.120161e-08 -9.400544e-07 2.9987773e-06
