server_report/ae_hexa/ae_hexa_log_4_2_32_batchnorm/autoencoder_20260102_115730.pth (torch, 219108 bytes, 75 tensors)

enc1.kernel0 f4 [4, 1, 5, 1]
0.09366508 0.04881795 0.9663484 0.52418566 0.82993686 -0.6692366 0.8037253 -0.07303345
-0.45831293 -0.8536874 -1.2789707 -0.059473738 0.47972372 0.52932906 -0.13776591 -0.66473174
-0.6290992 -0.6446145 0.5026468 0.66838443
00000000: 7ad3 bf3d 55f5 473d 9c62 773f 0831 063f
00000010: be76 543f 1753 2bbf f1c0 4d3f 9092 95bd
00000020: fea7 eabe 428b 5abf 50b5 a3bf bc9a 73bd
00000030: 599e f53e 1c82 073f 8212 0dbe dc2b 2abf
00000040: a50c 21bf 7505 25bf 76ad 003f 3e1b 2b3f

enc1.kernel1 f4 [4, 1, 4, 2]
-0.08169614 -0.17918946 0.567324 -0.13361517 0.94996405 0.5581389 0.29456753 0.75206
0.07778108 -0.22078767 0.60620815 0.57656956 -0.07400882 0.47833866 -1.0995433 -0.7355182
-0.2891307 -0.7654028 0.36668625 -0.39444566 1.0960281 -0.014293767 0.59505475 -0.7266323
-0.6059015 -0.080922276 -1.1478714 0.06356579 -0.6219018 0.7532945 0.34214854 0.7921078
00000000: 4e50 a7bd 717d 37be 253c 113f 6ad2 08be
00000010: d830 733f 31e2 0e3f 8ed1 963e 0187 403f
00000020: b04b 9f3d 2a16 62be 7530 1b3f 109a 133f
00000030: f091 97bd cee8 f43e d6bd 8cbf ec4a 3cbf
00000040: f008 94be 70f1 43bf 4dbe bb3e c8f4 c9be
00000050: a64a 8c3f 6730 6abc 8255 183f 9304 3abf
00000060: 5c1c 1bbf 94ba a5bd 73ed 92bf c82e 823d
00000070: f534 1fbf e9d7 403f 182e af3e 94c7 4a3f

enc1.kernel2 f4 [4, 1, 3, 2]
-0.08146539 -0.39549214 0.36463842 -0.28677338 0.54965365 0.42034975 0.6648736 0.37184665
0.15051346 0.6022476 -0.89047056 -0.44608912 0.7247577 -0.22420812 0.35313696 -0.5466152
-0.2520998 -0.8732287 -0.3264188 0.5361021 -1.0027403 0.9429072 -0.5206018 0.1691401
00000000: 54d7 a6bd f27d cabe e3b1 ba3e f6d3 92be
00000010: 1ab6 0c3f 1538 d73e 2835 2a3f af62 be3e
00000020: 3320 1a3e e62c 1a3f e1f5 63bf cb65 e4be
00000030: b889 393f d096 65be 5ece b43e f9ee 0bbf
00000040: 3a13 81be eb8b 5fbf 5d20 a7be fd3d 093f
00000050: cb59 80bf 5e62 713f 2946 05bf 1033 2d3e

enc1.bias_tensor f4 [4]
0.03456746 0.018529143 0.027207937 0.023289878
00000000: 9c96 0d3d 6eca 973c 2ee3 de3c 6aca be3c

bn1.weight f4 [4]
1.2138876 0.8886016 0.936205 1.066107
00000000: ab60 9b3f 657b 633f 22ab 6f3f 3276 883f

bn1.bias f4 [4]
0.22238028 -0.0538312 -0.060092133 -0.058631808
00000000: a8b7 633e 1b7e 5cbd 2b23 76bd e827 70bd

bn1.running_mean f4 [4]
0.35991403 -0.04412951 -0.048496515 -0.059445716
00000000: a746 b83e 25c1 34bd 48a4 46bd 5a7d 73bd

bn1.running_var f4 [4]
3.2227836 0.839725 1.0120877 1.8103967
00000000: 1642 4e40 38f8 563f 178c 813f 14bb e73f

enc2.kernel0 f4 [2, 4, 3, 1]
0.16411404 0.5698562 -0.10775812 0.22597918 0.17074755 0.081043005 0.47596374 0.49479917
0.33237138 0.0892796 0.67443186 0.51411897 0.7104027 0.4955859 0.07039148 0.1345791
0.37355396 0.18700768 0.09287733 0.25866094 0.3037665 0.21083052 0.119595736 0.0066461707
00000000: 830d 283e 19e2 113f 4ab0 dcbd 1667 673e
00000010: 72d8 2e3e e0f9 a53d 85b1 f33e 5156 fd3e
00000020: 952c aa3e 39d8 b63d 91a7 2c3f 4d9d 033f
00000030: f4dc 353f 6fbd fd3e 6929 903d 1bcf 093e
00000040: 7742 bf3e f17e 3f3e 7836 be3d 356f 843e
00000050: 4887 9b3e f5e3 573e 9cee f43d 1fc8 d93b

enc2.kernel1 f4 [2, 4, 2, 2]
-0.7016474 0.9110977 -0.06800172 -0.48638543 0.4241449 0.33592287 -0.029581293 0.5141343
0.33655435 0.2692037 -0.13605024 0.51548856 -0.0016174187 0.4659656 0.41460004 0.41459802
0.79652274 -0.22726013 0.26292107 -0.16877738 0.12875764 0.092214346 0.38600242 0.22675247
0.15618128 -0.047296703 0.45442167 0.065243766 0.21732277 0.09065601 0.06178491 -0.30719155
00000000: 2a9f 33bf b33d 693f 7c44 8bbd 8307 f9be
00000010: 8529 d93e 15fe ab3e 7854 f2bc 4e9e 033f
00000020: da50 ac3e 11d5 893e c150 0bbe 0ff7 033f
00000030: 91ff d3ba 0b93 ee3e 7546 d43e 3146 d43e
00000040: eae8 4b3f e1b6 68be 979d 863e fad3 2cbe
00000050: 0bd9 033e e0da bc3d 1ca2 c53e cd31 683e
00000060: fced 1f3e 30ba 41bd f5a9 e83e 869e 853d
00000070: dc89 5e3e dca9 b93d 2c12 7d3d 3648 9dbe

enc2.bias_tensor f4 [2]
0.05945644 0.025343206
00000000: 9988 733d 8e9c cf3c

bn2.weight f4 [2]
0.9220015 1.1584402
00000000: 4a08 6c3f c547 943f

bn2.bias f4 [2]
0.2742148 0.28216156
00000000: e265 8c3e 7b77 903e

bn2.running_mean f4 [2]
0.58531183 0.6665127
00000000: ffd6 153f 94a0 2a3f

bn2.running_var f4 [2]
4.5602427 8.101763
00000000: 82ed 9140 d2a0 0141

fc_enc.weight f4 [32, 234]
-0.23151778 -0.10981852 -0.20898876 -0.041889135 0.33299017 0.08425832 -0.052679237 -0.024805782
-0.0039436617 -0.18307874 -0.25420606 -0.064775944 -0.34963927 -0.03377673 -0.11915669 0.13046095
0.14060457 -0.3201318 0.06454778 -0.19012782 -0.1405135 -0.14031751 -0.31957301 -0.035234194
0.07377707 -0.20608574 -0.0705654 -0.07405028 -0.0032715695 0.21855648 -0.024747357 0.089018255
-0.1285532 0.008750427 0.010570575 -0.28977633 0.20793952 -0.49646544 -0.1537949 0.14518617
-0.037267018 0.035258606 0.12355771 -0.22966912 -0.14077795 -0.033066083 -0.0376674 -0.13472569
-0.038531862 0.06605281 -0.39104214 0.18127568 0.13001552 -0.024885416 0.18088928 -0.027678957
0.19227745 0.16251 -0.18829934 -0.20948637 -0.19565713 -0.033896256 0.02997467 -0.06329
0.17456143 0.020487608 0.10942932 -0.064681284 0.14914998 0.024322325 -0.17757353 -0.029893287
-0.07574927 0.06445424 -0.27149457 -0.25935715 0.1274708 -0.29587564 0.06514472 -0.13729239
0.1370981 0.14717783 -0.02588258 0.16687107 -0.1482247 -0.18967046 -0.010807663 0.09428849
0.026338834 0.06607092 -0.27403048 0.051080994 0.25646952 -0.06497463 0.054484155 -0.12340096
-0.022631178 0.097322784 0.11151915 -0.06068136 -0.08132755 -0.14138007 -0.2877965 -0.19394411
0.046713974 -0.21456517 -0.04840573 0.2471207 0.078288905 0.12340995 -0.09729129 -0.3111324
0.27602383 -0.28622368 -0.28089967 -0.18873647 -0.14823039 0.30812514 0.09358027 0.21339746
0.050567277 -0.7127311 -0.041620705 0.48289618 0.14689372 -0.10653452 0.11013462 0.16996503
0.13059154 0.0530887 0.3667025 0.08623505 -0.25240615 0.109242566 0.0926147 0.004688035
-0.29596582 -0.31745043 0.28477895 -0.18625697 -0.18886238 0.12100304 0.0677923 0.29760322
0.3771701 -0.10596386 0.046353072 0.1424085 -0.05045008 0.16650027 0.075812414 -0.039995585
0.035139 -0.07195576 0.056877118 -0.036553644 0.07747497 0.1246507 -0.011821746 0.18079488
0.028306805 -0.15345578 -0.346137 -0.2635172 0.16798112 -0.2021979 0.20192909 -0.05485485
-0.3377232 0.43139467 0.25046125 -0.17827639 -0.21646975 0.09304127 0.25117895 0.09334878
0.067258954 -0.27470574 -0.093070135 0.2022893 0.041469052 0.153595 0.5616671 0.026664484
0.16076465 0.19912936 -0.11275399 -0.030112537 0.07732932 -0.015559819 0.05313705 0.061788652
-0.12462981 0.025362095 -0.00917218 0.35356796 0.03531894 0.068922505 0.29206714 0.24813253
-0.044563916 0.0155524425 -0.30636254 -0.18737611 -0.09881933 0.057200775 0.3493832 0.22431189
0.26594517 0.17450462 -0.24660547 0.049512044 0.028580775 -0.03486624 0.018138563 -0.053169448
-0.016619496 0.28255332 0.13620025 -0.2561297 -0.027097834 0.3122942 0.06865902 -0.33975682
-0.13783371 -0.0037576635 0.30469424 -0.22832263 0.28676623 -0.062408853 0.07723421 -0.15377823
0.02500038 0.0118163945 -1.0692797 -0.400117 -0.468216 0.033690225 -0.55770487 0.045750435
-0.23731448 -0.21526119 0.09242042 -0.20111752 -0.37693176 -0.45134252 -1.207234 -0.34272248
0.0063726422 0.37548378 -0.3309233 -0.15390454 -0.20582348 -0.07622396 -0.11826947 0.046507683
00000000: ff12 6dbe 88e8 e0bd 2601 56be f193 2bbd
00000010: b07d aa3e a08f ac3d 2fc6 57bd 7f35 cbbc
00000020: d539 81bb fe78 3bbe 4c27 82be 40a9 84bd
00000030: eb03 b3be 7859 0abd 6c08 f4bd 8e97 053e
00000040: a5fa 0f3e 51e8 a3be a031 843d deb0 42be
00000050: c5e2 0fbe 65af 0fbe 139f a3be bb51 10bd
00000060: 6f18 973d 2408 53be 9884 90bd aca7 97bd
00000070: d467 56bb 45cd 5f3e f8ba cabc 344f b63d
00000080: 73a3 03be f35d 0f3c 3430 2d3c 905d 94be
00000090: 19ee 543e b830 febe 697c 1dbe afab 143e
000000a0: 4da5 18bd 546b 103d d30b fd3d 622e 6bbe
000000b0: 1828 10be 4d70 07bd 2249 1abd 88f5 09be
000000c0: 96d3 1dbd b246 873d ad36 c8be 55a0 393e
000000d0: ca22 053e 80dc cbbc 0a3b 393e fbbe e2bc
000000e0: 61e4 443e 0569 263e 8bd1 40be 9883 56be
000000f0: 585a 48be cdd6 0abd 708d f53c 309e 81bd
00000100: 3bc0 323e a1d5 a73c 7b1c e03d 9f77 84bd
00000110: c6ba 183e 9d3f c73c d6d5 35be c4e2 f4bc
00000120: 6f22 9bbd 9600 843d 5601 8bbe 76ca 84be
00000130: b587 023e 037d 97be 986a 853d 6096 0cbe
00000140: 7263 0c3e c9b5 163e b407 d4bc 40e0 2a3e
00000150: 37c8 17be f938 42be a012 31bc 531a c13d
00000160: 8ac4 d73c 3150 873d b94d 8cbe 4e3a 513d
00000170: f94f 833e 6b11 85bd c72a 5f3d a4b9 fcbd
00000180: 0565 b9bc 2b51 c73d 2764 e43d 058d 78bd
00000190: 0f8f a6bd f0c5 10be 105a 93be 4999 46be
000001a0: 2757 3f3d f9b6 5bbe 1645 46bd 350d 7d3e
000001b0: ef55 a03d 5bbe fc3d a840 c7bd bf4c 9fbe
000001c0: ff52 8d3e e98b 92be 15d2 8fbe 2244 41be
000001d0: b5c9 17be 94c2 9d3e 03a7 bf3d dd84 5a3e
000001e0: a21f 4f3d 8c75 36bf 797a 2abd 2b3e f73e
000001f0: 4f6b 163e c52e dabd 428e e13d 500b 2e3e
00000200: cab9 053e 8973 593d 6ec0 bb3e 009c b03d
00000210: 613b 81be 91ba df3d c7ac bd3d 179e 993b
00000220: d588 97be dd88 a2be 8cce 913e 26ba 3ebe
00000230: 2465 41be 71d0 f73d b0d6 8a3d 735f 983e
00000240: 701c c13e 9503 d9bd b8dc 3d3d 89d3 113e
00000250: bea4 4ebd 0c7f 2a3e 8a43 9b3d 69d2 23bd
00000260: e9ed 0f3d 8b5d 93bd fbf7 683d 46b9 15bd
00000270: 32ab 9e3d de48 ff3d ffaf 41bc 4b22 393e
00000280: ace3 e73c 8323 1dbe de38 b1be baeb 86be
00000290: 3e03 2c3e f70c 4fbe 80c6 4e3e 7baf 60bd
000002a0: 0eea acbe c3df dc3e 753c 803e 168e 36be
000002b0: 3faa 5dbe 6c8c be3d 879a 803e a52d bf3d
000002c0: 10bf 893d 3ba6 8cbe 8e9b bebd ed24 4f3e
000002d0: 74db 293d 0248 1d3e 6ac9 0f3f 7a6f da3c
000002e0: 7d9f 243e 91e8 4b3e 90eb e6bd 91ae f6bc
000002f0: d65e 9e3d 9cee 7ebc 3ca6 593d 1916 7d3d
00000300: ea3d ffbd 2bc4 cf3c e946 16bc dc06 b53e
00000310: 98aa 103d 3e27 8d3d d389 953e 7416 7e3e
00000320: a788 36bd accf 7e3c 8ddb 9cbe 86df 3fbe
00000330: ca61 cabd 5c4b 6a3d 5be2 b23e 04b2 653e
00000340: f729 883e 57b1 323e 2586 7cbe 24cd 4a3d
00000350: 3b22 ea3c e7cf 0ebd 5397 943c 35c8 59bd
00000360: 9c25 88bc d4aa 903e 1478 0b3e 6f23 83be
00000370: 47fc ddbc 06e5 9f3e 1a9d 8c3d 9bf4 adbe
00000380: 4824 0dbe 2243 76bb e200 9c3e 68cd 69be
00000390: 06d3 923e 6da0 7fbd f82c 9e3d 0a78 1dbe
000003a0: 99cd cc3c 8d99 413c 28de 88bf 23dc ccbe
000003b0: 02ba efbe c3fe 093d bfc5 0ebf cf64 3b3d
000003c0: 9102 73be 6e6d 5cbe eb46 bd3d c0f1 4dbe
000003d0: 33fd c0be 5e16 e7be a586 9abf 5279 afbe
000003e0: 99d1 d03b 693f c03e c76e a9be 2799 1dbe
000003f0: 64c3 52be 4f1b 9cbd 4437 f2bd d77e 3e3d

fc_enc.bias f4 [32]
0.08116045 -0.013631737 -0.08144561 0.010605687 0.38780484 -0.28215414 -0.10370497 0.15740082
0.21344544 0.07811911 0.06675599 0.041449927 -0.040912606 -0.23019065 0.36110234 0.05587338
0.24712715 -0.1599926 0.04721456 0.42194912 0.3853277 -0.3440588 0.015899062 0.014618626
0.023177564 0.011667001 -0.008418735 -0.25330868 -0.013915879 0.15809384 0.17233758 0.2755374
00000000: 7337 a63d a657 5fbc f5cc a6bd 7ac3 2d3c
00000010: 5b8e c63e 8276 90be 4563 d4bd ae2d 213e
00000020: 7191 5a3e e9fc 9f3d 5db7 883d 66c7 293d
00000030: fa93 27bd 19b7 6bbe 68e2 b83e 7cdb 643d
00000040: e60e 7d3e 1ad5 23be 0e64 413d b709 d83e
00000050: ac49 c53e 7a28 b0be c03e 823c f682 6f3c
00000060: e0de bd3c f326 3f3c bcee 09bc adb1 81be
00000070: 6dff 63bc 5ae3 213e 4379 303e 3d13 8d3e

fc_dec.weight f4 [234, 32]
-0.009247787 0.029507736 0.024049731 -0.0073753227 -0.0047097392 -0.013192219 -0.017795675 -0.02023723
0.007090589 0.007270039 0.008976082 0.010990928 0.014274692 0.009744676 0.016376056 0.022634855
-0.0040097255 -0.01486922 0.0041191736 -0.031862896 -0.006437696 0.0031791304 0.023761347 -0.017546646
0.0056922366 -0.001662571 -0.0073817503 0.01276016 0.010477474 0.026505226 -0.008668259 -0.0123261195
0.1753839 0.079841636 -0.16231796 0.16069351 -0.23701507 -0.15929331 -0.22364351 -0.051706307
0.1081964 0.32510522 0.15499419 0.024041882 0.07148055 0.16720034 0.024641044 -0.033387996
0.015145522 -0.04792119 -0.23514283 -0.03414147 -0.027588917 -0.16485023 0.042783022 -0.09142554
0.074539 0.17669527 -0.08257761 0.012877178 0.03469982 -0.10896287 -0.008695403 0.21048109
-0.014363546 0.25766596 0.08896309 -0.31818327 0.23599438 0.17091851 0.23405255 -0.16900003
-0.3133466 -0.030251252 -0.090583235 -0.02432754 0.0333108 0.098338924 0.06085766 0.3539606
-0.07657454 -0.024474721 -0.18582512 0.18302833 0.255711 -0.11252475 0.14210476 0.30093822
-0.35379028 0.058088664 -0.1619976 -0.2746292 -0.14832278 0.24077547 -0.043288212 -0.25657272
-0.34564552 -0.27732813 0.22977966 0.20449728 0.45229492 0.26579872 0.16794507 0.025234396
0.0018992355 -0.11089722 -0.09637254 -0.17550878 0.37074214 -0.03325548 0.020075746 0.0987911
0.13765076 -0.07878325 -0.04875061 -0.12159769 -0.20302354 -0.0940705 0.07079965 0.23318468
-0.48359415 -0.0119246 -0.12791018 -0.15746768 -0.19580285 -0.2318797 -0.3759253 -0.25268534
0.08294816 -0.23054413 0.10174793 0.2396146 0.05186693 -0.02557234 -0.03412816 0.14796847
-0.49053568 0.56577915 -0.13698338 0.19117376 0.4611266 0.24805291 -0.18697014 -0.051875338
-0.3013502 -0.31736377 -0.039302804 -0.17104612 -0.18050952 0.0028205072 -0.005102572 0.06476066
-0.23295178 -0.2590738 -0.11620189 0.006507943 -0.15727688 0.1354278 -0.26300505 0.2896814
0.29392275 -0.007852043 0.18003689 0.07745605 -0.09465025 0.24035278 0.09541032 0.052770644
-0.18570675 0.25584397 0.40475196 0.47602215 0.2144539 0.42100668 0.062963165 0.047749568
0.10097448 0.07736797 -0.029406345 0.39136043 -0.034876063 0.06525722 -0.27287737 0.26360923
-0.04628846 -0.53951585 -0.05415279 -0.064830266 -0.29994372 0.0022079588 0.21259692 -0.16872121
0.16654764 -0.32611042 0.25212732 0.30468252 -0.028071642 -0.39110243 0.37992296 -0.0256623
0.06550549 -0.015020137 0.33301297 0.06572583 0.20152217 -0.16188887 0.35670313 0.33910444
0.0777046 0.099158145 -0.4793271 0.060426526 0.07446303 0.19168922 -0.0977854 -0.093121596
0.067981325 0.0924119 0.0733794 -0.0849168 -0.40575337 -0.52727836 0.1961555 -0.17899874
0.019542804 -0.4514798 -0.0388393 -0.097601116 0.2950637 -0.3038393 0.19092876 -0.094314374
0.050631534 0.08435864 -0.08629657 -0.05697542 0.2517358 0.14358577 -0.0066846623 0.25210032
-0.36641908 0.31166968 -0.10463498 0.3036973 -0.09148672 0.0020858496 0.12918656 0.31753075
0.40047643 0.41533545 -0.103236035 0.26296726 -0.045441214 -0.3548665 -0.21112691 0.19027507
00000000: 0884 17bc 35ba f13c f103 c53c b1ac f1bb
00000010: 2854 9abb 2d24 58bc 3cc8 91bc 8cc8 a5bc
00000020: 2c58 e83b 8239 ee3b 6b10 133c 4b13 343c
00000030: 66e0 693c 22a8 1f3c 1427 863c bb6c b93c
00000040: 0464 83bb 079e 73bc 22fa 863b ab82 02bd
00000050: 4ff3 d2bb f558 503b 28a7 c23c fcbd 8fbc
00000060: f185 ba3b a0ea d9ba 9ce2 f1bb fd0f 513c
00000070: b6a9 2b3c 7d21 d93c 5005 0ebc 7ef3 49bc
00000080: d697 333e 0384 a33d ae36 26be d78c 243e
00000090: 14b4 72be c91d 23be ce02 65be fec9 53bd
000000a0: 1396 dd3d 3174 a63e ccb6 1e3e 7bf3 c43c
000000b0: 6564 923d 9136 2b3e 04dc c93c dac1 08bd
000000c0: ec24 783c 0249 44bd 48c9 70be edd7 0bbd
000000d0: 2702 e2bc 80ce 28be 403d 2f3d 503d bbbd
000000e0: e7a7 983d 9bef 343e 731e a9bd cdfa 523c
000000f0: 6621 0e3d ed27 dfbd 2a77 0ebc 5b88 573e
00000100: 1455 6bbc cbec 833e 4832 b63d ebe8 a2be
00000110: 83a8 713e 4305 2f3e 79ab 6f3e 580e 2dbe
00000120: f76e a0be 79d1 f7bc b483 b9bd 8d4a c7bc
00000130: e870 083d eb65 c93d e245 793d 533a b53e
00000140: 1dd3 9cbd 367f c8bc f148 3ebe c76b 3b3e
00000150: 8dec 823e 6073 e6bd e983 113e 9314 9a3e
00000160: 0024 b5be 61ee 6d3d b3e2 25be 339c 8cbe
00000170: ede1 17be d88d 763e fb4e 31bd 805d 83be
00000180: 73f8 b0be f4fd 8dbe 5c4b 6b3e bc67 513e
00000190: 3393 e73e c516 883e cbf9 2b3e 5db8 ce3c
000001a0: c5ef f83a 151e e3bd f75e c5bd 93b8 33be
000001b0: ead1 bd3e e636 08bd e475 a43c fd52 ca3d
000001c0: 52f4 0c3e 1d59 a1bd b8ae 47bd 3608 f9bd
000001d0: 67e5 4fbe 09a8 c0bd 68ff 903d f7c7 6e3e
000001e0: a799 f7be 665f 43bc e3fa 02be 353f 21be
000001f0: 8b80 48be df71 6dbe 4879 c0be f95f 81be
00000200: bae0 a93d c313 6cbe 3861 d03d 885d 753e
00000210: 6b72 543d 157d d1bc f8c9 0bbd 0c85 173e
00000220: 7e27 fbbe e7d6 103f 5f45 0cbe 0ec3 433e
00000230: c918 ec3e 9501 7e3e 1a75 3fbe 3c7b 54bd
00000240: 934a 9abe 817d a2be fafb 20bd b726 2fbe
00000250: 7dd7 38be 42d8 383b 7a33 a7bb 3da1 843d
00000260: e98a 6ebe 52a5 84be 42fb edbd 9540 d53b
00000270: 310d 21be 96ad 0a3e 99a8 86be 1f51 943e
00000280: 0b7d 963e dba5 00bc 975b 383e 47a1 9e3d
00000290: fed7 c1bd 0a1f 763e 7c66 c33d 0826 583d
000002a0: e929 3ebe fbfd 823e a63b cf3e 2db9 f33e
000002b0: ce99 5b3e 308e d73e d5f2 803d 0d95 433d
000002c0: b5cb ce3d 1973 9e3d 93e5 f0bc 6560 c83e
000002d0: 34da 0ebd 94a5 853d 95b6 8bbe caf7 863e
000002e0: f898 3dbd b61d 0abf 51cf 5dbd bbc5 84bd
000002f0: 3992 99be 67b3 103b 02b3 593e 41c5 2cbe
00000300: 778b 2a3e f2f7 a6be d516 813e 59ff 9b3e
00000310: 80f6 e5bc 943e c8be 4385 c23e be39 d2bc
00000320: be27 863d 0517 76bc ad80 aa3e 449b 863d
00000330: d45b 4e3e 32c6 25be cba1 b63e 199f ad3e
00000340: 9723 9f3d 6d13 cb3d 5d6a f5be ce81 773d
00000350: 1380 983d 2e4a 443e b643 c8bd 89b6 bebd
00000360: cb39 8b3d 7342 bd3d f047 963d dce8 adbd
00000370: e8be cfbe b7fb 06bf fddc 483e 724b 37be
00000380: 3b18 a03c 5c28 e7be f515 1fbd 18e3 c7bd
00000390: 9712 973e d390 9bbe d482 433e e527 c1bd
000003a0: 0363 4f3d 39c4 ac3d 42bc b0bd 0f5f 69bd
000003b0: 84e3 803e 2608 133e 030b dbbb 4b13 813e
000003c0: 489b bbbe 2b93 9f3e dd4a d6bd 367e 9b3e
000003d0: 645d bbbd c0b2 083b 7b49 043e 6493 a23e
000003e0: 3f0b cd3e d9a6 d43e 6a6d d3bd a5a3 863e
000003f0: 9120 3abd 10b1 b5be a731 58be 78d7 423e

fc_dec.bias f4 [234]
-0.10186008 -0.3090349 -0.40622762 -0.18257573 0.27322766 -0.5381262 -0.5380826 -0.33158436
-0.209123 -0.26336625 -0.50195265 -0.25755554 -0.1350312 -0.15224554 -0.33409426 0.053275105
-0.054384504 -0.042484287 0.07462448 -0.08429274 -0.113515995 -0.2825749 -0.06432441 -0.4705048
-0.24672413 -0.5569116 -0.2479729 -0.011581215 -0.117105596 0.16902013 0.13000847 -0.102711216
-0.18648711 -0.22311243 0.11252847 -0.16930164 -0.24061494 -0.06962404 -0.8158007 -0.4777388
0.017113065 0.023625648 0.16932866 0.14131342 -0.14278185 0.09942704 -0.072928704 -0.4444642
0.028962871 0.007847348 -0.09696077 -0.5388549 -0.009348888 -0.16585638 -0.0016159026 -0.30345035
0.1721925 0.26248497 -0.077055305 0.1542475 -0.05123512 -0.13465351 -0.27948973 -0.010092376
-0.5489013 -0.1270034 0.27401403 0.05040896 0.009704097 -0.17690535 0.03678069 -0.297924
-0.30616486 0.070103414 0.046514876 0.20667319 0.11451331 -0.7118738 -0.43212596 0.009190805
-0.30447552 -0.07407798 -0.118723765 -0.004668567 0.07198385 -0.11755624 -0.28926829 0.011161916
-0.17742309 -0.26007706 -0.79753876 -0.003879282 -0.30283538 -0.24317288 -0.08411363 -0.035791676
0.09379509 -0.06608241 0.05025475 -0.08636642 0.037687372 -0.3481114 -0.09609163 -0.7547683
-0.07204111 -0.70216644 -0.3513809 -0.11806157 -0.31789303 -0.15405674 -0.19159767 -0.21190909
-0.17204122 -0.20365036 -0.451776 -0.15206838 -0.79779184 0.2594648 0.11959975 -0.5057664
-0.84480786 -0.30327085 -0.29220393 0.06665106 -0.24274616 -0.20589134 -0.33557695 -0.6786105
0.42153785 0.35603997 -0.18163767 0.18837945 -0.4843184 -0.14083023 -0.47943428 -0.35700363
-0.5161207 0.053652555 -0.549201 -0.027703272 -0.46118706 0.36812198 0.044507485 0.06087307
-0.7580956 -0.49097252 -0.32398495 -0.68287873 -0.048733883 -0.26985154 -0.4051758 -0.17259514
-0.036121767 -0.41436377 -0.22673218 0.5665592 0.050881084 -0.39063367 -0.70032704 -0.35581815
-0.347167 -0.36272016 -0.25338954 -0.2887338 -0.35993043 -0.5212905 -0.35003722 -0.43374768
-0.030214144 -0.47928664 -0.1376392 -0.4625898 -0.24414274 -0.51083684 -0.4673267 -0.37536436
-0.31972462 -0.3133379 -0.3311961 -0.24614806 -0.45938608 0.39447647 -0.0947619 0.26010773
-0.57464623 -0.45098814 -0.22333989 -0.18893293 -0.2273138 -0.024858989 -0.27482525 -0.37571976
-0.28111115 -0.14049752 0.38521785 -0.33089632 -0.4512396 -0.5333528 -0.0009815824 -0.39549255
-0.3055968 -0.27912542 -0.13074274 -0.30452994 -0.006656578 -0.49185354 0.30793437 0.08276002
0.24720146 -0.1561835 -0.026487486 -0.25986013 0.015483947 -0.045281995 -0.10495673 -0.20702147
-0.16064154 -0.2886079 0.1893985 0.64040697 0.17123635 0.045851327 0.039586257 -0.36800796
0.5709241 -0.7982613 0.078918725 -0.26213825 0.21494068 -0.3014157 -0.39014432 0.09123829
0.12373991 0.28250167
00000000: 059c d0bd d339 9ebe 11fd cfbe 22f5 3abe
00000010: 7fe4 8b3e a3c2 09bf c8bf 09bf 6dc5 a9be
00000020: 5724 56be f1d7 86be f87f 00bf 52de 83be
00000030: 9e45 0abe 41e6 1bbe 670e abbe ff36 5a3d
00000040: 49c2 5ebd 0104 2ebd b8d4 983d aca1 acbd
00000050: 137b e8bd a8ad 90be 84bc 83bd 01e6 f0be
00000060: 40a5 7cbe c291 0ebf 9cec 7dbe 23bf 3dbc
00000070: 0fd5 efbd 9d13 2d3e f120 053e 425a d2bd
00000080: 7af6 3ebe 9677 64be 5475 e63d 695d 2dbe
00000090: c363 76be 0c97 8ebd 51d8 50bf 2e9a f4be
000000a0: b330 8c3c 938a c13c 7e64 2d3e 77b4 103e
000000b0: 6835 12be 67a0 cb3d a55b 95bd d090 e3be
000000c0: 8b43 ed3c 2a92 003c 5e93 c6bd 65f2 09bf
000000d0: 142c 19bc 41d6 29be b2cc d3ba d85d 9bbe
000000e0: 3b53 303e 6e64 863e 2ccf 9dbd 0ef3 1d3e
000000f0: ebdb 51bd 9ce2 09be 4719 8fbe 7e5a 25bc
00000100: cc84 0cbf 2e0d 02be 914b 8c3e a079 4e3d
00000110: effd 1e3c ad26 35be 59a7 163d 7f89 98be
00000120: a4c1 9cbe 6192 8f3d 6286 3e3d 23a2 533e
00000130: f485 ea3d 5d3d 36bf 9d3f ddbe 0895 163c
00000140: 37e4 9bbe 32b6 97bd 7225 f3bd c7fa 98bb
00000150: 456c 933d 53c1 f0bd f91a 94be 78e0 363c
00000160: 66ae 35be d228 85be 802b 4cbf 8d3b 7ebb
00000170: 3d0d 9bbe 5002 79be c443 acbd 4b9a 12bd
00000180: a417 c03d 3756 87bd edd7 4d3d e1e0 b0bd
00000190: 135e 1a3d a83b b2be b0cb c4bd 7f38 41bf
000001a0: 4a8a 93bd 2ec1 33bf 33e8 b3be 44ca f1bd
000001b0: e0c2 a2be 0dc1 1dbe 2e32 44be b2fe 58be
000001c0: 932b 30be b889 50be 2f4f e7be d0b7 1bbe
000001d0: 163c 4cbf 92d8 843e b7f0 f43d e879 01bf
000001e0: 5445 58bf 5146 9bbe c19b 95be 5a80 883d
000001f0: 7392 78be 2ed5 52be bed0 abbe 6bb9 2dbf
00000200: cfd3 d73e df4a b63e 3aff 39be 8be6 403e
00000210: 95f8 f7be cd35 10be 6978 f5be 2ec9 b6be
00000220: 7c20 04bf c8c2 5b3d 7098 0cbf f9f1 e2bc
00000230: b620 ecbe 7c7a bc3e 7b4d 363d 0a56 793d
00000240: 8e12 42bf c060 fbbe 5be1 a5be 24d1 2ebf
00000250: 2e9d 47bd fb29 8abe 3473 cfbe c8bc 30be
00000260: 6bf4 13bd 7d27 d4be 7b2c 68be 060a 113f
00000270: af68 503d 2301 c8be a248 33bf cc2d b6be
00000280: dfbf b1be 75b6 b9be 46bc 81be ebd4 93be
00000290: cd48 b8be 4b73 05bf 1438 b3be 2d14 debe
000002a0: a783 f7bc 0f65 f5be 4af1 0cbe 92d8 ecbe
000002b0: 8e00 7abe 34c6 02bf 7245 efbe c22f c0be
000002c0: f2b2 a3be d36d a0be 8992 a9be 3d0e 7cbe
000002d0: a734 ebbe d2f8 c93e 8712 c2bd d72c 853e
000002e0: 041c 13bf ebe7 e6be 36b3 64be a277 41be
000002f0: f3c4 68be 14a5 cbbc e5b5 8cbe 575e c0be
00000300: cded 8fbe 95de 0fbe 463b c53e 3e6b a9be
00000310: e008 e7be cf89 08bf 71a8 80ba 007e cabe
00000320: 2f77 9cbe 87e9 8ebe 6de1 05be 59eb 9bbe
00000330: 6c1f dabb 3ad4 fbbe 93a9 9d3e 167e a93d
00000340: 6122 7d3e 91ee 1fbe 49fc d8bc 630c 85be
00000350: 61b0 7d3c 9d79 39bd 8ef3 d6bd 70fd 53be
00000360: 377f 24be 6ac4 93be aef1 413e b6f1 233f
00000370: 9558 2f3e 9ace 3b3d 3325 223d 8a6b bcbe
00000380: 1528 123f da5a 4cbf 24a0 a13d fc36 86be
00000390: 6919 5c3e 2953 9abe ffc0 c7be 24db ba3d
000003a0: 5a6b fd3d 0fa4 903e

dec1.kernel0 f4 [4, 2, 3, 1]
-0.08845238 0.26223552 0.017851034 -0.7825869 -0.66280437 -0.06872612 -0.01287508 0.14669716
0.64342767 0.26104498 -1.1850634 -0.13089845 0.8747367 0.65399206 -0.040553126 -0.6444343
1.1433827 -0.7112018 0.6700901 0.89085966 0.9822067 -0.5136717 -0.9939917 0.055308197
00000000: 8526 b5bd bc43 863e 553c 923c 9d57 48bf
00000010: 8cad 29bf 48c0 8cbd 00f2 52bc c837 163e
00000020: adb7 243f b0a7 853e 28b0 97bf 3e0a 06be
00000030: bfee 5f3f 066c 273f 091b 26bd a5f9 24bf
00000040: 5d5a 923f 5211 36bf 068b 2b3f 610f 643f
00000050: e671 7b3f fd7f 03bf 3d76 7ebf d98a 623d

dec1.kernel1 f4 [4, 2, 2, 2]
0.24415554 -0.28030005 0.5219693 0.044964798 0.20773467 -0.30739138 -0.017634926 0.34963092
-0.049129814 -0.1630532 0.07119623 0.18606025 0.414661 -1.1222919 0.13271852 0.22381818
-0.14923815 0.621662 -0.94874585 0.17792252 -0.43548986 0.0117625585 -0.4563885 -0.29071873
0.8123217 0.3431975 0.81745666 0.7492317 0.63265735 -0.6526654 -0.11957508 0.8295855
00000000: e903 7a3e 7d83 8fbe c89f 053f 022d 383d
00000010: 66b8 543e 6762 9dbe 1f77 90bc d302 b33e
00000020: 583c 49bd 6bf7 26be 54cf 913d 9486 3e3e
00000030: 724e d43e 43a7 8fbf 5de7 073e 9830 653e
00000040: e3d1 18be 3e25 1f3f 02e1 72bf 5231 363e
00000050: 87f8 debe bfb7 403c c1ab e9be 16d9 94be
00000060: 51f4 4f3f 95b7 af3e d744 513f a6cd 3f3f
00000070: d5f5 213f 1415 27bf c8e3 f4bd b75f 543f

dec1.bias_tensor f4 [4]
0.024511151 0.018662369 0.009802591 0.05534836
00000000: 9ccb c83c d3e1 983c 0c9b 203c f6b4 623d

bn3.weight f4 [4]
0.6436909 0.51751435 0.5063384 0.72286224
00000000: edc8 243f d27b 043f 659f 013f 800d 393f

bn3.bias f4 [4]
-0.78933454 -0.6366737 -0.62236035 -0.57201314
00000000: d411 4abf 0cfd 22bf 0253 1fbf 746f 12bf

bn3.running_mean f4 [4]
-4.539748 -5.7584615 -7.1553054 -14.478487
00000000: 9e45 91c0 5145 b8c0 43f8 e4c0 e2a7 67c1

bn3.running_var f4 [4]
39.37908 59.754337 99.68345 398.27167
00000000: 2e84 1d42 7104 6f42 ed5d c742 c622 c743

dec2.kernel0 f4 [1, 4, 5, 1]
-0.4346019 0.17152004 0.07593112 0.27874747 -0.37874988 0.08761931 0.32719305 -0.07567208
-0.40289026 0.19130538 0.03558597 -0.048222184 -0.1048413 -0.29731983 -0.19389495 -0.081139065
0.063401416 0.3594666 0.2013428 -0.028932953
00000000: 2484 debe f3a2 2f3e c681 9b3d fdb7 8e3e
00000010: 81eb c1be c171 b33d d985 a73e f7f9 9abd
00000020: a247 cebe 8fe5 433e 98c2 113d a084 45bd
00000030: 09b7 d6bd 4e3a 98be 668c 46be 3d2c a6bd
00000040: 9ad8 813d 020c b83e cf2c 4e3e cd04 edbc

dec2.kernel1 f4 [1, 4, 4, 2]
-0.38186368 -0.11279114 -0.039168414 0.425452 -0.30627406 0.5864193 -0.081654966 -0.032861043
0.52052796 0.003564663 0.33315518 -0.054057643 -0.3024962 -0.6742705 -0.29209745 0.021372527
0.03178539 0.05845729 -0.19568141 0.072303206 -0.46953252 -0.22636904 -0.13898702 -0.13777356
0.110950254 -0.0073732696 0.13710366 0.026774468 0.37606543 0.17625113 0.15584005 0.06256343
00000000: a383 c3be 0bff e6bd 0f6f 20bd d8d4 d93e
00000010: f4cf 9cbe 931f 163f b83a a7bd 4d99 06bd
00000020: 5241 053f 1f9d 693b 5193 aa3e 8c6b 5dbd
00000030: c8e0 9abe fe9c 2cbf cc8d 95be 7015 af3c
00000040: 6631 023d e970 6f3d b560 48be b413 943d
00000050: 9166 f0be 49cd 67be 9d52 0ebe 8314 0dbe
00000060: e339 e33d 789b f1bb e764 0c3e 2156 db3c
00000070: a68b c03e 2d7b 343e 8994 1f3e 4121 803d

dec2.kernel2 f4 [1, 4, 3, 2]
-0.27976337 0.025457503 -0.12843563 0.43622813 -0.383401 -0.08811879 0.26026645 -0.26191276
0.1470946 -0.39081395 -0.21540324 -0.13617979 0.0073456503 0.023935512 -0.15794808 0.002988141
-0.09330958 0.0069122063 0.027851 -0.019457722 0.3422409 0.03540914 0.2815887 0.07330567
00000000: 253d 8fbe 418c d03c a184 03be 4b59 df3e
00000010: 234d c4be a077 b4bd a541 853e 6e19 86be
00000020: f89f 163e c418 c8be ab92 5cbe b772 0bbe
00000030: c8b3 f03b 6814 c43c 24bd 21be b0d4 433b
00000040: 1819 bfbd ca7f e23b c827 e43c cd65 9fbc
00000050: 333a af3e 2d09 113d 652c 903e 4821 963d

exp_avg f4 [4, 1, 5, 1]
5.5382035e-05 1.2187505e-05 1.826339e-05 -1.8951847e-05 -4.539696e-05 -3.9286613e-05 -2.0744565e-05 -5.7424382e-05
-3.2777538e-05 2.7689487e-06 4.702946e-05 4.7985028e-05 5.8279606e-05 6.755722e-05 3.87576e-05 -5.7227637e-05
-7.9555924e-05 -4.733443e-05 -6.0979935e-05 -3.9696846e-05
00000000: 024a 6838 ef78 4c37 5534 9937 c8fa 9eb7
00000010: 9d68 3eb8 aec7 24b8 9d04 aeb7 f6da 70b8
00000020: 9d7a 09b8 2dd2 3936 8041 4538 8843 4938
00000030: 4071 7438 82ad 8d38 a88f 2238 b507 70b8
00000040: 43d7 a6b8 f588 46b8 b5c4 7fb8 2a80 26b8

exp_avg_sq f4 [4, 1, 5, 1]
2.9245223e-07 1.5174004e-07 5.4151364e-08 2.3643612e-08 4.661147e-08 5.356031e-07 7.226586e-07 6.3685997e-07
4.0003277e-07 2.687282e-07 4.057524e-07 6.104847e-07 6.900005e-07 6.683693e-07 4.732108e-07 1.907583e-07
2.1844808e-07 2.612004e-07 3.5632374e-07 3.1800735e-07
00000000: 5402 9d34 fced 2234 0e94 6833 da18 cb32
00000010: da31 4833 5dc6 0f35 b9fc 4135 aff4 2a35
00000020: 16c4 d634 b945 9034 2fd6 d934 30e0 2335
00000030: 7938 3935 fd69 3335 990d fe34 3ed3 4c34
00000040: 8d8e 6a34 1c3b 8c34 c34c bf34 99ba aa34

exp_avg f4 [4, 1, 4, 2]
8.077479e-05 -3.0688107e-06 5.2966683e-05 -1.2607064e-05 3.8252707e-05 -5.7763613e-05 -9.641084e-06 -9.001904e-05
-1.4692703e-05 -5.4183816e-05 -2.6624353e-05 -6.070502e-05 -5.2237545e-05 -7.395814e-05 -1.9408317e-05 -3.8083614e-05
4.9716564e-05 5.8782764e-05 6.235576e-05 4.92277e-05 4.1135263e-05 4.953518e-05 0.00012040037 5.143241e-05
-5.6784986e-05 -7.8754165e-05 -7.484848e-05 -9.9002405e-05 -6.2826504e-05 -9.741012e-05 -1.804154e-05 -9.593461e-05
00000000: a365 a938 c4f1 4db6 8b28 5e38 ed82 53b7
00000010: 8871 2038 3547 72b8 24c0 21b7 9bc8 bcb8
00000020: ae80 76b7 6e43 63b8 5d57 dfb7 859d 7eb8
00000030: a319 5bb8 f919 9bb8 0bcf a2b7 f8bb 1fb8
00000040: c186 5038 838d 7638 fec4 8238 d779 4e38
00000050: a788 2c38 ffc3 4f38 757f fc38 21b9 5738
00000060: 6a2c 6eb8 d228 a5b8 f9f7 9cb8 839f cfb8
00000070: b9c1 83b8 a948 ccb8 ea57 97b7 8030 c9b8

exp_avg_sq f4 [4, 1, 4, 2]
2.8360208e-07 2.383191e-07 8.531359e-08 1.5930422e-07 1.8286185e-08 5.1209426e-08 3.289006e-08 4.5963585e-08
7.3159816e-07 5.189098e-07 7.039048e-07 5.700486e-07 5.398152e-07 5.266082e-07 3.0250092e-07 3.4857513e-07
7.081094e-07 3.8845056e-07 7.77213e-07 5.0010703e-07 8.1571136e-07 4.996678e-07 6.148366e-07 4.2829078e-07
1.473032e-07 2.4939334e-07 1.7219155e-07 3.083953e-07 2.3098795e-07 3.948449e-07 2.7484248e-07 3.6503204e-07
00000000: f941 9834 a8e4 7f34 a435 b733 360d 2b34
00000010: bf13 9d32 5cf1 5b33 0143 0d33 7f69 4533
00000020: 0b63 4435 364b 0b35 f8f3 3c35 7105 1935
00000030: d1e7 1035 3d5c 0d35 6967 a234 cd23 bb34
00000040: e814 3e35 3d8c d034 aca1 5035 183f 0635
00000050: 42f7 5a35 e920 0635 400b 2535 d6ef e534
00000060: 652a 1e34 5ce4 8534 a7e3 3834 8791 a534
00000070: 7c05 7834 12fb d334 108e 9334 9ff9 c334

exp_avg f4 [4, 1, 3, 2]
9.337183e-05 -7.399201e-05 7.892963e-05 -6.739511e-05 5.4080272e-05 -8.809921e-05 9.149974e-06 -4.5914334e-05
-1.5690337e-05 -6.494352e-05 -1.8797691e-05 -6.130472e-05 8.698733e-05 4.8197493e-05 8.152249e-05 4.0332994e-05
8.6366985e-05 6.6668e-05 -5.8000518e-05 -8.069026e-05 -6.543427e-05 -0.00010965713 -2.4408531e-05 -0.000104706894
00000000: 9fd0 c338 282c 9bb8 0687 a538 7956 8db8
00000010: 40d4 6238 e7c1 b8b8 d782 1937 2494 40b8
00000020: be9e 83b7 4932 88b8 bcaf 9db7 b990 80b8
00000030: f86c b638 aa27 4a38 0ef7 aa38 392b 2938
00000040: ec1f b538 1cd0 8b38 9545 73b8 4138 a9b8
00000050: c239 89b8 b9f7 e5b8 ecc0 ccb7 1696 dbb8

exp_avg_sq f4 [4, 1, 3, 2]
2.637314e-07 1.9462907e-07 1.5871092e-07 1.4076264e-07 5.4559287e-08 1.3137489e-07 7.181859e-07 4.3736995e-07
6.7040065e-07 4.1854818e-07 3.682299e-07 3.2841032e-07 8.5449244e-07 3.4830128e-07 8.8176773e-07 3.8627482e-07
6.3794977e-07 3.5151498e-07 1.354754e-07 2.8469063e-07 1.5813747e-07 3.760708e-07 1.9482125e-07 3.2942012e-07
00000000: f896 8d34 3bfb 5034 206a 2a34 8a24 1734
00000010: 9254 6a33 0e10 0d34 5cc9 4035 abcf ea34
00000020: 95f5 3335 d3b4 e034 22b1 c534 5f50 b034
00000030: 4660 6535 2afe ba34 9eb2 6c35 3561 cf34
00000040: 933f 2b35 dab7 bc34 3277 1134 95d7 9834
00000050: 7fcc 2934 c7e6 c934 0f30 5134 28db b034

exp_avg f4 [4]
-5.1799877e-11 -2.8153704e-10 -1.6574237e-11 1.1994009e-10
00000000: 7ad1 63ae d1c6 9aaf ddc9 91ad 22e0 032f

exp_avg_sq f4 [4]
2.1461472e-19 7.993787e-19 1.0774766e-18 6.859535e-19
00000000: 525f 7d20 59ef 6b21 ea01 9f21 2e75 4a21

exp_avg f4 [4]
-0.00037789313 8.475872e-05 0.00041788715 -7.480049e-05
00000000: f51f c6b9 7ec0 b138 dd17 db39 35de 9cb8

exp_avg_sq f4 [4]
4.8159754e-06 1.7229256e-06 3.2193273e-06 1.6664034e-06
00000000: ea98 a136 463f e735 9f0b 5836 2fa9 df35

exp_avg f4 [4]
0.00044561483 0.00015143535 0.00039188517 0.00014220759
00000000: 69a1 e939 9eca 1e39 f075 cd39 8f1d 1539

exp_avg_sq f4 [4]
1.2426007e-05 0.00012116545 9.586863e-05 7.922926e-05
00000000: 4b79 5037 351a fe38 140d c938 e327 a638

exp_avg f4 [2, 4, 3, 1]
-9.283958e-06 1.0419528e-05 0.000118266005 3.4336532e-05 9.097186e-06 -2.4161967e-05 0.00013122098 0.00018172494
0.00013515147 -5.2124808e-05 -8.4345585e-05 -3.6411275e-05 -4.045596e-05 -0.00013343219 -3.15992e-05 0.00012212998
-1.1646292e-05 -3.7120826e-06 7.595854e-05 -4.675347e-05 1.723094e-05 -0.000115562754 -0.00012797606 -5.1879575e-05
00000000: 4cc2 1bb7 88cf 2e37 9405 f838 9204 1038
00000010: 1ea0 1837 6eaf cab7 5d98 0939 6b8d 3e39
00000020: 72b7 0d39 96a0 5ab8 b1e2 b0b8 4fb8 18b8
00000030: 42af 29b8 eee9 0bb9 6289 04b8 0410 0039
00000040: 7164 43b7 181d 79b6 ee4b 9f38 2819 44b8
00000050: 298b 9037 485a f2b8 5031 06b9 4599 59b8

exp_avg_sq f4 [2, 4, 3, 1]
1.4690674e-05 1.4005772e-05 1.3270613e-05 2.4896147e-07 5.2608037e-08 6.612212e-08 1.8349563e-07 3.7055534e-07
4.1233037e-07 1.4686862e-07 2.1847106e-07 3.6589134e-07 6.600009e-07 4.025663e-07 2.1188919e-06 4.6500844e-07
1.1955629e-07 1.3959584e-07 1.0048561e-07 2.3722109e-07 1.4398799e-07 3.728566e-07 9.720906e-07 9.3176646e-07
00000000: f777 7637 55fa 6a37 d9a4 5e37 01a9 8534
00000010: 26f3 6133 05ff 8d33 e506 4534 bdf0 c634
00000020: 415e dd34 f0b2 1d34 de94 6a34 b96f c434
00000030: eb2a 3135 4a20 d834 4932 0e36 46a6 f934
00000040: 625f 0034 d0e3 1534 8cca d733 d6b6 7e34
00000050: 1e9b 1a34 052d c834 c778 8235 811e 7a35

exp_avg f4 [2, 4, 2, 2]
0.00018713628 -0.00030549493 0.00027642777 -0.00018202404 3.2840304e-05 3.9434013e-05 8.776544e-06 4.1975498e-05
0.00013933482 9.7675686e-05 0.00015095975 8.766357e-05 0.000111528956 4.8689685e-06 0.00012886453 3.5504614e-05
-2.6098422e-05 -0.0002784827 3.39542e-05 -0.0001876351 0.00010184764 3.725962e-05 -1.4716609e-05 -4.089409e-05
9.395461e-05 5.378078e-06 0.00012222752 6.104673e-05 -4.320228e-05 -0.00013823717 -2.4768262e-05 4.8862083e-05
00000000: 033a 4439 d62a a0b9 82ed 9039 b5dd 3eb9
00000010: 02be 0938 f365 2538 f83e 1337 d90e 3038
00000020: 681a 1239 3cd7 cc38 f34a 1e39 05d8 b738
00000030: a7e4 e938 1f60 a336 cf1f 0739 caea 1438
00000040: efed dab7 5101 92b9 0b6a 0e38 eabf 44b9
00000050: 0997 d538 3647 1c38 5be7 76b7 b285 2bb8
00000060: 7f09 c538 5775 b436 332a 0039 3706 8038
00000070: 1834 35b8 c2f3 10b9 70c5 cfb7 43f1 4c38

exp_avg_sq f4 [2, 4, 2, 2]
1.8167588e-05 1.0149852e-05 1.8057912e-05 9.886226e-06 8.24142e-08 3.280857e-07 1.876705e-07 8.999081e-08
7.4390806e-07 9.932969e-08 1.2595569e-06 1.3294425e-07 1.1553634e-07 5.1835696e-07 7.581094e-08 8.0747583e-07
4.319823e-07 1.5849762e-06 1.1715138e-06 2.7044687e-06 2.7851073e-07 2.5284913e-07 2.0940382e-07 1.5915204e-07
2.005757e-07 1.2701295e-07 3.8044874e-07 1.2650578e-07 3.660796e-07 1.0707323e-06 4.0746366e-07 1.0561314e-06
00000000: 9966 9837 4849 2a37 127b 9737 04dd 2537
00000010: b0fb b033 c123 b034 7982 4934 f940 c133
00000020: f9b0 4735 134f d533 0c0e a935 70bf 0e34
00000030: c61c f833 3825 0b35 81cd a233 51c1 5835
00000040: 32eb e734 5ebb d435 e83c 9d35 6b7e 3536
00000050: 3986 9534 52bf 8734 7cd8 6034 61e3 2a34
00000060: d45d 5734 0e61 0834 7a40 cc34 a5d5 0734
00000070: 9989 c434 15b6 8f35 61c1 da34 66c0 8d35

exp_avg f4 [2]
1.12255434e-10 -5.320491e-11
00000000: 31da f62e 67ff 69ae

exp_avg_sq f4 [2]
3.4268788e-18 7.44652e-19
00000000: e9db 7c22 50c8 5b21

exp_avg f4 [2]
0.00094059773 0.0012059752
00000000: 7292 763a d011 9e3a

exp_avg_sq f4 [2]
6.949625e-05 0.00021784371
00000000: 84be 9138 fa6c 6439

exp_avg f4 [2]
-0.005837583 -0.0023205015
00000000: 3249 bfbb 8e13 18bb

exp_avg_sq f4 [2]
0.003218826 0.00071704714
00000000: f0f2 523b 38f8 3b3a

exp_avg f4 [32, 234]
1.9416116e-06 1.7018602e-06 2.4483807e-06 4.3839747e-05 1.031607e-05 1.31264405e-05 1.2764932e-05 1.3217599e-06
-4.9556857e-06 -3.878002e-06 1.7004404e-06 1.7018602e-06 2.1708254e-06 1.9111164e-06 7.586175e-07 2.1194423e-05
4.7849142e-05 1.2190448e-05 1.7001588e-06 1.5880021e-05 -1.9163551e-06 -5.958109e-06 1.3519234e-05 1.2003599e-06
1.2428353e-06 1.8841089e-06 1.9111164e-06 2.130642e-05 4.765265e-05 2.9413513e-05 -9.6842805e-06 -2.1629347e-05
6.37024e-07 -1.0465801e-05 -1.0501191e-05 9.006319e-06 5.389072e-06 -1.2913221e-05 1.8841089e-06 3.01326e-06
5.36387e-05 7.11795e-05 2.6674506e-05 -1.27056255e-05 -6.863731e-07 -4.8769078e-05 1.5634055e-06 2.2340173e-05
-6.4321553e-06 -2.3180373e-05 -5.132736e-05 1.6017126e-06 7.650912e-06 2.0853258e-05 5.1535786e-05 1.5068819e-05
-3.6781114e-06 -2.109662e-05 -2.3178327e-05 -1.0115876e-05 1.7519582e-05 -1.242569e-05 -4.227465e-05 -7.824762e-06
-8.480298e-06 -3.5668575e-06 -7.908603e-06 4.6090754e-05 1.276177e-05 1.1016921e-05 1.4644585e-05 -2.4329922e-05
-4.7756912e-05 9.304652e-07 2.2485227e-05 -8.059493e-06 -1.0283481e-05 -1.7517799e-06 7.8812656e-07 -1.0964426e-05
1.086771e-05 5.398025e-06 8.975328e-06 1.6249232e-05 -3.2073378e-05 -9.628859e-06 5.735944e-07 2.671472e-07
-8.200533e-06 1.7958046e-06 -5.4813484e-07 1.9111164e-06 -3.3452693e-07 -1.6685537e-05 1.5869618e-05 3.8203158e-05
3.6835313e-06 -2.7022288e-05 1.2278638e-05 3.1685486e-05 5.7538623e-06 -8.570422e-06 -1.9317676e-07 1.8841089e-06
1.9111164e-06 1.7948317e-06 1.0455177e-05 1.4671612e-06 2.9101891e-05 -1.0073109e-05 2.080382e-05 1.4923654e-05
1.8672143e-05 1.72369e-05 -1.3391506e-06 1.7948317e-06 1.8841089e-06 8.991411e-07 1.0492712e-06 8.097623e-07
1.3193834e-05 1.7586839e-05 1.31592915e-05 1.8237595e-05 2.4771152e-05 3.6151632e-06 1.1542841e-05 -7.2360257e-07
1.0492712e-06 9.751517e-07 1.0021491e-06 6.173729e-07 -2.061618e-07 4.1859268e-05 5.214448e-05 -8.481263e-06
2.5013363e-05 1.2059809e-05 1.0102613e-05 -4.0088194e-06 8.498104e-06 -5.02403e-07 1.1408753e-06 1.0021491e-06
-6.9386914e-07 3.961511e-06 6.5029715e-05 3.9160517e-05 -5.357641e-05 -2.0990972e-05 -5.505765e-05 -1.9170082e-05
4.140549e-07 -5.401861e-06 -1.659176e-05 1.1408753e-06 6.354166e-07 1.827595e-05 7.018302e-05 7.098135e-05
8.854543e-06 -2.8342432e-05 -2.7040447e-05 -3.623985e-05 -1.4792941e-05 3.0997333e-05 1.7099655e-05 -4.2480104e-05
-2.081161e-05 2.1792391e-06 5.426771e-06 1.42758745e-05 2.8422455e-05 1.1533125e-05 -1.01942305e-05 -4.408574e-05
-5.4331038e-05 -1.9366706e-05 1.3891371e-05 -2.1459513e-05 -2.4870715e-05 -3.6555128e-05 2.0831967e-06 -5.660636e-06
1.0653553e-05 1.398138e-05 -5.443547e-06 -4.874471e-06 -1.21224975e-05 -4.501259e-05 -2.3268341e-05 -4.4441435e-06
5.94978e-06 -1.603996e-05 1.1721117e-07 7.5201615e-07 1.376867e-06 -2.362157e-05 -1.25727865e-05 -1.450201e-05
-9.855424e-06 1.1426454e-05 -4.793548e-05 -4.4083838e-05 9.771957e-06 -1.1588422e-05 -1.4759169e-05 -5.6954406e-07
1.0021491e-06 6.276552e-07 -1.275307e-05 -2.3664752e-06 -1.039446e-05 1.9903919e-05 -1.836259e-05 -1.4057057e-05
-2.2884492e-06 2.6518124e-05 -1.4797926e-05 -5.765273e-08 1.1408753e-06 1.0021491e-06 1.0965261e-06 1.5406615e-06
1.354688e-06 5.8269006e-06 -9.967825e-07 -1.18651e-05 1.657666e-05 3.3073815e-05 1.0782529e-05 3.0415517e-06
1.0965261e-06 1.1408753e-06 2.3813183e-07 1.5760693e-07 -3.7676518e-06 -3.443132e-05 -1.0257548e-05 2.1185664e-05
1.0061605e-05 6.7337885e-07 -1.0278768e-05 8.871382e-06 1.1048279e-07 1.5760693e-07 3.2480435e-07 2.7384772e-07
-1.0391044e-05 -4.695754e-05 -1.9409938e-05 -8.04845e-08 7.400378e-06 -4.0189884e-06 -3.258593e-05 -2.2963017e-05
00000000: a24c 0236 796b e435 dc4e 2436 92e0 3738
00000010: 2f13 2d37 a239 5c37 f728 5637 5367 b135
00000020: 0449 a6b6 c91f 82b6 b03a e435 796b e435
00000030: 7fae 1136 bb40 0036 cca3 4b35 adca b137
00000040: a0b1 4838 9385 4c37 0331 e435 1636 8537
00000050: bb9a 00b6 c4eb c7b6 abd0 6237 0d1c a135
00000060: 7fcf a635 7de1 fc35 bb40 0036 30bb b237
00000070: a5de 4738 0abd f637 ab79 22b7 ab70 b5b7
00000080: f5ff 2a35 4696 2fb7 462e 30b7 d819 1737
00000090: c7d3 b436 dda5 58b7 7de1 fc35 6a37 4a36
000000a0: 1efa 6038 3446 9538 11c3 df37 3f2a 55b7
000000b0: 333f 38b5 668d 4cb8 34d6 d135 2867 bb37
000000c0: cbd3 d7b6 7973 c2b7 5548 57b8 6dfa d635
000000d0: 6b5c 0037 08ee ae37 2128 5838 16d0 7c37
000000e0: 79d5 76b6 a5f8 b0b7 146f c2b7 5bb7 29b7
000000f0: 04f7 9237 ef77 50b7 0f50 31b8 1947 03b7
00000100: 9a46 0eb7 255e 6fb6 31af 04b7 9251 4138
00000110: 631b 5637 51d5 3837 03b2 7537 1c18 ccb7
00000120: 984e 48b8 15c5 7935 a89e bc37 4237 07b7
00000130: 3787 2cb7 b31e ebb5 a58f 5335 daf3 37b7
00000140: 7654 3637 af20 b536 bd94 1637 f64e 8837
00000150: 8786 06b8 a28b 21b7 1bf9 1935 6e6c 8f34
00000160: 0595 09b7 6007 f135 8a23 13b5 bb40 0036
00000170: 0899 b3b4 ebf7 8bb7 bf1f 8537 543c 2038
00000180: 9632 7736 ecad e2b7 5900 4e37 08e6 0438
00000190: 4d11 c136 afc9 0fb7 066c 4fb4 7de1 fc35
000001a0: bb40 0036 f3e5 f035 a568 2f37 46eb c435
000001b0: d61f f437 acff 28b7 dd83 ae37 9b60 7a37
000001c0: 1fa2 9c37 f697 9037 ddbc b3b5 f3e5 f035
000001d0: 7de1 fc35 825c 7135 afd4 8c35 715e 5935
000001e0: 165b 5d37 7387 9337 bac6 5c37 f0fc 9837
000001f0: a5cb cf37 089c 7236 20a8 4137 973d 42b5
00000200: afd4 8c35 f5e1 8235 9581 8635 8bb9 2535
00000210: 535d 5db4 0c92 2f38 b6b5 5a38 bf4a 0eb7
00000220: cad3 d137 7c54 4a37 647e 2937 7f83 86b6
00000230: 1493 0e37 dfdc 06b5 2d20 9935 9581 8635
00000240: 5342 3ab5 1fed 8436 9060 8838 4940 2438
00000250: 3bb7 60b8 c515 b0b7 b4ed 66b8 70cf a0b7
00000260: 464b de34 a241 b5b6 892e 8bb7 2d20 9935
00000270: 7f91 2a35 4e4f 9937 392f 9338 d2db 9438
00000280: f98d 1437 e9c0 edb7 ebd4 e2b7 3e00 18b8
00000290: 332f 78b7 2203 0238 3b71 8f37 aa2c 32b8
000002a0: 9894 aeb7 0b3f 1236 9c17 b636 6a82 6f37
000002b0: c26c ee37 657e 4137 e307 2bb7 b4e8 38b8
000002c0: 82e1 63b8 af75 a2b7 fc0e 6937 f403 b4b7
000002d0: 74a1 d0b7 c552 19b8 0ccd 0b36 7ef0 bdb6
000002e0: a9bc 3237 9291 6a37 b6a7 b6b6 638f a3b6
000002f0: bb61 4bb7 e7cb 3cb8 6230 c3b7 e71e 95b6
00000300: 39a4 c736 8d8d 86b7 86b5 fb33 28de 4935
00000310: cacc b835 ef26 c6b7 b5ef 52b7 a94d 73b7
00000320: b958 25b7 3fb4 3f37 540e 49b8 a9e6 38b8
00000330: 3cf2 2337 e56b 42b7 269e 77b7 c5e2 18b5
00000340: 9581 8635 237c 2835 05f6 55b7 bccf 1eb6
00000350: de63 2eb7 57f7 a637 5d09 9ab7 9ad6 6bb7
00000360: 4293 19b6 3d73 de37 9c44 78b7 d99d 77b3
00000370: 2d20 9935 9581 8635 5a2c 9335 bac8 ce35
00000380: bad2 b535 b284 c336 30c9 85b5 3710 47b7
00000390: 1b0e 8b37 bdb8 0a38 9ce6 3437 761d 4c36
000003a0: 5a2c 9335 2d20 9935 2eb1 7f34 aa3a 2934
000003b0: c4d7 7cb6 596a 10b8 d517 2cb7 deb7 b137
000003c0: 44ce 2837 3ec2 3435 f972 2cb7 4cd6 1437
000003d0: 8e42 ed33 aa3a 2934 c560 ae34 5805 9334
000003e0: 3255 2eb7 46f4 44b8 86d2 a2b7 d2d6 acb3
000003f0: c350 f836 d9da 86b6 e0ac 08b8 b4a0 c0b7

exp_avg_sq f4 [32, 234]
5.2438467e-11 8.566516e-11 4.428296e-10 2.2750331e-08 3.79463e-09 1.4970954e-08 4.291891e-09 1.4181704e-08
3.859533e-09 1.1000276e-08 6.4637316e-11 8.566516e-11 4.5497228e-11 7.610516e-11 1.4409745e-09 3.1163072e-08
1.6745872e-08 1.4082444e-08 1.837702e-08 1.4885844e-08 1.757696e-08 1.1693267e-08 1.2209735e-08 2.762499e-09
9.277672e-11 5.4756557e-11 7.610516e-11 5.149381e-08 3.7794546e-08 2.2587207e-08 2.0291074e-08 2.37068e-08
2.0268159e-08 2.088521e-08 1.5824567e-08 1.4468031e-08 1.748061e-08 3.7416332e-09 5.4756557e-11 2.1372875e-09
5.0147232e-08 2.5605301e-08 3.038188e-08 2.612333e-08 2.7525452e-08 2.6193188e-08 2.5626848e-08 1.843269e-08
1.6125544e-08 1.3554292e-08 1.6802852e-08 5.7580968e-11 4.3195506e-08 2.9056176e-08 2.7148516e-08 3.4304925e-08
3.3664794e-08 3.1730714e-08 2.6033334e-08 2.4408411e-08 1.949075e-08 1.407351e-08 1.16881065e-08 1.1179556e-08
1.5748087e-09 1.2048204e-08 4.9534826e-08 3.518214e-08 4.1819717e-08 3.467792e-08 2.6083312e-08 2.5355845e-08
2.17016e-08 1.9357437e-08 1.3891005e-08 1.0938513e-08 6.321941e-09 4.5947823e-10 2.8918093e-10 1.1514851e-08
5.0523848e-08 3.8159605e-08 2.918267e-08 2.1393827e-08 2.1831601e-08 2.0234197e-08 1.5920206e-08 1.3045198e-08
1.4027878e-08 3.3882674e-10 2.7009656e-10 7.610516e-11 3.331347e-10 5.3341104e-08 3.744222e-08 2.5998188e-08
1.9372486e-08 1.7441353e-08 1.4832885e-08 1.5250844e-08 1.3445209e-08 6.9887545e-09 3.2810193e-10 5.4756557e-11
7.610516e-11 7.4036485e-11 8.60317e-09 4.9031186e-08 2.3575778e-08 3.517992e-08 1.6181547e-08 2.2401384e-08
1.1138072e-08 5.684799e-09 3.5378814e-10 7.4036485e-11 5.4756557e-11 9.937179e-12 2.0812178e-11 1.1795818e-11
1.3643535e-08 5.2619167e-09 3.0242603e-08 5.592334e-09 3.3690807e-08 6.6107493e-09 3.515282e-08 2.2868591e-09
2.0812178e-11 1.351603e-11 1.2585945e-11 1.7220593e-11 3.9359338e-10 4.1857962e-08 3.4143632e-08 4.7446818e-08
4.0747782e-08 5.1500237e-08 4.0446015e-08 4.6842427e-08 3.950006e-08 6.3100765e-09 2.1199955e-11 1.2585945e-11
5.3501864e-10 2.7640114e-08 7.0049296e-08 5.2740024e-08 7.43317e-08 6.945574e-08 8.651582e-08 6.350439e-08
6.5135254e-08 5.66106e-08 5.990196e-08 2.1199955e-11 9.949756e-12 3.561511e-08 6.794638e-08 8.597858e-08
7.970986e-08 9.468494e-08 9.138852e-08 1.0153447e-07 8.898024e-08 8.319707e-08 6.882997e-08 5.9009267e-08
5.847711e-09 3.3458497e-10 5.552342e-08 7.972588e-08 9.995297e-08 1.02522286e-07 1.14501205e-07 1.11811545e-07
1.058551e-07 9.896412e-08 8.5735884e-08 6.6398584e-08 4.540952e-08 3.4834844e-08 2.0709959e-10 8.170021e-09
7.857218e-08 1.07681736e-07 1.1618138e-07 9.9362275e-08 1.0242945e-07 9.641723e-08 9.752421e-08 7.6158784e-08
5.7360822e-08 4.3557215e-08 1.2850583e-08 2.379959e-11 1.4871933e-10 6.03309e-08 9.9766915e-08 1.13800695e-07
8.746874e-08 8.193097e-08 7.1893965e-08 8.244636e-08 5.850522e-08 5.145595e-08 1.32028095e-08 8.894946e-11
1.2585945e-11 3.73077e-11 9.437843e-09 5.205542e-08 8.702102e-08 7.1544214e-08 7.0623706e-08 5.868807e-08
6.1641664e-08 4.4570314e-08 4.3102183e-08 8.7591205e-11 2.1199955e-11 1.2585945e-11 1.8246023e-11 1.3196753e-10
9.376036e-09 6.697019e-08 6.610957e-08 6.133425e-08 5.443632e-08 4.362141e-08 3.281626e-08 1.1179218e-08
1.8246023e-11 2.1199955e-11 1.3485425e-10 2.2452205e-10 5.0621857e-10 2.7466047e-08 4.9990265e-09 2.1460362e-08
6.8195787e-09 2.2458831e-08 6.429019e-09 1.5721241e-08 1.6460348e-10 2.2452205e-10 1.1517033e-10 1.9760991e-10
1.2586034e-09 2.6652089e-08 2.1233342e-08 2.033185e-08 2.6530268e-08 2.3405846e-08 2.678594e-08 2.0427535e-08
00000000: 77a0 662e 3361 bc2e ba72 f32f 826c c332
00000010: eb61 8231 7a99 8032 df77 9331 cba3 7332
00000020: d09c 8431 bafb 3c32 9323 8e2e 3361 bc2e
00000030: 5319 482e 655b a72e c80b c630 29d8 0533
00000040: 90d8 8f32 3eef 7132 7fdb 9d32 a2bc 7f32
00000050: 25fc 9632 88e3 4832 fbc2 5132 65d6 3d31
00000060: a604 cc2e 67d2 702e 655b a72e 0b2a 5d33
00000070: 8b53 2233 cb05 c232 8b4c ae32 cea3 cb32
00000080: 271a ae32 1067 b332 97ee 8732 138f 7832
00000090: 4528 9632 c18f 8031 67d2 702e 8fdf 1231
000000a0: 7761 5733 a7f2 db32 3b7d 0233 cf65 e032
000000b0: 1c71 ec32 6eff e032 0922 dc32 ea55 9e32
000000c0: 7284 8a32 68dc 6832 dd55 9032 683e 7d2e
000000d0: f685 3933 3597 f932 3834 e932 aa56 1333
000000e0: d596 1033 4a48 0833 e89f df32 aaaa d132
000000f0: 9d6c a732 f4c7 7132 d6cc 4832 3510 4032
00000100: a870 d830 90fc 4e32 1ec0 5433 2c1b 1733
00000110: 449d 3333 c7f0 1433 cf0d e032 18ce d932
00000120: 536a ba32 7447 a632 49a5 6e32 17ec 3b32
00000130: 6238 d931 d099 fc2f 99fa 9e2f dad2 4532
00000140: 8fff 5833 eee4 2333 5fad fa32 86c5 b732
00000150: 3388 bb32 78cf ad32 e7c0 8832 631d 6032
00000160: 43ff 7032 a045 ba2f b67c 942f 655b a72e
00000170: 8a24 b72f 2a19 6533 28d0 2033 9f52 df32
00000180: 8c68 a632 f1d1 9532 b8d3 7e32 f600 8332
00000190: a8fc 6632 bc21 f031 3e60 b42f 67d2 702e
000001a0: 655b a72e d6ce a22e 24cd 1332 5c96 5233
000001b0: af83 ca32 bb18 1733 99ff 8a32 2a6d c032
000001c0: c259 3f32 0554 c331 417f c22f d6ce a22e
000001d0: 67d2 702e 13d1 2e2d dc10 b72d a483 4f2d
000001e0: e764 6a32 4fcc b431 18e4 0133 b126 c031
000001f0: 6fb3 1033 c424 e331 effa 1633 da26 1d31
00000200: dc10 b72d cac6 6d2d 0f6a 5d2d 5479 972d
00000210: 5861 d82f 51c7 3333 52a5 1233 54c8 4b33
00000220: a902 2f33 1c31 5d33 ddb6 2d33 cb2f 4933
00000230: c6a6 2933 05d0 d831 0e7a ba2d 0f6a 5d2d
00000240: 9710 1330 416d ed32 026e 9633 4584 6233
00000250: 49a0 9f33 b227 9533 93ca b933 e85f 8833
00000260: 7ce0 8b33 0324 7333 73a3 8033 0e7a ba2d
00000270: b809 2f2d 3af7 1833 ebe9 9133 39a3 b833
00000280: f52c ab33 9955 cb33 5f41 c433 2a0b da33
00000290: 6715 bf33 13aa b233 adcf 9333 6071 7d33
000002a0: 03ed c831 a6f0 b72f a578 6e33 c435 ab33
000002b0: baa5 d633 392a dc33 b4e3 f533 0c1d f033
000002c0: 7552 e333 1a86 d433 cd1d b833 0297 8e33
000002d0: 4c08 4333 519d 1533 5ab5 632f 225c 0c32
000002e0: 83bb a833 a93e e733 647f f933 fd60 d533
000002f0: 30f7 db33 ef0d cf33 806e d133 bc8c a333
00000300: e45c 7633 aa13 3b33 76c5 5c32 ea57 d12d
00000310: c584 232f 438f 8133 713f d633 9862 f433
00000320: 73d6 bb33 07f2 af33 2064 9a33 5e0d b133
00000330: 2b47 7b33 6a00 5d33 92d2 6232 189a c32e
00000340: 0f6a 5d2d bc14 242e 1324 2232 8a93 5f33
00000350: 50e0 ba33 d9a3 9933 cba9 9733 3710 7c33
00000360: dd5f 8433 946d 3f33 5a1f 3933 779d c02e
00000370: 0e7a ba2d 0f6a 5d2d 647e a02d 8f19 112f
00000380: 3e14 2132 40d1 8f33 1ff8 8d33 dcb6 8333
00000390: 5ecd 6933 3f5a 3b33 dcf1 0c33 b90e 4032
000003a0: 647e a02d 0e7a ba2d 1946 142f 57dd 762f
000003b0: f725 0b30 7aee eb32 e7c3 ab31 d657 b832
000003c0: a651 ea31 7eeb c032 40e6 dc31 600b 8732
000003d0: c3fb 342f 57dd 762f 2243 fd2e 3f46 592f
000003e0: 2cfb ac30 90f0 e432 9d64 b632 36a6 ae32
000003f0: ade4 e332 000e c932 e816 e632 a078 af32

exp_avg f4 [32]
1.8424145e-05 6.2530944e-07 -2.4073577e-05 -7.957299e-06 1.7785847e-05 4.27203e-05 -3.2016308e-07 -2.4199362e-05
-8.4726224e-07 2.8174761e-06 -2.8078048e-06 1.4071265e-05 2.5477737e-05 5.0295712e-05 -1.5936892e-05 1.9480809e-05
-3.2575987e-05 6.515936e-06 -5.8105074e-05 2.7214744e-05 4.7627764e-06 -1.3642763e-05 4.493928e-05 2.2040376e-05
-1.4364165e-05 5.9586026e-05 6.754667e-06 2.7691019e-07 -2.3688126e-05 -1.7412096e-06 -3.2636515e-05 -3.2003795e-06
00000000: 8d8d 9a37 f0da 2735 9df1 c9b7 5780 05b7
00000010: d132 9537 932e 3338 e1e2 abb4 bcff cab7
00000020: 6b6f 63b5 df13 3d36 b86d 3cb6 9f13 6c37
00000030: 06b9 d537 9cf4 5238 37b0 85b7 b86a a337
00000040: 33a2 08b8 77a3 da36 d9b5 73b8 384b e437
00000050: f0cf 9f36 39e3 64b7 2f7d 3c38 59e3 b837
00000060: 9efd 70b7 02ec 7938 26a6 e236 3faa 9434
00000070: ddb5 c6b7 82b3 e9b5 31e3 08b8 1ac6 56b6

exp_avg_sq f4 [32]
1.8784547e-08 4.961464e-08 7.53789e-09 4.249957e-08 1.1184188e-08 5.746596e-08 3.1568266e-08 4.590452e-08
5.1766317e-08 4.968942e-08 6.0568624e-08 1.613965e-08 4.0390532e-08 3.641526e-08 7.879664e-09 2.2082306e-08
4.897272e-08 4.3876263e-08 5.8961213e-08 9.7274535e-09 1.26936195e-08 2.8471694e-08 4.2619188e-08 1.4529775e-08
3.9315935e-08 3.9006625e-08 8.7000664e-09 2.0193653e-08 3.1649822e-08 6.191258e-08 1.7995688e-08 1.0147813e-08
00000000: a85b a132 e017 5533 fe7f 0132 c588 3633
00000010: 9424 4032 7ed0 7633 ad95 0733 8e28 4533
00000020: ab55 5e33 186a 5533 f411 8233 77a3 8a32
00000030: dc79 2d33 0067 1c33 215f 0732 81af bd32
00000040: 1356 5233 7672 3c33 8a3c 7d33 cb1d 2732
00000050: 2113 5a32 eb91 f432 4b0c 3733 a09e 7932
00000060: 54dc 2833 3d88 2733 4c77 1532 5076 ad32
00000070: 59ef 0733 cdf4 8433 f094 9a32 8e56 2e32
