server_report/ae_square/ae_square_base/autoencoder_20251227_125304.pth (torch, 676966 bytes, 45 tensors)

encoder.0.weight f4 [4, 1, 3, 3]
0	0x3a4b1165	0.00077464274
1	0x3e726f74	0.23675328
2	0x3e927d86	0.28611392
3	0xbdd76fc5	-0.10519365
4	0x3dea0321	0.11426378
5	0x3eaa05f0	0.33207655
6	0xbd38b348	-0.04509285
7	0x3d15f872	0.03661389
8	0x3d9e7e7f	0.07738971
9	0x3c8f0eee	0.017463174
10	0x3e39b722	0.18136266
11	0xbd677aef	-0.056513723
12	0x3dc59cf9	0.09649081
13	0x3e83cffa	0.2574461
14	0xbc11598d	-0.008871448
15	0x3d8c77d4	0.06858793
16	0x3c508ea6	0.012729323
17	0xbd0e4f8e	-0.034743838
18	0xbea52aeb	-0.32259306
19	0xbddc4350	-0.10755026
20	0xbe0b7f46	-0.1362277
21	0xbde75f66	-0.11297493
22	0x3e47c270	0.19507766
23	0xbe175576	-0.14778695
24	0xbe8b934c	-0.27260816
25	0xbe47e71e	-0.19521758
26	0xbc49dbab	-0.012320439
27	0x3cacbeae	0.021087017
28	0xbd25db27	-0.040492203
29	0x3d920e70	0.0713166
30	0x3d5f7566	0.05455532
31	0x3cbcf09e	0.023063954
32	0x3db1d3eb	0.08682998
33	0x3dc76a60	0.09737086
34	0x3decc786	0.115614936
35	0x3d075e41	0.033048872

encoder.0.bias f4 [4]
0	0xbe10bdce	-0.14134905
1	0xbaf778ac	-0.0018880568
2	0xbe6326e0	-0.22182798
3	0x37d5b0db	2.5473933e-05

encoder.2.weight f4 [8, 4, 3, 3]
0	0xbe4bfe69	-0.19921269
1	0xbe26f338	-0.16303718
2	0xbe1b20b1	-0.1514919
3	0xbdbd33d7	-0.09238403
4	0xbd695c77	-0.056972947
5	0xbe41595a	-0.18881741
6	0xbdf5f022	-0.12008692
7	0xbdbdbe28	-0.09264785
8	0xbe02cc60	-0.12773275
9	0xbdcbef49	-0.099577494
10	0xbd20bf58	-0.03924498
11	0xbde58faa	-0.11209042
12	0xbda06a57	-0.07832783
13	0xbcf59ec1	-0.029982926
14	0xbd57069e	-0.052496545
15	0xbd97dbb1	-0.0741495
16	0xbd2b1662	-0.041769393
17	0xbdb49208	-0.08816916
18	0x3de124be	0.10993336
19	0x3e20b8c3	0.15695481
20	0xbdcdcb93	-0.10048594
21	0xbe16bcc0	-0.1472044
22	0x3dc0ee56	0.09420459
23	0xbe12291f	-0.14273499
24	0x3d68ebb6	0.056865416
25	0x3e287b3a	0.16453257
26	0xbcae5a40	-0.021283269
27	0xbe45504a	-0.19268909
28	0x3d9f4f4c	0.077787966
29	0xbe71775a	-0.23580685
30	0xbe3ec565	-0.18629988
31	0xbe07af6e	-0.13250515
32	0xbe000bd0	-0.12504506
33	0xbe90139b	-0.28139958
34	0xbe4d3016	-0.20037875
35	0xbe38daf9	-0.18052281
36	0xbce39c17	-0.02778439
37	0x3c0314c3	0.008000555
38	0x3d9d9455	0.07694308
39	0xbe2153ef	-0.15754674
40	0x3e241b35	0.16026004
41	0xbe4917ba	-0.19637957
42	0x3d01b8e3	0.031670462
43	0xbca30e06	-0.019904148
44	0xbd98d897	-0.07463186
45	0xbde4a169	-0.11163599
46	0xbe0142a0	-0.12623072
47	0x3df3c316	0.11902444
48	0x3eb3a8b6	0.35089654
49	0x3eaba9cd	0.33527985
50	0x3d3610c7	0.044449594
51	0x3e245e15	0.16051514
52	0x3dd0bdcd	0.101924516
53	0xbe0ea0c5	-0.13928516
54	0xbdc9713b	-0.0983605
55	0x3ceda8b6	0.029011112
56	0x3da2ea56	0.07954852
57	0x3e1e9de0	0.15489912
58	0xbdb8ff58	-0.09033078
59	0xbe021f4e	-0.12707254
60	0xbcf69c20	-0.030103743
61	0x3d645bf6	0.055751763
62	0xbe03e2e8	-0.12879527
63	0xbe6274a3	-0.22114806
64	0xbd1f3f2e	-0.038878612
65	0x3e5c12ce	0.21491548
66	0x3e3e51c1	0.18585874
67	0x3ed0fc44	0.40817463
68	0xbe48815c	-0.19580597
69	0xbea532ab	-0.3226522
70	0xbec5ad78	-0.3860891
71	0xbecbabb3	-0.39779434
72	0xbdd26670	-0.10273445
73	0xbd6ba56b	-0.0575308
74	0x3d84399e	0.06456302
75	0xbe50f8e7	-0.20407449
76	0x3cd9bdb0	0.026579708
77	0x3e70bafd	0.2350883
78	0x3d92ca01	0.071674354
79	0x3e8f9cff	0.28049466
80	0xbc0b5cff	-0.008506059
81	0xbd70a375	-0.058749635
82	0xbe4a507f	-0.1975727
83	0x3dafcd37	0.085840635
84	0xbe088c20	-0.13334703
85	0xbe5ef9af	-0.21774934
86	0x3ea16835	0.31524816
87	0xbe186793	-0.1488326
88	0x3dab9a9b	0.08379098
89	0x3dae4323	0.08508899
90	0x3d15f23b	0.036607962
91	0xbcc684e0	-0.024233282
92	0x3db68c56	0.08913486
93	0xbe102b4e	-0.1407902
94	0x3b601900	0.0034194589
95	0xbd95c37b	-0.073126756
96	0x3db30933	0.08741989
97	0xbcd4922b	-0.025948605
98	0x3dfbd210	0.122959256
99	0x3c2ca543	0.010537448
100	0xbeb80e2c	-0.35948312
101	0x3dedcbf9	0.1161117
102	0xbe2d1ed1	-0.16906287
103	0xbdf49bb2	-0.11943759
104	0x3e8dd6d6	0.2770297
105	0x3a988f4f	0.0011639389
106	0x3e83e92a	0.25763828
107	0xbe61d929	-0.22055496
108	0x3cb398ff	0.02192354
109	0xbd88d275	-0.066807665
110	0xbd5207f3	-0.051277112
111	0x3e258a23	0.16165976
112	0xbe038f3c	-0.12847608
113	0xbd8ef58c	-0.06980428
114	0x3ee22759	0.44170645
115	0xbe0ebb60	-0.13938665
116	0xbccf4b00	-0.025304317
117	0xbc71a919	-0.014749789
118	0xbc4c50d2	-0.012470441
119	0xbce4d356	-0.027932804
120	0x3e249b30	0.16074824
121	0x3e4be053	0.19909792
122	0x3d794d14	0.060864523
123	0x3ea049ef	0.31306407
124	0x3e45987f	0.19296454
125	0x3daab727	0.08335715
126	0xbd8e4ee3	-0.0694864
127	0x3c8d948b	0.017282745
128	0x3e23ec88	0.16008198
129	0xbd8dcb53	-0.06923547
130	0x3cfbdea0	0.030745804
131	0x3c9cb32b	0.019128403
132	0xbd04ea30	-0.0324499
133	0x3ce0c4e0	0.027437627
134	0xbd974756	-0.07386653
135	0xbdb1a089	-0.08673198
136	0x3d8822ab	0.066472374
137	0x3d805980	0.06267071
138	0x3e27d9be	0.16391656
139	0x3dbf2602	0.09333421
140	0x3dfec53c	0.12439963
141	0x3f128574	0.57234883
142	0x3ccec8dc	0.025242262
143	0x3e124bef	0.14286779
144	0xbe091d1e	-0.13390014
145	0x3d318811	0.043342654
146	0x3ce13f83	0.027496105
147	0x3ca06977	0.01958154
148	0x3e90f397	0.28310844
149	0xbd8deeb6	-0.06930296
150	0xbe2eb3e3	-0.17060809
151	0x3e6d88ab	0.23196666
152	0x3d72d0f2	0.059281297
153	0xbe1c4ba1	-0.15263225
154	0x3ded5484	0.11588386
155	0x3d89bb09	0.06725127
156	0xbe8e18e8	-0.27753377
157	0x3e7f4b3d	0.24931045
158	0x3db16eac	0.08663687
159	0xbe685dd5	-0.22692044
160	0x3db931eb	0.09042724
161	0x3da0b99c	0.07847902
162	0x3d7c4426	0.06158843
163	0x3e036182	0.12830165
164	0x3d8ff683	0.0702944
165	0xbd90b4cb	-0.070657335
166	0xbdfab03e	-0.12240647
167	0xbda2c86b	-0.07948383
168	0xbdb403f3	-0.08789816
169	0xbd06e4c0	-0.032932997
170	0xbe1954ac	-0.14973706
171	0xbe4ad91c	-0.19809383
172	0x3e86729f	0.26259324
173	0xbc0301f8	-0.007996075
174	0xbe3c1931	-0.18368985
175	0x3eaf5752	0.34246308
176	0x3d0dc5ac	0.034612343
177	0xbf11580b	-0.5677497
178	0x3e1910f2	0.1494787
179	0x3d969f52	0.07354607
180	0xbc421a0d	-0.011847031
181	0x3dd018f0	0.101610065
182	0x3d20e877	0.039284196
183	0x3e0ccd08	0.13750088
184	0x3ec8b627	0.3920147
185	0xbd1e19e2	-0.038598903
186	0xbd8d7f42	-0.06909038
187	0x3cbc6c17	0.02300076
188	0xbdc7777f	-0.09739589
189	0xbd4a064b	-0.049322408
190	0x3e039e39	0.12853326
191	0x3dbe8e88	0.093045294
192	0xbd37430d	-0.04474168
193	0x3eadba2f	0.3393111
194	0x3ec523d8	0.3850391
195	0x3d556680	0.052099705
196	0x3e2aea8f	0.1669104
197	0x3df9029d	0.121587016
198	0x3dba685b	0.091019355
199	0xbd9f8710	-0.07789433
200	0x3def8788	0.116957724
201	0xbd06fdd0	-0.0329569
202	0xbdc03a73	-0.09386148
203	0xbd341346	-0.043963693
204	0xbda04263	-0.07825162
205	0xbd9a1de0	-0.075252295
206	0x3e289f13	0.16466932
207	0xbd84506b	-0.06460651
208	0x3ee0a0f6	0.43872803
209	0x3dbebc0e	0.09313212
210	0x3da23ecd	0.079221345
211	0x3eeadf49	0.45873478
212	0x3e9ae53c	0.30253017
213	0xbcc9efb8	-0.02465044
214	0xbe4b4e67	-0.19854127
215	0x3b8b6f74	0.0042552296
216	0xbc996185	-0.018723259
217	0xbe6ee4c7	-0.23329459
218	0xbe07ac0b	-0.13249223
219	0x3d4dde84	0.050261036
220	0xbe84ec6c	-0.25961626
221	0xbe596140	-0.21228504
222	0x3e518ce3	0.204639
223	0x3e145df8	0.14488971
224	0xbe00fc8d	-0.1259634
225	0xbc0a424f	-0.008438661
226	0xbe33d842	-0.17562965
227	0xbe35df91	-0.17761065
228	0x3e3b42df	0.18287228
229	0x3e4fb2fb	0.2028312
230	0xbe91cbc0	-0.2847576
231	0x3dade96c	0.08491787
232	0x3e71fa07	0.23630534
233	0xbd6d5740	-0.057944536
234	0x3e1f6c20	0.1556859
235	0xbb976a00	-0.0046207905
236	0x3d897823	0.067123674
237	0xbd3cd2f6	-0.046099626
238	0x3db69a5b	0.0891616
239	0xbdfca980	-0.12337017
240	0xbdcf81a8	-0.10132152
241	0xbe212692	-0.1573737
242	0x3e2642c6	0.1623641
243	0x3e144dc3	0.14482789
244	0xbec2bea4	-0.38036072
245	0xbea05831	-0.31317285
246	0x3e1788b3	0.1479824
247	0x3e39510b	0.18097322
248	0xbec22bca	-0.37924033
249	0xbc306357	-0.010765872
250	0x3f0c2799	0.5474792
251	0xbd23607b	-0.039886933
252	0x3d8c7091	0.06857408
253	0x3e491a3a	0.19638911
254	0x3b81da22	0.003962771
255	0x3e1d78cb	0.1537811

encoder.2.bias f4 [8]
0	0x3dc09330	0.09403074
1	0xbd0fdf48	-0.035125047
2	0xbc25def1	-0.010123954
3	0x3c85a0b8	0.016311988
4	0x38f07f80	0.000114678405
5	0xb9b7d04d	-0.00035059676
6	0xbbf45030	-0.007455848
7	0xbbb9f555	-0.005674998

encoder.4.weight f4 [16, 8, 3, 3]
0	0x3dfeb10e	0.12436114
1	0x3e3b0498	0.18263471
2	0xbf02f0bb	-0.51148576
3	0xbd975e58	-0.073910415
4	0xbeecdcb1	-0.46262124
5	0x3e2d89a8	0.16947043
6	0xbd3d256f	-0.046178278
7	0xbdf3b013	-0.11898818
8	0x3d9d7b27	0.07689505
9	0xbe8f325d	-0.27968112
10	0x3c556d2d	0.013026518
11	0x3e3d2228	0.18470061
12	0x3e8a398f	0.2699704
13	0x3f4789d3	0.7794468
14	0xbebaf74a	-0.36516792
15	0xbe1e8b51	-0.15482832
16	0xbe16f0b0	-0.14740252
17	0xbcec280a	-0.028827686
18	0xbd8a4564	-0.067515165
19	0x3d0bb623	0.034109246
20	0x3e3dcdaf	0.18535493
21	0xbd05a48c	-0.032627627
22	0x3eb2d378	0.34926963
23	0xbe4fdcb1	-0.20299031
24	0xbe2439fd	-0.16037746
25	0xbe02feb5	-0.12792476
26	0xbea5c0b1	-0.32373574
27	0xbe5ded4c	-0.21672553
28	0xbeda213a	-0.42603475
29	0x3eafb8b5	0.34320608
30	0x3d07c3a4	0.03314556
31	0x3d9d5d3a	0.07683797
32	0x3cd6835d	0.026185686
33	0xbe5581cb	-0.20850293
34	0x3cc67ea6	0.024230313
35	0xbb5ac5f1	-0.0033382142
36	0xbf01a168	-0.5063691
37	0xbf0967c4	-0.5367396
38	0x3d3cc440	0.046085596
39	0x3dbffcbb	0.093743764
40	0xbe3f4f9c	-0.18682712
41	0xbdf32c3c	-0.118736714
42	0xbdffc69e	-0.12489055
43	0x3de7b720	0.11314225
44	0xbccf4403	-0.025300985
45	0x3e45dfab	0.19323604
46	0xbe65ea81	-0.22452737
47	0x3dee15db	0.11625262
48	0xbe0d59d6	-0.13803801
49	0x3e4d90bf	0.20074748
50	0xbe41fedb	-0.18944876
51	0xbbe471aa	-0.0069715576
52	0x3d24fd66	0.040280722
53	0xbdc2e285	-0.095158614
54	0xbeb681ba	-0.3564585
55	0xbe22421b	-0.1584553
56	0x3ce6b08b	0.028160354
57	0x3e437104	0.19086081
58	0x3a55a455	0.00081497926
59	0xbe57151d	-0.21004148
60	0xbddb82c5	-0.10718302
61	0x3d84c75d	0.06483338
62	0xbe0a58d4	-0.13510448
63	0xbeee26e8	-0.46514058
64	0xbf06574b	-0.5247695
65	0x3ea3a34b	0.3196052
66	0x3e524ddf	0.20537518
67	0x3ea02971	0.31281617
68	0xbcdaf744	-0.026729234
69	0x3e69c953	0.22830705
70	0xbb95f04a	-0.004575764
71	0xbde1a784	-0.11018279
72	0x3d3298d4	0.04360278
73	0xbeab4fc6	-0.334593
74	0x3de806b7	0.11329406
75	0x3de642e9	0.11243231
76	0xbf15f0eb	-0.58570737
77	0x3e98408b	0.29736742
78	0x3ebe4074	0.3715855
79	0xbec045a3	-0.3755313
80	0xbd8bf0da	-0.06833048
81	0xbe8ad2ef	-0.27114055
82	0xbd69a5eb	-0.057042997
83	0xbecfc758	-0.40581775
84	0xbe83f3a9	-0.25771835
85	0xbda5d2f8	-0.0809688
86	0xbd1bfd0d	-0.038083125
87	0xbebe1ced	-0.37131444
88	0xbe6504cd	-0.22365113
89	0x3bd9cba8	0.006646592
90	0xbdcd8d1e	-0.100366816
91	0x3de60d38	0.1123299
92	0xbe74d5ac	-0.23909634
93	0x3d9ba2d2	0.07599415
94	0x3d6e1248	0.058122903
95	0xbe23367b	-0.15938751
96	0xbea8526c	-0.32875383
97	0x3dd5b12d	0.10434184
98	0x3d3478f3	0.04406066
99	0xbc8f21c9	-0.017472165
100	0x3e8cb8d5	0.27484766
101	0xbede3470	-0.43399382
102	0xbcfe8e35	-0.031073669
103	0x3e6abd9d	0.22923894
104	0xbdfdf73f	-0.12400674
105	0xbd11261e	-0.035436742
106	0xbeae5a8b	-0.34053454
107	0x3e283fb6	0.16430554
108	0x3d996729	0.07490379
109	0x3eb22f4f	0.3480172
110	0xbe682731	-0.226712
111	0xbe155471	-0.14582993
112	0x3f19c89a	0.6007172
113	0xbe92bf73	-0.2866169
114	0x3c96cfed	0.018409694
115	0xbe701b8d	-0.2344801
116	0x3e7779e1	0.24167587
117	0xbd64c2e3	-0.05584992
118	0xbdb4cee3	-0.08828523
119	0x3e3665fb	0.1781234
120	0x3cfed447	0.031107081
121	0xbd7dcc2e	-0.0619623
122	0xbdb9c713	-0.090711735
123	0xbe2dbfab	-0.16967647
124	0x3e7f72d1	0.24946143
125	0xbe23cac8	-0.15995324
126	0xbda51a71	-0.08061684
127	0x3dff7e26	0.12475233
128	0x3e4cfd35	0.20018466
129	0xbd8eef33	-0.069792174
130	0x3f03b41d	0.51446706
131	0xbe6ce0eb	-0.23132674
132	0xbdc206e6	-0.09473972
133	0x3d87c258	0.06628865
134	0x3bd777aa	0.0065755444
135	0xbd923d8e	-0.07140647
136	0xbcae7d6e	-0.021300044
137	0xbea04dec	-0.3130945
138	0xbe388eea	-0.18023267
139	0xbe1a816f	-0.15088437
140	0xbe52c46b	-0.2058274
141	0xbea7fb79	-0.32809046
142	0xbe2eed8e	-0.17082807
143	0xbdfdb1d1	-0.123874314
144	0xbd04fb42	-0.03246618
145	0xbdb57323	-0.08859851
146	0x3e0327ef	0.12808202
147	0x3e78d690	0.24300599
148	0xbeac402d	-0.33642712
149	0x3db78bb4	0.08962193
150	0x3debacff	0.11507606
151	0xbe8a2b1c	-0.26986015
152	0x3e91f40c	0.28506505
153	0xbdc055ba	-0.09391351
154	0x3de802e1	0.11328674
155	0x3bfe95e0	0.0077693313
156	0xbe43b9f2	-0.19113901
157	0x3d07ea3a	0.03318236
158	0x3ca5b73e	0.020228978
159	0x3e5cc5b8	0.21559799
160	0x3d9c3496	0.076272175
161	0xbe8bfac2	-0.2733975
162	0xbdb60c88	-0.08889109
163	0x3dc2a51d	0.09504149
164	0x3cfd9cae	0.0309585
165	0xbe24ba4d	-0.16086693
166	0x3edd0835	0.43170324
167	0x3c0a2eb0	0.008433983
168	0x3eb88199	0.36036375
169	0xbcf9cc1d	-0.030492837
170	0xbdbbf5cc	-0.091777414
171	0xbd08d89b	-0.033409696
172	0xbe1a5d52	-0.15074661
173	0xbd08bc6c	-0.033382818
174	0xbd2b2be5	-0.041789908
175	0xbdebd0fa	-0.115144685
176	0xbe67540e	-0.22590658
177	0x3e8bb9f7	0.27290317
178	0x3ed3bd2b	0.4135526
179	0xbe9af732	-0.3026672
180	0x3e090c92	0.13383701
181	0x3b814135	0.003944541
182	0xbbeb73ca	-0.007185434
183	0xbd06daef	-0.032923635
184	0xbe018ed2	-0.12652138
185	0xbd9bf4b1	-0.076150306
186	0x3e183053	0.14862184
187	0x3e1461fd	0.14490505
188	0xbe4b42ff	-0.19849776
189	0xbd3d2971	-0.0461821
190	0x3e2772ba	0.16352358
191	0xbd5d07c0	-0.05396247
192	0x3dd00d87	0.1015883
193	0x3edb1ced	0.42795506
194	0xbdf2dfdb	-0.11859103
195	0xbd96f824	-0.07371548
196	0xbdedf22b	-0.116184555
197	0x3dae121a	0.08499546
198	0xbd957ee6	-0.072995946
199	0x3e27189c	0.16317981
200	0xbe207812	-0.15670803
201	0xbe5543f5	-0.20826705
202	0x3d0cc1aa	0.03436438
203	0xbe21738a	-0.15766731
204	0x3e8aefa9	0.2713597
205	0xbdef263f	-0.11677217
206	0x3d42e4e1	0.047581557
207	0x3bae21bc	0.00531408
208	0xbd8b1146	-0.06790404
209	0xbe099f6b	-0.1343972
210	0x3d3989b1	0.04529733
211	0xbdbe2c0f	-0.09285747
212	0xbe7340cd	-0.23755188
213	0x3d565f8e	0.05233722
214	0x3e3cfdfb	0.18456261
215	0xbe16ac1c	-0.14714092
216	0xbc9ab126	-0.0188833
217	0x3eae4920	0.34040165
218	0x3ba96bbc	0.0051703136
219	0x3e30f34c	0.1728031
220	0xbea2bb42	-0.3178349
221	0xbd7c5e96	-0.06161364
222	0xbe20e258	-0.15711343
223	0xbda5f81c	-0.08103964
224	0x3ea60e80	0.32432938
225	0xbe2bcdd8	-0.16777742
226	0xbdd30e1d	-0.10305426
227	0x3df73bae	0.1207193
228	0x3d76dd68	0.060269743
229	0x3f02b36b	0.5105502
230	0x3dfec3d2	0.124396935
231	0xbcefa282	-0.029252294
232	0xbcc7c230	-0.024384588
233	0xbd904ec3	-0.070462726
234	0x3e3a3287	0.18183337
235	0xbe5c333c	-0.2150392
236	0x3e14bd30	0.14525294
237	0x3dcb6072	0.09930505
238	0x3e60658d	0.21913739
239	0xbe0abb02	-0.135479
240	0x3d58ff06	0.052977584
241	0xbea54ebc	-0.32286632
242	0xbd5b97ee	-0.05361169
243	0xbd877f9c	-0.066161364
244	0x3da455dc	0.08024189
245	0xbe472f15	-0.19451554
246	0xbe39953f	-0.18123339
247	0x3f164440	0.5869789
248	0xbc811dcc	-0.015761279
249	0xbdc0f9d2	-0.094226494
250	0x3e234e0b	0.1594774
251	0xbdd9d870	-0.10636985
252	0xbdb278f8	-0.08714479
253	0xbd17dc9e	-0.03707563
254	0xbde96400	-0.113960266
255	0xbe03fbb4	-0.12888986

encoder.4.bias f4 [16]
0	0x3dad6cb9	0.08468003
1	0x3d73b743	0.059500944
2	0x3a810f07	0.0009846397
3	0xbad6a319	-0.0016375511
4	0xbd4469ba	-0.04795239
5	0x3e1639b7	0.14670454
6	0x3db34571	0.08753479
7	0x3dae6d10	0.08516896
8	0x3d6e2ce2	0.058148272
9	0x3be0644e	0.0068478948
10	0x3dbaee66	0.09127502
11	0x3ceb424f	0.028718142
12	0x3de15739	0.110029645
13	0x3d4847fa	0.048896767
14	0xbc326ac8	-0.010889716
15	0xbb53a936	-0.0032296903

encoder.7.weight f4 [64, 400]
0	0xbcd5f674	-0.026118495
1	0xbe6a05bb	-0.22853749
2	0x3e07a45f	0.13246296
3	0xbd3bde9a	-0.045866586
4	0x3d38964d	0.045065213
5	0x3df39f4a	0.11895616
6	0x3ed7eac6	0.42171305
7	0xbe8cf6ca	-0.27532035
8	0xbd6c3861	-0.057670955
9	0xbe7156be	-0.23568246
10	0xbebc1907	-0.36737844
11	0x3dd6f865	0.10496596
12	0x3e6b87de	0.23001048
13	0x3e90c941	0.28278545
14	0xbe709bdf	-0.2349696
15	0x3cdfd3f9	0.027322756
16	0xbca96c3c	-0.020681493
17	0xbebbcca2	-0.3667956
18	0x3e8b8ffb	0.27258286
19	0x3e494456	0.19654974
20	0x3cc4f163	0.024040883
21	0xbf3a10f1	-0.726821
22	0x3d08c855	0.033394177
23	0xbdc4039f	-0.09571003
24	0x3e3458fc	0.1761207
25	0xbc113b52	-0.008864241
26	0x3e140997	0.14456783
27	0xbe81936b	-0.25307783
28	0x3e3e4533	0.18581085
29	0x3db3381a	0.08750935
30	0xbd0ca9a6	-0.034341477
31	0x3e5420bb	0.2071561
32	0xbe0e406e	-0.13891765
33	0xbe9f0220	-0.3105631
34	0xbe92d7bd	-0.2868022
35	0xbe2c6acb	-0.16837613
36	0x3e1e6f53	0.15472154
37	0xbe54c679	-0.20778836
38	0x3d76d92a	0.060265698
39	0xbe9f212b	-0.31079993
40	0x3ec7512c	0.38929117
41	0xbead1f2a	-0.3381284
42	0x3f02e023	0.51123255
43	0x3e02ed13	0.12785749
44	0xbe2b86fd	-0.16750713
45	0xbea4811c	-0.32129753
46	0x3e91169c	0.28337562
47	0xbe5f69e1	-0.21817733
48	0xbda91fe9	-0.082580395
49	0xba77e17f	-0.0009455904
50	0xbe83f5e2	-0.2577353
51	0x3da62052	0.08111633
52	0xbdf34002	-0.11877443
53	0xbeaa108b	-0.33215746
54	0x3cca1695	0.024668971
55	0xbe978d59	-0.29600027
56	0x3e96b436	0.29434365
57	0x3dcb6ea8	0.099332154
58	0xbe128bf2	-0.14311197
59	0xbd303bd2	-0.0430258
60	0x3e6d3a92	0.23166874
61	0xbe71de6e	-0.23620006
62	0x3c229c08	0.009924896
63	0x3e0e99b8	0.13925827
64	0xbe8f92de	-0.28041738
65	0xbb4cf191	-0.0031271914
66	0x3ee5a35a	0.4485119
67	0xbdf369db	-0.11885425
68	0x3e320a3c	0.17386717
69	0xbe51847c	-0.20460695
70	0xbe727069	-0.23675694
71	0xbf07cda2	-0.53048146
72	0x3e666d6b	0.22502677
73	0x3b2ce881	0.00263837
74	0x3e23f6da	0.16012135
75	0x3d9a0775	0.075209536
76	0xbdd3b812	-0.10337843
77	0x3e1e20ed	0.15442248
78	0xbcf7655f	-0.030199705
79	0x3cd095f1	0.025462123
80	0x3dee21a6	0.11627512
81	0xbd88eb6c	-0.06685528
82	0xbe43b251	-0.19110991
83	0xbeaa8627	-0.33305475
84	0x3d33c854	0.04389222
85	0x3ed3b6c7	0.41350386
86	0xbc1b40f7	-0.009475938
87	0x3e7145a8	0.23561728
88	0xbda16f76	-0.078825876
89	0xbe5fefff	-0.21868895
90	0xbe25c4cb	-0.16188352
91	0x3e478a24	0.1948629
92	0xbc845cae	-0.016157474
93	0xbca729f4	-0.020405747
94	0x3da49965	0.0803707
95	0xbc221958	-0.009893738
96	0xbec79036	-0.38977212
97	0x3db24477	0.08704465
98	0xbd935dd2	-0.07195629
99	0x3e3d77d1	0.18502738
100	0xbe745ba1	-0.23863079
101	0x3e538634	0.20656663
102	0x3cc4f4cb	0.024042508
103	0xbc89e38a	-0.016832132
104	0x3d359cfd	0.04433917
105	0xbeb1e5aa	-0.34745532
106	0xbd18198a	-0.03713373
107	0xbc40494e	-0.011736227
108	0x3d4a330f	0.0493651
109	0xbc009e5e	-0.007850258
110	0x3e70b544	0.23506647
111	0x3d097181	0.03355551
112	0xbe13c4e3	-0.14430575
113	0xbd3a8665	-0.045538325
114	0xbead297c	-0.33820713
115	0x3e962d93	0.29331645
116	0xbd3b896b	-0.04578535
117	0x3e016e7c	0.12639803
118	0x3ea5bd06	0.32370776
119	0x3e427386	0.18989381
120	0xbe0d0fc8	-0.13775551
121	0x3ea714ea	0.32633144
122	0xbe2b7aec	-0.1674611
123	0xbe3618ee	-0.17782947
124	0xbeac978b	-0.33709368
125	0xbdeaafab	-0.11459287
126	0x3cd7b041	0.026329162
127	0xbc886d07	-0.01665355
128	0x3e4464b8	0.19179046
129	0xbcced7d2	-0.025249396
130	0xbbe4df49	-0.0069846255
131	0xbebba65d	-0.36650363
132	0x3de2bc9b	0.1107113
133	0xbdd3778a	-0.10325535
134	0x3ddde021	0.10833765
135	0x3dfa3cab	0.12218603
136	0xbd1ff545	-0.039052267
137	0xbdf6b54a	-0.12046297
138	0xbe63ef21	-0.22259189
139	0xbd2b321f	-0.041795846
140	0x3d804eb9	0.06265015
141	0xbe3a02bf	-0.1816511
142	0x3efc0345	0.49221244
143	0xbe531f42	-0.20617393
144	0x3e8ef176	0.27918595
145	0xbe63cf31	-0.22247006
146	0x3f0db83d	0.5535925
147	0xbed9e883	-0.42560205
148	0x3ce14b6a	0.02750178
149	0xbe3ac4d6	-0.1823915
150	0x3d10b2c6	0.03532674
151	0xbd8752f5	-0.0660762
152	0x3d6def17	0.058089342
153	0x3e1d0f2a	0.15337816
154	0x3cdacaa6	0.026707958
155	0xbee6e460	-0.4509611
156	0xbe372b69	-0.17887653
157	0x3e4c1b1a	0.19932213
158	0x3ea017a2	0.3126803
159	0x3e925e5f	0.28587624
160	0x3db567b8	0.088576734
161	0xbe499ef7	-0.19689547
162	0x3d707968	0.058709532
163	0xbe41d3fe	-0.18928525
164	0xbd0c65b7	-0.03427669
165	0x3de880cb	0.1135269
166	0x3df2b083	0.11850073
167	0x3e250823	0.16116385
168	0xbebef106	-0.3729326
169	0x3ee0e1fd	0.43922415
170	0x3e07087b	0.13186829
171	0x3eeb178f	0.4591641
172	0xbd8532d3	-0.065038346
173	0x3e820dd2	0.2540117
174	0xbe1eae73	-0.15496235
175	0xbe549c1c	-0.20762676
176	0x3bdc5435	0.0067239054
177	0xbed0b013	-0.40759334
178	0x3c0c88e5	0.00857756
179	0x3e1ebaaa	0.15500894
180	0xbd854441	-0.06507159
181	0x3e77c754	0.24197131
182	0xbdf4f9c5	-0.11961702
183	0xbd4a55c4	-0.0493982
184	0x3b9cbd4d	0.0047833086
185	0xbd13fb76	-0.036128484
186	0xbe8246c0	-0.25444603
187	0xbeab5f2e	-0.33471054
188	0x3e8a6f7a	0.27038175
189	0x3c85b917	0.01632361
190	0xbdc32673	-0.09528818
191	0xbdfb3479	-0.12265868
192	0x3e6b5a25	0.22983606
193	0xbe64be2b	-0.22338168
194	0xbef24a1e	-0.47322172
195	0xbe7c812c	-0.2465865
196	0x3df04340	0.11731577
197	0xbe95b37a	-0.29238492
198	0x3dc50ee0	0.09621978
199	0x3e6e9ca1	0.23301937
200	0xbdb9c78e	-0.09071265
201	0x3e35ddfc	0.17760462
202	0x3e74e1e0	0.2391429
203	0xbd3253c0	-0.0435369
204	0xbd45a24e	-0.04825049
205	0xbdcdd95a	-0.10051222
206	0x3e94a859	0.2903469
207	0xbecdf8a1	-0.4022875
208	0xbdb9e907	-0.090776496
209	0xbcde43ab	-0.027131876
210	0x3e422dc3	0.18962769
211	0x3ef469e9	0.47737053
212	0xbd84826e	-0.0647019
213	0xbd5ceb4c	-0.053935334
214	0xbf020f9c	-0.5080507
215	0x3e91caf5	0.28475156
216	0xbd8659dc	-0.06560108
217	0x3dd56f1b	0.10421582
218	0xbe787f47	-0.24267302
219	0xbe9416e9	-0.2892373
220	0xbe0f0ccd	-0.13969727
221	0x3e830208	0.25587487
222	0x3de29ace	0.11064683
223	0x3d9304de	0.07178663
224	0x3ddf97c3	0.10917618
225	0xbd5a6a95	-0.0533243
226	0x3e552632	0.20815352
227	0xbde9555b	-0.113932334
228	0xbdf428b3	-0.11921825
229	0x3d0df098	0.034653276
230	0xbbc13f91	-0.0058974703
231	0x3db9c21f	0.09070229
232	0xbe26cd6d	-0.16289301
233	0xbd3c511a	-0.045975782
234	0xbe3fed43	-0.18742852
235	0x3e266ed1	0.1625321
236	0x3dd6baff	0.104848854
237	0x3d0851e7	0.033281233
238	0xbe070623	-0.13185935
239	0x3d7f2da0	0.06229937
240	0xbd256863	-0.040382754
241	0x3e100d7d	0.14067645
242	0xbe8953ed	-0.26821843
243	0x3eb9eb15	0.36312166
244	0xbe2ab653	-0.16671114
245	0xbe1cf990	-0.15329576
246	0xbe7e1925	-0.2481428
247	0x3e30720c	0.17231005
248	0xbdaf9c73	-0.08574762
249	0xbdd72b91	-0.105063565
250	0xbdd60483	-0.10450079
251	0x3d608c16	0.054821096
252	0xbe10837d	-0.14112659
253	0x3c937e2a	0.018004496
254	0xbd383e89	-0.044981513
255	0x3e97dd10	0.29660845

encoder.7.bias f4 [64]
0	0x3d54cd32	0.051953502
1	0xbb4c0898	-0.0031133052
2	0x3d214a1f	0.039377328
3	0xbe090b8f	-0.13383316
4	0xbcdb6f03	-0.026786333
5	0x3dfddfa0	0.12396169
6	0x3de0ed30	0.1098274
7	0x3d8bd7c1	0.06828261
8	0xbc8eb9be	-0.017422553
9	0x3d0defee	0.034652643
10	0x3dc12b81	0.09432126
11	0x3d621857	0.055198994
12	0x3d93916f	0.07205474
13	0xbd0b0345	-0.033938665
14	0x3debc035	0.1151127
15	0x3c761060	0.015018553
16	0x3ccaf525	0.024775097
17	0x3d617c2f	0.05505007
18	0x3d553e09	0.052061114
19	0xbd6feef3	-0.05857749
20	0xbcb6e5ef	-0.022326438
21	0x3d8872d3	0.06662526
22	0xbcd40c19	-0.025884675
23	0x3d093128	0.033494145
24	0xbc0728e2	-0.008249493
25	0x3da19e69	0.078915425
26	0xbc11a360	-0.008889049
27	0x3d3a5ac0	0.045496702
28	0x3e009dcd	0.12560196
29	0x3e08cc0b	0.13359086
30	0xbce1da20	-0.02756983
31	0xbe3dd4c3	-0.18538193
32	0xbd153042	-0.036422975
33	0x3d67e452	0.056614228
34	0xbdbe0789	-0.09278781
35	0xbb077917	-0.002067154
36	0xbcc4cbfc	-0.024023049
37	0x3bffd192	0.007806965
38	0x3d827371	0.06369675
39	0x3d84561b	0.06461736
40	0x3cb2b34f	0.021814017
41	0xbdce0ea1	-0.10061384
42	0xbd7bc63e	-0.061468355
43	0xbcdf135d	-0.027230913
44	0x3b94d303	0.004541756
45	0xbd61a82f	-0.055092033
46	0x3d58b75b	0.052909236
47	0x3e1260e1	0.14294769
48	0xbd9f593f	-0.07780694
49	0xbd274b3a	-0.040843226
50	0xbd0b6b61	-0.03403795
51	0x3db387ba	0.08766122
52	0xbc207e9c	-0.009795811
53	0xbc9f3755	-0.019435564
54	0x3d02cf01	0.031935696
55	0xbd951951	-0.07280219
56	0xbd1abadb	-0.037775856
57	0x3caf96a7	0.021434141
58	0xbc8445ff	-0.016146658
59	0xbe278990	-0.1636107
60	0xbc5aabf0	-0.013346657
61	0x3e9264ac	0.28592432
62	0x3dad0fd9	0.08450288
63	0xbc8eaa56	-0.017415207

decoder.0.weight f4 [400, 64]
0	0x3e9b948d	0.30386773
1	0x3ed0838f	0.4072537
2	0xbf0bb535	-0.54573375
3	0xbd0c55dd	-0.034261573
4	0xbe1ee3f6	-0.15516648
5	0x3d0da598	0.03458175
6	0xbe116afe	-0.1420097
7	0x3ba6b203	0.0050871386
8	0xbd044e6f	-0.032301363
9	0x3e5374e5	0.2065006
10	0xbec13bf9	-0.37741068
11	0x3e26a70c	0.16274661
12	0x3d263cab	0.0405852
13	0x3e313cb4	0.17308313
14	0xbe8e1046	-0.2774679
15	0x3e2b7730	0.16744685
16	0x3ee24148	0.4419043
17	0xbeda63eb	-0.42654356
18	0xbe692716	-0.22768816
19	0xbe850e23	-0.25987348
20	0xbe167bd8	-0.1469568
21	0xbd3c562a	-0.04598061
22	0x3ccd1692	0.025035176
23	0xbe276409	-0.16346754
24	0xbe1afc14	-0.15135223
25	0xbe1013cc	-0.14070052
26	0x3e35490c	0.17703646
27	0x3e66ccce	0.22539064
28	0x3ad30c21	0.0016101637
29	0xbe860e1d	-0.26182643
30	0xbdc2fbe4	-0.095207006
31	0xbdf42260	-0.11920619
32	0xbe01575c	-0.12630981
33	0xbe505ca7	-0.20347844
34	0xbd8ad1a5	-0.06778268
35	0x3e0460c7	0.12927543
36	0xbb8a8653	-0.0042274385
37	0x3d9a7d1d	0.07543395
38	0xbe51f0c6	-0.20502004
39	0xbeac0944	-0.3360082
40	0xbe86c8b2	-0.26324993
41	0xbe6fd44c	-0.23420829
42	0x3f034456	0.5127615
43	0x3dd27fb4	0.10278264
44	0xbd92df3f	-0.07171487
45	0xbee474af	-0.44620273
46	0xbeb50481	-0.35355
47	0x3d690bf7	0.056896176
48	0x3e193c2c	0.1496436
49	0x3e834e96	0.25645894
50	0xbe835157	-0.25647995
51	0xbcef2d43	-0.029196387
52	0x3dc01a19	0.09379978
53	0xbdffcbf8	-0.12490076
54	0x3d464333	0.04840393
55	0x3e5462b5	0.20740779
56	0xbea70baf	-0.326261
57	0xbea18658	-0.3154781
58	0xbe9fe38e	-0.31228298
59	0x3f0b56b0	0.5442915
60	0x3e25484a	0.16140857
61	0x3e55e56d	0.208883
62	0x3da75c34	0.08171883
63	0x3da42791	0.08015359
64	0x3d7523ca	0.059848584
65	0x3e25de6f	0.16198133
66	0xbe6ff061	-0.23431541
67	0xbe1a0d8b	-0.15044229
68	0x3eae0bdb	0.3399342
69	0x3e9dbe1a	0.30809098
70	0x3f0727d7	0.52795166
71	0xbd8936fd	-0.06699941
72	0x3e699852	0.22812012
73	0xbec44667	-0.38334963
74	0x3da5495b	0.08070632
75	0xbe6b982d	-0.23007269
76	0xbdbf5713	-0.0934278
77	0xbd92fdec	-0.07177338
78	0xbe4d1af6	-0.20029816
79	0xbf17d923	-0.593157
80	0x3d81dc2e	0.06340824
81	0xbdffaa25	-0.12483624
82	0xbd924dc8	-0.07143742
83	0xbe6fdf24	-0.23424965
84	0x3ecbdfd0	0.39819193
85	0xbf06ed06	-0.5270542
86	0xbc78987f	-0.015173077
87	0x3e95d318	0.29262614
88	0x3e5e0cdd	0.21684594
89	0x3da569da	0.0807683
90	0xbf5e254c	-0.8677566
91	0xbe1eb221	-0.15497638
92	0x3e2ec9ba	0.1706914
93	0xbec9023f	-0.39259526
94	0xbe7ac9d1	-0.2449105
95	0x3dafefeb	0.085906826
96	0xbd99664e	-0.07490216
97	0x3e4a2ec8	0.19744408
98	0x3e09902b	0.13433902
99	0x3d9aaad8	0.07552117
100	0xbe644e7e	-0.22295567
101	0x3e9f3ab4	0.31099474
102	0x3ad77837	0.0016439025
103	0x3e4e360e	0.20137808
104	0x3e08099b	0.13284914
105	0x3e8b4002	0.27197272
106	0x3ed65846	0.41864222
107	0x3dabdd08	0.08391768
108	0xbe2647f0	-0.1623838
109	0x3e4d9482	0.20076182
110	0x3e912e7d	0.2835578
111	0xbe7ac61a	-0.24489632
112	0x3e82d197	0.2555053
113	0x3e2c63fc	0.16835016
114	0xbdde3bdd	-0.10851262
115	0x3efeaaee	0.49739784
116	0xbcd6a472	-0.02620146
117	0x3dbfe013	0.09368911
118	0xbf018234	-0.505893
119	0x3e952f02	0.29137427
120	0x3e933026	0.28747672
121	0x3de31d28	0.110895455
122	0xbe0ec5fe	-0.13942716
123	0x3cd3367e	0.02578282
124	0x3ed631f5	0.4183499
125	0xbed91075	-0.42395368
126	0x3e9184df	0.28421685
127	0xbe834adf	-0.2564306
128	0xbd0b7467	-0.034046557
129	0xbecb275b	-0.39678463
130	0x3dd5a33a	0.104315236
131	0x3dc7848b	0.097420774
132	0x3edd7d5f	0.43259713
133	0x3e41c2c6	0.18921956
134	0xbe652cd4	-0.22380382
135	0x3e25e676	0.16201195
136	0xbe16ddd7	-0.14733063
137	0x3e24c16b	0.16089408
138	0x3d3de07b	0.04635666
139	0xbe661925	-0.2247053
140	0xbdb79058	-0.08963078
141	0xbe9f7754	-0.31145728
142	0xbed33890	-0.4125409
143	0x3e431bf1	0.19053628
144	0x3d94845a	0.072518066
145	0xbe83f8c5	-0.25775734
146	0xbdf4aa73	-0.11946573
147	0x3e74a62d	0.23891516
148	0xbe580eae	-0.2109935
149	0xbeb41f01	-0.35179904
150	0xbe875dc5	-0.26438728
151	0x3ec8c4c3	0.39212617
152	0x3e8afcb7	0.2714593
153	0xbed0ad04	-0.40757
154	0x3e23b3e1	0.15986587
155	0x3e95b6d1	0.2924104
156	0xbd4cb7e0	-0.049980044
157	0x3d40d606	0.04707911
158	0x3db904d1	0.09034122
159	0x3e831596	0.25602406
160	0xbd7f503b	-0.062332373
161	0xbe8483e4	-0.25881875
162	0xbe325912	-0.1741679
163	0xbe1e11cf	-0.15436481
164	0x3dcff32e	0.10153805
165	0x3ccd85f5	0.02508829
166	0x3dda1d5a	0.106501296
167	0xbd954d7b	-0.07290169
168	0xbedae6e1	-0.42754272
169	0xbd448dc3	-0.047986757
170	0xbe2dc3f0	-0.16969275
171	0x3e5dac29	0.21647705
172	0xbeef7170	-0.46766233
173	0x3d882583	0.0664778
174	0x3a6e81a6	0.00090982986
175	0x3c5c63da	0.013451541
176	0x3ea4cdf6	0.32188386
177	0xbd246c95	-0.040142614
178	0xbe6345ae	-0.2219455
179	0xbe6b467c	-0.22976106
180	0xbdf85221	-0.1212504
181	0xbecb8e00	-0.39756775
182	0x3e99f4b6	0.30069512
183	0xbe1dde2e	-0.15416786
184	0xbc612ceb	-0.013743619
185	0x3c1859bb	0.009298737
186	0xbe89f328	-0.26943326
187	0xbeefb772	-0.46819645
188	0xbeae4239	-0.340349
189	0xbe047ae1	-0.129375
190	0xbe2f018c	-0.17090434
191	0xbe56e6b1	-0.2098644
192	0x3ecd523a	0.40101796
193	0x3e2f709c	0.17132801
194	0x3e9f30e1	0.3109198
195	0xbee0cca2	-0.43906122
196	0xbf4ae1d7	-0.79250854
197	0x3e4e6ded	0.20159121
198	0xbe115279	-0.14191617
199	0x3dd1b682	0.10239889
200	0x3e755819	0.23959388
201	0x3dd0e784	0.10200408
202	0x3f01b495	0.5066617
203	0xbe35cdfe	-0.17754361
204	0xbd5bd6a0	-0.05367148
205	0x3ec66ec4	0.38756382
206	0x3e6d452a	0.23170915
207	0xbd9a3277	-0.07529157
208	0x3e216634	0.15761644
209	0x3f09d9d5	0.5384801
210	0x3d9b43f8	0.075813234
211	0xbee99dc8	-0.4562819
212	0xbc3ca2e8	-0.011513449
213	0x3e5fd254	0.21857578
214	0x3ea8f142	0.32996565
215	0xbef3330c	-0.47499883
216	0x3e4c115a	0.19928494
217	0x3d4eae45	0.050459165
218	0xbf23bd65	-0.6396087
219	0xbe8c313b	-0.2738131
220	0xbcadb6b2	-0.02120528
221	0x3dbfbd79	0.09362311
222	0x3d6a1440	0.05714822
223	0xbcd730e4	-0.02626843
224	0xbe59c474	-0.21266347
225	0x3de67940	0.11253595
226	0xbe7683d9	-0.24073733
227	0xbe1a4c33	-0.1506813
228	0x3e94d39f	0.29067704
229	0xbee451f1	-0.44593766
230	0xbe8ed22b	-0.2789472
231	0x3d9d97c5	0.07694963
232	0x3eb61e8d	0.35570183
233	0xbdb2c700	-0.087293625
234	0x3d322c92	0.043499537
235	0x3cf80978	0.030277953
236	0x3e896c2c	0.2684034
237	0x3b2022e0	0.002443485
238	0xbecde597	-0.40214226
239	0x3a0c9442	0.00053626683
240	0x3eb5e876	0.35528916
241	0x3d8fc602	0.07020189
242	0x3d3637f8	0.04448697
243	0x3dda2861	0.10652233
244	0x3ec214d3	0.37906513
245	0x3edb7be5	0.42867962
246	0x3e91bcdb	0.28464398
247	0x3e1a3094	0.15057594
248	0xbe9abb08	-0.3022082
249	0xbe185f0f	-0.14880012
250	0xbe496c69	-0.19670261
251	0x3e1a1c96	0.15049967
252	0x3f269a74	0.65079427
253	0x3b4c0708	0.003113212
254	0x3db7f45d	0.089821555
255	0x3d080930	0.033211887

decoder.0.bias f4 [400]
0	0x3db9a30d	0.090643026
1	0x3eeab368	0.4584
2	0x3ef01273	0.46889076
3	0x3e80b424	0.25137436
4	0x3e67afa1	0.22625591
5	0x3e1f8ebc	0.15581793
6	0x3eb5f87c	0.3554114
7	0x3ecc7a88	0.39937234
8	0xbe6f8e24	-0.23394066
9	0x3f0244d5	0.5088628
10	0x3ee1135f	0.4396009
11	0x3ec515bb	0.38493142
12	0x3e687aa3	0.22703032
13	0x3e45739a	0.1928238
14	0x3e78e311	0.24305369
15	0x3e51a619	0.20473517
16	0x3ea88574	0.32914317
17	0x3e12501d	0.14288373
18	0x3ec67a54	0.38765204
19	0x3ed3e9e3	0.4138938
20	0x3da1f8bb	0.0790877
21	0x3dfb829c	0.12280771
22	0x3ef7cec1	0.48399928
23	0x3ed080ec	0.4072336
24	0x3ed1f35e	0.41005987
25	0x3e8d5d59	0.2761028
26	0xbbc811ff	-0.006105661
27	0x3eb6e7d0	0.35723734
28	0x3f10d28e	0.5657128
29	0xbc649d2e	-0.01395349
30	0x3f5e56f4	0.8685143
31	0x3e5ead2b	0.21745746
32	0x3ee2ff32	0.44335324
33	0x3ec6d674	0.3883549
34	0x3ebf4f29	0.37365082
35	0x3edce332	0.43142086
36	0x3e20f3ba	0.15717974
37	0x3ebb86e1	0.36626342
38	0x3ed35075	0.4127232
39	0x3f10c69a	0.5655304
40	0x3ed2f2f2	0.41200978
41	0x3e6fec04	0.23429877
42	0x3eaa2c1b	0.33236775
43	0x3e04939c	0.12946934
44	0x3e80bde4	0.25144875
45	0x3eaba4e9	0.33524254
46	0x3e8e1e1a	0.2775734
47	0x3ed7a98d	0.42121544
48	0x3edf7a7c	0.43648136
49	0x3e9d8176	0.30762833
50	0xbe878ea5	-0.26476017
51	0xbb8f5b6a	-0.004374911
52	0x3ee442db	0.44582257
53	0x3dd3ff69	0.1035145
54	0x3d01d82e	0.031700306
55	0x3ebb9e2c	0.36644113
56	0x3ca68ac8	0.020329848
57	0xbd81060c	-0.062999815
58	0x3e679b38	0.22617805
59	0x3e335292	0.17511967
60	0x3f083d44	0.53218484
61	0xbdc6bd35	-0.09704057
62	0xbe0af3e6	-0.13569602
63	0xbd23240d	-0.039829303
64	0x3daadbc4	0.08342698
65	0xbe5fc945	-0.21854122
66	0x3eb4a0b1	0.35278848
67	0xbe8802cd	-0.26564637
68	0x3da12c95	0.078698315
69	0xbd828f10	-0.06374943
70	0x3ed4a8fb	0.41535172
71	0x3efe9573	0.49723396
72	0x3d053a88	0.032526523
73	0x3d60a635	0.054846007
74	0xbdce78ba	-0.100816205
75	0x3e752d0a	0.23942962
76	0x3edc662e	0.43046707
77	0x3f0a45c9	0.54012734
78	0x3e8c3663	0.27385244
79	0x3ece68d5	0.40314355
80	0x3f0245ac	0.5088756
81	0x3e3d5f0d	0.1849329
82	0x3f0308a8	0.51185083
83	0x3ed3d98a	0.41376907
84	0x3edefaa2	0.43550593
85	0x3ebd83ce	0.37014621
86	0x3ea0c11a	0.31397325
87	0x3ea5a397	0.32351372
88	0x3e6a392c	0.22873372
89	0x3ea706ba	0.3262232
90	0x3e79a4fc	0.24379343
91	0x3e97390a	0.29535705
92	0x3e3087bb	0.17239277
93	0x3eebaaef	0.4602885
94	0x3ea44d6d	0.3209032
95	0xbf15c640	-0.5850563
96	0x3e8efa59	0.27925375
97	0x3eb108bb	0.34576973
98	0x3ed237a6	0.4105808
99	0x3d9328e5	0.071855344
100	0xbf22e742	-0.6363412
101	0x3e6426e9	0.22280468
102	0xbda8c398	-0.082404315
103	0x3e375eaf	0.17907213
104	0x3e7933cd	0.24336167
105	0x3e4d577e	0.20052907
106	0xbe345bd5	-0.17613156
107	0x3d2e45ee	0.04254716
108	0x3adb2c70	0.0016721617
109	0xbde9406f	-0.11389243
110	0x3d94ea5e	0.072712645
111	0xbddf4cec	-0.109033436
112	0x3d01afdb	0.03166185
113	0xbe13788d	-0.14401455
114	0x3d23f567	0.040028956
115	0x3ebd04eb	0.36917815
116	0x3e15b7bd	0.14620872
117	0x3e91f596	0.2850768
118	0x3d9a1ca5	0.07524995
119	0x3e8d6885	0.27618805
120	0x3f32e8a1	0.69886214
121	0x3ee6e4ef	0.45096537
122	0x3ede6b96	0.43441457
123	0x3ef3f91b	0.4765099
124	0x3f8a6f9f	1.0815314
125	0xbe65ce56	-0.22441992
126	0x3ea2e4bb	0.31815132
127	0x3ea2e532	0.31815487
128	0x3eefd358	0.4684093
129	0xbd266e7d	-0.040632714
130	0x3e4a66d2	0.19765785
131	0xbcadce66	-0.021216583
132	0x3d93312c	0.07187113
133	0x3debeeb5	0.11520139
134	0xbd7dd619	-0.061971758
135	0x3ec2a533	0.38016662
136	0x3e246cf7	0.16057192
137	0x3d820216	0.06348054
138	0x3c09a32b	0.008400719
139	0x3e28fac2	0.16501907
140	0xbe403579	-0.18770398
141	0xbd545786	-0.05184128
142	0x3d65e867	0.05612984
143	0x3da9673e	0.08271645
144	0x3e005520	0.12532473
145	0x3c06a365	0.008217667
146	0x3e3a17b8	0.1817311
147	0x3e8704d8	0.26370883
148	0x3e2bb84e	0.16769525
149	0x3ebf05e1	0.37309173
150	0x3c48daa1	0.012259156
151	0x3e18c709	0.14919676
152	0xbc7ea62e	-0.01554255
153	0xbd18be59	-0.037290905
154	0x3d96933a	0.073523
155	0xbdf5f5d1	-0.120097764
156	0x3d25eb74	0.04050775
157	0xbd9a8b3a	-0.075460866
158	0x3d18acb4	0.037274078
159	0x3e5a1458	0.21296823
160	0x3d36d638	0.04463789
161	0xbd879357	-0.066199
162	0x3b3ce68d	0.0028823942
163	0xbc78ac4a	-0.015177796
164	0xbe89a286	-0.26881808
165	0xbd2812e4	-0.04103364
166	0x3e5b741d	0.21431012
167	0xbd223050	-0.039596856
168	0x3d597e67	0.053099062
169	0x3d5637c7	0.052299287
170	0x3e08de6a	0.13366094
171	0x3e00129a	0.12507096
172	0x3d0a2288	0.033724338
173	0xbcd2fc25	-0.025754998
174	0x3dc0af3f	0.094084255
175	0x3e4025d0	0.18764424
176	0x3eeb14d2	0.45914322
177	0x3eb43eda	0.35204202
178	0x3f071ae7	0.52775425
179	0x3f140265	0.57816154
180	0x3ec36eff	0.3817062
181	0x3f08e1c1	0.53469473
182	0x3f2903e0	0.6602154
183	0x3f1efd13	0.6210491
184	0x3e920da8	0.28526044
185	0x3ef5496f	0.47907588
186	0x3f255cd1	0.6459475
187	0x3f017150	0.50563526
188	0x3eaf6bc4	0.34261906
189	0x3ee95fb7	0.45580837
190	0x3ee80727	0.45317957
191	0x3f079427	0.5296044
192	0x3f143c5c	0.579046
193	0x3f15ea73	0.58560866
194	0x3eafa361	0.34304336
195	0x3edd022b	0.43165717
196	0x3e7d003a	0.24707118
197	0x3e739144	0.23785883
198	0x3e917360	0.28408337
199	0x3f01128d	0.5041893
200	0xbe3440d3	-0.17602853
201	0x3f16ad71	0.588584
202	0x3e34bd5d	0.17650361
203	0x3e6713cc	0.22566146
204	0x3f8eecfc	1.1166072
205	0x3e24fe19	0.16112556
206	0x3eed31fc	0.46327198
207	0x3e6ed8aa	0.23324838
208	0x3e9b9cdc	0.30393112
209	0x3ecb7015	0.3973395
210	0x3e9ce81b	0.30645832
211	0x3e70ee42	0.23528388
212	0x3e010867	0.12600861
213	0x3e53c3a9	0.20680107
214	0x3efc06fe	0.49224085
215	0x3eac4183	0.3364373
216	0x3eb25a97	0.3483474
217	0x3e600ca0	0.21879816
218	0x3e864f68	0.26232457
219	0x3ed4165f	0.41423318
220	0x3ea6768a	0.32512313
221	0x3e3311d6	0.17487273
222	0x3e589ff7	0.21154772
223	0x3ed39c81	0.4133034
224	0x3daa1187	0.08304124
225	0xbdf5a402	-0.11994173
226	0x3df06558	0.1173808
227	0xbde3a6bd	-0.11115787
228	0x3ebb4278	0.3657415
229	0x3e3c05d9	0.18361606
230	0xbe6540f9	-0.22388066
231	0x3d15bde7	0.036558058
232	0x3e0d6092	0.1380637
233	0xbcfc2e9d	-0.030783946
234	0x3f10d39a	0.5657288
235	0x3c66cb3e	0.014086543
236	0xbd3075ba	-0.043081023
237	0x3c93135b	0.017953565
238	0x3dedd7c3	0.11613419
239	0x3eedb080	0.4642372
240	0xbe0ef343	-0.13959984
241	0x3ec06092	0.37573677
242	0x3e24e383	0.16102414
243	0x3d00d216	0.031450354
244	0x3ec1f74d	0.37883988
245	0xbe105d69	-0.14098133
246	0x3f0b3f8d	0.54393846
247	0xbec340a3	-0.3813525
248	0x3d0b8e7a	0.034071423
249	0xbed6f315	-0.41982332
250	0x3e4dc985	0.20096405
251	0x3ed97553	0.42472324
252	0x3f1c8a2e	0.61148345
253	0x3ef07bbf	0.4696941
254	0x3f567fcb	0.83788747
255	0x3f039907	0.51405376

decoder.3.weight f4 [16, 8, 3, 3]
0	0x3e54dd15	0.20787461
1	0xbdeacf0d	-0.11465273
2	0xbdee495e	-0.116350874
3	0x3df227e6	0.11824016
4	0x3e8180f2	0.2529369
5	0xbe484a6c	-0.1955964
6	0xbe9ae3e8	-0.30252004
7	0x3dace145	0.08441404
8	0x3e87036a	0.26369792
9	0x3dc1b3ac	0.09458098
10	0xbeb238c1	-0.34808925
11	0xbe9f2086	-0.310795
12	0x3da6d307	0.08145719
13	0x3ea58735	0.32329717
14	0xbe815af5	-0.25264707
15	0xbe8b0712	-0.27153832
16	0x3e3f2cfa	0.18669501
17	0x3e93a3ee	0.28836006
18	0x3e5bea35	0.21476062
19	0x3d84d5df	0.06486105
20	0xbbf2f006	-0.007413867
21	0xbe149c70	-0.14512801
22	0xbf4fb6b5	-0.81138164
23	0xbdb7ca92	-0.08974184
24	0x3e3a1f4f	0.18176006
25	0x3c330af6	0.010927906
26	0x3d5a2707	0.053259876
27	0x3dae37a9	0.0850671
28	0x3e2c2bd0	0.16813588
29	0xbec37761	-0.38177016
30	0x3d860e7c	0.065457314
31	0xbc09c481	-0.008408667
32	0x3d05d9a7	0.032678273
33	0xbd975ff3	-0.07391348
34	0x3e653688	0.22384083
35	0x3e59e7ec	0.21279877
36	0x3db02f13	0.08602729
37	0x3de2af7a	0.11068626
38	0xbef45cd5	-0.47727075
39	0x3dcf4afc	0.10121724
40	0xbe080560	-0.132833
41	0x3ca553f6	0.020181637
42	0x3dfbe2b0	0.122990966
43	0xbe353332	-0.1769531
44	0xbcd2e9f0	-0.025746316
45	0x3e8d1bbd	0.27560225
46	0xbe0b3d14	-0.13597518
47	0xbec29bae	-0.380094
48	0x3e123977	0.14279734
49	0xbec94d4a	-0.3931678
50	0xbefbc2fb	-0.49172196
51	0x3da7eb50	0.08199179
52	0x3cc174f8	0.023615345
53	0x3e16ef26	0.14739665
54	0x3e1b0370	0.1513803
55	0xbdfcd148	-0.12344605
56	0x3dc38854	0.09547487
57	0x3d6a0658	0.057134956
58	0xbe3135f6	-0.1730574
59	0xbe2fabe0	-0.17155409
60	0xbd6a7bd9	-0.057247017
61	0x3e650b60	0.2236762
62	0x3e0878d1	0.13327338
63	0x3ec9fb53	0.39449558
64	0xbf0ca24c	-0.54935145
65	0xbddb0dbf	-0.10695981
66	0x3e6fdfa1	0.23425151
67	0xbe9824e7	-0.29715654
68	0xbea91d9c	-0.33030403
69	0xbd85d3b7	-0.06534522
70	0x3e9e9f29	0.30980805
71	0x3e45897a	0.19290724
72	0xbe57f161	-0.21088172
73	0x3e5aa068	0.21350253
74	0x3eee7162	0.4657088
75	0xbecfd52e	-0.4059233
76	0xbe8e7aba	-0.27828008
77	0xbdbcf9c2	-0.09227325
78	0xbdfc742d	-0.12326846
79	0xbbf1d88d	-0.007380551
80	0xbe027b51	-0.12742354
81	0xbe8f2b0c	-0.2796253
82	0x3e945aa1	0.28975394
83	0x3e9a8f5d	0.30187503
84	0xbdca317f	-0.09872722
85	0xbed012cc	-0.4063934
86	0xbd815075	-0.06314174
87	0x3d1b46f3	0.03790946
88	0xbdfa25cf	-0.12214243
89	0x3cdba529	0.026812153
90	0x3eca38a2	0.39496332
91	0x3e2ce8b3	0.16885643
92	0xbe9d6948	-0.30744386
93	0xbdc90629	-0.09815628
94	0x3e8c2d51	0.27378324
95	0xbc8db1ac	-0.017296635
96	0xbe3027ac	-0.17202634
97	0xbd38607e	-0.045013897
98	0x3c6aa614	0.014321823
99	0x3c8867f0	0.016651124
100	0x3eeca530	0.46219778
101	0x3da03acf	0.07823717
102	0x3e1fd072	0.1560686
103	0xbf2fb651	-0.6863757
104	0xbe952746	-0.29131526
105	0x3d96ced5	0.07363669
106	0xbbb3968a	-0.005480592
107	0xbbebaa41	-0.0071919267
108	0x3d5e0f05	0.054213542
109	0xbb7a5274	-0.0038196119
110	0x3e3d98f9	0.18515386
111	0xbe358df7	-0.17729937
112	0x3e36452c	0.17799824
113	0xbe699188	-0.22809422
114	0xbe265322	-0.1624265
115	0xbe5fe6ec	-0.21865433
116	0xbdf5b1dc	-0.119968146
117	0x3e864eea	0.26232082
118	0x3e9e04df	0.3086309
119	0x3ea7351e	0.32657713
120	0xbea39910	-0.31952715
121	0xbc9edb7d	-0.01939177
122	0xbdb81eed	-0.089902736
123	0xbe5cbcbc	-0.21556371
124	0xbe4d94ce	-0.20076296
125	0xbe312b6a	-0.17301717
126	0x3dbe09f5	0.09279243
127	0x3ede42b1	0.43410257
128	0x3e83fdec	0.25779665
129	0xbe04a44e	-0.12953302
130	0x3ccd4e74	0.025061823
131	0xbc300d73	-0.010745394
132	0xbdd33e0d	-0.103145696
133	0xbda03677	-0.07822888
134	0xbe067ca6	-0.13133487
135	0x3d99060c	0.074718565
136	0x3efcbe91	0.4936414
137	0x3d80b21d	0.062839724
138	0xbf0d01d7	-0.5508093
139	0x3dd98b2e	0.106222495
140	0xbd8546fc	-0.0650768
141	0xbdc79e5c	-0.097470015
142	0xbdeb5bc8	-0.11492115
143	0xbd6830c6	-0.05668714
144	0xbdb6adc2	-0.089198604
145	0x3e5eddf5	0.21764357
146	0xbd455024	-0.04817213
147	0xbe1d3698	-0.15352857
148	0x3e9d26f7	0.3069379
149	0x3c10cb18	0.008837484
150	0xbe980d18	-0.2969749
151	0xbe21b9ba	-0.15793505
152	0x3dcc4e97	0.09975927
153	0xbddb1fab	-0.106993996
154	0xbed19c57	-0.4093959
155	0x3d500113	0.050782274
156	0x3ebe89cf	0.37214515
157	0x3d5b4ff6	0.053543054
158	0xbd93cc8c	-0.072167486
159	0x3d2298a2	0.039696343
160	0x3cdc9f1a	0.026931334
161	0xbd39abf7	-0.045330014
162	0xbcf736f9	-0.03017758
163	0x3e3d686e	0.18496868
164	0x3d955e90	0.07293427
165	0x3b6daa6e	0.0036264914
166	0x3dc51292	0.09622683
167	0xbd822497	-0.06354635
168	0xbe3d1a0b	-0.18466966
169	0xbe9d67e6	-0.3074333
170	0xbcc4cc1d	-0.02402311
171	0xbd8582dc	-0.065191
172	0xbd566096	-0.052338205
173	0xbe425b93	-0.18980245
174	0x3e3ddaf4	0.18540555
175	0x3edf5410	0.43618822
176	0xbe2d6958	-0.16934717
177	0x3ce0a92e	0.027424421
178	0xbf02e314	-0.51127744
179	0xbdce4310	-0.10071385
180	0x3e31b47b	0.17354004
181	0xbe106d3a	-0.14104167
182	0xbe687b93	-0.2270339
183	0x3e3e472b	0.18581836
184	0x3e32c6f6	0.1745871
185	0xbe8bb336	-0.27285165
186	0xbe63c8c7	-0.22244559
187	0x3e80f4b7	0.25186703
188	0x3d55f85e	0.052238815
189	0xbd106642	-0.03525377
190	0xbe86e68b	-0.26347765
191	0xbe8081dc	-0.25099075
192	0x3e56e696	0.20986399
193	0x3f0a56a6	0.54038465
194	0x3d216e30	0.039411724
195	0xbecb7fa0	-0.39745808
196	0x3cadb283	0.021203285
197	0x3de9e1ae	0.11419998
198	0xbe0edd2d	-0.1395156
199	0xbe27fd39	-0.1640519
200	0xbdc1e9c3	-0.09468415
201	0x3dd3035d	0.10303376
202	0x3e7dc0e3	0.24780612
203	0xbcb3621a	-0.021897364
204	0xbe481497	-0.19539104
205	0xbcdedafa	-0.027204026
206	0x3dfcb759	0.12339658
207	0xbe220e1e	-0.15825698
208	0xbdc6ba97	-0.09703558
209	0xbe114688	-0.14187062
210	0x3e3e14ad	0.18562575
211	0x3ebb318c	0.3656124
212	0xbd5e97b8	-0.05434391
213	0xbed71b9b	-0.4201325
214	0xbceae438	-0.028673276
215	0x3de402f8	0.11133379
216	0xbe394b25	-0.18095072
217	0xbbe1458e	-0.0068747466
218	0xbe9021c6	-0.28150767
219	0x3ceff734	0.02929268
220	0x3f11949d	0.5686739
221	0xbaf2dff2	-0.0018529876
222	0xbe164dc3	-0.14678101
223	0x3edc20d7	0.42993805
224	0xbe5fecd6	-0.2186769
225	0xbe2bccd9	-0.16777362
226	0xbc112cd1	-0.008860783
227	0xbe9ee460	-0.3103361
228	0x3de53b33	0.11192932
229	0x3f0dd352	0.55400574
230	0xbe93ca23	-0.28865156
231	0xbe7370f7	-0.23773561
232	0xbe304598	-0.17214048
233	0xbe0e1901	-0.13876726
234	0x3bbc2f1c	0.0057429206
235	0x3cfc12a5	0.03077061
236	0xbdee6efb	-0.116422616
237	0xbe0c8909	-0.1372415
238	0xbf012c26	-0.5045799
239	0xbd4e9bf8	-0.050441712
240	0x3f070c86	0.52753484
241	0x3dddedb7	0.10836356
242	0xbd9e21a4	-0.0772126
243	0x3d5c7c1b	0.053829294
244	0xbea34596	-0.31889027
245	0xbe6e3a5e	-0.23264453
246	0x3e0d8242	0.1381922
247	0x3dce81ad	0.100833274
248	0xbbe34125	-0.006935256
249	0x3df8c7f1	0.12147511
250	0x3e0c4f6e	0.13702175
251	0xbca1d2e3	-0.019753879
252	0x3d0aeb93	0.033916067
253	0xbc861c19	-0.01637082
254	0x3e372e09	0.17888655
255	0x3e74eeab	0.2391917

decoder.3.bias f4 [8]
0	0xbec4de3e	-0.38450807
1	0xbe2b456d	-0.16725703
2	0xbe2b727c	-0.16742891
3	0x3da0d6bd	0.07853458
4	0xbe81263a	-0.25224477
5	0xbe847fbf	-0.25878713
6	0xbec3abc8	-0.38216996
7	0xbec32b5c	-0.38119018
