server_report/ae_hexa/ae_hexa_log_2_1_64_batchnorm/autoencoder_20260102_131706.pth (torch, 216228 bytes, 64 tensors)

enc1.kernel0 f4 [2, 1, 5, 1]
0.8220193 -0.016013041 0.5087316 -0.32500276 1.1965369 -0.0030076713 -0.20909041 -0.1994835
1.2025193 -0.6288056
00000000: db6f 523f c82d 83bc 3c3c 023f c366 a6be
00000010: 1f28 993f 5a1c 45bb cc1b 56be 6745 4cbe
00000020: 27ec 993f 67f9 20bf

enc1.kernel1 f4 [2, 1, 4, 2]
0.34874386 0.34052184 0.17359467 -0.04165653 0.085014835 0.08272566 0.41815984 0.15919614
-0.112703025 -0.32757187 0.23359177 0.3062545 -0.099751316 0.60896546 -0.31423363 0.7490197
00000000: 8e8e b23e e158 ae3e cdc2 313e 0aa0 2abd
00000010: 421c ae3d 126c a93d 0c19 d63e 5004 233e
00000020: d8d0 e6bd 80b7 a7be ae32 6f3e 64cd 9c3e
00000030: 6b4a ccbd 29e5 1b3f 3be3 a0be c1bf 3f3f

enc1.kernel2 f4 [2, 1, 3, 2]
1.0680596 1.0431696 0.085528925 0.053069003 0.9125265 1.0778278 -0.0071098353 -0.42407554
-0.18333043 0.50580794 -0.19750814 -1.2167789
00000000: 2db6 883f 9586 853f ca29 af3d e25e 593d
00000010: 569b 693f 43f6 893f 9ff9 e8bb 6e20 d9be
00000020: f9ba 3bbe a17c 013f 933f 4abe 69bf 9bbf

enc1.bias_tensor f4 [2]
0.061240997 0.07732955
00000000: d7d7 7a3d f55e 9e3d

bn1.weight f4 [2]
0.9667549 0.88408333
00000000: 407d 773f 4953 623f

bn1.bias f4 [2]
0.33672076 -0.032154128
00000000: aa66 ac3e 0cb4 03bd

bn1.running_mean f4 [2]
0.5266277 0.06205872
00000000: 13d1 063f 4931 7e3d

bn1.running_var f4 [2]
4.8209743 0.15781054
00000000: 6c45 9a40 1699 213e

enc2.kernel0 f4 [1, 2, 3, 1]
-0.29899716 0.9693882 0.53564095 0.23240201 0.34867993 0.30264828
00000000: 2816 99be d329 783f c41f 093f cbfa 6d3e
00000010: 2d86 b23e b7f4 9a3e

enc2.kernel1 f4 [1, 2, 2, 2]
-0.24195954 0.40316182 -0.25499 1.572638 0.19742809 0.32839748 0.24345356 0.38132674
00000000: 3ec4 77be 3a6b ce3e 0d8e 82be 344c c93f
00000010: 972a 4a3e b723 a83e e44b 793e 423d c33e

fc_enc.weight f4 [64, 117]
-0.647927 -0.50319743 -0.010872724 0.11868522 -0.018807653 0.05192683 -0.01800885 0.20807785
0.107998975 -0.0962962 -0.1328008 -0.5511852 -0.66078436 -0.6313708 -0.15724759 0.07157747
-0.014989224 -0.013006261 0.10691211 -0.03613762 -0.17288469 -0.024472477 -0.06401813 -0.06970532
-0.35850826 -0.7423004 -0.50972265 0.011679396 0.16285406 0.18776532 0.055004537 -0.14885412
0.17567225 0.050311785 -0.013859755 0.013345329 -0.08484289 0.03824847 -0.7653054 -0.21626332
0.20620124 0.18411304 0.066851586 0.17656371 0.06555077 -0.19755714 -0.1857895 0.019051425
-0.22657935 -0.13054968 0.24308345 -0.62240076 0.07589822 0.12480152 0.046713542 0.18664397
-0.013294755 0.15705639 -0.003777918 -0.1949065 0.18933217 -0.07730431 0.053871542 0.075243995
-0.5666907 -0.154135 -0.09004769 -0.14116906 0.12885287 -0.15889663 -0.0917758 0.09233812
0.031725667 0.073779985 -0.016244631 0.16252616 -0.15124585 -0.8564154 -0.37890854 -0.023154777
0.067364946 -0.23228388 0.2278676 0.09470816 -0.16060361 0.091541894 0.055535745 0.18274394
-0.04383424 -0.53055626 -0.6310922 -0.56265026 -0.39650175 0.052898433 -0.05965061 -0.12188274
-0.11127213 0.1169926 -0.030596828 -0.23955579 0.06125801 -0.3125448 -0.33117035 -0.68674684
-0.56273776 -0.66018236 0.2573922 0.026356561 0.067440175 -0.09670563 -0.040459074 -0.06125798
-0.26921448 -0.029583424 -0.093515635 -0.5636186 -0.78179187 0.5095624 0.52080756 0.39815333
-0.22873215 0.17731597 -0.20140791 -0.07599174 0.12553775 -0.056044392 -0.070920154 0.23215076
0.48375148 0.54357773 0.36120936 0.27804598 0.19446577 -0.0821211 -0.012376002 0.38488057
-0.063395716 0.117734574 -0.010091283 -0.11999761 -0.23301956 0.103186786 0.68750405 0.35488448
0.26038915 -0.10465588 0.18084621 -0.2849045 0.07103864 0.035088103 -0.14963031 0.24746473
-0.050384767 0.20591775 0.11400622 0.64323944 0.11025606 0.0127075985 0.14579333 -0.1149683
0.024706004 -0.18960223 0.13112512 0.17859125 -0.08800548 0.14758718 -0.11268452 -0.32088268
0.6199981 0.05969021 -0.09858244 0.041601084 -0.21997625 0.25664347 -0.022272782 -0.2670504
0.21506803 -0.13565943 -0.08085104 0.0946072 0.20342553 -0.09407631 0.1781136 -0.084663056
-0.015671195 0.06778684 -0.041633613 0.0016251229 -0.03300327 -0.06056392 -0.02550577 -0.0030530628
0.105308585 -0.19945027 0.41241184 0.3062835 0.12554497 0.15464109 -0.13014095 -0.17229632
0.11145512 -0.12959431 -0.13648361 -0.13252965 -0.08312222 0.05948285 0.16268247 0.44539893
0.35877466 0.14042477 -0.090930946 0.095979236 0.10931564 -0.075845405 0.015113936 0.03286339
-0.22380687 0.024547972 -0.26834172 0.40779012 0.53025305 0.39602536 0.53619444 0.028181596
-0.03267995 0.13662605 -0.06496421 0.3460908 -0.26244086 0.084221505 0.076539755 0.33233276
0.5723034 0.61710453 0.25945687 0.2787203 -0.14988834 -0.008355072 0.07335171 -0.049087334
0.29846835 -0.008062809 -0.15263419 -0.06610246 -0.07373786 0.25201914 0.587711 0.3139929
0.17515178 -0.26075146 0.08095185 0.14256926 -0.21631846 0.14907146 0.087387994 0.30620348
00000000: 8bde 25bf 8cd1 00bf 8223 32bc 3d11 f33d
00000010: 8212 9abc 3ab1 543d 4c87 93bc 5c12 553e
00000020: 912e dd3d f136 c5bd effc 07be 791a 0dbf
00000030: 2a29 29bf 84a1 21bf 8305 21be 3597 923d
00000040: 5d95 75bc 3618 55bc bcf4 da3d 0b05 14bd
00000050: af08 31be 817a c8bc f01b 83bd aac1 8ebd
00000060: 658e b7be 6607 3ebf 2f7d 02bf f05a 3f3c
00000070: 37c3 263e 8d45 403e 704c 613d 376d 18be
00000080: 6de3 333e bb13 4e3d 0714 63bc 5ea6 5a3c
00000090: 1cc2 adbd 6daa 1c3d 0eeb 43bf 2274 5dbe
000000a0: 6b26 533e 2188 3c3e 7ce9 883d 1ecd 343e
000000b0: 7b3f 863d 6b4c 4abe 9a3f 3ebe bc11 9c3c
000000c0: 6b04 68be d1ae 05be deea 783e a855 1fbf
000000d0: 8770 9b3d f097 ff3d b356 3f3d 991f 3f3e
000000e0: 3ed2 59bc 64d3 203e f296 77bb 9295 47be
000000f0: 4be0 413e b951 9ebd 68a8 5c3d 8619 9a3d
00000100: a412 11bf 91d5 1dbe ec6a b8bd 9f8e 10be
00000110: 02f2 033e ccb5 22be f3f4 bbbd c51b bd3d
00000120: c6f2 013d f619 973d 7613 85bc 426d 263e
00000130: 31e0 1abe 0a3e 5bbf 4d00 c2be 16af bdbc
00000140: a2f6 893d d3db 6dbe 2056 693e 5af6 c13d
00000150: 4675 24be 517a bb3d 7379 633d 3a21 3b3e
00000160: 888b 33bd 89d2 07bf 428f 21bf d909 10bf
00000170: 4702 cbbe 07ac 583d 3354 74bd a89d f9bd
00000180: a4e2 e3bd d199 ef3d 33a6 fabc 1d4e 75be
00000190: aee9 7a3d df05 a0be 298f a9be a4ce 2fbf
000001a0: 950f 10bf b601 29bf e9c8 833e b7e9 d73c
000001b0: 131e 8a3d 9a0d c6bd 6ab8 25bd a6e9 7abd
000001c0: 7bd6 89be f058 f2bc 2085 bfbd 4f49 10bf
000001d0: 8323 48bf ae72 023f a553 053f c1da cb3e
000001e0: c338 6abe 5192 353e e03d 4ebe 8fa1 9bbd
000001f0: f88c 003e ce8e 65bd 963e 91bd eeb8 6d3e
00000200: 46ae f73e e927 0b3f 6ff0 b83e 0b5c 8e3e
00000210: 0922 473e 1b2f a8bd b7c4 4abc 110f c53e
00000220: 9dd5 81bd d31e f13d e955 25bc 4fc1 f5bd
00000230: ae9c 6ebe 9853 d33d 4400 303f 6bb3 b53e
00000240: ba51 853e d255 d6bd c02f 393e 01df 91be
00000250: b57c 913d 8bb8 0f3d b038 19be 6567 7d3e
00000260: 4260 4ebd 1adc 523e 187c e93d 57ab 243f
00000270: eecd e13d 8833 503c d94a 153e 8074 ebbd
00000280: 3f64 ca3c 1627 42be aa45 063e a0e0 363e
00000290: 383c b4bd 1821 173e 24c7 e6bd bc4a a4be
000002a0: 32b8 1e3f b97d 743d 97e5 c9bd e665 2a3d
000002b0: 7441 61be c666 833e 6975 b6bc d4ba 88be
000002c0: cb3a 5c3e 4eea 0abe 3b95 a5bd 6bc1 c13d
000002d0: c84e 503e 15ab c0bd 6963 363e d363 adbd
000002e0: e160 80bc d4d3 8a3d 0288 2abd 1302 d53a
000002f0: 702e 07bd df11 78bd 7af1 d0bc e515 48bb
00000300: 07ac d73d b13c 4cbe a527 d33e 31d1 9c3e
00000310: dc8e 003e 3c5a 1e3e ab43 05be 726e 30be
00000320: 9542 e43d 5fb4 04be 5cc2 0bbe dab5 07be
00000330: fc3b aabd 4aa4 733d 3c96 263e 540b e43e
00000340: 50b1 b73e 83cb 0f3e 013a babd c390 c43d
00000350: e1e0 df3d d654 9bbd 71a0 773c c39b 063d
00000360: a12d 65be d418 c93c 1664 89be dec9 d03e
00000370: aabe 073f d6c3 ca3e 0a44 093f 17dd e63c
00000380: 69db 05bd b3e7 0b3e f50b 85bd d032 b13e
00000390: a65e 86be 537c ac3d e0c0 9c3d 8527 aa3e
000003a0: 7a82 123f 90fa 1d3f 88d7 843e 6db4 8e3e
000003b0: 547c 19be b6e3 08bc 6c39 963d cd0f 49bd
000003c0: d8d0 983e df19 04bc 234c 1cbe ba60 87bd
000003d0: e003 97bd a708 813e 3a74 163f adc3 a03e
000003e0: fd5a 333e 3781 85be 15ca a53d adfd 113e
000003f0: 9682 5dbe 30a6 183e 7af8 b23d b4c6 9c3e

fc_enc.bias f4 [64]
-0.26413742 0.19000578 -0.009115171 0.15778075 0.22809035 0.18867989 0.21142344 0.19860493
-0.121932924 -0.193604 -0.053656857 -0.020125173 0.0053667407 -0.08168208 -0.23258759 -0.12494639
0.25889155 -0.022742799 0.07006614 0.040609233 0.108721845 0.023269085 0.079782866 0.19876002
-0.092698105 -0.17397965 0.1741555 0.008785573 0.16835369 0.14115418 0.12642989 0.28193843
-0.14592342 0.12608671 0.07028683 -0.14197826 -0.000754163 0.16750672 0.0005833709 0.03408111
-0.17801934 0.18508506 -0.102471575 0.02035653 0.011921078 0.007585414 -0.10145655 -0.23103069
-0.17489742 -0.10205487 -0.20390983 0.027802434 -0.053059254 0.0134663945 0.1466241 0.01726514
-0.13175863 0.19712457 0.020308016 0.113601 0.08658695 0.0809209 0.0152354315 -0.024678549
00000000: 053d 87be e090 423e cc57 15bc 4791 213e
00000010: 8490 693e 4d35 413e 637f 583e 175f 4b3e
00000020: f8b7 f9bd 2140 46be 4bc7 5bbd 8cdd a4bc
00000030: 7cdb af3b ef48 a7bd 712b 6ebe e5e3 ffbd
00000040: 6f8d 843e 1b4f babc d67e 8f3d de55 263d
00000050: 8fa9 de3d cf9e be3c 3365 a33d bf87 4b3e
00000060: 81d8 bdbd b927 32be d255 323e 5df1 0f3c
00000070: e964 2c3e b98a 103e d676 013e 3c5a 903e
00000080: f36c 15be e01c 013e 8bf2 8f3d c062 11be
00000090: 06b3 45ba e286 2b3e 5ced 183a a298 0b3d
000000a0: b44a 36be f086 3d3e 9edc d1bd bdc2 a63c
000000b0: a050 433c 118f f83b 74c8 cfbd 4f93 6cbe
000000c0: 4f18 33be 2502 d1bd bdcd 50be eec1 e33c
000000d0: a954 59bd 27a2 5c3c a124 163e 9f6f 8d3c
000000e0: bceb 06be 06db 493e ff5c a63c a4a7 e83d
000000f0: 8054 b13d dbb9 a53d 089e 793c ab2a cabc

fc_dec.weight f4 [117, 64]
-0.24673264 0.15409468 0.13285495 0.15050626 0.08933214 0.17817621 -0.0048266295 0.21474318
-0.77672374 0.065334626 -0.04356075 -0.10469455 0.13434301 -0.18032804 -0.16147801 -0.11400981
0.08223969 0.29083356 -0.021771345 0.07819356 0.13163456 0.027427861 0.15699801 -0.14898871
-0.093832076 -0.11759878 -0.19196634 -0.16468723 0.025154656 0.22150019 0.048116814 0.025508154
-0.03326051 0.23562397 0.122936524 -0.3417723 0.31006077 -0.0648842 -0.20737597 0.068390325
-0.018835183 0.04518601 -0.008347886 -0.6776454 -0.014351192 -0.22446693 -0.20587744 -0.06781294
-0.25539863 -0.050235633 -0.17763935 -0.6580986 0.3733652 0.12312236 0.18566991 -0.6175215
-0.31594703 -0.04198908 -0.20656565 0.1557795 0.061757926 0.59118617 0.31247476 0.47441185
-0.12351724 -0.13696547 0.07373098 0.04601389 -0.11734185 0.18709087 -0.013686315 0.16922902
-1.1860739 -0.12548655 -0.3374018 -0.4875735 0.40386552 -0.17835324 -0.077379905 -0.03949237
-0.2875696 0.11559605 0.019270577 0.3333809 0.139595 -0.14517894 -0.100207746 -0.09627451
0.0505804 -0.10756133 -0.24591775 -0.18787777 0.14612201 -0.22220017 0.05776318 0.07374673
-0.0118410215 0.35451353 0.05167748 -0.4443746 0.08889535 -0.30669376 -0.025198348 0.16979758
0.27640557 -0.23287834 0.23001 -0.14906675 -0.26387483 0.35236117 -0.09736814 -0.03147686
-0.7486761 -0.2415631 0.058178186 0.104664735 0.04779776 -0.11669111 0.09417287 0.4521197
-0.025727281 -0.22719117 -0.39375308 0.0015867904 -0.05407192 -0.16804613 0.27038845 0.17630272
-0.21393073 0.0037119973 0.2094541 0.0036491572 0.054355156 0.043407083 0.2241832 -0.11963297
0.35204995 0.14688177 0.12977564 -0.114987746 -0.057778507 0.09611364 0.093196005 0.055236097
0.048335664 0.29359898 0.13063988 -0.16567798 0.1974148 -0.14083922 -0.17584002 -0.12937593
-0.022999723 0.07106679 0.07038453 0.048699986 -0.08659453 -0.20739928 -0.2485294 0.07537929
0.18462777 0.14027952 0.14421493 0.1535721 -0.032121785 -0.14071722 -0.23494825 0.08930186
-0.08520779 0.04467767 -0.23444422 0.21776201 0.10301683 -0.11455229 -0.20943649 -0.015360193
-0.026149172 0.1658972 -0.018085482 0.1602166 0.095371716 -0.048822224 0.08444532 -0.18674639
-0.028676577 0.15682411 0.08214681 0.056871742 -0.06489347 -0.04103166 -0.17350993 0.3291405
-0.068324395 0.052389365 -0.16568977 0.3660279 0.07083453 0.18116145 -0.065594494 0.056521975
0.1181896 -0.15722035 0.09585512 -0.12591653 0.142245 -0.20964473 -0.050686993 0.038635593
0.21602528 -0.21147898 -0.17515598 -0.38236707 -0.09784576 -0.00043911033 0.11930806 -0.18723607
0.045648083 -0.3215315 -0.21545686 0.0063535483 -0.10693765 0.1909876 -0.06762965 -0.00307948
0.07423916 -0.1500732 -0.13388892 0.15488753 -0.35461974 0.08644515 0.08697898 0.04841926
-0.25846118 0.007529596 0.03560271 -0.37027353 0.25203907 0.13942327 -0.039674625 -0.0700328
0.3530557 0.10230691 0.15058975 0.061649192 0.15719892 0.047217492 0.06999712 -0.017439162
0.27132577 -0.037364166 0.05379495 -0.13911834 -0.17403416 0.15098122 0.12570901 0.04550782
00000000: 7ba7 7cbe ffca 1d3e 210b 083e 501e 1a3e
00000010: c5f3 b63d d373 363e b428 9ebb a3e5 5b3e
00000020: 5ed7 46bf 29ce 853d c26c 32bd 196a d6bd
00000030: 3791 093e eaa7 38be 7e5a 25be fa7d e9bd
00000040: 486d a83d 23e8 943e d259 b2bc f223 a03d
00000050: 36cb 063e 65b0 e03c 16c4 203e 7f90 18be
00000060: 082b c0bd a1d7 f0bd d392 44be c5a3 28be
00000070: 2311 ce3c f2d0 623e 2316 453d 7af6 d03c
00000080: 2c3c 08bd 6947 713e 25c6 fb3d c7fc aebe
00000090: 49c0 9e3e 02e2 84bd 5e5a 54be 3a10 8c3d
000000a0: 3e4c 9abc f714 393d 92c5 08bc 2b7a 2dbf
000000b0: 4321 6bbc a9da 65be 89d1 52be 83e1 8abd
000000c0: 9cc3 82be e1c3 4dbd 17e7 35be 2679 28bf
000000d0: b929 bf3e 9327 fc3d 4120 3e3e e415 1ebf
000000e0: cfc3 a1be befc 2bbd f285 53be a984 1f3e
000000f0: e1f5 7c3d fa57 173f b1fc 9f3e 1ce6 f23e
00000100: 9bf6 fcbd ad40 0cbe 4500 973d 1079 3c3d
00000110: ed50 f0bd c094 3f3e 913c 60bc 5f4a 2d3e
00000120: 45d1 97bf 8c7f 00be eebf acbe 3ca3 f9be
00000130: 76c7 ce3e 3ba2 36be 5b79 9ebd c0c2 21bd
00000140: 533c 93be 9fbd ec3d 54dd 9d3c e7b0 aa3e
00000150: fef1 0e3e caa9 14be b839 cdbd 922b c5bd
00000160: 652d 4f3d 1d49 dcbd ddd1 7bbe 0863 40be
00000170: 02a1 153e 7188 63be 1699 6c3d 8708 973d
00000180: d800 42bc cc82 b53e c4ab 533d 1185 e3be
00000190: c40e b63d f706 9dbe c46c cebc 6bdf 2d3e
000001a0: 0885 8d3e a977 6ebe be87 6b3e f4a4 18be
000001b0: 9a1a 87be af68 b43e f368 c7bd e1ed 00bd
000001c0: 3da9 3fbf 515c 77be 404c 6e3d 775a d63d
000001d0: 96c7 433d c0fb eebd b5dd c03d 3c7c e73e
000001e0: 05c2 d2bc cda4 68be 019a c9be dafb cf3a
000001f0: 857a 5dbd 4914 2cbe 5b70 8a3e b388 343e
00000200: a810 5bbe fb44 733b 237b 563e b326 6f3b
00000210: 83a3 5e3d a0cb 313d 4890 653e 2102 f5bd
00000220: e43f b43e 2d68 163e e8e3 043e b27e ebbd
00000230: 28a9 6cbd 3ad7 c43d 8cdd be3d 3f3f 623d
00000240: 9efb 453d 9b52 963e 76c6 053e 7da7 29be
00000250: 1b27 4a3e 2838 10be 680f 34be 207b 04be
00000260: ea69 bcbc 778b 913d c425 903d a379 473d
00000270: 7958 b1bd 7a60 54be 7e7e 7ebe 7560 9a3d
00000280: 100f 3d3e 6fa5 0f3e 14ad 133e 0142 1d3e
00000290: 2292 03bd 2d18 10be 4696 70be e5e3 b63d
000002a0: 6c81 aebd efff 363d 2512 70be 01fd 5e3e
000002b0: 7dfa d23d 649a eabd 8576 56be 52a9 7bbc
000002c0: ca36 d6bc f5e0 293e 0128 94bc d20f 243e
000002d0: 3f52 c33d d0f9 47bd abf1 ac3d 723a 3fbe
000002e0: 24eb eabc 8096 203e 963c a83d 58f2 683d
000002f0: dee6 84bd d010 28bd 96ac 31be 1b85 a83e
00000300: a9ed 8bbd 3b96 563d 94aa 29be 0268 bb3e
00000310: b211 913d 6382 393e 6856 86bd 9683 673d
00000320: 640d f23d 5ffe 20be b04f c43d 43f0 00be
00000330: aca8 113e 1cad 56be 2a9d 4fbd 5b40 1e3d
00000340: bb35 5d3e f28d 58be 175c 33be 9ec5 c3be
00000350: 5c63 c8bd 6438 e6b9 c957 f43d d0ba 3fbe
00000360: 7cf9 3a3d c79f a4be b9a0 5cbe 6d31 d03b
00000370: 2002 dbbd 4192 433e 6a81 8abd 1ad1 49bb
00000380: b30a 983d caac 19be 2d1a 09be d69a 1e3e
00000390: b890 b5be 280a b13d 0922 b23d 4653 463d
000003a0: 0655 84be d4ba f63b 26d4 113d 7e94 bdbe
000003b0: 440b 813e f9c4 0e3e dc81 22bd 5b6d 8fbd
000003c0: b7c3 b43e 4986 d13d 3334 1a3e dd83 7c3d
000003d0: c1f8 203e 2167 413d a65a 8f3d 93dc 8ebc
000003e0: 36eb 8a3e 2b0b 19bd 1858 5c3d 0a75 0ebe
000003f0: 0336 32be d29a 1a3e ddb9 003e 6866 3a3d

fc_dec.bias f4 [117]
0.16754174 -0.04440751 0.0751949 0.06940548 0.032547247 0.07183031 -0.036607474 0.09949743
0.03632074 0.08739105 0.34352046 0.32773244 -0.12428775 0.28240728 0.08578846 -0.03857803
0.14165355 0.18070325 0.17891969 0.14797014 0.13052036 0.16473131 0.04156978 0.05517836
0.30404475 0.0563961 -0.055559248 0.054589055 0.101078734 0.2381768 0.2605014 0.1423628
0.15965441 0.09812034 0.23493873 0.11825069 0.01942346 0.20710084 0.20781331 0.09707161
0.091596335 0.19025762 -0.03219472 0.15762484 0.123577945 0.15595944 0.19116114 0.097943954
0.15851194 0.19627918 0.08918138 0.48691413 -0.034966756 0.137718 0.16587168 0.061170585
0.21240677 0.0911506 0.19293405 0.18641473 0.1733832 0.15372366 0.10926834 0.16248168
-0.017238146 0.15716562 0.05098329 0.24924798 0.14203222 0.11244049 0.1362141 0.18311107
0.21824886 0.22107196 0.13421972 0.13286221 0.09109881 0.11477498 0.43336692 0.017609667
0.123998635 0.19572596 0.11116314 0.20057547 0.08670109 0.22037478 0.13828798 0.11894704
0.04825717 0.075074166 0.0073931315 0.20223455 0.27732736 0.06810931 0.1489742 0.19620924
0.10253776 0.24005426 0.024463374 -0.032229304 0.031345945 0.085343026 0.18283945 -0.021149354
0.18248798 0.25833783 0.04176854 0.16569144 0.0056996765 0.08678486 0.24302496 -0.07988715
0.7030163 0.6102419 0.29807875 0.5635022 0.05902831
00000000: 1090 2b3e a6e4 35bd c9ff 993d 7624 8e3d
00000010: 4350 053d c51b 933d b8f1 15bd 4fc5 cb3d
00000020: 0ec5 143d 14fa b23d eae1 af3e 8ccc a73e
00000030: 938a febd b097 903e dcb1 af3d ff03 1ebd
00000040: a10d 113e 460a 393e b936 373e 7c85 173e
00000050: 21a7 053e 53af 283e 1345 2a3d b402 623d
00000060: c1ab 9b3e 99ff 663d 1892 63bd c698 5f3d
00000070: 5e02 cf3d 9ee4 733e 7160 853e 8ec7 113e
00000080: 727c 233e 51f3 c83d c793 703e 6b2d f23d
00000090: f31d 9f3c 3e12 543e 03cd 543e 7bcd c63d
000000a0: dc96 bb3d e5d2 423e 9cde 03bd 6868 213e
000000b0: 6f16 fd3d d5b3 1f3e bfbf 433e d796 c83d
000000c0: f450 223e 69fd 483e baa4 b63d cf4c f93e
000000d0: 4d39 0fbd f305 0d3e 44da 293e 028e 7a3d
000000e0: 2981 593e 2aad ba3d 8190 453e 81e3 3e3e
000000f0: 5e8b 313e bc69 1d3e 14c8 df3d 9961 263e
00000100: 0337 8dbc 06f0 203e dbd3 503d dd3a 7f3e
00000110: e570 113e 3347 e63d b67b 0b3e 7881 3b3e
00000120: a17c 5f3e b060 623e e570 093e 080d 083e
00000130: 0392 ba3d 250f eb3d 45e2 dd3e 2642 903c
00000140: fff2 fd3d 636c 483e 80a9 e33d a863 4d3e
00000150: 5790 b13d eda9 613e 5d9b 0d3e 819a f33d
00000160: 4fa9 453d 7cc0 993d 1542 f23b 9316 4f3e
00000170: dafd 8d3e e57c 8b3d b18c 183e 13eb 483e
00000180: 51ff d13d c9d0 753e 6a67 c83c e002 04bd
00000190: 9b64 003d 53c8 ae3d 443a 3b3e 6941 adbc
000001a0: 21de 3a3e db44 843e 7d15 2b3d 04ab 293e
000001b0: 5ac4 ba3b 43bc b13d 89db 783e e09b a3bd
000001c0: e0f8 333f d038 1c3f c79d 983e ae41 103f
000001d0: abc7 713d

dec1.kernel0 f4 [2, 1, 3, 1]
-1.1261281 -0.46863133 -1.3277265 -1.4933015 1.2513473 -0.058771357
00000000: f724 90bf 72f0 efbe f1f2 a9bf 8124 bfbf
00000010: 262c a03f 3cba 70bd

dec1.kernel1 f4 [2, 1, 2, 2]
-0.8776294 -0.6737433 -0.5157209 -0.984202 -0.6811725 0.9037961 -1.19344 1.191293
00000000: 52ac 60bf 717a 2cbf 4906 04bf aaf4 7bbf
00000010: 5261 2ebf 2e5f 673f a4c2 98bf 4a7c 983f

dec1.bias_tensor f4 [2]
0.055850655 0.01632197
00000000: a8c3 643d a7b5 853c

bn3.weight f4 [2]
0.7105725 0.32778305
00000000: 14e8 353f 2ed3 a73e

bn3.bias f4 [2]
-0.44799802 -1.6635706
00000000: ff5f e5be e2ef d4bf

bn3.running_mean f4 [2]
-9.102095 0.54597783
00000000: 2ea2 11c1 34c5 0b3f

bn3.running_var f4 [2]
410.04614 78.21596
00000000: e805 cd43 926e 9c42

dec2.kernel0 f4 [1, 2, 5, 1]
-0.31472704 0.47744945 0.6920199 0.5024286 -0.3964914 0.53267026 0.040134482 0.82157516
-0.05251169 0.76721674
00000000: e723 a1be 4174 f43e 3728 313f 299f 003f
00000010: ec00 cbbe 145d 083f 0e64 243d c052 523f
00000020: 7f16 57bd 5168 443f

dec2.kernel1 f4 [1, 2, 4, 2]
0.3666404 0.12151766 0.6137593 0.3626681 0.38057485 0.110655755 0.0686057 -0.21550412
0.12744686 0.33605802 0.18583381 0.26260856 0.15473297 0.13834503 0.61427635 0.07888488
00000000: 4ab8 bb3e 40de f83d 541f 1d3f a2af b93e
00000010: b5da c23e 7c9f e23d 2581 8c3d 1dad 5cbe
00000020: 6e81 023e cc0f ac3e 384b 3e3e a174 863e
00000030: 5272 1e3e 52aa 0d3e 3741 1d3f 658e a13d

dec2.kernel2 f4 [1, 2, 3, 2]
0.34762022 -0.30864784 0.831657 0.00509744 0.057076663 -0.042217158 -0.04583579 -0.11389408
0.11664649 -0.18951902 0.31839508 0.06171728
00000000: 47fb b13e 1707 9ebe 79e7 543f 6d08 a73b
00000010: 38c9 693d e6eb 2cbd 4fbe 3bbd 4d41 e9bd
00000020: 5be4 ee3d 4611 42be ae04 a33e 42cb 7c3d

exp_avg f4 [2, 1, 5, 1]
5.8325923e-06 0.00014911144 0.0001551844 0.00013246202 -1.2189633e-05 0.00076483557 0.0009044805 0.001191634
0.0011590257 0.0010688526
00000000: 96b5 c336 cc5a 1c39 ffb8 2239 81e5 0a39
00000010: 1382 4cb7 3f7f 483a a91a 6d3a 9a30 9c3a
00000020: 73ea 973a be18 8c3a

exp_avg_sq f4 [2, 1, 5, 1]
5.8849942e-08 1.0104869e-07 1.5148981e-07 1.4997822e-07 5.0082782e-08 5.277321e-06 8.382766e-06 1.0964518e-05
1.1731734e-05 1.0548562e-05
00000000: 32c2 7c33 1b00 d933 34a9 2234 b309 2134
00000010: 9a1a 5733 d813 b136 b5a3 0c37 3ff4 3737
00000020: 6ad3 4437 bbf9 3037

exp_avg f4 [2, 1, 4, 2]
4.4349235e-05 3.0106507e-05 0.000101829246 0.00011813489 0.00017661472 0.00010036361 0.000105911786 -4.2967822e-05
0.00077318517 0.000791936 0.0008221981 0.00096406357 0.0010522249 0.0010808196 0.0010657468 0.001052795
00000000: a103 3a38 3b8d fc37 298d d538 30bf f738
00000010: a731 3939 4e7a d238 f51c de38 5938 34b8
00000020: 94af 4a3a ed99 4f3a c888 573a 36b9 7c3a
00000030: cfea 893a 4aaa 8d3a 87b0 8b3a f0fd 893a

exp_avg_sq f4 [2, 1, 4, 2]
5.0632085e-08 5.2318942e-08 9.398407e-08 1.0028393e-07 1.4724759e-07 1.1507623e-07 9.745814e-08 5.6387375e-08
5.6659287e-06 7.4298873e-06 6.9392186e-06 1.002435e-05 9.49412e-06 1.27841895e-05 9.437592e-06 1.2148444e-05
00000000: 9176 5933 49b5 6033 4ad4 c933 ac5b d733
00000010: 1c1b 1e34 d41f f733 2e4a d133 932e 7233
00000020: f51d be36 3f4e f936 6fd7 e836 412e 2837
00000030: ef48 1f37 ad7b 5637 2656 1e37 2bd1 4b37

exp_avg f4 [2, 1, 3, 2]
-1.8097371e-05 -2.4871511e-05 7.315398e-05 2.8478917e-06 5.749726e-05 -0.00012863774 0.00069910695 0.0007881163
0.0008481851 0.00085802586 0.00093779014 0.0009888828
00000000: cfcf 97b7 2aa3 d0b7 3e6a 9938 681e 3f36
00000010: 3629 7138 eee2 06b9 4644 373a 9799 4e3a
00000020: bd58 5e3a 24ed 603a 08d6 753a 679d 813a

exp_avg_sq f4 [2, 1, 3, 2]
7.629877e-08 5.729104e-08 7.072418e-08 5.066634e-08 5.587071e-08 7.521085e-08 4.902365e-06 8.036094e-06
6.640032e-06 1.0024496e-05 7.165899e-06 1.0964267e-05
00000000: b1d9 a333 2a10 7633 07e1 9733 3b9c 5933
00000010: 7ff6 6f33 9a83 a133 ff7e a436 c3d2 0637
00000020: 71cd de36 e22e 2837 9b72 f036 2bf3 3737

exp_avg f4 [2]
6.161055e-10 1.5247585e-10
00000000: 925a 2930 23a6 272f

exp_avg_sq f4 [2]
1.9029966e-18 1.6917149e-17
00000000: 976a 0c22 7d08 9c23

exp_avg f4 [2]
0.0037600077 -0.00049890974
00000000: 766a 763b 44c9 02ba

exp_avg_sq f4 [2]
0.00015664076 3.8744693e-06
00000000: ef3f 2439 7001 8236

exp_avg f4 [2]
-0.010041736 -0.005423194
00000000: 1886 24bc 0cb5 b1bb

exp_avg_sq f4 [2]
0.0011051516 0.00032109953
00000000: bcda 903a 4059 a839

exp_avg f4 [1, 2, 3, 1]
-0.00064803223 0.00035152538 0.00024480245 -0.00030577095 -7.022382e-05 -0.00026422838
00000000: b5e0 29ba f04c b839 d458 8039 e24f a0b9
00000010: 2045 93b8 2288 8ab9

exp_avg_sq f4 [1, 2, 3, 1]
6.952991e-06 5.594083e-07 5.778027e-07 7.332722e-07 3.1885676e-07 4.7255384e-07
00000000: bd4d e936 3f2a 1635 4d1a 1b35 15d6 4435
00000010: 572f ab34 4eb3 fd34

exp_avg f4 [1, 2, 2, 2]
-0.0011264298 -0.0007409549 -0.0005352124 -0.00032780928 -0.00030521283 0.00012965668 -0.00027354268 -1.7052454e-05
00000000: b6a4 93ba a43c 42ba 7f4d 0cba d1dd abb9
00000010: f904 a0b9 73f4 0739 476a 8fb9 de0b 8fb7

exp_avg_sq f4 [1, 2, 2, 2]
2.0777765e-05 6.1064407e-06 8.3851955e-06 7.17648e-07 1.3465632e-06 5.206584e-07 1.1436879e-06 6.0463515e-07
00000000: e94b ae37 ede5 cc36 24ae 0c37 65a4 4035
00000010: 8fbb b435 5fc3 0b35 d180 9935 364e 2235

exp_avg f4 [64, 117]
-2.267007e-05 -2.0325873e-05 -3.7443566e-05 -0.00035245455 -0.00034448598 -0.0002332666 -7.809831e-05 -0.0001130059
-6.767802e-05 -4.801473e-05 -2.1313204e-05 -2.0325873e-05 -1.027263e-05 -2.3549275e-05 -5.6089702e-05 -0.00015925578
-0.0004948974 -0.0004891512 -0.00027660493 -0.00016718457 -0.00011623831 -7.760311e-05 -1.19420465e-05 -1.7854882e-05
-1.8954812e-05 -6.748664e-06 -2.3549275e-05 -9.540167e-05 -0.0002476801 -0.00044301 -0.0004694782 -0.00023586747
-0.00019759065 -5.508145e-05 -4.4726276e-05 -2.1004915e-05 1.697222e-05 -1.5555954e-05 -6.748664e-06 -4.5768917e-05
-0.00013534748 -0.00025907668 -0.00036220008 -0.0004200817 -0.0002190624 -0.00010034717 -1.3843183e-05 -9.405842e-06
-4.9217306e-05 -6.0270423e-07 -2.6626816e-05 -6.8641602e-06 -6.4562926e-05 -8.621001e-05 -0.00025001625 -0.00027861784
-0.0003180505 -0.00010685994 -4.975889e-05 -4.881348e-05 -5.18724e-05 -6.45481e-05 -4.5466175e-05 -4.1892417e-05
-3.5719643e-06 -2.0515572e-05 -8.045247e-05 -0.00021782215 -0.00026837632 -0.00017028312 -8.8736415e-05 -7.257091e-05
-6.054156e-05 -5.5139222e-05 -6.380103e-05 -5.601086e-05 -2.40051e-05 -6.3078182e-06 -2.2993592e-05 -5.3713764e-05
-0.00021455878 -0.00022635111 -0.00018095771 -0.00012622788 -4.6669484e-05 -7.220993e-05 -7.922365e-05 -3.698803e-05
-4.136111e-05 -1.9735331e-05 -6.69671e-06 -2.3549275e-05 -2.2596367e-05 -0.000155577 -0.00021126872 -0.0001691354
-0.00011771099 -7.75447e-05 -8.322484e-06 -3.26109e-05 -3.1873944e-05 -2.1433574e-05 -2.0284488e-05 -6.748664e-06
-2.3549275e-05 -1.6604721e-05 -6.642083e-05 -0.0001244541 -0.00017436326 -7.177113e-05 -8.399129e-05 1.484249e-06
-1.4166564e-05 -2.0525384e-05 -2.103433e-05 -1.6604721e-05 -6.748664e-06 2.0090334e-05 1.7995915e-05 2.932956e-05
0.0001407624 0.00015442772 0.00012499644 5.817393e-05 3.190311e-05 4.811529e-05 5.495193e-05 1.8704395e-05
1.7995915e-05 9.301425e-06 2.0826368e-05 2.5943802e-05 5.276937e-05 0.00014948532 0.00020330769 0.000107870575
6.257349e-05 2.0361309e-05 3.0821335e-05 4.2989705e-05 2.8222885e-05 1.7172697e-05 6.2098147e-06 2.0826368e-05
4.0742125e-05 8.0371676e-05 0.00016095948 0.00021211877 9.3617215e-05 4.3555563e-05 5.219588e-05 1.3829506e-05
3.8924267e-05 2.4571551e-05 2.582439e-05 6.2098147e-06 2.532596e-05 6.5422195e-05 0.00011858208 0.00012984744
0.00016956386 0.00014867856 9.486202e-05 6.980114e-05 2.911973e-05 3.7184956e-05 4.1743977e-05 3.8418068e-05
5.8727915e-06 5.3468037e-05 7.6077275e-05 9.1381065e-05 8.600731e-05 9.895951e-05 8.990566e-05 0.00012738553
0.00012741968 6.504389e-05 1.0431769e-05 2.6435913e-05 3.0790456e-05 6.1108794e-06 3.5806424e-05 3.367584e-05
7.202312e-05 0.00012046311 8.111376e-05 6.503468e-05 9.1226306e-05 8.434759e-05 5.4724544e-05 4.5793407e-05
3.520002e-05 1.9114736e-05 5.8937103e-06 2.0869666e-05 2.2043541e-05 6.312661e-05 0.00012406442 0.00010885968
6.545683e-05 3.6285546e-05 7.718793e-05 7.222142e-05 4.4061293e-05 4.6000518e-05 1.7177552e-05 6.2174095e-06
2.0826368e-05 1.8434324e-05 6.375989e-05 0.00010463839 7.714382e-05 6.083112e-05 7.425427e-05 8.097736e-05
4.4290362e-05 1.6034342e-05 2.148718e-05 1.7668643e-05 6.2098147e-06 2.0826368e-05 1.4771107e-05 4.5803452e-05
6.1006893e-05 7.2423165e-05 4.0835715e-05 6.0725077e-05 4.7018773e-05 4.6698104e-05 1.3996378e-05 1.8071549e-05
1.4771107e-05 6.2098147e-06 1.639302e-05 1.46995635e-05 5.381428e-06 -9.9697594e-05 -7.808209e-05 2.7567876e-06
1.067815e-05 2.0654903e-05 1.6962702e-05 4.4837e-05 1.5514588e-05 1.46995635e-05 7.5430735e-06 1.7010043e-05
1.513972e-05 -8.035426e-06 -5.1611863e-05 -8.369512e-05 6.802966e-05 3.8542512e-05 4.3978966e-05 1.4044161e-05
00000000: 9b2b beb7 7b81 aab7 b90c 1db8 a6c9 b8b9
00000010: 209c b4b9 0799 74b9 b6c8 a3b8 95fd ecb8
00000020: 5cee 8db8 6c63 49b8 c2c9 b2b7 7b81 aab7
00000030: 9c58 2cb7 af8b c5b7 dc41 6bb8 e6fd 26b9
00000040: 01bc 01ba 623a 00ba 4905 91b9 444e 2fb9
00000050: f8c4 f3b8 dabe a2b8 b35a 48b7 11c7 95b7
00000060: 2601 9fb7 9572 e2b6 af8b c5b7 6212 c8b8
00000070: 0fdb 81b9 cc43 e8b9 4c24 f6b9 3153 77b9
00000080: 5630 4fb9 4207 67b8 7998 3bb8 b633 b0b7
00000090: 915f 8e37 287e 82b7 9572 e2b6 00f8 3fb8
000000a0: 10ec 0db9 afd4 87b9 ace5 bdb9 693e dcb9
000000b0: 1eb4 65b9 7a71 d2b8 0540 68b7 c9cd 1db7
000000c0: ae6e 4eb8 85c9 21b5 a75c dfb7 b052 e6b6
000000d0: f565 87b8 a6cb b4b8 9d14 83b9 7413 92b9
000000e0: 04c0 a6b9 fe19 e0b8 34b4 50b8 13bd 4cb8
000000f0: 9191 59b8 ff5d 87b8 efb2 3eb8 a4b5 2fb8
00000100: e1b5 6fb6 db18 acb7 97b8 a8b8 3067 64b9
00000110: dcb4 8cb9 078e 32b9 0018 bab8 3631 98b8
00000120: 01ee 7db8 4a45 67b8 ebcc 85b8 34ed 6ab8
00000130: 8f5e c9b7 bfa7 d3b6 5de2 c0b7 b74a 61b8
00000140: 2ffb 60b9 aa58 6db9 77bf 3db9 0a5c 04b9
00000150: fabe 43b8 696f 97b8 e024 a6b8 9823 1bb8
00000160: 277b 2db8 4d8d a5b7 4db4 e0b6 af8b c5b7
00000170: 548d bdb7 6222 23b9 0488 5db9 f059 31b9
00000180: 9bdb f6b8 7e9f a2b8 cca0 0bb7 b0c7 08b8
00000190: 63b0 05b8 40cc b3b7 9b28 aab7 9572 e2b6
000001a0: af8b c5b7 5e4a 8bb7 694b 8bb8 e57f 02b9
000001b0: 48d5 36b9 d583 96b8 7b24 b0b8 6836 c735
000001c0: eeac 6db7 ed2d acb7 e172 b0b7 5e4a 8bb7
000001d0: 9572 e2b6 aa87 a837 eff5 9637 c008 f637
000001e0: 9e99 1339 e0ed 2139 7a11 0339 c8ff 7338
000001f0: b4cf 0538 66cf 4938 307c 6638 62e7 9c37
00000200: eff5 9637 510d 1c37 49b4 ae37 e4a1 d937
00000210: ae54 5d38 29bf 1c39 fe2e 5539 9338 e238
00000220: e339 8338 94cd aa37 2846 0138 d84f 3438
00000230: 2fc0 ec37 160e 9037 e75d d036 49b4 ae37
00000240: 86e2 2a38 378d a838 3bc7 2839 336c 5e39
00000250: 5c54 c438 6eaf 3638 e6ec 5a38 4705 6837
00000260: 9d42 2338 011f ce37 75a1 d837 e75d d036
00000270: 1673 d437 4633 8938 45af f838 a827 0839
00000280: f4cc 3139 99e6 1b39 a9f0 c638 3462 9238
00000290: 2546 f437 0bf7 1b38 4116 2f38 1623 2138
000002a0: e50e c536 de42 6038 ad8b 9f38 d6a3 bf38
000002b0: d35e b438 7b88 cf38 bc8b bc38 cb92 0539
000002c0: f69b 0539 2c68 8838 1b04 2f37 b1c2 dd37
000002d0: 0025 0138 0e0c cd36 db2e 1638 283f 0d38
000002e0: 1e0b 9738 24a1 fc38 9e1b aa38 3a63 8838
000002f0: c050 bf38 c4e3 b038 0888 6538 4c12 4038
00000300: bca3 1338 9558 a037 96c2 c536 4411 af37
00000310: 25ea b837 d762 8438 4a17 0239 984b e438
00000320: de45 8938 4f31 1838 f4df a138 9475 9738
00000330: 74ce 3838 aef0 4038 8318 9037 249f d036
00000340: 49b4 ae37 69a3 9a37 d5b6 8538 4f71 db38
00000350: 46c8 a138 eb24 7f38 f5b8 9b38 64d2 a938
00000360: 6ac4 3938 7d81 8637 5e3f b437 1f37 9437
00000370: e75d d036 49b4 ae37 6cd1 7737 151d 4038
00000380: a7e1 7f38 e4e1 9738 0447 2b38 0eb3 7e38
00000390: 0636 4538 b5dd 4338 fcd1 6a37 5b98 9737
000003a0: 6cd1 7737 e75d d036 be83 8937 259e 7637
000003b0: 1d92 b436 bd14 d1b8 01c0 a3b8 4001 3936
000003c0: 4e26 3337 1144 ad37 204b 8e37 5d0f 3c38
000003d0: 5325 8237 259e 7637 821a fd36 cab0 8e37
000003e0: 9a00 7e37 e4cf 06b7 d179 58b8 7a85 afb8
000003f0: 25ab 8e38 b5a8 2138 0e76 3838 369f 6b37

exp_avg_sq f4 [64, 117]
4.747603e-09 4.0113304e-09 2.5724919e-08 3.013255e-07 1.2564388e-07 1.9160112e-07 7.6449794e-08 1.0699309e-07
4.1051784e-08 2.5205305e-08 4.0962944e-09 4.0113304e-09 1.0754628e-09 5.192039e-09 4.782683e-08 2.3793407e-07
5.0671025e-07 3.1556354e-07 2.5695482e-07 1.4196877e-07 7.842855e-08 5.0489017e-08 3.262648e-08 7.030198e-09
4.083762e-09 5.338831e-10 5.192039e-09 3.5607647e-07 6.6976173e-07 7.59745e-07 5.015097e-07 2.6518464e-07
1.3771678e-07 6.4461595e-08 4.148613e-08 3.945322e-08 2.5633387e-08 9.220959e-09 5.338831e-10 4.5059455e-08
5.3531045e-07 7.782136e-07 7.0487505e-07 5.532733e-07 2.450897e-07 1.09720716e-07 6.8880674e-08 4.5547086e-08
4.517247e-08 3.7468574e-08 3.447873e-08 5.940232e-10 1.3753366e-07 3.714545e-07 5.862847e-07 4.817512e-07
4.257115e-07 2.0966874e-07 1.1088602e-07 7.5149806e-08 5.5544945e-08 5.3360033e-08 4.916874e-08 4.471272e-08
2.7854032e-09 3.502177e-08 1.322772e-07 3.6546203e-07 2.7297258e-07 2.71105e-07 1.4126178e-07 1.0838711e-07
8.9901135e-08 7.087942e-08 7.29061e-08 6.487019e-08 1.3014687e-08 5.2864546e-10 5.803821e-09 1.8180417e-08
1.8237557e-07 1.13526525e-07 1.48873e-07 9.027628e-08 9.0334986e-08 8.895227e-08 9.342186e-08 7.4246465e-08
4.9641965e-08 3.8147014e-09 5.054792e-10 5.192039e-09 4.3133537e-09 5.5033905e-08 6.541858e-08 7.212747e-08
5.8380177e-08 7.5123765e-08 8.020106e-08 8.691463e-08 4.6370722e-08 1.1795043e-08 3.9768655e-09 5.338831e-10
5.192039e-09 2.6898388e-09 1.0456247e-08 2.0365636e-08 5.308878e-08 1.8514584e-08 5.7060674e-08 2.7037723e-08
7.327631e-08 5.0510995e-09 4.0256825e-09 2.6898388e-09 5.338831e-10 4.130128e-09 3.4871834e-09 7.8863085e-09
5.511373e-08 3.548554e-08 5.6417523e-08 3.002326e-08 3.8527045e-08 2.8485726e-08 3.7044792e-08 3.765397e-09
3.4871834e-09 9.36746e-10 4.514728e-09 6.2249703e-09 2.5244026e-08 5.709031e-08 6.738887e-08 5.043649e-08
4.1139764e-08 3.899819e-08 3.9094555e-08 4.4426468e-08 1.1781423e-08 3.5051044e-09 4.650237e-10 4.514728e-09
2.002861e-08 3.6373905e-08 5.0567248e-08 7.356391e-08 6.489223e-08 4.8246978e-08 4.626005e-08 3.832572e-08
5.1013156e-08 3.7596042e-08 1.6212864e-08 4.650237e-10 7.2941146e-09 3.461154e-08 3.8682412e-08 5.7882794e-08
6.874514e-08 1.0665709e-07 7.169506e-08 7.415978e-08 5.3203838e-08 7.0554776e-08 7.1717544e-08 6.000754e-08
5.109377e-10 1.9955351e-08 6.246622e-08 5.847518e-08 9.941759e-08 9.158449e-08 1.5070641e-07 1.3833744e-07
1.273766e-07 8.920536e-08 9.8264216e-08 7.481517e-08 5.4605025e-08 3.6372727e-09 1.2238152e-08 4.7635847e-08
9.393082e-08 1.1335621e-07 1.3161228e-07 1.5818316e-07 1.9594374e-07 2.4605802e-07 1.7484653e-07 1.9499808e-07
9.805231e-08 1.7661096e-08 4.360579e-10 4.814931e-09 1.1183023e-08 7.8795004e-08 7.956801e-08 1.07381744e-07
8.969527e-08 1.9369907e-07 2.528347e-07 3.2330345e-07 2.6906008e-07 1.2543026e-07 2.9264267e-09 4.2353465e-10
4.514728e-09 3.728238e-09 3.974458e-08 4.6800576e-08 5.152967e-08 4.8313158e-08 9.926555e-08 1.2979568e-07
2.6969613e-07 1.3751696e-07 3.143546e-08 3.0930882e-09 4.650237e-10 4.514728e-09 2.338075e-09 8.921322e-09
1.3567131e-08 3.6781646e-08 1.6415639e-08 5.2703122e-08 3.0919395e-08 1.2760746e-07 1.0785884e-08 2.8187992e-09
2.338075e-09 4.650237e-10 3.4238337e-09 2.8863094e-09 8.097611e-09 4.8664702e-08 2.0772237e-08 3.479695e-08
2.0520776e-08 3.6944684e-08 2.1501668e-08 3.1923065e-08 3.177368e-09 2.8863094e-09 7.7466017e-10 3.740853e-09
9.164431e-09 4.2410235e-08 4.6354096e-08 3.970387e-08 5.055e-08 3.9268922e-08 3.9955403e-08 4.0873694e-08
00000000: 5c20 a331 09d4 8931 b2f9 dc32 ddc5 a134
00000010: bae8 0634 eaba 4d34 b82c a433 13c4 e533
00000020: ea50 3033 0d83 d832 63bf 8c31 09d4 8931
00000030: 7ccf 9330 a865 b231 286a 4d33 d27a 7f34
00000040: dd04 0835 b96a a934 9af3 8934 1470 1834
00000050: 8d6c a833 43d9 5833 3221 0c33 478e f131
00000060: 2751 8c31 afc0 1230 a865 b231 c72a bf34
00000070: adc9 3335 47f1 4b35 7c9f 0635 b35e 8e34
00000080: 4ddf 1334 236e 8a33 7b2e 3233 4673 2933
00000090: 6a30 dc32 356a 1e32 afc0 1230 6587 4133
000000a0: 41b2 0f35 6ee6 5035 a536 3d35 a784 1435
000000b0: df94 8334 9a9f eb33 8deb 9333 8d9f 4333
000000c0: a803 4233 22ed 2033 c415 1433 ab48 2330
000000d0: f7ac 1334 516c c734 2e61 1d35 b151 0135
000000e0: 588d e434 4e21 6134 3c20 ee33 0b62 a133
000000f0: 5090 6e33 fa2d 6533 9a2d 5333 280a 4033
00000100: 5569 3f31 d86a 1633 1408 0e34 b834 c434
00000110: 118d 9234 638c 9134 bead 1734 72c2 e833
00000120: ac0f c133 6036 9833 8d90 9c33 c44e 8b33
00000130: 3397 5f32 1e50 1130 f36a c731 292b 9c32
00000140: 04d3 4334 decb f333 e6d9 1f34 e9dd c133
00000150: 2ffe c133 0706 bf33 369f c833 6d71 9f33
00000160: eb35 5533 7812 8331 f0f1 0a30 a865 b231
00000170: a934 9431 6b5e 6c33 3f7c 8c33 7fe4 9a33
00000180: afbd 7a33 ba53 a133 003b ac33 d3a5 ba33
00000190: 2629 4733 26a3 4a32 e1a4 8831 afc0 1230
000001a0: a865 b231 25d8 3831 10a3 3332 82f0 ae32
000001b0: bb03 6433 000a 9f32 e012 7533 9540 e832
000001c0: 145c 9d33 f18d ad31 4752 8a31 25d8 3831
000001d0: afc0 1230 fde8 8d31 2ea3 6f31 5a7c 0732
000001e0: 30b6 6c33 c468 1833 b94f 7233 ecf2 0033
000001f0: ef78 2533 c6b0 f432 2e1b 1f33 c860 8131
00000200: 2ea3 6f31 d2be 8030 f81f 9b31 6be3 d531
00000210: 33d8 d832 7633 7533 6cb7 9033 829f 5833
00000220: a6b1 3033 f77e 2733 ebe8 2733 6bcf 3e33
00000230: 3f67 4a32 73de 7031 44a6 ff2f f81f 9b31
00000240: 610b ac32 8839 1c33 472f 5933 30fa 9d33
00000250: e15a 8b33 1d38 4f33 76af 4633 939b 2433
00000260: 8f19 5b33 4979 2133 7744 8b32 44a6 ff2f
00000270: b69f fa31 caa7 1433 c323 2633 ce9a 7833
00000280: 0aa1 9333 5b0b e533 c7f6 9933 c541 9f33
00000290: 3d82 6433 e683 9733 2303 9a33 7edd 8033
000002a0: 0b72 0c30 486a ab32 2b25 8633 2426 7b33
000002b0: 667f d533 1bad c433 ddd1 2134 e889 1434
000002c0: 03c5 0834 2a91 bf33 5305 d333 13aa a033
000002d0: dc86 6a33 94f3 7931 f63f 5232 2b98 4c33
000002e0: 04b7 c933 3c6e f333 4f51 0d34 0ed9 2934
000002f0: 9b64 5234 f519 8434 73bd 3b34 aa60 5134
00000300: d490 d233 29b5 9732 b2b9 ef2f 9570 a531
00000310: 751f 4032 0336 a933 fade aa33 bd99 e633
00000320: 7f9e c033 98fb 4f34 56bd 8734 7d92 ad34
00000330: 5673 9034 02ae 0634 3e1a 4931 34d7 e82f
00000340: f81f 9b31 ee19 8031 a1b3 2a33 c701 4933
00000350: 7951 5d33 e180 4f33 d02b d533 f75d 0b34
00000360: c1ca 9034 60a8 1334 a703 0733 2f8e 5431
00000370: 44a6 ff2f f81f 9b31 daab 2031 6444 1932
00000380: e014 6932 d9f9 1d33 5f02 8d32 b25b 6233
00000390: 3ccc 0433 7904 0934 d24c 3932 d7b4 4131
000003a0: daab 2031 44a6 ff2f b848 6b31 7e58 4631
000003b0: ab1d 0b32 6803 5133 a26e b232 a773 1533
000003c0: aa45 b032 1cad 1e33 abb2 b832 c81b 0933
000003d0: d958 5a31 7e58 4631 ddef 5430 e488 8031
000003e0: 9871 1d32 8c26 3633 de16 4733 de86 2a33
000003f0: 501c 5933 a3a8 2833 6e9b 2b33 1a8d 2f33

exp_avg f4 [64]
-0.00016071295 0.00014035267 0.000112644964 0.00011058056 0.0001264138 0.00012594146 0.0001447155 0.00014761409
-4.7953366e-05 -0.00010109507 -0.0001392038 -7.1182636e-05 5.9178496e-05 -0.00012779799 -0.00013350208 -0.00014468674
4.3830474e-05 0.00010286229 5.350947e-05 4.4961984e-05 0.00013344499 -3.0358893e-05 0.00014904904 5.9274284e-05
-5.9014703e-05 -7.3192865e-08 2.8440876e-05 -7.898334e-05 0.00010256284 0.00013703294 8.911242e-05 0.00013717535
-8.462924e-05 9.250159e-05 0.00013303412 -1.8475494e-05 4.445832e-05 0.00011667357 -5.2208383e-05 0.0001729132
-9.9434976e-05 0.00012652087 -7.1129936e-05 -7.599754e-05 0.00010212329 6.449282e-05 -8.268616e-05 -0.0001356613
-8.2644445e-05 -9.783635e-05 -0.00013088153 -0.00014068495 2.1089872e-05 -0.000101634425 0.000101927464 -6.9050344e-05
-9.406007e-05 -4.5683737e-05 -6.884779e-05 7.1540046e-05 0.00014256881 6.259941e-05 0.00010609183 -9.222828e-06
00000000: 0e85 28b9 a22b 1339 ce3b ec38 7ce7 e738
00000010: f28d 0439 270f 0439 c5be 1739 dbc8 1a39
00000020: 8921 49b8 0103 d4b8 3cf7 11b9 e347 95b8
00000030: 6d36 7838 8301 06b9 b1fc 0bb9 0db7 17b9
00000040: 9dd6 3738 c5b7 d738 5b6f 6038 9095 3c38
00000050: 5eed 0b39 3aab feb7 0c4a 1c39 479d 7838
00000060: 8e86 77b8 342e 9db3 5194 ee37 dca3 a5b8
00000070: 0117 d738 80b0 0f39 dee1 ba38 bad6 0f39
00000080: fa7a b1b8 6afd c138 137f 0b39 d2fb 9ab7
00000090: c278 3a38 a5ae f438 53fa 5ab8 0950 3539
000000a0: bf87 d0b8 b0aa 0439 982b 95b8 de60 9fb8
000000b0: 062b d638 5240 8738 cb67 adb8 4e40 0eb9
000000c0: 6651 adb8 7e2d cdb8 3e3d 09b9 d484 13b9
000000d0: 28ea b037 9124 d5b8 e4c1 d538 1fcf 90b8
000000e0: 1e42 c5b8 8a9c 3fb8 6062 90b8 c507 9638
000000f0: 867e 1539 cd47 8338 9e7d de38 bfbb 1ab7

exp_avg_sq f4 [64]
2.6885675e-07 2.3454155e-07 1.9341034e-07 1.4243206e-07 2.5598536e-07 2.395684e-07 2.2046318e-07 3.201191e-07
2.620792e-08 1.8585003e-07 1.8573111e-07 1.06934365e-07 4.6877044e-08 2.082834e-07 2.4498215e-07 2.0554049e-07
3.4129233e-08 1.5259074e-07 1.0445681e-07 4.4146027e-08 2.2956323e-07 6.44735e-08 2.1702981e-07 2.0598539e-07
4.9722868e-08 7.7843225e-09 2.0201822e-08 3.3392297e-08 1.5899239e-07 2.5366666e-07 9.563332e-08 2.4829427e-07
1.278116e-07 1.913743e-07 1.1608746e-07 2.1635183e-08 2.426849e-08 1.1151652e-07 8.827315e-08 4.065244e-07
1.1677502e-07 2.2303756e-07 4.7672913e-08 7.2601935e-08 1.2314382e-07 5.0483084e-08 9.112331e-08 2.3940063e-07
9.813685e-08 1.2867896e-07 2.5282785e-07 6.601321e-08 3.821345e-08 1.3715281e-07 1.6857933e-07 2.1940782e-08
1.703848e-07 5.0709918e-08 4.475942e-08 1.056719e-07 2.1333871e-07 7.328072e-08 1.0985681e-07 1.38678224e-08
00000000: 6457 9034 4ad6 7b34 3bac 4f34 6def 1834
00000010: 5c6e 8934 089e 8034 75b8 6c34 d6dc ab34
00000020: d31f e132 118e 4734 616d 4734 caa3 e533
00000030: db55 4933 81a4 5f34 1786 8334 8ab2 5c34
00000040: 7d95 1233 d3d7 2334 bd51 e033 129b 3d33
00000050: dc7d 7634 ae74 8a33 b308 6934 d52c 5d34
00000060: df8e 5533 d0bb 0532 4788 ad32 386b 0f33
00000070: 7fb7 2a34 ae2f 8834 f95e cd33 4e4d 8534
00000080: 963c 0934 917c 4d34 c24b f933 45d8 b932
00000090: f976 d032 db7a ef33 ad90 bd33 4a40 da34
000000a0: bfc5 fa33 197c 6f34 ecc0 4c33 56e9 9b33
000000b0: 8439 0434 bdd2 5833 92af c333 f986 8034
000000c0: 4ebf d233 012b 0a34 65bc 8734 25c3 8d33
000000d0: 2220 2433 4744 1334 bc02 3534 4a78 bc32
000000e0: 04f3 3634 25cc 5933 813d 4033 beed e233
000000f0: 1912 6534 805e 9d33 6cea eb33 543f 6e32

exp_avg f4 [117, 64]
-8.40677e-06 1.0875494e-05 6.972719e-06 8.863072e-06 1.029041e-05 1.1344837e-05 9.017132e-06 9.985354e-06
-6.9579987e-06 -8.802697e-06 -8.25781e-06 -9.607424e-06 6.8821346e-06 -8.497412e-06 -1.0442089e-05 -8.743639e-06
6.30918e-06 7.449629e-06 6.3038156e-06 3.7565212e-06 9.490595e-06 -5.1489387e-06 8.2021525e-06 7.9532965e-06
-7.1043282e-06 4.229396e-08 1.5413357e-06 -3.27431e-06 7.874992e-06 1.07244505e-05 7.6430015e-06 9.290632e-06
-3.3285842e-06 1.0358865e-05 5.1500165e-06 -2.7381557e-06 3.1471416e-06 7.891727e-06 -9.495114e-06 2.4844645e-05
-7.482928e-06 9.857967e-06 -5.026218e-06 -9.525768e-06 7.2379485e-06 2.959481e-06 -7.580057e-06 -9.371501e-06
-7.4216264e-06 -6.4618857e-06 -1.0697633e-05 -5.6276717e-06 3.6478123e-06 -4.372066e-06 7.1389095e-06 -3.5794387e-06
-8.628623e-06 -4.312017e-06 -4.189437e-06 5.2864684e-06 7.9017755e-06 6.576e-06 4.6291775e-06 6.170795e-08
1.0767912e-05 -9.21871e-06 -4.569242e-06 -6.378734e-06 -1.08058875e-05 -1.2235275e-05 -7.008397e-06 -1.6286927e-05
4.1115345e-06 9.542756e-06 1.3056372e-05 7.944658e-06 -1.7956224e-06 1.3421511e-05 1.3215422e-05 9.123761e-06
-7.438253e-06 -8.963308e-06 -7.0636934e-06 -4.8885163e-06 -9.61911e-06 9.116789e-06 -9.623681e-06 -1.3690163e-05
9.217817e-06 3.9569745e-06 -4.5769025e-06 2.8121647e-06 -1.1313855e-05 -1.176585e-05 -5.101049e-06 -1.2793281e-05
1.3805293e-05 -1.1821805e-05 -9.353935e-06 2.357691e-06 -3.3493525e-06 -9.6877475e-06 3.090305e-06 -1.5372183e-05
8.105191e-06 -1.426344e-05 4.6126283e-06 8.641513e-06 1.2169634e-06 -3.661756e-06 7.0692163e-06 1.119844e-05
1.0238711e-05 1.0595078e-05 1.394012e-05 1.4250393e-06 -3.8998533e-06 1.2230217e-05 -1.1764847e-05 2.099764e-07
7.494426e-06 7.4269237e-06 4.918927e-06 -7.836138e-06 -8.364391e-06 -8.268695e-06 -3.8896337e-06 3.4347147e-06
7.0683884e-05 -3.51364e-05 2.7543705e-05 -5.4363336e-05 -3.3184824e-05 -2.0133725e-06 -7.18829e-05 -1.2266504e-05
1.9459058e-05 1.2877928e-05 2.7267504e-05 2.453092e-05 -2.8195038e-06 4.0163355e-05 -7.162053e-06 3.0273824e-05
-6.213828e-06 2.0890431e-05 -2.4749172e-05 -1.8288867e-05 -2.1081063e-05 -7.096476e-06 -3.383984e-05 -1.0056389e-05
-6.62178e-06 2.527451e-05 -6.68115e-06 3.7409525e-05 6.4436204e-06 -4.418005e-05 -3.925345e-05 -1.5358228e-05
4.0785682e-05 -2.7788232e-05 -3.6014408e-05 2.910244e-05 -6.724493e-07 -3.2641285e-05 -4.0018567e-05 2.2337083e-05
1.9411116e-05 -6.488155e-06 1.4505345e-05 4.5841814e-05 -2.9506841e-06 1.8533116e-05 7.549831e-06 3.2125507e-05
3.213802e-05 -2.034929e-05 1.4808081e-05 6.469325e-07 -2.6192213e-06 3.8116843e-05 -1.31785355e-05 2.3686598e-05
1.1863533e-06 -1.2060157e-05 -7.3579768e-06 -1.5395768e-05 1.4825207e-05 -6.536337e-06 -2.5457162e-05 9.534001e-06
0.00019925155 -2.3328153e-05 0.00014857385 -0.00013273589 -1.24303515e-05 6.384247e-05 -0.00022475404 8.729779e-05
1.8862319e-06 -8.719156e-06 2.0329979e-05 1.6838057e-05 -2.0922236e-05 5.4239907e-05 -0.00011992423 -4.46129e-06
6.649138e-06 0.00012914825 -1.82429e-05 1.9177502e-05 3.362936e-06 -5.7951343e-05 -4.5724388e-05 4.720496e-05
-6.836683e-05 6.848188e-05 -8.34329e-06 0.00011492694 9.912505e-05 -5.8032503e-05 -9.000101e-05 3.072494e-05
4.8454654e-05 1.9635752e-05 -6.822914e-05 3.0153968e-05 2.8198101e-05 -3.7551963e-05 -0.00017197015 0.00025436183
-1.0498851e-05 6.8769805e-05 3.5753576e-05 6.938679e-05 -6.353289e-06 6.185055e-05 -1.44745445e-05 4.344688e-05
2.5245768e-05 -0.00011348083 -7.657491e-05 -1.3898618e-05 2.8527081e-06 5.407533e-05 3.2343156e-05 7.7545024e-05
-9.4328076e-05 -9.8623044e-05 -5.0800558e-05 1.0071445e-05 8.831463e-05 5.73057e-05 -4.0203973e-05 2.7693437e-05
00000000: cd0a 0db7 e475 3637 33f7 e936 9bb2 1437
00000010: f9a4 2c37 b455 3e37 4948 1737 c586 2737
00000020: c178 e9b6 4caf 13b7 068b 0ab7 922f 21b7
00000030: 16ed e636 1b90 0eb7 6e30 2fb7 a5b1 12b7
00000040: 72b3 d336 d3f7 f936 5d85 d336 8b18 7c36
00000050: cc39 1f37 0cc5 acb6 fa9b 0937 266f 0537
00000060: b761 eeb6 b3a6 3533 e4df ce35 38bc 5bb6
00000070: d51e 0437 2aed 3337 713a 0037 f6de 1b37
00000080: a460 5fb6 fdca 2d37 4ece ac36 28c1 37b6
00000090: 7b33 5336 b666 0437 344d 1fb7 7869 d037
000000a0: dd15 fbb6 a563 2537 e2a6 a8b6 ddd0 1fb7
000000b0: 81dd f236 7f9b 4636 3258 feb6 4a3a 1db7
000000c0: 4907 f9b6 2dd3 d8b6 fc79 33b7 55d5 bcb6
000000d0: f0cc 7436 c3b3 92b6 c48a ef36 4a36 70b6
000000e0: a7c3 10b7 f2af 90b6 fd92 8cb6 6b62 b136
000000f0: de91 0437 69a7 dc36 5554 9b36 4e84 8433
00000100: d4a7 3437 0faa 1ab7 7d51 99b6 e808 d6b6
00000110: ef4a 35b7 1b46 4db7 ac29 ebb6 e99f 88b7
00000120: d0f5 8936 d319 2037 b10c 5b37 0c4a 0537
00000130: 1e01 f1b5 f32c 6137 ceb7 5d37 4112 1937
00000140: 1b96 f9b6 1d61 16b7 aa04 edb6 0908 a4b6
00000150: c361 21b7 50f4 1837 6575 21b7 cdae 65b7
00000160: 39a6 1a37 27c6 8436 4b93 99b6 9fb8 3c36
00000170: a3d0 3db7 f165 45b7 ad29 abb6 b9a2 56b7
00000180: 489d 6737 4456 46b7 d8ee 1cb7 d338 1e36
00000190: 70c5 60b6 8f88 22b7 0963 4f36 83f3 80b7
000001a0: 88fb 0737 024d 6fb7 2dc6 9a36 04fb 1037
000001b0: 8b56 a335 7dbc 75b6 1b34 ed36 efe0 3b37
000001c0: eec6 2b37 83c1 3137 5ce0 6937 fa43 bf35
000001d0: 7cdb 82b6 6230 4d37 a261 45b7 e075 6134
000001e0: a178 fb36 ca34 f936 430d a536 f577 03b7
000001f0: c954 0cb7 c6b9 0ab7 b383 82b6 f37f 6636
00000200: 1f3c 9438 6c5f 13b8 a80d e737 3004 64b8
00000210: ef2f 0bb8 7a1d 07b6 d7bf 96b8 3ccc 4db7
00000220: 023c a337 480e 5837 85bc e437 c0c7 cd37
00000230: b536 3db6 1375 2838 9151 f0b6 8bf4 fd37
00000240: 6080 d0b6 dc3d af37 719c cfb7 0b6b 99b7
00000250: 3dd7 b0b7 441e eeb6 40ef 0db8 ddb7 28b7
00000260: a830 deb6 9904 d437 a42e e0b6 2ce8 1c38
00000270: 4736 d836 f84d 39b8 12a4 24b8 8bd5 80b7
00000280: 4b11 2b38 c61a e9b7 2d0e 17b8 0421 f437
00000290: 5d82 34b5 50e8 08b8 9cd9 27b8 8560 bb37
000002a0: 0ed5 a237 d4b4 d9b6 fb5b 7337 4646 4038
000002b0: 5e04 46b6 9077 9b37 8e54 fd36 80be 0638
000002c0: f0cb 0638 c4b3 aab7 3970 7837 dda8 2d35
000002d0: e1c5 2fb6 a6df 1f38 6119 5db7 95b2 c637
000002e0: ca3a 9f35 fb55 4ab7 8ae4 f6b6 2926 81b7
000002f0: c7b9 7837 b552 dbb6 d78c d5b7 39f4 1f37
00000300: 2eee 5039 d4b0 c3b7 7dca 1b39 052f 0bb9
00000310: f48b 50b7 2ae3 8538 f4ab 6bb9 a513 b738
00000320: 6f2a fd35 7d48 12b7 4c8a aa37 743f 8d37
00000330: 2982 afb7 a87f 6338 d57f fbb8 30b2 95b6
00000340: a91b df36 f86b 0739 5408 99b7 5fdf a037
00000350: cdae 6136 c810 73b8 30c8 3fb8 f1fd 4538
00000360: 2a60 8fb8 ee9d 8f38 28fa 0bb7 ee04 f138
00000370: 5be1 cf38 ed67 73b8 edbe bcb8 a7de 0038
00000380: ca3b 4b38 75b7 a437 3e16 8fb8 27f3 fc37
00000390: f68a ec37 1d81 1db8 e352 34b9 de5b 8539
000003a0: 3924 30b7 8238 9038 1cf6 1538 c083 9138
000003b0: 562e d5b6 c3b5 8138 b2d7 72b7 bb3a 3638
000003c0: e0c6 d337 8ffc edb8 d796 a0b8 1c2e 69b7
000003d0: 2771 3f36 f2ce 6238 33a8 0738 ab9f a238
000003e0: 00d2 c5b8 d8d3 ceb8 af12 55b8 87f8 2837
000003f0: 8e35 b938 875b 7038 b0a0 28b8 344f e837
