server_report/ae_hexa/ae_hexa_leakage/autoencoder_20260102_143636.pth (torch, 216228 bytes, 64 tensors)

enc1.kernel0 f4 [2, 1, 5, 1]
0	0xbebbbd47	-0.36667845
1	0x3ea811a0	0.32825947
2	0x3f3e76cf	0.7440004
3	0x3e6e1ded	0.23253603
4	0xbf0ecb76	-0.55779207
5	0x3f12835f	0.57231706
6	0x3ebc7d64	0.36814415
7	0x3e30e2bb	0.17273991
8	0x3ee77be6	0.45211715
9	0x3f262288	0.6489644

enc1.kernel1 f4 [2, 1, 4, 2]
0	0x3e58e04e	0.21179315
1	0xbeec8991	-0.46198705
2	0x3fce3218	1.6109037
3	0xbdf2b193	-0.11850276
4	0x3f804a6f	1.0022715
5	0xbe899eab	-0.26878867
6	0xbed20440	-0.41018867
7	0xbf0f207c	-0.5590894
8	0x3eb618f2	0.35565907
9	0x3f1b90fc	0.60768104
10	0xbe041086	-0.12896928
11	0x3ef74c6d	0.48300496
12	0x3e26937b	0.16267197
13	0x3f06cd17	0.5265669
14	0x3f212bcb	0.6295745
15	0x3f4a9dc3	0.79146975

enc1.kernel2 f4 [2, 1, 3, 2]
0	0x3f0822fa	0.5317837
1	0xbe700ed5	-0.23443158
2	0x3f0a7f88	0.5410085
3	0xbe930fd7	-0.28723022
4	0xbdc64723	-0.09681537
5	0xbf011403	-0.5042116
6	0x3e1faad5	0.15592511
7	0x3ea08d7d	0.31357947
8	0x3e28425a	0.16431561
9	0x3ed4ac53	0.41537723
10	0x3f11b112	0.5691081
11	0x3efa8d3f	0.48935887

enc1.bias_tensor f4 [2]
0	0x3bfbeb97	0.0076879966
1	0xb82ede0c	-4.169163e-05

bn1.weight f4 [2]
0	0x3f24d290	0.6438379
1	0x3fa1f114	1.2651696

bn1.bias f4 [2]
0	0x3d35eac5	0.044413347
1	0x3eb628d6	0.3557803

bn1.running_mean f4 [2]
0	0x3db97947	0.09056335
1	0x3ef9383b	0.48675713

bn1.running_var f4 [2]
0	0x3f9c30b0	1.2202358
1	0x40abcb2c	5.3685513

enc2.kernel0 f4 [1, 2, 3, 1]
0	0x3e91d7a0	0.2848482
1	0x3f31da0e	0.6947335
2	0x3f110ec7	0.56663173
3	0xbe141045	-0.14459331
4	0x3e2d3903	0.1691628
5	0x3ef53cd2	0.47897965

enc2.kernel1 f4 [1, 2, 2, 2]
0	0xbd0e87ee	-0.0347976
1	0x3f09d6ed	0.53843576
2	0x3e0b1813	0.13583402
3	0x3ebdcd67	0.37070772
4	0xbf03f18d	-0.5154045
5	0x3ef491e2	0.4776755
6	0xbe94ebb3	-0.29086074
7	0x3f5431ab	0.8288829

fc_enc.weight f4 [64, 117]
0	0xbe664b7f	-0.22489737
1	0xbe3ef787	-0.18649112
2	0xbe0e4c38	-0.13896263
3	0xbe28ee61	-0.16497184
4	0x3d87779d	0.06614611
5	0x3d8b4143	0.06799557
6	0xbd4207d7	-0.047370758
7	0x3e619bac	0.2203204
8	0x3de984ad	0.11402259
9	0xbde117a3	-0.109908365
10	0xbe47cf57	-0.19512688
11	0xbe35e1ff	-0.17761992
12	0xbe75b297	-0.23993908
13	0xbea036a4	-0.31291687
14	0xbe08392c	-0.1330306
15	0xbd357e9a	-0.04431019
16	0x3db97a23	0.09056499
17	0xbc663d7c	-0.014052745
18	0x3cb44428	0.022005156
19	0xbdaf1835	-0.08549539
20	0x3d34d136	0.04414483
21	0xbeae22fa	-0.3401106
22	0x3d3a4dea	0.04548446
23	0x3e607c93	0.21922521
24	0xbe6012ec	-0.21882218
25	0xbe1e761c	-0.15474743
26	0xbeaf1579	-0.3419607
27	0x3ebb46b8	0.36577392
28	0x3e023b04	0.12717825
29	0x3ccbda53	0.024884379
30	0x3da86d70	0.082239985
31	0x3e1fa810	0.15591455
32	0x3dd1b8b0	0.102403045
33	0xbd32d983	-0.043664467
34	0x3e9ea178	0.30982566
35	0xbbefc9fe	-0.0073177805
36	0xbead00d4	-0.33789694
37	0x3d223556	0.039601646
38	0xbe6fbf9f	-0.23412941
39	0xbe81e8cb	-0.2537292
40	0x3e6a8b4a	0.22904697
41	0xbe41fd3b	-0.18944256
42	0xbe1bef15	-0.15227921
43	0x3e63fad0	0.22263646
44	0xbdf87ed1	-0.12133563
45	0x3cbb5821	0.022869172
46	0xbdcb96e0	-0.099408865
47	0xbdcdb51e	-0.10044311
48	0x3c340d72	0.010989534
49	0x3d379cc1	0.044827227
50	0x3bbabe4d	0.005698955
51	0xbe11825c	-0.14209884
52	0xbe38b17f	-0.1803646
53	0x3e265028	0.16241515
54	0xbd078e03	-0.033094417
55	0xbb7ab99d	-0.0038257607
56	0x3d065da8	0.03280416
57	0xbe303a46	-0.1720973
58	0xbd8a81ab	-0.067630135
59	0x3d78143c	0.060566172
60	0x3cf9096c	0.0304
61	0x3e8c1c33	0.27365264
62	0xbd65ad73	-0.056073617
63	0x3d9c8f43	0.076445125
64	0x3e1af7d5	0.15133603
65	0xbe57ae34	-0.21062547
66	0x3e5c05ca	0.21486583
67	0xbb8b4e06	-0.0042512445
68	0xbd1babe8	-0.03800574
69	0x3d7c238d	0.06155734
70	0x3d969588	0.073527396
71	0xbc719c20	-0.014746696
72	0xbe4a06c4	-0.19729143
73	0xbd2d1ab2	-0.042261787
74	0xbe1977ea	-0.1498715
75	0xbeb723bc	-0.3576945
76	0x3e82c4c4	0.25540745
77	0xbdb9ce97	-0.09072607
78	0xbe8027fb	-0.25030503
79	0xbee0570c	-0.43816411
80	0x3d8b9a80	0.06816578
81	0x3d28b69c	0.041189775
82	0x3da735ac	0.08164534
83	0xbd689ca0	-0.056789994
84	0x3e8990b2	0.26868206
85	0xbe3bc5a8	-0.18337119
86	0x3d66bf33	0.056334686
87	0x3e728946	0.23685178
88	0x3e26cc8e	0.16288969
89	0xbe81a6f5	-0.2532269
90	0xbe5afe12	-0.21385983
91	0xbe5b94ea	-0.21443525
92	0xbdf6ff8a	-0.12060459
93	0xbd218ab7	-0.03943893
94	0xbe194c5d	-0.14970537
95	0xbe03472e	-0.12820122
96	0x3d82df11	0.06390203
97	0xbe1cbf71	-0.15307404
98	0xbe2209ed	-0.15824099
99	0xbdde3797	-0.10850447
100	0x3d5c6f30	0.053816974
101	0xbe94287c	-0.28937137
102	0xbe12486f	-0.14285444
103	0xbe5e4ae6	-0.21708259
104	0xbe82e4cf	-0.25565192
105	0xbe6c79ca	-0.23093334
106	0xbe20ad2a	-0.15691057
107	0x3e21e95c	0.15811676
108	0x3e551dfa	0.20812216
109	0xbe3e97bc	-0.1861257
110	0x3e56fe78	0.2099551
111	0x3ea7ec56	0.32797498
112	0x3dabb78b	0.083846174
113	0xbdf7b072	-0.12094201
114	0xbe89e8ed	-0.2693552
115	0xbe2e8a7e	-0.17045018
116	0xbdce7614	-0.10081115
117	0xbe1fedf0	-0.1561811
118	0xbcb924cf	-0.02260056
119	0xbee7abc0	-0.45248222
120	0xbe52320d	-0.20526905
121	0x3f03dd98	0.5151
122	0xbea2191b	-0.3165978
123	0x3da30d8f	0.079615705
124	0xbc04cce7	-0.008105493
125	0xbe144ffe	-0.1448364
126	0x3d4247ad	0.047431637
127	0x3e15ee9c	0.14641804
128	0xbd981407	-0.07425695
129	0xbcef4a22	-0.029210154
130	0xbd979588	-0.07401568
131	0x3edf0d46	0.43564814
132	0xbd0ee2ab	-0.034884136
133	0xbdc0b0c2	-0.09408714
134	0x3e164fb4	0.14678842
135	0xbdacb9a6	-0.08433847
136	0x3e332789	0.1749555
137	0x3d05ff60	0.032714248
138	0xbcf68837	-0.03009425
139	0x3e70098d	0.23441143
140	0xbeb5eea8	-0.35533643
141	0xbdae2136	-0.08502428
142	0xbd7a14a3	-0.061054837
143	0xbdb80913	-0.08986106
144	0xbe9e75f0	-0.30949354
145	0x3e0bdacc	0.13657683
146	0x3e65dcd6	0.22447523
147	0xbe7ee00c	-0.24890155
148	0x3d7e1624	0.062032834
149	0x3e1338e0	0.14377165
150	0xbdc6f050	-0.09713805
151	0xbd4375f8	-0.047719926
152	0xbd2bb2c6	-0.04191854
153	0x3dd479a4	0.103747636
154	0x3e1c5f01	0.15270616
155	0x3c1c0fad	0.009525222
156	0x3d1c184f	0.03810912
157	0x3d58a8c3	0.05289532
158	0xbe42bf0b	-0.1901819
159	0xbdd079e2	-0.10179497
160	0x3e6be18c	0.23035258
161	0xbdeef38b	-0.11667546
162	0xbdc75988	-0.097338736
163	0x3da864ff	0.082223885
164	0xbdfac15c	-0.122439116
165	0xbcb5dfd4	-0.022201456
166	0xbcff6def	-0.03118035
167	0xbd77f06a	-0.06053201
168	0xbc69cc9f	-0.014269977
169	0x3e4db2fa	0.20087805
170	0x3de2ec56	0.11080234
171	0x3d8450e8	0.06460744
172	0xbd2f560f	-0.04280668
173	0xbe23b7fc	-0.15988153
174	0x3cbb1062	0.02283496
175	0x3e502402	0.20326236
176	0x3d423bcf	0.04742032
177	0x3b4aa486	0.0030920818
178	0x3db3bb25	0.08775929
179	0x3c0efa00	0.008726597
180	0xbda7b410	-0.08188641
181	0x3eef0a28	0.46687436
182	0xbe184044	-0.14868265
183	0xbcbd226b	-0.0230877
184	0x3bcf72bd	0.0063308165
185	0x3e08f129	0.13373245
186	0x3e1984ab	0.14992015
187	0xbcb0706f	-0.021537988
188	0xbe46f08c	-0.19427699
189	0x3d964269	0.073368855
190	0xbd41426b	-0.04718248
191	0xbe164883	-0.14676099
192	0xbdd69096	-0.10476796
193	0xbe088522	-0.13332036
194	0xbd847af9	-0.06468768
195	0x3d3551d9	0.04426751
196	0x3f0ab66d	0.5418461
197	0xbe41b5b3	-0.18916969
198	0xbd93e9a6	-0.07222299
199	0x3d8db7ff	0.0691986
200	0xbe15a1ba	-0.14612475
201	0x3d0a1c63	0.033718478
202	0x3dfeafee	0.124359
203	0x3d0e2958	0.034707397
204	0xbd8cf162	-0.068819776
205	0x3e2a5c9a	0.16636887
206	0xbd4bb921	-0.0497371
207	0xbc650ecc	-0.013980579
208	0xbe179e9b	-0.14806597
209	0x3cf93bc1	0.030424
210	0xbb5ee9fd	-0.003401398
211	0x3e8f2820	0.279603
212	0xbe6ff7a3	-0.2343431
213	0x3d54b21d	0.051927675
214	0x3cabb6e3	0.02096123
215	0xbe929c43	-0.28634843
216	0x3e651db2	0.22374609
217	0xbdd11235	-0.10208551
218	0x3e0616b6	0.13094601
219	0xbe291cae	-0.16514847
220	0x3d441119	0.047867868
221	0xbd98401e	-0.074341044
222	0xbd506ef8	-0.050887078
223	0xbeea0d63	-0.45713338
224	0xbeaba51c	-0.33524406
225	0x3e1442d1	0.14478613
226	0x3dead079	0.11465544
227	0xbc65c78e	-0.014024628
228	0xbd9ec17f	-0.0775175
229	0x3e8268e3	0.25470647
230	0xbdc7e9a7	-0.097613625
231	0xbe8ba381	-0.2727318
232	0xbd6dbeb6	-0.058043204
233	0x3da0e0b5	0.078553595
234	0xbdd2a044	-0.102844745
235	0xbdf35a2d	-0.11882434
236	0x3e873dbf	0.26414296
237	0x3e32814b	0.17432134
238	0xbcd57511	-0.026056798
239	0xbdcbed18	-0.099573314
240	0x3d235ed9	0.039885376
241	0x3d70f08d	0.058823157
242	0x3d9ea47c	0.07746217
243	0xbc896904	-0.016773708
244	0x3d9422d3	0.07233205
245	0xbe121f71	-0.14269806
246	0x3c0ea252	0.008705692
247	0xbe0fad91	-0.14031054
248	0xbeab2852	-0.334292
249	0xbe070db0	-0.13188815
250	0xbe3ce06e	-0.18444988
251	0xbd26629a	-0.040621378
252	0x3e839a48	0.25703645
253	0xbdcd4224	-0.10022381
254	0x3df1c37e	0.11804865
255	0xbe8c31c8	-0.2738173

fc_enc.bias f4 [64]
0	0x3cbf8bc3	0.023382073
1	0x3c2f689b	0.010706092
2	0xbcda982d	-0.026683891
3	0xbdd83f63	-0.10558965
4	0x3d5dddd5	0.054166634
5	0x3d88ffa5	0.06689385
6	0x3c63a037	0.013893179
7	0xbd853c63	-0.065056585
8	0x3dd99295	0.106236614
9	0x3d5ed2eb	0.054400366
10	0x3d1c6a4c	0.03818731
11	0xbce44109	-0.027863042
12	0xbae04cab	-0.0017112693
13	0xbd3d3b5d	-0.04619919
14	0x3ba11f93	0.004917094
15	0x3debd7dd	0.11515782
16	0x3ccc1730	0.0249134
17	0x3b4ce65c	0.0031265235
18	0xbc57512b	-0.013141911
19	0xbe265267	-0.16242371
20	0x3d94dbaa	0.0726846
21	0xbd477500	-0.048695564
22	0x3ccccf4f	0.025001196
23	0x3d64b51e	0.05583679
24	0x3e09159b	0.13387148
25	0x3e040566	0.12892684
26	0xbcf4b040	-0.029869199
27	0xbd272e73	-0.04081578
28	0x3cec70f7	0.02886246
29	0x3d4ab801	0.049491886
30	0x3dd58335	0.104254164
31	0x3d5010e2	0.05079735
32	0xbdb6dab2	-0.089284316
33	0xbc37ca02	-0.011217596
34	0xbdc77efa	-0.09741016
35	0x3c188291	0.009308473
36	0x3d649e71	0.055815164
37	0x3df117f2	0.11772145
38	0x3b811055	0.0039387145
39	0xbc97ba18	-0.018521354
40	0xbda3cbe3	-0.07997873
41	0x3d023018	0.031784147
42	0xbcde55dd	-0.027140552
43	0xbcfa7c98	-0.030576989
44	0xbd9642c9	-0.07336957
45	0xb6cd66bc	-6.121436e-06
46	0x3d220146	0.039551996
47	0x3e0de3a1	0.13856365
48	0x3dbd5dff	0.09246444
49	0xbd0e9764	-0.034812346
50	0x3daba8fe	0.08381842
51	0xbcf3c240	-0.029755712
52	0xbdbc903d	-0.09207199
53	0xbc98044e	-0.01855674
54	0xbd776841	-0.06040216
55	0x3c960082	0.018310789
56	0x3cc803ce	0.024415877
57	0x3bdcb038	0.006734874
58	0x3d863610	0.0655328
59	0x3d9554d5	0.07291571
60	0x3da54db5	0.08071462
61	0xbc9ff41d	-0.019525582
62	0x3db1f834	0.08689919
63	0x3db9d9ea	0.09074767

fc_dec.weight f4 [117, 64]
0	0x3e4fe5ed	0.20302553
1	0x3d9ccb36	0.07655947
2	0xbddafa0a	-0.106922224
3	0x3e405fab	0.18786494
4	0xbdb994e7	-0.09061604
5	0x3e51f97b	0.20505325
6	0xbd843338	-0.06455082
7	0xbdcf2493	-0.10114398
8	0xbe7dbe5a	-0.24779645
9	0xbe3c3034	-0.18377763
10	0xbe83e3c5	-0.25759712
11	0xbd3f6e1d	-0.04673587
12	0xbe424b04	-0.18973929
13	0x3eb20b7a	0.3477438
14	0x3ea2bf7f	0.31786725
15	0x3ef723a2	0.48269373
16	0xbe7a0d31	-0.24419095
17	0x3d69342d	0.056934524
18	0xbe2de8d0	-0.16983342
19	0x3ea015fd	0.31266776
20	0x3d935eca	0.07195814
21	0x3ce0dd6b	0.02744933
22	0x3bae0ed2	0.0053118253
23	0x3e82a78c	0.25518453
24	0xbe5e2e2f	-0.21697305
25	0xbe9ce6da	-0.30644876
26	0xbe141d79	-0.14464368
27	0x3e8ca462	0.27469164
28	0xbed63056	-0.41833752
29	0x3ea33f5a	0.3188427
30	0xbe86959e	-0.26286024
31	0xbd03c74c	-0.032172486
32	0x3ec8e158	0.39234424
33	0xbe5272de	-0.20551631
34	0x3e649357	0.2232183
35	0x3d78f506	0.060780548
36	0x3e1d30a9	0.15350594
37	0xbe9fcf79	-0.31212977
38	0xbe9dca9b	-0.30818638
39	0x3e6e76d3	0.23287515
40	0xbd9fc821	-0.078018434
41	0xbe21ff7b	-0.15820114
42	0x3d5fb62a	0.054617085
43	0xbe0eb625	-0.1393667
44	0x3e972420	0.2951975
45	0x3d8b7b92	0.068106785
46	0x3e942ccc	0.28940427
47	0xbe4652c4	-0.1936751
48	0xbc1838f3	-0.0092909215
49	0xbebf753a	-0.37394124
50	0x3e2d93d7	0.16950928
51	0xbe8baf82	-0.2728234
52	0x3e859a2c	0.26094186
53	0xbb9f7865	-0.004866647
54	0x3ebf376e	0.37346977
55	0xbe8a36d4	-0.26994956
56	0xbdb47636	-0.088116094
57	0xbe902b50	-0.28158045
58	0xbe22b8e5	-0.15890844
59	0xbe4d4d6f	-0.2004907
60	0xbed4e5b7	-0.4158151
61	0x3d695c7f	0.056972977
62	0xbe9b22a4	-0.30299866
63	0x3e052a54	0.13004428
64	0x3d2bdc58	0.041958183
65	0xbd61f59a	-0.055165865
66	0xbe99ccb1	-0.3003898
67	0x3e6825a9	0.22670616
68	0xbe9e5a4e	-0.30928272
69	0xbc914ee3	-0.017737811
70	0xbebffcfd	-0.37497702
71	0xbdbc71c6	-0.09201388
72	0xbd7b6a0a	-0.061380424
73	0xbe700d64	-0.23442608
74	0xbe03f6e0	-0.12887144
75	0xbee5e6bd	-0.44902602
76	0xbe7940de	-0.24341151
77	0x3de49d2f	0.11162793
78	0x3e5ab9a4	0.21359879
79	0x3e9b4464	0.30325615
80	0xbe1f2038	-0.15539634
81	0x3e33c029	0.17553772
82	0xbdca7631	-0.098858245
83	0xbe27a36d	-0.16370936
84	0xbed6d004	-0.41955578
85	0x3e8bf82a	0.27337772
86	0x3e68ad5e	0.22722384
87	0x3e089b31	0.13340451
88	0x3d64f8c2	0.055901296
89	0xbdac8657	-0.08424061
90	0xbdf1fbe6	-0.11815624
91	0x3f7bfa0a	0.98428404
92	0xbde4c5d7	-0.111705475
93	0x3e0c2a7d	0.13688083
94	0xbe0d69fa	-0.13809958
95	0xbefe9805	-0.49725357
96	0x3e43238a	0.19056526
97	0xbda0135e	-0.07816194
98	0x3e15a1f2	0.14612558
99	0x3e16b558	0.14717615
100	0x3e643166	0.22284469
101	0xbddf0b0c	-0.10890779
102	0xbe17511c	-0.14777035
103	0x3e6639b2	0.22482947
104	0x3e8e7c04	0.2782899
105	0x3d012dde	0.031537883
106	0xbce07baf	-0.027402727
107	0xbe749c3b	-0.23887722
108	0x3e04cc34	0.12968522
109	0x3dcb0024	0.09912136
110	0x3d9fc0fa	0.07800479
111	0x3c293f78	0.010330074
112	0x3e87e059	0.2653835
113	0xbcd38c10	-0.025823623
114	0xbcc17d3f	-0.023619292
115	0xbd8a9f16	-0.067686245
116	0xbd95a143	-0.07306149
117	0x3e4ad39b	0.19807284
118	0x3e601652	0.21883515
119	0xbe785dca	-0.24254528
120	0xbe040f40	-0.12896442
121	0x3aefca0c	0.0018294468
122	0x3e6e1066	0.23248443
123	0xbe934fb4	-0.28771746
124	0xbe8159f0	-0.2526393
125	0xbd847dd3	-0.064693116
126	0xbe5d5667	-0.21614991
127	0x3ee46b13	0.4461294
128	0xbd7e944e	-0.062153153
129	0xbec20d81	-0.37900928
130	0x3d5f1578	0.054463834
131	0xbdc2885f	-0.09498667
132	0xbd1b1abf	-0.037867304
133	0x3d9fd1fb	0.078037225
134	0xbd667d1b	-0.056271654
135	0xbdfcdc0d	-0.12346659
136	0x3d874966	0.066057965
137	0x3d8a265c	0.06745598
138	0xbd47bf75	-0.048766572
139	0xbda6dca9	-0.08147556
140	0xbc5300dc	-0.012878623
141	0x3bb3e27b	0.005489645
142	0xbe43e281	-0.19129373
143	0x3e6a00b7	0.22851835
144	0xbdd0b675	-0.10191051
145	0x3db20a2c	0.086933464
146	0xbe1921ca	-0.14954296
147	0xbdaa5a3e	-0.083179936
148	0xbecdabae	-0.40170044
149	0x3d62f4a7	0.0554091
150	0x3d383793	0.044974875
151	0xbd7ec8b6	-0.06220313
152	0x3d374f67	0.04475346
153	0xbd39ff04	-0.045409217
154	0xbd264c33	-0.040600013
155	0x3e4f4833	0.20242386
156	0x3da00386	0.07813172
157	0x3e34c81b	0.17654459
158	0x3d1349e7	0.03595915
159	0xbd790724	-0.060797825
160	0xbdc1b0b5	-0.09457532
161	0xbe1d38eb	-0.15353744
162	0xbd3095b5	-0.04311152
163	0x3f1316c6	0.57456625
164	0x3dc534aa	0.096291855
165	0x3b8aaf60	0.004232332
166	0xbd9d2223	-0.07672527
167	0x3e094a7a	0.13407317
168	0xbe5665bc	-0.20937246
169	0x3e22f023	0.15911917
170	0x3e307c31	0.17234875
171	0xbe1a010d	-0.15039463
172	0x3c739e07	0.01486922
173	0x3d815d9f	0.06316685
174	0xb915b9fc	-0.00014279032
175	0xbbf6a11d	-0.0075265304
176	0x3d4f786f	0.050651964
177	0xbd095177	-0.033524957
178	0xbcb6e7e5	-0.022327373
179	0x3e04ac9b	0.12956469
180	0x3d1d7542	0.038441904
181	0x3e03b617	0.1286243
182	0xbdf3ace0	-0.11898208
183	0xbdf3b9a0	-0.119006395
184	0xbdc5413d	-0.09631584
185	0xbddc5a81	-0.1075945
186	0x3dc9929c	0.09842417
187	0x3dc562fa	0.09638019
188	0x3dd39b84	0.103323966
189	0x3da60731	0.081068404
190	0xbdaeaf13	-0.085294865
191	0xbd8a8cf0	-0.06765163
192	0xbe2d1d8a	-0.169058
193	0xbe364b32	-0.17802122
194	0x3e94e24a	0.29078895
195	0x3d9ac76f	0.0755757
196	0xbcbd2244	-0.023087628
197	0x3b368c8a	0.0027854764
198	0xbdbbee04	-0.09176257
199	0x3a5ae064	0.0008349477
200	0xbb382bbd	-0.0028102242
201	0xbde26a5a	-0.11055441
202	0x3e9da497	0.30789635
203	0x3e43aefa	0.19109717
204	0xbea10ed7	-0.31456634
205	0xbe1d31b3	-0.1535099
206	0x3e5de72d	0.21670218
207	0xbc859522	-0.016306464
208	0x3e230170	0.15918517
209	0x3e338b44	0.17533594
210	0x3e892818	0.26788402
211	0x3dc07ecc	0.093991846
212	0xbd791b5e	-0.060817115
213	0x3e4045aa	0.18776575
214	0xbe6dddb3	-0.23229103
215	0x3e1d81a0	0.1538148
216	0x3e59c145	0.21265133
217	0xbc79c5ce	-0.015244914
218	0xbd400e38	-0.04688856
219	0xbeb2a99c	-0.34895027
220	0x3c8d6ab8	0.017262802
221	0x3c32f778	0.010923259
222	0x3e2bd7e5	0.16781576
223	0xbdcab3b0	-0.09897554
224	0xb996d383	-0.00028767818
225	0x3cbd2b9d	0.023092085
226	0x3e0f2022	0.13977101
227	0xbcb8ded1	-0.022567185
228	0xbda7de5e	-0.0819671
229	0xbd835cba	-0.064141706
230	0xbc29a719	-0.010354781
231	0x3e43c753	0.19119005
232	0x3e204e80	0.15654945
233	0x3e2fc7ca	0.17166057
234	0xbca53210	-0.020165473
235	0xbdddf724	-0.10838154
236	0x3dfa76a3	0.122296594
237	0xbdd0f1e9	-0.10202391
238	0x3df259ce	0.11833535
239	0xbdf4db75	-0.119559206
240	0x3d550750	0.052008927
241	0xbcf406f2	-0.029788468
242	0xbe62a6e3	-0.22133975
243	0x3c80ba74	0.015713908
244	0x3dda6ba6	0.106650636
245	0xbe09e9bb	-0.13468067
246	0x3de91be6	0.11382274
247	0xbd61b3b3	-0.055103015
248	0xbbbf845b	-0.0058446354
249	0xbdab7675	-0.08372203
250	0x3c142b59	0.009043538
251	0x3e63f446	0.22261152
252	0x3d71382f	0.05889147
253	0x3df825fb	0.12116619
254	0xbc829a98	-0.015942857
255	0xbdab3213	-0.0835916

fc_dec.bias f4 [117]
0	0xbecae0fc	-0.39624774
1	0xbe057b5b	-0.13035338
2	0x3dbbad38	0.09163898
3	0xbd938269	-0.07202608
4	0xbd0ff650	-0.03514701
5	0xbc95f0c0	-0.018303275
6	0xbcc67f93	-0.024230754
7	0xbd994cdf	-0.07485365
8	0x3d663fcc	0.056213185
9	0xbd2c7bfd	-0.042110432
10	0xbd87ce0e	-0.06631099
11	0xbdd2e1b1	-0.102969535
12	0x3dd74d27	0.105127625
13	0xbed1097b	-0.40827546
14	0xbcb75ff5	-0.022384623
15	0xbd8a8977	-0.067645006
16	0x3d827f50	0.06371939
17	0xbe0a5fde	-0.13513133
18	0x3d308dec	0.043104097
19	0xbced210f	-0.028946428
20	0xbe030616	-0.1279529
21	0xbc70ce48	-0.014697619
22	0x3ca0443d	0.019563789
23	0x3d203874	0.039116338
24	0xbdc83750	-0.09776175
25	0xbdf0b383	-0.11752989
26	0xbed6ae28	-0.41929746
27	0xbc5f2df8	-0.0136218
28	0x3d6340f0	0.05548185
29	0xbdb24cb3	-0.087060355
30	0xbdc85eb6	-0.0978369
31	0x3d6057e9	0.054771338
32	0xbd8ae13a	-0.0678124
33	0x3d3bc1f4	0.045839265
34	0xbdcccd2c	-0.10000071
35	0xbc249dff	-0.010047435
36	0xbd2579f7	-0.040399518
37	0x3d658b0f	0.05604082
38	0x3dee332e	0.116308555
39	0xbe5ac6ae	-0.21364853
40	0x3d5d77df	0.054069396
41	0xbd0be954	-0.034158066
42	0xbc7588a9	-0.014986196
43	0x3b8fd609	0.0043895287
44	0x3d8bb6ba	0.06821962
45	0xbd64a41a	-0.055820562
46	0xbd24c7c0	-0.04022956
47	0xbcc038a4	-0.023464508
48	0xbdb793cb	-0.08963736
49	0xbcec1c8f	-0.028822212
50	0xbd51d333	-0.051226806
51	0x3e3bd5ba	0.18343249
52	0xbd92e0b7	-0.07171767
53	0xbcdeb798	-0.027187154
54	0xbdacdf40	-0.08441019
55	0xbd5aeccb	-0.05344848
56	0xbe02062f	-0.12697671
57	0xbc772841	-0.015085281
58	0x3d069f2a	0.032866634
59	0xbb3a109d	-0.002839125
60	0xbca85a53	-0.020550882
61	0x3c6f42c4	0.0146033205
62	0xbe419e35	-0.18908007
63	0x3d82619a	0.06366272
64	0xbcc6610c	-0.024216197
65	0x3d74f1e9	0.059801016
66	0xbdd9e7b4	-0.10639897
67	0x3c3cddd5	0.011527498
68	0xbd990134	-0.074709326
69	0x3d273c90	0.04082924
70	0xbdb6eec0	-0.08932257
71	0x3d03c453	0.03216965
72	0xbd8e5cb7	-0.06951278
73	0x3d880d4b	0.066431604
74	0xbe5c1a05	-0.214943
75	0xbe2f3fde	-0.17114207
76	0x3dfd0fa3	0.12356498
77	0x3de4b413	0.11167159
78	0xbe4a8e70	-0.19780898
79	0xbda9c028	-0.08288604
80	0xbd972626	-0.07380323
81	0xbe370c4c	-0.17875785
82	0xbc88f71f	-0.016719399
83	0xbdb2f04d	-0.0873724
84	0xbe045737	-0.12923895
85	0xbc1faa3b	-0.009745176
86	0xbdc591c1	-0.09646941
87	0xbd2b3e3f	-0.04180741
88	0x3e0752ac	0.1321513
89	0x3cf0a636	0.02937613
90	0xbe242833	-0.1603096
91	0xbe2e6499	-0.17030562
92	0xbe9e3ec3	-0.30907258
93	0xbdf79b32	-0.12090148
94	0x3d3658fa	0.04451845
95	0x3d94c61c	0.07264349
96	0xbcdef1dc	-0.027214937
97	0xbdc5c6d7	-0.09657066
98	0xbd7388d0	-0.059456646
99	0xbbfebd6f	-0.007774047
100	0xbcd1e8aa	-0.025623638
101	0xbd8300ae	-0.06396614
102	0xbcc314c9	-0.023813622
103	0xbdfd6fff	-0.12374877
104	0x3df41e0e	0.11919795
105	0xbe5d4bed	-0.21610995
106	0xbdcaa224	-0.09894207
107	0x3d099491	0.03358895
108	0xbd176b58	-0.036967605
109	0xbdae53b8	-0.08512062
110	0x3da28bfa	0.07936855
111	0xbc9d056f	-0.01916763
112	0x3d73a405	0.059482593
113	0xbd8a744b	-0.067604624
114	0x3db67e83	0.08910849
115	0xbe63d9b7	-0.2225102
116	0xbd9dc4a5	-0.077035226

dec1.kernel0 f4 [2, 1, 3, 1]
0	0x3fafb0f7	1.372588
1	0x3f35b320	0.7097645
2	0x3e65aec1	0.22429945
3	0x3f66fa56	0.9022573
4	0x3e029c3d	0.12754913
5	0x3f60aa83	0.8776018

dec1.kernel1 f4 [2, 1, 2, 2]
0	0x3f9141c1	1.1348191
1	0xbe3826c6	-0.17983541
2	0x3f364bf6	0.7120966
3	0x3db8e453	0.090279244
4	0x3f733e4c	0.9501693
5	0x3eeaba96	0.4584548
6	0x3efd9499	0.49527434
7	0x3f292ebe	0.6608695

dec1.bias_tensor f4 [2]
0	0x3d248872	0.040169187
1	0x3d54a883	0.051918518

bn3.weight f4 [2]
0	0x3f12bbbc	0.5731771
1	0x3f3ca322	0.7368642

bn3.bias f4 [2]
0	0xbec5be75	-0.3862187
1	0xbeda221f	-0.42604157

bn3.running_mean f4 [2]
0	0xbff5099b	-1.9143556
1	0xbff41c44	-1.9071126

bn3.running_var f4 [2]
0	0x4252d9d8	52.712738
1	0x423c1a96	47.025963

dec2.kernel0 f4 [1, 2, 5, 1]
0	0xbf104c9f	-0.56366915
1	0x3e4d48e3	0.20047335
2	0xbe37df4e	-0.17956278
3	0x3dec25a8	0.1153062
4	0xbf13be39	-0.5771213
5	0x3d4eab27	0.050456192
6	0x3ebaa540	0.364542
7	0x3f12fd90	0.57418156
8	0x3ec729ed	0.38899174
9	0xbdbf4a82	-0.09340383

dec2.kernel1 f4 [1, 2, 4, 2]
0	0xbec201b3	-0.3789192
1	0xbec60c6c	-0.38681352
2	0xbefe1f4e	-0.4963326
3	0xbda85c30	-0.08220708
4	0xbe96b5c4	-0.2943555
5	0x3df8a4a1	0.121407755
6	0xbdce51a1	-0.10074163
7	0x3e3d123b	0.18463986
8	0x3ebe1950	0.37128687
9	0x3ea0b063	0.31384572
10	0x3f31aa1e	0.69400203
11	0x3ea2c81f	0.31793305
12	0x3ea25bb3	0.31710586
13	0x3ecec92e	0.40387863
14	0x3dd7f3c9	0.10544545
15	0xbdfc1ed9	-0.12310571

dec2.kernel2 f4 [1, 2, 3, 2]
0	0xbeb408a0	-0.3516283
1	0xbe9d9684	-0.30778897
2	0xbf05a07b	-0.52198
3	0x3eadc1d4	0.33936942
4	0xbeb431ac	-0.35194147
5	0x3ef42613	0.47685298
6	0x3ea069ce	0.31330723
7	0x3c4a471a	0.0123460535
8	0x3f2b3585	0.6687854
9	0x3e90b1f5	0.2826077
10	0x3c58591c	0.013204839
11	0xbe63eed9	-0.22259082

exp_avg f4 [2, 1, 5, 1]
0	0xb93cb10b	-0.00017995031
1	0xb9369925	-0.00017413923
2	0xb9498a19	-0.00019220299
3	0xb952639b	-0.00020064267
4	0xb97c4cdc	-0.00024061225
5	0xb86ec537	-5.6927292e-05
6	0xb80170ab	-3.0860927e-05
7	0xb8588267	-5.161986e-05
8	0x38862ad0	6.3975924e-05
9	0x38817dc2	6.1746236e-05

exp_avg_sq f4 [2, 1, 5, 1]
0	0x3500019d	4.7686063e-07
1	0x34f66a08	4.5898219e-07
2	0x350e18df	5.2935314e-07
3	0x3523f7ec	6.1083006e-07
4	0x3537fc67	6.8540106e-07
5	0x349f5996	2.968124e-07
6	0x347aea32	2.3368264e-07
7	0x33fd354d	1.1790926e-07
8	0x33163b8a	3.4978747e-08
9	0x340350de	1.2229745e-07

exp_avg f4 [2, 1, 4, 2]
0	0xb945a14e	-0.00018847475
1	0xb92e743a	-0.00016637231
2	0xb9307f84	-0.00016832171
3	0xb9662ab9	-0.00021950425
4	0xb932f3c9	-0.0001706622
5	0xb98751bb	-0.000258101
6	0xb985cab4	-0.00025518762
7	0xb9a249c6	-0.00030954013
8	0xb92de391	-0.00016583341
9	0x38842a0b	6.3020816e-05
10	0xb92ca53c	-0.00016464753
11	0x3621eedb	2.4129902e-06
12	0xb8fad1c2	-0.000119599994
13	0x387ed723	6.075868e-05
14	0xb8705572	-5.7300036e-05
15	0x38eba4f1	0.00011236396

exp_avg_sq f4 [2, 1, 4, 2]
0	0x349fbca4	2.9753312e-07
1	0x3517e42d	5.6583923e-07
2	0x34953600	2.7792703e-07
3	0x351d17c4	5.852164e-07
4	0x34de4b8d	4.1405693e-07
5	0x3520778d	5.9778614e-07
6	0x35301499	6.559508e-07
7	0x35223aa7	6.0435053e-07
8	0x35302a52	6.5626693e-07
9	0x3392eab5	6.841348e-08
10	0x350f155a	5.330272e-07
11	0x3354fba6	4.958897e-08
12	0x34a52a07	3.0764224e-07
13	0x34046f7b	1.2334014e-07
14	0x33dff5b9	1.04289434e-07
15	0x34b1aed4	3.3096023e-07

exp_avg f4 [2, 1, 3, 2]
0	0xb94c45ff	-0.00019481032
1	0xb93d830d	-0.00018073265
2	0xb944e84a	-0.00018778551
3	0xb978632c	-0.00023688067
4	0xb958b7ad	-0.0002066779
5	0xb992b779	-0.00027983988
6	0xb9962ea6	-0.00028644985
7	0x383f6c13	4.56386e-05
8	0xb98d16bb	-0.0002691055
9	0x38cc41d5	9.73974e-05
10	0xb94d31e8	-0.00019568915
11	0x38eab85e	0.000111923306

exp_avg_sq f4 [2, 1, 3, 2]
0	0x347393c2	2.2684893e-07
1	0x35110b4d	5.4033154e-07
2	0x347fdc28	2.3828818e-07
3	0x351191f5	5.4229105e-07
4	0x34d9fc2e	4.0602885e-07
5	0x350fbdb0	5.3547683e-07
6	0x35683ef5	8.651835e-07
7	0x34245508	1.5304624e-07
8	0x355619fb	7.975902e-07
9	0x34c1f9d7	3.6130834e-07
10	0x34f89992	4.6305337e-07
11	0x3538d83e	6.8860015e-07

exp_avg f4 [2]
0	0x2e34457e	4.0988983e-11
1	0xada359e7	-1.857088e-11

exp_avg_sq f4 [2]
0	0x20aabaeb	2.8922812e-19
1	0x2148d254	6.8041003e-19

exp_avg f4 [2]
0	0xbaa376f4	-0.0012471364
1	0x3a2bb8e3	0.00065506826

exp_avg_sq f4 [2]
0	0x37b577a6	2.1632597e-05
1	0x36c1956f	5.7692446e-06

exp_avg f4 [2]
0	0xba10046b	-0.00054938224
1	0xb8439045	-4.6625984e-05

exp_avg_sq f4 [2]
0	0x37874e27	1.6129647e-05
1	0x34afa5c4	3.27169e-07

exp_avg f4 [1, 2, 3, 1]
0	0xb98498cc	-0.00025290844
1	0xba0bbcd0	-0.00053305645
2	0xb9857757	-0.00025456652
3	0xba3efa50	-0.0007285224
4	0xba38fe74	-0.00070569594
5	0xb8b6a7bb	-8.7096785e-05

exp_avg_sq f4 [1, 2, 3, 1]
0	0x366e6074	3.5520907e-06
1	0x36458d94	2.9437697e-06
2	0x35c7428e	1.4846025e-06
3	0x36bc9ab8	5.6208482e-06
4	0x36393ccc	2.7602537e-06
5	0x35699cca	8.702742e-07

exp_avg f4 [1, 2, 2, 2]
0	0xb92fffdb	-0.00016784614
1	0xb9854bf4	-0.00025424326
2	0xb865e540	-5.481136e-05
3	0xb996cd23	-0.00028763068
4	0xba7611d1	-0.000938681
5	0x37ce4a09	2.4591589e-05
6	0xba2f7eb1	-0.00066945987
7	0x394b418f	0.00019384011

exp_avg_sq f4 [1, 2, 2, 2]
0	0x36f797c6	7.3788424e-06
1	0x359d4bf8	1.1719521e-06
2	0x36a4b058	4.90811e-06
3	0x35800f10	9.541127e-07
4	0x379b0faf	1.8484743e-05
5	0x35d00fcb	1.5501804e-06
6	0x372da7bf	1.035066e-05
7	0x35f0761f	1.7915771e-06

exp_avg f4 [64, 117]
0	0x379bec7d	1.8587563e-05
1	0x378dafb7	1.6890333e-05
2	0x3782e7e0	1.5605183e-05
3	0x386234f7	5.3931926e-05
4	0x38910959	6.91588e-05
5	0x38dce3b9	0.00010532834
6	0x37e9d283	2.7873792e-05
7	0xb8509d57	-4.97376e-05
8	0xb79a60ba	-1.8403272e-05
9	0xb59a7be5	-1.1509952e-06
10	0x378fb95a	1.713324e-05
11	0x378dafb7	1.6890333e-05
12	0x377301f4	1.4484383e-05
13	0x37a65806	1.9829731e-05
14	0x37d6c7aa	2.5603764e-05
15	0x374b2de5	1.21104285e-05
16	0x38a89e53	8.0403544e-05
17	0x38ff76b5	0.000121814584
18	0x39552ea7	0.00020330642
19	0x3887cc31	6.475335e-05
20	0x34d91b9d	4.043949e-07
21	0xb7f01148	-2.8618277e-05
22	0x38094200	3.2724813e-05
23	0x376c567c	1.4086832e-05
24	0x378f712b	1.7099626e-05
25	0x374aafed	1.2081099e-05
26	0x37a65806	1.9829731e-05
27	0x38776a63	5.898847e-05
28	0x386cf11c	5.6491335e-05
29	0x39148754	0.00014164794
30	0x39516a48	0.00019971386
31	0x3970b932	0.00022957174
32	0x392c899a	0.00016454459
33	0x3828f63a	4.0283638e-05
34	0x38b99022	8.848334e-05
35	0x389988e2	7.321105e-05
36	0x38031189	3.1249165e-05
37	0x37b6f2e6	2.18092e-05
38	0x374aafed	1.2081099e-05
39	0x3795bfc5	1.7851484e-05
40	0x38966abd	7.172439e-05
41	0x38fb4672	0.00011981734
42	0x392563e3	0.00015772837
43	0x39387ae2	0.00017593385
44	0x38f6d63e	0.000117701
45	0x3906940b	0.00012834386
46	0x379ceec1	1.8707828e-05
47	0x388fcd91	6.857061e-05
48	0x38b36b8f	8.5554195e-05
49	0x383902ba	4.4109976e-05
50	0x379918d2	1.825058e-05
51	0x373cf834	1.12634625e-05
52	0x376370d5	1.3556525e-05
53	0x3904f705	0.00012680523
54	0x3914e541	0.00014199784
55	0x38ef5025	0.00011411336
56	0x38a4d7e0	7.860339e-05
57	0x388584d8	6.366678e-05
58	0x38b33e65	8.547007e-05
59	0x384b835c	4.852131e-05
60	0x389cce1d	7.477051e-05
61	0x38a21ae7	7.729773e-05
62	0x385024c9	4.9625323e-05
63	0x378367a2	1.5664675e-05
64	0x373a4191	1.110173e-05
65	0x381f2bf8	3.7949503e-05
66	0x38ccbb93	9.7624164e-05
67	0x38ff1f8f	0.00012165226
68	0x38d1dc50	0.00010006933
69	0x389671ac	7.1737304e-05
70	0x3863f590	5.4349715e-05
71	0x38827466	6.220564e-05
72	0x35b3792f	1.3371808e-06
73	0x388c732a	6.697171e-05
74	0x384694db	4.734551e-05
75	0x376e31a6	1.4197465e-05
76	0x3733fd32	1.0728183e-05
77	0x373dcd2b	1.1313047e-05
78	0x37b024f4	2.0998043e-05
79	0x37f935e2	2.9708204e-05
80	0x38a7abeb	7.995203e-05
81	0x38598228	5.185805e-05
82	0x38b878df	8.796318e-05
83	0x381ac523	3.690006e-05
84	0x37ddcacb	2.6439686e-05
85	0xb7815727	-1.5418582e-05
86	0xb814d8c0	-3.5487814e-05
87	0x37a0fa07	1.9189914e-05
88	0x373d87ec	1.1296925e-05
89	0x378bba11	1.6656735e-05
90	0x375380d9	1.260658e-05
91	0x37a65806	1.9829731e-05
92	0x378f1ff2	1.7061804e-05
93	0x3815ce2a	3.5716374e-05
94	0x382634fe	3.9626837e-05
95	0x3886cd49	6.427855e-05
96	0x37771065	1.4726164e-05
97	0x38141323	3.5303772e-05
98	0x3753f1b8	1.263286e-05
99	0xb83c93cd	-4.4960343e-05
100	0x38277d99	3.9932875e-05
101	0x37f660e2	2.93706e-05
102	0x37898fac	1.6398575e-05
103	0x374aafed	1.2081099e-05
104	0x37a65806	1.9829731e-05
105	0x377dc4fb	1.5125838e-05
106	0x37bd2c62	2.2551223e-05
107	0x37dfd61c	2.6683374e-05
108	0x3764e6dc	1.364361e-05
109	0x376ac2b8	1.3992823e-05
110	0x385b67b4	5.231025e-05
111	0x383d7d58	4.5177847e-05
112	0x37d630cd	2.5533513e-05
113	0x37a3761a	1.948611e-05
114	0x378dd161	1.690601e-05
115	0x377dc4fb	1.5125838e-05
116	0x374aafed	1.2081099e-05
117	0x35892fec	1.0221243e-06
118	0x3582b8e5	9.739566e-07
119	0x36846529	3.945683e-06
120	0x373f086e	1.138645e-05
121	0x37097737	8.193593e-06
122	0xb8567438	-5.1129813e-05
123	0xb81423f1	-3.5319423e-05
124	0xb81dd7a4	-3.7632548e-05
125	0xb8063673	-3.19988e-05
126	0xb7939011	-1.7590852e-05
127	0x35541a36	7.9014296e-07
128	0x3582b8e5	9.739566e-07
129	0x356abcb3	8.7446386e-07
130	0x35904b78	1.07508e-06
131	0xb620917d	-2.3926543e-06
132	0xb7e6de7f	-2.7521744e-05
133	0xb738a211	-1.1004989e-05
134	0x37371ba7	1.0914088e-05
135	0xb87e2c0b	-6.0599337e-05
136	0xb8349887	-4.3057396e-05
137	0xb63c9c71	-2.8105244e-06
138	0xb7f357df	-2.9008776e-05
139	0xb70bcd43	-8.332837e-06
140	0x33a251f5	7.558621e-08
141	0x3583abbc	9.810242e-07
142	0x3555042b	7.935475e-07
143	0x35904b78	1.07508e-06
144	0x38299edf	4.04407e-05
145	0xb7b5456f	-2.1609214e-05
146	0xb85ed8c7	-5.3130814e-05
147	0xb735cbd6	-1.08359e-05
148	0xb80d7fdd	-3.37361e-05
149	0xb83903c7	-4.4110955e-05
150	0x36913402	4.3273913e-06
151	0xb5c10730	-1.4381712e-06
152	0x3780a267	1.5334414e-05
153	0xb6d27add	-6.272791e-06
154	0xb67f3c34	-3.8033004e-06
155	0x3555042b	7.935475e-07
156	0x371091f2	8.617049e-06
157	0x3837fb6f	4.3864766e-05
158	0x366dd026	3.543691e-06
159	0xb738f33d	-1.1023888e-05
160	0xb75d5107	-1.3191492e-05
161	0xb7bd8645	-2.259308e-05
162	0xb7e11b24	-2.6834728e-05
163	0xb79d2e4c	-1.8737417e-05
164	0x378542d4	1.5885955e-05
165	0x351c4ee1	5.822931e-07
166	0xb79c69ce	-1.8645918e-05
167	0xb6b5eac0	-5.421549e-06
168	0x359c85a2	1.1661798e-06
169	0x37a317d9	1.944222e-05
170	0x37b2d4a5	2.1318274e-05
171	0x377f47c9	1.5215898e-05
172	0xb7117355	-8.669526e-06
173	0x34a2ed67	3.0347584e-07
174	0x35611067	8.38429e-07
175	0xb6b509fb	-5.3953822e-06
176	0xb71c62d5	-9.321336e-06
177	0xb7a84f64	-2.006413e-05
178	0x35d52ae2	1.5882217e-06
179	0x374382cb	1.1653358e-05
180	0x37840ebb	1.5742486e-05
181	0x35cb9a45	1.5169577e-06
182	0xb5f6f37f	-1.8399295e-06
183	0x34f8ac44	4.631894e-07
184	0x37149e78	8.858384e-06
185	0xb7a65855	-1.9829875e-05
186	0x378bdceb	1.6672964e-05
187	0x381b9347	3.7092042e-05
188	0x37c7f40b	2.383629e-05
189	0x380be642	3.3354627e-05
190	0xb661db59	-3.365529e-06
191	0x37277bc4	9.982792e-06
192	0x380ef645	3.4084795e-05
193	0x36cab358	6.0409475e-06
194	0xb49d1c53	-2.9264137e-07
195	0x355c0f34	8.197851e-07
196	0x359a8aa8	1.1514248e-06
197	0x376aff89	1.4006983e-05
198	0x386346b5	5.418687e-05
199	0x385bd9ba	5.2416442e-05
200	0x373f10ff	1.1388444e-05
201	0x37e5d343	2.7397304e-05
202	0x3712407e	8.717294e-06
203	0x37d3c90f	2.5246785e-05
204	0x3898dda8	7.2892115e-05
205	0x37c50578	2.3486777e-05
206	0x3383536e	6.1153386e-08
207	0x350702af	5.0295324e-07
208	0x35904b78	1.07508e-06
209	0x35f09b60	1.7926614e-06
210	0x3863de7b	5.432822e-05
211	0x3892f08d	7.0066286e-05
212	0x37f6caf7	2.9419998e-05
213	0x363d6468	2.8221639e-06
214	0xb7ad173b	-2.0634025e-05
215	0xb7307ea7	-1.0519906e-05
216	0x376551c4	1.3668501e-05
217	0x388f1ea4	6.8244786e-05
218	0x37c4dcbf	2.3467814e-05
219	0x3395e79d	6.9804834e-08
220	0x3555042b	7.935475e-07
221	0x35904b78	1.07508e-06
222	0x35737574	9.069547e-07
223	0x37cbaf1c	2.4281027e-05
224	0x3805cbda	3.1899523e-05
225	0x380099f9	3.0660976e-05
226	0xb5a17515	-1.202951e-06
227	0x3667a296	3.451632e-06
228	0x372ad14d	1.0181521e-05
229	0x350cf0d5	5.250452e-07
230	0x3759b67e	1.2976698e-05
231	0xb5052805	-4.9604597e-07
232	0x35737574	9.069547e-07
233	0x3555042b	7.935475e-07
234	0x371170cf	8.668939e-06
235	0x37040acc	7.870327e-06
236	0x36d92322	6.471194e-06
237	0xb76ced70	-1.4121979e-05
238	0x34bd7295	3.5287363e-07
239	0x37c5ee82	2.3595294e-05
240	0x37622e36	1.3481409e-05
241	0x379e788b	1.88912e-05
242	0x37438f79	1.1656311e-05
243	0x381eeb41	3.7889233e-05
244	0x370c2830	8.354007e-06
245	0x37040acc	7.870327e-06
246	0x36e2cd27	6.7592077e-06
247	0x371b0d6f	9.241848e-06
248	0xb3bd60f0	-8.818631e-08
249	0xb6de632d	-6.627661e-06
250	0xb74cf453	-1.2216234e-05
251	0x36ff7f0d	7.614383e-06
252	0x37a11c3e	1.9205847e-05
253	0x37ffd457	3.0497247e-05
254	0x387c960f	6.0221235e-05
255	0x387023a6	5.725366e-05

exp_avg_sq f4 [64, 117]
0	0x32300a3f	1.0246878e-08
1	0x3214132e	8.619095e-09
2	0x32872e3c	1.5737093e-08
3	0x3401dac8	1.2093653e-07
4	0x339c4504	7.27687e-08
5	0x3440e1dc	1.796356e-07
6	0x33cc0991	9.5012304e-08
7	0x344551e7	1.837685e-07
8	0x339c4aa2	7.277892e-08
9	0x3353fad8	4.9355407e-08
10	0x32253499	9.616223e-09
11	0x3214132e	8.619095e-09
12	0x31de93e5	6.477864e-09
13	0x3246549d	1.1544356e-08
14	0x32c3d937	2.2799766e-08
15	0x33df0a1d	1.0386086e-07
16	0x3498646f	2.838528e-07
17	0x3470c42d	2.242311e-07
18	0x34c24f71	3.6193117e-07
19	0x349955f7	2.8561018e-07
20	0x34aaca2f	3.1812075e-07
21	0x34345286	1.6793828e-07
22	0x33dfff7c	1.0430719e-07
23	0x328d946b	1.6482053e-08
24	0x321061ee	8.40417e-09
25	0x31a08c7f	4.6725854e-09
26	0x3246549d	1.1544356e-08
27	0x34353603	1.6876588e-07
28	0x34994bc4	2.8553598e-07
29	0x34d93e99	4.0464946e-07
30	0x34e52c24	4.268669e-07
31	0x34f4ca55	4.5595758e-07
32	0x34dc82f9	4.1073488e-07
33	0x348efa20	2.663155e-07
34	0x347dfe48	2.3654968e-07
35	0x3413d78f	1.3768862e-07
36	0x335300b6	4.9127912e-08
37	0x326c8c0e	1.3768853e-08
38	0x31a08c7f	4.6725854e-09
39	0x32e482fc	2.6602258e-08
40	0x34955553	2.7815494e-07
41	0x34c1835b	3.6044625e-07
42	0x34bd5eca	3.5272961e-07
43	0x34f5ac73	4.576028e-07
44	0x349c08f8	2.906379e-07
45	0x34926a65	2.727203e-07
46	0x34141c9b	1.3793981e-07
47	0x342c215c	1.6030884e-07
48	0x33febdae	1.1862299e-07
49	0x33a3f537	7.634883e-08
50	0x33108e7f	3.3657212e-08
51	0x319da877	4.5884536e-09
52	0x33af50a7	8.163743e-08
53	0x348e53fd	2.651067e-07
54	0x34c12c40	3.5981247e-07
55	0x34870438	2.514878e-07
56	0x349aa981	2.8808066e-07
57	0x343ab90d	1.7389921e-07
58	0x341aeaf2	1.442784e-07
59	0x33d50348	9.919182e-08
60	0x33dbf89d	1.0243205e-07
61	0x33c23486	9.043383e-08
62	0x33ac6042	8.026883e-08
63	0x330ab042	3.2290934e-08
64	0x31bc1e1f	5.4749445e-09
65	0x331f5660	3.709863e-08
66	0x33fc40f6	1.1746481e-07
67	0x348c4e7c	2.6134137e-07
68	0x34300655	1.6393581e-07
69	0x345134eb	1.9483893e-07
70	0x342cc070	1.6088757e-07
71	0x3401ecf3	1.2100263e-07
72	0x33b01d85	8.201008e-08
73	0x33b12293	8.248494e-08
74	0x339aa173	7.200551e-08
75	0x33740e26	5.6823545e-08
76	0x32669db9	1.3423624e-08
77	0x319ce216	4.5659005e-09
78	0x324de895	1.19854535e-08
79	0x32bfe8a6	2.2341123e-08
80	0x3405a537	1.2446695e-07
81	0x33bba965	8.738679e-08
82	0x340b012a	1.2945807e-07
83	0x3402e967	1.2192105e-07
84	0x3403419b	1.2224193e-07
85	0x339cf5ad	7.309004e-08
86	0x339efa82	7.4030154e-08
87	0x338f7a00	6.681148e-08
88	0x331a7089	3.595827e-08
89	0x320fb6db	8.365272e-09
90	0x319f2a66	4.632329e-09
91	0x3246549d	1.1544356e-08
92	0x3216ea30	8.784397e-09
93	0x3344e709	4.584493e-08
94	0x336d32ec	5.5227176e-08
95	0x33b19ad6	8.270369e-08
96	0x33d31229	9.8287565e-08
97	0x33c48da1	9.1527234e-08
98	0x339a8d54	7.196891e-08
99	0x33999460	7.151607e-08
100	0x332f6d9e	4.084506e-08
101	0x32933ea1	1.7141533e-08
102	0x3211210e	8.447627e-09
103	0x31a08c7f	4.6725854e-09
104	0x3246549d	1.1544356e-08
105	0x31ee13aa	6.928947e-09
106	0x3272e122	1.4137443e-08
107	0x32b7ad58	2.1382832e-08
108	0x339348b8	6.8584484e-08
109	0x330ec89d	3.3244408e-08
110	0x33a3a1ec	7.6197324e-08
111	0x32fc5e56	2.937956e-08
112	0x33787f42	5.785774e-08
113	0x322aeca4	9.949108e-09
114	0x320f8710	8.354405e-09
115	0x31ee13aa	6.928947e-09
116	0x31a08c7f	4.6725854e-09
117	0x30aeb4c1	1.271154e-09
118	0x30932a37	1.0707656e-09
119	0x3141b2cc	2.818683e-09
120	0x33713cf1	5.616761e-08
121	0x32f77134	2.8806063e-08
122	0x335006d4	4.8434984e-08
123	0x32cdb104	2.3945638e-08
124	0x332dae44	4.0438195e-08
125	0x328c20a5	1.631299e-08
126	0x32818d59	1.5081854e-08
127	0x30a5073f	1.200739e-09
128	0x30932a37	1.0707656e-09
129	0x305d372f	8.047775e-10
130	0x30c4fa15	1.4331955e-09
131	0x3161e67c	3.2872824e-09
132	0x330af70e	3.2355324e-08
133	0x339f03e3	7.4047215e-08
134	0x338ef3bc	6.656725e-08
135	0x33813651	6.016911e-08
136	0x336ca458	5.50975e-08
137	0x3377d6e8	5.7704625e-08
138	0x331ef6e1	3.7011777e-08
139	0x3309bd4a	3.2069956e-08
140	0x3180bd44	3.7468073e-09
141	0x308de8f3	1.0325308e-09
142	0x301fd301	5.814372e-10
143	0x30c4fa15	1.4331955e-09
144	0x3317a28f	3.5305273e-08
145	0x338a9093	6.452424e-08
146	0x33a1f571	7.541792e-08
147	0x339150c1	6.766778e-08
148	0x338156dc	6.02283e-08
149	0x338385bb	6.124488e-08
150	0x336859be	5.409833e-08
151	0x33330e93	4.168994e-08
152	0x331d786c	3.6663934e-08
153	0x32971d35	1.7591995e-08
154	0x314ec874	3.009089e-09
155	0x301fd301	5.814372e-10
156	0x317694ea	3.588236e-09
157	0x335f7a8f	5.20327e-08
158	0x339a49c3	7.184601e-08
159	0x33a0b3bb	7.4832734e-08
160	0x3394c51f	6.927643e-08
161	0x3377af13	5.7668398e-08
162	0x3375bac1	5.721336e-08
163	0x338135f0	6.016842e-08
164	0x3353f627	4.935114e-08
165	0x33391fb6	4.310251e-08
166	0x32e878ee	2.7063347e-08
167	0x32581e12	1.2579692e-08
168	0x301b64c5	5.6531874e-10
169	0x32932bf2	1.7133036e-08
170	0x337704cf	5.7513542e-08
171	0x338f94b9	6.686009e-08
172	0x339506b1	6.93957e-08
173	0x338c67d2	6.538143e-08
174	0x337ec783	5.932044e-08
175	0x3380c414	5.996131e-08
176	0x33882703	6.34009e-08
177	0x33679a32	5.392412e-08
178	0x334e36a4	4.8012808e-08
179	0x33169d48	3.5067643e-08
180	0x328fa9a6	1.6724538e-08
181	0x306aacb1	8.5374113e-10
182	0x31d7e5a9	6.283433e-09
183	0x32fcbc29	2.9422226e-08
184	0x338df7da	6.610908e-08
185	0x33a456d0	7.652636e-08
186	0x33a4d460	7.675476e-08
187	0x3380d691	5.999494e-08
188	0x336d23fa	5.5213583e-08
189	0x338ae502	6.467782e-08
190	0x33805242	5.975427e-08
191	0x3350a805	4.8581587e-08
192	0x3317efa7	3.537539e-08
193	0x31b72845	5.330579e-09
194	0x3021387e	5.865174e-10
195	0x30cc4a3f	1.4864056e-09
196	0x31c8722e	5.833747e-09
197	0x33656737	5.341209e-08
198	0x336268af	5.2714935e-08
199	0x338909ee	6.381366e-08
200	0x33649617	5.3221893e-08
201	0x33752260	5.707477e-08
202	0x33ad74eb	8.0772075e-08
203	0x33aa34bf	7.925836e-08
204	0x3378b646	5.7907776e-08
205	0x32d86e35	2.5195826e-08
206	0x3088dff7	9.958957e-10
207	0x3022ec04	5.9270655e-10
208	0x30c4fa15	1.4331955e-09
209	0x3098e714	1.1125132e-09
210	0x32ce73ea	2.4034268e-08
211	0x330f4881	3.3360724e-08
212	0x333d3144	4.40498e-08
213	0x332c3e99	4.0103803e-08
214	0x33578a4d	5.0184372e-08
215	0x3384f948	6.192073e-08
216	0x33d390b5	9.851775e-08
217	0x3332706f	4.1546112e-08
218	0x31f087e7	7.0003696e-09
219	0x308b3378	1.0128209e-09
220	0x301fd301	5.814372e-10
221	0x30c4fa15	1.4331955e-09
222	0x306ccd15	8.614774e-10
223	0x31895f5a	3.998065e-09
224	0x32230a7e	9.490234e-09
225	0x330193ca	3.0169566e-08
226	0x322dfab7	1.0126931e-08
227	0x3324ced4	3.8372335e-08
228	0x3269df0f	1.3613103e-08
229	0x3360a9d5	5.2308526e-08
230	0x3177b3b7	3.6045387e-09
231	0x30748dab	8.8968005e-10
232	0x306ccd15	8.614774e-10
233	0x301fd301	5.814372e-10
234	0x30bdd474	1.3811943e-09
235	0x309fccdb	1.1626996e-09
236	0x312ee8f4	2.545275e-09
237	0x330c99e0	3.273624e-08
238	0x328bffed	1.6298111e-08
239	0x32fc98ca	2.9406142e-08
240	0x3280b757	1.4984535e-08
241	0x3300669c	2.9895645e-08
242	0x32793d33	1.4507623e-08
243	0x32a350d6	1.9012457e-08
244	0x30ac7c1a	1.2549919e-09
245	0x309fccdb	1.1626996e-09
246	0x306ff20b	8.729166e-10
247	0x30d623f9	1.5580773e-09
248	0x3116c1f1	2.1938116e-09
249	0x32a8a63e	1.9633372e-08
250	0x332a79cb	3.969198e-08
251	0x33299c32	3.9490438e-08
252	0x334394a0	4.553715e-08
253	0x332ab998	3.9750006e-08
254	0x33506d07	4.8527934e-08
255	0x3323cce4	3.8137742e-08

exp_avg f4 [64]
0	0x390fa281	0.0001369808
1	0x371bd262	9.2877035e-06
2	0x38845d9c	6.3116866e-05
3	0x37c968ab	2.4009807e-05
4	0x382dc36d	4.142842e-05
5	0x3908bd5c	0.00013040513
6	0xb8955aee	-7.1218106e-05
7	0xb75ef5d4	-1.32894675e-05
8	0xb8bb5f64	-8.934623e-05
9	0xb84f4c0e	-4.9423477e-05
10	0xb90af465	-0.0001325175
11	0x3803ce0b	3.1424726e-05
12	0xb8c5bd52	-9.428956e-05
13	0x38ed0597	0.00011302082
14	0x393fa792	0.00018277604
15	0xb829aa76	-4.0451494e-05
16	0xb90fc363	-0.0001371033
17	0xb8127a64	-3.4923098e-05
18	0xb926f7bc	-0.00015923282
19	0x3902f9f9	0.00012490888
20	0x380c0228	3.338061e-05
21	0x37906072	1.7211049e-05
22	0x38a29d78	7.754093e-05
23	0x38290059	4.0293064e-05
24	0x37321684	1.0614869e-05
25	0xb920c558	-0.00015332305
26	0x3844d6c6	4.6930065e-05
27	0xb7028eb3	-7.781829e-06
28	0xb9234fb3	-0.00015574582
29	0x389ab9fb	7.377934e-05
30	0xb91fd54e	-0.00015242884
31	0xb7086c2a	-8.131416e-06
32	0x3957e0f6	0.00020587802
33	0xb8fd03c7	-0.00012064684
34	0x38ef4edc	0.00011411097
35	0xb7d47496	-2.5326659e-05
36	0x37a326cb	1.9449179e-05
37	0xb87d7231	-6.042625e-05
38	0xb8d34a2f	-0.00010075082
39	0x3805d0ca	3.190412e-05
40	0xb8cba437	-9.710382e-05
41	0xb7915885	-1.7326567e-05
42	0x38007dcf	3.0634747e-05
43	0x37c970fd	2.4013681e-05
44	0x38e3916e	0.00010851292
45	0x38528c07	5.0198312e-05
46	0x388d2da8	6.731908e-05
47	0xb8a973aa	-8.080092e-05
48	0x36903166	4.297285e-06
49	0x38133e0d	3.510532e-05
50	0x38bfd4f0	9.1472524e-05
51	0xb9518c3c	-0.00019984035
52	0x3904a5ed	0.00012650313
53	0xb89dd81d	-7.5265976e-05
54	0x38f74983	0.000117915704
55	0xb86b65c0	-5.6123128e-05
56	0x374e70be	1.2304807e-05
57	0xb8ae7831	-8.319354e-05
58	0x383f744b	4.5646255e-05
59	0xb91d5cc3	-0.00015007243
60	0xb92f4588	-0.00016715203
61	0x37fc9073	3.0108005e-05
62	0xb91c17c2	-0.0001488617
63	0xb633e1ea	-2.6804578e-06

exp_avg_sq f4 [64]
0	0x35147610	5.53061e-07
1	0x339469e3	6.911048e-08
2	0x33a26f09	7.56391e-08
3	0x34f60c29	4.5829918e-07
4	0x33c87dfa	9.336141e-08
5	0x34cb724b	3.7894856e-07
6	0x34199ea8	1.4306954e-07
7	0x348f8489	2.6732258e-07
8	0x3588377e	1.014894e-06
9	0x3314288b	3.449581e-08
10	0x34e1b470	4.20408e-07
11	0x330aec49	3.234553e-08
12	0x34a9f364	3.1655793e-07
13	0x355aced7	8.151232e-07
14	0x3575704c	9.1433026e-07
15	0x335cd263	5.1414087e-08
16	0x35636d39	8.472303e-07
17	0x347b348c	2.3395313e-07
18	0x352cace0	6.432656e-07
19	0x3506a77c	5.016261e-07
20	0x331102cf	3.3762998e-08
21	0x32fb600e	2.9263926e-08
22	0x32f26692	2.8219151e-08
23	0x330cc7c4	3.2777976e-08
24	0x346424f9	2.1247605e-07
25	0x358f0183	1.065477e-06
26	0x3412c3fc	1.3668608e-07
27	0x333a856c	4.3427846e-08
28	0x35aae432	1.2732401e-06
29	0x352d9206	6.4660014e-07
30	0x35972436	1.1260915e-06
31	0x339bb764	7.2511085e-08
32	0x35b588e9	1.3525397e-06
33	0x3549aa4f	7.5126167e-07
34	0x353b2e46	6.9730265e-07
35	0x342781c5	1.5600297e-07
36	0x345abd40	2.0371681e-07
37	0x35922fbd	1.0891741e-06
38	0x356d2b0a	8.835201e-07
39	0x3514eaef	5.547617e-07
40	0x34659839	2.1382665e-07
41	0x348aef20	2.587849e-07
42	0x33b55597	8.444038e-08
43	0x3496b819	2.8073626e-07
44	0x354b901a	7.583309e-07
45	0x33fc4d7c	1.1748759e-07
46	0x3516dc61	5.620005e-07
47	0x34efdd55	4.467826e-07
48	0x347c81be	2.3516529e-07
49	0x331bc1d9	3.6265053e-08
50	0x351ea9e3	5.9106804e-07
51	0x35893b9a	1.0224642e-06
52	0x353d78c6	7.0583735e-07
53	0x340b92ed	1.2998835e-07
54	0x35c2be6a	1.4509544e-06
55	0x34853fbc	2.4819553e-07
56	0x3333cba9	4.1861913e-08
57	0x349e1fe1	2.9452988e-07
58	0x33d52804	9.925864e-08
59	0x35078a8d	5.0493037e-07
60	0x35997837	1.1434375e-06
61	0x34faffb0	4.6752166e-07
62	0x3564f344	8.5290617e-07
63	0x3318c3c0	3.556829e-08

exp_avg f4 [117, 64]
0	0xb78fc503	-1.713867e-05
1	0x34d9270e	4.0447816e-07
2	0x355ead2e	8.2953454e-07
3	0xb7d6f07d	-2.5622774e-05
4	0xb71e6200	-9.440351e-06
5	0xb7c6f526	-2.3717595e-05
6	0x37348ac7	1.0761148e-05
7	0x37a693ef	1.9857629e-05
8	0x38220b25	3.863419e-05
9	0xb6ae1228	-5.1877178e-06
10	0x3785fa29	1.5971325e-05
11	0xb6ac24b6	-5.130273e-06
12	0x38107c47	3.4448018e-05
13	0xb88312ba	-6.250055e-05
14	0xb8287ce8	-4.017065e-05
15	0x36a28ebd	4.844593e-06
16	0x387a6eca	5.9707825e-05
17	0x368f370e	4.2681413e-06
18	0x384cfbcc	4.8871894e-05
19	0xb79f8a43	-1.901866e-05
20	0xb6b6f004	-5.451964e-06
21	0x373669e7	1.0872703e-05
22	0x370dc13c	8.449246e-06
23	0xb5545788	-7.910353e-07
24	0x37de3cea	2.6492828e-05
25	0x3818966d	3.637972e-05
26	0x377b10bf	1.4964665e-05
27	0x37284f80	1.003209e-05
28	0x382d81cc	4.1367297e-05
29	0xb81ec8f6	-3.7857295e-05
30	0x3826ea34	3.9795603e-05
31	0xb676386e	-3.6689703e-06
32	0xb85adb1e	-5.217932e-05
33	0x38151305	3.554208e-05
34	0xb826ffb5	-3.981563e-05
35	0xb7098757	-8.197348e-06
36	0xb750e927	-1.2452051e-05
37	0x384ca072	4.8786816e-05
38	0x3866640d	5.4929453e-05
39	0xb833789a	-4.2789245e-05
40	0x3781701b	1.5430202e-05
41	0x3805c7e3	3.189583e-05
42	0xb6818e35	-3.8610547e-06
43	0x374d7c99	1.2247962e-05
44	0xb8577bd8	-5.1375333e-05
45	0xb77d7bd6	-1.5108808e-05
46	0xb781ab81	-1.5457861e-05
47	0x3723d883	9.765968e-06
48	0xb790612c	-1.7211387e-05
49	0x369f6c99	4.7512117e-06
50	0xb7913b2a	-1.7312897e-05
51	0x3821b7c0	3.855652e-05
52	0xb8438365	-4.6613994e-05
53	0x37563950	1.2768738e-05
54	0xb8b831fc	-8.783114e-05
55	0x378de960	1.6917184e-05
56	0xb698ca72	-4.5535207e-06
57	0x377c9efd	1.5057388e-05
58	0x35de537e	1.6564588e-06
59	0x37ca0de1	2.408674e-05
60	0x383341a3	4.2738055e-05
61	0xb7e153ab	-2.6861051e-05
62	0x383aeed1	4.456827e-05
63	0xb6845758	-3.9440747e-06
64	0xb6f09e57	-7.1709906e-06
65	0x36351cc5	2.6987848e-06
66	0x3624a63e	2.453467e-06
67	0xb6b11007	-5.276877e-06
68	0xb5213b13	-6.006314e-07
69	0xb7057c93	-7.956422e-06
70	0x34e57d1b	4.27456e-07
71	0x36976f9a	4.513143e-06
72	0x37244db2	9.793252e-06
73	0x34ad8145	3.2317817e-07
74	0x367afa2f	3.739853e-06
75	0xb6367632	-2.7188912e-06
76	0x3746fa21	1.1859957e-05
77	0xb7b3cca8	-2.1433763e-05
78	0xb744ae68	-1.17231175e-05
79	0xb47a8326	-2.3330776e-07
80	0x378aab5a	1.6530674e-05
81	0xb5a09e9c	-1.196709e-06
82	0x3769919b	1.3921784e-05
83	0xb6cc5daa	-6.0905777e-06
84	0xb6099c96	-2.0505736e-06
85	0x3683b62c	3.925312e-06
86	0x35cb5ce3	1.5151712e-06
87	0xb42ce6e8	-1.6102751e-07
88	0x370c0742	8.34634e-06
89	0x374ed952	1.2329156e-05
90	0x369f8be5	4.754855e-06
91	0x36348277	2.689803e-06
92	0x370db0a6	8.445384e-06
93	0xb76a20da	-1.3955136e-05
94	0x36cfaef9	6.1894502e-06
95	0xb6ab1cc2	-5.099545e-06
96	0xb729e013	-1.0125356e-05
97	0x372f7f12	1.0460399e-05
98	0xb76a8b36	-1.3979899e-05
99	0xb4983119	-2.834793e-07
100	0xb68ab0ee	-4.133318e-06
101	0x3744df24	1.1734464e-05
102	0x379c29c4	1.8616098e-05
103	0xb76f7354	-1.4272362e-05
104	0x370705a7	8.047943e-06
105	0x372cd1e3	1.0300867e-05
106	0xb5d2a4a9	-1.5694142e-06
107	0x35fae9e3	1.8694521e-06
108	0xb78e7bdb	-1.6985394e-05
109	0xb68c9e17	-4.190729e-06
110	0xb69463e1	-4.422371e-06
111	0x36ad7fbe	5.170673e-06
112	0xb69cf4a0	-4.6776404e-06
113	0x3634af66	2.6924185e-06
114	0xb68d2c80	-4.207308e-06
115	0x372955f2	1.0093196e-05
116	0xb7821d4d	-1.5510852e-05
117	0x365e125e	3.309127e-06
118	0xb7c12105	-2.3022769e-05
119	0x36498de1	3.0033918e-06
120	0xb6442769	-2.9229216e-06
121	0x3682173c	3.8770067e-06
122	0x36202fb8	2.3869634e-06
123	0x3675c7a5	3.6624053e-06
124	0x376abd95	1.3991627e-05
125	0xb668c948	-3.4687855e-06
126	0x3720985d	9.572218e-06
127	0xb617e8fa	-2.2636364e-06
128	0x36909c58	4.3097352e-06
129	0xb619a644	-2.2895556e-06
130	0xb745e4bd	-1.1795372e-05
131	0x37268cc3	9.927145e-06
132	0x373c2ca3	1.1216066e-05
133	0x37936709	1.7571745e-05
134	0xb741fc61	-1.1562458e-05
135	0xb6ceaf3b	-6.159678e-06
136	0xb7b7abfe	-2.189539e-05
137	0x361bf986	2.3242042e-06
138	0x36fa6ab9	7.4630047e-06
139	0x36c5b434	5.892036e-06
140	0x36c85b38	5.9710837e-06
141	0x37f1be86	2.8818158e-05
142	0x36ed81bc	7.0782535e-06
143	0x36225154	2.418722e-06
144	0xb7009afa	-7.665478e-06
145	0xb6ec0c1c	-7.034758e-06
146	0xb7d069fa	-2.4844881e-05
147	0x37207b06	9.565387e-06
148	0x3793bca1	1.7611603e-05
149	0xb74997fa	-1.2015918e-05
150	0xb5cd28b4	-1.5285536e-06
151	0xb66a4b20	-3.4912446e-06
152	0xb7057159	-7.953809e-06
153	0xb62fbe4f	-2.6187806e-06
154	0x37147d7a	8.850702e-06
155	0x370bc8c2	8.331788e-06
156	0xb71d8790	-9.389492e-06
157	0x37397d64	1.1056054e-05
158	0xb71e2d3d	-9.428067e-06
159	0xb651ebe0	-3.1280724e-06
160	0x37d89a61	2.5821095e-05
161	0xb7ac994f	-2.0575388e-05
162	0x379610c9	1.788921e-05
163	0x372c75ec	1.0279455e-05
164	0x3743cdaa	1.1670791e-05
165	0xb6722ae4	-3.6085776e-06
166	0xb7069746	-8.0222435e-06
167	0x36dca520	6.575734e-06
168	0x362a8a16	2.541235e-06
169	0xb785fcb7	-1.5972515e-05
170	0x3703a66e	7.846958e-06
171	0x3712a770	8.741263e-06
172	0x374fbf7d	1.2382746e-05
173	0xb6189ca0	-2.2740933e-06
174	0xb55d341c	-8.2404745e-07
175	0xb688e708	-4.0800114e-06
176	0x3764a0fb	1.362734e-05
177	0xb771e604	-1.4418274e-05
178	0x35732c9f	9.0589486e-07
179	0xb64468de	-2.9267317e-06
180	0x37df4f19	2.6620504e-05
181	0x36c0f26b	5.750267e-06
182	0x37ad34ca	2.0647789e-05
183	0x35a9f0b3	1.2661534e-06
184	0x374fea17	1.2392665e-05
185	0x360555cc	1.9868485e-06
186	0xb77af201	-1.4957507e-05
187	0xb5736c01	-9.068172e-07
188	0xb7423cfc	-1.15775e-05
189	0x3788663e	1.6260074e-05
190	0xb495635f	-2.7825715e-07
191	0xb6f1a515	-7.201578e-06
192	0x37155cc8	8.902694e-06
193	0x36c1f16f	5.779955e-06
194	0xb6cb318e	-6.0556404e-06
195	0x3748afd7	1.196187e-05
196	0x37730b62	1.4486579e-05
197	0x3816dd34	3.59688e-05
198	0xb7ccebc1	-2.4428477e-05
199	0xb70bed9f	-8.340371e-06
200	0xb7fae6a5	-2.9909725e-05
201	0xb6628204	-3.3752303e-06
202	0xb772f3e1	-1.44811065e-05
203	0x3776e57e	1.4716175e-05
204	0xb79dbf26	-1.8804869e-05
205	0x3862b5f8	5.405207e-05
206	0x3601d98b	1.9349125e-06
207	0x374ef74a	1.2336133e-05
208	0xb7c5e7e3	-2.359221e-05
209	0xb6e45d69	-6.805804e-06
210	0xb854d307	-5.0741273e-05
211	0x3808adae	3.258668e-05
212	0x36f82c50	7.3961346e-06
213	0xb7b4e6c7	-2.1565136e-05
214	0x37601194	1.3355533e-05
215	0xb7a9c357	-2.0237332e-05
216	0x372149ac	9.613501e-06
217	0xb7dfa669	-2.6661162e-05
218	0x379b2fda	1.8499723e-05
219	0x38346675	4.3010765e-05
220	0xb799c6bc	-1.8331564e-05
221	0xb79259f7	-1.744645e-05
222	0xb7e6fde7	-2.7536369e-05
223	0xb7d41780	-2.5283312e-05
224	0x371a2c53	9.189435e-06
225	0xb7f621da	-2.9341249e-05
226	0x388470b5	6.315244e-05
227	0x36cd5696	6.119556e-06
228	0x37f15d41	2.8772864e-05
229	0xb8061777	-3.1969943e-05
230	0xb815dfe6	-3.573289e-05
231	0x37b53528	2.1601634e-05
232	0xb6695da1	-3.4774205e-06
233	0xb7853539	-1.587962e-05
234	0xb70ad4ef	-8.275018e-06
235	0x373b92f1	1.1180281e-05
236	0x37c5b61e	2.3569035e-05
237	0x36c70d6b	5.932224e-06
238	0x35e90678	1.7361735e-06
239	0xb7c80e74	-2.3848588e-05
240	0x36d8a7ce	6.4568367e-06
241	0xb7972f58	-1.8022649e-05
242	0x372f45a2	1.04470255e-05
243	0xb79ee3e2	-1.8941184e-05
244	0x37ca23ca	2.4096942e-05
245	0x3791c7b2	1.7378337e-05
246	0x375ec6b9	1.32785e-05
247	0x372e945f	1.04057535e-05
248	0x372cfe54	1.0311214e-05
249	0xb7713798	-1.4377663e-05
250	0xb7cb2c0d	-2.4219999e-05
251	0x3487bfef	2.528536e-07
252	0xb63f91e0	-2.8546128e-06
253	0x37804f33	1.5295669e-05
254	0x37c413e9	2.3374292e-05
255	0xb713a762	-8.800855e-06
