server_report/ae_graph/ae_graph_node_reduce/autoencoder_20260114_170021.pth (torch, 15622 bytes, 21 tensors)

conv1.bias f4 [32]
000000 07 9a bd 3a c6 8e 07 bf 00 00 00 00 00 00 00 00
       0.0014465459 -0.5295223 0.0 0.0
000010 00 00 00 00 77 02 c9 3e e6 74 23 be 50 66 11 bd
       0.0 0.39259693 -0.15962562 -0.035497963
000020 00 00 00 00 1c 3a 4f bf d4 4d 73 3e 00 00 00 00
       0.0 -0.8094804 0.23760158 0.0
000030 6f d0 62 bd 00 00 00 00 db 0d 86 bf 00 00 00 00
       -0.05537456 0.0 -1.0472978 0.0
000040 00 00 00 00 29 69 77 bd 00 00 00 00 00 00 00 00
       0.0 -0.060403023 0.0 0.0
000050 00 00 00 00 00 00 00 00 00 00 00 00 3f d3 0b bd
       0.0 0.0 0.0 -0.034137007
000060 82 ed 2d bd 76 a3 24 3f 00 00 00 00 77 2d 80 ba
       -0.042462833 0.6431192 0.0 -0.0009779175
000070 00 00 00 00 00 00 00 00 00 00 00 00 8c 4c 0d bf
       0.0 0.0 0.0 -0.55194926

conv1.lin.weight f4 [32, 1]
000000 6b 29 0a 3e c4 20 c6 3e 19 12 b8 be 46 d2 aa be
       0.13492362 0.38696873 -0.35951307 -0.3336355
000010 a0 0e 7e be 6a a0 ce 3e 15 57 02 3f c5 61 8f 3e
       -0.24810266 0.4035676 0.50914127 0.2800428
000020 96 68 93 be 5d 08 d6 3e 81 2f e2 3e 21 76 9e bb
       -0.2879073 0.41803256 0.44176868 -0.0048358594
000030 b0 fc a0 3e 5e 0e cc be b2 4a cb 3e 67 d8 59 bd
       0.31442785 -0.3985471 0.39705426 -0.053184893
000040 76 94 28 bd 8f 05 d1 3e 6d 96 73 be 20 96 11 be
       -0.04115721 0.40824553 -0.23787852 -0.14217424
000050 e1 95 c6 be 07 67 2b be 9e ed 23 be 1e 90 b9 ba
       -0.38786224 -0.1673852 -0.16008613 -0.001415733
000060 94 14 ef 3d 87 ac bb 3d 52 b1 bb be d3 0a 9f 3e
       0.11673847 0.09163766 -0.36658722 0.31062946
000070 db 11 50 be 98 91 a4 be 98 fb 47 be 03 52 1a 3f
       -0.20319311 -0.3214233 -0.19529569 0.6028139

conv2.bias f4 [4]
000000 82 96 2f 3e 9d 9b a2 be 47 6b 49 be 77 31 80 3d
       0.17147258 -0.3175935 -0.1966983 0.06259435

conv2.lin.weight f4 [4, 32]
000000 70 8f 1a be e5 72 09 bf 87 69 2b be 3f 05 84 bd
       -0.1509378 -0.5369094 -0.16739474 -0.06446313
000010 17 23 85 3e f7 65 6c bd b3 7a 22 be 9f 83 22 3e
       0.26003334 -0.05771443 -0.15867119 0.15870522
000020 d4 4c 86 3e d3 0e 89 bf 3a 91 a9 bd 63 24 9d be
       0.2623049 -1.0707649 -0.08279653 -0.30691823
000030 35 c1 55 3d 1b 32 cd be b2 8c df bf c6 51 1c be
       0.05218621 -0.4007729 -1.7464812 -0.15265569
000040 55 a6 e5 3d a7 0d 92 3e 16 fc c9 be 55 81 2f 3e
       0.11213366 0.2852604 -0.3945014 0.1713918
000050 84 f4 76 bc 7e 12 a6 be a9 a8 9d be 35 b6 7d be
       -0.0150729455 -0.32435983 -0.3079274 -0.24776538
000060 82 bc 80 bd f8 63 91 be ca 8f 41 be f6 67 9f be
       -0.06285955 -0.28396583 -0.18902507 -0.31134003
000070 8d a0 66 3e 69 b8 9c be 6d b6 aa 3e 95 f7 d1 be
       0.22522183 -0.30609444 0.33342305 -0.41009203
000080 b6 4a 10 be b6 21 1f ba 1d 3a 93 3e 19 22 fc bc
       -0.14091 -0.0006070392 0.28755274 -0.030777978
000090 33 43 39 be 82 e6 cd 3e 05 23 1b 3f 23 0b 0d be
       -0.1809204 0.40214926 0.6060031 -0.1377378
0000a0 0c c3 59 be 02 63 fa bd ba 61 be 3e 70 23 a6 be
       -0.2126581 -0.122259155 0.37183934 -0.32448912
0000b0 14 4d da 3e ae c3 5f 3e 88 89 a6 bf 98 09 db bd
       0.4263693 0.2185199 -1.3010721 -0.10695189
0000c0 67 bb 43 be d0 12 af 3e a1 5d 9b be 0f 9f c1 bd
       -0.19114457 0.3419404 -0.3034487 -0.09454166
0000d0 47 5a da bc 32 97 5e 3e d3 89 51 3e d0 eb 46 bd
       -0.026654376 0.21737364 0.20462732 -0.048564732
0000e0 93 b0 7f 3e fe c2 2b 3e 19 73 d0 3e 79 ed 0c 3f
       0.24969701 0.16773602 0.40712813 0.55049855
0000f0 06 6b 44 be 91 e6 c3 be f3 a6 c2 3e e5 94 9d 3e
       -0.19181451 -0.38261846 0.38017997 0.3077766
000100 01 3f 27 bd 0c 11 46 bf 91 ed 4c be 60 ae 56 3e
       -0.04083157 -0.7736976 -0.200125 0.20964956
000110 61 67 68 3e 4b ee b1 3e df 3e 07 bd 22 3b da 3e
       0.22695686 0.34752116 -0.033018943 0.4262324
000120 56 f2 cc bd 23 5b 97 bf fe 65 1c 3f f7 de ce 3e
       -0.100071594 -1.1824688 0.6109313 0.40404484
000130 90 db 1d 3e 5f fd c3 3e 16 0e e0 be b6 be 58 3e
       0.15415788 0.38279244 -0.43760747 0.211665
000140 5e 25 be 3e a5 af 1a bd 1f 78 cf 3e 7a 21 37 be
       0.37137884 -0.037765164 0.40521333 -0.17883864
000150 78 99 7e 3e 09 06 12 be a8 67 44 bd 7f d6 a4 be
       0.24863231 -0.14260115 -0.047950417 -0.32194898
000160 2c 16 8c be 67 15 cd 3d 2f 0f 76 be 15 b5 19 3e
       -0.27360666 0.10013848 -0.2402923 0.15010484
000170 69 2f bd 3e 2a e3 b6 3e 11 c8 37 3d 0d 5e 70 be
       0.36950234 0.35720187 0.044868533 -0.23473378
000180 66 c7 d1 3e 33 28 4c 3f 30 03 4a 3e f5 16 82 bd
       0.4097244 0.7974884 0.19727778 -0.06352035
000190 3c a6 1b 3e 5f 6d a6 be 2b 6c 8a 3e cc b2 18 3e
       0.15200132 -0.3250532 0.2703565 0.14911956
0001a0 64 d7 1f bd 6d af 45 3f 2b 78 ad bd 04 50 85 be
       -0.039023772 0.77220803 -0.08470186 -0.2603761
0001b0 03 d3 a6 3e e9 1b aa be 9e b7 96 3e 49 cd e0 bd
       0.32582864 -0.3322442 0.29436964 -0.10976655
0001c0 09 6c 8f 3e 02 9a c0 3d c4 b2 99 bd 8b b2 29 be
       0.28012112 0.09404375 -0.075048 -0.16572015
0001d0 75 3f 17 3e 20 7e cf be f9 0b 99 3e a4 15 49 3e
       0.147703 -0.40525913 0.29891947 0.19637161
0001e0 f0 46 89 bd 5d f1 2a bf c4 cc 59 be ca fb 59 3d
       -0.067029834 -0.6677454 -0.21269518 0.05321864
0001f0 a8 4f ce be ae 20 41 3e f6 74 c9 3e a6 52 43 3f
       -0.40295148 0.18860123 0.39347047 0.76297987

decoder.0.weight f4 [32, 4]
000000 4f ab af bc c4 ab d8 3d 3a b3 02 3f ba 43 64 3e
       -0.021443991 0.10579637 0.5105473 0.2229146
000010 8c 51 56 3f 59 6d ec 3e 7d f1 d2 3e d7 3b fe be
       0.8371818 0.46177176 0.41199866 -0.4965503
000020 e5 7f 1f be 94 30 9a 3e 9a a8 d2 3d e9 76 45 be
       -0.15576132 0.30115187 0.102860644 -0.19283642
000030 e9 23 3d be 68 35 09 bf 32 de 18 3f ce ef 81 3e
       -0.1847073 -0.53597116 0.59714043 0.2537827
000040 03 10 2f be 9a 6a a1 bd 37 30 47 3f db fd 72 3e
       -0.17095952 -0.07881661 0.77807945 0.2372965
000050 81 99 af be d2 45 d8 3e 3f f8 cb be d2 64 cf 3f
       -0.34296802 0.4224077 -0.39837834 1.6202643
000060 1e de 19 bf 95 7a 9d be 9b ed 41 3e 46 03 0e bf
       -0.6010455 -0.30757585 0.18938296 -0.55473745
000070 84 e5 11 bf 4c 0e a1 be 69 72 e0 3e 89 30 ca be
       -0.5699084 -0.3145622 0.43837288 -0.39490154
000080 60 f8 5e 3d d8 8a b6 bd 8e f4 e1 be 5e 8d f0 be
       0.054436088 -0.08913201 -0.44131893 -0.46982855
000090 bd af 66 3f 0d 78 f4 bd d6 93 22 3f 26 08 27 bf
       0.90111905 -0.1193696 0.6350683 -0.6524681
0000a0 81 1e 53 be f4 65 04 3f 5e ac ec 3b 52 b3 6c 3d
       -0.20617105 0.5171807 0.007222696 0.0577882
0000b0 90 55 de 3e 89 a2 a3 3e e6 35 00 3f d4 71 45 bf
       0.43424654 0.31959942 0.5008224 -0.7712681
0000c0 30 17 90 3f 45 bf ab 3e 93 cb 26 3f 88 ef 64 bf
       1.1257076 0.33544365 0.6515438 -0.89427996
0000d0 30 b2 eb be 5c ca b1 be 2c 4e 4b 3e f5 e1 b1 be
       -0.46034384 -0.347247 0.19854039 -0.34742704
0000e0 61 bf 9c be 80 5d a1 3e f8 28 04 3f 34 b4 f6 bd
       -0.3061476 0.31516647 0.51625013 -0.1204609
0000f0 99 2f 07 40 07 fd cd 3e 09 75 a8 3a 3d e7 7b bf
       2.1122801 0.40232107 0.0012852262 -0.98399717
000100 99 a7 82 3e cc 79 54 bd 85 6b d9 3e 43 41 ac 3e
       0.25518492 -0.051873967 0.42464843 0.3364354
000110 13 13 c8 bd 81 4b fb be 87 2c b3 bd 4f 18 4c 3e
       -0.09769263 -0.49081042 -0.08748727 0.19931148
000120 23 1f b4 be 93 04 e1 3e 0b 60 53 be c8 d0 07 bf
       -0.35180005 0.43948802 -0.20642106 -0.5305295
000130 a8 4f ac 3e 1f ea 6d 3f f3 f0 61 3f f6 36 a3 3d
       0.33654523 0.92935365 0.88258284 0.07969467
000140 6b 15 fe 3e fc a6 7e 3e 3a 00 25 3f 73 93 c0 be
       0.49625716 0.24868387 0.6445347 -0.37612495
000150 aa a3 41 bf 11 33 ae be 5d b7 2d 3f 3f 63 07 bf
       -0.75640357 -0.34023336 0.67857915 -0.5288581
000160 c9 11 a2 be 4c 2b 98 bc 78 29 45 3f 67 8c fa bd
       -0.31654194 -0.018575333 0.770164 -0.12233811
000170 8e 56 9e bc 42 86 6a 3f 85 95 da 3c f7 65 21 3f
       -0.019328382 0.9161111 0.026682625 0.6304621
000180 0c 59 5b 3e 28 f9 c1 3d 10 ca 69 be a8 76 d1 be
       0.21420687 0.09471351 -0.22830987 -0.4091084
000190 dc ef b7 be ff 89 86 be da 87 36 3f 59 ac 4b bb
       -0.35925186 -0.26277158 0.71301043 -0.003107807
0001a0 7b 74 de be 7b 30 67 be b0 fe 05 3e 1c b8 d2 be
       -0.43448243 -0.22577088 0.13085437 -0.4115609
0001b0 48 f4 e1 be 33 cd 9c 3e 89 c1 ca 3e 87 9f 02 3f
       -0.44131684 0.30625305 0.3960078 0.5102467
0001c0 dc 3f 03 3d bd db 96 be 68 95 8e 3d 0d 56 5f 3e
       0.032043323 -0.29464522 0.06962091 0.2181017
0001d0 78 05 1d bf 6c 37 ff 3e 5e 87 8a bd 10 e3 ba be
       -0.6133647 0.4984697 -0.067641005 -0.3650136
0001e0 f4 f0 22 3f 0f e2 02 3f a6 d2 0c be 78 a3 1f be
       0.63648915 0.5112619 -0.13752231 -0.15589702
0001f0 a0 e3 fe 3d a1 2e 3a 3e f6 66 d5 3e f9 0a 45 bf
       0.1244576 0.1818185 0.41680115 -0.7696987

decoder.0.bias f4 [32]
000000 88 4b 54 bf ab 48 01 3e 02 c7 59 bf 04 c6 11 3f
       -0.8292775 0.12625377 -0.85069287 0.5694277
000010 28 53 4c bf 08 f2 21 3e 15 8c 30 3f 53 41 c6 3e
       -0.79814386 0.15814984 0.6896375 0.38721713
000020 6c b9 ae be 91 df 34 3e 23 f2 8a 3e f0 d4 c4 bd
       -0.3412584 0.17663409 0.2713786 -0.09610927
000030 ef 06 0b be 24 31 2a 3f 73 e7 55 3e df 93 8e 3d
       -0.13576864 0.6648123 0.20889072 0.06961798
000040 7f c8 f8 be 56 c0 91 be 6b aa 51 bf 92 6c 63 bf
       -0.48590466 -0.28467053 -0.8190066 -0.8883754
000050 76 4b aa 3e ea 69 8a 3e c1 25 8d 3e 52 e1 11 bf
       0.33260697 0.2703393 0.27567866 -0.56984437
000060 20 bd a0 be 13 96 26 bf 21 7c 09 3f f4 bc b0 3e
       -0.3139429 -0.65072745 0.5370503 0.3451916
000070 80 0a 7e be df 72 04 3e ae a7 49 3e 1b 0b 1a be
       -0.24808693 0.12934445 0.19692871 -0.15043299

decoder.2.weight f4 [1, 32]
000000 00 5a ab be 40 7b e7 3e bb de 0f bf 5d fb 90 be
       -0.33467102 0.4521122 -0.56199235 -0.28316775
000010 d1 ba 0c bf 3f 02 03 3f 96 98 99 be f3 e2 66 be
       -0.5497256 0.511753 -0.29999226 -0.22547512
000020 e2 75 25 3d b9 e8 99 3e ec 42 41 be 5f e7 00 3f
       0.040395625 0.30060366 -0.18873185 0.50353044
000030 cf da 4b 3f 32 3d b1 be 48 eb 26 be 98 ad 79 3f
       0.7963075 -0.34617 -0.1630069 0.9753051
000040 16 3b 07 be d6 ad 9a 3b 8e 7b c8 bf af 5f 52 3f
       -0.13206133 0.00472043 -1.5662706 0.8217725
000050 20 9d 97 3e 21 f3 c4 be 77 80 a8 be e7 c7 47 3f
       0.29612064 -0.38466743 -0.3291051 0.780394
000060 db d6 90 3d 0f 3d 43 be 76 72 de bd b2 a3 bf be
       0.070722304 -0.19066261 -0.108616754 -0.37429577
000070 58 4c 51 3c d9 11 6d be 27 83 d8 3e 00 4a a1 3e
       0.012774549 -0.2315134 0.4228756 0.3150177

exp_avg f4 [32]
000000 7e 12 65 ba 4c ed a8 3a 00 00 00 00 00 00 00 00
       -0.0008738412 0.0012888103 0.0 0.0
000010 00 00 00 00 af c8 39 b8 64 a7 85 ba 99 16 16 ba
       0.0 -4.429434e-05 -0.0010196981 -0.0005725413
000020 00 00 00 00 a4 f4 97 3a fa de 30 ba 00 00 00 00
       0.0 0.0011593294 -0.0006747093 0.0
000030 17 aa cd ba 00 00 00 00 15 51 cd 38 00 00 00 00
       -0.001569095 0.0 9.7902644e-05 0.0
000040 00 00 00 00 3b 65 16 bb 00 00 00 00 00 00 00 00
       0.0 -0.0022948522 0.0 0.0
000050 00 00 00 00 00 00 00 00 00 00 00 00 04 00 00 00
       0.0 0.0 0.0 6e-45
000060 74 9e 95 b9 00 10 67 3a 00 00 00 00 9a 46 b3 b9
       -0.0002853755 0.0008814335 0.0 -0.00034194143
000070 00 00 00 00 00 00 00 00 00 00 00 00 8c 3e 5c 3a
       0.0 0.0 0.0 0.0008401654

exp_avg_sq f4 [32]
000000 f3 11 b2 38 c2 b5 0d 37 00 00 00 00 00 00 00 00
       8.491045e-05 8.446574e-06 0.0 0.0
000010 00 00 00 00 61 04 e7 37 00 ec 1b 37 44 4e 27 36
       0.0 2.7539385e-05 9.293668e-06 2.4930496e-06
000020 00 00 00 00 c7 41 9f 36 7a fa ec 36 00 00 00 00
       0.0 4.7462268e-06 7.0625074e-06 0.0
000030 7d 36 a3 37 00 00 00 00 7e 4e a1 37 00 00 00 00
       1.9456487e-05 0.0 1.9229246e-05 0.0
000040 00 00 00 00 6b 29 09 38 00 00 00 00 00 00 00 00
       0.0 3.270192e-05 0.0 0.0
000050 00 00 00 00 00 00 00 00 00 00 00 00 29 d8 a7 1c
       0.0 0.0 0.0 1.1107009e-21
000060 db f4 07 35 4b 97 b9 37 00 00 00 00 b8 35 af 36
       5.064773e-07 2.212417e-05 0.0 5.22166e-06
000070 00 00 00 00 00 00 00 00 00 00 00 00 6c 61 27 37
       0.0 0.0 0.0 9.9766585e-06

exp_avg f4 [32, 1]
000000 4b 28 dd 3a 16 88 1e 3b 00 00 00 00 00 00 00 00
       0.001687297 0.002419 0.0 0.0
000010 00 00 00 00 20 49 eb ba 8a 95 d9 ba 46 2b 54 ba
       0.0 -0.001795087 -0.0016600352 -0.00080936064
000020 00 00 00 00 68 39 2a 3b b6 8e e5 ba 00 00 00 00
       0.0 0.0025974158 -0.0017513845 0.0
000030 d9 2e 1d bb 00 00 00 00 5d 75 47 37 00 00 00 00
       -0.0023984222 0.0 1.188865e-05 0.0
000040 00 00 00 00 92 da 5a bb 00 00 00 00 00 00 00 00
       0.0 -0.0033394438 0.0 0.0
000050 00 00 00 00 00 00 00 00 00 00 00 00 04 00 00 00
       0.0 0.0 0.0 6e-45
000060 d7 7f e4 b9 f3 02 7c 3a 00 00 00 00 d6 40 20 ba
       -0.00043582797 0.00096134766 0.0 -0.0006113177
000070 00 00 00 00 00 00 00 00 00 00 00 00 fc 71 9c 3a
       0.0 0.0 0.0 0.0011935825

exp_avg_sq f4 [32, 1]
000000 30 54 a8 37 48 45 41 38 00 00 00 00 00 00 00 00
       2.0066364e-05 4.607931e-05 0.0 0.0
000010 00 00 00 00 dc 4a b9 37 33 8d 48 38 fc c9 2c 37
       0.0 2.2088578e-05 4.7815218e-05 1.0299027e-05
000020 00 00 00 00 40 9a bf 37 d5 7d 5c 37 00 00 00 00
       0.0 2.2840803e-05 1.3142319e-05 0.0
000030 51 a9 be 38 00 00 00 00 46 c3 6b 39 00 00 00 00
       9.091444e-05 0.0 0.00022484091 0.0
000040 00 00 00 00 1a 55 e5 38 00 00 00 00 00 00 00 00
       0.0 0.00010935422 0.0 0.0
000050 00 00 00 00 00 00 00 00 00 00 00 00 a2 11 d5 1d
       0.0 0.0 0.0 5.6398862e-21
000060 14 87 ab 35 04 94 1f 39 00 00 00 00 4f 58 d3 35
       1.2779806e-06 0.00015218562 0.0 1.5746426e-06
000070 00 00 00 00 00 00 00 00 00 00 00 00 ac de 82 38
       0.0 0.0 0.0 6.240359e-05

exp_avg f4 [4]
000000 f4 cc a0 3a 43 3a b3 ba b2 4b c4 b9 1d f2 14 bb
       0.0012268112 -0.001367398 -0.0003744043 -0.0022727319

exp_avg_sq f4 [4]
000000 0f 80 1f 3a f1 61 86 38 16 a0 2f 36 32 3a 1d 39
       0.0006084451 6.407861e-05 2.6170214e-06 0.00014994366

exp_avg f4 [4, 32]
000000 d0 4d 65 ba a7 12 d3 b9 00 00 00 00 00 00 00 00
       -0.00087472517 -0.00040258953 0.0 0.0
000010 00 00 00 00 6c 80 0c bb 3f ba 26 bb 11 06 d7 ba
       0.0 -0.002143885 -0.0025440601 -0.0016405006
000020 00 00 00 00 db 24 88 b8 64 91 28 bb 00 00 00 00
       0.0 -6.49185e-05 -0.0025721425 0.0
000030 8c 3a e8 ba 00 00 00 00 fd dd 64 38 00 00 00 00
       -0.0017717644 0.0 5.456618e-05 0.0
000040 00 00 00 00 36 62 1a bb 00 00 00 00 00 00 00 00
       0.0 -0.0023557073 0.0 0.0
000050 00 00 00 00 00 00 00 00 00 00 00 00 04 00 00 00
       0.0 0.0 0.0 6e-45
000060 07 15 0f ba 05 fb 28 39 00 00 00 00 89 dd 02 bb
       -0.00054581504 0.0001611524 0.0 -0.001996847
000070 00 00 00 00 00 00 00 00 00 00 00 00 21 8b c0 ba
       0.0 0.0 0.0 -0.0014689901
000080 34 8b 21 ba d5 92 ad b9 00 00 00 00 00 00 00 00
       -0.00061624055 -0.0003310653 0.0 0.0
000090 00 00 00 00 22 9f 1b bb 2a dd ed ba 2b 8b 97 ba
       0.0 -0.0023745974 -0.0018147577 -0.0011561861
0000a0 00 00 00 00 02 63 8b b8 cb 99 18 bb 00 00 00 00
       0.0 -6.646478e-05 -0.0023285027 0.0
0000b0 52 19 a4 ba 00 00 00 00 08 43 a6 37 00 00 00 00
       -0.0012519753 0.0 1.9819956e-05 0.0
0000c0 00 00 00 00 33 c6 d9 ba 00 00 00 00 00 00 00 00
       0.0 -0.0016614854 0.0 0.0
0000d0 00 00 00 00 00 00 00 00 00 00 00 00 04 00 00 80
       0.0 0.0 0.0 -6e-45
0000e0 34 45 cd b9 e5 b5 ac ba 00 00 00 00 df 53 b7 ba
       -0.00039152207 -0.0013176767 0.0 -0.0013986788
0000f0 00 00 00 00 00 00 00 00 00 00 00 00 7c 0d 93 ba
       0.0 0.0 0.0 -0.0011219229
000100 93 5b 11 b9 bb 38 91 b8 00 00 00 00 00 00 00 00
       -0.00013862392 -6.924706e-05 0.0 0.0
000110 00 00 00 00 32 18 14 ba 58 af d0 b9 6f b1 86 b9
       0.0 -0.00056493573 -0.00039803493 -0.0002569067
000120 00 00 00 00 0c ee d6 b7 fa 8b 0d ba 00 00 00 00
       0.0 -2.5621637e-05 -0.0005399581 0.0
000130 60 83 91 b9 00 00 00 00 fa db 81 b7 00 00 00 00
       -0.00027754437 0.0 -1.5480433e-05 0.0
000140 00 00 00 00 01 14 c1 b9 00 00 00 00 00 00 00 00
       0.0 -0.00036826733 0.0 0.0
000150 00 00 00 00 00 00 00 00 00 00 00 00 04 00 00 80
       0.0 0.0 0.0 -6e-45
000160 d4 f1 b2 b8 eb 95 b9 b9 00 00 00 00 20 b4 a2 b9
       -8.5327454e-05 -0.00035397647 0.0 -0.0003103325
000170 00 00 00 00 00 00 00 00 00 00 00 00 6d ca 71 b9
       0.0 0.0 0.0 -0.0002305896
000180 dd bd f0 36 ee 61 76 b7 00 00 00 00 00 00 00 00
       7.1746604e-06 -1.4685544e-05 0.0 0.0
000190 00 00 00 00 88 99 63 ba 35 7d 8a b7 21 a4 bc 36
       0.0 -0.0008682241 -1.6509186e-05 5.6219437e-06
0001a0 00 00 00 00 b7 6f 68 38 fe eb 07 ba 00 00 00 00
       0.0 5.5417153e-05 -0.0005185007 0.0
0001b0 0a a5 3a 36 00 00 00 00 23 4d aa 38 00 00 00 00
       2.7812225e-06 0.0 8.1205995e-05 0.0
0001c0 00 00 00 00 7f 19 85 36 00 00 00 00 00 00 00 00
       0.0 3.966677e-06 0.0 0.0
0001d0 00 00 00 00 00 00 00 00 00 00 00 00 04 00 00 00
       0.0 0.0 0.0 6e-45
0001e0 b4 f0 d4 b6 4a 63 bc ba 00 00 00 00 1e d0 d3 36
       -6.346114e-06 -0.0014372852 0.0 6.312518e-06
0001f0 00 00 00 00 00 00 00 00 00 00 00 00 9d 1e 9a b8
       0.0 0.0 0.0 -7.3489944e-05

exp_avg_sq f4 [4, 32]
000000 2a 16 f9 36 88 6a 01 37 00 00 00 00 00 00 00 00
       7.4233585e-06 7.713803e-06 0.0 0.0
000010 00 00 00 00 55 2e 33 39 05 46 8e 38 23 b0 da 37
       0.0 0.0001708803 6.78413e-05 2.6069645e-05
000020 00 00 00 00 5b ec 62 36 e0 11 f8 38 00 00 00 00
       0.0 3.3814201e-06 0.00011828891 0.0
000030 69 c6 fe 37 00 00 00 00 ba c6 3e 35 00 00 00 00
       3.0371551e-05 0.0 7.10697e-07 0.0
000040 00 00 00 00 27 de 5e 38 00 00 00 00 00 00 00 00
       0.0 5.313582e-05 0.0 0.0
000050 00 00 00 00 00 00 00 00 00 00 00 00 a6 3b 0e 16
       0.0 0.0 0.0 1.148949e-25
000060 66 ac 85 36 2c 9b 87 39 00 00 00 00 63 5c 18 38
       3.9837787e-06 0.0002586482 0.0 3.6325666e-05
000070 00 00 00 00 00 00 00 00 00 00 00 00 63 f6 24 38
       0.0 0.0 0.0 3.9330112e-05
000080 e9 ee 36 36 55 c7 09 36 00 00 00 00 00 00 00 00
       2.7259177e-06 2.0530617e-06 0.0 0.0
000090 00 00 00 00 a4 cf 49 38 cb 41 ca 37 ae 19 1e 37
       0.0 4.8115515e-05 2.4110914e-05 9.423513e-06
0000a0 00 00 00 00 3c d4 3c 35 3a 72 2b 38 00 00 00 00
       0.0 7.03443e-07 4.087596e-05 0.0
0000b0 ec 55 37 37 00 00 00 00 b4 1c fa 33 00 00 00 00
       1.0927655e-05 0.0 1.1646753e-07 0.0
0000c0 00 00 00 00 6f ca a0 37 00 00 00 00 00 00 00 00
       0.0 1.9167752e-05 0.0 0.0
0000d0 00 00 00 00 00 00 00 00 00 00 00 00 72 8b 14 18
       0.0 0.0 0.0 1.9198954e-24
0000e0 9d 5c be 35 01 8f 0c 38 00 00 00 00 f6 40 5e 37
       1.4183057e-06 3.3511784e-05 0.0 1.3247356e-05
0000f0 00 00 00 00 00 00 00 00 00 00 00 00 be 49 50 37
       0.0 0.0 0.0 1.2414936e-05
000100 27 b9 0f 34 cc 11 44 34 00 00 00 00 00 00 00 00
       1.3385271e-07 1.8260397e-07 0.0 0.0
000110 00 00 00 00 7c 7f 22 36 ae ae a2 35 de 2f fa 34
       0.0 2.4214087e-06 1.2120779e-06 4.6600957e-07
000120 00 00 00 00 64 fd 01 34 cc 1c 0b 36 00 00 00 00
       0.0 1.2106244e-07 2.0729376e-06 0.0
000130 72 e7 11 35 00 00 00 00 df c5 1b 33 00 00 00 00
       5.4353507e-07 0.0 3.6268712e-08 0.0
000140 00 00 00 00 bc 55 7f 35 00 00 00 00 00 00 00 00
       0.0 9.511966e-07 0.0 0.0
000150 00 00 00 00 00 00 00 00 00 00 00 00 e4 17 cd 18
       0.0 0.0 0.0 5.301538e-24
000160 fb 39 97 33 e0 d6 c5 35 00 00 00 00 63 37 2f 35
       7.042032e-08 1.4740181e-06 0.0 6.527318e-07
000170 00 00 00 00 00 00 00 00 00 00 00 00 42 74 48 35
       0.0 0.0 0.0 7.4674983e-07
000180 7a df 81 36 49 14 16 37 00 00 00 00 00 00 00 00
       3.8705157e-06 8.94542e-06 0.0 0.0
000190 00 00 00 00 92 0f a2 38 00 01 2b 38 b6 b3 6f 37
       0.0 7.727662e-05 4.077051e-05 1.4287352e-05
0001a0 00 00 00 00 e4 1b af 36 d6 86 80 38 00 00 00 00
       0.0 5.2186533e-06 6.128631e-05 0.0
0001b0 8d 05 8f 37 00 00 00 00 3a 1b c1 35 00 00 00 00
       1.7049513e-05 0.0 1.4387545e-06 0.0
0001c0 00 00 00 00 29 7f f6 37 00 00 00 00 00 00 00 00
       0.0 2.9384699e-05 0.0 0.0
0001d0 00 00 00 00 00 00 00 00 00 00 00 00 79 08 bc 18
       0.0 0.0 0.0 4.8605416e-24
0001e0 c7 48 22 36 cc ee 95 38 00 00 00 00 6c bf 9d 37
       2.4182243e-06 7.149353e-05 0.0 1.8804996e-05
0001f0 00 00 00 00 00 00 00 00 00 00 00 00 e9 08 11 38
       0.0 0.0 0.0 3.4578992e-05

exp_avg f4 [32, 4]
000000 b3 5f 2e 38 dc 35 a3 37 23 77 28 38 91 5c 31 b8
       4.157396e-05 1.9456194e-05 4.0165276e-05 -4.2286298e-05
000010 f2 1f 87 39 40 55 65 ba 9c ba ae b9 43 ff a4 b9
       0.00025773008 -0.000874836 -0.000333269 -0.00031470702
000020 67 bf d6 38 a4 61 5b b8 55 7c 29 38 b8 72 c9 b8
       0.00010239967 -5.2304604e-05 4.0408533e-05 -9.605795e-05
000030 1e 06 26 b9 02 e9 0b 3a 70 d3 54 39 23 00 4c 39
       -0.00015833272 0.000533715 0.00020296662 0.00019455007
000040 73 8d 0b 39 d4 e0 32 b9 d2 ab 91 b6 6d 44 f9 b8
       0.00013308767 -0.00017059158 -4.3413393e-06 -0.000118859905
000050 c0 65 20 39 c1 85 3b ba 68 41 c2 b9 89 2a b1 b6
       0.00015296694 -0.0007153415 -0.00037051295 -5.279963e-06
000060 be cb 20 b9 95 9a 13 3a 14 f2 67 39 36 5b 4c 39
       -0.00015334689 0.00056306395 0.00022120058 0.00019488935
000070 41 1f 0f b9 ce 21 ed 39 27 f8 30 39 98 8e 2c 39
       -0.00013649186 0.0004522935 0.00016877112 0.00016456319
000080 00 00 00 00 00 00 00 00 00 00 00 00 00 00 00 00
       0.0 0.0 0.0 0.0
000090 41 08 a9 37 8c 3a 1d b9 df dc 79 b8 cf 0e f0 b8
       2.0150213e-05 -0.00014994497 -5.957193e-05 -0.0001144685
0000a0 fa f1 65 b8 1c bf 99 39 f2 46 0c 39 0c f8 b3 38
       -5.4823213e-05 0.00029324822 0.0001337787 8.5815875e-05
0000b0 54 9e 5f 39 b8 51 52 ba 36 54 aa b9 5e 23 98 b9
       0.00021325919 -0.00080230413 -0.0003248767 -0.0002901805
0000c0 c4 b6 4f 39 b6 8b 63 ba f3 8d bf b9 68 59 bf b9
       0.00019809144 -0.00086801813 -0.0003653612 -0.00036496972
0000d0 75 b0 52 b9 3d 62 31 3a f2 08 86 39 73 54 80 39
       -0.00020092896 0.0006766653 0.00025565136 0.00024476982
0000e0 44 c6 46 b8 5b e5 84 39 16 80 f2 38 cc 91 9b 38
       -4.7391528e-05 0.00025347885 0.00011563317 7.418133e-05
0000f0 66 34 41 38 bd ab d9 b9 e0 52 1c b9 05 1a ca b9
       4.6063586e-05 -0.0004151742 -0.00014908193 -0.00038547828
000100 04 00 00 00 04 00 00 80 04 00 00 80 04 00 00 80
       6e-45 -6e-45 -6e-45 -6e-45
000110 04 00 00 80 04 00 00 00 04 00 00 80 04 00 00 00
       -6e-45 6e-45 -6e-45 6e-45
000120 cf ef 52 38 05 66 e5 39 ee 02 a1 39 35 8e e2 b8
       5.029124e-05 0.00043754294 0.00030710496 -0.00010803008
000130 c2 65 93 39 04 a9 ad ba 65 59 3c ba ab f9 5a 38
       0.0002811384 -0.0013249223 -0.00071849517 5.220777e-05
000140 d8 d6 44 39 1f bb 20 ba 66 16 6f b9 30 46 68 b9
       0.00018772052 -0.0006131399 -0.0002280116 -0.00022151391
000150 6f 1b 33 b9 10 78 35 3a 25 f6 94 39 00 6c 6e 39
       -0.0001708099 0.0006922493 0.00028412152 0.00022737682
000160 93 c6 c5 b8 c6 82 05 3a be 50 74 39 0e a4 1b 39
       -9.430679e-05 0.0005093034 0.00023299732 0.00014843067
000170 04 d2 8e 39 19 2e a6 ba 51 0c 34 ba 8a ab 65 38
       0.00027240824 -0.0012678533 -0.00068682904 5.4757613e-05
000180 00 00 00 00 00 00 00 00 00 00 00 00 00 00 00 00
       0.0 0.0 0.0 0.0
000190 04 00 00 80 04 00 00 00 04 00 00 80 04 00 00 00
       -6e-45 6e-45 -6e-45 6e-45
0001a0 5e d2 7c b8 39 62 5c 39 31 d5 a8 38 56 5e 9c 38
       -6.02774e-05 0.00021017426 8.050574e-05 7.456231e-05
0001b0 2f a9 e1 b8 72 f0 17 3a 78 e9 8a 39 5b 55 31 39
       -0.00010760349 0.0005796022 0.0002649536 0.00016911833
0001c0 04 00 00 80 04 00 00 00 04 00 00 80 04 00 00 00
       -6e-45 6e-45 -6e-45 6e-45
0001d0 4c 6b 8c b8 b8 4c bc 39 71 f2 2b 39 eb 23 dc 38
       -6.695706e-05 0.00035915314 0.00016398147 0.00010497108
0001e0 12 d7 6d 39 05 a2 55 ba 7d 49 a6 b9 16 3d 94 b9
       0.00022682201 -0.0008149448 -0.0003171674 -0.00028274272
0001f0 39 d3 04 39 38 eb fc b9 6b 29 4f b9 02 67 37 b9
       0.00012667188 -0.00048240437 -0.00019756488 -0.00017490613

exp_avg_sq f4 [32, 4]
000000 ea dd 0b 36 50 c9 79 36 ce 3f 4e 33 f9 37 c4 35
       2.0841785e-06 3.722107e-06 4.8021143e-08 1.4619428e-06
000010 e4 c7 bf 34 03 f9 6a 36 f5 ba 1c 35 3f 6e b4 35
       3.5721962e-07 3.501366e-06 5.8386587e-07 1.3443131e-06
000020 8e b2 c1 36 3a f5 24 37 3b 21 e4 33 68 66 88 36
       5.7726347e-06 9.832258e-06 1.0623122e-07 4.0650375e-06
000030 9a df 1e 34 8f 0f bc 35 19 1d 7a 34 d2 a1 15 35
       1.4796242e-07 1.401162e-06 2.329365e-07 5.5742305e-07
000040 dc a0 76 36 ad c3 9d 36 7c 64 e2 32 c3 c1 2d 36
       3.675049e-06 4.7017443e-06 2.6355558e-08 2.5891793e-06
000050 f6 16 ce 36 13 1a 7c 37 bd c1 59 35 35 4a 85 36
       6.1419514e-06 1.5026441e-05 8.1120726e-07 3.9723477e-06
000060 29 67 f7 34 6f 72 33 36 38 a0 a6 34 08 dd 5d 35
       4.6082394e-07 2.6739688e-06 3.1036484e-07 8.265056e-07
000070 67 6e b3 34 59 91 df 35 37 27 3d 34 c9 cb 0a 35
       3.3421676e-07 1.6657096e-06 1.7616263e-07 5.170555e-07
000080 00 00 00 00 00 00 00 00 00 00 00 00 00 00 00 00
       0.0 0.0 0.0 0.0
000090 c1 56 80 32 23 fd 8f 34 7c f1 c0 33 67 2d fe 34
       1.4940612e-08 2.6820007e-07 8.9846225e-08 4.734422e-07
0000a0 68 50 57 35 33 ba 08 36 8f 0e ff 33 59 66 48 35
       8.021075e-07 2.0373961e-06 1.1877011e-07 7.465474e-07
0000b0 38 c5 8f 34 e2 48 58 36 74 5a 27 35 32 db ce 35
       2.677932e-07 3.2228932e-06 6.2343975e-07 1.541199e-06
0000c0 16 86 8d 34 be 68 8e 36 09 9a 8e 35 07 50 72 36
       2.6360857e-07 4.2441234e-06 1.0624655e-06 3.6107392e-06
0000d0 36 65 b7 34 ef fe 2f 36 3e a2 ca 34 ec a1 73 35
       3.4160047e-07 2.6225423e-06 3.774348e-07 9.076018e-07
0000e0 56 4a 1d 35 94 d9 c7 35 06 89 ba 33 fb 5b 12 35
       5.859523e-07 1.4889979e-06 8.6862244e-08 5.452309e-07
0000f0 48 ba a9 33 56 23 9b 35 9e 62 28 35 a2 33 b0 36
       7.90356e-08 1.1558684e-06 6.2728384e-07 5.2512196e-06
000100 fc 32 0b 19 b7 2c 2b 1a 61 1f 69 19 5f db 87 14
       7.196428e-24 3.539809e-23 1.20521546e-23 1.3718043e-26
000110 80 6e 2a 20 f8 b0 80 1f 22 f0 e5 1d 43 5e d7 1f
       1.4436121e-19 5.450288e-20 6.0864087e-21 9.1211985e-20
000120 51 f1 5a 38 a5 00 d6 38 7c 91 02 36 77 f6 16 38
       5.2199994e-05 0.00010204435 1.9456193e-06 3.5992325e-05
000130 1d 60 85 37 32 11 29 38 92 29 33 36 bd 34 2c 37
       1.5899592e-05 4.0308754e-05 2.6697276e-06 1.0264278e-05
000140 66 e0 88 34 3e de 04 36 54 d4 95 34 9d c0 2d 35
       2.5495245e-07 1.9798895e-06 2.7907902e-07 6.472781e-07
000150 fd ce c6 35 83 e9 c8 36 71 05 0d 35 aa 7f fa 35
       1.4812391e-06 5.987649e-06 5.253451e-07 1.8663607e-06
000160 24 e8 25 36 f9 90 d2 36 4a 28 c4 34 f8 5c 1a 36
       2.472204e-06 6.2753647e-06 3.653716e-07 2.3001903e-06
000170 e0 5b 71 37 50 98 17 38 ce fe 17 36 25 bb 1b 37
       1.4386111e-05 3.6143058e-05 2.264907e-06 9.282293e-06
000180 00 00 00 00 00 00 00 00 00 00 00 00 00 00 00 00
       0.0 0.0 0.0 0.0
000190 91 ce 01 28 2b d9 c4 27 19 0c de 23 6f 02 92 27
       7.2057305e-15 5.4636382e-15 2.4074412e-17 4.052578e-15
0001a0 33 1f 90 33 d9 c6 c6 34 31 b3 30 33 9d 42 f2 33
       6.7111976e-08 3.7025055e-07 4.1141167e-08 1.128112e-07
0001b0 ca 7e 59 36 7e 00 0a 37 94 88 00 35 b3 6d 4a 36
       3.240932e-06 8.225556e-06 4.7882463e-07 3.01642e-06
0001c0 9f 29 e5 25 49 d1 35 25 43 3f a0 23 ad 7f 90 25
       3.975337e-16 1.5770156e-16 1.7374027e-17 2.5066535e-16
0001d0 ef d4 a2 35 fe c4 4e 36 7f ce 40 34 1b 8c 97 35
       1.2131912e-06 3.0811057e-06 1.7956516e-07 1.1291153e-06
0001e0 c3 0c 85 35 a0 b7 bc 36 fa a2 27 35 40 92 df 35
       9.912986e-07 5.6242134e-06 6.244951e-07 1.6657359e-06
0001f0 92 5e a8 33 3d be 8b 35 f8 54 69 34 f9 67 1a 35
       7.840312e-08 1.0411674e-06 2.1730727e-07 5.752077e-07

exp_avg f4 [32]
000000 ca 96 c0 37 84 8e 43 b8 2b 59 8b 36 ba 46 d4 37
       2.29584e-05 -4.662435e-05 4.1529033e-06 2.5305304e-05
000010 74 32 36 b8 48 5e da b9 77 4b ec 37 4c 48 f5 37
       -4.343917e-05 -0.00041650445 2.8168533e-05 2.9239942e-05
000020 00 00 00 00 c9 f2 2e 39 c4 8a 91 34 ce c8 8f 37
       0.0 0.00016684378 2.710932e-07 1.7140435e-05
000030 ce 68 50 39 55 af 27 38 49 d2 7a 34 1e 7d 17 3a
       0.00019875469 3.9979193e-05 2.3359566e-07 0.0005778837
000040 04 00 00 80 04 00 00 00 32 cf 86 39 94 0a 56 ba
       -6e-45 6e-45 0.00025712844 -0.00081650284
000050 eb 9b 3c b8 65 30 e4 37 c1 02 93 33 44 48 51 ba
       -4.4967903e-05 2.7202253e-05 6.845722e-08 -0.00079834857
000060 00 00 00 00 04 00 00 00 77 86 4c 37 0f cb 42 34
       0.0 6e-45 1.2190655e-05 1.814153e-07
000070 04 00 00 00 9a 52 8a 34 da 4c 3f b8 0f 96 9b 37
       6e-45 2.5764604e-07 -4.5609522e-05 1.8547316e-05

exp_avg_sq f4 [32]
000000 db 31 b7 34 30 90 83 36 41 47 69 35 c2 57 d5 35
       3.412268e-07 3.92089e-06 8.690295e-07 1.5895278e-06
000010 05 5d b7 34 b5 7b 13 36 d1 66 fa 35 65 3c 8f 35
       3.4154087e-07 2.1976714e-06 1.8656375e-06 1.0671907e-06
000020 00 00 00 00 27 c1 df 35 e0 a2 56 35 bb 5e 9f 36
       0.0 1.667101e-06 7.9958227e-07 4.7495973e-06
000030 7d dd 49 37 f7 bd 20 36 a4 ea 1c 35 42 94 a0 37
       1.2032103e-05 2.3952432e-06 5.8455976e-07 1.9142524e-05
000040 8f 42 58 18 7c 1f 37 1d 9e 89 2b 37 2d fe e3 36
       2.795095e-24 2.4236125e-21 1.0224436e-05 6.794717e-06
000050 f6 c5 e7 35 63 20 57 36 99 15 25 36 55 a3 c2 36
       1.7268455e-06 3.2056348e-06 2.4599487e-06 5.800665e-06
000060 00 00 00 00 d8 3f be 25 b2 36 84 34 41 68 58 36
       0.0 3.3003008e-16 2.4626712e-07 3.2247192e-06
000070 3a 96 72 22 f9 42 a2 35 53 3f 79 36 43 ec f3 35
       3.2876645e-18 1.2089432e-06 3.714075e-06 1.8173672e-06

exp_avg f4 [1, 32]
000000 93 d0 75 37 dd 04 c9 b9 66 c1 8d 37 cb 03 83 39
       1.46517e-05 -0.0003834133 1.6898568e-05 0.00024989093
000010 24 a1 d0 36 3c 14 10 ba ab 36 dd 39 1f 86 48 39
       6.2176423e-06 -0.0005496179 0.00042193136 0.0001912345
000020 00 00 00 00 59 fa b2 39 0c 1e 6a ba be c1 55 b9
       0.0 0.0003413733 -0.0008930869 -0.00020385438
000030 26 fa cb b6 06 57 e1 39 f5 3d 69 ba 76 72 bc 39
       -6.0789926e-06 0.00042980182 -0.0008897477 0.00035943434
000040 04 00 00 00 04 00 00 80 a9 2d ad 37 c7 71 a5 ba
       6e-45 -6e-45 2.064447e-05 -0.0012622409
000050 8f 24 f2 b9 02 8f 85 38 26 d5 11 ba 96 a1 68 ba
       -0.00046185075 6.3685715e-05 -0.00055630726 -0.0008874176
000060 00 00 00 00 04 00 00 80 52 a6 a6 39 c4 c7 91 ba
       0.0 -6e-45 0.00031785906 -0.0011122157
000070 04 00 00 00 c9 4b 41 ba 50 e6 ed b9 ae 54 8e b8
       6e-45 -0.00073736586 -0.0004537576 -6.7868605e-05

exp_avg_sq f4 [1, 32]
000000 49 d1 eb 33 5c cb 8d 36 4c 67 e0 33 66 68 af 36
       1.0981109e-07 4.2258016e-06 1.04496024e-07 5.22756e-06
000010 48 09 ab 32 73 54 fb 38 e3 00 a9 37 27 b7 10 37
       1.991124e-08 0.000119843426 2.0146783e-05 8.625712e-06
000020 00 00 00 00 25 91 cd 36 54 a1 0d 38 57 35 41 36
       0.0 6.126373e-06 3.3767268e-05 2.879029e-06
000030 66 5e 3b 36 6e 08 7f 37 77 99 bc 37 ca 12 a0 36
       2.7920119e-06 1.5201147e-05 2.2482809e-05 4.770559e-06
000040 ab f7 12 17 05 80 86 1e e3 de e7 34 8e 88 b6 37
       4.7487745e-25 1.424075e-20 4.3189274e-07 2.1759679e-05
000050 de d8 0b 37 ed 46 0f 37 a1 35 27 37 0e 63 81 38
       8.335539e-06 8.539978e-06 9.966462e-06 6.16965e-05
000060 00 00 00 00 52 e3 07 26 df 9e 45 37 c0 98 78 38
       0.0 4.714561e-16 1.1779105e-05 5.9270067e-05
000070 52 9f 73 20 1c dd 02 38 73 5d 1f 36 ac 13 00 36
       2.0635615e-19 3.120034e-05 2.374724e-06 1.9084937e-06
