server_report/ae_hexa/ae_hexa_log_4_2_64_batchnorm/autoencoder_20260102_133401.pth (torch, 399204 bytes, 75 tensors)

enc1.kernel0 f4 [4, 1, 5, 1]
0.4101193 -0.14128332 0.39899874 0.9515932 0.54770935 -0.47718665 0.024933893 1.1376864
0.5553487 -0.36220914 -0.91339636 -0.11572656 0.26382682 -0.19841075 -0.8941262 -0.14232466
0.4193519 0.94283414 0.34961623 0.40320268
00000000: 28fb d13e 93ac 10be 9049 cc3e 9d9b 733f
00000010: ae36 0c3f cf51 f4be 2a42 cc3c b59f 913f
00000020: 552b 0e3f 7a73 b9be 58d4 69bf 0c02 edbd
00000030: 4f14 873e 302c 4bbe 74e5 64bf 8ebd 11be
00000040: 4bb5 d63e 945d 713f e600 b33e 9570 ce3e

enc1.kernel1 f4 [4, 1, 4, 2]
0.024217656 0.1888387 -0.71203244 0.27902824 0.71731776 1.0536636 1.0638354 0.71541893
-0.81347936 -0.12181032 -0.20713575 1.209845 0.4352051 1.5678142 -0.2789511 0.30824447
-0.95673215 -1.0530369 -0.115090124 -0.006130568 -0.30477533 0.006824256 -0.84635675 -1.3457263
-0.058718834 -0.71558267 1.3937804 -0.84260905 1.5105803 -0.8894801 0.26703724 -0.44593522
00000000: 1b64 c63c ef5e 413e c247 36bf cadc 8e3e
00000010: 23a2 373f 73de 863f c22b 883f b225 373f
00000020: 2f40 50bf b077 f9bd 651b 54be 33dc 9a3f
00000030: 34d3 de3e 23ae c83f aed2 8ebe 38d2 9d3e
00000040: 66ec 74bf eac9 86bf 5fb4 ebbd efe2 c8bb
00000050: 830b 9cbe 029e df3b d6aa 58bf c240 acbf
00000060: 2983 70bd 6d30 37bf 6567 b23f 3ab5 57bf
00000070: b25a c13f f8b4 63bf 1bb9 883e 9f51 e4be

enc1.kernel2 f4 [4, 1, 3, 2]
-0.24741359 -0.22506428 -0.14589523 0.36031154 0.9953709 0.5752279 -0.37479818 0.29000324
0.07596315 0.87610036 -0.08719677 0.4841257 -0.66519403 -0.9375484 -0.61397135 -1.1395121
-0.3764442 -0.95142746 -0.13717577 -0.17270055 1.096954 -0.50665665 0.14125562 -0.94582367
00000000: fd59 7dbe 4077 66be 8f65 15be c17a b83e
00000010: a1d0 7e3f 2342 133f 8ce5 bfbe 4e7b 943e
00000020: 9192 9b3d 1d48 603f 3894 b2bd 53df f73e
00000030: 284a 2abf 2c03 70bf 3a2d 1dbf 88db 91bf
00000040: 4bbd c0be c090 73bf ce77 0cbe 6ad8 30be
00000050: fd68 8c3f 40b4 01bf 50a5 103e 8021 72bf

enc1.bias_tensor f4 [4]
-0.024252543 -0.025296865 0.008354532 0.0014661759
00000000: 45ad c6bc 5f3b cfbc 72e1 083c b32c c03a

bn1.weight f4 [4]
1.2015648 0.876427 0.88435245 0.64793956
00000000: e0cc 993f 855d 603f ec64 623f 5edf 253f

bn1.bias f4 [4]
0.2593858 0.41456336 0.4542031 0.06534008
00000000: 37ce 843e a641 d43e 4f8d e83e 05d1 853d

bn1.running_mean f4 [4]
0.37328553 0.2263414 -0.63996893 0.10048485
00000000: 481f bf3e 0ac6 673e 01d5 23bf 00cb cd3d

bn1.running_var f4 [4]
4.505287 2.8072531 9.579973 1.898481
00000000: 502b 9040 09aa 3340 9247 1941 6d01 f33f

enc2.kernel0 f4 [2, 4, 3, 1]
-0.1282786 0.09686181 -0.14357747 0.16601224 0.48204628 0.51175034 -0.12415877 -1.7263744
-1.3043168 0.07302087 0.031309213 0.17814139 0.45924273 0.29761294 0.1815976 0.19835307
0.02582103 -0.1006388 -0.39346847 -2.3630679 -0.75514054 0.23033828 0.24191147 -0.005663413
00000000: 775b 03be 7c5f c63d f905 13be 1dff 293e
00000010: c5ce f63e 1202 033f f446 febd d6f9 dcbf
00000020: daf3 a6bf f78b 953d 173e 003d b26a 363e
00000030: dd21 eb3e b960 983e b9f4 393e 111d 4b3e
00000040: a086 d33c b71b cebd b374 c9be 813c 17c0
00000050: e450 41bf ccdd 6b3e a4b7 773e 2794 b9bb

enc2.kernel1 f4 [2, 4, 2, 2]
0.26244992 -0.5197489 -0.40357083 -0.10402933 0.47401953 0.11222594 0.60307354 -0.20830248
-0.18325612 -0.01801132 -1.2466581 -0.5122714 0.2106033 -0.123128474 0.23776142 -0.2050627
-0.22197457 0.788231 0.44775093 -0.049870014 -0.2829433 0.09507332 -0.5470112 0.76922697
0.3633858 -0.21676347 -0.33823094 -0.52686507 -0.23947313 0.33971393 -0.34877607 0.38884085
00000000: d65f 863e 440e 05bf d6a0 cebe 540d d5bd
00000010: b0b2 f23e b7d6 e53d 0763 1a3f 3f4d 55be
00000020: 7ea7 3bbe 7a8c 93bc 7e92 9fbf 3824 03bf
00000030: 64a8 573e c82a fcbd bb77 733e f5fb 51be
00000040: 4d4d 63be 82c9 493f 9c3f e53e 8044 4cbd
00000050: f2dd 90be cdb5 c23d ed08 0cbf 0fec 443f
00000060: b40d ba3e 3ef7 5dbe 9b2c adbe a1e0 06bf
00000070: 7238 75be fcee ad3e c792 b2be 2616 c73e

enc2.bias_tensor f4 [2]
0.056075733 0.01505993
00000000: abaf 653d edbd 763c

bn2.weight f4 [2]
0.95508647 1.0115749
00000000: 8c80 743f 497b 813f

bn2.bias f4 [2]
0.3337086 0.2618863
00000000: dbdb aa3e f615 863e

bn2.running_mean f4 [2]
-2.181817 -1.8361466
00000000: e4a2 0bc0 da06 ebbf

bn2.running_var f4 [2]
1.9714417 8.203473
00000000: 3458 fc3f 6d41 0341

fc_enc.weight f4 [64, 234]
0.1387052 -1.3205494 -0.2853276 -0.100026876 0.12229753 -0.040517077 0.07836186 -0.103896275
0.09815713 0.061122417 0.14877234 -1.2749542 -0.20579663 -0.14026839 -0.1450592 0.2305784
0.039339803 -0.2527404 0.25662565 -0.20228125 0.014401574 0.19914566 -0.16655947 -0.033425298
-0.37386313 -0.25909072 -0.22929052 0.12563144 -0.26886737 0.37598968 -0.14420743 0.21926166
0.07423674 -0.09347666 0.061352704 0.07619381 0.3608811 0.18410893 -0.19338742 -0.004731982
-0.010891784 -0.04225124 -0.34741217 -0.033232994 -0.16782874 0.15590715 0.10200168 -0.1214787
0.24969195 -0.2645209 0.23784503 -0.06660801 0.23716271 -0.32594776 0.19296007 0.122819826
0.274688 0.014690206 -0.20761131 -0.016994912 0.35527626 -0.30711147 0.025333457 0.11106197
-0.1077279 -0.0036075353 0.42298126 -0.15048641 -0.18843727 0.121993266 -0.08126889 0.31727964
-0.011520063 -0.0027867537 0.24386875 -0.052929822 0.11997937 -0.020459589 -0.12804373 -0.13781615
0.20655908 0.15619016 -0.021264961 0.032309845 0.18298452 -0.19908147 0.107714936 -0.15405147
0.077872016 -0.106553756 -0.117929816 -0.1555208 -1.2972403 0.039814003 -0.04285281 -0.103497915
-0.04831864 0.04292839 0.24080013 0.11749205 -0.044418838 0.080876045 -0.83627975 -0.14548871
-0.20807634 -0.20874062 -0.6539423 0.35915717 0.19418958 0.13179854 -0.04344824 -0.21381345
0.21506253 0.018307986 -0.06111069 -0.26266906 -0.19500205 -0.0825406 0.46279484 0.55502445
-0.18095103 -0.00040340205 -0.28774992 -0.09401785 0.06037153 -0.083683096 0.19249034 0.46269804
0.4343092 0.30534604 -0.10562337 -0.070277825 -0.16169533 -0.041015644 0.08647544 0.05967217
-0.0762356 -0.09050776 -0.217925 -0.029768916 -0.012683623 0.04478806 0.26688293 -0.13345774
0.00063085736 -0.039286647 -0.021636704 -0.10104595 0.069832906 0.07253306 -0.08260679 -0.038505536
0.08444786 -0.17531404 -0.083019026 0.38272938 -0.113834344 0.029352494 -0.020454846 -0.030917529
-0.07186636 0.13297696 -0.016203837 0.14444482 -0.23806044 -0.076493256 -0.12399686 0.0019938254
0.17400602 0.07528073 0.023865802 -0.1924664 0.19337605 -0.00625259 -0.19284229 -0.28510246
0.035501067 0.29797673 -0.44622502 0.2055941 -0.0004979475 0.32176423 0.1628187 -0.11972803
-0.16196045 -0.21110053 -0.027842183 0.10163763 0.14761804 -0.16129598 0.041710507 0.08856166
-0.37800202 0.18916541 0.23558636 -0.15721679 0.20570743 0.18615241 -0.23888229 0.0068556583
-0.24481086 0.16397889 -0.03529091 -0.016885597 -0.12176404 0.13625588 0.5818439 0.27944988
-0.19587725 0.18685496 -0.021462416 -0.001081153 -0.10231154 -0.18157312 -0.04196903 0.020151222
-0.041454684 0.01468601 -0.32142678 0.41227904 0.37790358 -0.115470275 -0.059348926 -0.2080437
-0.09138733 0.13829686 -0.12945123 0.13584447 -0.07658536 -0.23208988 0.5887066 -0.03800859
-0.13866986 0.3606511 0.002290169 1.0688543 -0.22074705 -0.039479587 -0.09180459 -0.24889754
-0.03893995 0.010057731 0.09388198 -0.14310695 -0.053866215 1.041358 0.27533442 0.058619518
0.34600294 0.027950885 0.13923861 -0.018636217 0.24057764 0.16469419 -0.21392483 0.123513296
00000000: bc08 0e3e c307 a9bf 7616 92be e4da ccbd
00000010: 2177 fa3d 3cf5 25bd 2f7c a03d 92c7 d4bd
00000020: 9b06 c93d 805b 7a3d c757 183e b331 a3bf
00000030: 5abc 52be 84a2 0fbe 668a 14be be1c 6c3e
00000040: c622 213d 3167 81be 7064 833e d122 4fbe
00000050: 94f4 6b3c d7ec 4b3e 918e 2abe f7e8 08bd
00000060: fd6a bfbe 8aa7 84be 22cb 6abe 87a5 003e
00000070: fca8 89be b881 c03e 1dab 13be 2186 603e
00000080: 6f09 983d b170 bfbd f94c 7b3d 800b 9c3d
00000090: 68c5 b83e 0d87 3c3e 5a07 46be be0e 9bbb
000000a0: 7473 32bc a30f 2dbd 02e0 b1be 521f 08bd
000000b0: 4cdb 2bbe 20a6 1f3e 42e6 d03d d3c9 f8bd
000000c0: 3faf 7f3e 496f 87be a68d 733e c869 88bd
000000d0: c8da 723e a0e2 a6be 5397 453e f688 fb3d
000000e0: e8a3 8c3e 31af 703c 0f98 54be ea38 8bbc
000000f0: c5e6 b53e b73d 9dbe 1c88 cf3c 7574 e33d
00000100: 72a0 dcbd 666c 6cbb 0091 d83e 1c19 1abe
00000110: b3f5 40be 9bd7 f93d 4e70 a6bd 7a72 a23e
00000120: a5be 3cbc f8a1 36bb bbb8 793e f1cc 58bd
00000130: beb7 f53d de9a a7bc e51d 03be ad1f 0dbe
00000140: 3984 533e 50f0 1f3e db33 aebc 5457 043d
00000150: 4b60 3b3e 03dc 4bbe a699 dc3d abbf 1dbe
00000160: 5d7b 9f3d db38 dabd 3085 f1bd d840 1fbe
00000170: f80b a6bf 0214 233d 6e86 2fbd b7f6 d3bd
00000180: c4e9 45bd aed5 2f3d 4f94 763e ac9f f03d
00000190: 87f0 35bd 57a2 a53d 6e16 56bf fefa 14be
000001a0: f711 55be 1ac0 55be c368 27bf 73e3 b73e
000001b0: a2d9 463e 32f6 063e c8f6 31bd eaf1 5abe
000001c0: 5a39 5c3e a1fa 953c 344f 7abd 8f7c 86be
000001d0: 9eae 47be 0c0b a9bd 72f3 ec3e 1516 0e3f
000001e0: 3a4b 39be b57f d3b9 f553 93be 6e8c c0bd
000001f0: 2348 773d 0b62 abbd 301c 453e c2e6 ec3e
00000200: c75d de3e 5156 9c3e 1151 d8bd d2ed 8fbd
00000210: 7693 25be 0500 28bd 091a b13d ce6a 743d
00000220: 6921 9cbd 225c b9bd bb27 5fbe f1dd f3bc
00000230: f8ce 4fbc af73 373d e1a4 883e 25a9 08be
00000240: 1f60 253a 09eb 20bd 753f b1bc 2ef1 cebd
00000250: 8e04 8f3d 378c 943d c02d a9bd fbb7 1dbd
00000260: 00f3 ac3d 8685 33be e105 aabd 1bf5 c33e
00000270: fb21 e9bd a474 f03c ec90 a7bc c246 fdbc
00000280: ac2e 93bd 1d2b 083e e9bd 84bc 58e9 133e
00000290: 1ec6 73be 7fa8 9cbd 11f2 fdbd d7aa 023b
000002a0: a22e 323e c92c 9a3d 3782 c33c e915 45be
000002b0: 5f04 463e 87e2 ccbb 7378 45be f3f8 91be
000002c0: 9169 113d 6890 983e 9b77 e4be 4287 523e
000002d0: b188 02ba 48be a43e f2b9 263e f833 f5bd
000002e0: f6d8 25be bd2a 58be 4a15 e4bc 6427 d03d
000002f0: 2f29 173e c62a 25be a3d8 2a3d d15f b53d
00000300: 7b89 c1be 94b4 413e 8d3d 713e 70fd 20be
00000310: f8a4 523e bd9e 3e3e 8f9d 74be 6ea5 e03b
00000320: b3af 7abe 15ea 273e 348d 10bd aa53 8abc
00000330: 6d5f f9bd a986 0b3e b9f3 143f 0e14 8f3e
00000340: 0c94 48be e856 3f3e f3d1 afbc 7ab5 8dba
00000350: b688 d1bd 4eee 39be b8e7 2bbd 2d14 a53c
00000360: 63cc 29bd 979d 703c 0d92 a4be 3d16 d33e
00000370: 947c c13e ae7b ecbd dc17 73bd 6809 55be
00000380: 4829 bbbd b19d 0d3e dd8e 04be d01a 0b3e
00000390: c9d8 9cbd f8a8 6dbe 7ab5 163f e5ae 1bbd
000003a0: 79ff 0dbe 43a7 b83e a916 163b 38d0 883f
000003b0: 840b 62be 59b5 21bd 0b04 bcbd ffde 7ebe
000003c0: 7f7f 1fbd 2ec9 243c 3245 c03d a18a 12be
000003d0: d2a2 5cbd 384b 853f a2f8 8c3e 051b 703d
000003e0: 4c27 b13e 41f9 e43c 9194 0e3e fbaa 98bc
000003f0: fc59 763e 98a5 283e 1c0f 5bbe 8af4 fc3d

fc_enc.bias f4 [64]
0.13871731 0.07254334 -0.016048923 -0.04962615 0.060814362 0.12068051 0.23358099 0.12085339
-0.14638397 0.120391615 0.07701065 0.026736606 -0.042654634 0.049257934 0.059332233 0.0025643264
0.032366958 0.05727767 -0.11745492 -0.06304802 -0.10821982 0.0121728545 0.06046066 -0.11830858
0.058959596 -0.08475667 -0.02383289 0.044748124 -0.05219523 0.0439622 0.09694493 -0.040358268
0.09791041 -0.13431586 -0.00045054933 0.013776141 0.19647433 0.009693463 0.08470343 -0.086516246
0.014997454 -0.054017123 -0.22562258 0.014222779 -0.057816513 0.051569074 -0.045816578 0.023621993
-0.020770663 0.06622754 -0.01925424 -0.17840731 0.11993222 -0.05843246 0.026216846 -0.008912641
-0.07670568 0.0297261 0.10689142 0.04557156 -0.13959524 0.050181594 -0.25508764 0.092336394
00000000: e90b 0e3e 9a91 943d 0879 83bc ca44 4bbd
00000010: 7b18 793d 5827 f73d db2f 6f3e fb81 f73d
00000020: aee5 15be e18f f63d c2b7 9d3d ba06 db3c
00000030: a0b6 2ebd b0c2 493d 5b06 733d 420e 283b
00000040: 3793 043d fd9b 6a3d 358c f0bd 521f 81bd
00000050: 5aa2 ddbd a770 473c 99a5 773d c54b f2bd
00000060: 9e7f 713d e894 adbd 313d c3bc cf49 373d
00000070: aaca 55bd b511 343d 108b c63d b64e 25bd
00000080: 4185 c83d 198a 09be b537 ecb9 53b5 613c
00000090: 9130 493e 55d1 1e3c fe78 ad3d 6e2f b1bd
000000a0: e2b7 753c 0f41 5dbd 9b09 67be a906 693c
000000b0: 02d1 6cbd 183a 533d 2aaa 3bbd e982 c13c
000000c0: 3d27 aabc 4ea2 873d 11bb 9dbc 68b0 36be
000000d0: 069f f53d e056 6fbd b6c4 d63c 5306 12bc
000000e0: de17 9dbd 2684 f33c e4e9 da3d 3ea9 3a3d
000000f0: 0ef2 0ebe 378b 4d3d d99a 82be dd1a bd3d

fc_dec.weight f4 [234, 64]
-0.21375938 0.118370995 0.060467824 -0.07370943 0.15530346 -0.10213143 0.35294876 -0.20700589
-0.081831 -0.28075734 0.039832916 -0.132072 -0.18383813 -0.009929579 0.100591525 -0.15718237
0.25088614 -0.13159956 -0.3909017 -0.23494972 -0.20585471 0.24005955 -0.20876999 0.11822815
0.050318293 -0.022993743 0.049727917 0.26540053 -0.050437197 0.10161072 -0.08773701 -0.1451046
0.068533026 -0.14456941 -0.011124535 0.09867314 0.30210054 0.1368793 -0.048816934 0.17191498
0.24902043 -0.35331815 -0.21805723 -0.16469777 -0.07406641 0.0946059 0.30823395 0.17535442
-0.24026765 0.13099717 0.25479987 -0.23580123 0.1959978 0.05041626 0.06558931 0.37635508
-0.13912757 -0.08168531 0.26355872 -0.13053927 -0.09611697 -0.22833334 -0.18586814 -0.0027299586
-0.38750684 0.42141342 0.1280691 -0.26334637 0.047776118 -0.037886187 0.4364207 -0.21386425
-0.2918851 -0.11230266 -0.23703557 -0.3673896 -0.33241314 -0.1201609 0.17187904 -0.2962644
0.29160002 -0.25322455 -0.5413858 -0.05307941 -0.20851994 0.30194014 -0.24014814 0.046484735
0.12863939 -0.23490147 0.09790882 0.30753028 0.02715282 0.19439335 -0.08337646 0.020392882
0.07240685 -0.0076022563 -0.4530595 -0.06360676 0.23457582 0.2420622 -0.095210336 0.3866013
0.31401965 -0.66122675 -0.36787406 -0.1669243 0.0027675936 0.10444914 0.30633792 0.07268481
-0.22206126 0.18153122 0.20670074 -0.23653841 0.22626068 -0.006312186 0.12054113 0.30192998
0.13484272 -0.044657446 0.36337242 -0.03823245 -0.2551761 -0.17405967 -0.20302378 -0.15190382
0.2550102 0.08213932 -0.23714441 -0.07959874 -0.37971815 -0.10790191 0.30710414 0.1858651
-0.21132933 -0.41258323 -0.480609 -0.2810768 -0.109062694 0.4102378 0.012011324 -0.10809617
-0.13934684 -0.1367629 -0.11483095 0.5492136 0.13965225 0.029949712 -0.040416878 -0.041471113
0.12801696 0.0130430395 0.09115445 -0.14084257 0.04317552 0.074850984 -0.021563102 -0.24156637
0.40454084 -0.02052225 0.57892436 0.15354954 -0.26941717 -0.16758613 0.28673318 0.014038312
0.2881362 -0.17907165 -0.059519846 -0.13010727 0.035204638 0.10220715 -0.18448274 0.4176597
-0.044675697 -0.21639207 0.034041326 0.16594823 -0.05657704 -0.12839393 0.092941925 0.2728187
-0.031367805 -0.17777404 0.21781673 -0.10505273 0.02245265 -0.10310381 -0.21514285 0.3239712
0.22142106 0.21317706 0.094652236 -0.14014031 0.18475896 -0.06863767 0.15681382 -0.09594674
-0.06855038 -0.18639408 0.09865835 -0.37239203 0.17313355 -0.1759342 -0.19506685 -0.25151747
-0.15918316 -0.11182286 0.008469459 0.12432592 0.053069618 0.3988775 0.25315833 -0.010887959
-0.31935024 0.27669582 0.062063266 0.3222684 0.07484111 -0.025649209 0.07780293 0.30234388
-0.06629888 -0.03856503 0.023713937 0.05414511 -0.2505956 0.21378925 -0.00993096 -0.2703982
0.27392972 0.352195 -0.00087907125 -0.11256909 0.1351224 0.2582545 -0.016961845 0.023795541
0.15611549 -0.03581546 -0.08701238 -0.06899671 -0.07353128 0.27865645 -0.47808993 -0.28215817
0.20928103 0.13766362 -0.033221576 -0.29776636 0.039482057 -0.038267247 -0.26747262 -0.11320761
00000000: bde3 5abe 7e6c f23d 1cad 773d f8f4 96bd
00000010: df07 1f3e 482a d1bd b3b5 b43e 5af9 53be
00000020: 0397 a7bd 6dbf 8fbe d727 233d e23d 07be
00000030: 1040 3cbe acaf 22bc ee02 ce3d 6af4 20be
00000040: 2674 803e 09c2 06be 4524 c8be a996 70be
00000050: 94cb 52be 2cd2 753e cdc7 55be 9a21 f23d
00000060: 8e1a 4e3d 605d bcbc 80af 4b3d 94e2 873e
00000070: 3c97 4ebd 4819 d03d 76af b3bd 4d96 14be
00000080: 0b5b 8c3d 010a 14be af43 36bc 2515 ca3d
00000090: ecac 9a3e 162a 0c3e 44f4 47bd 7b0a 303e
000000a0: 36ff 7e3e 1ee6 b4be 654a 5fbe 88a6 28be
000000b0: 21b0 97bd bdc0 c13d d7d0 9d3e 1c90 333e
000000c0: b908 76be 1f24 063e 2175 823e e175 71be
000000d0: a6b3 483e 4881 4e3d b053 863d 9db1 c03e
000000e0: 7577 0ebe a14a a7bd 2bf1 863e 16ac 05be
000000f0: f9d8 c4bd 37d0 69be 3854 3ebe 1be9 32bb
00000100: 4c67 c6be 80c3 d73e 8c24 033e 56d5 86be
00000110: e4b0 433d 8c2e 1bbd 8972 df3e 3bff 5abe
00000120: f771 95be f0fe e5bd 74b9 72be 7d1a bcbe
00000130: 0e32 aabe eb16 f6bd 0f01 303e f8af 97be
00000140: 994c 953e a6a6 81be 4398 0abf cc69 59bd
00000150: 4086 55be e697 9a3e 65e9 75be c766 3e3d
00000160: 0bba 033e 038a 70be 6b84 c83d 9c74 9d3e
00000170: 976f de3c 0d0f 473e 47c1 aabd f90e a73c
00000180: 0b4a 943d 591c f9bb 6af7 e7be 4344 82bd
00000190: a534 703e 27df 773e a3fd c2bd 9bf0 c53e
000001a0: 2fc7 a03e 2846 29bf fd59 bcbe 34ee 2abe
000001b0: 8460 353b 6ee9 d53d 53d8 9c3e c6db 943d
000001c0: 0764 63be 52e3 393e 5ca9 533e 2037 72be
000001d0: e1b0 673e 74d6 cebb 45de f63d 9196 9a3e
000001e0: 3614 0a3e baea 36bd f30b ba3e a199 1cbd
000001f0: 71a6 82be b33c 32be 77e5 4fbe ad8c 1bbe
00000200: b290 823e a938 a83d fcd5 72be aa04 a3bd
00000210: 6b6a c2be adfb dcbd c13c 9d3e 6c53 3e3e
00000220: b766 58be 1c3e d3be 6212 f6be 4ce9 8fbe
00000230: 435c dfbd b00a d23e 25cb 443c 8661 ddbd
00000240: f0b0 0ebe 930b 0cbe 7d2c ebbd 4399 0c3f
00000250: 0001 0f3e 1959 f53c 2b8c 25bd 9ddd 29bd
00000260: e116 033e 79b2 553c 2faf ba3d 0939 10be
00000270: d0d8 303d 794b 993d 1aa5 b0bc 2d5d 77be
00000280: fa1f cf3e 471e a8bc 6334 143f 173c 1d3e
00000290: 0cf1 89be b39b 2bbe b1ce 923e f300 663c
000002a0: 9786 933e 8f5e 37be 15cb 73bd d73a 05be
000002b0: bd32 103d fb51 d13d 0be9 3cbe 7ed7 d53e
000002c0: ddfd 36bd e295 5dbe eb6e 0b3d 55ee 293e
000002d0: 54bd 67bd b379 03be 5658 be3d e5ae 8b3e
000002e0: 877b 00bd 660a 36be 590b 5f3e e325 d7bd
000002f0: 9fee b73c 1728 d3bd 684e 5cbe 8edf a53e
00000300: 34bc 623e 164b 5a3e 08d9 c13d f180 0fbe
00000310: 7431 3d3e e891 8cbd cd93 203e b97f c4bd
00000320: 2464 8cbd 17de 3ebe 640d ca3d 2baa bebe
00000330: ec49 313e 1828 34be 9bbf 47be e6c6 80be
00000340: e900 23be 6203 e5bd 7cc3 0a3c 979e fe3d
00000350: 875f 593d ac39 cc3e f89d 813e 6963 32bc
00000360: e081 a3be 13ab 8d3e 0d36 7e3d 5d00 a53e
00000370: 4c46 993d 4a1e d2bc 2457 9f3d d1cc 9a3e
00000380: b5c7 87bd 5df6 1dbd bb43 c23c 43c7 5d3d
00000390: 114e 80be 92eb 5a3e 77b5 22bc a271 8abe
000003a0: 8440 8c3e e752 b43e 7971 66ba a08a e6bd
000003b0: 875d 0a3e ef39 843e 91f3 8abc deee c23c
000003c0: bddc 1f3e 3bb3 12bd 8c33 b2bd 264e 8dbd
000003d0: 9197 96bd 0fac 8e3e 34c8 f4be 0977 90be
000003e0: c44d 563e b1f7 0c3e 5913 08bd d574 98be
000003f0: f0b7 213d 1ebe 1cbd 2cf2 88be 64d9 e7bd

fc_dec.bias f4 [234]
0.23494397 0.35417536 0.3562316 0.2832178 0.27188337 -0.099748075 -0.06564697 0.07382431
0.1619867 0.35881445 0.24392167 0.11492861 -0.4849183 0.037453964 0.18352565 0.20372047
0.19461991 0.23059013 0.09945104 -0.0075489455 0.075738326 0.18962598 0.23449028 0.63751686
-0.03024936 -0.41095418 0.18659692 0.14142098 0.18986656 0.13534747 0.18764967 -0.0064542126
0.14670706 0.050319467 0.079880476 0.19890894 0.22022635 0.15165548 -0.27136993 0.20515314
0.19695279 0.24827208 0.25559 -0.038626567 0.043366503 0.007885497 0.07856607 0.258815
0.14521639 0.12207964 0.27182025 0.061337672 0.36845556 0.15039782 0.03482433 0.053716872
0.03169416 0.06605416 -0.0137210265 0.4266301 0.12926516 0.13831967 0.23668179 0.46120286
0.08965024 0.4589516 0.003510624 0.12755615 -0.034864817 0.04233731 0.25598723 -0.030182406
0.22908767 -0.09110576 -0.045351975 0.02729868 0.33380488 -0.32683244 0.2006228 0.1549769
0.20246416 0.15481359 0.06531762 0.16345485 0.09305332 0.08921792 0.06644065 0.057434823
0.19159739 -0.057943523 -0.40631622 0.13103585 0.14222841 0.08299637 -0.015446365 0.036242515
0.1348445 0.21235721 0.19954917 -0.11428947 -0.015082237 0.3172242 -0.0069588865 -0.30908304
-0.1413213 0.24696608 0.09233416 -0.11634736 -0.00025380185 0.10557625 0.11327222 0.08093719
-0.2805633 0.12873599 0.1641904 -0.05111916 -0.20377684 -0.454526 -0.7684442 -0.41563174
-0.44153717 -0.3594782 -0.12945338 0.037044983 -0.049340546 -0.33031875 -0.28385788 -0.086276986
0.024475884 0.19343515 -0.111325845 -0.10475302 -0.44223592 -0.37627333 -0.11888774 -0.14749265
0.10656764 0.19843759 -0.038063787 0.022521 -0.24065629 -0.3282448 -0.20348461 0.048165724
-0.4873542 -0.2902021 -0.30003902 -0.14485529 -0.14342304 0.12547268 0.024936339 0.033956595
-0.051622234 -0.1954775 -0.35532567 -0.043676417 0.060251728 -0.25697803 -0.0996685 0.103051215
0.065725364 0.074779525 0.18256249 0.18357307 0.06488552 -0.07463487 -0.3505299 -0.08106415
0.0413332 -0.25519228 -0.16229412 -0.15461402 -0.0008757974 -0.030034384 0.16768566 0.33042243
-0.0014463324 0.11101037 0.019595493 -0.116309434 0.1523341 -0.25629035 -0.13921534 -0.16320823
0.07886365 0.15465729 0.08309265 -0.027514795 0.16900325 0.048344467 0.017988915 0.03943079
0.068015926 0.03484474 -0.13902423 -0.05440695 -0.3974076 -0.122223414 -0.2899678 -0.056078054
0.05703003 0.079485916 0.20196815 0.102770984 -0.10347072 0.05926302 -0.18082781 0.20129862
-0.0096185645 -0.26693633 -0.12780136 -0.0039712526 0.03230467 0.0074223243 -0.050076026 -0.024836773
-0.29124242 0.12602969 -0.07093878 0.3036938 -0.13106222 0.14812213 -0.18001863 -0.13630433
-0.04510748 -0.14499144 -0.21760817 -0.18125589 -0.030063733 -0.095664956 -0.015032346 0.04881422
0.026104728 0.08638054
00000000: 2795 703e 7956 b53e fd63 b63e ec01 913e
00000010: 4c34 8b3e b848 ccbd eb71 86bd 3331 973d
00000020: d7df 253e 87b6 b73e 9ac6 793e b15f eb3d
00000030: 3647 f8be 5469 193d 26ee 3b3e 199c 503e
00000040: 714a 473e d21f 6c3e fdac cb3d 255d f7bb
00000050: b21c 9b3d 502d 423e 381e 703e 4e34 233f
00000060: 81cd f7bc 9668 d2be 4313 3f3e a9d0 103e
00000070: 616c 423e 8798 0a3e 3c27 403e dc7d d3bb
00000080: 603a 163e c91b 4e3d 6098 a33d c9ae 4b3e
00000090: 0483 613e 934b 1b3e 00f1 8abe aa13 523e
000000a0: fead 493e 093b 7e3e b1dc 823e e436 1ebd
000000b0: 13a1 313d 2c32 013c 3fe7 a03d 6683 843e
000000c0: 9bb3 143e e404 fa3d 062c 8b3e 363d 7b3d
000000d0: 35a6 bc3e e301 1a3e f5a3 0e3d 3906 5c3d
000000e0: bcd1 013d 6747 873d 28ce 60bc 436f da3e
000000f0: 165e 043e aca3 0d3e b65c 723e c822 ec3e
00000100: 8c9a b73d b4fb ea3e 7f12 663b 149e 023e
00000110: 69ce 0ebd e369 2d3d c210 833e 1841 f7bc
00000120: f595 6a3e a895 babd fec2 39bd 7ba1 df3c
00000130: 79e8 aa3e 9556 a7be 1070 4d3e 44b2 1e3e
00000140: c452 4f3e 7487 1e3e 3fc5 853d b560 273e
00000150: bd92 be3d e3b7 b63d 0912 883d c740 6b3d
00000160: 1b32 443e 3056 6dbd ae08 d0be 432e 063e
00000170: 53a4 113e 00fa a93d c012 7dbc 0873 143d
00000180: ad14 0a3e 2b74 593e 9e56 4c3e 9910 eabd
00000190: 7d1b 77bc 366b a23e 5f07 e4bb 2240 9ebe
000001a0: 88b6 10be ade4 7c3e b119 bd3d 8647 eebd
000001b0: b510 85b9 5c38 d83d 44fb e73d 66c2 a53d
000001c0: fea5 8fbe 5ed3 033e 8721 283e 5362 51bd
000001d0: e0aa 50be a2b7 e8be c2b8 44bf afcd d4be
000001e0: 2911 e2be 870d b8be 6d8f 04be 7bbc 173d
000001f0: 5019 4abd 8a1f a9be d255 91be fdb1 b0bd
00000200: a681 c83c dd13 463e cefe e3bd c088 d6bd
00000210: bf6c e2be e6a6 c0be 6a7b f3bd 5008 17be
00000220: 2340 da3d 3933 4b3e c6e8 1bbd f67d b83c
00000230: 9a6e 76be b40f a8be 455e 50be 6c49 453d
00000240: 7d86 f9be 5f95 94be b79e 99be f254 14be
00000250: 7ddd 12be e97b 003e 4b47 cc3c 1216 0b3d
00000260: d671 53bd 412b 48be 3fed b5be 0be6 32bd
00000270: 84ca 763d a092 83be 001f ccbd 840c d33d
00000280: 059b 863d 0226 993d a9f1 3a3e 94fa 3b3e
00000290: b3e2 843d 2bda 98bd a878 b3be f604 a6bd
000002a0: 004d 293d 90a8 82be 6e30 26be 2353 1ebe
000002b0: c595 65ba ab0a f6bc cab5 2b3e 212d a93e
000002c0: dd92 bdba 6859 e33d ba86 a03c a433 eebd
000002d0: 78fd 1b3e 7d38 83be 778e 0ebe 0f20 27be
000002e0: 4483 a13d 7b5e 1e3e 7b2c aa3d b566 e1bc
000002f0: 300f 2d3e d904 463d 7d5d 933c 2e82 213d
00000300: ef4b 8b3d 5cb9 0e3d 5e5c 0ebe d2d9 5ebd
00000310: 0279 cbbe 4550 fabd a976 94be 1ab2 65bd
00000320: 5298 693d 83c9 a23d bdd0 4e3e 9879 d23d
00000330: 75e8 d3bd c8bd 723d ed2a 39be 3a21 4e3e
00000340: 2f97 1dbc e1ab 88be 5cde 02be 4821 82bb
00000350: e751 043d f836 f33b 851c 4dbd 7d76 cbbc
00000360: ba1d 95be ed0d 013e 5a48 91bd c17d 9b3e
00000370: 2d35 06be 54ad 173e ce56 38be 5d93 0bbe
00000380: 9fc2 38bd a378 14be add4 5ebe 259b 39be
00000390: 3848 f6bc fdeb c3bd 3b4a 76bc 6bf1 473d
000003a0: 95d9 d53c 48e8 b03d

dec1.kernel0 f4 [4, 2, 3, 1]
-1.26477 -0.819491 0.0045694844 -0.8068525 0.76404387 1.4111105 -0.38831744 -0.30921748
0.46435785 -0.16371322 0.6778643 0.99444956 -0.5037809 0.5971414 0.35725853 -0.066470966
1.412445 0.0805099 -0.6341604 -0.4788584 -0.023436807 -0.66612035 0.18113953 0.28702006
00000000: fce3 a1bf 2aca 51bf 9dbb 953b e38d 4ebf
00000010: 6198 433f 459f b43f 8bd1 c6be c151 9ebe
00000020: 50c0 ed3e 70a4 27be 8488 2d3f 3f94 7e3f
00000030: c9f7 00bf 42de 183f 97ea b63e ee21 88bd
00000040: ffca b43f 60e2 a43d 5658 22bf ee2c f5be
00000050: 8cfe bfbc dd86 2abf a47c 393e 4bf4 923e

dec1.kernel1 f4 [4, 2, 2, 2]
-0.65922064 -0.21576639 -0.6660704 -0.044090156 -0.22164655 0.7307969 -0.38306206 1.0572808
-0.5753967 0.47748768 -0.25870556 0.2818622 -0.29459608 0.414326 0.009931714 0.43021423
-0.66167355 0.4603092 -0.028179973 -0.06563603 -0.44059357 0.27586395 0.42611355 -0.3294453
0.2900137 -0.27456757 0.50653225 0.21887147 0.3706272 0.69973654 -0.2424841 0.9579289
00000000: afc2 28bf ddf1 5cbe 9783 2abf e197 34bd
00000010: 50f7 62be 8115 3b3f b620 c4be fa54 873f
00000020: 334d 13bf 4479 f43e 0e75 84be 3e50 903e
00000030: 4cd5 96be 8a22 d43e a1b8 223c 0a45 dc3e
00000040: 7063 29bf a6ad eb3e b0d9 e6bc 2f6c 86bd
00000050: 7b95 e1be 0a3e 8d3e 8e2b da3e 0ead a8be
00000060: ad7c 943e 1f94 8cbe 19ac 013f d81f 603e
00000070: d9c2 bd3e ef21 333f c04d 78be d43a 753f

dec1.bias_tensor f4 [4]
0.025646476 0.024350446 0.032577887 0.031996366
00000000: 8f18 d23c 967a c73c 6470 053d 9f0e 033d

bn3.weight f4 [4]
0.627408 0.48144308 0.53876173 0.2677306
00000000: d09d 203f b57f f63e 4aec 093f fc13 893e

bn3.bias f4 [4]
-0.58447045 -0.5749675 -0.7178827 -0.3383226
00000000: db9f 15bf 1231 13bf 29c7 37bf 9f38 adbe

bn3.running_mean f4 [4]
-4.5307083 -2.435442 -1.6051348 -1.8090384
00000000: 90fb 90c0 48de 1bc0 0f75 cdbf 928e e7bf

bn3.running_var f4 [4]
204.86385 58.678333 29.10186 44.8231
00000000: 25dd 4c43 9db6 6a42 9cd0 e841 db4a 3342

dec2.kernel0 f4 [1, 4, 5, 1]
-0.17603163 0.39891267 0.3221043 0.11789106 -0.023724038 -0.1141782 -0.2073152 0.3662577
0.04618475 -0.32041842 0.19942226 0.00091126084 -0.61165226 -0.26628768 -0.06345058 0.2149738
-0.5931706 0.10814033 0.32335714 -0.43524125
00000000: a341 34be 483e cc3e dbea a43e de70 f13d
00000010: ea58 c2bc 43d6 e9bd 704a 54be 2186 bb3e
00000020: 382c 3d3d e20d a4be 5935 4c3e aee1 6e3a
00000030: 3e95 1cbf dc56 88be 61f2 81bd 1822 5c3e
00000040: 07da 17bf ad78 dd3d 118f a53e f1d7 debe

dec2.kernel1 f4 [1, 4, 4, 2]
0.08408964 0.11886162 0.3151032 0.18706492 0.0073206024 0.17419845 0.055053763 0.00781369
-0.1377071 -0.055290174 -0.54339147 0.49549985 -0.051721066 0.42772606 -0.19042872 -0.25863543
-0.0041213986 -0.0050747218 0.25764808 -0.65059376 -0.04234718 0.12226628 0.10715531 0.282649
-0.17418405 -0.105886586 0.062485278 -0.28715277 0.27892178 -0.22203636 0.36242062 -0.40853494
00000000: 3037 ac3d b96d f33d 3555 a13e f28d 3f3e
00000010: aae1 ef3b 1461 323e 0e80 613d fe04 003c
00000020: 1703 0dbe f377 62bd b41b 0bbf 28b2 fd3e
00000030: 78d9 53bd e9fe da3e bfff 42be dd6b 84be
00000040: cc0c 87bb da49 a6bb 73ea 833e 508d 26bf
00000050: 3d74 2dbd be66 fa3d 3e74 db3d 5fb7 903e
00000060: 4e5d 32be 11db d8bd 90f0 7f3d b005 93be
00000070: d6ce 8e3e 805d 63be 328f b93e 7e2b d1be

dec2.kernel2 f4 [1, 4, 3, 2]
0.014722821 0.05602752 0.16444618 0.15780179 -0.08824127 -0.043420244 -0.03529993 -0.10072942
-0.16816267 0.18725696 0.091558434 -0.11018576 -0.051615145 -0.013458181 0.08771088 0.12162677
0.06695362 0.5504121 -0.03546136 -0.11677003 0.54816717 -0.37957042 0.21938035 -0.027998867
00000000: fd37 713c 1d7d 653d 9464 283e cb96 213e
00000010: d7b7 b4bd 6dd9 31bd a996 10bd 3a4b cebd
00000020: d632 2cbe 4ac0 3f3e fd82 bb3d 12a9 e1bd
00000030: 676a 53bd b47f 5cbc c3a1 b33d 7517 f93d
00000040: fb1e 893d cfe7 0c3f ee3f 11bd 2025 efbd
00000050: af54 0c3f 0e57 c2be 3ea5 603e e15d e5bc

exp_avg f4 [4, 1, 5, 1]
5.6677145e-05 6.6706543e-06 7.320935e-07 -2.0560176e-06 -4.909066e-06 -5.089416e-05 -3.6971312e-06 -6.353408e-06
1.9095804e-05 -5.4406642e-05 -2.1105286e-06 -3.746738e-06 -7.964993e-06 -2.0990753e-06 6.8920262e-06 1.3506619e-06
-2.3559587e-06 -4.322541e-06 -9.591695e-06 -2.392375e-05
00000000: 9fb8 6d38 7cd4 df36 1585 4435 1dfa 09b6
00000010: 8eb8 a4b6 3077 55b8 3b1c 78b6 5c2f d5b6
00000020: ed2f a037 b032 64b8 9ba2 0db6 7870 7bb6
00000030: 62a1 05b7 d7dd 0cb6 0e42 e736 6448 b535
00000040: 101b 1eb6 580a 91b6 04ec 20b7 ddaf c8b7

exp_avg_sq f4 [4, 1, 5, 1]
1.7415408e-08 6.037114e-08 5.8250837e-08 6.975236e-09 1.8429203e-08 1.919465e-07 5.280886e-08 2.9174807e-08
5.4885664e-08 2.9310775e-07 1.1615281e-09 4.689222e-09 5.9362995e-09 5.0374194e-09 2.039494e-09 8.3116156e-08
6.023227e-08 4.99001e-08 6.270405e-08 1.09531456e-07
00000000: e398 9532 63a5 8133 792f 7a33 d3aa ef31
00000010: 3f4e 9e32 da19 4e34 f5cf 6233 149c fa32
00000020: 6dbb 6b33 6c5c 9d34 a3a3 9f30 d51e a131
00000030: 3ef8 cb31 9c15 ad31 2827 0c31 977d b233
00000040: 0a59 8133 bd51 5633 eba7 8633 8e37 eb33

exp_avg f4 [4, 1, 4, 2]
2.3712179e-05 6.158735e-05 -1.76892e-05 1.6431133e-05 -1.2372121e-05 4.9176733e-06 -1.00418265e-05 -2.0829859e-05
-1.428585e-05 -2.9732008e-05 8.6297505e-06 -2.983345e-05 -3.5401624e-06 3.964441e-05 4.5094152e-06 -4.974349e-05
-1.6027141e-05 -4.0785605e-07 -6.415035e-06 -4.5971674e-06 -6.6024757e-07 -1.1745917e-05 -3.7705186e-06 -4.6320056e-06
-1.06264315e-05 -1.4224551e-06 -2.0793323e-06 -1.4290724e-05 -2.9203445e-06 4.128849e-06 -4.4555654e-06 -2.138994e-05
00000000: 84e9 c637 7528 8138 4563 94b7 97d5 8937
00000010: db91 4fb7 7e02 a536 5179 28b7 c8bb aeb7
00000020: 42ad 6fb7 0069 f9b7 7fc8 1037 d942 fab7
00000030: 8793 6db6 dc47 2638 954f 9736 aaa3 50b8
00000040: 0672 86b7 4ff7 dab4 bb40 d7b6 5e41 9ab6
00000050: de3b 31b5 5410 45b7 0409 7db6 a06c 9bb6
00000060: 2d48 32b7 2feb beb5 a88a 0bb6 31c2 6fb7
00000070: 23fb 43b6 8b8a 8a36 0481 95b6 8c6e b3b7

exp_avg_sq f4 [4, 1, 4, 2]
5.2687355e-08 1.3018232e-08 9.802495e-08 1.4449404e-08 6.611488e-08 8.480353e-09 9.992999e-09 2.1464912e-08
1.4697805e-07 1.6273559e-07 7.403306e-08 2.3853985e-08 9.663882e-08 7.1766304e-09 2.6306364e-07 1.4058715e-07
1.1782506e-09 1.2884286e-09 3.551327e-09 4.834775e-09 3.1121088e-09 5.298091e-09 1.0743799e-09 2.92922e-09
5.757674e-08 9.644101e-08 4.348766e-08 8.499999e-08 4.9116228e-08 9.241671e-08 9.133004e-08 1.0353957e-07
00000000: 5c4a 6233 caa6 5f32 c981 d233 273d 7832
00000010: 0afb 8d33 fdb0 1132 adad 2b32 d761 b832
00000020: 05d1 1d34 6bbc 2e34 1bfc 9e33 78e7 cc32
00000030: c187 cf33 4f96 f631 313b 8d34 4df4 1634
00000040: 02f0 a130 8d14 b130 9b0b 7431 211f a631
00000050: ccdc 5531 800a b631 62a9 9330 624b 4931
00000060: 4c4a 7733 021b cf33 30c7 3a33 3d89 b633
00000070: ddf3 5233 a076 c633 3821 c433 7b59 de33

exp_avg f4 [4, 1, 3, 2]
7.6010065e-06 1.1604583e-05 -5.052476e-07 7.924169e-06 -7.968386e-06 -1.758809e-05 -1.727305e-05 -9.3718234e-05
9.758059e-06 -3.939865e-05 -2.934186e-05 -3.9865725e-05 6.3779544e-06 2.0253683e-05 6.7330166e-06 -6.3937705e-07
7.266875e-06 -8.8067945e-06 -1.1267479e-06 -3.2039625e-07 9.424085e-08 2.140353e-06 -3.7543332e-06 -7.4446007e-06
00000000: 260c ff36 4eb1 4237 5aa0 07b5 0cf2 0437
00000010: f5af 05b7 238a 93b7 98e5 90b7 988a c4b8
00000020: 8bb6 2337 fa3f 25b8 2a23 f6b7 7f35 27b8
00000030: 3602 d636 74e6 a937 2cec e136 a8a1 2bb5
00000040: fbd5 f336 e5c0 13b7 c33a 97b5 ed02 acb4
00000050: 7561 ca33 fca2 0f36 f4f2 7bb6 a2cc f9b6

exp_avg_sq f4 [4, 1, 3, 2]
7.948924e-08 1.564077e-08 7.969495e-08 2.1656557e-08 4.3819348e-08 5.428191e-08 2.4235854e-07 2.3775995e-07
2.4652823e-07 1.1912052e-07 4.09007e-07 2.3352708e-07 3.9517354e-09 2.2889646e-09 2.321854e-09 1.7239754e-09
1.4827856e-08 2.281983e-09 6.480643e-08 1.1483272e-07 5.824132e-08 1.2266639e-07 1.1773047e-07 1.2363728e-07
00000000: acb3 aa33 6b5a 8632 c324 ab33 4607 ba32
00000010: e233 3c33 9723 6933 811d 8234 f54a 7f34
00000020: 955a 8434 33cf ff33 7e95 db34 6fbf 7a34
00000030: d5c7 8731 e44b 1d31 7d8e 1f31 fef0 ec30
00000040: 9abd 7e32 12d1 1c31 b62b 8b33 f599 f633
00000050: 0225 7a33 48b6 0334 03d3 fc33 28c1 0434

exp_avg f4 [4]
8.172722e-11 -3.5386125e-11 1.8755542e-10 -5.619152e-11
00000000: 56b8 b32e 3ca1 1bae 2838 4e2f 0722 77ae

exp_avg_sq f4 [4]
4.410145e-19 1.1627691e-18 1.3855425e-18 1.6342689e-19
00000000: 1d2a 0221 2d98 ab21 5178 cc21 bff0 4020

exp_avg f4 [4]
0.00032676625 -0.0005236029 -0.00020029412 -0.00015083971
00000000: d351 ab39 6542 09ba 0b06 52b9 ba2a 1eb9

exp_avg_sq f4 [4]
5.4104758e-06 3.6124587e-05 3.7730815e-06 3.7717862e-06
00000000: a28b b536 7b84 1738 0c35 7d36 cb1e 7d36

exp_avg f4 [4]
0.000447841 0.00075821177 -0.00033243146 0.00071299745
00000000: 34cc ea39 bbc2 463a 324a aeb9 73e8 3a3a

exp_avg_sq f4 [4]
5.4989414e-05 0.0001163166 1.4605991e-05 8.428664e-05
00000000: 6fa4 6638 00ef f338 410c 7537 0cc3 b038

exp_avg f4 [2, 4, 3, 1]
-0.0003101918 -0.00017079372 -0.00019779224 -0.0003422174 -0.0002698864 -0.00017310209 0.0001799762 8.493098e-05
7.727683e-05 -1.8657785e-05 4.0214894e-05 6.532062e-05 0.00011697815 -8.28858e-06 4.769395e-05 7.4813994e-05
-6.471881e-05 -0.00011641922 7.451722e-05 -2.0144922e-05 -8.984704e-05 2.228511e-05 9.29974e-05 0.00014102068
00000000: 3da1 a2b9 1717 33b9 7366 4fb9 a46b b3b9
00000010: 8a7f 8db9 bd82 35b9 feb7 3c39 f91c b238
00000020: af0f a238 4a83 9cb7 6aac 2838 befc 8838
00000030: 2b52 f538 2e0f 0bb7 fd0a 4838 75e5 9c38
00000040: a6b9 87b8 1826 f4b8 2146 9c38 e4fc a8b7
00000050: 436c bcb8 e9f0 ba37 9907 c338 f3de 1339

exp_avg_sq f4 [2, 4, 3, 1]
7.919477e-06 8.638669e-06 2.2666181e-05 4.66897e-06 6.584401e-06 9.708546e-06 4.211546e-06 9.4507163e-07
1.214029e-06 8.8770855e-07 2.1444772e-07 1.1197327e-06 4.0899857e-07 4.1733048e-07 3.0115413e-07 1.8080023e-07
3.855417e-07 7.095755e-07 1.2467243e-06 2.3200624e-08 1.6539244e-06 1.6974764e-07 2.2031098e-07 1.8216511e-07
00000000: e5dd 0437 cdee 1037 4123 be37 26aa 9c36
00000010: 93ef dc36 e3e1 2237 e850 8d36 d4b0 7d35
00000020: b8f1 a235 de4a 6e35 f142 6634 b949 9635
00000030: 5694 db34 770d e034 4fae a134 fd21 4234
00000040: 73fc ce34 a879 3e35 1f55 a735 b64a c732
00000050: 69fc dd35 e043 3634 9f8e 6c34 2a99 4334

exp_avg f4 [2, 4, 2, 2]
-6.14107e-05 -0.0005922134 2.1124479e-05 -0.0004931535 -6.832275e-05 -0.00053811254 4.332942e-05 -0.0006650551
0.00011610302 -3.813641e-05 2.2526767e-05 -0.0002440143 -4.871321e-05 -4.4411783e-05 -0.00011090026 -3.3839773e-05
0.00011526097 -4.5110788e-05 0.0002464944 -0.00011966316 5.0492166e-05 0.00018301127 -1.4147853e-05 2.3245622e-05
-8.221727e-05 0.0003274374 -0.0002237446 0.0003817813 9.837992e-05 8.9961395e-06 7.674281e-05 -4.513667e-05
00000000: 9ec9 80b8 c53e 1bba 7934 b137 f946 01ba
00000010: 7f48 8fb8 1f10 0dba 9cbc 3538 1857 2eba
00000020: 567c f338 a9f4 1fb8 ddf7 bc37 17de 7fb9
00000030: 6951 4cb8 ca46 3ab8 2093 e8b8 2eef 0db8
00000040: 43b8 f138 5735 3db8 eb3b 8139 abf3 fab8
00000050: 8dc7 5338 b7e6 3f39 915c 6db7 98ff c237
00000060: 106c acb8 e7ab ab39 fc9c 6ab9 d229 c839
00000070: 5151 ce38 20ee 1637 fbf0 a038 2151 3db8

exp_avg_sq f4 [2, 4, 2, 2]
2.4358899e-06 3.0005625e-05 1.0237174e-05 3.5698115e-05 1.1933187e-06 2.8704228e-05 2.0724067e-06 4.7483776e-05
1.1301825e-06 2.765884e-06 1.05604855e-07 1.3715784e-05 1.0166887e-06 1.0236774e-06 2.1147264e-06 1.0769552e-06
4.2755565e-07 3.0745204e-07 3.9581488e-07 2.2372967e-07 5.7892584e-07 2.663735e-06 1.7559239e-06 3.3387644e-06
9.205498e-07 1.7825329e-05 6.6833227e-06 2.0597507e-05 2.0019735e-07 1.0510397e-07 1.777053e-07 8.4526974e-08
00000000: 4578 2336 97b4 fb37 54c0 2b37 8fba 1538
00000010: 1e2a a035 dcc9 f037 ad13 0b36 5129 4738
00000020: c6b0 9735 869d 3936 e2c8 e233 d81c 6637
00000030: 2875 8835 4a65 8935 b9ea 0d36 e68b 9035
00000040: cd8a e534 e30f a534 6280 d434 583a 7034
00000050: 7b67 1b35 9ec2 3236 16ad eb35 890f 6036
00000060: b31b 7735 9a87 9537 4e41 e036 cfc8 ac37
00000070: d4f5 5634 85b5 e133 43cf 3e34 3285 b533

exp_avg f4 [2]
-5.525909e-10 -7.603883e-11
00000000: 21e5 17b0 0e36 a7ae

exp_avg_sq f4 [2]
6.9067997e-18 1.1086306e-19
00000000: e1d0 fe22 4ee2 0220

exp_avg f4 [2]
-0.0015734101 8.45006e-05
00000000: e23a ceba ea35 b138

exp_avg_sq f4 [2]
0.0003385714 1.5961009e-06
00000000: 4982 b139 9c39 d635

exp_avg f4 [2]
0.0043118508 -0.00029751373
00000000: 6d4a 8d3b 9efb 9bb9

exp_avg_sq f4 [2]
0.0030757503 2.4661296e-05
00000000: 8792 493b bbdf ce37

exp_avg f4 [64, 234]
-6.150005e-06 -9.401888e-08 -2.9330275e-07 -1.7238857e-05 -2.1068834e-05 -3.796208e-05 -2.0040428e-05 -2.8516097e-05
-1.0372622e-05 -1.1553447e-05 -1.5119499e-06 -9.401888e-08 -3.842448e-06 -5.8248434e-06 -1.5911627e-06 -4.559545e-06
-3.4139342e-05 -2.3398878e-05 -2.3424804e-05 -3.6450227e-05 -1.6005197e-05 -8.7342305e-06 -6.1953874e-06 1.4146273e-06
3.4595196e-06 -3.7324012e-06 -5.8248434e-06 -8.3424936e-08 -8.49459e-06 -2.5118112e-05 -2.3605957e-05 -1.5733694e-05
-6.693303e-06 -2.0697898e-06 -1.5224705e-05 1.180206e-06 7.5352e-06 1.2583247e-05 -3.7324012e-06 -5.9152367e-06
-1.8693773e-06 -1.2557942e-05 -3.076191e-05 -1.3604357e-05 1.2831899e-05 2.8387805e-05 1.8445795e-05 -1.3660765e-05
8.727632e-06 -6.6312978e-06 7.586744e-06 -2.2519107e-06 -2.6417242e-06 3.5001585e-06 -1.5367294e-05 -3.9440107e-05
-2.9998691e-05 1.3554308e-06 1.9108425e-05 2.3262954e-05 7.623592e-06 1.2572267e-06 2.600638e-07 8.664913e-06
5.173344e-06 -4.7386443e-06 -9.811377e-06 -3.351219e-05 -3.8078037e-05 -1.1525878e-05 3.1545234e-05 1.2720132e-05
-2.4594776e-05 5.257282e-06 -1.1116001e-06 2.7992917e-06 -1.3943801e-05 -1.1765974e-05 -5.9235667e-06 -2.871963e-06
-4.286891e-05 -6.4266746e-06 2.7224494e-05 4.7256093e-05 1.1893039e-05 -3.7963503e-06 -6.56982e-06 4.247414e-06
5.0026247e-06 -2.0994596e-06 -4.3937775e-06 -5.8248434e-06 -2.0590706e-07 -8.613226e-06 -3.53138e-06 2.539501e-05
2.630678e-05 1.0380898e-05 3.9916413e-06 1.3117906e-06 1.2444205e-05 -1.2915659e-07 -6.013445e-07 -3.7324012e-06
-5.8248434e-06 -6.54134e-06 -1.6357946e-07 -7.5347975e-06 -5.658944e-06 -1.8622068e-05 1.37539155e-05 6.446743e-06
1.4795238e-05 -1.2834468e-05 -6.655163e-06 -6.54134e-06 -3.7324012e-06 -2.1461653e-06 -4.2239645e-08 -4.987095e-06
-3.1807343e-05 -1.8600364e-05 -4.5581026e-05 -1.9347894e-05 -2.2438011e-05 -4.9450355e-06 -6.5909608e-06 -1.1453402e-06
-4.2239645e-08 -1.0456931e-06 -9.3131194e-07 -1.4767692e-06 -1.8193634e-05 -2.5942989e-05 -4.6920646e-05 -2.958332e-05
-3.208591e-05 -5.149721e-06 -1.1153729e-05 -1.6738181e-06 1.8921081e-06 -2.3384031e-07 -8.8132947e-07 -9.3131194e-07
-6.327636e-06 -2.057153e-05 -3.226672e-05 -2.1063719e-05 1.2586487e-05 6.679164e-06 -1.6652744e-05 -1.851353e-06
1.2106439e-05 1.0465661e-05 5.130561e-06 -8.8132947e-07 1.9239e-06 -7.579911e-07 -1.5498234e-05 -3.935707e-05
-1.1151849e-05 3.16405e-05 2.906966e-05 2.1697047e-06 1.5139929e-07 -4.2798306e-06 1.3363304e-05 1.1285654e-05
-1.4451883e-06 1.0881168e-05 -9.915771e-06 -3.549418e-05 -3.8128404e-05 9.90199e-07 2.2331706e-05 2.5924155e-05
8.595948e-06 1.3837273e-05 3.3037268e-06 5.557349e-06 -3.4433356e-06 -3.715228e-06 3.0159492e-06 -4.2120413e-05
-3.965367e-05 7.660048e-06 3.5700245e-06 2.2373488e-05 -6.9798834e-06 -1.1097825e-05 -1.20557515e-05 -1.5961836e-05
-1.4219487e-05 -5.746236e-06 3.099978e-07 -9.914044e-07 -1.1915349e-05 -3.0436187e-05 2.8065819e-05 5.4803484e-05
2.9657396e-05 -1.7959213e-05 -2.2902785e-05 -1.169107e-05 4.949021e-06 -5.2730843e-06 2.6762484e-07 -8.0305887e-07
-9.3131194e-07 -1.05190516e-07 -6.006936e-06 6.7572346e-06 3.9336115e-05 1.802761e-05 -8.874953e-06 2.1971484e-06
5.0679564e-06 -7.013089e-06 -2.3064854e-06 -6.317074e-08 -8.8132947e-07 -9.3131194e-07 -2.2770184e-06 -2.9651842e-06
-2.0695554e-05 -5.8031633e-06 8.549398e-06 1.5405776e-05 -5.045817e-06 2.4935782e-06 -4.7424655e-06 7.5214797e-07
-2.2770184e-06 -8.8132947e-07 1.1823728e-05 5.72223e-07 8.3866263e-07 -2.2758192e-07 -2.7512724e-06 -9.955454e-06
-6.9139105e-06 -6.682459e-06 1.9819581e-06 2.1245685e-06 8.071839e-07 5.72223e-07 7.5993908e-06 1.1193673e-05
2.8402198e-07 2.0731684e-06 6.3237258e-06 1.024975e-05 -4.4868157e-06 -3.7752456e-05 -6.9759176e-06 -1.5864338e-05
00000000: 245c ceb6 6de7 c9b3 3977 9db4 2a9c 90b7
00000010: fabc b0b7 7939 1fb8 7e1c a8b7 da35 efb7
00000020: 1206 2eb7 add5 41b7 34ee cab5 6de7 c9b3
00000030: 61ee 80b6 0673 c3b6 ef8f d5b5 31fe 98b6
00000040: d730 0fb8 b548 c4b7 6280 c4b7 22e2 18b8
00000050: e642 86b7 3c89 12b7 f9e1 cfb6 39de bd35
00000060: 182a 6836 2a7a 7ab6 0673 c3b6 5827 b3b3
00000070: fc83 0eb7 bcb4 d2b7 6805 c6b7 dafb 83b7
00000080: 0997 e0b6 b8e6 0ab6 9c6d 7fb7 9267 9e35
00000090: e0d6 fc36 a21c 5337 2a7a 7ab6 7f7b c6b6
000000a0: 51e7 fab5 f3af 52b7 5906 01b8 453e 64b7
000000b0: 9648 5737 5922 ee37 0bbc 9a37 8a30 65b7
000000c0: e56c 1237 6a82 deb6 a291 fe36 881f 17b6
000000d0: 7a48 31b6 44e4 6a36 03e9 80b7 7e6c 25b8
000000e0: b3a5 fbb7 3fec b535 084b a037 d024 c337
000000f0: 28ce ff36 fbbd a835 e69e 8b34 855f 1137
00000100: b096 ad36 a500 9fb6 8b9b 24b7 718f 0cb8
00000110: fbb5 1fb8 455f 41b7 704f 0438 8d68 5537
00000120: e150 ceb7 b567 b036 4a32 95b5 77db 3b36
00000130: 2bf0 69b7 7966 45b7 0dc3 c6b6 f3bb 40b6
00000140: 24ce 33b8 b7a4 d7b6 2860 e437 d834 4638
00000150: 3788 4737 cdc4 7eb6 5372 dcb6 0285 8e36
00000160: 38dc a736 71e4 0cb6 436e 93b6 0673 c3b6
00000170: 4d17 5db4 8681 10b7 a5fc 6cb6 5e07 d537
00000180: 61ad dc37 9e29 2e37 f0ef 8536 c810 b035
00000190: 74c7 5037 4bae 0ab4 146c 21b5 2a7a 7ab6
000001a0: 0673 c3b6 af7d dbb6 61a4 2fb4 6bd3 fcb6
000001b0: f5e1 bdb6 9636 9cb7 9ec0 6637 1a51 d836
000001c0: 1039 7837 9f53 57b7 6a4f dfb6 af7d dbb6
000001d0: 2a7a 7ab6 d706 10b6 fb6a 35b3 d256 a7b6
000001e0: e068 05b8 fa07 9cb7 412e 3fb8 494d a2b7
000001f0: 4339 bcb7 88ed a5b6 ec27 ddb6 97b9 99b5
00000200: fb6a 35b3 be59 8cb5 45ff 79b5 6735 c6b5
00000210: 889e 98b7 25a0 d9b7 a9cc 44b8 b229 f8b7
00000220: fc93 06b8 c4cb acb6 e720 3bb7 f4a7 e0b5
00000230: 57f4 fd35 8915 7bb4 8094 6cb5 45ff 79b5
00000240: fb51 d4b6 0691 acb7 2056 07b8 feb1 b0b7
00000250: 8d2a 5337 951d e036 7fb1 8bb7 017c f8b5
00000260: c21c 4b37 ac95 2f37 2f27 ac36 8094 6cb5
00000270: 5a1c 0136 c078 4bb5 3402 82b7 5513 25b8
00000280: d418 3bb7 bab5 0438 9fda f337 3e9b 1136
00000290: 5290 2234 779b 8fb6 f432 6037 8457 3d37
000002a0: 4bf8 c1b5 438e 3637 ea5b 26b7 96df 14b8
000002b0: 10ec 1fb8 fbe6 8435 f954 bb37 b377 d937
000002c0: 5137 1037 a326 6837 98b5 5d36 4479 ba36
000002d0: 0e14 67b6 2253 79b6 9d65 4a36 73aa 30b8
000002e0: ce51 26b8 a883 0037 8e94 6f36 b3ae bb37
000002f0: be34 eab6 cc30 3ab7 0f43 4ab7 c8e5 85b7
00000300: 3b90 6eb7 cbcf c0b6 c66d a634 6510 85b5
00000310: 09e8 47b7 3751 ffb7 e36e eb37 cbdc 6538
00000320: c6c8 f837 1ea7 96b7 5b1f c0b7 c324 44b7
00000330: c40f a636 73ef b0b6 14ae 8f34 c991 57b5
00000340: 45ff 79b5 19e5 e1b3 308f c9b6 34bc e236
00000350: d5fc 2438 ff39 9737 a2e5 14b7 b972 1336
00000360: 6a0d aa36 fa51 ebb6 1ec9 1ab6 7ba8 87b3
00000370: 8094 6cb5 45ff 79b5 e1ce 18b6 7afd 46b6
00000380: 5d9b adb7 cbb8 c2b6 636f 0f37 a73b 8137
00000390: 3d4f a9b6 5957 2736 7821 9fb6 37e7 4935
000003a0: e1ce 18b6 8094 6cb5 865e 4637 dd9a 1935
000003b0: 7520 6135 3e5d 74b4 80a2 38b6 5906 27b7
000003c0: 0afe e7b6 e339 e0b6 c801 0536 cf93 0e36
000003d0: 41ad 5835 dd9a 1935 45fe fe36 76cc 3b37
000003e0: af7b 9834 c320 0b36 6430 d436 57f6 2b37
000003f0: 748d 96b6 6458 1eb8 ad12 eab6 6814 85b7

exp_avg_sq f4 [64, 234]
5.1166444e-09 1.8245672e-11 3.46444e-11 3.4033936e-09 3.6733103e-09 6.2010517e-09 4.1295047e-09 6.717297e-09
4.3495456e-09 7.701316e-09 1.2509356e-10 1.8245672e-11 2.1562785e-09 4.579148e-09 4.406251e-11 5.016105e-10
6.0490195e-09 6.2013705e-09 9.249978e-09 7.529381e-09 1.0717684e-08 7.924059e-09 8.281331e-09 5.7008673e-09
3.970473e-10 2.178445e-09 4.579148e-09 5.248847e-10 4.0398356e-09 7.3119706e-09 8.177524e-09 1.2751219e-08
1.3633467e-08 1.5667508e-08 1.0572011e-08 1.0916764e-08 9.423445e-09 6.5721233e-09 2.178445e-09 4.63157e-09
3.3277434e-09 6.825422e-09 9.356723e-09 1.0398405e-08 1.5086416e-08 1.7382622e-08 1.9271898e-08 1.603205e-08
1.5346021e-08 9.768269e-09 9.240499e-09 3.2212297e-09 5.0024664e-09 5.563772e-09 6.8119603e-09 1.1104208e-08
1.3440198e-08 1.8414239e-08 2.0471171e-08 2.4412836e-08 2.2918579e-08 1.5441234e-08 1.13717995e-08 8.419204e-09
9.4791135e-09 4.5778568e-09 1.006004e-09 6.9995245e-09 9.699061e-09 1.4009308e-08 1.4521338e-08 2.1919748e-08
1.9732397e-08 1.829548e-08 1.048994e-08 9.245752e-09 7.576778e-09 6.160066e-09 4.5966857e-09 3.547095e-11
7.52099e-09 7.534315e-09 1.0183777e-08 9.910277e-09 1.4877967e-08 1.22273365e-08 1.2676154e-08 8.744248e-09
7.0235484e-09 1.7993796e-09 2.206802e-09 4.579148e-09 1.9346955e-11 1.1515728e-09 6.442365e-09 8.58921e-09
8.866442e-09 9.375726e-09 8.731752e-09 9.473157e-09 7.0720487e-09 5.874741e-09 2.3173023e-11 2.178445e-09
4.579148e-09 6.2745515e-09 3.2825125e-11 8.345554e-09 8.896361e-09 1.9951525e-08 7.9522575e-09 1.619625e-08
6.867375e-09 1.6071628e-08 1.8321312e-09 6.2745515e-09 2.178445e-09 7.133142e-10 1.6391023e-12 2.0355988e-10
7.0266064e-09 2.3526103e-09 8.5258085e-09 2.63552e-09 9.44786e-09 2.8209823e-09 5.3218736e-09 1.1237632e-10
1.6391023e-12 1.4760296e-10 1.7175746e-10 2.7192507e-10 4.2451873e-09 9.850369e-09 9.614007e-09 1.3533428e-08
1.1497538e-08 1.3755238e-08 1.1004698e-08 1.0556463e-08 4.826806e-10 4.046404e-11 1.0207048e-10 1.7175746e-10
4.868878e-09 8.8220204e-09 1.1977445e-08 1.3989999e-08 2.011418e-08 1.8331338e-08 1.7997026e-08 1.35131994e-08
1.4063657e-08 6.6761343e-09 5.096861e-10 1.0207048e-10 5.387661e-10 8.356215e-09 1.0891433e-08 1.5255353e-08
1.669887e-08 2.2710319e-08 2.3295547e-08 2.7874945e-08 2.0610132e-08 1.7037133e-08 1.1690663e-08 5.4564957e-09
1.6210698e-10 4.015114e-09 8.009939e-09 1.2648731e-08 1.8382146e-08 2.0318756e-08 2.7509428e-08 2.9132396e-08
3.1032716e-08 2.5406917e-08 1.698947e-08 1.2949845e-08 7.2922166e-09 3.2821865e-10 1.7389394e-09 8.735645e-09
1.3739195e-08 1.5858854e-08 2.1517126e-08 2.3044134e-08 2.973414e-08 2.1738385e-08 2.0150308e-08 1.3472683e-08
1.1999753e-08 1.5741934e-09 1.5043598e-10 1.7445684e-10 1.8481532e-09 1.1518371e-08 1.2205778e-08 1.5629487e-08
1.5573649e-08 2.1117984e-08 1.5813374e-08 1.4816556e-08 9.108479e-09 6.815712e-09 2.677427e-11 9.794786e-11
1.7175746e-10 1.9115835e-12 7.717408e-09 1.05108136e-08 1.27874005e-08 1.263099e-08 1.4040443e-08 1.1544067e-08
1.1625831e-08 6.0211462e-09 1.1657976e-09 1.5677143e-12 1.0207048e-10 1.7175746e-10 8.040994e-10 1.5243448e-09
1.04664135e-08 1.3320502e-08 9.744763e-09 1.07105995e-08 8.236853e-09 7.981437e-09 2.1313296e-09 2.4395945e-11
8.040994e-10 1.0207048e-10 2.2359794e-09 8.000814e-12 3.3045445e-11 3.898772e-09 4.6977706e-09 7.4391973e-09
4.3944848e-09 7.008086e-09 3.4788437e-09 5.7410317e-09 7.717055e-11 8.000814e-12 9.429658e-10 2.000122e-09
2.4155157e-11 5.802909e-10 7.3898776e-09 7.013552e-09 7.546451e-09 7.411309e-09 9.061542e-09 7.875349e-09
00000000: 7bce af31 9a7d a02d 205e 182e 22e1 6931
00000010: 8f6d 7c31 0711 d531 82e3 8d31 f8cd e631
00000020: 0273 9531 bf4e 0432 b58a 092f 9a7d a02d
00000030: a72d 1431 9d56 9d31 fac9 412e b3e1 0930
00000040: bdd7 cf31 d513 d531 d5e9 1e32 915a 0132
00000050: df20 3832 6122 0832 ae45 0e32 5ce1 c331
00000060: 7147 da2f 9cb3 1531 9d56 9d31 7a47 1030
00000070: c5ce 8a31 c63c fb31 227d 0c32 7410 5b32
00000080: 9f38 6a32 3795 8632 32a0 3532 708c 3b32
00000090: c0e4 2132 02d1 e131 9cb3 1531 b823 9f31
000000a0: 48ae 6431 0c85 ea31 4ebf 2032 aba4 3232
000000b0: 6197 8132 ca50 9532 5a8b a532 dab6 8932
000000c0: 42d2 8332 4dd1 2732 25c0 1e32 795c 5d31
000000d0: 29e2 ab31 752b bf31 a30e ea31 d3c4 3e32
000000e0: 9ee6 6632 572d 9e32 95d8 af32 65b4 d132
000000f0: 7dde c432 a2a3 8432 b45d 4332 0da4 1032
00000100: 95d9 2232 414b 9d31 9e43 8a30 7880 f031
00000110: eca0 2632 97ad 7032 8579 7932 094a bc32
00000120: 0080 a932 3028 9d32 3e37 3432 3fd7 1e32
00000130: 062b 0232 83a8 d331 e0f0 9d31 bd00 1c2e
00000140: aa35 0132 4570 0132 baf4 2e32 dc41 2a32
00000150: fe99 7f32 6510 5232 51c6 5932 9c39 1632
00000160: c953 f131 0b4e f730 79a6 1731 9d56 9d31
00000170: 782d aa2d 5e45 9e30 a45b dd31 bf8f 1332
00000180: 0653 1832 e112 2132 a702 1632 63bf 2232
00000190: 66fe f231 c5da c931 02d5 cb2d 9cb3 1531
000001a0: 9d56 9d31 8a97 d731 ce5d 102e 2260 0f32
000001b0: 9cd6 1832 de61 ab32 669e 0832 ee1f 8b32
000001c0: 12f6 eb31 e20d 8a32 63ce fb30 8a97 d731
000001d0: 9cb3 1531 0613 4430 e2ae e62b 03d1 5f2f
000001e0: af6e f131 8fab 2131 e778 1232 8f1c 3531
000001f0: 2150 2232 3fdb 4131 b2db b631 3e1e f72e
00000200: e2ae e62b 8a4a 222f 6dd9 3c2f 0d7e 952f
00000210: 10dd 9131 623a 2932 da2a 2532 a580 6832
00000220: b586 4532 2d50 6c32 2c0f 3d32 d15b 3532
00000230: a1ad 0430 75f6 312e 9274 e02e 6dd9 3c2f
00000240: 1b4b a731 a88f 1732 5cc5 4d32 ab58 7032
00000250: 8dc7 ac32 0a77 9d32 e197 9a32 ae27 6832
00000260: 9e9c 7132 e663 e531 f919 0c30 9274 e02e
00000270: 4b18 1430 068f 0f32 071d 3b32 e00a 8332
00000280: 3471 8f32 8514 c332 731b c832 a771 ef32
00000290: 290a b132 0d59 9232 14d8 4832 d87b bb31
000002a0: 0f3d 322f 51f5 8931 169c 0932 b54d 5932
000002b0: c4e6 9d32 6b89 ae32 df4d ec32 d13e fa32
000002c0: d548 0533 673e da32 3df0 9132 057a 5e32
000002d0: 048f fa31 ab70 b42f 7eff ee30 c613 1632
000002e0: 9e09 6c32 fd39 8832 a9d4 b832 96f2 c532
000002f0: 116a ff32 37bb ba32 ff16 ad32 7d75 6732
00000300: 7927 4e32 025b d830 f767 252f 3cd1 3f2f
00000310: 1c02 fe30 55e2 4532 94b1 5132 9b41 8632
00000320: d1c6 8532 f066 b532 fad5 8732 e78b 7e32
00000330: 847b 1c32 a32f ea31 4c82 eb2d be63 d72e
00000340: 6dd9 3c2f 0784 062c 8595 0432 0c93 3432
00000350: 95af 5b32 aeff 5832 8536 7132 5853 4632
00000360: f2ba 4732 90e2 ce31 db39 a030 dca2 dc2b
00000370: 9274 e02e 6dd9 3c2f 7707 5d30 1d81 d130
00000380: c6cf 3332 30d8 6432 ec69 2732 b701 3832
00000390: 1082 0d32 bb1e 0932 bf76 1231 c996 d62d
000003a0: 7707 5d30 9274 e02e c4a7 1931 77c0 0c2d
000003b0: dd55 112e f6f5 8531 076a a131 df9b ff31
000003c0: 4cfe 9631 c7cb f031 7710 6f31 a642 c531
000003d0: 28b3 a92e 77c0 0c2d a999 8130 8572 0931
000003e0: 9478 d42d 5882 1f30 0dea fd31 dbfb f031
000003f0: a4a5 0132 90a6 fe31 15ad 1b32 274c 0732
