server_report/ae_hexa/ae_hexa_log_2_1_64/autoencoder_20260101_190038.pth (torch, 205806 bytes, 48 tensors)

enc1.kernel0 f4 [2, 1, 5, 1]
-0.011038626 0.08135569 -0.10867077 0.29271266 -0.13458474 0.11730427 0.3968267 0.5577278
0.04301717 0.5645761
00000000: 5adb 34bc d09d a63d c88e debd 6fde 953e
00000010: 95d0 09be 393d f03d df2c cb3e 40c7 0e3f
00000020: c632 303d 0f88 103f

enc1.kernel1 f4 [2, 1, 4, 2]
-0.123038925 0.13145266 -0.1013278 0.26676968 -0.092402965 0.53660834 -0.061695226 0.44053692
0.19835277 0.25099155 0.22835784 0.20289744 0.21815602 -0.14878131 0.22433665 -0.05217407
00000000: d5fb fbbd 879b 063e f384 cfbd 0996 883e
00000010: c43d bdbd 2a5f 093f 22b4 7cbd 0e8e e13e
00000020: fd1c 4b3e f781 803e a3d6 693e 59c4 4f3e
00000030: 4b64 5f3e 215a 18be 82b8 653e 7ab4 55bd

enc1.kernel2 f4 [2, 1, 3, 2]
0.15655454 0.16146472 -0.03490822 0.48907498 -0.044754833 0.97977257 0.001758062 0.2843265
-0.016579686 -0.29758093 -0.09473144 -1.5392367
00000000: d54f 203e 0257 253e ecfb 0ebd 0968 fa3e
00000010: d850 37bd 60d2 7a3f c66e e63a 3e93 913e
00000020: 1fd2 87bc 875c 98be 8f02 c2bd b505 c5bf

enc1.bias_tensor f4 [2]
0.002143578 0.0004226484
00000000: 457b 0c3b e896 dd39

enc2.kernel0 f4 [1, 2, 3, 1]
0.04875369 0.044158705 0.079853185 0.050473254 0.061809804 0.05049317
00000000: f3b1 473d c2df 343d 118a a33d 0bbd 4e3d
00000010: 472c 7d3d edd1 4e3d

enc2.kernel1 f4 [1, 2, 2, 2]
0.02371856 0.06819528 0.047511432 0.06818402 0.031244999 0.06839446 0.03737049 0.046301167
00000000: 6d4d c23c f8a9 8b3d 599b 423d 10a4 8b3d
00000010: 83f5 ff3c 6512 8c3d cd11 193d 4ba6 3d3d

fc_enc.weight f4 [64, 117]
0.0968296 -0.09753894 -0.2675862 -0.25335956 0.21329144 -0.012436189 0.2786316 -0.023132075
-0.18305407 -0.14189 0.1466831 0.04029045 0.08946626 0.017436454 0.09566099 0.114305295
-0.022896443 -0.15115751 -0.07398613 -0.09011135 0.2859067 -0.07008837 -0.22184257 -0.01972104
-0.2392252 -0.013340821 -0.029878167 -0.36070397 -0.0075373393 0.014354605 0.016282165 0.039280802
-0.0426799 0.041505806 -0.06683174 0.1924994 0.23818646 0.012087483 -0.034917835 0.036068
-0.06195478 0.11949396 0.009647662 0.35114777 -0.08368155 0.04116285 0.2798571 -0.032562997
-0.09240877 -0.044805974 -0.05151905 -0.07378825 -0.23723963 0.08404496 0.049362022 0.0064423364
-0.1677034 -0.10037081 -0.14766172 -0.10601284 -0.26726204 0.22868128 -0.02548735 0.04519435
0.24631208 0.11239255 -0.0744904 -0.22558367 0.11333664 0.17081012 0.14933461 0.06516172
-0.24309681 -0.14011283 0.105868205 -0.058660578 -0.1071629 0.33580786 -0.21419853 -0.0786907
-0.0729112 -0.037803218 -0.05238449 0.04453254 0.1527802 0.06679241 0.04977722 -0.05885652
0.17884617 0.19984452 -0.27419576 0.010487466 -0.42446747 0.40473816 0.27664113 -0.026567895
-0.04445854 -0.026885275 0.1645911 -0.075369336 0.24335562 0.11543634 -0.13529402 0.036203012
0.05056702 0.034220282 0.13605542 -0.25611848 0.024089063 -0.100283235 -0.1460751 0.015015385
-0.020299913 0.22546627 -0.14093694 0.08761463 0.097195104 0.17144732 -0.047924068 0.14097854
-0.17492497 -0.08284295 -0.036277007 0.22533046 -0.10648162 0.10024952 0.06638437 -0.30109924
-0.17805785 0.058795415 -0.083710715 0.08080676 0.1727109 0.08863139 0.35052636 -0.34211978
-0.121272825 0.16291052 -0.19006899 -0.013779733 -0.0031979545 0.0626813 0.09931624 -0.013623731
-0.24469216 -0.12433279 0.011162549 -0.10557986 0.015870115 0.08775779 -0.11424938 0.2609607
0.08717505 0.1382925 -0.13409063 0.026118422 -0.1670906 0.16491643 0.075860776 -0.004461753
-0.13146025 -0.085324824 -0.095410645 -0.14396803 0.04222122 -0.2627335 0.17703372 -0.11639763
-0.6482996 -0.022711389 -0.16658662 0.33296064 -0.09971085 -0.04563885 -0.073978834 0.13997512
0.039779715 0.21265075 -0.023688953 -0.022437248 0.06760039 0.0046165343 -0.09365726 0.08271218
-0.10281947 -0.03268112 0.12395119 0.17755982 0.30129534 -0.3318217 -0.006912032 -0.012131584
-0.016535494 0.08304982 -0.27225697 -0.36061814 -0.0026937325 0.2341949 -0.061875317 -0.20316324
-0.34182748 0.14441843 0.26824987 0.110592686 0.09057339 -0.11133303 0.8517751 -0.17805922
-0.060274813 -0.2006733 0.061794758 0.07844827 0.23545101 0.17805475 -0.156309 -0.14033407
-0.05985078 -0.022803703 -0.22408387 -0.4093042 0.05080867 -0.039279323 0.036872398 -0.0012604868
-0.35875487 0.13864239 -0.30553854 0.17939156 0.18632968 -0.17344989 -0.0069275447 0.27845222
0.12726134 0.055787552 -0.20617466 0.14577262 0.18205675 -0.134472 -0.36247456 0.30240875
-0.08837095 0.009567093 -0.053245638 0.04123485 -0.012810713 0.1587108 0.14438997 0.28047296
-0.043885928 0.1285772 0.19002691 0.09897084 -0.14474554 -0.09813677 -0.008894658 -0.2537417
00000000: 994e c63d 7fc2 c7bd 0f01 89be 58b8 81be
00000010: 1269 5a3e 28c1 4bbc cda8 8e3e 7a7f bdbc
00000020: 8772 3bbe 9d4b 11be 1834 163e 9907 253d
00000030: 163a b73d e5d6 8e3c e9e9 c33d e518 ea3d
00000040: 5291 bbbc 09c9 1abe 0a86 97bd 4d8c b8bd
00000050: 5d62 923e 7e8a 8fbd b32a 63be 058e a1bc
00000060: 73f7 74be 7593 5abc 0fc3 f4bc 31ae b8be
00000070: c9fb f6bb 942f 6b3c 2d62 853c e8e4 203d
00000080: 1ed1 2ebd fe01 2a3d 14df 88bd 901e 453e
00000090: 27e7 733e 940a 463c 0106 0fbd 0abc 133d
000000a0: 4cc4 7dbd 40b9 f43d 3a11 1e3c a4c9 b33e
000000b0: 3c61 abbd 609a 283d 6e49 8f3e c760 05bd
000000c0: cf40 bdbd 7886 37bd a405 53bd 4b1e 97bd
000000d0: f2ee 72be c41f ac3d d52f 4a3d 3c1a d33b
000000e0: 71ba 2bbe 368f cdbd a234 17be 431d d9bd
000000f0: 92d6 88be 6d2b 6a3e d9ca d0bc b61d 393d
00000100: 3c39 7c3e 112e e63d 6c8e 98bd 68ff 66be
00000110: 0a1d e83d d9e8 2e3e 2ceb 183e 8273 853d
00000120: 5fee 78be bd79 0fbe 6ed1 d83d 1346 70bd
00000130: 3978 dbbd 02ef ab3e dc56 5bbe 9728 a1bd
00000140: 7852 95bd 8cd7 1abd 1e91 56bd c167 363d
00000150: 6a72 1c3e 76ca 883d 33e3 4b3d 8913 71bd
00000160: 7323 373e 0ba4 4c3e 6363 8cbe 9fd3 2b3c
00000170: cd53 d9be d739 cf3e e8a3 8d3e eaa4 d9bc
00000180: 281a 36bd 823e dcbc 928a 283e 3d5b 9abd
00000190: 3732 793e e369 ec3d 848a 0abe 9c49 143d
000001a0: 5d1f 4f3d 912a 0c3d 1d52 0b3e f621 83be
000001b0: 6d56 c53c 4c61 cdbd b694 15be 1703 763c
000001c0: 014c a6bc a1e0 663e c651 10be 4d6f b33d
000001d0: 3a0e c73d e38f 2f3e 074c 44bd ae5c 103e
000001e0: 881f 33be 91a9 a9bd 3397 14bd 07bd 663e
000001f0: 0913 dabd 9f4f cd3d 87f4 873d ae29 9abe
00000200: cc54 36be 76d3 703d 8670 abbd 047e a53d
00000210: 20db 303e 6084 b53d 3178 b33e 532a afbe
00000220: e35d f8bd 04d2 263e 72a1 42be 64c4 61bc
00000230: c694 51bb 0e5f 803d 5066 cb3d 1236 5fbc
00000240: 9590 7abe 31a2 febd 20e3 363c 413a d8bd
00000250: 0b02 823c 5bba b33d 94fb e9bd a49c 853e
00000260: d588 b23d 8d9c 0d3e 0e4f 09be 4df6 d53c
00000270: cc19 2bbe dadf 283e e55c 9b3d e633 92bb
00000280: 849d 06be c8be aebd a866 c3bd 5b6c 13be
00000290: 28f0 2c3d 0185 86be 5448 353e e161 eebd
000002a0: f6f6 25bf 3c0d babc af95 2abe d179 aa3e
000002b0: 3435 ccbd ceef 3abd 3782 97bd a355 0f3e
000002c0: 0ef0 223d 1ec1 593e 560f c2bc 52ce b7bc
000002d0: 1372 8a3d 4c46 973b 61cf bfbd 0165 a93d
000002e0: 0493 d2bd a3dc 05bd 1fda fd3d 3ed2 353e
000002f0: 6243 9a3e 89e4 a9be 547e e2bb 8dc3 46bc
00000300: 7275 87bc 0616 aa3d 4465 8bbe f1a2 b8be
00000310: 5589 30bb cad0 6f3e f970 7dbd 060a 50be
00000320: 0304 afbe 6de2 133e 0c58 893e 6b7e e23d
00000330: 8b7e b93d 9202 e4bd ef0d 5a3f 2855 36be
00000340: b9e2 76bd 4d7d 4dbe 801c 7d3d 7da9 a03d
00000350: 121a 713e fc53 363e 770f 20be bcb3 0fbe
00000360: 1726 75bd d5ce babc 3e76 65be 5290 d1be
00000370: c11c 503d 5be3 20bd 8307 173d eb36 a5ba
00000380: b8ae b7be 45f8 0d3e 8c6f 9cbe 6cb2 373e
00000390: 35cd 3e3e d99c 31be 7500 e3bb 4a91 8e3e
000003a0: cc50 023e 7d81 643d 731f 53be 6b45 153e
000003b0: 166d 3a3e 07b3 09be 4496 b9be 52d5 9a3e
000003c0: d4fb b4bd 4cbf 1c3c 1918 5abd e0e5 283d
000003d0: 06e4 51bc 1585 223e f7da 133e 279a 8f3e
000003e0: bbc1 33bd bea9 033e 6a96 423e 39b1 ca3d
000003f0: 2d38 14be eefb c8bd e6ba 11bc 6fea 81be

fc_enc.bias f4 [64]
-0.013643292 -0.043297827 0.24629073 -0.10311073 -0.014533039 -0.024699258 -0.007360103 -0.025144003
-0.10918707 0.011005247 -0.13375162 -0.045377105 0.048682824 0.045842405 -0.2631497 0.035001125
-0.20551194 0.026052775 0.04724199 0.12807995 -0.034583695 -0.08491548 -0.08289737 0.08810904
0.03740185 -0.0070042405 -0.063811116 0.055607952 -0.12666388 -0.09839192 -0.086568095 0.13629611
0.13759182 0.10279088 0.12413234 0.042125024 -0.0073212343 -0.0002477715 -0.0040875333 0.06415696
-0.009663541 0.020658182 0.0743881 0.020046564 0.05952981 0.048403602 0.057497535 -0.090588234
0.03533403 0.022343306 -0.03283651 0.08573752 -0.09746163 0.013851934 -0.0615898 0.43376607
-0.14780395 -0.1625056 0.12822174 0.07608632 0.03112259 -0.07984916 0.015942832 0.022161126
00000000: 1d88 5fbc 1059 31bd a333 7c3e b82b d3bd
00000010: fc1b 6ebc 1956 cabc 052d f1bb ccfa cdbc
00000020: 789d dfbd 5a4f 343c 2ff6 08be 58dd 39bd
00000030: a467 473d 3fc5 3b3d 8fbb 86be 575d 0f3d
00000040: b971 52be a16c d53c d180 413d 6427 033e
00000050: a2a7 0dbd 2be8 adbd 19c6 a9bd 8372 b43d
00000060: af32 193d d483 e5bb 67af 82bd 2ac5 633d
00000070: 2db4 01be b481 c9bd 9d4a b1bd 3591 0b3e
00000080: dfe4 0c3e 0684 d23d 1939 fe3d 4a8b 2c3d
00000090: f7e6 efbb 54e7 81b9 b7f0 85bb b964 833d
000000a0: d453 1ebc 593b a93c ca58 983d b138 a43c
000000b0: 88d5 733d db42 463d 8982 6b3d 5386 b9bd
000000c0: 6aba 103d 4f09 b73c 947f 06bd 2797 af3d
000000d0: f799 c7bd 39f3 623c 9645 7cbd 9616 de3e
000000e0: eb59 17be de67 26be 8f4c 033e 25d3 9b3d
000000f0: cdf4 fe3c f587 a3bd 8b9a 823c 408b b53c

fc_dec.weight f4 [117, 64]
-0.26428282 0.13728613 0.14261256 0.5130827 0.019126955 -0.072972365 -0.6626896 0.1687781
-0.13006744 -0.18822284 0.4706601 -0.065637 0.2887271 -0.028691435 -0.2530608 -0.35609612
0.18751132 -0.43496743 -0.3437228 -0.2751111 0.03913111 0.0013915355 0.26210484 -0.5015096
-0.65431726 -0.43528575 0.25214675 -0.40874505 -0.034589987 -0.23151125 0.29410207 -0.20897499
-0.4993232 0.0049396954 -0.032049816 -0.24324623 -0.13580777 0.15493865 0.004101077 -0.2624864
-0.0761751 -0.061954148 -0.21476454 0.014728741 0.016122892 -0.17375837 -0.3355464 0.28358278
-0.044282686 0.30822954 -0.07646733 -0.14475165 0.36127472 -0.08459014 -0.24378826 0.3410595
0.2908786 0.09749257 -0.14564654 -0.49732342 0.1995327 -0.0025872425 -0.24016167 -0.09705028
0.1844667 -0.13059348 -0.047237046 0.24214855 -0.26013404 0.44828406 0.5327628 0.13254426
0.4046846 -0.35322192 -0.24054107 0.23871979 0.060418587 -0.49606594 0.06355284 -0.16314551
0.19945723 0.14321403 0.14136048 0.30429533 -0.13275406 0.1705325 0.10833691 -0.19907123
0.27159745 0.065247506 -0.04660933 -0.15589872 0.432883 0.3781091 0.042651623 -0.18091597
0.0780129 0.15392087 0.16157492 -0.049382873 -0.12599023 0.3339582 -0.13077618 -0.4432015
0.29683885 -0.12945561 0.45326117 -0.07725605 -0.65390486 0.5097352 0.2749067 -0.0005194507
0.15103155 0.19082212 -0.40304533 0.08311269 -0.2156488 -0.26515475 0.08049779 0.20560062
-0.0996703 -0.4191536 -0.123816945 0.24023649 0.10082381 0.3105296 -0.14459501 -0.36162102
-0.14201443 0.029990703 0.13474008 -0.01621918 0.14907292 0.03879013 -0.15196423 -0.26375437
0.018682228 -0.28746852 0.177527 -0.21013734 0.029901706 0.008147177 0.024604583 -0.09723325
-0.02035812 -0.10155374 -0.13379197 -0.00064999424 0.1977649 -0.13153562 -0.14698595 0.061807264
-0.14662497 0.1486312 0.044850253 -0.004107923 -0.05477623 0.0331715 0.060763862 -0.12093842
-0.11121294 0.073755115 0.0011597131 0.10802847 0.021865511 -0.19065018 0.07501934 -0.018488057
-0.14467153 0.074481145 -0.15915453 -0.23204634 0.043767355 -0.06648895 0.106677555 -0.09957105
0.06280164 -0.09467336 -0.14264092 -0.12794513 0.123976 0.0043366197 0.010667915 0.00036911346
-0.04338918 -0.08191833 -0.06323033 -0.01785039 0.1569367 -0.15767789 0.054062814 0.025480106
-0.18229164 -0.069126554 -0.14698821 -0.32892466 0.2064805 -0.18735161 -0.0030362345 0.1754579
-0.011756085 0.2546883 -0.0810483 -0.31494296 0.07494359 0.31242427 -0.13013843 -0.30772084
0.023525285 -0.03169322 -0.07039064 -0.2931829 0.09619102 -0.008621282 -0.14765038 0.013390024
-0.01150415 -0.12045464 0.22886229 -0.10071763 0.10255053 0.015711922 -0.018769406 0.114675365
-0.12833127 -0.34180677 0.07334507 -0.13890323 0.041692212 -0.19992602 -0.23707116 -0.06828626
-0.19073537 0.23022643 0.0037826835 0.015595 -0.0839915 0.16037981 0.024729818 0.18586202
-0.08641121 0.49608225 -0.059601158 0.111587346 0.29798833 0.2544308 0.110852875 -0.005676009
-0.11099425 -0.08986496 -0.07873756 -0.117213376 -0.097349316 -0.023609083 -0.11304272 0.017780067
00000000: 1450 87be bc94 0c3e 0709 123e 6359 033f
00000010: 22b0 9c3c 8972 95bd 07a6 29bf 2bd4 2c3e
00000020: 6630 05be 7dbd 40be 5cfa f03e b16c 86bd
00000030: 0ad4 933e 4d0a ebbc 2f91 81be 3b52 b6be
00000040: f802 403e 0db4 debe 6ffc afbe 5ddb 8cbe
00000050: f147 203d 2f64 b63a 9b32 863e ef62 00bf
00000060: 5681 27bf c6dd debe 6119 813e 0847 d1be
00000070: 3bae 0dbd 4911 6dbe 8c94 963e 8afd 55be
00000080: 4aa7 ffbe 2bdd a13b ab46 03bd 8a15 79be
00000090: 3111 0bbe 3da8 1e3e 5462 863b 9e64 86be
000000a0: b101 9cbd a2c3 7dbd 3ceb 5bbe d150 713c
000000b0: 2814 843c b7ed 31be bdcc abbe c331 913e
000000c0: c361 35bd 43d0 9d3e e79a 9cbd c739 14be
000000d0: 00f9 b83e 983d adbd a1a3 79be 5a9f ae3e
000000e0: 0aee 943e 2faa c73d 5e24 15be 2da1 febe
000000f0: 4d52 4c3e ba8e 29bb f1ec 75be 4cc2 c6bd
00000100: d7e4 3c3e 4cba 05be a27b 41bd caf5 773e
00000110: 4a30 85be 7d85 e53e 2563 083f afb9 073e
00000120: d232 cf3e 81d9 b4be 6650 76be f672 743e
00000130: 7b79 773d 5bfc fdbe fe27 823d 9e0f 27be
00000140: 843e 4c3e b3a6 123e cdc0 103e 99cc 9b3e
00000150: aef0 07be 12a0 2e3e bedf dd3d 54d9 4bbe
00000160: d20e 8b3e 7ca0 853d 6de9 3ebd eaa3 1fbe
00000170: d7a2 dd3e 8497 c13e 78b3 2e3d 0942 39be
00000180: 3ac5 9f3d 6f9d 1d3e e573 253e b245 4abd
00000190: 9503 01be 92fc aa3e 31ea 05be 4feb e2be
000001a0: 43fb 973e 0390 04be d911 e83e 6c38 9ebd
000001b0: 4f66 27bf 027e 023f 92c0 8c3e bf2b 08ba
000001c0: 04a8 1a3e e066 433e f55b cebe fc36 aa3d
000001d0: 0ad3 5cbe 5dc2 87be 06dc a43d f888 523e
000001e0: f11f ccbd 4d9b d6be bd93 fdbd 8e00 763e
000001f0: b77c ce3d bcfd 9e3e b710 14be 6426 b9be
00000200: 3b6c 11be 10af f53c 4ef9 093e 16de 84bc
00000210: 92a6 183e 66e2 1e3d 839c 1bbe d00a 87be
00000220: 790b 993c 132f 93be a3c9 353e 3e2e 57be
00000230: 6cf4 f43c bd7b 053c 8d8f c93c 3a22 c7bd
00000240: 12c6 a6bc 68fb cfbd c300 09be 6064 2aba
00000250: e282 4a3e 46b1 06be 7c83 16be 9d29 7d3d
00000260: db24 16be c732 183e e6b4 373d c19b 86bb
00000270: 0a5d 60bd d7de 073d 87e3 783d 90ae f7bd
00000280: 9cc3 e3bd ec0c 973d 8401 983a 083e dd3d
00000290: 4d1f b33c cd39 43be bda3 993d 4474 97bc
000002a0: c624 14be 9289 983d 68f9 22be 8e9d 6dbe
000002b0: 6645 333d 5c2b 88bd c379 da3d e8eb cbbd
000002c0: 259e 803d 1be4 c1bd 7610 12be 0c04 03be
000002d0: 21e7 fd3d 341a 8e3b 7bc8 2e3c 9285 c139
000002e0: dab8 31bd ccc4 a7bd e77e 81bd fb3a 92bc
000002f0: 04b4 203e 5076 21be f870 5d3d a8bb d03c
00000300: a9aa 3abe 3992 8dbd 1484 16be d068 a8be
00000310: a06f 533e 1ad9 3fbe 90fb 46bb 3cab 333e
00000320: 989c 40bc 8166 823e a7fc a5bd 3440 a1be
00000330: 067c 993d 13f6 9f3e 0243 05be 968d 9dbe
00000340: 19b8 c03c c0d0 01bd f828 90bd 121c 96be
00000350: ccff c43d 4740 0dbc a931 17be d561 5b3c
00000360: e77b 3cbc ecb0 f6bd e05a 6a3e 0b45 cebd
00000370: 0306 d23d 4ab6 803c 4cc2 99bc ebda ea3d
00000380: 4669 03be 4c01 afbe f135 963d a63c 0ebe
00000390: 74c5 2a3d 68b9 4cbe c8c2 72be abd9 8bbd
000003a0: 2250 43be 7ac0 6b3e e6e6 773b 2c82 7f3c
000003b0: bc03 acbd 9b3a 243e 3096 ca3c 9d52 3e3e
000003c0: 5cf8 b0bd 7efe fd3e 5820 74bd e887 e43d
000003d0: ed91 983e c144 823e d506 e33d d1fd b9bb
000003e0: f450 e3bd 1f0b b8bd 2841 a1bd 910d f0bd
000003f0: 145f c7bd d667 c1bc f182 e7bd 81a7 913c

fc_dec.bias f4 [117]
-1.8318377 -0.88149655 -0.16349049 -0.14803883 -0.17507794 -0.09933151 -0.099012166 -0.1432199
-0.15212515 -0.21713598 -0.5234253 -0.94234556 -0.62666905 -1.1683604 -0.14835995 -0.30409467
-0.10032872 -0.04891286 -0.068591096 -0.062090483 -0.074341714 -0.081911854 -0.1778182 -0.06276044
-3.6686502 -0.94870937 -0.39429438 -0.109571435 -0.101580255 -0.053622518 -0.09941806 0.0518539
-0.06536031 0.028360749 -0.064242385 -0.066240914 -0.14771287 -0.27236316 -1.2385314 -0.18314113
-0.14134465 -0.02006642 -0.021477628 -0.049769286 -0.089898646 -0.080405705 -0.05847225 -0.05261909
0.034083154 -0.2543032 -0.19401887 -0.5427547 -0.2039068 -0.15552647 -0.09137243 -0.12623431
0.025369775 -0.054852277 0.043893393 -0.027603446 0.083745144 -0.09326139 -0.06386003 -0.12870294
-0.039591208 -0.114091545 -0.12955004 0.028921787 -0.038817666 -0.08336692 -0.013995138 -0.00268477
-0.041888572 0.0013862125 -0.04065607 -0.14034946 -0.05601136 -0.71983063 -3.6528986 -0.23584299
-0.14491521 -0.014866558 -0.05547958 -0.09789265 0.086624555 -0.06467842 -0.017127672 -0.007795295
-0.05330669 -0.29169995 -0.49746445 -1.1810665 -0.63672435 -0.14601046 -0.21299718 -0.109113455
-0.13301124 0.0057857023 -0.07193906 -0.06660488 -0.22431375 -0.22961585 -0.47317258 -0.69969183
-1.3065023 -3.830387 -0.015094932 -0.15234695 -0.18796283 -0.19558442 -0.047656436 -0.17405134
-0.09609804 -0.22895138 -0.56868905 -1.5221817 -0.6860066
00000000: a879 eabf c2a9 61bf 0d6a 27be 7e97 17be
00000010: a247 33be 526e cbbd e4c6 cabd 3da8 12be
00000020: b2c6 1bbe e558 5ebe 33ff 05bf 8f3d 71bf
00000030: 626d 20bf d58c 95bf aceb 17be 4cb2 9bbe
00000040: 2579 cdbd da58 48bd 7d79 8cbd 9752 7ebd
00000050: 7840 98bd 67c1 a7bd f915 36be 8c88 80bd
00000060: 2acb 6ac0 9ede 72bf f4e0 c9be fd66 e0bd
00000070: 4f09 d0bd 49a3 5bbd b29b cbbd c164 543d
00000080: a0db 85bd cd54 e83c 8391 83bd 51a9 87bd
00000090: 0b42 17be 2f73 8bbe 3288 9ebf 5989 3bbe
000000a0: a7bc 10be 5562 a4bc daf1 afbc e1da 4bbd
000000b0: c81c b8bd bfab a4bd 9980 6fbd 1d87 57bd
000000c0: c79a 0b3d 0734 82be e2ac 46be f9f1 0abf
000000d0: f2cc 50be 5542 1fbe 7821 bbbd 9143 01be
000000e0: 46d4 cf3c c8ac 60bd 8fc9 333d 9f20 e2bc
000000f0: 9382 ab3d d4ff bebd 0cc9 82bd b4ca 03be
00000100: 642a 22bd d4a8 e9bd c4a8 04be 62ed ec3c
00000110: 46ff 1ebd 47bc aabd dd4b 65bc f7f2 2fbb
00000120: 5a93 2bbd 93b1 b53a fb86 26bd c5b7 0fbe
00000130: 2b6c 65bd d246 38bf 17c9 69c0 d380 71be
00000140: a764 14be dd92 73bc 8e3e 63bd f17b c8bd
00000150: 3768 b13d 1f76 84bd 554f 8cbc ad6f ffbb
00000160: 1e58 5abd b259 95be a9b3 febe 302d 97bf
00000170: 5e00 23bf c483 15be ef1b 5abe e076 dfbd
00000180: 1934 08be fd95 bd3b c954 93bd 2468 88bd
00000190: 81b2 65be 6b20 6bbe ad43 f2be 011f 33bf
000001a0: 783b a7bf 1025 75c0 bc50 77bc d700 1cbe
000001b0: 5479 40be 4847 48be 6533 43bd 843a 32be
000001c0: 0dcf c4bd 3b72 6abe 9b95 11bf dad6 c2bf
000001d0: 219e 2fbf

dec1.kernel0 f4 [2, 1, 3, 1]
0.37255907 0.56003106 0.2797077 0.38416326 0.18140876 0.5083459
00000000: 10c0 be3e 325e 0f3f d935 8f3e 0cb1 c43e
00000010: 38c3 393e f522 023f

dec1.kernel1 f4 [2, 1, 2, 2]
0.06181292 0.0006952659 0.090216056 -0.069524355 0.20132229 0.32765138 0.019722389 0.32134473
00000000: 8b2f 7d3d 8142 363a 32c3 b83d c962 8ebd
00000010: 6e27 4e3e ecc1 a73e d990 a13c 4c87 a43e

dec1.bias_tensor f4 [2]
-0.44059154 -0.20440069
00000000: 3795 e1be 6a4e 51be

dec2.kernel0 f4 [1, 2, 5, 1]
-0.457266 -0.34902856 0.012757163 0.2970728 -0.4900817 0.021601873 0.1551647 0.43736196
0.1443782 0.05379107
00000000: c51e eabe dfb3 b2be 6b03 513c ed19 983e
00000010: fdeb fabe 69f6 b03c 7fe3 1e3e e8ed df3e
00000020: e1d7 133e 0654 5c3d

dec2.kernel1 f4 [1, 2, 4, 2]
-0.063542716 -0.2838041 -0.076941915 0.13681348 -0.024107039 0.09236874 0.10185157 -0.052986197
0.18318976 0.122872315 0.13937983 0.07537231 0.13593644 0.037974894 0.050348587 -0.022777358
00000000: af22 82bd c54e 91be b993 9dbd d518 0c3e
00000010: 207c c5bc d22b bd3d 8e97 d03d 0e08 59bd
00000020: 1996 3b3e 7ba4 fb3d 96b9 0e3e cc5c 9a3d
00000030: ec32 0b3e 908b 1b3d 523a 4e3d 9597 babc

dec2.kernel2 f4 [1, 2, 3, 2]
-0.032835428 0.230321 -0.28214946 -0.25085732 -0.30440694 -0.23344663 0.24823456 -0.14467758
0.47394693 0.04077361 0.17034355 0.034432456
00000000: 717e 06bd 45d9 6b3e e575 90be 5f70 80be
00000010: 3adb 9bbe a20c 6fbe 3331 7e3e 5c26 14be
00000020: 2ca9 f23e 3b02 273d 8a6e 2e3e 0c09 0d3d

exp_avg f4 [2, 1, 5, 1]
-0.00015898036 -2.3138307e-05 0.00018379076 0.00027116324 0.00025122936 -0.00014726959 -9.860722e-05 4.957626e-05
0.000114216324 0.00019585024
00000000: f7b3 26b9 2319 c2b7 f5b7 4039 ea2a 8e39
00000010: 6fb7 8339 616c 1ab9 59cb ceb8 1bf0 4f38
00000020: 6c87 ef38 265d 4d39

exp_avg_sq f4 [2, 1, 5, 1]
7.309011e-07 8.9186807e-07 9.493089e-07 8.749111e-07 6.817344e-07 5.45986e-07 6.6884405e-07 6.395022e-07
5.462934e-07 4.2856826e-07
00000000: 2433 4435 b568 6f35 03d4 7e35 6fdb 6a35
00000010: 6e00 3735 df8f 1235 9d8a 3335 42aa 2b35
00000020: ffa4 1235 f915 e634

exp_avg f4 [2, 1, 4, 2]
-8.412418e-05 -0.00013635276 5.023877e-05 0.00013013075 0.00028404794 0.00019541875 0.00027863172 0.00030524275
-9.110886e-05 -0.0001681382 8.398219e-06 -2.7190738e-06 0.00017799331 1.8760316e-05 0.00022118927 0.00015626833
00000000: d36b b0b8 eaf9 0eb9 78b7 5238 b573 0839
00000010: 45ec 9439 52e9 4c39 5115 9239 fd08 a039
00000020: b211 bfb8 414e 30b9 13e6 0c37 5579 36b6
00000030: b7a3 3a39 795f 9d37 0bef 6739 f6db 2339

exp_avg_sq f4 [2, 1, 4, 2]
7.212399e-07 8.521063e-07 8.182653e-07 9.709139e-07 8.0531896e-07 9.764406e-07 6.8318445e-07 8.364594e-07
6.230581e-07 5.344638e-07 6.9806276e-07 5.538516e-07 6.654577e-07 4.6283282e-07 5.479199e-07 3.648624e-07
00000000: 3b9b 4135 4dbc 6435 c3a6 5b35 5950 8235
00000010: 192d 5835 3e0e 8335 1464 3735 0d89 6035
00000020: 3a40 2735 1378 0f35 8262 3b35 64ac 1435
00000030: e8a1 3235 427b f834 c514 1335 4ee2 c334

exp_avg f4 [2, 1, 3, 2]
5.0221897e-05 -5.3377255e-05 0.00011238659 9.7164724e-05 0.00014045632 0.00017264423 5.6687904e-06 -0.00010842052
5.64246e-05 -3.1060452e-05 0.00012382264 1.1031705e-06
00000000: 5aa5 5238 64e1 5fb8 17b1 eb38 eac4 cb38
00000010: 7547 1339 d507 3539 8a36 be36 d35f e3b8
00000020: 74a9 6c38 e846 02b8 63d6 0139 a610 9435

exp_avg_sq f4 [2, 1, 3, 2]
6.790232e-07 8.9929983e-07 6.827435e-07 9.724279e-07 6.0334474e-07 9.007939e-07 6.178178e-07 4.5068373e-07
6.5221803e-07 3.718603e-07 5.678907e-07 2.4020682e-07
00000000: 1e46 3635 6a67 7135 c745 3735 5e84 8235
00000010: 89f5 2135 16ce 7135 1ed8 2535 80f5 f134
00000020: 1514 2f35 17a4 c734 2771 1835 c6f5 8034

exp_avg f4 [2]
-3.6795063e-05 -6.0043993e-05
00000000: 6654 1ab8 bfd7 7bb8

exp_avg_sq f4 [2]
3.3889057e-07 4.3230324e-07
00000000: c4f0 b534 4e17 e834

exp_avg f4 [1, 2, 3, 1]
-0.002853641 0.0020112467 0.0034180987 -3.362427e-05 -0.00022338681 0.0021815186
00000000: 2704 3bbb 1fcf 033b 2e02 603b c907 0db8
00000010: f13c 6ab9 cff7 0e3b

exp_avg_sq f4 [1, 2, 3, 1]
7.205875e-05 8.8126944e-05 6.49412e-05 1.6745042e-05 2.2486227e-05 2.3471997e-05
00000000: 3f1e 9738 cbd0 b838 0b31 8838 b477 8c37
00000010: cea0 bc37 bbe5 c437

exp_avg f4 [1, 2, 2, 2]
-0.0004934684 -0.00069113646 0.0038891602 0.0012431318 -0.00020140463 -0.000984045 -8.302578e-05 0.0010033404
00000000: 1b5c 01ba 622d 35ba 48e1 7e3b 95f0 a23a
00000010: 2530 53b9 12fb 80ba 201e aeb8 8482 833a

exp_avg_sq f4 [1, 2, 2, 2]
8.439684e-05 6.917813e-05 7.552926e-05 7.244327e-05 1.627278e-05 2.048649e-05 1.9751245e-05 2.7679343e-05
00000000: 35fe b038 ba13 9138 7665 9e38 afec 9738
00000010: 8781 8837 67da ab37 7aaf a537 f030 e837

exp_avg f4 [64, 117]
-5.6993077e-08 -5.772704e-08 -1.3812881e-07 5.4016296e-06 -7.2169732e-06 -2.8347687e-05 -1.2158728e-05 -3.9305014e-05
-1.4128834e-05 -6.148314e-06 3.2465059e-07 -5.772704e-08 -5.695327e-08 -5.7266394e-08 4.4476546e-06 1.4588783e-05
2.8483644e-05 6.993733e-07 -1.7507562e-05 -3.633416e-05 -5.422657e-05 -5.941367e-05 -2.6071963e-05 -3.954867e-06
-3.2659298e-07 -5.7153958e-08 -5.7266394e-08 1.41325545e-05 1.2952374e-05 1.6115735e-05 1.5299474e-05 -1.2892053e-05
-3.429265e-05 -3.72139e-05 -4.5376113e-05 -9.769596e-06 -1.7335941e-06 4.3130373e-07 -5.7153958e-08 -1.0319114e-06
-1.985117e-06 8.036629e-06 5.210832e-06 -2.4963224e-06 -3.020159e-05 -4.8180656e-05 -3.0475501e-05 -1.1207286e-05
6.7893393e-06 1.024582e-05 -2.6453242e-06 -2.005355e-07 -2.1864635e-05 -3.065726e-05 7.929756e-08 -5.0747435e-06
-1.6023716e-05 -1.9050258e-05 -3.8048656e-05 1.3998502e-06 3.0174363e-06 1.8019227e-05 6.768623e-06 1.1737161e-05
2.921723e-07 -1.3542702e-05 -5.2905148e-06 -1.1494878e-06 -2.5698688e-05 -2.3892566e-05 5.4916177e-06 3.044879e-06
-2.4225124e-06 2.9143663e-05 1.184762e-05 1.646361e-05 1.5684715e-05 2.03469e-06 -3.3578183e-07 -1.4834599e-06
3.5899025e-06 -3.8299964e-05 -2.5142712e-05 2.4765523e-06 -2.0180969e-05 -6.399723e-05 -2.59177e-05 -2.0787425e-05
1.0711574e-05 2.0113805e-06 3.6854527e-08 -5.7266394e-08 -2.2251531e-07 -1.9562478e-05 -5.1874163e-06 -1.5234041e-05
2.5874873e-05 -1.8017234e-05 -3.0317198e-05 -5.7044446e-05 -1.3807724e-05 -7.3606464e-07 -1.9148395e-08 -5.7153958e-08
-5.7266394e-08 -5.714805e-08 2.026044e-06 2.6458723e-05 2.7868862e-05 4.185503e-05 3.3616492e-05 -3.335785e-06
-3.9537503e-05 -8.05405e-06 1.1458335e-06 -5.714805e-08 -5.7153958e-08 -7.363571e-08 -7.8197374e-08 -2.0547827e-06
2.9767211e-06 1.5935177e-05 1.3710055e-05 -7.5839503e-06 -2.1596274e-05 -1.3675997e-05 -2.4033112e-05 -7.543472e-07
-7.8197374e-08 -7.322794e-08 -7.6367655e-08 2.5805818e-07 -1.6191916e-05 -2.500951e-05 2.2350252e-05 2.0976357e-05
3.1058537e-06 3.7846978e-06 -1.9775154e-05 -3.1809384e-05 -1.033903e-05 -1.3401686e-06 -7.502805e-08 -7.6367655e-08
9.2173195e-07 -2.3605204e-05 -5.395618e-05 -1.6876784e-05 -4.659261e-06 -4.7078902e-07 -1.4516539e-05 -3.7427708e-06
-1.8845303e-05 -1.9211479e-05 -1.1666807e-05 -7.502805e-08 1.8334871e-06 8.967719e-06 -2.9497874e-05 -3.944433e-05
-3.497069e-05 -2.9068256e-05 -5.1851468e-05 -4.1999618e-05 -7.102553e-06 -5.5989767e-06 -2.6647986e-05 -1.7781678e-05
-3.3265943e-07 6.4247174e-06 1.5502144e-05 -9.399814e-06 -8.742379e-06 -2.3712635e-05 -2.3222121e-05 -3.924788e-05
-1.4454766e-05 3.4535523e-07 4.9492687e-06 -1.5947542e-05 -6.716483e-06 3.9973364e-07 3.0431413e-06 1.0900292e-05
1.4579396e-05 -7.179006e-07 -9.9802286e-08 -3.0891577e-05 -2.9178358e-05 -2.4570167e-05 -7.317641e-06 2.554207e-07
6.5471613e-06 4.166691e-06 2.4754138e-07 -1.12999295e-07 7.5320736e-06 1.676694e-05 -9.993579e-06 -2.8058994e-05
-5.663941e-05 -5.197996e-05 -2.344493e-05 -4.4572234e-06 -1.0458187e-06 1.790316e-05 2.938781e-06 -3.5543788e-09
-7.6367655e-08 1.6253135e-07 -4.9713835e-06 -4.850945e-05 -5.5155986e-05 -4.673027e-05 -3.8554394e-05 2.9786256e-07
-8.600601e-06 -2.437125e-05 6.695019e-06 4.7326903e-08 -7.502805e-08 -7.6367655e-08 -7.6379386e-08 -1.6798573e-05
-2.6381824e-05 -3.2713164e-05 1.7769955e-06 -1.140195e-05 9.157798e-06 -5.6860563e-06 -1.3122285e-05 -3.741435e-06
-7.6379386e-08 -7.502805e-08 9.3919844e-08 1.1236331e-07 4.735005e-06 2.6931688e-05 3.873016e-06 -6.1970068e-06
-3.0001947e-05 -6.190059e-05 -2.4758077e-05 -2.4585737e-05 -6.5765335e-07 1.1236331e-07 9.1971074e-08 1.05461886e-07
3.9105494e-06 1.682465e-05 4.074754e-05 1.9328792e-05 2.6086214e-05 -2.3551767e-05 -2.0701176e-05 -3.8835355e-05
00000000: 8dc8 74b3 8def 77b3 8f50 14b4 a53f b536
00000010: 5429 f2b6 32cc edb7 57fd 4bb7 70db 24b8
00000020: e10a 6db7 9d4d ceb6 a34b ae34 8def 77b3
00000030: c89c 74b3 11f5 75b3 103d 9536 59c2 7437
00000040: 29f0 ee37 91bc 3b35 34dd 92b7 8265 18b8
00000050: 5671 63b8 f132 79b8 1db5 dab7 0db4 84b6
00000060: 9956 afb4 7179 75b3 11f5 75b3 dc1a 6d37
00000070: 064e 5937 4730 8737 5f57 8037 f24a 58b7
00000080: 74d5 0fb8 1f16 1cb8 3b52 3eb8 18e8 23b7
00000090: d7ad e8b5 ef8d e734 7179 75b3 3580 8ab5
000000a0: 0d38 05b6 0fd5 0637 b5d8 ae36 7e86 27b6
000000b0: 6c59 fdb7 9615 4ab8 a4a5 ffb7 ed06 3cb7
000000c0: fbcf e336 76e5 2b37 5386 31b6 c752 57b4
000000d0: f269 b7b7 fb95 00b8 4b4a aa33 b747 aab6
000000e0: ab6a 86b7 1ece 9fb7 6f96 1fb8 7de2 bb35
000000f0: 297f 4a36 ff27 9737 071e e336 b9ea 4437
00000100: dbdb 9c34 7635 63b7 2d85 b1b6 1a48 9ab5
00000110: 8393 d7b7 e56c c8b7 a344 b836 9f56 4c36
00000120: 7292 22b6 8a79 f437 24c5 4637 551b 8a37
00000130: ab92 8337 b58b 0836 8145 b4b4 4b1b c7b5
00000140: 0eea 7036 46a4 20b8 90e9 d2b7 d832 2636
00000150: 4d4a a9b7 4036 86b8 d669 d9b7 a860 aeb7
00000160: dcb5 3337 41fb 0636 fb49 1e33 11f5 75b3
00000170: 8bec 6eb4 1a1a a4b7 910f aeb6 b595 7fb7
00000180: de0d d937 b723 97b7 b051 feb7 0243 6fb8
00000190: b9a7 67b7 fa95 45b5 c47b a4b2 7179 75b3
000001a0: 11f5 75b3 f272 75b3 2cf7 0736 adf3 dd37
000001b0: edc7 e937 7f8d 2f38 6fff 0c38 5adc 5fb6
000001c0: 12d5 25b8 e21f 07b7 8aca 9935 f272 75b3
000001d0: 7179 75b3 a921 9eb3 76ed a7b3 e6e4 09b6
000001e0: aec3 4736 88ac 8537 3d04 6637 a379 feb6
000001f0: a529 b5b7 f671 65b7 b79a c9b7 587e 4ab5
00000200: 76ed a7b3 7c41 9db3 90ff a3b3 3f8b 8a34
00000210: e0d3 87b7 84cb d1b7 cd7c bb37 62f6 af37
00000220: 296e 5036 9dfc 7d36 d2e2 a5b7 116b 05b8
00000230: cc75 2db7 d8df b3b5 1b1f a1b3 90ff a3b3
00000240: f06c 7735 ca03 c6b7 024f 62b8 9e92 8db7
00000250: bf56 9cb6 c0c0 fcb4 0f8c 73b7 502c 7bb6
00000260: fb15 9eb7 5628 a1b7 8ebc 43b7 1b1f a1b3
00000270: 2316 f635 0f74 1637 3472 f7b7 0771 25b8
00000280: 7ead 12b8 9bd7 f3b7 177b 59b8 bf28 30b8
00000290: 7752 eeb6 d8de bbb6 1d8a dfb7 dd29 95b7
000002a0: 5d98 b2b4 e793 d736 9a0a 8237 e5b3 1db7
000002b0: 3bac 12b7 7fea c6b7 20cd c2b7 179e 24b8
000002c0: bf82 72b7 4369 b934 e511 a636 16c7 85b7
000002d0: 265e e1b6 f99a d634 c538 4c36 66e0 3637
000002e0: 079a 7437 c1b5 40b5 e352 d6b3 9491 01b8
000002f0: 0cc4 f4b7 081c ceb7 0f8a f5b6 c120 8934
00000300: b0af db36 9acf 8b36 d4e5 8434 05aa f2b3
00000310: 05bc fc36 bba6 8c37 18aa 27b7 3b60 ebb7
00000320: 1a90 6db8 0f05 5ab8 9bab c4b7 428f 95b6
00000330: 0f5e 8cb5 be2e 9637 e037 4536 4b41 74b1
00000340: 90ff a3b3 4784 2e34 dccf a6b6 a076 4bb8
00000350: 4a57 67b8 3f00 44b8 77b5 21b8 ebe9 9f34
00000360: 4d4b 10b7 dc70 ccb7 c6a5 e036 7b44 4b33
00000370: 1b1f a1b3 90ff a3b3 0306 a4b3 a9ea 8cb7
00000380: 894e ddb7 7e35 09b8 1a81 ee35 014b 3fb7
00000390: 71a4 1937 daca beb6 c927 5cb7 5d15 7bb6
000003a0: 0306 a4b3 1b1f a1b3 fbb0 c933 624c f133
000003b0: 62e1 9e36 5ceb e137 f4f4 8136 e2ef cfb6
000003c0: b1ac fbb7 a0d0 81b8 91af cfb7 783d ceb7
000003d0: 9889 30b5 624c f133 a281 c533 497a e233
000003e0: 5d37 8336 a922 8d37 57e8 2a38 4424 a237
000003f0: b8d3 da37 0991 c5b7 70a7 adb7 25e3 22b8

exp_avg_sq f4 [64, 117]
1.3674157e-13 3.1064786e-13 5.1445687e-10 1.5372935e-08 5.352399e-09 2.0414808e-08 6.141892e-09 2.4514643e-08
9.36712e-09 1.8243288e-08 3.5246014e-11 3.1064786e-13 1.2382433e-13 2.3554214e-13 1.1284066e-09 1.00366035e-08
3.0423628e-08 2.6560075e-08 3.577781e-08 3.0144164e-08 3.501825e-08 3.712169e-08 3.5183525e-08 3.7072068e-09
3.9312182e-11 1.7737604e-13 2.3554214e-13 1.02059134e-08 2.7127983e-08 4.1740105e-08 3.7892388e-08 4.4767e-08
4.005248e-08 3.799769e-08 3.754723e-08 3.547671e-08 1.7755658e-08 2.949659e-09 1.7737604e-13 9.385187e-10
2.212392e-08 3.3893638e-08 4.505962e-08 4.6566516e-08 4.8750714e-08 4.447902e-08 4.4894268e-08 3.985266e-08
3.6444455e-08 2.8611304e-08 1.2890574e-08 2.4459207e-11 5.752303e-09 2.590792e-08 3.6470983e-08 4.7625885e-08
5.227385e-08 5.7103478e-08 5.1563738e-08 5.4652347e-08 4.297118e-08 4.0552802e-08 3.0859997e-08 1.8760412e-08
9.133354e-10 2.5173246e-09 1.5966098e-08 3.8168906e-08 5.2027943e-08 5.9149745e-08 6.2006286e-08 5.976994e-08
5.575505e-08 4.996524e-08 4.4436103e-08 3.3678944e-08 8.043796e-09 2.5816477e-10 1.302948e-11 3.3204237e-09
3.6866762e-08 5.2085362e-08 6.101401e-08 5.8454372e-08 5.769225e-08 5.1992675e-08 5.1050456e-08 4.3868667e-08
3.3442323e-08 4.9511095e-10 7.00123e-13 2.3554214e-13 1.7890323e-11 2.1059353e-08 4.8539363e-08 5.5879802e-08
5.2643937e-08 5.4112025e-08 4.6333003e-08 4.5315332e-08 3.19268e-08 1.03910995e-08 1.0504729e-12 1.7737604e-13
2.3554214e-13 2.3140599e-13 4.218913e-09 1.5884007e-08 4.8237656e-08 2.3355586e-08 4.4538684e-08 1.87094e-08
3.344055e-08 6.630569e-09 4.771691e-10 2.3140599e-13 1.7737604e-13 1.5922833e-13 3.590504e-13 6.777893e-10
2.03976e-08 7.833485e-09 2.6499277e-08 7.647924e-09 2.6152414e-08 7.113205e-09 1.26779085e-08 2.4142974e-11
3.590504e-13 1.4450516e-13 2.7265855e-13 1.1675784e-09 9.742823e-09 3.2512183e-08 3.560465e-08 4.5519023e-08
4.0022744e-08 4.466104e-08 3.360299e-08 3.012307e-08 2.9313543e-09 3.785029e-11 2.0611968e-13 2.7265855e-13
1.0100561e-08 2.6274261e-08 4.2585416e-08 4.4521524e-08 5.623182e-08 5.473377e-08 5.367746e-08 4.279933e-08
4.0574406e-08 1.8348155e-08 3.1385474e-09 2.0611968e-13 9.562869e-10 2.2578808e-08 3.609965e-08 5.0165816e-08
5.3023495e-08 6.043837e-08 6.105774e-08 6.665349e-08 5.1574684e-08 4.431787e-08 3.2239676e-08 1.3805202e-08
2.659764e-11 5.679164e-09 2.7390055e-08 3.947103e-08 5.0854997e-08 5.965235e-08 6.869599e-08 7.0130056e-08
8.02133e-08 6.110184e-08 4.8958142e-08 3.3302296e-08 1.9156671e-08 1.0051258e-09 2.6177918e-09 1.6929253e-08
3.7872162e-08 5.1493647e-08 6.254686e-08 7.516977e-08 8.238141e-08 8.457676e-08 6.810688e-08 4.9210108e-08
3.3708957e-08 7.530399e-09 2.692852e-10 1.5789679e-11 2.8578278e-09 3.2206568e-08 4.685432e-08 6.541448e-08
7.910035e-08 8.809462e-08 7.436104e-08 6.357063e-08 4.7079812e-08 3.1117718e-08 4.606937e-10 6.9979536e-13
2.7265855e-13 1.5707437e-11 1.714262e-08 4.02056e-08 6.0900284e-08 6.7739236e-08 7.699475e-08 5.807208e-08
5.4554782e-08 3.588449e-08 1.06183276e-08 1.0796395e-12 2.0611968e-13 2.7265855e-13 2.6815862e-13 3.4870626e-09
1.3643378e-08 5.0158402e-08 2.719076e-08 5.215096e-08 2.2027908e-08 4.136249e-08 7.940046e-09 5.0945814e-10
2.6815862e-13 2.0611968e-13 1.7889845e-13 4.109999e-13 7.6911594e-10 2.2715001e-08 7.574283e-09 2.6811048e-08
7.740727e-09 2.8696453e-08 8.807103e-09 1.7461696e-08 3.5155018e-11 4.109999e-13 1.6178572e-13 3.1109222e-13
1.4387509e-09 1.2808935e-08 3.8934214e-08 3.6125442e-08 4.6128488e-08 3.8723098e-08 4.9243923e-08 4.038828e-08
00000000: 13f5 192a 13e1 ae2a af69 0d30 710d 8432
00000010: 33e8 b731 a35c af32 a708 d331 4594 d232
00000020: 08ed 2032 6ab5 9c32 7c03 1b2e 13e1 ae2a
00000030: ef69 0b2a 3399 842a 4716 9b30 736d 2c32
00000040: 22ab 0233 3926 e432 1eaa 1933 dc77 0133
00000050: f966 1633 bb6f 1f33 b21c 1733 dfc1 7e31
00000060: 95e5 2c2e 2ab5 472a 3399 842a 1556 2f32
00000070: 1107 e932 bb45 3333 1fbf 2233 d645 4033
00000080: 2b06 2c33 e732 2333 9e43 2133 0e5f 1833
00000090: 1b85 9832 f3b2 4a31 2ab5 472a 31fd 8030
000000a0: 040b be32 7392 1133 9387 4133 6d00 4833
000000b0: fa61 5133 3309 3f33 c5d1 4033 772a 2b33
000000c0: 1a87 1c33 ecc4 f532 5875 5d32 3d25 d72d
000000d0: cba5 c531 1e8c de32 45a4 1c33 378d 4c33
000000e0: b583 6033 f041 7533 ee76 5d33 e4ba 6a33
000000f0: 508f 3833 472c 2e33 ed8a 0433 9526 a132
00000100: 440e 7b30 3efd 2c31 d225 8932 28ef 2333
00000110: 5475 5f33 d50b 7e33 5128 8533 df5a 8033
00000120: 5377 6f33 5d99 5633 03da 3e33 64a6 1033
00000130: fd30 0a32 76ed 8d2f 9037 652d 832d 6431
00000140: 6f57 1e33 76b4 5f33 cf06 8333 430f 7b33
00000150: 4dc9 7733 8d4e 5f33 9242 5b33 1c6a 3c33
00000160: 39a2 0f33 5618 0830 2e11 452b 3399 842a
00000170: 6d5d 9d2d 02e6 b432 9879 5033 7e00 7033
00000180: 9f1a 6233 cd68 6833 adff 4633 bca0 4233
00000190: e31f 0933 8a84 3232 46d7 932b 2ab5 472a
000001a0: 3399 842a 1e45 822a f4f5 9031 4d71 8832
000001b0: dd2d 4f33 7a9f c832 cd4a 3f33 68b6 a032
000001c0: 46a0 0f33 1ad3 e331 ca29 0330 1e45 822a
000001d0: 2ab5 472a 7146 332a 9e20 ca2a 2f4f 3a30
000001e0: cc36 af32 0894 0632 87a0 e332 ed63 0332
000001f0: c4a5 e032 6a68 f431 08ce 5932 255d d42d
00000200: 9e20 ca2a c7b2 222a 3d7e 992a 8378 a030
00000210: 6461 2732 86a3 0b33 baeb 1833 b280 4333
00000220: 79e5 2b33 55d1 3f33 e152 1033 aa60 0133
00000230: ee70 4931 a377 262e f411 682a 3d7e 992a
00000240: bd86 2d32 b6b1 e132 29e7 3633 ef37 3f33
00000250: 8a83 7133 6b14 6b33 fe8a 6633 5cd2 3733
00000260: 0844 2e33 059c 9d32 e9ad 5731 f411 682a
00000270: 5b6e 8330 53f3 c132 fc0b 1b33 e675 5733
00000280: f3bb 6333 58ca 8133 d91e 8333 2523 8f33
00000290: f782 5d33 0358 3e33 e677 0a33 ec2b 6d32
000002a0: 90f4 e92d 7422 c331 5e47 eb32 db86 2933
000002b0: a96b 5a33 3a1a 8033 0586 9333 689a 9633
000002c0: ba41 ac33 1737 8333 0c46 5233 4308 0f33
000002d0: f78d a432 b824 8a30 aee4 3331 d26b 9132
000002e0: e2a8 2233 dd29 5d33 8051 8633 056d a133
000002f0: a9e9 b033 91a0 b533 2742 9233 165b 5333
00000300: 64c7 1033 0c5f 0132 860a 942f 32e3 8a2d
00000310: 7063 4431 7f53 0a33 df3c 4933 fe79 8c33
00000320: e1dd a933 882e bd33 6ab0 9f33 5384 8833
00000330: cd34 4a33 4ba6 0533 e044 fd2f 92f9 442b
00000340: 3d7e 992a 012a 8a2d 0541 9332 86ae 2c33
00000350: 49c8 8233 0a78 9133 5058 a533 ed6a 7933
00000360: 9e4f 6a33 6a1f 1a33 e66b 3632 1df2 972b
00000370: f411 682a 3d7e 992a bbf5 962a 0ea1 6f31
00000380: 3664 6a32 bf6d 5733 1d91 e932 96fc 5f33
00000390: e237 bd32 8aa6 3133 b168 0832 ee09 0c30
000003a0: bbf5 962a f411 682a f86b 492a 545f e72a
000003b0: b969 5330 d11e c332 0d20 0232 1e4e e632
000003c0: 14fc 0432 2b80 f632 0c4e 1732 adfe 9532
000003d0: 089d 1a2e 545f e72a 8f27 362a 1d21 af2a
000003e0: 8cbd c530 4b0e 5c32 9f38 2733 5828 1b33
000003f0: cf1e 4633 7f50 2633 4480 5333 6277 2d33

exp_avg f4 [64]
-1.6520906e-05 -2.195753e-05 3.579811e-05 1.6430155e-05 -8.354615e-05 -0.00013570736 5.6286102e-05 -5.5309347e-06
-1.1355914e-05 -2.1585422e-05 5.2880587e-05 -3.910131e-05 7.526411e-05 2.212131e-05 -1.9154808e-05 -6.4913846e-05
3.497966e-05 2.3987093e-05 -7.8667494e-05 2.2365975e-05 -2.3001667e-05 -4.6674108e-05 -4.674646e-05 4.0159306e-05
1.0457061e-05 -5.6279943e-05 -5.3598826e-05 6.942709e-05 7.129951e-05 -7.362638e-05 -3.843234e-05 1.8047233e-05
-0.000117940785 6.268659e-05 -0.00013866505 3.7848757e-05 -3.2164102e-05 3.624272e-05 3.0055535e-05 8.363415e-06
6.743946e-05 -3.242527e-05 9.782331e-05 -7.901157e-05 1.0808694e-05 -1.2783886e-05 -3.575251e-05 -0.00016320574
-1.7935738e-05 -1.3593656e-05 -7.2145626e-06 -1.081519e-05 -3.462306e-05 2.2170116e-05 -6.8430854e-05 -4.0967436e-05
1.6171014e-05 1.025967e-05 -0.00010561994 8.638627e-06 -8.364913e-06 7.502797e-05 -3.6650574e-05 -5.9073147e-05
00000000: 6096 8ab7 7031 b8b7 ee25 1638 7dd3 8937
00000010: 7f35 afb8 ab4c 0eb9 be14 6c38 5e96 b9b6
00000020: 4785 3eb7 5712 b5b7 19cc 5d38 b600 24b8
00000030: 1dd7 9d38 2791 b937 a3ae a0b7 5b22 88b8
00000040: 20b7 1238 e437 c937 4afa a4b8 919e bb37
00000050: b4f3 c0b7 f1c3 43b8 a111 44b8 ba70 2838
00000060: bc70 2f37 210e 6cb8 4dcf 60b8 6399 9138
00000070: a286 9538 dd67 9ab8 6932 21b8 2364 9737
00000080: fa56 f7b8 9b76 8338 9e66 11b9 cbbf 1e38
00000090: f1e7 06b8 5303 1838 c51f fc37 9850 0c37
000000a0: 496e 8d38 5e00 08b8 7d26 cd38 03b3 a5b8
000000b0: fd56 3537 5f7a 56b7 f7f4 15b8 3522 2bb9
000000c0: b474 96b7 4f10 64b7 9f14 f2b6 e372 35b7
000000d0: 3a38 11b8 f6f9 b937 8982 8fb8 73d4 2bb8
000000e0: fda6 8737 f220 2c37 4680 ddb8 9fee 1037
000000f0: 0757 0cb7 5658 9d38 41b9 19b8 4fc5 77b8

exp_avg_sq f4 [64]
4.0559453e-08 4.6979057e-08 5.653475e-08 3.9152173e-08 6.1748246e-08 7.442509e-08 5.0121002e-08 4.444918e-08
4.387339e-08 4.8834135e-08 5.809287e-08 5.393531e-08 6.20279e-08 5.611378e-08 5.791183e-08 4.809194e-08
5.478992e-08 5.3536805e-08 5.5345957e-08 6.4121636e-08 4.0869242e-08 4.166152e-08 5.7443664e-08 4.4095064e-08
5.1135494e-08 5.4312885e-08 4.9149197e-08 4.8783246e-08 4.9828525e-08 5.412913e-08 4.9242992e-08 5.0892503e-08
5.1205173e-08 4.87419e-08 4.82139e-08 4.703192e-08 4.6089575e-08 4.243597e-08 4.9963397e-08 5.060539e-08
5.4244484e-08 4.9705857e-08 4.331403e-08 4.1549725e-08 4.299654e-08 4.9645124e-08 4.3348987e-08 5.2103367e-08
4.5886377e-08 4.9716196e-08 4.6718995e-08 4.2927855e-08 4.1021366e-08 5.207934e-08 4.6464404e-08 1.0979189e-07
4.5024365e-08 7.046894e-08 4.5837627e-08 5.2937057e-08 4.6107033e-08 4.7640853e-08 3.7837292e-08 4.1943746e-08
00000000: 9733 2e33 05c6 4933 9dd0 7233 4528 2833
00000010: 759a 8433 a0d3 9f33 a044 5733 64e8 3e33
00000020: 4d6f 3c33 b3bd 5133 c981 7933 80a6 6733
00000030: 3334 8533 c101 7133 bbba 7833 a68d 4e33
00000040: 2752 6b33 57f0 6533 86b5 6d33 3eb3 8933
00000050: 3588 2f33 53ef 3233 fab7 7633 0963 3d33
00000060: 12a0 5b33 a645 6933 1d18 5333 bf85 5133
00000070: 0b03 5633 9c7b 6833 3e7f 5333 e694 5a33
00000080: afec 5b33 4958 5133 be13 4f33 2500 4a33
00000090: 06f4 4533 d842 3633 5697 5633 3759 5933
000000a0: 71fa 6833 2b7c 5533 4808 3a33 6874 3233
000000b0: 32ab 3833 6439 5533 b72e 3a33 42c8 5f33
000000c0: 9b14 4533 8987 5533 14a8 4833 ad5f 3833
000000d0: 782f 3033 d7ad 5f33 2790 4733 bbc6 eb33
000000e0: d060 4133 b654 9733 01df 4433 e95c 6333
000000f0: 3807 4633 ac9d 4c33 8b82 2233 a325 3433

exp_avg f4 [117, 64]
-1.6740813e-09 3.0926894e-09 1.3761756e-09 1.1066017e-09 3.8734593e-09 -2.5583073e-09 3.4755139e-09 -1.8666784e-09
9.0413926e-10 -1.2567855e-10 -5.495902e-09 3.9142942e-09 -1.2593651e-09 -5.508391e-10 9.524388e-10 1.8273495e-09
-5.058046e-10 1.6551844e-09 4.417632e-09 -2.4967615e-09 -3.066182e-09 2.0207571e-09 -7.1783197e-09 4.8066053e-09
3.9027848e-10 3.1657255e-09 -3.992458e-09 1.953365e-09 4.6782542e-09 9.538279e-11 -1.6857241e-09 1.4858207e-09
6.8726846e-10 1.4391377e-09 1.6035563e-09 -1.1956759e-09 -2.0090242e-10 1.0726969e-09 8.858409e-10 1.5683861e-09
3.4390086e-09 -3.6857808e-09 3.987317e-10 -2.892134e-09 4.1479136e-09 8.4028535e-09 -7.0928423e-09 -5.191401e-09
-1.1929708e-09 -5.550939e-10 -2.344735e-09 -9.778335e-11 2.6089617e-10 -1.9124071e-09 5.5136784e-09 8.298779e-10
-3.851674e-09 -1.7602225e-09 -3.242324e-09 5.5222213e-09 -3.2149944e-10 1.6731397e-10 -4.7270046e-09 -7.9094925e-10
-2.6800299e-06 7.154913e-07 5.759254e-06 1.3088774e-06 5.7590952e-08 -2.621697e-06 3.2528453e-06 2.3397822e-06
-1.4085167e-06 1.2037871e-07 1.0654464e-06 1.0434857e-06 6.007314e-07 6.870854e-06 -3.310122e-06 1.0566812e-06
3.370702e-06 -2.7522836e-07 3.5691346e-06 2.541315e-06 -8.8125256e-07 -1.9869788e-06 -8.434797e-06 9.957245e-07
3.8934095e-06 -8.9731935e-07 4.612167e-06 3.7578582e-06 -2.659492e-06 -4.007505e-08 3.9011573e-07 5.689076e-06
-2.2064577e-07 2.8532502e-06 3.9014494e-06 3.668419e-06 -1.0479708e-06 8.1467067e-07 -2.410914e-07 7.4093e-06
-2.1928126e-06 2.289397e-06 1.1566686e-06 5.5667756e-06 -1.3077906e-06 -3.0268702e-06 -2.540916e-06 -6.378949e-06
-9.063623e-07 -1.6649901e-06 -4.224673e-06 1.0806625e-06 4.8295665e-06 6.200033e-06 9.069885e-07 -3.9331408e-06
-4.1875637e-06 -1.2512157e-07 5.9027475e-06 1.6733937e-06 4.140076e-06 -2.3526864e-06 5.4756492e-06 2.0885368e-06
7.068378e-06 -1.5362294e-06 5.716181e-07 -1.3265054e-06 1.1025734e-05 -4.876461e-06 8.286359e-06 1.6385717e-06
3.94676e-06 -7.26866e-06 -2.727668e-06 9.465141e-06 1.0685533e-05 6.029957e-06 -6.051809e-06 -1.7675608e-05
-8.978731e-06 1.1213027e-05 9.2592545e-06 1.8258223e-05 2.3463303e-07 5.5048986e-06 -6.688016e-06 -1.21400735e-05
1.4186741e-05 -2.093695e-05 9.773863e-06 1.4180414e-05 -4.958486e-06 -1.2439747e-05 -1.0911691e-05 1.819409e-05
1.5249673e-05 -2.1078231e-05 -1.7859826e-06 5.9094667e-08 5.7583993e-06 3.5623762e-06 5.0711e-06 3.4363802e-05
-1.4880082e-05 1.0085983e-05 2.7637892e-05 1.2626983e-05 4.489658e-06 -4.161812e-06 1.8773513e-06 1.1926813e-05
7.1915188e-06 5.443278e-07 -1.6732627e-05 1.3028112e-05 7.733837e-06 1.08077875e-05 -1.5287158e-05 -2.7647806e-05
-3.1811883e-06 -1.9817273e-05 4.2495394e-06 1.3203123e-05 1.5169489e-06 -3.5589549e-06 1.07907945e-05 3.3863824e-05
-1.5058449e-05 -7.1703043e-06 -2.1400352e-05 -9.287696e-06 -9.681513e-06 -5.3515873e-06 3.6055126e-06 -3.8930407e-06
1.3106578e-06 -1.4988889e-06 2.5118889e-06 -3.0538692e-06 -1.3302402e-05 -1.8717409e-06 1.2052057e-05 6.093058e-06
-1.3864826e-05 -1.25302495e-05 4.5836073e-06 -3.2265623e-05 1.4056585e-05 8.0298305e-06 1.3532115e-05 -6.225772e-06
-5.7332463e-06 6.0358134e-06 4.7079357e-06 -6.0921757e-06 7.744582e-06 -1.7423257e-05 -1.526414e-05 -3.7560203e-05
-1.2867892e-05 1.3580437e-05 6.651258e-08 9.707163e-06 2.567821e-05 -1.5652822e-05 -5.489193e-06 -2.0745603e-05
-1.9783574e-05 1.4209654e-05 1.11107765e-05 1.38242285e-05 -2.4985076e-05 -1.505071e-05 2.5471221e-05 -2.138518e-05
9.783698e-06 4.705203e-06 1.22544025e-05 -1.5405418e-05 3.830319e-05 -4.506673e-06 -1.8861865e-05 3.5877016e-05
2.1614298e-05 3.2366836e-05 1.9639841e-05 -2.469585e-05 9.169787e-06 3.5030675e-06 8.566728e-06 -2.056423e-05
00000000: 8015 e6b0 2b87 5431 e023 bd30 1617 9830
00000010: 4f17 8531 38ce 2fb1 e3d5 6e31 f446 00b1
00000020: 2587 7830 5e2f 0aaf 77d6 bcb1 7f7e 8631
00000030: f815 adb0 db69 17b0 f6e6 8230 2526 fb30
00000040: d608 0bb0 a07c e330 e7c9 9731 7e93 2bb1
00000050: d8b4 52b1 89dd 0a31 2ba5 f6b1 5927 a531
00000060: d08e d62f 088c 5931 082e 89b1 f63b 0631
00000070: 5cbe a031 bdbf d12e 25af e7b0 ab35 cc30
00000080: 38ea 3c30 28cb c530 1f64 dc30 1b55 a4b0
00000090: 01e5 5caf 2b6e 9330 837f 7330 ae8e d730
000000a0: ae53 6c31 f148 7db1 7f34 db2f f6be 46b1
000000b0: 6f85 8e31 245c 1032 4db5 f3b1 0c60 b2b1
000000c0: eef5 a3b0 4395 18b0 0421 21b1 2207 d7ae
000000d0: df6d 8f2f 6c6b 03b1 d472 bd31 771d 6430
000000e0: af57 84b1 53ec f1b0 91cf 5eb1 f9bd bd31
000000f0: 06bf b0af b2f6 372f 2c6b a2b1 1b6a 59b0
00000100: 90da 33b6 3010 4035 9d3f c136 afac af35
00000110: ec59 7733 69f0 2fb6 754b 5a36 2705 1d36
00000120: 440c bdb5 7341 0134 7600 8f35 e50d 8c35
00000130: f341 2135 308c e636 7723 5eb6 4ad3 8d35
00000140: 3834 6236 19c3 93b4 4485 6f36 768b 2a36
00000150: 378f 6cb5 0958 05b6 2d83 0db7 d5a4 8535
00000160: 22a4 8236 51df 70b5 36c2 9a36 832f 7c36
00000170: ba79 32b6 fc1e 2cb3 1971 d134 cae4 be36
00000180: a6ea 6cb4 777a 3f36 32e9 8236 f52e 7636
00000190: 01a8 8cb5 beaf 5a35 5a6f 81b4 679d f836
000001a0: 3c28 13b6 8aa3 1936 d53e 9b35 3dca ba36
000001b0: 5887 afb5 3c21 4bb6 9b84 2ab6 c10a d6b6
000001c0: be4c 73b5 a078 dfb5 aac1 8db6 480b 9135
000001d0: a90d a236 e109 d036 c677 7335 6cf9 83b6
000001e0: e682 8cb6 2859 06b4 3710 c636 5f99 e035
000001f0: fbea 8a36 d8e2 1db6 78bb b736 ca28 0c36
00000200: e82c ed36 7130 ceb5 4c71 1935 610a b2b5
00000210: 2bfb 3837 7ba0 a3b6 a405 0b37 e5ec db35
00000220: 696e 8436 50e5 f3b6 fb0c 37b6 79cc 1e37
00000230: 0446 3337 f054 ca36 a510 cbb6 1446 94b7
00000240: 5ba3 16b7 961f 3c37 3258 1b37 3c29 9937
00000250: 70ef 7b34 b8b6 b836 9f69 e0b6 38ad 4bb7
00000260: 9703 6e37 c2a1 afb7 6cfa 2337 6ae8 6d37
00000270: 1261 a6b6 4eb4 50b7 5b11 37b7 839f 9837
00000280: d9d8 7f37 28d1 b0b7 e5b5 efb5 46cf 7d33
00000290: 4638 c136 2811 6f36 6b28 aa36 da21 1038
000002a0: 77a5 79b7 f836 2937 ecd7 e737 7bd8 5337
000002b0: dea5 9636 b1a5 8bb6 4df9 fb35 4619 4837
000002c0: ad4e f136 ec1d 1235 0b5d 8cb7 5193 5a37
000002d0: 94c0 0137 1853 3537 ec3c 80b7 36ed e7b7
000002e0: 667c 55b6 453d a6b7 4497 8e36 fb82 5d37
000002f0: f899 cb35 61d6 6eb6 1c0a 3537 0109 0e38
00000300: 8ca3 7cb7 7298 f0b6 e884 b3b7 5ad2 1bb7
00000310: c86d 22b7 c991 b3b6 3cf6 7136 f7a0 82b6
00000320: dce9 af35 6e2d c9b5 ec91 2836 13f1 4cb6
00000330: 622d 5fb7 8738 fbb5 3133 4a37 f872 cc36
00000340: f99c 68b7 0339 52b7 e3cc 9936 f354 07b8
00000350: 93d4 6b37 dcb7 0637 fe07 6337 f9e6 d0b6
00000360: 3660 c0b6 3e87 ca36 dcf8 9d36 646b ccb6
00000370: baee 0137 2928 92b7 7e0b 80b7 f689 1db8
00000380: 2de3 57b7 88d7 6337 add5 8e33 f3db 2237
00000390: 8967 d737 2e4e 83b7 cf2f b8b6 d806 aeb7
000003a0: e7f4 a5b7 0066 6e37 6c68 3a37 9cee 6737
000003b0: 0b97 d1b7 4f82 7cb7 08ab d537 5364 b3b7
000003c0: aa24 2437 63e1 9d36 4298 4d37 e23a 81b7
000003d0: bda7 2038 0738 97b6 8c39 9eb7 a77a 1638
000003e0: 5a50 b537 a0c1 0738 3dc0 a437 ef29 cfb7
000003f0: efd7 1937 3e16 6b36 d1b9 0f37 5981 acb7
