server_report/ae_graph/ae_graph_log/autoencoder_20251231_120846.pth (torch, 15558 bytes, 21 tensors)

conv1.bias f4 [32]
0	0x38e0c441	0.000107177075
1	0x3932ce30	0.00017052214
2	0x00000000	0.0
3	0x00000000	0.0
4	0xb7dc76a2	-2.6281286e-05
5	0x00000000	0.0
6	0x3758c10f	1.2919553e-05
7	0xb7a438b7	-1.9576733e-05
8	0x00000000	0.0
9	0xb8811bb6	-6.156361e-05
10	0x00000000	0.0
11	0x00000000	0.0
12	0xbdab532e	-0.08365475
13	0x3586a427	1.0031553e-06
14	0x00000000	0.0
15	0x00000000	0.0
16	0xb8bac482	-8.9057736e-05
17	0xbd96c600	-0.07361984
18	0xb9512191	-0.00019944298
19	0xb8b44af5	-8.597031e-05
20	0x00000000	0.0
21	0xb8a67367	-7.936992e-05
22	0x00000000	0.0
23	0xb8a15314	-7.692553e-05
24	0x00000000	0.0
25	0x00000000	0.0
26	0x00000000	0.0
27	0xb943d612	-0.00018676397
28	0x00000000	0.0
29	0x00000000	0.0
30	0xbdb62094	-0.088929325
31	0xbe5a80ef	-0.21338247

conv1.lin.weight f4 [32, 1]
0	0x3e922e92	0.28551155
1	0x3e8f4132	0.27979428
2	0xbdf77bf4	-0.12084189
3	0xbe36db12	-0.17857006
4	0x3ed06938	0.40705276
5	0xbe0abf37	-0.13549505
6	0x3ee80df7	0.45323154
7	0x3f01fcb7	0.5077624
8	0xbe727a37	-0.23679434
9	0x3ec5f93a	0.38666707
10	0xbe1426c5	-0.14467914
11	0xbed090c1	-0.40735438
12	0x3f01d608	0.5071721
13	0x3f0d85f3	0.55282515
14	0xbeafde5d	-0.34349337
15	0xbe93bd7f	-0.28855512
16	0x3ec181cf	0.3779435
17	0x3ede95b5	0.43473592
18	0x3e4e0aae	0.20121261
19	0x3e5aca52	0.21366242
20	0xbe9d2bd3	-0.30697498
21	0x3e9ceb89	0.3064845
22	0xbe895b5b	-0.2682751
23	0x3ef5cee0	0.48009396
24	0xbe7c4ec5	-0.24639423
25	0xbe36f09e	-0.17865226
26	0xbe8439e4	-0.25825417
27	0x3e983429	0.29727295
28	0xbe5af611	-0.2138293
29	0xbcf29da2	-0.02961618
30	0x3f0f3c92	0.559518
31	0x3f1842b8	0.59476805

conv2.bias f4 [4]
0	0xbd4b0791	-0.049567763
1	0x3e22188e	0.1582968
2	0xbe91bc75	-0.28464094
3	0x3e823c5c	0.25436676

conv2.lin.weight f4 [4, 32]
0	0xbe902cab	-0.2815908
1	0xbee0fc41	-0.43942454
2	0xbe2d4ef5	-0.16924651
3	0x3ecf85d6	0.40531796
4	0xbebee09b	-0.37280735
5	0x3e9a6e71	0.30162385
6	0xbea5ca10	-0.32380724
7	0xbe70be3e	-0.23510072
8	0xbe4fb9d6	-0.20285735
9	0xbebac41e	-0.3647775
10	0xbe0cce84	-0.13750654
11	0xbe1f51fc	-0.15558618
12	0xbe64431f	-0.2229123
13	0xbe0ef06f	-0.13958906
14	0x3ea54a41	0.32283214
15	0xbe155333	-0.14582519
16	0x3e4c8ee6	0.19976386
17	0x3e2ddc7e	0.16978642
18	0xbe82a31c	-0.25515068
19	0xbd8e2ba8	-0.069419205
20	0x3ec48ac3	0.38387117
21	0x3de4ae2c	0.11166033
22	0xbcdb7102	-0.026787285
23	0xbeb8a5d6	-0.36064023
24	0x3e507c8f	0.20360015
25	0xbb669570	-0.0035184287
26	0x3e8663b9	0.26247957
27	0xbd514c51	-0.05109817
28	0xbdc522b6	-0.09625761
29	0x3e496341	0.19666769
30	0x3dbb8981	0.09157086
31	0xbe62e5b8	-0.22157943
32	0xbe3b2ee2	-0.18279603
33	0xbdb6cce6	-0.089258
34	0x3ec8b8f0	0.39203596
35	0xbe877527	-0.26456568
36	0xbbc8a447	-0.006123099
37	0xbe34d407	-0.17659007
38	0xbf089b25	-0.5336173
39	0xbf0bb44d	-0.5457199
40	0x3e818579	0.25297144
41	0xbf00b8aa	-0.50281775
42	0xbe78a5f9	-0.24282064
43	0xbde970c4	-0.113984615
44	0x3e9ba9cc	0.30402982
45	0x3d58c18c	0.052918956
46	0xbe8e3c3a	-0.27780324
47	0xbe751a66	-0.23935851
48	0xbef7d84f	-0.48407218
49	0x3f4e6dc1	0.8063622
50	0xbe9d7fb9	-0.30761507
51	0xbe9b6a86	-0.30354708
52	0xbe188836	-0.1489571
53	0xbee5bcc4	-0.4487058
54	0x3eb8052d	0.3594145
55	0xbe34b0e4	-0.17645603
56	0x3df10004	0.11767581
57	0x3eac9ff6	0.3371579
58	0x3c657085	0.0140038775
59	0xbd8ef926	-0.06981115
60	0x3c04d679	0.008107775
61	0xbecfd4d5	-0.40592065
62	0x3eafe4c4	0.34354222
63	0x3f251b5b	0.64494866
64	0x3f01213a	0.50441325
65	0x3eff976d	0.49920216
66	0x3d8828ba	0.06648393
67	0x3e56b550	0.20967603
68	0x3f0aab96	0.5416807
69	0xbd13bcf1	-0.03606886
70	0x3ea65898	0.32489467
71	0x3ea9ba10	0.33149767
72	0x3ded9932	0.11601485
73	0x3eac2212	0.33619744
74	0x3e7f799f	0.24948739
75	0xbebc6730	-0.36797476
76	0x3e4077dc	0.18795723
77	0x3e9638dc	0.29340255
78	0x3d519b99	0.05117378
79	0x3e33cb78	0.17558086
80	0x3eab53bd	0.33462325
81	0xbf12d51f	-0.57356447
82	0x3dce7850	0.100815415
83	0x3ee9842c	0.45608652
84	0xbc84a703	-0.016192919
85	0x3ecfcf70	0.4058795
86	0xbea4c931	-0.32184747
87	0x3eece673	0.4626957
88	0xbe81b31c	-0.25331962
89	0xbe910710	-0.283257
90	0x3d74221f	0.059602853
91	0x3df71a14	0.12065521
92	0x3e291d30	0.1651504
93	0xbecae36b	-0.3962663
94	0x3e6ec94b	0.23318975
95	0xbf129876	-0.57263887
96	0xbcb527c9	-0.022113698
97	0xbcc1f0c3	-0.023674374
98	0xbd7c14fc	-0.06154345
99	0x3bf1070f	0.007355578
100	0xbf024f58	-0.5090232
101	0xbda35b0b	-0.079763494
102	0x3d180f1b	0.03712378
103	0xbdd89e3d	-0.105770566
104	0xbe9d229d	-0.3069047
105	0xbf0243eb	-0.50884885
106	0x3d270849	0.040779386
107	0xbeaff083	-0.34363183
108	0x3f1365fc	0.5757749
109	0xbe5f9ec9	-0.21837915
110	0xbea01345	-0.312647
111	0x3eb5198f	0.35371062
112	0x3df8d732	0.1215042
113	0x3f4bd556	0.796224
114	0xbee5e8f0	-0.4490428
115	0xbea90742	-0.3301335
116	0xbcc12d0e	-0.023581054
117	0xbea0a7ab	-0.3137792
118	0x3e40e14d	0.18835945
119	0xbedb5f4c	-0.42846143
120	0x3d5c11a7	0.053727772
121	0xbdee89d5	-0.11647383
122	0x3d121f3b	0.035674315
123	0xbe989b97	-0.29806206
124	0xbe698939	-0.22806253
125	0xbecbb59d	-0.39786997
126	0x3f31ba2c	0.694247
127	0x3f8d183a	1.1023018

decoder.0.weight f4 [32, 4]
0	0xbe893575	-0.26798597
1	0xbe4f4969	-0.20242848
2	0x3ed69b65	0.41915432
3	0x3ead0483	0.33792505
4	0xbf08e568	-0.53475046
5	0xbef4b679	-0.47795466
6	0x3e94d709	0.2907031
7	0xbe18d8b0	-0.1492641
8	0xbed89615	-0.42302004
9	0xbf8e7d73	-1.1132034
10	0xbd1a5c23	-0.037685525
11	0xbfccb919	-1.5993987
12	0x3edf2acd	0.43587342
13	0x3eb9418c	0.3618282
14	0x3d0b329f	0.033983823
15	0x3ea36f21	0.31920722
16	0x3e2c1367	0.16804276
17	0xbf746e00	-0.95480347
18	0x3eac0cc0	0.33603477
19	0xbf8f7f89	-1.1210796
20	0x3e1c7aba	0.15281191
21	0xbf37381f	-0.7157001
22	0xbc97c588	-0.018526807
23	0xbfa15726	-1.260472
24	0xbf10a1a7	-0.5649666
25	0xbe59e2f7	-0.21277986
26	0xbdffa28e	-0.12482177
27	0xbdc11012	-0.09426893
28	0xbee94763	-0.45562276
29	0xbe1cf28a	-0.15326896
30	0x3e5d61f3	0.21619396
31	0x3dd82904	0.10554698
32	0x3d0fb2d0	0.03508264
33	0x3e88b470	0.26700163
34	0xbebbbba6	-0.36666602
35	0xbeccdb0a	-0.40010864
36	0xbd41c98e	-0.04731136
37	0xbbe1247b	-0.006870804
38	0x3f0a32ab	0.53983563
39	0xbea6be6f	-0.32567164
40	0xbe45ed6e	-0.19328853
41	0x3e4f3d93	0.20238332
42	0xbf204149	-0.6259962
43	0x3f24edad	0.64425164
44	0x3fc2a2d8	1.5205946
45	0x3f6ffda3	0.93746394
46	0xbf661a53	-0.8988392
47	0x3f146198	0.57961416
48	0x3e82765a	0.2548092
49	0x3e3259e8	0.17417109
50	0xbee45826	-0.44598502
51	0x3cd59360	0.02607125
52	0x3e925248	0.285784
53	0x3ea560d8	0.32300448
54	0x3dae3690	0.08506501
55	0x3ecab09a	0.3958786
56	0x3e7f7af2	0.24949244
57	0xbf082526	-0.53181684
58	0x3f0c0829	0.5469995
59	0xbe66a4a8	-0.22523749
60	0xbd003e64	-0.0313095
61	0x3f444c91	0.7667933
62	0xbeaeaf2f	-0.3411803
63	0x3ee88037	0.4541032
64	0x3d531a00	0.051538467
65	0xbe107ac4	-0.14109331
66	0xbec86a5a	-0.3914364
67	0x3eb97784	0.36223996
68	0xbe878729	-0.26470307
69	0xbe046f1e	-0.12933013
70	0x3ea97dc6	0.3310377
71	0xbe9fded0	-0.3122468
72	0xbe5f3c2b	-0.21800296
73	0x3e15ced0	0.14629674
74	0x3e8c137e	0.2735862
75	0xbf009e82	-0.50241864
76	0x3c86afca	0.016441245
77	0x3f103475	0.56330043
78	0xbf10970b	-0.56480473
79	0x3f64b9d3	0.89346045
80	0xbf15c164	-0.58498216
81	0x3f6765d4	0.9038975
82	0xbf9f8474	-1.2462296
83	0x3f4e2c06	0.80535924
84	0x3ebbfd10	0.3671651
85	0xbee3a47e	-0.44461435
86	0xbeaf1cae	-0.34201568
87	0xbe371eb8	-0.17882812
88	0x3cba55a0	0.022745907
89	0x3ed63312	0.4183584
90	0x3d566960	0.052346587
91	0xbe92619c	-0.28590095
92	0x3ecc2706	0.39873523
93	0x3dddbba0	0.10826802
94	0x3ce08fe0	0.027412355
95	0xbe5a0ee0	-0.21294737
96	0xbe0f2d4f	-0.13982128
97	0x3b8fac19	0.0043845293
98	0xbf00f628	-0.50375605
99	0xbe54e64c	-0.20790976
100	0x3ee5ed1a	0.44907457
101	0xbdac4468	-0.08411485
102	0xbeee604c	-0.46557844
103	0xbe7c4d10	-0.24638772
104	0xbe93cbc6	-0.28866404
105	0xbede2aa5	-0.4339191
106	0x3e3fdfe5	0.18737753
107	0xbee2ce1b	-0.4429787
108	0x3d96bcb3	0.0736021
109	0xbe6654a4	-0.22493225
110	0x3e5de1c5	0.21668155
111	0xbe812d6b	-0.25229964
112	0xbe9ea958	-0.30988574
113	0xbf0b2fe5	-0.54369956
114	0x3e6491c2	0.22321227
115	0xbdd38cba	-0.10329576
116	0xbddd12dc	-0.10794613
117	0x3f4642bd	0.77445585
118	0xbf4b1292	-0.7932521
119	0x3ecd59e6	0.4010765
120	0xbe9eb037	-0.30993816
121	0xbe8c193d	-0.27363005
122	0x3efe8303	0.4970933
123	0xbf23f480	-0.6404495
124	0xbe062599	-0.1310028
125	0x3f271812	0.65271103
126	0xbf35032e	-0.70707977
127	0x3f6d93b1	0.92803484

decoder.0.bias f4 [32]
0	0x3e771441	0.2412882
1	0x3e94a712	0.29033715
2	0x3cccc574	0.024996497
3	0xbe1b09b1	-0.15140416
4	0x3d49ef34	0.049300388
5	0x3f25980d	0.64685136
6	0x3dd1f8c5	0.10252527
7	0xbf452529	-0.77009827
8	0xbe97304c	-0.29529035
9	0xbead928c	-0.3390087
10	0x3ed78719	0.4209526
11	0x3d3c3d48	0.04595688
12	0xbe95516e	-0.29163688
13	0xbe47c374	-0.19508153
14	0xbe2222b0	-0.15833545
15	0x3f09c451	0.5381518
16	0xbeb9feb0	-0.36327124
17	0xbeb3daec	-0.35127962
18	0x3ebfab58	0.37435412
19	0x3f13843e	0.5762366
20	0x3eb9d37f	0.3629417
21	0xbec71632	-0.3888412
22	0xbeb64142	-0.35596663
23	0xbee805c2	-0.45316893
24	0x3f0af49e	0.54279506
25	0xbed38f66	-0.41320342
26	0xbf4025f2	-0.750579
27	0x3e28f952	0.16501358
28	0xbf06e9fb	-0.52700776
29	0x3ea32074	0.31860697
30	0xbe8d27ea	-0.27569515
31	0x3f1bdd1b	0.60884255

decoder.2.weight f4 [1, 32]
0	0x3e464f26	0.1936613
1	0x3e1c116c	0.15241021
2	0x400fa7d5	2.2446187
3	0x3d904c64	0.0704582
4	0x40074496	2.1135612
5	0x3f098382	0.5371629
6	0x3e493bad	0.19651671
7	0x3ecb8419	0.3974922
8	0xbc9c22ab	-0.0190595
9	0x3e94fffa	0.29101545
10	0xbe95b6fd	-0.2924117
11	0x3e87f556	0.26554364
12	0xbe22e72b	-0.15908496
13	0xbba71cab	-0.005099853
14	0x3eb114d4	0.34586203
15	0xbeba075d	-0.36333743
16	0xbc250590	-0.010072127
17	0x3e13df86	0.14440736
18	0x3c7230ea	0.01478217
19	0xbf0e484b	-0.5557906
20	0x3f4d26a3	0.8013708
21	0x3c8390bc	0.016060226
22	0xbe03f856	-0.12887701
23	0x3dfcd094	0.123444706
24	0x3e88a859	0.2669094
25	0x3d3915be	0.04518675
26	0xbfa0e9aa	-1.2571309
27	0xbd93d291	-0.07217897
28	0x3ea04795	0.31304613
29	0x3ea71bfd	0.3263854
30	0x3e3d6b96	0.18498072
31	0xbed00ed4	-0.40636313

exp_avg f4 [32]
0	0xb96667a3	-0.00021973117
1	0xb91435d1	-0.00014134428
2	0x00000000	0.0
3	0x00000000	0.0
4	0xba11929c	-0.00055531575
5	0x00000000	0.0
6	0xb9a8ecec	-0.00032219978
7	0xb9d200d7	-0.00040054947
8	0x00000000	0.0
9	0xba4ca4bd	-0.00078065303
10	0x00000000	0.0
11	0x00000000	0.0
12	0x39a40e6c	0.00031291263
13	0xb93a8a95	-0.00017789968
14	0x00000000	0.0
15	0x00000000	0.0
16	0xb97a2000	-0.00023853779
17	0x3a3b666b	0.00071487454
18	0xba103be4	-0.00055020885
19	0xb9fce7c1	-0.00048237856
20	0x00000000	0.0
21	0xba0e2b67	-0.00054233376
22	0x00000000	0.0
23	0xb9eaf83d	-0.0004481691
24	0x00000000	0.0
25	0x00000000	0.0
26	0x00000000	0.0
27	0xb997cd6a	-0.0002895401
28	0x00000000	0.0
29	0x00000000	0.0
30	0x39d7a985	0.00041134297
31	0x39b98d52	0.00035391242

exp_avg_sq f4 [32]
0	0x382d8dcd	4.1378476e-05
1	0x37f6d3a1	2.9424033e-05
2	0x00000000	0.0
3	0x00000000	0.0
4	0x394a8a71	0.00019315795
5	0x00000000	0.0
6	0x38d1179d	9.970295e-05
7	0x392d2757	0.00016513221
8	0x00000000	0.0
9	0x39df5f2e	0.0004260479
10	0x00000000	0.0
11	0x00000000	0.0
12	0x3942684e	0.00018540138
13	0x37eb37d6	2.8040184e-05
14	0x00000000	0.0
15	0x00000000	0.0
16	0x381ede88	3.7877384e-05
17	0x3a6749af	0.00088229304
18	0x396be577	0.00022496829
19	0x3946bee2	0.00018953861
20	0x00000000	0.0
21	0x396b0fa5	0.00022417174
22	0x00000000	0.0
23	0x395d5b38	0.00021110184
24	0x00000000	0.0
25	0x00000000	0.0
26	0x00000000	0.0
27	0x387dc6c0	6.0505e-05
28	0x00000000	0.0
29	0x00000000	0.0
30	0x39975b56	0.00028869015
31	0x3a54bdec	0.0008115459

exp_avg f4 [32, 1]
0	0xb90fdaf8	-0.00013719115
1	0xb90b5061	-0.00013286016
2	0x00000000	0.0
3	0x00000000	0.0
4	0xb8504b43	-4.9661157e-05
5	0x00000000	0.0
6	0xb8bfea14	-9.15119e-05
7	0xb88b29b8	-6.635807e-05
8	0x00000000	0.0
9	0x37858a7d	1.5919324e-05
10	0x00000000	0.0
11	0x00000000	0.0
12	0xb98e674a	-0.00027161307
13	0xb8244f75	-3.9174647e-05
14	0x00000000	0.0
15	0x00000000	0.0
16	0xb9009519	-0.00012262574
17	0xb93ce952	-0.00018015996
18	0x3893f45a	7.05502e-05
19	0xb885e192	-6.38395e-05
20	0x00000000	0.0
21	0xb864f569	-5.4587992e-05
22	0x00000000	0.0
23	0xb82c3d36	-4.1065003e-05
24	0x00000000	0.0
25	0x00000000	0.0
26	0x00000000	0.0
27	0x37ea54fa	2.7934544e-05
28	0x00000000	0.0
29	0x00000000	0.0
30	0xb9ad61e4	-0.00033070066
31	0xb951f164	-0.00020021718

exp_avg_sq f4 [32, 1]
0	0x3834f71b	4.314548e-05
1	0x380afb26	3.3135664e-05
2	0x00000000	0.0
3	0x00000000	0.0
4	0x39237a3b	0.00015590426
5	0x00000000	0.0
6	0x38b94068	8.833484e-05
7	0x390fb9ce	0.0001370676
8	0x00000000	0.0
9	0x39ad3de3	0.0003304324
10	0x00000000	0.0
11	0x00000000	0.0
12	0x391dcdf2	0.00015049407
13	0x37c5e5cd	2.359124e-05
14	0x00000000	0.0
15	0x00000000	0.0
16	0x38196e1f	3.65806e-05
17	0x3a4a412e	0.0007715401
18	0x392fcddd	0.0001676599
19	0x39210949	0.00015357615
20	0x00000000	0.0
21	0x393b9c7b	0.00017892003
22	0x00000000	0.0
23	0x3931bebc	0.0001695109
24	0x00000000	0.0
25	0x00000000	0.0
26	0x00000000	0.0
27	0x383d51f4	4.5137436e-05
28	0x00000000	0.0
29	0x00000000	0.0
30	0x3975187d	0.00023374143
31	0x3a5c5250	0.00084045995

exp_avg f4 [4]
0	0x3811337d	3.4618646e-05
1	0x3a0c61b9	0.0005355138
2	0xb9930f36	-0.00028049358
3	0x3a2403db	0.0006256678

exp_avg_sq f4 [4]
0	0x3707cfe2	8.0950285e-06
1	0x3982bfc0	0.00024938397
2	0x37cc18cf	2.4330247e-05
3	0x39f46ceb	0.00046620457

exp_avg f4 [4, 32]
0	0xb6ce572e	-6.1494275e-06
1	0xb6caa1bc	-6.0388975e-06
2	0x00000000	0.0
3	0x00000000	0.0
4	0xb71062be	-8.606059e-06
5	0x00000000	0.0
6	0xb72081cf	-9.566967e-06
7	0xb733176f	-1.06746875e-05
8	0x00000000	0.0
9	0xb7093246	-8.1775415e-06
10	0x00000000	0.0
11	0x00000000	0.0
12	0xb7677d02	-1.3797779e-05
13	0xb742ae4b	-1.1603882e-05
14	0x00000000	0.0
15	0x00000000	0.0
16	0xb7071eb1	-8.053773e-06
17	0xb73fe1d7	-1.143707e-05
18	0xb692bc82	-4.3730843e-06
19	0xb69b947e	-4.6366467e-06
20	0x00000000	0.0
21	0xb6db5572	-6.5366557e-06
22	0x00000000	0.0
23	0xb729881e	-1.0104877e-05
24	0x00000000	0.0
25	0x00000000	0.0
26	0x00000000	0.0
27	0xb6d4d230	-6.3425614e-06
28	0x00000000	0.0
29	0x00000000	0.0
30	0xb7848ad0	-1.5800266e-05
31	0x36ed1972	7.0661126e-06
32	0xb67c61df	-3.7607895e-06
33	0xb6733c91	-3.6245076e-06
34	0x00000000	0.0
35	0x00000000	0.0
36	0xb6a5dd8d	-4.943175e-06
37	0x00000000	0.0
38	0xb6b0e28e	-5.271583e-06
39	0xb6c1fe83	-5.7814773e-06
40	0x00000000	0.0
41	0xb6a1cab2	-4.8217707e-06
42	0x00000000	0.0
43	0x00000000	0.0
44	0xb8a27bfd	-7.7478566e-05
45	0xb6ce1c5e	-6.142581e-06
46	0x00000000	0.0
47	0x00000000	0.0
48	0xb69f220c	-4.742533e-06
49	0xb88c5422	-6.691391e-05
50	0xb66237d9	-3.3709132e-06
51	0xb661b380	-3.3632095e-06
52	0x00000000	0.0
53	0xb68b3cca	-4.1495996e-06
54	0x00000000	0.0
55	0xb6bbb9dc	-5.594671e-06
56	0x00000000	0.0
57	0x00000000	0.0
58	0x00000000	0.0
59	0xb68c0163	-4.1724866e-06
60	0x00000000	0.0
61	0x00000000	0.0
62	0xb8b0bf9e	-8.4280255e-05
63	0xb894e0b6	-7.0990456e-05
64	0xb8b22c6c	-8.4959756e-05
65	0xb8ae83e9	-8.321537e-05
66	0x00000000	0.0
67	0x00000000	0.0
68	0xb8feef6b	-0.00012156259
69	0x00000000	0.0
70	0xb90dec6b	-0.0001353488
71	0xb91f21f1	-0.00015176066
72	0x00000000	0.0
73	0xb8f23d83	-0.00011550917
74	0x00000000	0.0
75	0x00000000	0.0
76	0xb90e8752	-0.00013592586
77	0xb92d45e8	-0.00016524608
78	0x00000000	0.0
79	0x00000000	0.0
80	0xb8ec6471	-0.000112720656
81	0xb8f38122	-0.00011611196
82	0xb87b6085	-5.9932954e-05
83	0xb8855a3a	-6.35874e-05
84	0x00000000	0.0
85	0xb8bfc387	-9.1440095e-05
86	0x00000000	0.0
87	0xb91673c4	-0.00014348241
88	0x00000000	0.0
89	0x00000000	0.0
90	0x00000000	0.0
91	0xb8ba196f	-8.8739085e-05
92	0x00000000	0.0
93	0x00000000	0.0
94	0xb91e5eb5	-0.00015103335
95	0xb908f228	-0.00013060181
96	0xb8785f88	-5.9216778e-05
97	0xb872e3a8	-5.7909318e-05
98	0x00000000	0.0
99	0x00000000	0.0
100	0xb8b06fbf	-8.413148e-05
101	0x00000000	0.0
102	0xb8c3b218	-9.331497e-05
103	0xb8db0ef6	-0.000104455205
104	0x00000000	0.0
105	0xb8a80eff	-8.0136575e-05
106	0x00000000	0.0
107	0x00000000	0.0
108	0xb955c46a	-0.00020386433
109	0xb8ee09be	-0.00011350539
110	0x00000000	0.0
111	0x00000000	0.0
112	0xb8a40e7b	-7.8228266e-05
113	0xb937e2f4	-0.00017536787
114	0xb833dce0	-4.288263e-05
115	0xb83d6c1f	-4.5161807e-05
116	0x00000000	0.0
117	0xb8861252	-6.39303e-05
118	0x00000000	0.0
119	0xb8cf847e	-9.895208e-05
120	0x00000000	0.0
121	0x00000000	0.0
122	0x00000000	0.0
123	0xb8829855	-6.227257e-05
124	0x00000000	0.0
125	0x00000000	0.0
126	0xb96a7f11	-0.00022363315
127	0xb95162f3	-0.00019968655

exp_avg_sq f4 [4, 32]
0	0x35241694	6.1127616e-07
1	0x351dc20f	5.876945e-07
2	0x00000000	0.0
3	0x00000000	0.0
4	0x35a60a9f	1.2371055e-06
5	0x00000000	0.0
6	0x35ced2c6	1.5409539e-06
7	0x3601a07e	1.9315917e-06
8	0x00000000	0.0
9	0x3595b4c7	1.1153978e-06
10	0x00000000	0.0
11	0x00000000	0.0
12	0x35bb145a	1.3938509e-06
13	0x3619d42a	2.2922272e-06
14	0x00000000	0.0
15	0x00000000	0.0
16	0x358fea40	1.0722506e-06
17	0x35886dec	1.0164781e-06
18	0x34a0c415	2.994499e-07
19	0x34b5d962	3.3872044e-07
20	0x00000000	0.0
21	0x353bd56a	6.9973487e-07
22	0x00000000	0.0
23	0x35e75362	1.7235109e-06
24	0x00000000	0.0
25	0x00000000	0.0
26	0x00000000	0.0
27	0x3530b437	6.5827356e-07
28	0x00000000	0.0
29	0x00000000	0.0
30	0x35e6cf6b	1.7196702e-06
31	0x35b357aa	1.3362053e-06
32	0x378215a6	1.5507288e-05
33	0x377a11a3	1.4905268e-05
34	0x00000000	0.0
35	0x00000000	0.0
36	0x3803a91c	3.139033e-05
37	0x00000000	0.0
38	0x382401e7	3.910242e-05
39	0x384d95a2	4.9015165e-05
40	0x00000000	0.0
41	0x37ed6997	2.830177e-05
42	0x00000000	0.0
43	0x00000000	0.0
44	0x3807a09c	3.2336087e-05
45	0x3873f7d0	5.8166508e-05
46	0x00000000	0.0
47	0x00000000	0.0
48	0x37e4350f	2.7204425e-05
49	0x37c54721	2.3517352e-05
50	0x36fee7cb	7.596774e-06
51	0x37102cdd	8.593514e-06
52	0x00000000	0.0
53	0x3794efec	1.7754697e-05
54	0x00000000	0.0
55	0x38376e8d	4.373356e-05
56	0x00000000	0.0
57	0x00000000	0.0
58	0x00000000	0.0
59	0x378c1b5f	1.6702046e-05
60	0x00000000	0.0
61	0x00000000	0.0
62	0x3827fe76	4.0052888e-05
63	0x37e003f7	2.6704727e-05
64	0x365434c4	3.1621175e-06
65	0x364c136a	3.040967e-06
66	0x00000000	0.0
67	0x00000000	0.0
68	0x36d6a9b7	6.3974544e-06
69	0x00000000	0.0
70	0x3705b764	7.970117e-06
71	0x37279a97	9.989969e-06
72	0x00000000	0.0
73	0x36c1894b	5.767831e-06
74	0x00000000	0.0
75	0x00000000	0.0
76	0x36fa8a4f	7.466682e-06
77	0x3746e916	1.1855989e-05
78	0x00000000	0.0
79	0x00000000	0.0
80	0x36ba1dcb	5.5467003e-06
81	0x36b6e0de	5.4502007e-06
82	0x35cfc56d	1.548016e-06
83	0x35eb0acf	1.751201e-06
84	0x00000000	0.0
85	0x3672cecb	3.618118e-06
86	0x00000000	0.0
87	0x37158a40	8.913281e-06
88	0x00000000	0.0
89	0x00000000	0.0
90	0x00000000	0.0
91	0x36646db9	3.4038515e-06
92	0x00000000	0.0
93	0x00000000	0.0
94	0x371a5a47	9.200135e-06
95	0x36f9c0a9	7.443207e-06
96	0x37c32735	2.3264069e-05
97	0x37bb8fa9	2.2359034e-05
98	0x00000000	0.0
99	0x00000000	0.0
100	0x384587de	4.7094996e-05
101	0x00000000	0.0
102	0x38760de3	5.8663903e-05
103	0x389a3790	7.3536416e-05
104	0x00000000	0.0
105	0x383218c1	4.246156e-05
106	0x00000000	0.0
107	0x00000000	0.0
108	0x38485d48	4.777059e-05
109	0x38b701d4	8.7264605e-05
110	0x00000000	0.0
111	0x00000000	0.0
112	0x382b2deb	4.081234e-05
113	0x3811a821	3.4727276e-05
114	0x373f3a58	1.1398071e-05
115	0x37585106	1.2893468e-05
116	0x00000000	0.0
117	0x37df74ed	2.663812e-05
118	0x00000000	0.0
119	0x388999c2	6.561309e-05
120	0x00000000	0.0
121	0x00000000	0.0
122	0x00000000	0.0
123	0x37d23492	2.505843e-05
124	0x00000000	0.0
125	0x00000000	0.0
126	0x38785543	5.9207214e-05
127	0x3821ff56	3.862319e-05

exp_avg f4 [32, 4]
0	0x391f24a4	0.00015177071
1	0x3810ab98	3.4492085e-05
2	0xb9393cbd	-0.00017665602
3	0xb8a5d4de	-7.907463e-05
4	0x38f9ec0c	0.000119172124
5	0x37e32acc	2.7080438e-05
6	0xb911739b	-0.00013871344
7	0xb8823927	-6.2095285e-05
8	0xb9290776	-0.00016119875
9	0xb7e08c11	-2.6768104e-05
10	0x397de649	0.00024213748
11	0x38d5e93e	0.00010200076
12	0x80000004	-6e-45
13	0x00000004	6e-45
14	0x80000004	-6e-45
15	0x00000004	6e-45
16	0x39541d71	0.00020228863
17	0x38983f3a	7.259702e-05
18	0xb9404d44	-0.0001833933
19	0xb882279e	-6.206262e-05
20	0x381c5ed2	3.7281607e-05
21	0x37a8e23e	2.0132513e-05
22	0xb8268549	-3.9701616e-05
23	0xb5e9ccd5	-1.7419467e-06
24	0x392186ed	0.0001540442
25	0x3812d6b0	3.5009056e-05
26	0xb93c038f	-0.00017930403
27	0xb8a85045	-8.0258156e-05
28	0x3967e82d	0.00022116369
29	0x381ffeb2	3.8145758e-05
30	0xb98b7bc2	-0.00026604353
31	0xb90c9205	-0.00013405837
32	0x00000000	0.0
33	0x00000000	0.0
34	0x00000000	0.0
35	0x00000000	0.0
36	0x394ba19e	0.00019419796
37	0x382a4cd7	4.060272e-05
38	0xb970408f	-0.00022912234
39	0xb8dfd12c	-0.0001067243
40	0xb757e5ec	-1.28685315e-05
41	0xb709952c	-8.200568e-06
42	0x3779caba	1.48887575e-05
43	0xb59c0e21	-1.1627018e-06
44	0x34ff34e4	4.7535934e-07
45	0x3700a04e	7.666718e-06
46	0xb788e7ad	-1.6320346e-05
47	0x37260e95	9.897766e-06
48	0x00000000	0.0
49	0x00000000	0.0
50	0x00000000	0.0
51	0x00000000	0.0
52	0x00000000	0.0
53	0x00000000	0.0
54	0x00000000	0.0
55	0x00000000	0.0
56	0x3982fd3f	0.00024984215
57	0x38607ef4	5.3523996e-05
58	0xb9987ca3	-0.0002908456
59	0xb90da60c	-0.00013508665
60	0xb722fc39	-9.714678e-06
61	0xb70e663f	-8.487666e-06
62	0x373efd21	1.1383819e-05
63	0xb68f9511	-4.2790857e-06
64	0x00000000	0.0
65	0x00000000	0.0
66	0x00000000	0.0
67	0x00000000	0.0
68	0x38d7bed9	0.00010287547
69	0x37baddf0	2.2276276e-05
70	0xb8fb655a	-0.00011987491
71	0xb867d567	-5.527344e-05
72	0x373111f9	1.0554207e-05
73	0x3620587e	2.3893367e-06
74	0xb74e493d	-1.2295609e-05
75	0xb6b906c1	-5.514216e-06
76	0xb7aaf43a	-2.0379306e-05
77	0xb7880f27	-1.621952e-05
78	0x37c3c37c	2.3336841e-05
79	0xb6e02f46	-6.6812236e-06
80	0x3808c56f	3.26088e-05
81	0x374a3155	1.2051624e-05
82	0xb831e59a	-4.241392e-05
83	0xb72cece1	-1.0307152e-05
84	0x00000000	0.0
85	0x00000000	0.0
86	0x00000000	0.0
87	0x00000000	0.0
88	0x00000000	0.0
89	0x00000000	0.0
90	0x00000000	0.0
91	0x00000000	0.0
92	0x00000000	0.0
93	0x00000000	0.0
94	0x00000000	0.0
95	0x00000000	0.0
96	0x3839420b	4.4168944e-05
97	0x37960140	1.7881976e-05
98	0xb8496715	-4.8018137e-05
99	0xb738b632	-1.1009675e-05
100	0x00000000	0.0
101	0x00000000	0.0
102	0x00000000	0.0
103	0x00000000	0.0
104	0xba88be7a	-0.0010432743
105	0xb96bc6a3	-0.00022485344
106	0x3a9f70a6	0.0012164309
107	0x3a133190	0.00056149904
108	0xb875c78d	-5.8598398e-05
109	0xb7471c94	-1.1867978e-05
110	0x3888d13d	6.523959e-05
111	0x38083a7c	3.2479395e-05
112	0x3946234b	0.00018895899
113	0x381b2863	3.6992493e-05
114	0xb96d78e5	-0.00022647118
115	0xb8e240ef	-0.000107886146
116	0x3781c1bb	1.5468211e-05
117	0x36e2c070	6.7577275e-06
118	0xb7a506e2	-1.9672738e-05
119	0xb65d76d7	-3.300074e-06
120	0x390fc4d5	0.00013710868
121	0x37f69cdd	2.939853e-05
122	0xb925fbe0	-0.00015829457
123	0xb89b2c88	-7.3992705e-05
124	0xb73aa1eb	-1.1124163e-05
125	0xb734b9ca	-1.0772093e-05
126	0x3756ffed	1.2814981e-05
127	0xb6d9e703	-6.4939973e-06

exp_avg_sq f4 [32, 4]
0	0x36247442	2.4505575e-06
1	0x342afaca	1.592372e-07
2	0x365d2246	3.2951516e-06
3	0x352eb6d1	6.5086084e-07
4	0x35d3a42f	1.5768509e-06
5	0x33dc57ef	1.0260543e-07
6	0x360e4950	2.1202322e-06
7	0x34e0e554	4.189011e-07
8	0x37da610a	2.6032812e-05
9	0x361f9c5a	2.3783855e-06
10	0x37f7f1b8	2.9557254e-05
11	0x36925429	4.3609366e-06
12	0x209d0524	2.6600236e-19
13	0x2277dbe4	3.3591151e-18
14	0x22fd54ee	6.866571e-18
15	0x23887ba7	1.4797518e-17
16	0x37f74465	2.9476543e-05
17	0x36312d51	2.6401433e-06
18	0x380fc691	3.4278786e-05
19	0x36aa19f7	5.0694175e-06
20	0x359bce55	1.160845e-06
21	0x3417767b	1.4106074e-07
22	0x3589fb45	1.0280424e-06
23	0x35397625	6.9089793e-07
24	0x3630cb1f	2.6344276e-06
25	0x34381974	1.7145595e-07
26	0x366db271	3.5419619e-06
27	0x353be3cd	6.999442e-07
28	0x371d5baa	9.379271e-06
29	0x351eb6a7	5.912538e-07
30	0x375daacf	1.3212396e-05
31	0x361a3312	2.2977515e-06
32	0x00000000	0.0
33	0x00000000	0.0
34	0x00000000	0.0
35	0x00000000	0.0
36	0x36b96026	5.524623e-06
37	0x34bf6169	3.5647398e-07
38	0x3701579e	7.709399e-06
39	0x35b289a2	1.330209e-06
40	0x350de180	5.285474e-07
41	0x33546e00	4.946014e-08
42	0x350000bb	4.768478e-07
43	0x34829d8c	2.4329017e-07
44	0x315999e0	3.1665124e-09
45	0x3310d7f6	3.3724028e-08
46	0x33ea8209	1.09201274e-07
47	0x33be544f	8.8629e-08
48	0x00000000	0.0
49	0x00000000	0.0
50	0x00000000	0.0
51	0x00000000	0.0
52	0x00000000	0.0
53	0x00000000	0.0
54	0x00000000	0.0
55	0x00000000	0.0
56	0x37094bac	8.183455e-06
57	0x350fd4f3	5.3581533e-07
58	0x373e05cb	1.1326231e-05
59	0x3602b83a	1.9478744e-06
60	0x355b9597	8.180154e-07
61	0x33a46dc7	7.6568135e-08
62	0x35466a39	7.391532e-07
63	0x34c9b31d	3.756949e-07
64	0x00000000	0.0
65	0x00000000	0.0
66	0x00000000	0.0
67	0x00000000	0.0
68	0x35bc46ea	1.402773e-06
69	0x33c2f30d	9.07804e-08
70	0x36032fa4	1.9548252e-06
71	0x34b4fa1f	3.37096e-07
72	0x32fb37b8	2.9245584e-08
73	0x31057967	1.9423056e-09
74	0x3328bd66	3.9287805e-08
75	0x3205ed88	7.795627e-09
76	0x35cff609	1.5494307e-06
77	0x342bed13	1.6011863e-07
78	0x35b9ad90	1.3834087e-06
79	0x3553cd29	7.890217e-07
80	0x33dc5a0b	1.0260927e-07
81	0x347dd2d7	2.3639164e-07
82	0x35466beb	7.391779e-07
83	0x354846da	7.460891e-07
84	0x00000000	0.0
85	0x00000000	0.0
86	0x00000000	0.0
87	0x00000000	0.0
88	0x00000000	0.0
89	0x00000000	0.0
90	0x00000000	0.0
91	0x00000000	0.0
92	0x00000000	0.0
93	0x00000000	0.0
94	0x00000000	0.0
95	0x00000000	0.0
96	0x3417e3ec	1.4145888e-07
97	0x32ec4cf2	2.7509007e-08
98	0x3414af2c	1.3847301e-07
99	0x340846c5	1.2691733e-07
100	0x00000000	0.0
101	0x00000000	0.0
102	0x00000000	0.0
103	0x00000000	0.0
104	0x38933dda	7.021027e-05
105	0x368c80b8	4.18731e-06
106	0x38d34438	0.00010073971
107	0x37964cf4	1.7917228e-05
108	0x34a82b76	3.132406e-07
109	0x32aedd11	2.0356795e-08
110	0x34e44a08	4.2522174e-07
111	0x33a98f43	7.895735e-08
112	0x36d301dc	6.2885065e-06
113	0x34d8d74d	4.0389787e-07
114	0x371387a5	8.793465e-06
115	0x35cbef1e	1.5194271e-06
116	0x32049cde	7.719079e-09
117	0x332d0938	4.0288086e-08
118	0x3409dec5	1.2840162e-07
119	0x33f7f851	1.1547002e-07
120	0x361edd38	2.36726e-06
121	0x34269d09	1.5517084e-07
122	0x365ba6d8	3.2730659e-06
123	0x35171fc9	5.6298137e-07
124	0x3565dd0a	8.56308e-07
125	0x33ba9fc3	8.6903604e-08
126	0x354d32dd	7.6442467e-07
127	0x34e66320	4.291296e-07

exp_avg f4 [32]
0	0xb868d504	-5.5511497e-05
1	0xb836be79	-4.3569573e-05
2	0xb8e1ae4f	-0.000107613036
3	0x00000004	6e-45
4	0xb9a9e8d5	-0.00032407665
5	0xb841d02b	-4.6208657e-05
6	0xb86c49f5	-5.6335663e-05
7	0xb7d02aa7	-2.4815394e-05
8	0x00000000	0.0
9	0xb87c1471	-6.010052e-05
10	0x377ea808	1.5178703e-05
11	0x3834668a	4.301084e-05
12	0x00000000	0.0
13	0x00000000	0.0
14	0xb8bb45fa	-8.929889e-05
15	0x3775bcdf	1.4647113e-05
16	0x00000000	0.0
17	0xb82618e1	-3.9600654e-05
18	0xb67c8812	-3.763013e-06
19	0x380264bc	3.108823e-05
20	0x37b30555	2.1340946e-05
21	0x00000000	0.0
22	0x00000000	0.0
23	0x00000000	0.0
24	0xb836306f	-4.343729e-05
25	0x00000000	0.0
26	0x39bc8c19	0.00035962535
27	0x37fbf7c9	3.0036916e-05
28	0xb81e371b	-3.7721456e-05
29	0xb5e0c489	-1.67465e-06
30	0xb8623e5c	-5.3940676e-05
31	0x37a71b62	1.9920702e-05

exp_avg_sq f4 [32]
0	0x35cfbc9f	1.5477598e-06
1	0x3585e2bf	9.975264e-07
2	0x37f15476	2.8768769e-05
3	0x25b11928	3.0721652e-16
4	0x37f25057	2.888606e-05
5	0x371563ca	8.904326e-06
6	0x35dfe239	1.6680634e-06
7	0x35c3e994	1.4596612e-06
8	0x00000000	0.0
9	0x358e6c9d	1.0611435e-06
10	0x3636779b	2.7189733e-06
11	0x35b9402f	1.3802254e-06
12	0x00000000	0.0
13	0x00000000	0.0
14	0x35f68206	1.836627e-06
15	0x368cd07a	4.196595e-06
16	0x00000000	0.0
17	0x34946b98	2.7645433e-07
18	0x32a2ab72	1.8937246e-08
19	0x371dc6f0	9.404248e-06
20	0x3749a009	1.2017795e-05
21	0x00000000	0.0
22	0x00000000	0.0
23	0x00000000	0.0
24	0x35f7d078	1.8463606e-06
25	0x00000000	0.0
26	0x36e17350	6.7189467e-06
27	0x3416683e	1.4007762e-07
28	0x359b2d21	1.1561534e-06
29	0x35f744a5	1.8422912e-06
30	0x3510f6a6	5.40031e-07
31	0x36a9e706	5.063487e-06

exp_avg f4 [1, 32]
0	0xba5bd5b7	-0.0008386033
1	0xba504607	-0.0007945005
2	0xb80d7c7b	-3.373295e-05
3	0x00000004	6e-45
4	0xb7a6dcac	-1.98915e-05
5	0xb88a3433	-6.590076e-05
6	0xb9baf87e	-0.00035661826
7	0xb9d08e52	-0.00039778888
8	0x00000000	0.0
9	0xb98b3314	-0.00026550202
10	0x371d2330	9.366122e-06
11	0x38ef1e51	0.00011402055
12	0x00000000	0.0
13	0x00000000	0.0
14	0xb97161dc	-0.00023020006
15	0x3738d45d	1.1016699e-05
16	0x00000000	0.0
17	0xb98bc3a9	-0.00026657924
18	0xb99b6d3a	-0.00029645284
19	0x379e3d6e	1.8863673e-05
20	0x38674152	5.5135526e-05
21	0x00000000	0.0
22	0x00000000	0.0
23	0x00000000	0.0
24	0xb743e8fc	-1.1677152e-05
25	0x00000000	0.0
26	0xb8bc862d	-8.989531e-05
27	0xb9089aff	-0.00013027711
28	0xb9a33b05	-0.00031133756
29	0x385e815e	5.3049407e-05
30	0xb9bd8bae	-0.0003615296
31	0x37ad33e6	2.0647374e-05

exp_avg_sq f4 [1, 32]
0	0x38a88d33	8.037165e-05
1	0x389edc40	7.575052e-05
2	0x33596afe	5.062156e-08
3	0x209546b9	2.5288382e-19
4	0x33095955	3.1979045e-08
5	0x35ca42e1	1.5069637e-06
6	0x37803725	1.5284468e-05
7	0x378ded0a	1.691889e-05
8	0x00000000	0.0
9	0x3726db65	9.945453e-06
10	0x374cc22e	1.22045585e-05
11	0x36a1e3ea	4.8247066e-06
12	0x00000000	0.0
13	0x00000000	0.0
14	0x370715fe	8.0517475e-06
15	0x37722f61	1.4435355e-05
16	0x00000000	0.0
17	0x372645a1	9.910583e-06
18	0x37848344	1.5796752e-05
19	0x37ac2c64	2.0524669e-05
20	0x37a7d594	2.0007406e-05
21	0x00000000	0.0
22	0x00000000	0.0
23	0x00000000	0.0
24	0x37025dfe	7.770488e-06
25	0x00000000	0.0
26	0x35ac5b8b	1.2841641e-06
27	0x3658c6e5	3.230228e-06
28	0x37619467	1.3445598e-05
29	0x3724963e	9.810143e-06
30	0x379c5958	1.8638253e-05
31	0x37cfbfe8	2.4765686e-05
