server_report/ae_compress/ae_hexa_log_32/autoencoder_20260127_193711.pth (torch, 397486 bytes, 51 tensors)

enc1.kernel0 f4 [8, 1, 5, 1]
0	0x3f6afbd7	0.9179053
1	0x3e5c5622	0.21517232
2	0xbd8702ef	-0.065923564
3	0xbef69e7e	-0.48167795
4	0xbf1dbd0c	-0.6161659
5	0x3e5c71c3	0.21527772
6	0xbe3a02af	-0.18165086
7	0xbd37250d	-0.04471307
8	0x3e972fe7	0.29528734
9	0x3db10cb6	0.086450025
10	0xbe0fb672	-0.14034441
11	0xbf0b6d3d	-0.5446356
12	0x3e72172b	0.2364165
13	0x3eb85082	0.35998923
14	0xbeeaa233	-0.45826873
15	0xbd72e2cb	-0.059298318
16	0x3dd33a93	0.103139065
17	0xbe1e086f	-0.15432905
18	0x3e532d48	0.20622742
19	0x3e136a47	0.1439601
20	0x3e053d76	0.13011727
21	0xbe9174b2	-0.28409344
22	0xbeaa3796	-0.33245534
23	0xbd729caf	-0.059231456
24	0x3ea4c2c0	0.32179832
25	0x3e737f26	0.23778972
26	0xbd499505	-0.04921438
27	0xbed3faf8	-0.4140241
28	0xbe0d5c34	-0.13804704
29	0x3e04f6d6	0.12984785
30	0xbe66150b	-0.22468965
31	0x3ecf5a61	0.4049864
32	0xbe0db9cb	-0.13840406
33	0xbf00c309	-0.502976
34	0xbe055c3c	-0.13023466
35	0xbeb24ef7	-0.3482587
36	0x3edb5f57	0.42846176
37	0x3e39a187	0.18128024
38	0xbd4fc802	-0.05072785
39	0xbf7902d5	-0.97269946

enc1.kernel1 f4 [8, 1, 4, 2]
0	0x3f56a094	0.8383877
1	0xbea90383	-0.33010492
2	0x3f294977	0.66127723
3	0xbeb96b2d	-0.3621458
4	0x3f04f11e	0.51930416
5	0xbe3c729e	-0.18403098
6	0x3e905bf6	0.2819516
7	0xbee655a8	-0.44987226
8	0xbdee0059	-0.1162116
9	0xbdc004d4	-0.09375921
10	0xbe96c458	-0.29446673
11	0xbebfb58d	-0.374432
12	0x3e1de5d2	0.154197
13	0xbc541ed8	-0.012946807
14	0x3e93466b	0.28764662
15	0x3ebb1175	0.36536756
16	0xbede9cc0	-0.43478966
17	0x3cf4507f	0.02982354
18	0x3f324da5	0.69649726
19	0x3e31aa2b	0.1735007
20	0x3eeeea73	0.46663246
21	0xbe3b0c0d	-0.18266316
22	0x3ddaf5ba	0.106914
23	0xbf2a0e9b	-0.66428536
24	0x3dc2e5bd	0.09516475
25	0x3c70aab2	0.014689134
26	0x3e848d54	0.25889075
27	0x3e81341b	0.25235066
28	0x3e5994f0	0.21248221
29	0x3ea4e757	0.32207748
30	0x3e20997e	0.15683553
31	0x3e4e33a2	0.20136884
32	0x3e954e2e	0.2916121
33	0xbeab5014	-0.33459532
34	0x3e81afce	0.2532944
35	0xbeb7b02d	-0.358766
36	0x3ee2cb54	0.44295752
37	0xbee8de08	-0.45481896
38	0x3f122d75	0.5710061
39	0xbec71d5f	-0.38889596
40	0xbbda6b40	-0.006665617
41	0x3e9c2368	0.30495763
42	0xbe8e0591	-0.27738622
43	0x3e29a148	0.1656543
44	0xbe9c9659	-0.30583456
45	0x3e1084b8	0.14113128
46	0xbd16ecfb	-0.036847096
47	0x3e2d6dcc	0.16936415
48	0xbdf88191	-0.12134088
49	0x3e5d94b3	0.21638756
50	0x3f0ca582	0.54940045
51	0xbea19f4e	-0.31566852
52	0x3e3598fb	0.17734139
53	0xbf367c86	-0.7128376
54	0xbfb53dd5	-1.4159495
55	0xbe6a224f	-0.2286465
56	0x3d5a0781	0.053229813
57	0x3dfa1bbf	0.122123234
58	0x3dfa41c2	0.122195736
59	0x3ee15b2e	0.44014877
60	0x3daa2f33	0.08309784
61	0x3e73573d	0.23763748
62	0xbe9382ff	-0.2881088
63	0xbd34d037	-0.04414388

enc1.kernel2 f4 [8, 1, 3, 2]
0	0xbed1e0f2	-0.40991932
1	0xbec10d90	-0.3770566
2	0x3e3d0b3e	0.1846132
3	0xbe78ccc4	-0.24296862
4	0x3ecec389	0.40383556
5	0xbd342db3	-0.043988895
6	0xbe369131	-0.17828824
7	0xbe813769	-0.25237587
8	0x3dbfa61d	0.093578555
9	0xbd40d977	-0.04708239
10	0x3df16a58	0.117878616
11	0x3ebd6d35	0.3699738
12	0xbeb3a0ac	-0.3508352
13	0x3f100768	0.562613
14	0xbe4d2fe1	-0.20037796
15	0x3f2e69a4	0.68129945
16	0x3f02dc12	0.5111705
17	0xbec0b5db	-0.37638745
18	0xbd3a0b6c	-0.04542105
19	0x3e92306e	0.28552574
20	0x3e5a8f74	0.21343786
21	0xbdc92da5	-0.09823159
22	0x3e437ca0	0.1909051
23	0xbd75f9d3	-0.060052704
24	0x3e868c04	0.26278698
25	0xbee04fc4	-0.43810856
26	0x3f00c895	0.50306064
27	0xbe72a3ee	-0.23695347
28	0x3f0e665a	0.55624926
29	0xbec5263d	-0.38505736
30	0xbddc705d	-0.10763619
31	0x3e4e9ec7	0.20177756
32	0xbde2849b	-0.11060449
33	0x3eef5d51	0.46750882
34	0xbe853b81	-0.2602196
35	0x3ea92512	0.33036095
36	0x3f261fa7	0.6489205
37	0x3c78b17a	0.015179032
38	0x3f976b2c	1.1829581
39	0xbf3d6b38	-0.7399173
40	0xbec550c0	-0.3853817
41	0x3eaf8ab4	0.3428551
42	0x3f3d2437	0.73883384
43	0x3dd948d6	0.106095955
44	0x3d387ab8	0.04503891
45	0x3d757cf0	0.059933603
46	0x3e6daa3a	0.23209468
47	0x3efc8b89	0.49325207

enc1.bias_tensor f4 [8]
0	0x3b0bbd7f	0.0021322665
1	0xb8f82c4e	-0.00011833814
2	0x3b445d23	0.002996274
3	0x3bd78e5f	0.0065782513
4	0xbbe33160	-0.006933376
5	0x3b3fd5ba	0.0029271678
6	0xb8038927	-3.1360567e-05
7	0x3b0eeef4	0.0021809908

enc2.kernel0 f4 [4, 8, 3, 1]
0	0x3d332663	0.04373778
1	0x3dc41732	0.09574737
2	0x3d3bd8ed	0.045861173
3	0xbe0ec020	-0.13940477
4	0x3e4ae547	0.19814025
5	0x3d2319d4	0.039819553
6	0x3a4d12d1	0.0007822933
7	0x3d321b08	0.04348281
8	0x3bc69cd0	0.006061174
9	0xbc86b30d	-0.0164428
10	0x3eeb6e77	0.45982715
11	0xbb894dd0	-0.004190184
12	0x3d8b0abd	0.067891575
13	0x3d9a6d14	0.07540336
14	0x3db016a1	0.08598066
15	0xbda3c3e2	-0.07996346
16	0xbdd8ed81	-0.10592175
17	0xbd3b9ce7	-0.04580393
18	0x3d19f4dd	0.037587035
19	0x3d27bad8	0.040949672
20	0x3cbe4b88	0.023229375
21	0xbd9274cf	-0.07151186
22	0x3df134c2	0.11777641
23	0x3d39c2a3	0.045351636
24	0x3c2c7292	0.010525363
25	0xbd5b788e	-0.053581767
26	0xbd0d1441	-0.034443144
27	0x3eb000a2	0.34375483
28	0x3db41401	0.08792878
29	0xbe89fa54	-0.26948798
30	0x3ddb002b	0.106933914
31	0x3c8100d0	0.015747458
32	0xbd8a2e65	-0.0674713
33	0x3dd1d7e0	0.10246253
34	0xbe145ed3	-0.14489298
35	0xbea659c1	-0.32490352
36	0xbd842f5a	-0.06454344
37	0xbd6a237a	-0.05716274
38	0xbc597e4d	-0.013274741
39	0x3dc81308	0.09769255
40	0x3e2f8718	0.17141378
41	0xbde8739f	-0.11350178
42	0x3d35af78	0.044356793
43	0xbcc45ad4	-0.023969091
44	0xbc528c4d	-0.012850833
45	0x3e1aa949	0.1510364
46	0x3e1a27e0	0.15054274
47	0xbcf07f57	-0.029357595
48	0xbd28ff1d	-0.04125892
49	0x3c9e466b	0.019320687
50	0x3da854c2	0.08219291
51	0xbea75cf2	-0.326881
52	0xbe9a5522	-0.30143076
53	0x3eb96711	0.36211446
54	0xbe06e308	-0.13172543
55	0xbd978cf4	-0.073999316
56	0x3de2b330	0.110693336
57	0xbe5df494	-0.2167533
58	0xbe368e70	-0.17827773
59	0x3ec5e36a	0.38650066
60	0xbcee51c2	-0.02909172
61	0x3c75814f	0.014984443
62	0x3d4709c1	0.048593286
63	0xbdca39b1	-0.09874285
64	0xbe141bbd	-0.14463706
65	0xbd90ea6b	-0.07075962
66	0xbd4ebc3e	-0.05047249
67	0xbe15c2bd	-0.14625068
68	0x3da75447	0.081703715
69	0xbe0c4c1a	-0.13700905
70	0xbd44f7db	-0.048087936
71	0x3e0a80af	0.13525651
72	0x3dacf0e9	0.084443875
73	0x3de14cfb	0.11001011
74	0x3db11b31	0.086477645
75	0x3d5de4b8	0.0541732
76	0x3e0b71b2	0.1361759
77	0x3d83721d	0.0641825
78	0xbdb4f69f	-0.08836102
79	0x3d6f0224	0.05835165
80	0x3daaa5a9	0.083323784
81	0xbe2e6db2	-0.17034033
82	0xbe9f1efe	-0.31078333
83	0x3d176754	0.036963776
84	0x3d37700f	0.0447846
85	0xbd4bdc8c	-0.049770877
86	0x3ca91255	0.020638624
87	0x3e33da42	0.17563727
88	0x3ea2ba31	0.31782678
89	0x3e299227	0.16559659
90	0x3c47b653	0.012189466
91	0x3d5c2584	0.053746715
92	0x3d46b0fe	0.048508637
93	0x3d9cb19c	0.07651064
94	0xbb80d5fb	-0.0039317585
95	0xbd813678	-0.06309217

enc2.kernel1 f4 [4, 8, 2, 2]
0	0x3d4628aa	0.048378624
1	0x3d0a5a20	0.033777356
2	0x3df51797	0.1196739
3	0xbd417c43	-0.047237646
4	0x3e128299	0.14307632
5	0x3d7dd1b5	0.06196757
6	0x3e2c40c4	0.16821581
7	0x3e0ae8ee	0.13565418
8	0x3d39b040	0.0453341
9	0x3d8ae127	0.06781226
10	0x3dbfde34	0.09368554
11	0xbb83d06d	-0.004022649
12	0xbc8462a1	-0.016160311
13	0x3cb99244	0.022652753
14	0x3d1a8cf3	0.037732076
15	0x3c44a83a	0.012002999
16	0x3cf8fb79	0.030393349
17	0xbd70d081	-0.058792595
18	0xbe1d6ee2	-0.1537433
19	0x3d022762	0.03177584
20	0x3d89bf37	0.067259245
21	0xbcfd2f1b	-0.03090625
22	0x3e5463c8	0.20741189
23	0xbdeb6b4b	-0.11495074
24	0x3b4ab40c	0.003093007
25	0x3d364949	0.044503484
26	0x3d8eeaa2	0.069783464
27	0xbcd3398e	-0.02578428
28	0x3d341ed7	0.043974724
29	0x3d575a5c	0.052576408
30	0x3d93ff03	0.07226374
31	0x3d890397	0.06690138
32	0x3db9267e	0.09040545
33	0xbd314006	-0.043273948
34	0x3bba7b70	0.0056909844
35	0xbda91b36	-0.08257143
36	0x3e205c72	0.15660265
37	0x3e079a88	0.13242543
38	0xbde1cc0f	-0.11025249
39	0x3ce35c07	0.027753843
40	0x3d542ace	0.051798634
41	0x3c07584d	0.008260799
42	0xbd2ddba2	-0.042445786
43	0x3d319701	0.0433569
44	0x3eb726c8	0.35771775
45	0x3da4ded7	0.08050316
46	0xbd916c0c	-0.071006864
47	0xbdaf197e	-0.08549784
48	0xbe1d2f98	-0.15350187
49	0x3e1303a3	0.14356856
50	0x3c2a9e90	0.010413781
51	0x3bd0755f	0.006361648
52	0x3d58bd89	0.05291513
53	0xbda3edbb	-0.08004328
54	0xbdcd24e8	-0.10016805
55	0x3e0c7041	0.13714696
56	0x3df3ce75	0.11904613
57	0xbcb3ec73	-0.021963334
58	0x3d097233	0.033556174
59	0xbd4bc939	-0.049752448
60	0x3dd2ca64	0.10292509
61	0x3d2c089d	0.0420004
62	0xbd862451	-0.065498956
63	0x3d45354e	0.04814654
64	0xbe0d1d29	-0.13780655
65	0x3c983916	0.018581908
66	0xbbb92b03	-0.0056508793
67	0x3db1b8d4	0.08677831
68	0xbd116c4f	-0.03550368
69	0xbd680c13	-0.05665214
70	0x3e668f52	0.2251561
71	0x3e91d161	0.28480056
72	0xbd8c80ee	-0.06860529
73	0x3be44926	0.006966728
74	0x3d63b8ca	0.05559615
75	0x3dd7fb3d	0.10545967
76	0xbcfa02fd	-0.030519003
77	0xbdf1e1cc	-0.118106455
78	0xbe202c0d	-0.15641804
79	0x3c585d7e	0.013205884
80	0xbca4f929	-0.02013834
81	0xbe1b03b2	-0.15138128
82	0x3db243eb	0.087043606
83	0xbcb0521c	-0.021523528
84	0x3db71a55	0.08940569
85	0xbd5956e0	-0.053061366
86	0x3d6f423a	0.058412768
87	0xbb4b2f88	-0.0031003673
88	0xbba53930	-0.0050422177
89	0xbd82426a	-0.06360324
90	0xbcffcbd0	-0.031225115
91	0x3d163d15	0.036679346
92	0xbd9080d0	-0.07055819
93	0xbdc0be3a	-0.09411283
94	0x3e1c0fef	0.15240453
95	0x3ce34abf	0.027745603
96	0xbdf67f54	-0.12036005
97	0x3deff7c6	0.11717181
98	0xbd3b01b3	-0.045655917
99	0x3e23fa16	0.16013369
100	0xbe23d777	-0.16000162
101	0xbd6b1ad6	-0.05739864
102	0xbdf9d62b	-0.121990524
103	0xbd8d9c40	-0.06914568
104	0x3c8c2977	0.017109616
105	0xbd23ad5a	-0.039960243
106	0xbcbc6be3	-0.023000663
107	0x3c897154	0.016777672
108	0xbd5e992d	-0.0543453
109	0x3e27b352	0.16376999
110	0xbd664b31	-0.056224052
111	0x3e2e0613	0.16994505
112	0xbc9c6b17	-0.019094033
113	0x3e7416f9	0.23836888
114	0xbd33166b	-0.04372255
115	0x3e8856b0	0.26628637
116	0x3c0284ba	0.007966215
117	0xbdcdae90	-0.10043061
118	0x3c4944a0	0.012284428
119	0xbdbe259a	-0.09284516
120	0xbdb5b99b	-0.08873292
121	0x3d9b9470	0.075966716
122	0xbc4323a4	-0.011910353
123	0x3d702d1e	0.058636777
124	0xbdb66bc9	-0.08907277
125	0xbd64831b	-0.055789094
126	0xbd26c455	-0.04071458
127	0x3d1bef53	0.038070034

enc2.bias_tensor f4 [4]
0	0xbb320ca6	-0.0027168184
1	0x3b748bbc	0.0037314733
2	0x3e91ad02	0.28452307
3	0x3bd7eaf1	0.0065892865

fc_enc.weight f4 [32, 468]
0	0x3c8252d3	0.015908634
1	0x3c7613c2	0.015019359
2	0xbf530af7	-0.82438606
3	0xbdf35477	-0.11881345
4	0x3e4e89b9	0.20169725
5	0xbcc7694c	-0.024342202
6	0x3c529811	0.012853638
7	0xbe3f9b5b	-0.18711607
8	0x3ccb3b37	0.02480851
9	0xbd8df113	-0.06930747
10	0x3cebf2a4	0.028802224
11	0xbbdc4d46	-0.006723079
12	0x3db8d343	0.0902467
13	0x3c5418ea	0.012945393
14	0xbe92346e	-0.28555626
15	0x3e9fceb5	0.31212392
16	0x3caac976	0.020848017
17	0x3c5ff36d	0.013668877
18	0xbc117ff6	-0.008880606
19	0x3d376481	0.044773582
20	0x3d63568f	0.05550247
21	0x3ea0bd48	0.3139441
22	0xbe484719	-0.19558372
23	0xbcb6dbbb	-0.022321573
24	0xbe1a09bb	-0.15042774
25	0x3e13d99a	0.14438477
26	0xbcfa3f61	-0.0305478
27	0x3ca774d8	0.020441458
28	0xbe1ebb91	-0.15501238
29	0x3d99137b	0.07474419
30	0xbde02a0a	-0.10945518
31	0xbd364c86	-0.044506572
32	0xbdb92495	-0.090401806
33	0x3d0002da	0.03125272
34	0xbe12cb7d	-0.14335437
35	0xbdaf23e5	-0.08551768
36	0x3e1448dc	0.14480919
37	0xbcc82ce5	-0.02443547
38	0x3d9e8e34	0.07741967
39	0xbe4d0e0c	-0.2002489
40	0x3dd93f1c	0.1060774
41	0x3df16757	0.11787289
42	0x3ddabda6	0.10680704
43	0x3cd31008	0.02576448
44	0xbd19900f	-0.0374909
45	0x3e2c5241	0.16828252
46	0xbd48cd87	-0.04902413
47	0x3e57b81c	0.21066326
48	0x3dc8ab34	0.097982794
49	0xbe7cb198	-0.24677122
50	0x3e7ba059	0.24572887
51	0xbdd826c2	-0.105542675
52	0xbe6083ef	-0.21925329
53	0x383f15c5	4.5558223e-05
54	0x3cc94494	0.024568833
55	0x3e3e559f	0.1858735
56	0xbeb6f030	-0.35730124
57	0x3d7d67f3	0.06186671
58	0xbd550e0d	-0.052015353
59	0xbb51ad46	-0.0031994148
60	0x3a10f039	0.000552896
61	0xbe199d3d	-0.15001388
62	0x3a96d88c	0.0011508628
63	0x3da4eb44	0.08052686
64	0xbe1b01aa	-0.15137354
65	0xbe1287f7	-0.14309679
66	0x3e935496	0.2877547
67	0x3b925626	0.004465836
68	0x3d3d8ce3	0.04627694
69	0xbdab08ef	-0.08351313
70	0x3e285a58	0.16440713
71	0xbe3d10d4	-0.1846345
72	0xbe232631	-0.15932538
73	0x3e80bdb0	0.2514472
74	0x3c4bd1d2	0.012440162
75	0xbdb5050a	-0.08838852
76	0x3da24f19	0.07925243
77	0x3e69ebbc	0.22843832
78	0x3ea9371e	0.33049864
79	0xbd7a298b	-0.061074775
80	0x3cc6bf3d	0.024261111
81	0x3d1bf7f0	0.03807825
82	0xbe60bb24	-0.21946388
83	0x3cff80d9	0.031189369
84	0xbe325ec3	-0.17418961
85	0x3d684728	0.056708485
86	0x3e91cc9b	0.28476414
87	0xbdc847f6	-0.097793505
88	0xbdea5dfa	-0.11443706
89	0x3d5ec7e1	0.054389838
90	0x3e2b41d2	0.16724327
91	0x3ce45175	0.027870873
92	0xbdf6a98b	-0.120440565
93	0x3d5d8a40	0.054086924
94	0xbe9fda5e	-0.31221288
95	0x3e35dc52	0.17759827
96	0x3cd981d5	0.026551167
97	0xbd043729	-0.032279167
98	0xbe0ad189	-0.13556494
99	0xbdc9a08e	-0.098450765
100	0x3e273db5	0.16332133
101	0x3d4f215c	0.050568923
102	0x3e1d9956	0.15390524
103	0x3d9c5cd9	0.07634897
104	0xbd4570e5	-0.048203368
105	0x3daf259c	0.08552095
106	0x3db784db	0.08960887
107	0x3d8526b3	0.06501522
108	0x3d87d662	0.06632687
109	0xbce66287	-0.028123153
110	0xbd2ea629	-0.04263893
111	0x3d206227	0.039156105
112	0x3c8e0b1d	0.017339284
113	0xbd40c81f	-0.04706585
114	0xbe81a522	-0.253213
115	0x3da3ad8f	0.07992088
116	0x3e096fc1	0.13421537
117	0xbe5a687b	-0.21328919
118	0xbd4ed423	-0.050495278
119	0x3eadccbe	0.33945268
120	0x3e929c3e	0.28634828
121	0x3ebb5683	0.3658944
122	0xbc06515e	-0.00819811
123	0x3d4daf6c	0.050216123
124	0xbe51a31b	-0.20472376
125	0x3ed19f12	0.40941674
126	0x3ea773e9	0.3270562
127	0x3e763e47	0.24047194
128	0xbc900cef	-0.017584292
129	0xbf0212b7	-0.50809807
130	0xbe6d8cc3	-0.23198228
131	0xbdd42eb9	-0.10360474
132	0x3d263968	0.04058209
133	0xbe6ac259	-0.229257
134	0x3e53267f	0.20620154
135	0x3e126217	0.14295231
136	0x3e0f29a4	0.13980728
137	0x3e536cca	0.20646968
138	0x3dce92d9	0.10086603
139	0xbe0d804c	-0.13818473
140	0xbe592bb4	-0.21208078
141	0x3e4c2959	0.19937648
142	0xbe1ca17a	-0.15295973
143	0xbe5fb640	-0.21846867
144	0xbe6653a2	-0.22492841
145	0xbd390a8d	-0.045176078
146	0xbc998503	-0.018740183
147	0xbddffc53	-0.10936799
148	0x3e046a00	0.12931061
149	0xbcb0a396	-0.021562379
150	0x3e061eba	0.13097659
151	0xbd9a63e3	-0.07538583
152	0x3ce38ea9	0.027777987
153	0x3e0fc107	0.14038478
154	0xbd2d1ef4	-0.042265847
155	0xbdfbd4ef	-0.12296473
156	0x3e7c78a1	0.24655391
157	0xbd0ded38	-0.034650058
158	0xbd033148	-0.03202942
159	0xbe149a62	-0.14512017
160	0x3e62a48c	0.22133082
161	0x3aa78ed3	0.0012783654
162	0x3e42a850	0.19009519
163	0x3e5fa075	0.21838553
164	0xbd5d7140	-0.05406308
165	0x39fedc74	0.00048610906
166	0xbe3b97c6	-0.18319616
167	0xbd47dfe0	-0.04879749
168	0x3e5b294a	0.2140247
169	0x3db010c8	0.08596951
170	0xbab141b0	-0.0013523605
171	0x3baed002	0.005334855
172	0x3de7c90c	0.113176435
173	0xbd5e03fc	-0.05420302
174	0xbdb1a422	-0.08673884
175	0x3e4f21a4	0.20227677
176	0x3dc3f159	0.09567518
177	0x3b857517	0.004072796
178	0xbe083f31	-0.13305356
179	0x3d96d448	0.07364708
180	0x3bf156d7	0.0073650884
181	0x3e3d32d3	0.18476419
182	0x3d584c52	0.05280716
183	0x3db06665	0.0861328
184	0x3df2582e	0.11833225
185	0xbe2e8057	-0.17041145
186	0xbb284880	-0.002567798
187	0xbddbab06	-0.107259795
188	0xbcec0b96	-0.028814118
189	0x3dce8d5d	0.10085557
190	0xbe02d690	-0.12777162
191	0x3c9cfab7	0.019162519
192	0x3ceddcba	0.029035915
193	0x3e060696	0.1308845
194	0xbd3b1801	-0.04567719
195	0xbe48ae3e	-0.19597718
196	0xbd04ef59	-0.032454822
197	0x3d8e8074	0.06958094
198	0x3e103038	0.14080894
199	0xbde4ab9d	-0.11165545
200	0x3c9588ba	0.018253673
201	0xbe21fee0	-0.15819883
202	0x3d397971	0.04528183
203	0x3e62a77b	0.22134201
204	0xbda7dccc	-0.081964105
205	0xbd0b6631	-0.034033004
206	0x3c938040	0.01800549
207	0x3d9cedd2	0.07662548
208	0xbe2048bc	-0.15652746
209	0xbd3575c3	-0.04430176
210	0xbd5557b3	-0.05208559
211	0xbd5592bd	-0.052141894
212	0xbe1e9edb	-0.15490286
213	0xbdc28a4c	-0.09499034
214	0x3d751abc	0.05983995
215	0x3d94e5ce	0.07270394
216	0xbdfe1f9e	-0.12408374
217	0xbd275f58	-0.04086241
218	0x3b38c4a0	0.002819337
219	0x3e4d4d4d	0.20049019
220	0xbe21e39f	-0.15809487
221	0xbe3acbd0	-0.18241811
222	0xba23a418	-0.00062424084
223	0xbdd07c9d	-0.10180018
224	0xbc9cba68	-0.019131854
225	0x3d8dc30e	0.06921969
226	0xbe1aba4f	-0.15110134
227	0x3e821bf0	0.2541194
228	0xbdda8c6c	-0.106713146
229	0xbdd60ae0	-0.10451293
230	0x3d204ac6	0.03913381
231	0xbd6a048d	-0.057133246
232	0xbcb09d92	-0.02155951
233	0xbdfcf5d2	-0.12351574
234	0xbea32edf	-0.31871697
235	0xbe9135fc	-0.283615
236	0x3df401e0	0.1191442
237	0xbe280693	-0.16408758
238	0xbe2dd4b9	-0.16975679
239	0x3d7df86b	0.062004488
240	0xbcdc2e84	-0.02687765
241	0x3e297901	0.16550066
242	0x3d86a5cd	0.06574593
243	0xbe6f5531	-0.23372342
244	0xbe461b41	-0.19346334
245	0xbe964dde	-0.29356283
246	0xbe81f59e	-0.25382704
247	0xbea7d817	-0.3278205
248	0xbd44f732	-0.048087306
249	0xbbaaab51	-0.005208411
250	0x3e60d3e3	0.21955828
251	0xbd680241	-0.056642774
252	0x3e12406a	0.14282385
253	0x3e109fe6	0.14123496
254	0xbdbbd83a	-0.09172101
255	0xbdf37ca0	-0.11889005

fc_enc.bias f4 [32]
0	0xbe460126	-0.19336376
1	0x3dc96bb4	0.09834996
2	0x3ab5d9cc	0.0013874113
3	0x3e0efa53	0.13962679
4	0xbd6dca11	-0.058054034
5	0xbc0212c6	-0.007939046
6	0x3e343a03	0.17600255
7	0xbd767ff9	-0.060180638
8	0xbcf835aa	-0.030299027
9	0x3ca947c4	0.020664103
10	0x3d405028	0.046951443
11	0x3e0caa91	0.13736941
12	0xbdd8a0dc	-0.105775565
13	0x3e0e6e06	0.13909158
14	0x3df119c1	0.1177249
15	0x3de6f4e6	0.112771794
16	0xbd6e5161	-0.058183078
17	0x3e36c1ca	0.17847362
18	0x3d0c5b36	0.034266673
19	0xbd1c3a4e	-0.03814154
20	0x3b090890	0.0020909645
21	0xbe1a6e5b	-0.1508116
22	0x3cc8c661	0.024508657
23	0xbe2a591e	-0.16635558
24	0xbd1e61e5	-0.03866758
25	0x3d83e677	0.06440442
26	0x3ea00ff5	0.31262174
27	0x3baf0ba0	0.005341962
28	0xbdb0e725	-0.08637837
29	0xbd4aeb0f	-0.049540576
30	0x3cc67612	0.024226222
31	0x3d206c15	0.039165575

fc_dec.weight f4 [468, 32]
0	0x3c550707	0.013002164
1	0x3b1eb008	0.002421381
2	0xbc3c4a16	-0.011492273
3	0x3d1d02f7	0.038332906
4	0x3cf13339	0.02944337
5	0xbd5e6037	-0.054290976
6	0xbc9743d7	-0.018464966
7	0x3d90101e	0.07034324
8	0xbcd888eb	-0.026432475
9	0xbcc4e40c	-0.024034522
10	0xbd685cdd	-0.056729186
11	0xbcbc1e25	-0.022963593
12	0x3cbfc3ba	0.02340876
13	0xbd9e7e1a	-0.07738896
14	0xbd9c8be4	-0.076438695
15	0xbd6881c3	-0.056764375
16	0xbcface61	-0.030615987
17	0xbdbe2011	-0.0928346
18	0x3ae22174	0.0017252401
19	0xbca7fcef	-0.02050635
20	0x3d894f91	0.06704629
21	0x3d8a1081	0.06741429
22	0xbcda62f3	-0.02665851
23	0x3d8b2ccd	0.067956544
24	0x3c01411b	0.0078890575
25	0x3d481dad	0.048856426
26	0xbdcc516c	-0.099764675
27	0xbd945616	-0.07242982
28	0x3a90cf3f	0.0011048092
29	0x3d12d7c2	0.035850294
30	0xbd0926d6	-0.033484302
31	0xbcee03f7	-0.029054625
32	0x3e8400fd	0.25782004
33	0xbc96a960	-0.018391311
34	0xbe897b6e	-0.26851982
35	0xbdfac494	-0.122445256
36	0x3dbb109c	0.09134027
37	0xbeb68ab1	-0.35652688
38	0x3e0c119a	0.1367859
39	0xbc1fb453	-0.0097475825
40	0xbe2ccbca	-0.16874614
41	0xbe364a78	-0.17801845
42	0x3d24ff65	0.040282626
43	0x3e807c0f	0.2509465
44	0x3e5fdccb	0.2186157
45	0xbe449725	-0.19198282
46	0xbe653093	-0.22381811
47	0xbe9134bb	-0.28360543
48	0xbe2c9621	-0.16854145
49	0x3bdb0cf1	0.0066848923
50	0x3c7ee0e6	0.01555655
51	0x3c9f292e	0.019428816
52	0x3c84c996	0.016209405
53	0x3e6821cf	0.22669147
54	0xbddc894b	-0.10768374
55	0xbdeb49d2	-0.114886895
56	0xbd7ecb75	-0.06220575
57	0x3dda1d7f	0.10650157
58	0xbdf0ad20	-0.11751771
59	0x3ec45fad	0.38354245
60	0x3d8ffb89	0.070303984
61	0xbd7152ec	-0.05891697
62	0x3ce8c0a5	0.028412173
63	0xbd91234e	-0.07086812
64	0x3eb36fea	0.3504632
65	0xbc2050fb	-0.009784932
66	0x3d8b8e98	0.06814307
67	0x3de34937	0.11097949
68	0x3ef08c8a	0.46982223
69	0xbd830e35	-0.06399194
70	0xbefb698e	-0.4910397
71	0x3eb46d7f	0.3523979
72	0x3d1b21bb	0.037873965
73	0xbe1a8b56	-0.15092215
74	0x3d540efc	0.051772103
75	0xbc32128b	-0.010868679
76	0x3e9c24d1	0.3049684
77	0x3ce4843a	0.027895082
78	0xbd7359f3	-0.059411954
79	0xbe3a628f	-0.1820166
80	0x3df98919	0.121843524
81	0xbe783e43	-0.24242501
82	0x3e4fb9eb	0.20285766
83	0x3c799ff9	0.015235894
84	0xbd195bbd	-0.037441004
85	0xbdd10191	-0.10205377
86	0x3d37ef1a	0.04490576
87	0xbe8777ae	-0.26458496
88	0x3df0b26f	0.117527835
89	0xbdccc9c6	-0.09999423
90	0xbdb884e0	-0.09009719
91	0x3e4f6c7e	0.2025623
92	0x3d0a4a3a	0.033762194
93	0xbe908851	-0.28229
94	0x3de9f27f	0.114232056
95	0x3e900aa0	0.28133106
96	0x3e1cb0f0	0.15301871
97	0xbe6e821c	-0.2329182
98	0xbe424751	-0.18972518
99	0xbe2f5722	-0.17123082
100	0x3e8e13cc	0.2774948
101	0xbd15a8be	-0.03653788
102	0xbdcf2774	-0.10114947
103	0x3eda7ef6	0.42674989
104	0xbda99ed5	-0.08282248
105	0xbe777ec4	-0.24169451
106	0xbe72d80f	-0.23715232
107	0x3ca84284	0.02053953
108	0xbbd65d85	-0.00654191
109	0xbdb49bc8	-0.088187754
110	0xbd999e39	-0.07500882
111	0xbcfaee8c	-0.030631326
112	0xbd461b9c	-0.048366174
113	0xbea1d731	-0.3160949
114	0xbe9aa986	-0.3020746
115	0xbe9aca9c	-0.30232704
116	0xbde88f37	-0.11355441
117	0x3cbf989d	0.023388201
118	0xbe059b41	-0.13047506
119	0x3dec7247	0.11545234
120	0x3d86c089	0.06579692
121	0x3d23e6cd	0.04001503
122	0x3d6ea2de	0.05826079
123	0xbb9eba1b	-0.004843963
124	0xbf05901d	-0.52173024
125	0xbe836580	-0.25663376
126	0x3d378828	0.044807583
127	0x3d9bc864	0.07606581
128	0x3dc3b077	0.095551424
129	0xbd918d1a	-0.07106991
130	0x3ba7983d	0.0051145838
131	0xbe4d9f4a	-0.20080295
132	0x3e7fdb02	0.24985889
133	0xbd1475da	-0.036245205
134	0x3e470c18	0.19438207
135	0x3e6b3e01	0.22972871
136	0xbdfa4951	-0.12221015
137	0x3ccb7f2f	0.02484092
138	0x3ba41bb0	0.0050081834
139	0x3e2b82a7	0.16749059
140	0xbe658b0e	-0.22416326
141	0xbec93e2c	-0.39305246
142	0xbdaf2ad6	-0.08553092
143	0xbdf0f304	-0.117651016
144	0xbf038d86	-0.5138782
145	0xbc74ffbe	-0.014953552
146	0xbe6121f3	-0.21985607
147	0xbea1f81d	-0.31634608
148	0xbdeb8554	-0.1150004
149	0xbd64d774	-0.055869535
150	0xbdfc8c95	-0.123315014
151	0x3a928941	0.0011179821
152	0x3cf07849	0.029354231
153	0x3e408daa	0.1880404
154	0xbe8179d3	-0.25288257
155	0x3d7915f4	0.06081195
156	0xbbe25dc6	-0.0069081513
157	0xbdc9c5b3	-0.09852161
158	0x3e5de959	0.21671046
159	0x3e41ca6b	0.18924873
160	0xbc93bcaf	-0.018034307
161	0x3dcb3e20	0.09923959
162	0xbe866a4a	-0.26252967
163	0x3c4b7025	0.012416874
164	0x3e1fe7d8	0.15615785
165	0xbd308345	-0.04309394
166	0x3e74abc5	0.2389365
167	0xbdabdf53	-0.08392205
168	0x3dd3fa46	0.1035047
169	0x3e24453a	0.16042033
170	0xbe27a181	-0.16370203
171	0xbdb83c58	-0.08995885
172	0xbd798511	-0.060917918
173	0xbd230673	-0.039801072
174	0xbe1a5d48	-0.15074646
175	0xbdc08558	-0.09400433
176	0xbcd90ebc	-0.026496284
177	0xbe0f79e4	-0.14011341
178	0xbe2ff8d0	-0.17184758
179	0xbec427a0	-0.3831148
180	0x3e76a8b1	0.24087788
181	0xbe075c75	-0.13218863
182	0xbe7460d5	-0.23865063
183	0x3c52b046	0.01285941
184	0xbe0c8896	-0.13723978
185	0x3d9d57cb	0.07682761
186	0xbeeed5c6	-0.4664747
187	0x3e8c6c6b	0.27426466
188	0xbc932984	-0.017964132
189	0xbdf9edec	-0.12203583
190	0x3ea849dd	0.32868853
191	0xbc7b8255	-0.015350898
192	0xbd673d8a	-0.056455173
193	0x3d1f2100	0.03884983
194	0xbceff39e	-0.02929097
195	0xbe15dd26	-0.14635143
196	0x3e3e310b	0.18573396
197	0xbce4a682	-0.027911428
198	0xbcf15920	-0.029461443
199	0xbebba882	-0.36652
200	0x3e168048	0.14697373
201	0xbd2fa69c	-0.0428835
202	0x3e605256	0.21906409
203	0xbdff09ce	-0.12453042
204	0xbcbbebdd	-0.022939617
205	0x3c3bfe66	0.0114742275
206	0xbf0767e4	-0.528929
207	0x3e13f695	0.14449532
208	0x3b37ea27	0.002806315
209	0x3db00274	0.08594218
210	0xbd04456c	-0.03229277
211	0xbea5b30b	-0.3236316
212	0x3d18cea4	0.037306443
213	0xbd1e4901	-0.03864384
214	0xbde419e1	-0.111377485
215	0xbd65f9cc	-0.056146428
216	0x3d8536a3	0.06504562
217	0x3d220c17	0.03956231
218	0xbea22ff5	-0.31677213
219	0x3d848ec2	0.064725414
220	0x3e80070c	0.25005376
221	0xbcb4475c	-0.022006683
222	0xbe198a04	-0.14994055
223	0x3d5a82f2	0.053347535
224	0xbe74a899	-0.2389244
225	0x3e1fdb1b	0.15610926
226	0x3da09672	0.07841195
227	0x3cda0588	0.026613966
228	0xbdd347e3	-0.10316446
229	0x3e268295	0.1626075
230	0x3d4d4525	0.05011477
231	0xbe07675f	-0.13223027
232	0x3d25c057	0.040466633
233	0xbdadbcc0	-0.08483267
234	0xbe47cdea	-0.19512144
235	0xbe8923b7	-0.2678506
236	0x3d4a1685	0.049337883
237	0xbe5eb8fa	-0.2175025
238	0xbd90476f	-0.07044875
239	0x3e86a6b2	0.26299053
240	0x3e8d9291	0.27650884
241	0x3d779b9a	0.060451128
242	0x3d560bdd	0.052257407
243	0xbe2f73bf	-0.17133997
244	0x3d60210c	0.054719016
245	0x3cbd144f	0.023080973
246	0xbe850d7d	-0.25986853
247	0x3e5bfb54	0.21482593
248	0xbe369ab7	-0.17832457
249	0x3c91615f	0.017746625
250	0xbe588d59	-0.2114767
251	0xbe8ffe50	-0.28123713
252	0x3d1aaad7	0.03776058
253	0xbe4e2680	-0.20131874
254	0xbe2e3716	-0.17013201
255	0x3d85368e	0.06504546

fc_dec.bias f4 [468]
0	0x3f0961cf	0.5366487
1	0xbca2aba7	-0.01985724
2	0x3e4709e6	0.1943737
3	0xb9dd6888	-0.00042230287
4	0xbd5f95d4	-0.054586247
5	0xbe20c721	-0.15700962
6	0xbe0daa9c	-0.13834614
7	0x3d37ef86	0.04490616
8	0xbd4dfe37	-0.050291266
9	0xbcd951d6	-0.02652828
10	0xbd03c80c	-0.0321732
11	0x3df562e2	0.11981751
12	0xbda75778	-0.0817098
13	0x3e851c4d	0.25998154
14	0x3e9315e2	0.28727633
15	0x3e9a08b6	0.3008477
16	0x3c6aa3a5	0.014321242
17	0xb9064bfd	-0.00012807544
18	0x3d4ba72d	0.049719978
19	0x3ccc150c	0.02491238
20	0x3dabecd3	0.0839478
21	0xbd1b7f3a	-0.03796313
22	0xbc38233f	-0.011238872
23	0x3e6c1cb8	0.2305783
24	0x3f1a299b	0.60219735
25	0x3e249552	0.16072586
26	0x3dfb6a17	0.122760944
27	0x3e1eb6f4	0.15499479
28	0x3d034a7e	0.032053463
29	0x3dc53d84	0.09630874
30	0x3c45c4b6	0.012070825
31	0xbdad3109	-0.08456618
32	0xbe07b422	-0.13252309
33	0x3e0a31a4	0.13495499
34	0xbde481f8	-0.11157602
35	0x3d01009e	0.03149473
36	0x3d335f57	0.043792095
37	0x3e71ebd1	0.23625113
38	0x3ee95343	0.45571336
39	0x3e27c748	0.16384614
40	0x3df5e227	0.12006026
41	0x3d83cddc	0.06435749
42	0x3e59d6b9	0.21273316
43	0x3dac53b6	0.08414404
44	0x3d77a43b	0.060459357
45	0x3dfc0075	0.12304775
46	0x3e8109d2	0.25202805
47	0xbc69f237	-0.01427894
48	0xbda17cd2	-0.07885136
49	0xbd3a94fa	-0.04555223
50	0x3df1dbda	0.118095115
51	0x3ec3f044	0.38269246
52	0x3da9379a	0.08262558
53	0x3e7614bc	0.24031347
54	0x3cf968e0	0.030445516
55	0xbd7eaeee	-0.062178545
56	0xbd16bdc2	-0.03680206
57	0x3e1093c5	0.1411887
58	0x3cb82da6	0.022482704
59	0x3e86bbf3	0.2631527
60	0x3e6a354e	0.22871897
61	0xbc017e85	-0.0079037
62	0xbdd67fb4	-0.10473576
63	0x3ddd93f2	0.10819234
64	0x3dc8403d	0.097778775
65	0xbd8cb13e	-0.06869744
66	0x3c9b5f72	0.01896641
67	0xbda8fa0b	-0.08250817
68	0x3ddadfe0	0.10687232
69	0x3e0aa264	0.1353851
70	0xbc6c53f6	-0.014424315
71	0x3ced012e	0.028931227
72	0x3e48a67a	0.19594756
73	0x3d835332	0.064123526
74	0xbddc3d3c	-0.10753867
75	0xbcd87186	-0.02642132
76	0x3e62c376	0.22144875
77	0x3d9f038a	0.07764347
78	0x3e722b63	0.23649363
79	0x3dd06e6e	0.10177313
80	0x3d090aff	0.033457752
81	0xbb15deb4	-0.0022868337
82	0x3d2d2eac	0.042280838
83	0xbd8b1a57	-0.06792133
84	0xbdf7d0b7	-0.12100356
85	0x3d7809d7	0.06055626
86	0xbcce2285	-0.025162945
87	0x3d97baff	0.074087135
88	0x3e678c99	0.22612227
89	0x3df90d8a	0.121607855
90	0x3d957cf7	0.07299226
91	0x3a21f270	0.00061777886
92	0xbd9539be	-0.07286404
93	0x3e433c1c	0.19065899
94	0xbd269492	-0.04066903
95	0x3ba3c324	0.004997628
96	0xbd5e9f0a	-0.05435089
97	0x3ddb0618	0.10694522
98	0x3ddd67de	0.10810827
99	0x3d8f5b67	0.069998555
100	0xbd56691e	-0.05234634
101	0x3e6d44cc	0.23170775
102	0x3d18842f	0.037235435
103	0x3eb71b63	0.35763082
104	0x3e6af583	0.22945218
105	0xbdcd6abf	-0.10030126
106	0x3e8270ac	0.25476587
107	0x3f069cf6	0.52583253
108	0x3ecc66b3	0.39922103
109	0x3ed0a16f	0.40748164
110	0x3ead4d6d	0.33848134
111	0x3e7bad0f	0.24577735
112	0x3efc7d0a	0.49314147
113	0x3e03ca5a	0.1287016
114	0x3e76e93d	0.24112411
115	0x3cec033f	0.028810142
116	0xbd5b8d54	-0.053601578
117	0xbe3bd8a2	-0.18344358
118	0xbd8a891d	-0.067644335
119	0xbd0348ca	-0.03205184
120	0xbd383eac	-0.044981644
121	0xbe16af97	-0.1471542
122	0x3dda176e	0.10649
123	0xbd288424	-0.041141644
124	0x3d6b1838	0.057396144
125	0x3c5f26f6	0.013620129
126	0xbd6be067	-0.057587054
127	0x3c2215ae	0.009892864
128	0xbe811e9b	-0.25218663
129	0x3c125733	0.008931923
130	0xbeeed0aa	-0.46643573
131	0xbec03d11	-0.3754659
132	0xbd83bcac	-0.06432471
133	0xbd9efc73	-0.077629946
134	0xbdb62f63	-0.08895757
135	0xbe92c054	-0.2866236
136	0xbdfc9f6f	-0.12335097
137	0x3c52a886	0.012857562
138	0x3cc0dca9	0.023542719
139	0xbe4f3c3d	-0.20237823
140	0xbd2810d3	-0.04103167
141	0xbebe838e	-0.37209743
142	0xbe912be0	-0.28353786
143	0xbeba7f43	-0.36425218
144	0xbdddbf54	-0.108275086
145	0xbabfa0d8	-0.0014620079
146	0xbe321f20	-0.17394686
147	0xbe4e3156	-0.20136008
148	0xbd2e97ab	-0.04262511
149	0xbd5b82ee	-0.05359166
150	0xbe261876	-0.16220269
151	0xbdf99296	-0.12186162
152	0xbeb2ef11	-0.34948018
153	0xbdff7aa7	-0.12474566
154	0xbe98c386	-0.29836673
155	0xbe15f47e	-0.14644048
156	0xbe3bf0bd	-0.18353553
157	0xbec8be72	-0.39207798
158	0xbe23277b	-0.1593303
159	0xbe5436f5	-0.2072409
160	0xbe35c448	-0.17750657
161	0xbe1fd35e	-0.15607974
162	0xbd6c7c4f	-0.057735737
163	0x3ca7e543	0.020495063
164	0x3d26fd52	0.04076893
165	0xbda62ec5	-0.08114389
166	0xbe113627	-0.14180814
167	0xbb805a5b	-0.003917021
168	0xbc3689ff	-0.011141299
169	0xbe262efe	-0.16228864
170	0xbd4b4075	-0.049622018
171	0xbcfbb8a3	-0.03072769
172	0xbddbd186	-0.10733323
173	0xbdd3b512	-0.10337271
174	0xbe7b1816	-0.24520907
175	0x3b8222c7	0.003971431
176	0x3d193768	0.037406355
177	0xbdcc637a	-0.09979911
178	0xbe64b0a3	-0.22333007
179	0xbdfb5194	-0.12271419
180	0xbeaae5f7	-0.33378574
181	0xbeba85e5	-0.36430278
182	0xbeb6dcd1	-0.35715345
183	0xbe3803dd	-0.17970224
184	0xbe8702f1	-0.26369432
185	0xbd9d9f3c	-0.07696387
186	0xbd7f7e4a	-0.062376298
187	0xbe7c08fe	-0.24612805
188	0xbe40768f	-0.18795227
189	0x3dbb5b9e	0.09148334
190	0xbdfb6644	-0.12275365
191	0xbe399c64	-0.18126065
192	0xbe7d9902	-0.24765399
193	0xbe4a0d84	-0.19731718
194	0xbd843fe2	-0.06457497
195	0xbd31ee9e	-0.043440454
196	0xbeb92ffe	-0.36169428
197	0xbe5ab2dd	-0.21357293
198	0xbdec54cf	-0.115396135
199	0x3d825930	0.063646674
200	0xbe80c245	-0.25148216
201	0xbdcab240	-0.0989728
202	0xbd6c2a85	-0.057657737
203	0xbea4a928	-0.32160306
204	0xbe91117a	-0.28333646
205	0xbe468da8	-0.19389975
206	0xbed5103b	-0.41613945
207	0xbf058be2	-0.5216657
208	0xbf41099a	-0.75405276
209	0xbe91f452	-0.28506714
210	0xbed90bd6	-0.42391843
211	0xbde2966b	-0.11063846
212	0xbd9101a4	-0.07080391
213	0xbdd44240	-0.10364199
214	0xbe87d00e	-0.2652592
215	0x3ba8a6a4	0.0051468182
216	0xbe188f62	-0.14898446
217	0xbe3dbde3	-0.18529467
218	0xbe1a3da4	-0.15062577
219	0xbeb3d446	-0.3512289
220	0xbeb1338a	-0.34609634
221	0xbec2879d	-0.3799409
222	0xbe777e56	-0.24169287
223	0xbe84e2cd	-0.25954285
224	0x3db3d561	0.08780933
225	0xbd5d23ad	-0.0539891
226	0xbeafd1c4	-0.34339726
227	0xbe49f6f3	-0.1972311
228	0xbde79bef	-0.11309039
229	0xbe4d91c0	-0.2007513
230	0xbf083756	-0.53209436
231	0xbe581364	-0.21101147
232	0xbf09194b	-0.5355422
233	0xbf326821	-0.6969014
234	0x3db37ce0	0.087640524
235	0x3e66e8ee	0.22549793
236	0x3eff5a31	0.49873498
237	0x3e8ab3bd	0.27090254
238	0x3f1bbff5	0.6083978
239	0x3eb8bbf4	0.36080897
240	0x3f09e788	0.53868914
241	0x3e52010d	0.20508213
242	0x3e96474a	0.29351264
243	0x3e9e21e0	0.3088522
244	0x3dccd9a1	0.10002447
245	0x3e6b3a82	0.22971538
246	0x3e0e27aa	0.13882318
247	0xbe1c0d12	-0.15239361
248	0x3e2bf324	0.1679197
249	0x3ea40e9e	0.32042402
250	0x3e55b4b8	0.2086972
251	0x3e55419f	0.20825814
252	0x3e8cacd8	0.2747562
253	0x3d9393d2	0.07205929
254	0x3e0f3ff9	0.13989247
255	0x3e7c86d0	0.24660802

dec1.kernel0 f4 [8, 4, 3, 1]
0	0xbe1e6074	-0.15466481
1	0x3ce5d63d	0.028056258
2	0xbe2aea83	-0.16691022
3	0x3e04ef74	0.12981969
4	0x3df72c30	0.12068975
5	0x3e79ab62	0.24381784
6	0x3e341db9	0.17589463
7	0xbd11a8d9	-0.035561416
8	0x3deb1800	0.11479187
9	0xbe869cb2	-0.26291424
10	0xbda705cd	-0.08155403
11	0x3d99338f	0.07480537
12	0xbe8eb8bd	-0.2787532
13	0x3e9bb793	0.30413494
14	0xbe164dd2	-0.14678124
15	0x3f120ec5	0.57053787
16	0xbeb68be5	-0.35653606
17	0x3eacbc0d	0.3373722
18	0x3e04d340	0.1297121
19	0xbd8498dc	-0.06474468
20	0xbd95fd60	-0.07323718
21	0x3e9a148b	0.30093798
22	0xbf0b18f0	-0.54334927
23	0x3ee7c838	0.45269942
24	0xbeae3c88	-0.34030557
25	0xbe6982ec	-0.22803849
26	0x3e87338d	0.26406518
27	0xbe1fb981	-0.15598108
28	0x3f2395bc	0.6390035
29	0x3e46066a	0.19338384
30	0x3dce400e	0.10070811
31	0x3e374646	0.17897901
32	0x3ca0a24e	0.019608643
33	0x3d72559c	0.059163675
34	0x3c61cc66	0.013781643
35	0xbd8ee6ae	-0.069775924
36	0xbf096a99	-0.5367828
37	0xbebd7b33	-0.37008056
38	0x3e0c3f20	0.13695955
39	0xbe0cc325	-0.13746317
40	0x3ecefa69	0.40425423
41	0x3eb1f3cb	0.34756312
42	0x3dde50b6	0.10855238
43	0x3e375240	0.1790247
44	0x3e12cb05	0.14335258
45	0xbd224d03	-0.039624225
46	0xbe1c2327	-0.15247785
47	0xbe8efaf1	-0.27925828
48	0xbe1d74a0	-0.1537652
49	0xbd338db6	-0.043836318
50	0x3df68814	0.120376736
51	0x3e095a59	0.13413371
52	0x3eb9ea0c	0.36311376
53	0x3dee7d98	0.11645049
54	0x3d58551c	0.05281554
55	0xbdabee4c	-0.08395061
56	0xbd443387	-0.047900703
57	0xbe1cc4ca	-0.15309444
58	0xbdab564d	-0.0836607
59	0xbe1feaf0	-0.15616965
60	0xbd979083	-0.0740061
61	0x3ceba72e	0.02876624
62	0xbdb0b4c4	-0.08628228
63	0x3d7beb11	0.061503474
64	0xbe020674	-0.12697774
65	0xbce0a17a	-0.027420748
66	0xbd4b6052	-0.049652405
67	0x3cc26595	0.023730079
68	0xbcdb521c	-0.026772551
69	0x3e49deb6	0.19713864
70	0xbd9f4b7d	-0.0777807
71	0x3df54072	0.119751826
72	0xbebd7a62	-0.37007433
73	0x3e139580	0.14412498
74	0x3e2c3f9b	0.16821139
75	0xbe7927fc	-0.24331659
76	0x3f245b13	0.6420147
77	0xbd36d8a4	-0.0446402
78	0x3e98cad0	0.29842234
79	0x3c20c0d8	0.0098116025
80	0xbda886ff	-0.082288735
81	0xbda944ed	-0.082651
82	0xbdc95a3d	-0.09831665
83	0x3e3875fa	0.18013754
84	0xbea81874	-0.32831156
85	0x3e2d0c37	0.16899191
86	0x3e17d012	0.14825466
87	0x3d0d9944	0.034569994
88	0x3ef0a8b4	0.4700371
89	0xbd8f2d51	-0.06991065
90	0x3e1fc900	0.15604019
91	0x3e1496a1	0.14510585
92	0x3db16220	0.08661294
93	0xbd9abd91	-0.07555688
94	0xbe3551f6	-0.17707047
95	0xbded1dd6	-0.115779564

dec1.kernel1 f4 [8, 4, 2, 2]
0	0xbe3c02b0	-0.183604
1	0xbdd8c8b0	-0.10585153
2	0xbd2223d3	-0.039584946
3	0xbd16a158	-0.036774963
4	0x3e1d4069	0.15356602
5	0x3da8f531	0.082498915
6	0x3e273658	0.16329324
7	0xbe5b195b	-0.21396391
8	0xbf21b0ca	-0.63160384
9	0x3bda90c8	0.0066700913
10	0xbe8cd0bf	-0.2750301
11	0x3d271d1b	0.04079924
12	0x3e0ecf5a	0.13946286
13	0x3eeeb8df	0.4662542
14	0x3ebd436b	0.36965498
15	0xbe49e715	-0.19717057
16	0xbe88f221	-0.2674723
17	0xbeed7fa5	-0.46386448
18	0xbcd8da61	-0.026471319
19	0x3e176e9f	0.14788292
20	0x3efe4b57	0.49666855
21	0x3e828224	0.25489914
22	0x3ebc7cd3	0.36813983
23	0x3da24064	0.07922438
24	0xbf25b20f	-0.6472482
25	0xbe3a493c	-0.18191999
26	0xbe9074d7	-0.28214142
27	0xbe0e9d38	-0.13927162
28	0x3f64b21b	0.8933427
29	0x3f6c84fd	0.92390424
30	0x3c2e6443	0.010644021
31	0xbd834e7f	-0.06411456
32	0xbe24df68	-0.16100848
33	0x3cdbc286	0.026826154
34	0xbe730728	-0.23733199
35	0x3c46319d	0.01209679
36	0xbea273d6	-0.31729
37	0x3e8a3733	0.2699524
38	0x3e4e9834	0.20175248
39	0xbe33b234	-0.17548448
40	0xbe831d26	-0.25608176
41	0x3d066d4d	0.03281908
42	0xbe7c28a7	-0.24624883
43	0xbde5f7e7	-0.11228924
44	0xbdaa1349	-0.083044596
45	0x3e38f798	0.180632
46	0x3e063993	0.131079
47	0x3d99e5d3	0.075145386
48	0xbe2b2ef6	-0.16717133
49	0x3e1e160d	0.15438099
50	0xbf06f772	-0.5272132
51	0x3dbac9f7	0.09120553
52	0xbea06714	-0.31328642
53	0x3e81305c	0.25232208
54	0xbd84e1a4	-0.0648835
55	0x3dbf27f3	0.093337916
56	0xbe89e03b	-0.26928887
57	0x3d89cb6b	0.06728252
58	0xbee37c27	-0.44430658
59	0xbe0f4c3e	-0.13993928
60	0xbe4c5447	-0.19954024
61	0xbdf2c6f2	-0.11854352
62	0x3d6e5e1f	0.05819523
63	0x3d8b1f38	0.06793064
64	0x3d77392d	0.06035726
65	0xbd3123cb	-0.043247025
66	0xbdbb4c56	-0.09145419
67	0x3dc2c298	0.09509772
68	0xbde1f554	-0.11033121
69	0xbdb8ec22	-0.09029414
70	0x3d9f2c35	0.07772104
71	0xbe63eb0c	-0.22257632
72	0xbdc27f5f	-0.0949695
73	0x3bf5f5d4	0.0075061116
74	0xbdd14f1d	-0.10220168
75	0xbe117899	-0.1420616
76	0xbe0d92b5	-0.13825496
77	0xbe8a9e15	-0.27073732
78	0x3d1645a5	0.036687512
79	0xbed0be44	-0.4077016
80	0xbf18ef34	-0.59739995
81	0x3e4f4229	0.20240082
82	0xbc956941	-0.018238666
83	0x3e0a425f	0.13501881
84	0x3e788013	0.24267606
85	0x3e9daf18	0.30797648
86	0x3f0e9e1f	0.55710024
87	0xbce18bb9	-0.027532445
88	0x3d25aa03	0.04044534
89	0x3a041460	0.00050384365
90	0xbd85a74b	-0.06526049
91	0xbe38b2ce	-0.18036959
92	0x3e97ea58	0.29670978
93	0x3cba3300	0.022729397
94	0xbdb7d185	-0.089755096
95	0x3e10a831	0.1412666
96	0xbe73d120	-0.23810244
97	0xbe62ad65	-0.22136457
98	0x3d0fa088	0.035065204
99	0xbeab3ea7	-0.33446237
100	0xbd88a377	-0.066718034
101	0x3eac262f	0.33622882
102	0x3ea28053	0.3173853
103	0xbebf8278	-0.37404227
104	0xbf16f34b	-0.58964986
105	0xbdbcc0ff	-0.092164986
106	0xbf0b08a7	-0.5431008
107	0xbdc6dcb5	-0.09710065
108	0xbe4bc43e	-0.19899079
109	0x3f5775a1	0.8416386
110	0x3e2fd60b	0.17171495
111	0x3ccb56c0	0.024821639
112	0xbea6d848	-0.32586884
113	0x3e0e641c	0.13905376
114	0xbe2a5eb3	-0.16637687
115	0xbcc6ae76	-0.024253111
116	0xbdb8bf8a	-0.09020908
117	0x3e19c98c	0.1501829
118	0x3eb182b7	0.3467004
119	0xbe6153da	-0.22004643
120	0xbe53c0b3	-0.20678978
121	0xbd88b22d	-0.06674609
122	0xbe230171	-0.15918519
123	0xbe1ec881	-0.15506174
124	0x3d2ab543	0.04167677
125	0x3e1a7744	0.15084559
126	0x3d81454f	0.06312048
127	0x3dfa574d	0.122236826

dec1.bias_tensor f4 [8]
0	0xbec0faea	-0.37691432
1	0xbeff3f05	-0.49852768
2	0xbf22b090	-0.63550663
3	0xbec24ad9	-0.3794773
4	0xbf0efbfd	-0.55853254
5	0xbf08e55d	-0.5347498
6	0xbec22ab7	-0.37923214
7	0xbf2574fb	-0.64631623

dec2.kernel0 f4 [1, 8, 5, 1]
0	0x3ceb201a	0.02870183
1	0xbd0e03fb	-0.034671765
2	0x3d3113d5	0.043231804
3	0x3d6e13e0	0.058124423
4	0x3cd31bd6	0.02577011
5	0xbd93a7c3	-0.072097324
6	0x3d8faa1c	0.07014868
7	0x3c4be6f0	0.0124451965
8	0x3e72dbfa	0.23716727
9	0xbf254cfe	-0.64570606
10	0xbddd2608	-0.107982695
11	0x3e925bc5	0.2858564
12	0xbc46e00e	-0.01213838
13	0xbe48b624	-0.19600731
14	0x3d6df063	0.05809058
15	0x3c04f208	0.008114345
16	0x3d68d1de	0.05684077
17	0x3d0dcdee	0.034620218
18	0x3b89c34a	0.0042041885
19	0xbc642bf1	-0.013926492
20	0xbb1fbf3b	-0.0024375457
21	0x3c7ee4d4	0.015557487
22	0x3cfec60a	0.031100292
23	0x3d4d3509	0.050099406
24	0x3b1572ed	0.0022804097
25	0x3d24e418	0.04025659
26	0x3de6ad08	0.11263472
27	0xbe8dcb3e	-0.27694124
28	0xbd19f898	-0.037590593
29	0x3d81c47b	0.06336304
30	0xbcce9dec	-0.025221787
31	0xbcf368a1	-0.029712977
32	0x3db7836e	0.08960615
33	0x3d401826	0.04689803
34	0xbd962b35	-0.0733246
35	0xbde270d5	-0.11056677
36	0xbd403860	-0.046928763
37	0x3e83c080	0.25732803
38	0x3e108cac	0.14116162
39	0xbdc25d58	-0.0949046

dec2.kernel1 f4 [1, 8, 4, 2]
0	0x3d3806ef	0.044928487
1	0xbd5e79a1	-0.054315213
2	0x3dead47e	0.11466311
3	0xbd94a139	-0.07257313
4	0x3ddeb0f0	0.10873592
5	0xbde828a0	-0.113358736
6	0x3a19ce6f	0.0005867248
7	0x3d797e45	0.060911436
8	0xbd96c475	-0.0736169
9	0xbd44a588	-0.048009425
10	0x3dc8d611	0.09806455
11	0x3b84e287	0.0040553245
12	0xbd96fdbd	-0.073726155
13	0x3c8802a2	0.016602818
14	0x3ea7c5c1	0.32768062
15	0x3e02b38d	0.12763806
16	0xbdf93758	-0.12168759
17	0xbda9b1ba	-0.08285852
18	0x3ec572e7	0.38564226
19	0x3c9fe748	0.019519463
20	0xbdc98c0b	-0.09841164
21	0xbe4abf43	-0.19799523
22	0x3d01ae26	0.03166022
23	0x3d28dbe1	0.041225318
24	0x3d580553	0.052739453
25	0x3c28e270	0.010307893
26	0x3d76bf86	0.060241245
27	0x3cc19928	0.0236326
28	0xb9b06dd5	-0.00033651167
29	0xbbcd334c	-0.0062622186
30	0xbbc324ae	-0.0059553003
31	0xbc722680	-0.014779687
32	0xbc18299b	-0.009287263
33	0xbb989ae1	-0.004657135
34	0x3d204d51	0.039136235
35	0xbbaaaac6	-0.005208346
36	0x3d0920e8	0.033478647
37	0x3cbbdedd	0.022933418
38	0x3d4a9ae1	0.04946411
39	0x3aad2f6f	0.0013212989
40	0x3dbe58af	0.09294259
41	0x3d2166fe	0.03940486
42	0x3ddd00cc	0.107911676
43	0xbe9d4cb2	-0.30722576
44	0xbccd7eba	-0.025084842
45	0x3d825544	0.063639194
46	0xbd8c4f18	-0.068510234
47	0x3de6d022	0.11270167
48	0xbcc8ee93	-0.024527824
49	0xbc052c19	-0.0081281895
50	0x3c7fd508	0.015614755
51	0xbd5e3ec0	-0.05425906
52	0xbcc7bf4b	-0.024383208
53	0x3e53fc8d	0.20701809
54	0xbdfcbb3e	-0.12340401
55	0xbd02e5c3	-0.0319574
56	0xbe049539	-0.12947549
57	0x3d8ad2ba	0.06778474
58	0xbe5106c4	-0.20412737
59	0x3bc46fba	0.005994764
60	0x3d81bbc2	0.0633464
61	0x3e63a064	0.22229153
62	0xbd6f0376	-0.05835291
63	0xbe5fc677	-0.21853052

dec2.kernel2 f4 [1, 8, 3, 2]
0	0xbc2337f9	-0.009962075
1	0x3d30c4c7	0.04315641
2	0xbd3c7eb3	-0.046019267
3	0xbd3faa71	-0.046793405
4	0xbde0f9e7	-0.10985165
5	0xbcf0ef40	-0.029410958
6	0xbd6658e6	-0.056237124
7	0xbcd421ea	-0.025895078
8	0x3b40fbf5	0.0029447053
9	0x3dbb15f6	0.09135048
10	0xbcfe4efe	-0.031043526
11	0x3dc2bfb7	0.09509223
12	0xbda59fee	-0.08087145
13	0x3ccef1b2	0.025261734
14	0x38699761	5.569251e-05
15	0x3bc388d7	0.0059672403
16	0xbcbf4287	-0.023347152
17	0x3d0bd9c5	0.034143228
18	0x3c51c86c	0.012804132
19	0xbbcc2cd8	-0.0062309317
20	0x3c1de600	0.009637356
21	0xbc901dfe	-0.017592426
22	0xbc5380d5	-0.012909134
23	0xbc7de586	-0.015496617
24	0x3ba9f559	0.0051867184
25	0xbb556b2e	-0.0032565105
26	0x3d73d325	0.059527535
27	0x3b66e87a	0.0035233782
28	0x3d286da7	0.041120198
29	0x3b7ca276	0.0038548983
30	0xba18dff1	-0.000583171
31	0xbd4dfb93	-0.050288748
32	0x3c4be946	0.012445753
33	0x3daab1c9	0.08334691
34	0x3d4f70a5	0.050644536
35	0x3deee6b7	0.11665099
36	0x3cecc7de	0.028903898
37	0xbdb81a7a	-0.08989425
38	0x3cbfa629	0.023394661
39	0x3a76acf2	0.0009409926
40	0xbc5ebe02	-0.013595106
41	0x3cb8c988	0.022557035
42	0xbd7be6ae	-0.06149929
43	0xbe075eb7	-0.13219725
44	0xbdbfeaa4	-0.09370926
45	0xbcc3238b	-0.02382066
46	0xbd27f03f	-0.0410006
47	0xbe24384b	-0.16037099

exp_avg f4 [8, 1, 5, 1]
0	0x39080fac	0.00012975809
1	0x389f04bf	7.582595e-05
2	0x387184b2	5.758246e-05
3	0x36739d8a	3.6301522e-06
4	0xb794d77f	-1.7743323e-05
5	0xb8e56025	-0.00010937479
6	0xb97cf3b7	-0.00024123384
7	0xb9b3e02f	-0.0003430857
8	0xb9d3de1a	-0.00040410535
9	0xb9cfc03e	-0.00039625348
10	0xb776d030	-1.4711215e-05
11	0xb856efd5	-5.1244937e-05
12	0xb8bcf8b0	-9.01086e-05
13	0xb8d6c7b0	-0.0001024151
14	0xb8bbf958	-8.963299e-05
15	0xb85ec4b4	-5.311212e-05
16	0xb94d5199	-0.00019580721
17	0xb9bc74fa	-0.0003594531
18	0xb9e6d3c9	-0.0004402681
19	0xb9e585bd	-0.00043777926
20	0x3824162c	3.9121296e-05
21	0x36098e29	2.049734e-06
22	0x3876912e	5.878618e-05
23	0x37ae982a	2.0813273e-05
24	0xb61fa7a9	-2.3790437e-06
25	0x3533ee50	6.7029487e-07
26	0xb6837a61	-3.918351e-06
27	0xb7dd01ae	-2.6346035e-05
28	0xb79c8c68	-1.8662031e-05
29	0x37b39b31	2.141073e-05
30	0x37f0ab4a	2.8689992e-05
31	0x3718582d	9.080436e-06
32	0xb6f52c5e	-7.306734e-06
33	0xb78c4145	-1.6719694e-05
34	0xb7a38776	-1.9494193e-05
35	0xb9288d24	-0.00016074307
36	0xb97a5fa6	-0.0002387749
37	0xb9908103	-0.00027561942
38	0xb964d6ba	-0.00021823766
39	0xb9358ede	-0.00017314727

exp_avg_sq f4 [8, 1, 5, 1]
0	0x3473664f	2.2668358e-07
1	0x345b6a1a	2.0434564e-07
2	0x3431df3b	1.656562e-07
3	0x33fc86b3	1.1759166e-07
4	0x33b1443d	8.254617e-08
5	0x3546630f	7.3904897e-07
6	0x355f6360	8.3218583e-07
7	0x359963fe	1.142849e-06
8	0x35d3ed9d	1.578988e-06
9	0x35d7507d	1.6042173e-06
10	0x3415e8d1	1.3961404e-07
11	0x3423ff8b	1.5273524e-07
12	0x343b8ee2	1.7467713e-07
13	0x342873e9	1.5688387e-07
14	0x33fd2f97	1.1789887e-07
15	0x353c610e	7.017669e-07
16	0x3569c3ac	8.7084004e-07
17	0x35a0c449	1.1978055e-06
18	0x35c85bed	1.4927915e-06
19	0x35d02d28	1.551035e-06
20	0x3410bb71	1.3479236e-07
21	0x340fea87	1.3403233e-07
22	0x3411af53	1.356796e-07
23	0x341c3744	1.4548738e-07
24	0x34229b03	1.5143819e-07
25	0x34886009	2.540185e-07
26	0x3462002e	2.1047956e-07
27	0x34640217	2.1234915e-07
28	0x344d18cc	1.9101134e-07
29	0x345dd8f4	2.0661156e-07
30	0x32d418c2	2.4691307e-08
31	0x32bf74c6	2.2288429e-08
32	0x322f1b90	1.0192608e-08
33	0x3186f6e4	3.9279815e-09
34	0x311c1277	2.2711484e-09
35	0x35b7141e	1.3640417e-06
36	0x35bcc00d	1.4062986e-06
37	0x35a41f61	1.2228085e-06
38	0x3581f555	9.68265e-07
39	0x353971ac	6.9083285e-07

exp_avg f4 [8, 1, 4, 2]
0	0x3898d7f8	7.288152e-05
1	0x38393920	4.416064e-05
2	0x38725079	5.7772242e-05
3	0x386b0788	5.603538e-05
4	0x3807d275	3.238251e-05
5	0x37f791a9	2.9512523e-05
6	0xb5b2141a	-1.3267884e-06
7	0xb7444c9f	-1.170035e-05
8	0xb962ae47	-0.00021617963
9	0xb91b7b7f	-0.00014827958
10	0xb9afd0df	-0.00033534222
11	0xb9552fa0	-0.00020331005
12	0xb9b77dba	-0.00034998154
13	0xb9abeb18	-0.0003279082
14	0xb9b0cc83	-0.0003372171
15	0xb9cde14a	-0.000392685
16	0xb866998c	-5.4979275e-05
17	0xb850dbfd	-4.9795945e-05
18	0xb88ebff2	-6.80684e-05
19	0xb87f16c7	-6.081795e-05
20	0xb8b53abe	-8.641694e-05
21	0xb8c5336e	-9.4032715e-05
22	0xb8bc6b1b	-8.9844885e-05
23	0xb8a55c39	-7.884991e-05
24	0xb8e9b67a	-0.00011144295
25	0xb92037f8	-0.00015279639
26	0xb9822bef	-0.00024828265
27	0xb943a2f2	-0.00018657351
28	0xb99bdbb2	-0.0002972759
29	0xb99df4c6	-0.00030127744
30	0xb9a94986	-0.0003228897
31	0xb9d89238	-0.00041307672
32	0x37178e96	9.0335e-06
33	0x3640c060	2.8722206e-06
34	0x3821eb49	3.8604518e-05
35	0x377584c7	1.4634053e-05
36	0x3869f0cc	5.577579e-05
37	0x3803c2c0	3.141421e-05
38	0x37933eb1	1.7552959e-05
39	0xb78e714e	-1.698048e-05
40	0x36d3ecbe	6.3158504e-06
41	0xb80715bc	-3.220675e-05
42	0xb474536a	-2.2754617e-07
43	0xb86fd409	-5.7179514e-05
44	0xb7ab5c1b	-2.0427678e-05
45	0xb7f36dc5	-2.9018973e-05
46	0x372c633e	1.02751055e-05
47	0xb7df4262	-2.6614583e-05
48	0x37a2ba59	1.939868e-05
49	0xb73a5bef	-1.1107869e-05
50	0xb6c601d7	-5.901074e-06
51	0x366c82b1	3.5242813e-06
52	0xb69ba600	-4.638685e-06
53	0xb75a1211	-1.2998019e-05
54	0xb756e2c9	-1.28081965e-05
55	0xb7d2465e	-2.5066718e-05
56	0xb9636efb	-0.0002168975
57	0xb94e32c3	-0.00019664601
58	0xb990606e	-0.00027537666
59	0xb97ef2d4	-0.00024313788
60	0xb9655330	-0.00021870132
61	0xb97fdf90	-0.00024401979
62	0xb90bacd4	-0.00013320456
63	0xb93a42c9	-0.00017763222

exp_avg_sq f4 [8, 1, 4, 2]
0	0x3488c295	2.547355e-07
1	0x341ce44c	1.4611686e-07
2	0x347c5bfb	2.3502791e-07
3	0x34053e9d	1.2409369e-07
4	0x345699d6	1.9986268e-07
5	0x33d0e621	9.727615e-08
6	0x341bc6e5	1.4507857e-07
7	0x3398c3d7	7.1136746e-08
8	0x35431304	7.267083e-07
9	0x353d01d0	7.0410624e-07
10	0x357ac6bc	9.3421454e-07
11	0x357111ae	8.9805224e-07
12	0x35af5c89	1.3065447e-06
13	0x35b325a4	1.3347494e-06
14	0x35cabae0	1.5104561e-06
15	0x35ddb3b1	1.651808e-06
16	0x340fe14e	1.3399878e-07
17	0x34318ce3	1.6535664e-07
18	0x34328789	1.6626849e-07
19	0x3440bb2f	1.794949e-07
20	0x3437e2e3	1.7125744e-07
21	0x342977a7	1.5782881e-07
22	0x341c0041	1.4528725e-07
23	0x3400efdc	1.2008189e-07
24	0x354ac075	7.5530926e-07
25	0x35596cb6	8.0996995e-07
26	0x3578dc5d	9.270787e-07
27	0x3588c6ab	1.019061e-06
28	0x35a3e92e	1.2212311e-06
29	0x35b46718	1.3441049e-06
30	0x35c51c98	1.4685966e-06
31	0x35d18d4d	1.5612837e-06
32	0x34542b09	1.9759695e-07
33	0x33ac0847	8.01088e-08
34	0x34637e80	2.1187043e-07
35	0x33aabbf0	7.9504275e-08
36	0x34758690	2.2866357e-07
37	0x33a66689	7.7486284e-08
38	0x346b6203	2.1921737e-07
39	0x33bf4339	8.906358e-08
40	0x34205606	1.4932456e-07
41	0x34b21906	3.317329e-07
42	0x33fb6189	1.170584e-07
43	0x34ae968f	3.251957e-07
44	0x3404c2c4	1.2364313e-07
45	0x34ae4cbc	3.2465857e-07
46	0x3403c245	1.2271e-07
47	0x349e3aca	2.9472568e-07
48	0x330f9380	3.3428933e-08
49	0x328cda6e	1.6397475e-08
50	0x32f8565f	2.8910277e-08
51	0x3204b225	7.723917e-09
52	0x328263ac	1.5179317e-08
53	0x3151f2d4	3.0551535e-09
54	0x3196ab46	4.385046e-09
55	0x31062bb1	1.9524402e-09
56	0x35b787aa	1.3674046e-06
57	0x35bd61da	1.4110076e-06
58	0x35a9204e	1.2600883e-06
59	0x35b7e4f3	1.3701195e-06
60	0x358dcd9d	1.056516e-06
61	0x3598769b	1.1359401e-06
62	0x35542822	7.9034555e-07
63	0x356e86a3	8.885783e-07

exp_avg f4 [8, 1, 3, 2]
0	0x38e9c42b	0.00011146845
1	0x387a0829	5.9612245e-05
2	0x389a37fc	7.35372e-05
3	0x38084937	3.2493113e-05
4	0x383723ff	4.3664124e-05
5	0x376b6da6	1.4032621e-05
6	0xb97b065b	-0.00023939593
7	0xb90f8273	-0.00013686139
8	0xb99c0f75	-0.00029766155
9	0xb9921e27	-0.00027869755
10	0xb9dcc97c	-0.00042111787
11	0xb9ccc5af	-0.00039057198
12	0xb894749f	-7.078912e-05
13	0xb8766291	-5.8742768e-05
14	0xb8bf3adb	-9.1185524e-05
15	0xb8cb74dc	-9.701561e-05
16	0xb8e0b7a5	-0.00010715359
17	0xb8c89892	-9.5651616e-05
18	0xb8e0ad4e	-0.00010713433
19	0xb909b47b	-0.00013132572
20	0xb9627d64	-0.00021599751
21	0xb96496d5	-0.00021799964
22	0xb9b6b70d	-0.0003485013
23	0xb9b0b01c	-0.00033700548
24	0x388546f5	6.355151e-05
25	0x3786d7a0	1.6074453e-05
26	0x38c4803a	9.369892e-05
27	0xb732cb11	-1.0656907e-05
28	0x38c8ca89	9.574468e-05
29	0xb711f3c4	-8.69943e-06
30	0xb754ad63	-1.2676554e-05
31	0xb8a34428	-7.785141e-05
32	0x370fe970	8.577816e-06
33	0xb89b25f3	-7.3980445e-05
34	0xb64cb784	-3.050519e-06
35	0xb8e47762	-0.00010894124
36	0x37baf014	2.2284723e-05
37	0xb5796328	-9.290402e-07
38	0x3686afe4	4.0139876e-06
39	0xb7031e7e	-7.815308e-06
40	0xb705533c	-7.946797e-06
41	0xb7c1616c	-2.3052758e-05
42	0xb95f1701	-0.00021275507
43	0xb97d875a	-0.00024178383
44	0xb96535ac	-0.00021859136
45	0xb9716630	-0.00023021619
46	0xb959ef06	-0.00020783776
47	0xb97cde35	-0.00024115371

exp_avg_sq f4 [8, 1, 3, 2]
0	0x34715351	2.2475184e-07
1	0x33c07ccf	8.963399e-08
2	0x346ca144	2.2037881e-07
3	0x33ab1c7d	7.96799e-08
4	0x34472f8a	1.8550614e-07
5	0x338b5d05	6.489612e-08
6	0x35517860	7.8033736e-07
7	0x355a2965	8.1271565e-07
8	0x358c2e4e	1.0444289e-06
9	0x3592ff97	1.0952234e-06
10	0x35a73af9	1.2459633e-06
11	0x35c52282	1.4687687e-06
12	0x340ca2ab	1.3097694e-07
13	0x3446f0b6	1.8527757e-07
14	0x341cf81c	1.4618894e-07
15	0x3448e2b9	1.8708933e-07
16	0x341d0835	1.462475e-07
17	0x3413c28f	1.3761222e-07
18	0x35530e53	7.862447e-07
19	0x356baf56	8.779947e-07
20	0x358c28e2	1.0442711e-06
21	0x359a2f4a	1.1487657e-06
22	0x35a84e46	1.2539756e-06
23	0x35b92493	1.3794219e-06
24	0x3481571c	2.4091503e-07
25	0x335095d7	4.8565052e-08
26	0x3485e1e7	2.4937546e-07
27	0x336477d9	5.3194388e-08
28	0x3488f446	2.5509706e-07
29	0x3366f95e	5.3777846e-08
30	0x33d23add	9.789594e-08
31	0x34ce5fa9	3.8440092e-07
32	0x33d7d761	1.0050895e-07
33	0x34df21cc	4.1561577e-07
34	0x33c4566c	9.142681e-08
35	0x34cfb4aa	3.8688205e-07
36	0x33393d81	4.3129607e-08
37	0x321a315d	8.975204e-09
38	0x33113538	3.3808846e-08
39	0x3149a989	2.934572e-09
40	0x32896be0	1.5997955e-08
41	0x313f46ab	2.7834328e-09
42	0x35aa0415	1.2667175e-06
43	0x35b3eeaa	1.3406e-06
44	0x3591b9e2	1.0857441e-06
45	0x35a6f5d2	1.2439507e-06
46	0x356d4131	8.8384246e-07
47	0x358c5ea7	1.045836e-06

exp_avg f4 [8]
0	0x39d9f361	0.00041570797
1	0x398f7051	0.00027358768
2	0x38f2bfa1	0.00011575153
3	0x38d3ff7c	0.00010108852
4	0xb7ad5dc6	-2.0666874e-05
5	0xb9a98a13	-0.00032337065
6	0xb58017e1	-9.543693e-07
7	0xb9089b4c	-0.00013027823

exp_avg_sq f4 [8]
0	0x347cc6d1	2.3541658e-07
1	0x35353ead	6.751896e-07
2	0x33b77326	8.542547e-08
3	0x352a595a	6.345996e-07
4	0x34d8c97a	4.037973e-07
5	0x34dbaf0c	4.0919292e-07
6	0x3394d030	6.929656e-08
7	0x34cc481c	3.8050428e-07
