server_report/ae_hexa/ae_hexa_log_2_1_32/autoencoder_20260101_183509.pth (torch, 115566 bytes, 48 tensors)

enc1.kernel0 f4 [2, 1, 5, 1]
0	0x3d2c7de9	0.042112265
1	0x3da30674	0.07960215
2	0x3cd4b8e7	0.025967075
3	0x3d4eb1ae	0.050462417
4	0x3db12276	0.08649151
5	0xbdde784e	-0.1086279
6	0xbe665e14	-0.22496825
7	0x3e54700f	0.20745872
8	0xbdd3d217	-0.10342806
9	0xbe10e65e	-0.14150378

enc1.kernel1 f4 [2, 1, 4, 2]
0	0x3cede698	0.02904062
1	0x3d9a1d08	0.075250685
2	0x3d3114da	0.043232776
3	0x3d1681c5	0.03674485
4	0x3d08da59	0.033411358
5	0xbd003cb2	-0.031307884
6	0x3d777475	0.060413796
7	0x3d338ea6	0.043837212
8	0xbe27dc3f	-0.16392611
9	0xbe8dfa09	-0.27729824
10	0xbe769299	-0.2407936
11	0x3e0dd1aa	0.13849512
12	0xbd9a993e	-0.0754876
13	0x3f237b46	0.63859975
14	0xbebb3351	-0.3656259
15	0x3c8738df	0.01650661

enc1.kernel2 f4 [2, 1, 3, 2]
0	0x3cb32ebe	0.021872874
1	0x3d593fc6	0.053039335
2	0x3ca7ff2e	0.020507421
3	0xbdb1be4f	-0.086788766
4	0xbb455bdb	-0.0030114565
5	0x3c7b7f59	0.015350186
6	0xbe76fbdb	-0.24119513
7	0xbe395371	-0.18098237
8	0xbdcf4e14	-0.10122314
9	0x3f30fd7c	0.69136786
10	0xbd8dd218	-0.06924838
11	0xbddc0a47	-0.10744148

enc1.bias_tensor f4 [2]
0	0x3b0de6db	0.0021652493
1	0xb82a1da3	-4.055876e-05

enc2.kernel0 f4 [1, 2, 3, 1]
0	0x3e82d9a9	0.25556687
1	0x3ebe8531	0.37210992
2	0x3e1b8414	0.15187103
3	0x3d9af147	0.07565551
4	0x3dcc68f8	0.09980959
5	0x3dc1df85	0.09466461

enc2.kernel1 f4 [1, 2, 2, 2]
0	0x3e2fa770	0.17153716
1	0x3ea8c4a5	0.32962528
2	0x3dc3b0e6	0.09555225
3	0x3ebb0b5b	0.365321
4	0x3cfefd1a	0.031126548
5	0x3dcf5695	0.10123936
6	0x3d606c56	0.054790817
7	0x3def653c	0.11689231

fc_enc.weight f4 [32, 117]
0	0xbdb5bab3	-0.08873501
1	0xbcdac00c	-0.026702903
2	0x3e5cf986	0.2157956
3	0x3de8a8fe	0.11360358
4	0xbf468ba2	-0.7755681
5	0x3dd7c9df	0.10536551
6	0x3c8a0b46	0.016851079
7	0xbe40aca3	-0.18815856
8	0x3eaa2a0f	0.33235213
9	0x3dcf2c75	0.101159014
10	0xbf0bea70	-0.546546
11	0x3d150b29	0.036387596
12	0xbd33a1c9	-0.043855462
13	0x3da12ad3	0.07869496
14	0x3e823e1e	0.25438017
15	0x3ccb6a78	0.024831042
16	0xbd371518	-0.04469785
17	0x3e80e8eb	0.25177702
18	0xbe087b4f	-0.13328288
19	0x3e319e67	0.17345582
20	0x3dc4f08f	0.096161954
21	0xbd716704	-0.058936134
22	0xbe3644a1	-0.17799617
23	0x3e7f3b7b	0.24925034
24	0x3e299ef4	0.16564542
25	0x3d973739	0.0738358
26	0xbd88e302	-0.06683923
27	0x3e85e87d	0.26153937
28	0x3c87d67f	0.016581772
29	0xbe8e5a81	-0.27803424
30	0x3e036942	0.12833121
31	0xbebd20c2	-0.36939055
32	0xbd79459d	-0.060857404
33	0x3e139abb	0.14414494
34	0xbd44d0f7	-0.048050847
35	0x3e498ad6	0.19681868
36	0xbdcdfa2a	-0.10057481
37	0xbe7bc711	-0.24587657
38	0x3c578815	0.013155003
39	0x3eaa16a3	0.33220395
40	0xbe821f34	-0.2541443
41	0xbda0c317	-0.078497104
42	0x3e0a602f	0.13513254
43	0x3c3af4be	0.01141089
44	0x3df6b811	0.12046827
45	0x3d5161d3	0.051118683
46	0x3bee5e90	0.0072744563
47	0xbe0e2467	-0.13881074
48	0x3dbe7ff0	0.09301746
49	0xbd0c4898	-0.03424892
50	0xbde47ba1	-0.11156393
51	0xbc486fef	-0.012233718
52	0x3e68ddab	0.2274081
53	0x3d08713c	0.033311114
54	0x3c004e5e	0.007831184
55	0xbda77921	-0.081774004
56	0x3d72e291	0.0592981
57	0x3d8e414b	0.069460474
58	0x3ea577a9	0.32317856
59	0x3d36aa45	0.044595975
60	0xbdf934ed	-0.12168298
61	0xbe62275b	-0.22085325
62	0x3e458781	0.19289972
63	0x3e2bd0ec	0.16778916
64	0xbd1fa43f	-0.038974997
65	0xbec55f0c	-0.38549078
66	0x3e32d732	0.17464903
67	0x3dfa76d8	0.12229699
68	0xbdc0d81f	-0.09416222
69	0xbe7ba3f7	-0.24574266
70	0x3bcccff7	0.0062503773
71	0xbe1bdb27	-0.15220319
72	0xbe0f8a1a	-0.14017525
73	0x3e86001e	0.26171964
74	0x3cf508a6	0.02991135
75	0xbe552659	-0.2081541
76	0x3d921733	0.07133331
77	0x3dde77db	0.10862704
78	0xbaaa99f4	-0.0013015852
79	0x3e75cf2c	0.24004811
80	0xbec3b9a2	-0.38227564
81	0x3e7a4ad0	0.24442601
82	0x3e56b929	0.2096907
83	0x3c4eceee	0.012622578
84	0xbddbe29e	-0.10736583
85	0xbe12cfdd	-0.14337106
86	0x3e0a1273	0.134836
87	0xbc608c5f	-0.013705342
88	0xbe3d596e	-0.18491146
89	0x3ee09a5d	0.4386777
90	0x3e843a3e	0.25825685
91	0x3d24179b	0.040061574
92	0xbf1119f8	-0.5668025
93	0x3d1e7b9c	0.0386921
94	0x3d095070	0.033523977
95	0xbda886ca	-0.08228834
96	0xbdcfdfb3	-0.10150089
97	0x3e7aa49f	0.2447686
98	0xbe980a2e	-0.29695266
99	0xbdde3813	-0.10850539
100	0xbd1855af	-0.03719109
101	0xbd20eece	-0.039290242
102	0xbe431f3b	-0.19054882
103	0x3cfaa411	0.030595811
104	0xbcca2a52	-0.024678383
105	0x3d300ad5	0.04297908
106	0xbd40cc32	-0.047069736
107	0xbe1195ea	-0.14217344
108	0xbdf79ecb	-0.12090834
109	0x3e83cb34	0.2574097
110	0xbdacaa6a	-0.084309414
111	0x3bdcf6f0	0.0067433044
112	0x3ee8392c	0.4535612
113	0xbe5e2471	-0.21693589
114	0xbe906be5	-0.28207317
115	0xbdcd6542	-0.10029079
116	0x3ddc174e	0.107466325
117	0xbdd94793	-0.10609355
118	0x3cbd5be2	0.023115102
119	0xbea7cd21	-0.32773688
120	0xbe349ecb	-0.176387
121	0xbdb9c123	-0.09070041
122	0x3daa4c59	0.083153434
123	0xbee09b97	-0.43868706
124	0x3dba2721	0.090894945
125	0x3e0b60a7	0.13611089
126	0xbe4f4203	-0.20240025
127	0x3d20e202	0.039278038
128	0x3d9cc264	0.076542646
129	0xbd9bf6f0	-0.07615459
130	0x3c9efcda	0.019407678
131	0x3e5a999f	0.21347664
132	0xbd23b305	-0.03996565
133	0x3e948ed8	0.2901523
134	0x3d4214c8	0.0473831
135	0xbb90c649	-0.0044181687
136	0xbdcb5e0e	-0.09930049
137	0x3d87bb11	0.06627477
138	0xbc59708a	-0.01327146
139	0xbc7f001d	-0.015563992
140	0xbdcb6b91	-0.09932626
141	0xbe130ea9	-0.14361061
142	0x3da0632f	0.07831418
143	0x3c0e65ef	0.008691295
144	0x3e2138c8	0.15744317
145	0x3d4f4a62	0.050608046
146	0xbc6a6ca8	-0.014308132
147	0xbdac6468	-0.084175885
148	0xbe1f579f	-0.15560769
149	0x3e229e61	0.1588073
150	0xbd1e899b	-0.03870545
151	0x3e290b47	0.16508208
152	0x3d8b7701	0.068098076
153	0xbd2ab941	-0.04168058
154	0x3dd3f837	0.103500776
155	0x3dd03709	0.10166747
156	0x3e7cd03d	0.24688812
157	0x3e320a88	0.1738683
158	0xbf0aa634	-0.54159856
159	0x3cf08dc1	0.029364469
160	0xbc940409	-0.01806833
161	0xbdf19a11	-0.11796964
162	0x3ce1cf55	0.027564684
163	0xbdac0425	-0.08399228
164	0xbd41e8b1	-0.047341052
165	0xbe92bcc4	-0.28659642
166	0x3d51c8c4	0.051216856
167	0xbd7f8690	-0.06238419
168	0xbe38a0b6	-0.18030056
169	0x3df26cd8	0.118371665
170	0xbe05d49c	-0.13069385
171	0x3e6d7e6d	0.23192759
172	0x3e068846	0.13137922
173	0x3e385012	0.17999294
174	0xbe1c6767	-0.1527382
175	0xbdb34af2	-0.08754529
176	0xbcb309bc	-0.021855228
177	0xbc5792ae	-0.01315753
178	0x3d9e8ca3	0.07741668
179	0xbe5c5308	-0.21516049
180	0x3d64dc75	0.055874307
181	0x3d5217f7	0.051292386
182	0x3e7bb3d4	0.24580318
183	0xbe272a96	-0.16324839
184	0xbd083dd2	-0.03326208
185	0xbdeaa5c9	-0.11457402
186	0xbe110179	-0.14160718
187	0x3e3054d8	0.17219865
188	0x3e22494b	0.15848272
189	0xbe8a6171	-0.27027467
190	0x3dbd484b	0.092423044
191	0x3eb4e4c4	0.35330784
192	0x3e1258db	0.14291708
193	0xbdd77050	-0.10519469
194	0x3ed78484	0.4209329
195	0x3f2d4121	0.67677504
196	0x3e3c123f	0.18366335
197	0xbe1c1a6d	-0.15244456
198	0x3e4e3cb3	0.20140342
199	0xbdedab2b	-0.11604913
200	0x3e5c8548	0.21535218
201	0x3d3b6439	0.045749877
202	0xbe394e28	-0.1809622
203	0xbe05680a	-0.13027969
204	0xbe139291	-0.1441138
205	0xbd5117cc	-0.051048085
206	0x3e4537cb	0.19259565
207	0xbd0e5b50	-0.03475505
208	0xbca74797	-0.020419879
209	0xbe7e961b	-0.24861948
210	0x3e7a3f52	0.24438217
211	0xbebea652	-0.37236267
212	0xbda4baa9	-0.08043415
213	0xbe563a01	-0.20920564
214	0xbdc094c8	-0.09403378
215	0x3e582f59	0.21111812
216	0x3e4c4b27	0.19950543
217	0xbe707adf	-0.23484372
218	0xbe734e64	-0.23760372
219	0x3d8e1427	0.069374375
220	0x3dd53720	0.10410905
221	0x3d9c4936	0.076311514
222	0x3d6ca564	0.057774916
223	0xbdd8d77e	-0.10587977
224	0x3e950461	0.29104903
225	0x3c791473	0.015202629
226	0x3d2356e9	0.039877806
227	0x3d48ebe4	0.049053088
228	0xbdb976d9	-0.090558715
229	0x3e0b7803	0.1362
230	0x3e299c7b	0.16563599
231	0x3dfb497a	0.12269874
232	0x3d05eaa0	0.03269446
233	0x3d663751	0.056205098
234	0xbd21d178	-0.039506406
235	0x3e048372	0.12940767
236	0xbd6f02b3	-0.058352184
237	0x3e1f0a24	0.15531212
238	0xbd1172ba	-0.035509802
239	0xbc97dae1	-0.018536987
240	0x3ebea6cb	0.37236628
241	0xbe4dd5ba	-0.20101061
242	0xbe2c283d	-0.16812225
243	0xbdc4b473	-0.096047305
244	0xbe0cc7b3	-0.13748054
245	0x3dc227a3	0.09480216
246	0xbde999e5	-0.11406306
247	0x3d888cf1	0.066675074
248	0xbd3e647c	-0.046482548
249	0xbc894535	-0.016756633
250	0x3e55a724	0.2086454
251	0x3b913c27	0.0044322195
252	0xbe36882c	-0.17825383
253	0x3dc61ab1	0.0967306
254	0x3e4eeb78	0.20207012
255	0x3cb4c095	0.022064487

fc_enc.bias f4 [32]
0	0xbd3c9f6d	-0.046050478
1	0x3cfa4e18	0.030554816
2	0xbdb0e4fe	-0.08637427
3	0xbd3a531e	-0.045489423
4	0x3de53e7e	0.1119356
5	0x3d605312	0.054766722
6	0xbc8a6f84	-0.016898878
7	0xbcf56b09	-0.029958265
8	0x3ce28eb6	0.02765594
9	0xbdcb309e	-0.09921382
10	0xbce03505	-0.027369032
11	0xbd3e14b2	-0.046406455
12	0xbd58c2c5	-0.05292012
13	0xbd85ea7f	-0.06538867
14	0xbde4604c	-0.1115118
15	0xbc80f4a0	-0.015741646
16	0xbc2d3483	-0.010571602
17	0x3df69933	0.12040939
18	0x3e09e336	0.1346558
19	0x3c817c6f	0.015806405
20	0xbbb39406	-0.0054802923
21	0x3d7476b3	0.059683513
22	0x3e1ce031	0.15319897
23	0xbd8cd79c	-0.06877062
24	0xbdf3cec6	-0.11904673
25	0x3c038f9b	0.008029844
26	0xbd027338	-0.031848162
27	0x3ae1c0bd	0.0017223578
28	0xbd18f480	-0.03734255
29	0xbd872e36	-0.06600611
30	0x3d030fc1	0.031997446
31	0xbdb3325b	-0.08749839

fc_dec.weight f4 [117, 32]
0	0xbee90eef	-0.45519206
1	0xbe974eb6	-0.2955224
2	0xbb6541e8	-0.003498191
3	0x3d99784f	0.0749365
4	0x3d8721c4	0.06598237
5	0xbba7fbc8	-0.00512645
6	0x3e1c6af3	0.15275173
7	0x3e6c0276	0.23047814
8	0x3da9f345	0.08298353
9	0xbdfc76d4	-0.12327352
10	0x3c372c1c	0.01117995
11	0xbe9dc547	-0.30814573
12	0xbda15e51	-0.078793176
13	0x3c505647	0.012715883
14	0x3c136c9d	0.008998063
15	0x3e055bf8	0.13023365
16	0xbe819a8e	-0.25313228
17	0xbe1af120	-0.15131044
18	0xbe825372	-0.2545429
19	0x3e12a7a4	0.14321762
20	0xbc590d69	-0.013247826
21	0x3e8e78dd	0.27826586
22	0x3c42affd	0.011882779
23	0xbdf6e761	-0.12055851
24	0xbea4c6e1	-0.32182983
25	0x3d66eb26	0.0563766
26	0xbd865b30	-0.065603614
27	0x3c0b16d1	0.008489327
28	0xbe9c32a1	-0.30507377
29	0x3e802394	0.25027144
30	0x3d54fd2c	0.051999256
31	0xbcbc854a	-0.023012776
32	0x3e55793a	0.20847026
33	0xbc0efa36	-0.008726647
34	0xbe6bab3c	-0.2301454
35	0x3d11d5e3	0.03560437
36	0xbd33bf1f	-0.04388344
37	0x3c0cb6e9	0.008588531
38	0x3d1c1833	0.038109016
39	0x3dcdd9d8	0.10051316
40	0x3da8ca29	0.08241684
41	0x3e603bed	0.2189786
42	0x3db4c50a	0.08826645
43	0xbdb456a6	-0.088055894
44	0xbe19bbd5	-0.15013058
45	0x3e1be1d7	0.1522287
46	0xbd24213c	-0.040070757
47	0x3e637231	0.2221153
48	0xbe99bf9d	-0.30029002
49	0x3e1e93cc	0.15486068
50	0x3d55b66c	0.052175924
51	0xbe6188d7	-0.22024857
52	0xbe51ec93	-0.20500402
53	0x3e17f71a	0.14840356
54	0x3e82148e	0.25406307
55	0x3e5439b1	0.20725133
56	0xbe7ae4b0	-0.245013
57	0xbf1226f5	-0.57090694
58	0x3ed11d57	0.40842697
59	0xbea686fd	-0.32524863
60	0x3e4c0398	0.19923246
61	0xbcd2907d	-0.025703663
62	0xbe2a7da8	-0.16649497
63	0xbe6f7533	-0.23384552
64	0xbdf3f096	-0.119111225
65	0x3df4acec	0.11947045
66	0xbd89a333	-0.06720581
67	0x3e4b3ba2	0.19846967
68	0xbe099bf4	-0.13438398
69	0xbc853692	-0.016261373
70	0x3d135c10	0.03597647
71	0xbca7c29d	-0.020478541
72	0x3c7e62ca	0.015526483
73	0xbcda91b0	-0.026680797
74	0x3de2a07a	0.11065765
75	0xbd506fda	-0.05088792
76	0x3db9b397	0.09067457
77	0x3e0d06f0	0.13772178
78	0x3e59127a	0.21198454
79	0xbda47100	-0.080293655
80	0xbe2e2dbf	-0.17009638
81	0xbdbda7eb	-0.092605434
82	0x3db28612	0.08716978
83	0xbd736fda	-0.05943284
84	0x3d2152e2	0.039385684
85	0x3cc6219b	0.024185946
86	0x3de5fdb3	0.1123003
87	0x3e00391c	0.12521785
88	0xbdb359ed	-0.08757386
89	0xbd67d84d	-0.056602765
90	0x3daf20a6	0.08551149
91	0xbe6be5e9	-0.23036923
92	0xbe3189ea	-0.17337766
93	0x39a165b4	0.00030784088
94	0x3d7a08d7	0.061043587
95	0x3de986d5	0.1140267
96	0xbe1e56ad	-0.15462752
97	0x3e0562b3	0.13025932
98	0xbeafbaf9	-0.34322336
99	0x3e330659	0.1748289
100	0xbd9b0846	-0.075699374
101	0x3c4d73bf	0.012539803
102	0x3e24f67f	0.16109656
103	0x3e7a2833	0.24429397
104	0x3d3afa71	0.045648996
105	0xbe17dc79	-0.14830197
106	0x3e14ab8d	0.14518566
107	0x3e1f323f	0.15546511
108	0x3e9f05a0	0.3105898
109	0x3e638314	0.22217971
110	0x3ddc3b7c	0.10753533
111	0xbe34aa9b	-0.17643206
112	0xbd87ba3d	-0.06627319
113	0xbea8a21b	-0.32936177
114	0xbe5f4f84	-0.21807677
115	0xbdc2be5c	-0.095089644
116	0xbe2217e7	-0.1582943
117	0xbe07b4b4	-0.13252527
118	0xbe8da22a	-0.27662784
119	0xbe990ea5	-0.29893985
120	0xbd867715	-0.06565682
121	0x3e56d4b9	0.20979585
122	0xbe523c37	-0.20530783
123	0x3df6dc5a	0.120537475
124	0xbeac18e9	-0.33612755
125	0xbe8f8a65	-0.28035274
126	0x3e24f3a6	0.1610857
127	0x3e135fda	0.14392033
128	0x3ea83df5	0.3285977
129	0x3cbb966d	0.022898877
130	0xbcca2a91	-0.0246785
131	0xbeac2b0f	-0.336266
132	0x3c8a8dca	0.016913313
133	0x3e57dbda	0.2107996
134	0x3d64c106	0.055848144
135	0x3e06192d	0.13095541
136	0xbe92341d	-0.28555384
137	0xbe2c2ecb	-0.16814725
138	0xbe3e156e	-0.18562862
139	0x3e19677f	0.14980887
140	0x3b522ddc	0.0032070791
141	0x3d9c2c55	0.07625643
142	0xbd9d0fa5	-0.076689996
143	0xbe0a520a	-0.13507858
144	0x3c814d75	0.015784005
145	0xbe504c80	-0.20341682
146	0x3c84621a	0.01616006
147	0x3da3a23a	0.07989927
148	0xbe1f7d90	-0.15575242
149	0x3dc91c3b	0.09819838
150	0xbe7b3297	-0.24531017
151	0xbe31c890	-0.17361665
152	0x3e29f277	0.16596399
153	0x3e4275c9	0.18990244
154	0x3e2433a6	0.16035327
155	0xbdb5ac4f	-0.08870756
156	0x3e27466d	0.16335459
157	0xbe4d4481	-0.20045663
158	0x3e017269	0.126413
159	0x3e828e75	0.2549931
160	0xbdf6d0e6	-0.12051563
161	0xbd8d145a	-0.068886474
162	0xbd12fcd7	-0.035885658
163	0x3d1c3a42	0.038141496
164	0xbdc48d63	-0.0959728
165	0x3d205756	0.03914579
166	0xbdc727e4	-0.097244054
167	0x3ddb6606	0.10712819
168	0xbe82dc71	-0.25558808
169	0x3cfcee7a	0.030875433
170	0x3e327f7b	0.17431442
171	0x3e35f994	0.17770988
172	0xbd3bb18f	-0.04582363
173	0x3dde5ae4	0.1085718
174	0x3ce88413	0.02838329
175	0xbe1df6aa	-0.15426126
176	0xbdab16b9	-0.083539434
177	0xbc4003db	-0.011719669
178	0x3e9f28b8	0.31085753
179	0x3e8aa1f9	0.270767
180	0x3e7d9aef	0.24766134
181	0xbe7a7b09	-0.24460997
182	0xbd653105	-0.05595495
183	0x3de62f3e	0.112394795
184	0xbe2f017c	-0.1709041
185	0x3ccff0a2	0.025383297
186	0x3c045070	0.008075818
187	0xbf05cd46	-0.5226635
188	0x3ce30e83	0.02771688
189	0x3e57be5d	0.21068712
190	0xbd9dfdbb	-0.07714411
191	0x3e96f0d0	0.294806
192	0xbe33d3a7	-0.17561208
193	0x3e922d94	0.28550398
194	0xbea00030	-0.31250143
195	0xbc5f72eb	-0.013638238
196	0x3e92d1d0	0.286757
197	0xbe7c1d3f	-0.24620531
198	0xba0c99c0	-0.00053634867
199	0xbd3a79b7	-0.045526233
200	0xbdb19153	-0.086702965
201	0x3e81b730	0.25335073
202	0xbc4435bf	-0.011975705
203	0x3c75f67b	0.015012379
204	0xbd592bd7	-0.053020325
205	0x3e526459	0.20546092
206	0x3c888656	0.016665619
207	0xbbff6efd	-0.0077952133
208	0xbdac73a6	-0.08420496
209	0xbdb70961	-0.08937336
210	0xbe990a36	-0.29890603
211	0x3e0e1c95	0.1387809
212	0x3e2290c3	0.15875535
213	0xbe12bdd1	-0.14330222
214	0xbe29c679	-0.16579618
215	0x3dd29f7e	0.10284327
216	0xbe6b0d7b	-0.22954361
217	0xbd74d189	-0.05977014
218	0xbe5d6175	-0.21619208
219	0x3d12b83c	0.03582023
220	0x3e4f5eeb	0.20251052
221	0x3caa6017	0.020797772
222	0xbe3e642b	-0.18592899
223	0x3c8f6aa3	0.017506903
224	0x3d638375	0.05554529
225	0xbdb8c858	-0.090225875
226	0x3e20da79	0.1570834
227	0xbe78455b	-0.24245207
228	0x3e3c8d3c	0.18413252
229	0xbdde2d62	-0.108485
230	0x3d6f462b	0.058416527
231	0x3e3e9be8	0.18614161
232	0x3d031ec2	0.032011755
233	0x3e1e0e8d	0.15435238
234	0x3e7e6fe3	0.24847369
235	0xbdc0281c	-0.0938265
236	0x3e55ae5a	0.20867291
237	0x3df8cf75	0.12148944
238	0xbe6a8df8	-0.2290572
239	0xbd2f74d6	-0.042836033
240	0xbd99d733	-0.07511749
241	0xbe072874	-0.13199025
242	0xbddb6379	-0.10712332
243	0xbed9c192	-0.42530495
244	0x3d764b55	0.060130436
245	0x3e7f9f42	0.24963096
246	0x3d07d19e	0.03315889
247	0x3eb10d40	0.3458042
248	0xbd89b1f0	-0.06723392
249	0x3de94b94	0.113913685
250	0x3e18a352	0.14906052
251	0xbd3bdded	-0.04586594
252	0x3e96dfb1	0.29467538
253	0xbe490cb2	-0.19633749
254	0x3da98151	0.08276618
255	0xbd09e69f	-0.033667203

fc_dec.bias f4 [117]
0	0x3f98b6d3	1.1930794
1	0x3f57fa50	0.8436632
2	0x3e001182	0.12506679
3	0x3e6c59d9	0.23081149
4	0x3e7e4a1b	0.24832956
5	0x3e5562c9	0.20838465
6	0x3e65f17b	0.22455399
7	0x3e618e91	0.22027041
8	0x3e6a2bc3	0.22868256
9	0x3eabe45a	0.33572656
10	0x3ed8d31a	0.42348558
11	0x3f1ebcf7	0.6200709
12	0x3ecb6c0b	0.39730868
13	0x4035cd1e	2.8406444
14	0x3ef44bde	0.47714132
15	0x3b914629	0.0044334126
16	0x3e219054	0.15777713
17	0x3e099f1e	0.13439605
18	0x3ccde3c5	0.025133023
19	0x3e1489ba	0.14505664
20	0x3df29d7c	0.11846444
21	0x3ddbadbd	0.10726497
22	0x3e54c32c	0.20777577
23	0x3d63f485	0.055653114
24	0x3eec3768	0.46136022
25	0x3f63679a	0.8882996
26	0x3f29f16e	0.6638402
27	0x3c5d724a	0.013516018
28	0x3ddd09c5	0.10792879
29	0x3ea35d59	0.31907156
30	0x3e3804ec	0.17970628
31	0x3d823163	0.06357076
32	0x3d7b9750	0.0614236
33	0x3d2961da	0.041353084
34	0x3de68757	0.11256283
35	0x3e660342	0.2246218
36	0x3e107505	0.1410714
37	0x3eb54b7c	0.35409153
38	0x3f569fa0	0.8383732
39	0x3dfa4349	0.12219865
40	0x3d87c021	0.066284426
41	0x3e1997cf	0.14999317
42	0x3d85a230	0.065250754
43	0x3b2b99f0	0.0026184283
44	0x3e0044f6	0.12526307
45	0x3dded240	0.10879946
46	0x3db336ae	0.08750664
47	0x3e2c1314	0.16804153
48	0x3db4ee16	0.08834474
49	0x3e295b4a	0.1653873
50	0x3e0827e3	0.13296466
51	0x3ea36364	0.31911767
52	0x3dec6932	0.11543502
53	0x3dcedf28	0.101011574
54	0x3e0f042d	0.13966437
55	0x3e08b576	0.13350472
56	0x3d82de44	0.0639005
57	0xbcaa0308	-0.020753399
58	0xbd1c8ecb	-0.038222115
59	0x3e0b505a	0.1360487
60	0x3e397ef3	0.18114834
61	0x3bd4772a	0.006483932
62	0x3dc5de23	0.0966151
63	0x3e90bfd1	0.28271344
64	0x3be548df	0.0069972123
65	0x3e932d3c	0.2874545
66	0x3e6dc52a	0.23219743
67	0x3d731470	0.059345663
68	0x3db2eb06	0.087362334
69	0x3e33d1e0	0.1756053
70	0x3da75bab	0.08171781
71	0x3d419bd5	0.047267754
72	0x3e09f5ae	0.13472626
73	0x3ced91f0	0.029000252
74	0x3e1acfc9	0.15118326
75	0x3e4f94e8	0.20271647
76	0x3e071385	0.1319104
77	0x3eaaccab	0.33359274
78	0x407ee941	3.9829867
79	0x3dfa05ab	0.12208112
80	0x3e9e1b8f	0.308804
81	0x3e106a07	0.14102946
82	0x3c9fcd53	0.019507086
83	0x3d249430	0.040180385
84	0x3d9e9307	0.07742887
85	0x3e0f72cd	0.14008637
86	0x3cecbe3f	0.02889931
87	0x3dcf457f	0.10120677
88	0x3d4fab25	0.050700326
89	0x3e577bc7	0.21043311
90	0x3d95d4a8	0.073159516
91	0x3f861c23	1.0477337
92	0x40015b74	2.0212069
93	0x3d27d461	0.040974025
94	0x3e3dc8e2	0.18533662
95	0x3e12a75e	0.14321658
96	0x3e1e07fe	0.15432736
97	0x3deb489a	0.11488457
98	0x3d5be81c	0.053688154
99	0x3e7b984d	0.24569817
100	0x3df01167	0.11722069
101	0x3e4d819a	0.2006897
102	0x3eb4a53c	0.35282314
103	0x3ec3a190	0.382092
104	0x3f61891b	0.8809983
105	0x3ff08397	1.8790158
106	0x3e0e9113	0.13922529
107	0x3d7625d5	0.060094673
108	0x3e299f70	0.16564727
109	0x3d7f6bfd	0.062358845
110	0x3e33f4d7	0.17573868
111	0x3e159256	0.14606604
112	0x3e111b6f	0.14170621
113	0x3e84a49a	0.2590683
114	0x3ec086df	0.37602898
115	0x3eb5b6d8	0.3549106
116	0x3ef32eee	0.47496742

dec1.kernel0 f4 [2, 1, 3, 1]
0	0xbf541b61	-0.82854277
1	0xbf18a12c	-0.5962093
2	0xbeb20b04	-0.3477403
3	0xbf9f8fce	-1.2465761
4	0xbf363d76	-0.7118753
5	0xbfc1fc92	-1.5155203

dec1.kernel1 f4 [2, 1, 2, 2]
0	0xbeb4e4e8	-0.35330892
1	0x3e90ce21	0.28282264
2	0xbed3dcce	-0.41379398
3	0x3e401c80	0.18760872
4	0xbf3bd9dc	-0.733793
5	0xbf221498	-0.63312674
6	0xbde05a77	-0.10954755
7	0xbf51cf0f	-0.8195657

dec1.bias_tensor f4 [2]
0	0xbef75976	-0.4831044
1	0xbea5cfb4	-0.32385027

dec2.kernel0 f4 [1, 2, 5, 1]
0	0xbde5464d	-0.111950494
1	0xbea0abc8	-0.3138106
2	0xbdeece3b	-0.11660429
3	0x3e258439	0.1616372
4	0xbea633fa	-0.3246153
5	0xbd96e721	-0.07368303
6	0x3e2e3ab6	0.17014584
7	0x3e110991	0.14163806
8	0x3de9f709	0.11424071
9	0xbd152bd1	-0.03641874

dec2.kernel1 f4 [1, 2, 4, 2]
0	0x3d0fd905	0.035119075
1	0xbec0bdd0	-0.37644815
2	0xbe9f6b9a	-0.3113678
3	0x3d59fac3	0.05321766
4	0xbdcd5737	-0.100264005
5	0x3e748112	0.23877361
6	0x3d2560a4	0.040375367
7	0xbe15c277	-0.14624964
8	0x3d9405d6	0.072276756
9	0x3d95e50c	0.07319078
10	0x3e2eafed	0.17059298
11	0x3d79edcc	0.061017796
12	0x3d0c1f98	0.034209818
13	0x3d5ee1d3	0.05441458
14	0x3d36ea3e	0.044656985
15	0x3bea15cf	0.007143713

dec2.kernel2 f4 [1, 2, 3, 2]
0	0xbbcac842	-0.0061884234
1	0xbd40c891	-0.047066275
2	0xbea65d7b	-0.32493195
3	0x3e2e99e4	0.17050892
4	0xbe7504b4	-0.23927575
5	0xbdbf9d71	-0.093562014
6	0x3d82840e	0.06372844
7	0xbd15c171	-0.036561433
8	0x3e7df42e	0.24800178
9	0x3c7fc3fc	0.015610691
10	0x3cbe964c	0.023265027
11	0xbc2e6850	-0.010644987

exp_avg f4 [2, 1, 5, 1]
0	0xbaf221ca	-0.0018473205
1	0xbae7831a	-0.0017662973
2	0xbaa3a7f6	-0.0012485969
3	0xba13c8a0	-0.00056375004
4	0x39ba8a52	0.0003557974
5	0xb8a71e9f	-7.968884e-05
6	0xb7e5cd90	-2.739465e-05
7	0x389db944	7.520852e-05
8	0x392036a5	0.00015279146
9	0x393efad3	0.00018213251

exp_avg_sq f4 [2, 1, 5, 1]
0	0x38a3a0ee	7.802421e-05
1	0x38ce1f03	9.828622e-05
2	0x38e7be77	0.00011050415
3	0x38d77b73	0.00010274993
4	0x38b5471a	8.643996e-05
5	0x35156510	5.565389e-07
6	0x3555d9cb	7.9665614e-07
7	0x35c81330	1.4906745e-06
8	0x35b7f4af	1.3705775e-06
9	0x359e7d0c	1.1808311e-06

exp_avg f4 [2, 1, 4, 2]
0	0xbb064f9c	-0.0020494228
1	0xba2fa620	-0.0006700475
2	0xbaac6042	-0.0013151246
3	0xba70e8f2	-0.0009189985
4	0xba6961c3	-0.0008902812
5	0x396e17bc	0.0002270629
6	0xb6e4ad1f	-6.8150835e-06
7	0x398a868a	0.0002642165
8	0xb89f2d7b	-7.590182e-05
9	0x38b4d85a	8.6233675e-05
10	0x379bb8f2	1.8563562e-05
11	0x39319ada	0.00016937722
12	0x383804d2	4.3873508e-05
13	0x39a74c0f	0.0003190939
14	0x389b5f8a	7.4087715e-05
15	0x3966ab93	0.00021998426

exp_avg_sq f4 [2, 1, 4, 2]
0	0x38ad1e33	8.254908e-05
1	0x38bbe6af	8.959823e-05
2	0x38c9a3fc	9.614971e-05
3	0x38df492d	0.00010647099
4	0x38d106e6	9.9671815e-05
5	0x38e6dc30	0.00011008268
6	0x38b128c7	8.447613e-05
7	0x38d35244	0.00010076587
8	0x34a146e1	3.0040158e-07
9	0x35a2dbef	1.213395e-06
10	0x34e3b47d	4.2413367e-07
11	0x361d3374	2.3424773e-06
12	0x3526cce2	6.213796e-07
13	0x365cba4a	3.289099e-06
14	0x351ef133	5.921058e-07
15	0x36207209	2.3908235e-06

exp_avg f4 [2, 1, 3, 2]
0	0xbb025cd9	-0.0019891767
1	0xb9ef422c	-0.00045634934
2	0xbaae7e25	-0.001331274
3	0xb719dcce	-9.170921e-06
4	0xb96afd27	-0.00022410286
5	0x3a0f3021	0.0005462189
6	0xb85d9e86	-5.2838142e-05
7	0x392e95c9	0.00016649732
8	0x3775ef3d	1.465884e-05
9	0x39a00796	0.0003052323
10	0x38178196	3.612189e-05
11	0x39948673	0.00028328932

exp_avg_sq f4 [2, 1, 3, 2]
0	0x38a81475	8.014675e-05
1	0x38c28f46	9.2773276e-05
2	0x38ae4b45	8.3109866e-05
3	0x38d850e9	0.00010314753
4	0x38a35144	7.7875826e-05
5	0x38d5da8d	0.0001019734
6	0x34357afe	1.6901683e-07
7	0x3625101e	2.4596297e-06
8	0x3489758b	2.5603762e-07
9	0x36905666	4.3015925e-06
10	0x34a3b6fe	3.049426e-07
11	0x366fb017	3.5716273e-06

exp_avg f4 [2]
0	0x390bf7bb	0.0001334836
1	0xb99f0420	-0.00030329917

exp_avg_sq f4 [2]
0	0x37de05aa	2.64671e-05
1	0x3680d794	3.839794e-06

exp_avg f4 [1, 2, 3, 1]
0	0xba1c0109	-0.0005951082
1	0xb9bd8251	-0.00036145982
2	0x38080e16	3.2438045e-05
3	0x38a715b2	7.9672216e-05
4	0x3950db01	0.00019918011
5	0x39573da9	0.00020526968

exp_avg_sq f4 [1, 2, 3, 1]
0	0x3720c769	9.583172e-06
1	0x375292f9	1.2551195e-05
2	0x371e00d8	9.41773e-06
3	0x36a5062f	4.918103e-06
4	0x370aa1e4	8.263134e-06
5	0x368f3dfb	4.2689476e-06

exp_avg f4 [1, 2, 2, 2]
0	0xba3bdbac	-0.00071662175
1	0xb9c3b57a	-0.0003732851
2	0xb91a0f6b	-0.00014692328
3	0x372f7ab4	1.0459382e-05
4	0x39122e83	0.00013940972
5	0x3abe1692	0.0014502576
6	0x3a0d38d6	0.00053871924
7	0x3a66b01b	0.00088000455

exp_avg_sq f4 [1, 2, 2, 2]
0	0x3709f7f9	8.223572e-06
1	0x374ec73d	1.2324946e-05
2	0x3701c335	7.734449e-06
3	0x375dfe81	1.3231883e-05
4	0x36d71651	6.4100973e-06
5	0x36c83e08	5.967686e-06
6	0x36d8ba0d	6.458961e-06
7	0x36c8135b	5.9627178e-06

exp_avg f4 [32, 117]
0	0x348a3ad2	2.57473e-07
1	0x351db2a4	5.8747014e-07
2	0x351d4911	5.8593383e-07
3	0x387521e9	5.8444133e-05
4	0x38266904	3.9675288e-05
5	0x38e0946f	0.000107088
6	0x3775d50f	1.46527445e-05
7	0x3714c2c1	8.866832e-06
8	0x366a6a7e	3.4930704e-06
9	0xb6a08912	-4.7843287e-06
10	0x3365a814	5.3471084e-08
11	0x351db2a4	5.8747014e-07
12	0x3423c927	1.5253737e-07
13	0x3501b748	4.8322954e-07
14	0x3789257c	1.6349128e-05
15	0x38691444	5.5570403e-05
16	0x3911a986	0.0001389143
17	0x390540af	0.00012707965
18	0x391c1584	0.00014885335
19	0x388e2a8f	6.779015e-05
20	0x3896e3b1	7.194968e-05
21	0x3816e8bb	3.5979534e-05
22	0xb7b903ee	-2.2055548e-05
23	0xb7886718	-1.626047e-05
24	0xb5936de2	-1.0984334e-06
25	0x34aa8a66	3.1765666e-07
26	0x3501b748	4.8322954e-07
27	0x38aebb4b	8.3318526e-05
28	0x3908b334	0.00013036729
29	0x39190e81	0.0001459662
30	0x38fc9190	0.000120434095
31	0x38d906b8	0.00010348618
32	0x38be68fb	9.07946e-05
33	0x388431d0	6.303529e-05
34	0x37bb475d	2.2325368e-05
35	0xb7a94ccf	-2.0182137e-05
36	0xb7b8e86f	-2.2042745e-05
37	0xb709607c	-8.188301e-06
38	0x34aa8a66	3.1765666e-07
39	0x376dc877	1.4172975e-05
40	0x38d6689e	0.00010223802
41	0x39276d80	0.00015967153
42	0x38c89264	9.5640105e-05
43	0x38a686fc	7.9406396e-05
44	0x37f4c5e7	2.9179222e-05
45	0x38488ffc	4.781781e-05
46	0x383252e7	4.2515716e-05
47	0x381f1033	3.792364e-05
48	0xb6cb58b9	-6.0602e-06
49	0xb818971f	-3.6380367e-05
50	0xb8490b08	-4.7932408e-05
51	0xb634005d	-2.6822302e-06
52	0x381437f8	3.5338075e-05
53	0x385ada59	5.2178602e-05
54	0x38d4bb66	0.000101438534
55	0x385c15ab	5.2472267e-05
56	0x37dc0e1a	2.623261e-05
57	0x387ddfa0	6.0528168e-05
58	0xb685d1da	-3.988139e-06
59	0x37f163c0	2.8775888e-05
60	0x383c70ec	4.492786e-05
61	0x375a3d32	1.3008061e-05
62	0xb833345a	-4.2725682e-05
63	0xb860aa72	-5.35645e-05
64	0xb767241a	-1.37770785e-05
65	0x370e6b42	8.4888325e-06
66	0xb65d3ecd	-3.296812e-06
67	0x3841d072	4.6208916e-05
68	0x38d09b50	9.947142e-05
69	0x390e5aaf	0.00013575958
70	0x392a241f	0.0001622592
71	0x3895d98d	7.145396e-05
72	0x385bfd59	5.2449617e-05
73	0x37945b7c	1.7685576e-05
74	0x36947321	4.4241465e-06
75	0xb8109a20	-3.4475815e-05
76	0xb7d0fabd	-2.4912291e-05
77	0xb716349c	-8.952946e-06
78	0x358c9caf	1.0476414e-06
79	0xb6ddac66	-6.606383e-06
80	0xb58b6090	-1.038441e-06
81	0x383db6c5	4.523133e-05
82	0x3909ef3c	0.0001315446
83	0x38ab416e	8.1661026e-05
84	0x38ad41fa	8.261572e-05
85	0x385eaf6b	5.3092295e-05
86	0x382368dd	3.895989e-05
87	0x37b23296	2.124281e-05
88	0xb7d7d35e	-2.5728423e-05
89	0xb6d73302	-6.4134374e-06
90	0x33cbf110	9.496773e-08
91	0x3501b748	4.8322954e-07
92	0x343efd42	1.7787264e-07
93	0xb78d4050	-1.6838458e-05
94	0x3857cc9d	5.1450555e-05
95	0x38af6ebd	8.365277e-05
96	0x3893afa8	7.042225e-05
97	0x3854f59a	5.0773473e-05
98	0x38520114	5.0068906e-05
99	0x389a4394	7.35588e-05
100	0x387a6567	5.9699083e-05
101	0x36f54acd	7.310277e-06
102	0x3539c6b0	6.9207e-07
103	0x34aa8a66	3.1765666e-07
104	0x3501b748	4.8322954e-07
105	0x350db377	5.278775e-07
106	0x3723d142	9.764279e-06
107	0x38750e48	5.8425852e-05
108	0x38b5f962	8.677204e-05
109	0x381886d0	3.6365178e-05
110	0x38890b20	6.534741e-05
111	0x37529cde	1.2553499e-05
112	0x382aca05	4.0719304e-05
113	0x376f7459	1.4272599e-05
114	0x3705b5b0	7.96972e-06
115	0x350db377	5.278775e-07
116	0x34aa8a66	3.1765666e-07
117	0x34f710c2	4.6019528e-07
118	0x35a79c66	1.2487988e-06
119	0xb48e85b6	-2.654685e-07
120	0x35f09792	1.7925506e-06
121	0x378472b5	1.578904e-05
122	0x382c863e	4.113302e-05
123	0x37dc3a32	2.6253143e-05
124	0x387b08a3	5.9851107e-05
125	0x37fb19ea	2.9933599e-05
126	0x38104fea	3.44067e-05
127	0x354c5324	7.611691e-07
128	0x35a79c66	1.2487988e-06
129	0x346bc415	2.1957415e-07
130	0x3586a381	1.0031364e-06
131	0xb6ecd58f	-7.0582096e-06
132	0xb7836c59	-1.566687e-05
133	0xb6988c17	-4.5462616e-06
134	0x375cd381	1.3162266e-05
135	0x371327a3	8.771111e-06
136	0x37afbef1	2.095054e-05
137	0x37b9fbea	2.2171025e-05
138	0x389f55d3	7.597697e-05
139	0x3888dfec	6.526694e-05
140	0x378c62b1	1.6735257e-05
141	0x3601d299	1.9345082e-06
142	0x35229a33	6.057409e-07
143	0x3586a381	1.0031364e-06
144	0xb89c6cea	-7.4589465e-05
145	0xb84bd7f7	-4.8600104e-05
146	0xb7fd48ad	-3.0193793e-05
147	0x3710fd0d	8.641987e-06
148	0xb78591ec	-1.5922786e-05
149	0xb81ff075	-3.8132497e-05
150	0x36d4fe64	6.3477073e-06
151	0x384c90ee	4.8772366e-05
152	0x38c7e99c	9.5325726e-05
153	0x3829d8a0	4.0494488e-05
154	0x37654d36	1.3667441e-05
155	0x35229a33	6.057409e-07
156	0xb71f217f	-9.484937e-06
157	0xb8b5cb14	-8.668579e-05
158	0xb8cefd95	-9.870079e-05
159	0xb8726e1f	-5.7799854e-05
160	0xb72f4d2f	-1.04487835e-05
161	0x37d3b8af	2.523916e-05
162	0xb8164e96	-3.5835976e-05
163	0x3899bf1d	7.331206e-05
164	0x38a20a75	7.72671e-05
165	0x392915a3	0.00016125156
166	0x38ab261e	8.161015e-05
167	0x388ccc3e	6.713763e-05
168	0x368f2f6c	4.2672527e-06
169	0x37834039	1.5646323e-05
170	0x372cf52b	1.03090815e-05
171	0xb89bb8a4	-7.425368e-05
172	0x386650af	5.4911416e-05
173	0x38b6f58a	8.7241715e-05
174	0x38bb5008	8.931762e-05
175	0x38abb57a	8.187718e-05
176	0x38ec84e1	0.000112781076
177	0x393714ff	0.00017460062
178	0x394a767f	0.00019308364
179	0x3911020a	0.00013829037
180	0x38eb544a	0.00011221373
181	0x37b63e77	2.1725178e-05
182	0x3783a308	1.5692334e-05
183	0xb77fb0bf	-1.5240336e-05
184	0x36e924ac	6.9482103e-06
185	0x38be8839	9.0852795e-05
186	0x394245ae	0.0001852724
187	0x38c5bd0a	9.428903e-05
188	0x3819512b	3.6553636e-05
189	0x38187845	3.6351634e-05
190	0x390e2c61	0.00013558708
191	0x3971460e	0.00023009648
192	0x394472b3	0.00018734745
193	0x389d600f	7.504236e-05
194	0x3789b6f4	1.6416867e-05
195	0x33bd2d79	8.80927e-08
196	0xb7b0dc95	-2.1083551e-05
197	0xb803cb70	-3.14223e-05
198	0x390e4728	0.00013568683
199	0x3958a155	0.00020659466
200	0x387ba0ba	5.999275e-05
201	0xb8075d2e	-3.227329e-05
202	0x36b52500	5.3985277e-06
203	0x39378232	0.00017500742
204	0x391ad279	0.00014764992
205	0x39042817	0.00012603436
206	0x37768412	1.4693493e-05
207	0x35c89377	1.4944079e-06
208	0x3586a381	1.0031364e-06
209	0x358aef49	1.0351442e-06
210	0x37a61a6f	1.9801051e-05
211	0x3893e2ac	7.051727e-05
212	0x390d033d	0.00013448014
213	0x38347435	4.302357e-05
214	0xb87b73ee	-5.995103e-05
215	0xb71532f3	-8.892955e-06
216	0x38bd5506	9.028059e-05
217	0x3895c5a2	7.141686e-05
218	0x37b485f1	2.1520043e-05
219	0x35a773fa	1.2476223e-06
220	0x35229a33	6.057409e-07
221	0x3586a381	1.0031364e-06
222	0x3594d1d9	1.1087933e-06
223	0xb63c1a60	-2.8029535e-06
224	0x387a922f	5.974079e-05
225	0x38b6afb2	8.711162e-05
226	0x3855e4ca	5.0996234e-05
227	0xb83ca6d9	-4.4978082e-05
228	0xb767d251	-1.3817641e-05
229	0x3848bb1a	4.7857968e-05
230	0x3836f9d9	4.362487e-05
231	0x37048740	7.8993035e-06
232	0x3594d1d9	1.1087933e-06
233	0x35229a33	6.057409e-07
234	0xb49c2c64	-2.9089563e-07
235	0xb546664f	-7.3909627e-07
236	0x33736913	5.667341e-08
237	0x37bdb28b	2.2613696e-05
238	0x37f4e73c	2.9194744e-05
239	0x384a6f16	4.826401e-05
240	0xb6f3a8f1	-7.2616317e-06
241	0x373512ce	1.0792819e-05
242	0x37fb07c8	2.9925155e-05
243	0x380b0b01	3.315043e-05
244	0x3588d979	1.0196082e-06
245	0xb546664f	-7.3909627e-07
246	0xb4249e89	-1.5331365e-07
247	0xb52041f0	-5.9700596e-07
248	0x368a6004	4.123898e-06
249	0x371375a8	8.789277e-06
250	0x37aa5b9b	2.0308236e-05
251	0x388fb15a	6.851806e-05
252	0x36fb8c51	7.496718e-06
253	0x3644d640	2.9330986e-06
254	0xb8063fe3	-3.200759e-05
255	0x381ac6e7	3.6901703e-05

exp_avg_sq f4 [32, 117]
0	0x2bff3136	1.8132499e-12
1	0x2ce26168	6.4341206e-12
2	0x31434b65	2.8419092e-09
3	0x33e8f787	1.0848367e-07
4	0x32f2d201	2.8268007e-08
5	0x3403d369	1.2277236e-07
6	0x32e07265	2.6129053e-08
7	0x33ddf947	1.0336458e-07
8	0x32c0b396	2.2433408e-08
9	0x338866b4	6.351675e-08
10	0x2f2aaf1c	1.5523621e-10
11	0x2ce26168	6.4341206e-12
12	0x2b8d2299	1.0028255e-12
13	0x2ca94e7f	4.8119837e-12
14	0x31a1c96d	4.708616e-09
15	0x3384ac4d	6.17807e-08
16	0x3456d1d5	2.000664e-07
17	0x34406b26	1.7920374e-07
18	0x34720386	2.2539288e-07
19	0x3442d5e1	1.8145467e-07
20	0x34579aa9	2.00797e-07
21	0x34123548	1.3616693e-07
22	0x34103de0	1.3433555e-07
23	0x326e3511	1.3865489e-08
24	0x2fa22931	2.9496897e-10
25	0x2c21f55d	2.301568e-12
26	0x2ca94e7f	4.8119837e-12
27	0x338c6047	6.536771e-08
28	0x3443ab8c	1.8223199e-07
29	0x348b9b6c	2.6003852e-07
30	0x3486afc5	2.5087334e-07
31	0x34a59f52	3.0849566e-07
32	0x3493e1e8	2.7545252e-07
33	0x348f501e	2.6694119e-07
34	0x344c68f2	1.903716e-07
35	0x3441111d	1.7980751e-07
36	0x33b05dc3	8.212694e-08
37	0x32717285	1.4054085e-08
38	0x2c21f55d	2.301568e-12
39	0x3164d656	3.3300203e-09
40	0x34171fae	1.4074496e-07
41	0x346c0462	2.1980807e-07
42	0x34a99367	3.1585952e-07
43	0x34ae71c8	3.2492812e-07
44	0x34c1728a	3.603239e-07
45	0x34b60217	3.3901662e-07
46	0x34b26e89	3.3235509e-07
47	0x3488afcb	2.545988e-07
48	0x347c1580	2.347715e-07
49	0x342930fd	1.5757173e-07
50	0x33aa96f1	7.943698e-08
51	0x2f8b130b	2.5297484e-10
52	0x332d57e7	4.0359648e-08
53	0x34454180	1.8370883e-07
54	0x3483f3a5	2.4577926e-07
55	0x34b51c70	3.3734568e-07
56	0x34c63168	3.6916322e-07
57	0x34bc1741	3.5034648e-07
58	0x34c24955	3.6188672e-07
59	0x34bf8fc1	3.5681117e-07
60	0x349fd8cb	2.9773796e-07
61	0x348a0f05	2.571543e-07
62	0x3442f01e	1.8155012e-07
63	0x33f1ce99	1.1260017e-07
64	0x31db0b27	6.3750067e-09
65	0x3287d442	1.5812592e-08
66	0x33f66227	1.14731215e-07
67	0x34919a2b	2.7120527e-07
68	0x34a3c967	3.0507655e-07
69	0x34b1573f	3.30323e-07
70	0x349b3e72	2.8916435e-07
71	0x34b35e10	3.3409788e-07
72	0x34af637d	3.2668677e-07
73	0x34a5f1fa	3.0909706e-07
74	0x34821749	2.423133e-07
75	0x344afefc	1.8905479e-07
76	0x336151c2	5.2461253e-08
77	0x317de2d6	3.6945287e-09
78	0x2ea0e760	7.317058e-11
79	0x328cab3d	1.6376015e-08
80	0x347d6ace	2.3601316e-07
81	0x34727f02	2.2584211e-07
82	0x3492a0c1	2.7311583e-07
83	0x3487c805	2.5291243e-07
84	0x349dc7d1	2.9388914e-07
85	0x34a2ca68	3.032212e-07
86	0x3498e5d8	2.847944e-07
87	0x345a51f4	2.0332646e-07
88	0x3426b7eb	1.5526864e-07
89	0x31aed1e0	5.0879265e-09
90	0x2daa7bd0	1.9381746e-11
91	0x2ca94e7f	4.8119837e-12
92	0x2e991726	6.9617465e-11
93	0x33d93567	1.0114564e-07
94	0x34260a6b	1.5463745e-07
95	0x346298a2	2.1103418e-07
96	0x346801e8	2.1607377e-07
97	0x3489d8bf	2.5675942e-07
98	0x34891272	2.553166e-07
99	0x348823bc	2.5357974e-07
100	0x342757ba	1.5585002e-07
101	0x336c724a	5.5051977e-08
102	0x2ddfd80f	2.5448114e-11
103	0x2c21f55d	2.301568e-12
104	0x2ca94e7f	4.8119837e-12
105	0x2cbd66f5	5.3831336e-12
106	0x325754d4	1.2533935e-08
107	0x337f82cc	5.9490773e-08
108	0x34376894	1.7081248e-07
109	0x34043845	1.2313929e-07
110	0x34633f8e	2.1164144e-07
111	0x3407ca9a	1.2646561e-07
112	0x34446c7c	1.8293389e-07
113	0x334a72ba	4.7136133e-08
114	0x31a8ce7b	4.9129176e-09
115	0x2cbd66f5	5.3831336e-12
116	0x2c21f55d	2.301568e-12
117	0x2bfde030	1.8038956e-12
118	0x2cda7ccc	6.209788e-12
119	0x30e89379	1.6922136e-09
120	0x338a7edf	6.4492035e-08
121	0x328eb75d	1.661436e-08
122	0x33907540	6.72685e-08
123	0x3286ed2b	1.5707505e-08
124	0x3391b2aa	6.7845875e-08
125	0x3285c7cc	1.5574095e-08
126	0x3341790c	4.5046406e-08
127	0x2eec5bee	1.07483675e-10
128	0x2cda7ccc	6.209788e-12
129	0x2b8f0c55	1.0164184e-12
130	0x2ca3de8b	4.657446e-12
131	0x31813fe7	3.761659e-09
132	0x3334db3b	4.2108905e-08
133	0x340ecc90	1.32992e-07
134	0x33dc4df5	1.02587286e-07
135	0x33f046ac	1.1188726e-07
136	0x33cdb549	9.579032e-08
137	0x3403eb3e	1.2285906e-07
138	0x33da3e86	1.0162789e-07
139	0x33ee3ba5	1.1093588e-07
140	0x324599cb	1.1501878e-08
141	0x2fa79ae4	3.048718e-10
142	0x2c201245	2.274751e-12
143	0x2ca3de8b	4.657446e-12
144	0x339e16af	7.3615745e-08
145	0x341245f2	1.3622756e-07
146	0x344300cf	1.8161084e-07
147	0x341d5e13	1.4655988e-07
148	0x34216904	1.5032498e-07
149	0x341186ae	1.3553174e-07
150	0x342b7a0b	1.5970015e-07
151	0x3417a149	1.4121646e-07
152	0x342a612e	1.5867838e-07
153	0x33af3e35	8.160388e-08
154	0x32898ee3	1.6013876e-08
155	0x2c201245	2.274751e-12
156	0x31de172a	6.463684e-09
157	0x34843529	2.4625595e-07
158	0x3465d0ac	2.1403201e-07
159	0x348643f6	2.5008893e-07
160	0x3453f017	1.973825e-07
161	0x344df62d	1.9181671e-07
162	0x3436e021	1.7031608e-07
163	0x3449de27	1.8800402e-07
164	0x343d1ecf	1.7613205e-07
165	0x3456ee9b	2.0017107e-07
166	0x34292c16	1.575539e-07
167	0x33c04c72	8.954602e-08
168	0x2fa59ca4	3.0124625e-10
169	0x3387a3af	6.316201e-08
170	0x348f2b38	2.666727e-07
171	0x349f9983	2.9727752e-07
172	0x34951f91	2.777638e-07
173	0x347bfc12	2.3467899e-07
174	0x34512ae8	1.9480251e-07
175	0x344dbc37	1.9160585e-07
176	0x345f1b52	2.0778432e-07
177	0x346276ba	2.1091083e-07
178	0x34880c7f	2.5341066e-07
179	0x345a0ee9	2.0308256e-07
180	0x340b0f80	1.2951023e-07
181	0x31f4752d	7.114656e-09
182	0x32b42367	2.0970857e-08
183	0x34075011	1.2601983e-07
184	0x34891ecf	2.5540655e-07
185	0x34767bc4	2.2955561e-07
186	0x34665d3c	2.1454338e-07
187	0x34438136	1.8207797e-07
188	0x3453163b	1.9658994e-07
189	0x34772586	2.3017319e-07
190	0x34855ab8	2.4839187e-07
191	0x349375e4	2.746666e-07
192	0x3482949c	2.4322514e-07
193	0x338d7318	6.5867596e-08
194	0x3189f3d7	4.014946e-09
195	0x2eb7c95a	8.357644e-11
196	0x3282c89c	1.5225218e-08
197	0x34519c8a	1.952159e-07
198	0x343fc730	1.7860725e-07
199	0x3444fe57	1.8346451e-07
200	0x34456908	1.8385265e-07
201	0x345564e1	1.987387e-07
202	0x3473ad6e	2.2694232e-07
203	0x34852bf5	2.4805163e-07
204	0x34697a28	2.1744256e-07
205	0x345b2fe9	2.0413394e-07
206	0x31f0ee2f	7.0119976e-09
207	0x2ddec31b	2.5325122e-11
208	0x2ca3de8b	4.657446e-12
209	0x2e9cab41	7.1244795e-11
210	0x33cb6e8e	9.473034e-08
211	0x34212900	1.5009209e-07
212	0x3436f3f0	1.7038815e-07
213	0x344df1bd	1.9180057e-07
214	0x345dcb40	2.0656171e-07
215	0x3464dae5	2.1313788e-07
216	0x346e0c49	2.2169947e-07
217	0x34359489	1.6910975e-07
218	0x33971ebd	7.037077e-08
219	0x2e1161da	3.3056093e-11
220	0x2c201245	2.274751e-12
221	0x2ca3de8b	4.657446e-12
222	0x2cb740dd	5.208374e-12
223	0x3265d9bc	1.3379061e-08
224	0x338b0510	6.473613e-08
225	0x342f2578	1.6311776e-07
226	0x33e59c20	1.06920425e-07
227	0x3442f2cf	1.8155991e-07
228	0x33f8102c	1.15513416e-07
229	0x3447d247	1.8609818e-07
230	0x3362580d	5.2699807e-08
231	0x31ce84f6	6.010505e-09
232	0x2cb740dd	5.208374e-12
233	0x2c201245	2.274751e-12
234	0x2c1df894	2.244903e-12
235	0x2d0aceef	7.89034e-12
236	0x3195ece8	4.363404e-09
237	0x343ad32d	1.7399425e-07
238	0x333abcc5	4.3478185e-08
239	0x342c37bf	1.6039029e-07
240	0x330c4c0c	3.2665454e-08
241	0x340614da	1.2487308e-07
242	0x32d0ee25	2.4322683e-08
243	0x339102a3	6.752568e-08
244	0x2f2ba69c	1.5611551e-10
245	0x2d0aceef	7.89034e-12
246	0x2bb03ec6	1.2522975e-12
247	0x2cd03d46	5.9185183e-12
248	0x31e420f3	6.6394192e-09
249	0x33e76cae	1.07765445e-07
250	0x34c755e4	3.7129132e-07
251	0x349cb233	2.918692e-07
252	0x34a13186	3.002462e-07
253	0x3468e303	2.168927e-07
254	0x34738245	2.267853e-07
255	0x3429d170	1.5815544e-07

exp_avg f4 [32]
0	0x3915f98e	0.00014302714
1	0x39bc157d	0.00035874164
2	0xb92166da	-0.00015392472
3	0x35c3d8d2	1.4591735e-06
4	0x35b7b133	1.3686134e-06
5	0x37b15f9d	2.1144568e-05
6	0xb8bd273a	-9.019529e-05
7	0xb9024cbf	-0.00012426356
8	0xb7a17c5b	-1.9250603e-05
9	0xb8f87f7c	-0.00011849307
10	0xb839c2aa	-4.4288732e-05
11	0x38392561	4.414225e-05
12	0xb6c9503b	-5.999607e-06
13	0xb84e60ea	-4.9204486e-05
14	0x3729fa58	1.0131473e-05
15	0xb82b23d8	-4.080296e-05
16	0xb98a0ae8	-0.00026329537
17	0x36d5a08e	6.3665857e-06
18	0x38d37b45	0.00010084225
19	0xb94b7230	-0.00019402127
20	0xb991568f	-0.00027721046
21	0x382ff395	4.1950105e-05
22	0x37954957	1.7796336e-05
23	0xb875b64f	-5.858234e-05
24	0x386ef06d	5.6967536e-05
25	0xb96aaddd	-0.00022380748
26	0x38e36ae0	0.000108441105
27	0xb8a5d5df	-7.90765e-05
28	0x38e44e6f	0.000108864966
29	0xb9130616	-0.0001402128
30	0xb94d6565	-0.00019588096
31	0xb86c6ef6	-5.6370125e-05

exp_avg_sq f4 [32]
0	0x34c99854	3.755e-07
1	0x34cae4cf	3.7791912e-07
2	0x34f39017	4.5367116e-07
3	0x34e5c666	4.2798928e-07
4	0x34b2fe56	3.3340137e-07
5	0x34b70cb3	3.4095646e-07
6	0x34b41dd8	3.3549327e-07
7	0x34dac0f1	4.0746048e-07
8	0x34d4352c	3.9526765e-07
9	0x34aef52e	3.2588417e-07
10	0x34c60c8d	3.6889506e-07
11	0x34b077bd	3.2869676e-07
12	0x34c7aedf	3.7193874e-07
13	0x34e98733	4.3498002e-07
14	0x34d487e0	3.958694e-07
15	0x34ae4a7c	3.246422e-07
16	0x34dc9ad1	4.1090837e-07
17	0x34f81d1c	4.621478e-07
18	0x34b4ab16	3.3652094e-07
19	0x34df8ff5	4.164173e-07
20	0x34e8fb8b	4.339639e-07
21	0x34cea150	3.848786e-07
22	0x35197e86	5.718106e-07
23	0x34eafeaf	4.3771203e-07
24	0x34e2f55c	4.2274303e-07
25	0x34d7e56d	4.02138e-07
26	0x34ba8b86	3.4746716e-07
27	0x34c10ecf	3.5959826e-07
28	0x34ba7a27	3.4734077e-07
29	0x34cd5730	3.8247663e-07
30	0x34dd9642	4.1273785e-07
31	0x34c7f4cf	3.724476e-07

exp_avg f4 [117, 32]
0	0x2408fb1e	2.9703004e-17
1	0x2765cc5f	3.1890924e-15
2	0xa73e37fb	-2.6398144e-15
3	0xa786163d	-3.7216582e-15
4	0x25c0a2ac	3.3416921e-16
5	0xa7ae2f89	-4.834624e-15
6	0xa7ac81d2	-4.788034e-15
7	0xa740a85c	-2.673662e-15
8	0xa719b650	-2.1331847e-15
9	0x27929196	4.0680985e-15
10	0x27122453	2.0281262e-15
11	0x2707db8b	1.8854028e-15
12	0x27a40093	4.5519767e-15
13	0xa80cda5f	-7.818913e-15
14	0x2773fdb9	3.3860568e-15
15	0x27987a2d	4.232094e-15
16	0xa6d5b801	-1.4829718e-15
17	0xa6a42345	-1.1389346e-15
18	0x26b6e3a3	1.2690488e-15
19	0xa82e831c	-9.68737e-15
20	0x27c9b068	5.5979967e-15
21	0x26cfa954	1.4409407e-15
22	0x28023039	7.226906e-15
23	0xa79bff5f	-4.3298016e-15
24	0xa6a0d7f1	-1.1160761e-15
25	0xa7a717bf	-4.6377557e-15
26	0x2778e2be	3.453983e-15
27	0xa62d4bdd	-6.0124246e-16
28	0x2701bd1b	1.800486e-15
29	0x27c4dc67	5.463989e-15
30	0xa7126423	-2.0315854e-15
31	0x271b0c3a	2.15172e-15
32	0xb5d757e4	-1.6044328e-06
33	0x349310a6	2.7392997e-07
34	0xb60ee869	-2.129493e-06
35	0x35026586	4.857651e-07
36	0x33a08c85	7.476141e-08
37	0x354b711a	7.578798e-07
38	0x35a15584	1.2020323e-06
39	0x3504eec7	4.95213e-07
40	0xb5987f90	-1.1362008e-06
41	0xb4ec1e49	-4.398046e-07
42	0xb539418d	-6.901326e-07
43	0x35e0684e	1.6719657e-06
44	0x34b8cae2	3.4420287e-07
45	0x35067a65	5.0097e-07
46	0xb4c3b7c1	-3.645528e-07
47	0xb5a1278b	-1.2006943e-06
48	0x351c8acd	5.831651e-07
49	0xb59c78dd	-1.1658082e-06
50	0x359951be	1.1423178e-06
51	0x3580d2c0	9.59808e-07
52	0xb482c332	-2.435641e-07
53	0x354b22e4	7.5674166e-07
54	0xb59d9c19	-1.1742842e-06
55	0xb5f2f2fe	-1.8101125e-06
56	0xb5e48e1c	-1.7028683e-06
57	0x32abb810	1.9990722e-08
58	0x34a26997	3.0251678e-07
59	0xb5b4dcac	-1.3475269e-06
60	0x34ba110f	3.4657612e-07
61	0xb5945886	-1.1052623e-06
62	0xb35e7694	-5.179625e-08
63	0xb3953dd8	-6.9496025e-08
64	0x360005aa	1.9076783e-06
65	0xb71e683d	-9.441804e-06
66	0xb7aa9326	-2.03341e-05
67	0x372739d6	9.967442e-06
68	0xb785f970	-1.5970989e-05
69	0x368befeb	4.170453e-06
70	0x3798260e	1.8137533e-05
71	0x373bbd5a	1.1190155e-05
72	0xb7fa5f43	-2.9846682e-05
73	0x376769d7	1.3793316e-05
74	0xb7f4961a	-2.9156963e-05
75	0x36723855	3.60936e-06
76	0xb4e6e21f	-4.3005363e-07
77	0xb60f2f41	-2.1336166e-06
78	0x37c2db86	2.3228826e-05
79	0xb767a2cd	-1.3806578e-05
80	0x373dfffc	1.1324879e-05
81	0xb6e0f1dd	-6.703877e-06
82	0xb6acf09d	-5.1540105e-06
83	0xb63f0f5f	-2.8470165e-06
84	0x374478f2	1.171067e-05
85	0x3784f2e7	1.5848736e-05
86	0x3497d1b4	2.827852e-07
87	0xb5831ba3	-9.768304e-07
88	0x376e7369	1.42127765e-05
89	0x36d67b51	6.392053e-06
90	0xb7836eeb	-1.5668067e-05
91	0xb7751f89	-1.461048e-05
92	0x37542ff9	1.2647354e-05
93	0xb6d326b9	-6.292798e-06
94	0xb4224385	-1.5111989e-07
95	0xb74d42b8	-1.2234486e-05
96	0xb62228cb	-2.4163626e-06
97	0xb8088a15	-3.2553526e-05
98	0xb7e978ec	-2.7832073e-05
99	0xb6e6e028	-6.8806294e-06
100	0xb84c742e	-4.874559e-05
101	0x379438ae	1.7669368e-05
102	0x38685dff	5.540065e-05
103	0x37599473	1.2968771e-05
104	0xb804f01c	-3.169487e-05
105	0x37d5dfb5	2.549575e-05
106	0xb8264731	-3.9643786e-05
107	0xb6ec1e9c	-7.0369115e-06
108	0x3776d541	1.4712395e-05
109	0xb878e150	-5.9337646e-05
110	0x37f425a8	2.9104602e-05
111	0xb7de7b04	-2.6521746e-05
112	0x37d22799	2.505239e-05
113	0xb763a2ab	-1.3568128e-05
114	0x3576350c	9.1719335e-07
115	0x372d8869	1.0343364e-05
116	0x37dce9e5	2.633496e-05
117	0x37994d89	1.8275126e-05
118	0x35d1235f	1.5582008e-06
119	0xb77655c1	-1.4682709e-05
120	0x380c5163	3.34544e-05
121	0x3780938f	1.5327501e-05
122	0x36966b3e	4.482833e-06
123	0xb6ab2afc	-5.101201e-06
124	0x3800a9f1	3.067585e-05
125	0x37984094	1.8149884e-05
126	0x375701c8	1.2815413e-05
127	0xb714d5f6	-8.871304e-06
128	0x37b5c4d6	2.166854e-05
129	0xb80474b4	-3.157994e-05
130	0xb7f09c49	-2.8683005e-05
131	0xb77d1243	-1.5084227e-05
132	0xb81054f2	-3.4411387e-05
133	0xb7120141	-8.70257e-06
134	0x35012e31	4.812346e-07
135	0x37083e96	8.120804e-06
136	0x378f61d0	1.7092476e-05
137	0xb82366a2	-3.8957813e-05
138	0xb806659e	-3.2042728e-05
139	0x3815ed11	3.5745154e-05
140	0x37e99b18	2.7847986e-05
141	0xb883ef24	-6.29111e-05
142	0x3823868b	3.898753e-05
143	0xb7dc5a88	-2.62682e-05
144	0x37529b1f	1.2553092e-05
145	0xb5b7a853	-1.3683551e-06
146	0x361850c9	2.2696788e-06
147	0x35716669	8.992852e-07
148	0xb8177245	-3.6107627e-05
149	0xb704a187	-7.905422e-06
150	0x37379a12	1.0943522e-05
151	0xb82b92cc	-4.0906292e-05
152	0xb7e6d259	-2.7516087e-05
153	0x37bd725a	2.2583805e-05
154	0x37dc1daa	2.6239857e-05
155	0x380ece77	3.4047724e-05
156	0xb729bdd3	-1.0117382e-05
157	0xb76c2408	-1.4075085e-05
158	0x368b9d2b	4.1608196e-06
159	0xb665156c	-3.4136128e-06
160	0xb80c05a5	-3.3383858e-05
161	0xb81762e2	-3.6093297e-05
162	0xb6ce9d3e	-6.157584e-06
163	0x37387d22	1.0996389e-05
164	0xb80c4a69	-3.34479e-05
165	0x37553e30	1.27102685e-05
166	0xb7d86ec0	-2.5800779e-05
167	0xb8537e17	-5.042375e-05
168	0x36bdfb5a	5.6619e-06
169	0xb889c9a5	-6.570228e-05
170	0xb8266a4b	-3.9676477e-05
171	0x34043862	1.231397e-07
172	0x3812fa5c	3.5042278e-05
173	0x36f1734f	7.1957834e-06
174	0xb8464395	-4.726982e-05
175	0x36f5b94c	7.3231404e-06
176	0xb639dd45	-2.7695944e-06
177	0xb7520e49	-1.2520301e-05
178	0x380dfb73	3.38512e-05
179	0x365d2605	3.2953697e-06
180	0xb81a1267	-3.67336e-05
181	0xb6c887d6	-5.976278e-06
182	0xb89b876e	-7.416202e-05
183	0xb8086e46	-3.2527627e-05
184	0xb6b46424	-5.376076e-06
185	0xb817fca9	-3.6236514e-05
186	0x3804e6ee	3.1686322e-05
187	0x3873ce17	5.812765e-05
188	0xb7e8cca2	-2.7751845e-05
189	0x375822c8	1.2882701e-05
190	0xb823e441	-3.9074806e-05
191	0xb83f4fde	-4.561233e-05
192	0xb82009ba	-3.815603e-05
193	0xb7ad9d96	-2.0696589e-05
194	0x3780b7b6	1.5344336e-05
195	0x373c2367	1.1213916e-05
196	0xb6e01270	-6.6778666e-06
197	0x37cf887a	2.4739875e-05
198	0x37d2fe8e	2.5152487e-05
199	0xb885aab2	-6.373729e-05
200	0xb7ee07b5	-2.83754e-05
201	0xb80a61be	-3.2992793e-05
202	0xb80813bb	-3.2443302e-05
203	0xb72a5b00	-1.0153977e-05
204	0x3661998b	3.3616986e-06
205	0x37d5b0d3	2.5473919e-05
206	0xb836dae0	-4.3596025e-05
207	0xb7bacc62	-2.2268101e-05
208	0x3871a920	5.7616387e-05
209	0xb8039c11	-3.1378182e-05
210	0x36945436	4.420547e-06
211	0xb70e5c44	-8.485342e-06
212	0x379a1005	1.836569e-05
213	0x37c14dcf	2.3043625e-05
214	0xb7a7aa9f	-1.9987403e-05
215	0xb7db966d	-2.6176882e-05
216	0x37c99d08	2.403419e-05
217	0xb7e292c4	-2.7009643e-05
218	0x361679ce	2.2422641e-06
219	0x37463ce3	1.1815896e-05
220	0xb803fb28	-3.146674e-05
221	0x37ce455f	2.4589417e-05
222	0xb67ef1f1	-3.7989778e-06
223	0xb78604f0	-1.5976344e-05
224	0xb79a35fa	-1.8383365e-05
225	0xb7e3b23d	-2.7143507e-05
226	0x38c1cd1e	9.241163e-05
227	0xb65e1016	-3.308994e-06
228	0x388b69f6	6.647773e-05
229	0x373c48f6	1.1222661e-05
230	0x36ec529b	7.0429646e-06
231	0xb8543691	-5.0595558e-05
232	0x34d7c711	4.019171e-07
233	0xb83d4d4c	-4.51331e-05
234	0x372dda24	1.0362393e-05
235	0x38095433	3.2741762e-05
236	0x37a130cd	1.921542e-05
237	0x3752f723	1.2574516e-05
238	0xb8cdc081	-9.8110184e-05
239	0x37fdb4b6	3.02441e-05
240	0x37754359	1.4618819e-05
241	0x379ffe0b	1.9072575e-05
242	0xb7a57457	-1.9723708e-05
243	0xb836fa90	-4.3625536e-05
244	0xb814d8bc	-3.54878e-05
245	0x37dc49c4	2.6260393e-05
246	0xb86d167d	-5.6526147e-05
247	0x381cb433	3.7361122e-05
248	0x378e4f10	1.6964535e-05
249	0x37bc983c	2.2482236e-05
250	0x38a2eb6e	7.768614e-05
251	0xb7bc8813	-2.2474711e-05
252	0xb7f40990	-2.909152e-05
253	0x3688b720	4.0744344e-06
254	0xb829e9ee	-4.0510604e-05
255	0xb78fbbbb	-1.7134347e-05
