server_report/ae_hexa/ae_hexa_base/autoencoder_20251228_152147.pth (torch, 757294 bytes, 51 tensors)

enc1.kernel0 f4 [8, 1, 5, 1]
0	0xbd6f7b42	-0.058467157
1	0x3e6716bd	0.22567268
2	0x3ed2037a	0.41018277
3	0x3df66cb7	0.120324545
4	0xbdf111aa	-0.11770947
5	0xbe3a51c3	-0.18195252
6	0xbe864bd2	-0.2622972
7	0x3b55ea50	0.0032640882
8	0x3e58d352	0.21174362
9	0x3ce920fe	0.028458115
10	0xbc2810ea	-0.010257939
11	0xbea573c3	-0.32314882
12	0x3d93a4ba	0.072091535
13	0x3eeae692	0.45879036
14	0x3e5cd4be	0.2156553
15	0xbe3f7181	-0.18695642
16	0xbdc82a95	-0.09773747
17	0xbd2d204d	-0.042267133
18	0xbd93eb2b	-0.07222589
19	0xbe2f4df2	-0.17119578
20	0xbc8ffdfb	-0.017577162
21	0x3e8a5da0	0.27024555
22	0x3f0ba6c0	0.54551315
23	0x3db45129	0.088045426
24	0xbe1f9dee	-0.15587589
25	0xbe46baca	-0.19407192
26	0xbe44ba37	-0.1921166
27	0xbd5fe433	-0.054660987
28	0x3dee8cf0	0.116479754
29	0x3b5f20e6	0.0034046709
30	0xbdcde6b1	-0.100537665
31	0x3c649d1d	0.013953474
32	0x3e93c02b	0.2885755
33	0x3e059c99	0.13048019
34	0x3cd41a87	0.025891555
35	0x3e448f8d	0.19195385
36	0x3e947da2	0.290021
37	0x3d36e268	0.04464951
38	0xbe8a30b0	-0.2699027
39	0xbcd410df	-0.025886951

enc1.kernel1 f4 [8, 1, 4, 2]
0	0x3cd3148f	0.025766639
1	0xbd79d6f1	-0.060996
2	0x3e580bb2	0.21098211
3	0x3e21f918	0.15817678
4	0x3e17005e	0.14746234
5	0x3e399a3d	0.18125243
6	0xbd40bbcb	-0.047054093
7	0xbca381ff	-0.019959448
8	0xbe92d193	-0.28675517
9	0xbd0b0633	-0.03394146
10	0xbef3b7bf	-0.47601125
11	0x3e2111a5	0.15729387
12	0xbeb9c753	-0.36284885
13	0x3e69aa59	0.22818889
14	0xbda36cf5	-0.07979766
15	0x3d89a9fc	0.06721875
16	0xbe3fc51e	-0.18727538
17	0xbe0be2c7	-0.13660727
18	0xbe880959	-0.26569632
19	0xbe5f99e9	-0.21836056
20	0x3e8b46fb	0.2720259
21	0x3ea11915	0.3146445
22	0x3eaaefc6	0.33386058
23	0x3ed29750	0.41131067
24	0xbe0b65cf	-0.13613056
25	0xbe36b1f1	-0.17841317
26	0xbd87fccc	-0.06640014
27	0xbdb81a0f	-0.08989345
28	0xbdc03c09	-0.09386451
29	0xbdc79441	-0.09745074
30	0xbe164cd1	-0.1467774
31	0xbe364a84	-0.17801863
32	0x3ceccbc2	0.028905753
33	0x3d924dbe	0.071437344
34	0x3e4d5188	0.20050633
35	0x3ecdd68a	0.40202743
36	0x3dd31519	0.103067584
37	0x3eb4d1f7	0.3531644
38	0xbde6d390	-0.11270821
39	0x3c873959	0.016506838
40	0x3dbd8bd7	0.09255188
41	0xbe8f5c97	-0.28000328
42	0x3e821fa3	0.25414762
43	0xbeeae4e7	-0.45877764
44	0x3e3be3a6	0.1834856
45	0xbeb1aee5	-0.34703746
46	0x3cb16372	0.021653865
47	0xbe0925ec	-0.13393372
48	0x3da38c2a	0.079857185
49	0x3d21986f	0.039452013
50	0x3e356a22	0.17716268
51	0x3e7f94ab	0.24959056
52	0x3e2f1b7f	0.17100333
53	0x3ea7810d	0.32715645
54	0x3dffb360	0.12485385
55	0x3e13b19f	0.14423226
56	0x3df8a60c	0.12141046
57	0x3e3d3470	0.18477035
58	0x3e4cd7f8	0.2000426
59	0x3e79e882	0.24405101
60	0xbda2942e	-0.07938419
61	0xbdb4d523	-0.08829715
62	0xbe078cc7	-0.13237296
63	0xbe1a5eb3	-0.15075187

enc1.kernel2 f4 [8, 1, 3, 2]
0	0xbdcfe047	-0.101501994
1	0xbd335d62	-0.04379023
2	0xbdc469b3	-0.09590473
3	0xbd3dd958	-0.046349853
4	0xbdfd1d8f	-0.123591535
5	0xbd46bf23	-0.048522126
6	0xbed66b7f	-0.41878888
7	0xbdb9011e	-0.09033416
8	0xbef3fc37	-0.47653362
9	0xbc9d5d70	-0.019209594
10	0xbecf6c03	-0.40512094
11	0x3ac87242	0.001529284
12	0xbcdd7b4a	-0.027036328
13	0xbd47f997	-0.04882201
14	0x3de1b09d	0.110200144
15	0x3d9e9611	0.07743467
16	0x3eae83db	0.34084973
17	0x3eb9d944	0.36298573
18	0xbe3696fc	-0.17831033
19	0xbe146a5b	-0.14493696
20	0xbe576431	-0.21034314
21	0xbe438f7c	-0.19097704
22	0xbe1a8f3e	-0.15093705
23	0xbe1328cd	-0.14371033
24	0x3a186c1e	0.00058144506
25	0xbd214ba9	-0.039378796
26	0xbd267a14	-0.040643767
27	0xbe0a9fd4	-0.13537532
28	0xbd96f805	-0.07371525
29	0xbddb108c	-0.106965154
30	0x3c939671	0.018016072
31	0xbe4e6328	-0.20155013
32	0xbc62a583	-0.013833406
33	0xbe9fd4cb	-0.31217036
34	0xbc8e87cd	-0.01739874
35	0xbe94f08e	-0.2908978
36	0x3e86a445	0.26297203
37	0x3c93e9c1	0.018055798
38	0x3e62f12e	0.22162315
39	0x3db62790	0.08894265
40	0x3e2076fe	0.15670392
41	0x3de2a95a	0.110674575
42	0x3e67adf8	0.22624958
43	0x3e344ae4	0.17606694
44	0x3e646e17	0.22307621
45	0x3e687203	0.22699742
46	0x3dd72d79	0.1050672
47	0x3d8c0caf	0.06838357

enc1.bias_tensor f4 [8]
0	0x3e737d1b	0.23778193
1	0x3e98ea24	0.29866135
2	0xbe83ef01	-0.25768283
3	0x3e9d65cd	0.3074173
4	0x3e140fd1	0.14459158
5	0x3e685d8c	0.22691935
6	0xbc10b0b7	-0.008831195
7	0xbe4d845b	-0.20070021

enc2.kernel0 f4 [4, 8, 3, 1]
0	0x3e3a2bd1	0.18180777
1	0x3ef81975	0.48456922
2	0x3e3ea343	0.18616967
3	0x3cd6926c	0.026192866
4	0x3d88e79a	0.066847995
5	0x3cd18460	0.025575817
6	0x3d1bdf9d	0.03805505
7	0x3d8c21f7	0.06842416
8	0xbe26d196	-0.16290888
9	0xbe32bf12	-0.174557
10	0xbf3362f8	-0.7007289
11	0xbe0e113b	-0.1387376
12	0x3d5a4496	0.053288065
13	0x3d2fc1dd	0.04290949
14	0xbe06c2a8	-0.13160193
15	0x3c6ce8e0	0.014459819
16	0x3dfad771	0.122481234
17	0x3d989abf	0.074513905
18	0x3da42cc0	0.08016348
19	0x3e221bd4	0.15830928
20	0x3e86fe19	0.26365736
21	0xbe3d31cb	-0.18476026
22	0x3dbbc033	0.091675185
23	0x3d6456f8	0.055747002
24	0xbea14500	-0.31497955
25	0xbe073c2c	-0.13206547
26	0xbe794cb7	-0.2434567
27	0xbcec211d	-0.028824383
28	0xbd7fc7d9	-0.06244645
29	0x3d983b77	0.07433217
30	0x3d259405	0.040424366
31	0x3e2c86ff	0.16848372
32	0x3e589f1e	0.21154448
33	0x3d8b88cf	0.068132035
34	0x3ea6208a	0.324467
35	0x3e33cb25	0.17557962
36	0x3e26a0d8	0.16272295
37	0xbe1cf274	-0.15326864
38	0x3ddb6be3	0.10713937
39	0x3e63a0a7	0.22229253
40	0x3d909da5	0.07061318
41	0x3d25ee6e	0.040510587
42	0xbcb82ddd	-0.022482807
43	0xbe04a923	-0.12955146
44	0xbe7195f9	-0.23592366
45	0x3e4c5a93	0.19956426
46	0x3e727201	0.23676302
47	0xbd3c2fb3	-0.045943927
48	0x3abc0707	0.0014345356
49	0xbd9a87d9	-0.07545442
50	0x3b9d5ed6	0.004802565
51	0x3e435563	0.19075541
52	0x3da13cd3	0.078729294
53	0x3e1c95c5	0.15291508
54	0x3d70278c	0.058631465
55	0x3dfc4777	0.12318318
56	0x3ddd025b	0.10791465
57	0xbe0020fa	-0.1251258
58	0x3da8d3b4	0.08243504
59	0x3e054883	0.13015942
60	0xbc38aa53	-0.011271077
61	0xbe02dd2a	-0.1277968
62	0xbdcf4a76	-0.10121624
63	0x3da0c0e1	0.07849289
64	0xbc2ef9ec	-0.010679703
65	0xbd42f834	-0.047599986
66	0xbe0f9e90	-0.1402533
67	0xbdcc1cb6	-0.09966414
68	0xbe16aea5	-0.14715059
69	0x3e3c816c	0.18408746
70	0x3e8954a1	0.2682238
71	0xbcbe3cd6	-0.023222368
72	0xbded35ed	-0.11582551
73	0xbe53944f	-0.20662044
74	0x3e696c19	0.22795142
75	0x3d3a1690	0.045431674
76	0xbbd3edf9	-0.0064675775
77	0x3e4cf78b	0.20016305
78	0x3da44a77	0.080220155
79	0x3e328f2f	0.17437433
80	0x3ee6f078	0.45105338
81	0xba04fcfa	-0.0005073097
82	0x3e8a5662	0.2701903
83	0xbf3498a7	-0.7054543
84	0xba8f7d99	-0.0010947465
85	0x3cbb74e7	0.022882892
86	0x3e87613e	0.26441377
87	0x3dcd8f0d	0.100370504
88	0x3d590d51	0.052991215
89	0x3dfdb4d7	0.12388008
90	0x3d0f8fd3	0.03504927
91	0xbde1f96b	-0.11033901
92	0xbeb0fa2f	-0.34565875
93	0x3e036dc4	0.12834841
94	0xbe10f32b	-0.14155261
95	0x3e2a7a0f	0.16648124

enc2.kernel1 f4 [4, 8, 2, 2]
0	0x3d8cdfe5	0.06878642
1	0x3da2e4fd	0.07953832
2	0x3e2aa737	0.1666535
3	0x3da8578c	0.08219823
4	0xbdc27ae1	-0.094960935
5	0x3d9e5a67	0.07732087
6	0xbd6fdb14	-0.05855854
7	0x3e018204	0.12647253
8	0x3da04b4c	0.07826862
9	0x3d326959	0.0435575
10	0x3ac33355	0.0014892617
11	0x3b78098a	0.0037847483
12	0x3bc44536	0.005989696
13	0xbde2b125	-0.11068944
14	0xbdd35416	-0.103187725
15	0xbe879005	-0.26477066
16	0xbd6f72e1	-0.058459166
17	0x3d674b7b	0.05646847
18	0xbdea822a	-0.11450608
19	0x3d726110	0.059174597
20	0x3cf8dc79	0.030378567
21	0xbdc8fef0	-0.098142505
22	0x3d4d151a	0.050068952
23	0xbc80e7a7	-0.01573546
24	0xbdc264b3	-0.09491863
25	0xbe53ed81	-0.2069607
26	0xbd9ec7c0	-0.07752943
27	0xbd935b74	-0.07195178
28	0x3c2e787d	0.010648844
29	0xbc46e845	-0.012140338
30	0xbc8acab5	-0.016942361
31	0x3d17c433	0.037052345
32	0x3d5bd81c	0.053672895
33	0x3e32fea3	0.17479949
34	0x3cf60b37	0.030034645
35	0x3e82abf5	0.25521818
36	0x3dc43476	0.09580319
37	0xbc8f70a0	-0.017509758
38	0x3e4a710e	0.1976969
39	0xbd6ac36c	-0.057315275
40	0xbd39d827	-0.045372155
41	0x3d482365	0.04886188
42	0x3e102b2f	0.14078973
43	0x3d8f8eaf	0.070096366
44	0xbb25bd89	-0.0025289974
45	0xbf01ebfe	-0.5075072
46	0xbe2ed50e	-0.17073461
47	0xbe98afbc	-0.29821575
48	0xbdd55385	-0.10416321
49	0x3e7e3b6e	0.24827358
50	0xba637d56	-0.00086780393
51	0x3c6aa172	0.014320718
52	0x3d43b511	0.0477801
53	0x3e904198	0.28175044
54	0x3d9a08b3	0.075211905
55	0x3e943244	0.289446
56	0x3e34f3f7	0.1767119
57	0xbcc71fa9	-0.024307089
58	0x3e0ac3b5	0.13551219
59	0x3e81c7b9	0.2534769
60	0x3e42d3e2	0.1902614
61	0xbc32c7d0	-0.010911897
62	0x3e3468f7	0.17618166
63	0x3e95e37b	0.29275116
64	0xbc7bdfa0	-0.015373141
65	0xbe052a6f	-0.13004468
66	0x3e1d0731	0.15334775
67	0xbdac87a0	-0.08424306
68	0x3e36546f	0.17805646
69	0xbd536956	-0.051614128
70	0x3e6d4662	0.2317138
71	0xbdb42d12	-0.08797659
72	0x3d1f1637	0.038839545
73	0xbc5c0240	-0.013428271
74	0x3d6568d6	0.056008182
75	0x3e1433ed	0.14472933
76	0xbf05d127	-0.52272266
77	0x3d85e21d	0.06537268
78	0xbf04f1bc	-0.5193136
79	0x3df4e20e	0.11957179
80	0x3ed549d0	0.41657877
81	0x3d1594af	0.03651875
82	0x3e57570d	0.21029301
83	0x3c089bd8	0.008337937
84	0x3df03fdf	0.117309324
85	0x3da267bd	0.07929943
86	0x3e207ac3	0.1567183
87	0x3dc5b0d2	0.096528664
88	0xbe451b4d	-0.19248696
89	0x3e0942bb	0.13404362
90	0x3def4489	0.11682994
91	0x3e2cbce1	0.16868927
92	0x3d38964b	0.045065206
93	0x3e2ffde4	0.17186695
94	0x3ea21ab4	0.31660998
95	0x3e1bb5e8	0.1520611
96	0xbe340c57	-0.17582832
97	0xbd6c3473	-0.057667207
98	0xbd2a32bd	-0.041552294
99	0x3d8bc2b3	0.06824245
100	0x3d50e8f0	0.051003397
101	0x3c8f407b	0.017486801
102	0x3de83af3	0.11339369
103	0xbd8480a6	-0.0646985
104	0xbdf6b84e	-0.12046872
105	0xbd9cbb17	-0.07652872
106	0x3e451f5a	0.19250241
107	0x3e25c222	0.16187337
108	0x3d537554	0.051625565
109	0xbc2ca4ec	-0.010537367
110	0xbe81cd00	-0.25351715
111	0x3d7efbc5	0.062251825
112	0x3db78fbb	0.08962961
113	0x3cf58079	0.029968487
114	0x3e8479ce	0.2587418
115	0xbd0a0b02	-0.033701904
116	0x3dc99daf	0.09844529
117	0x3e263df3	0.16234569
118	0x3d1f1758	0.03884062
119	0x3d8e59e3	0.06950738
120	0x3dd1b840	0.10240221
121	0x3e3677d6	0.17819151
122	0xbdafd2d6	-0.08585136
123	0x3bcdd7f2	0.006281846
124	0xbca71b9f	-0.020398913
125	0x3d30399e	0.043023698
126	0x3e8424d7	0.25809357
127	0x3e2192d7	0.15778671

enc2.bias_tensor f4 [4]
0	0x3d89a852	0.06721558
1	0xbe2988aa	-0.1655604
2	0xbdd9b37b	-0.10629936
3	0xbdd7d26f	-0.10538184

fc_enc.weight f4 [64, 468]
0	0x3df6ef30	0.1205734
1	0x3b7362b9	0.00371377
2	0x3de90144	0.113771945
3	0x3e9c9743	0.30584154
4	0xbe63fe11	-0.22264887
5	0x3cd86d80	0.026419401
6	0x3ea2e307	0.31813833
7	0x3e35da89	0.17759146
8	0xbe081bd2	-0.13291863
9	0xbe2f387d	-0.17111392
10	0x3e674520	0.22584963
11	0x3c8378c2	0.016048793
12	0x3dcc0988	0.099627554
13	0x3e486a31	0.19571759
14	0x3da4777b	0.080306016
15	0xbe813345	-0.25234428
16	0x3d3c532f	0.045977768
17	0x3ec58f3f	0.3858585
18	0xbd66a286	-0.05630734
19	0x3e0ea76a	0.13931051
20	0xbd803fb8	-0.062621534
21	0xbe1f079d	-0.15530248
22	0x3db73181	0.08944989
23	0xbe36dbd4	-0.17857295
24	0xbc152beb	-0.009104709
25	0x3dc5f298	0.09665412
26	0x3e63fb66	0.2226387
27	0x3da9fca6	0.08300142
28	0xbdc0f84e	-0.0942236
29	0x3e58c85a	0.21170178
30	0xbe28c72a	-0.16482225
31	0x3e9d9d11	0.30783895
32	0xbd9197e5	-0.0710905
33	0xbd961ba2	-0.07329489
34	0xbe4146ef	-0.18874715
35	0xbe9c1616	-0.304856
36	0x3ed49f82	0.41527945
37	0x3dfcb9af	0.12340104
38	0x3de054a5	0.10953645
39	0xbdaed66b	-0.08536991
40	0xbd2ab246	-0.04167392
41	0xbc9ea487	-0.019365562
42	0xbdc9168a	-0.09818752
43	0xbe9b54b8	-0.30338073
44	0xbe86a5c9	-0.2629836
45	0xbe2eb0ae	-0.17059585
46	0x3dc25670	0.09489143
47	0x3d11a8f6	0.035561524
48	0xbbafee37	-0.0053689736
49	0xbcd0b8ff	-0.025478838
50	0x3ec6786d	0.38763753
51	0x3e8e3545	0.27775016
52	0x3e64a478	0.22328365
53	0x3e8103b1	0.2519813
54	0xbc4af360	-0.012387127
55	0x3e0ab578	0.13545787
56	0x3dc7015e	0.09717058
57	0x3e3393ee	0.175369
58	0x3d35d2a7	0.044390347
59	0x3ebcf76e	0.36907524
60	0xbe4dd3f8	-0.20100391
61	0xbef9581d	-0.48700038
62	0x3e0a7b24	0.13523537
63	0x3d1b7489	0.037952933
64	0xbea731b0	-0.32655096
65	0x3cb02dd0	0.02150622
66	0xbe28721d	-0.16449781
67	0xbe945276	-0.28969163
68	0x3e0f638c	0.14002818
69	0x3e0b81e5	0.1362377
70	0x3e0adc6b	0.13560645
71	0xbd04ec3b	-0.03245185
72	0xbe7e6aca	-0.24845424
73	0xbdfcdcf4	-0.12346831
74	0x3d9d879e	0.076918826
75	0xbe020370	-0.12696624
76	0xbbce4658	-0.0062950067
77	0x3df3c2b4	0.11902371
78	0xbf0c500e	-0.54809654
79	0x3cfa2b0b	0.030538103
80	0xbed2049c	-0.41019142
81	0x3d625899	0.055260275
82	0xbe2cfdf8	-0.16893756
83	0xbdb88e58	-0.09011525
84	0xbc23440d	-0.009964955
85	0x3dfb7ec3	0.12280037
86	0xbe6fde2e	-0.23424599
87	0x3e2608d9	0.16214313
88	0xbe37f186	-0.17963228
89	0x3e8c1842	0.27362257
90	0xbe9364ed	-0.28787938
91	0x3e29efe0	0.16595411
92	0x3eccb461	0.39981368
93	0x3e94c05b	0.29053006
94	0xbeea0aa4	-0.45711243
95	0x3e5e819a	0.21729127
96	0xbcd050c6	-0.02542914
97	0xbdbd7932	-0.09251632
98	0x3da88ec3	0.08230355
99	0xbe522854	-0.20523196
100	0x3d967cd7	0.0734803
101	0xbd132546	-0.03592422
102	0xbf39ed9f	-0.72628206
103	0x3e35053b	0.17677777
104	0x3e27e730	0.16396785
105	0xbc771800	-0.015081406
106	0xbe744964	-0.23856121
107	0x3dc07906	0.093980834
108	0x3e7b5f79	0.24548139
109	0xbccc15c2	-0.024912719
110	0xbe651ba3	-0.22373824
111	0xbea3f86e	-0.32025474
112	0x3d61ed8a	0.055158176
113	0xbef3f28a	-0.4764598
114	0xbb048827	-0.0020222755
115	0x3d673582	0.056447513
116	0x3e2e044b	0.16993825
117	0x3cbc7817	0.023006482
118	0xbea41347	-0.32045957
119	0x3e860dd8	0.26182437
120	0x3e16eae4	0.14738041
121	0x3d8e1b90	0.06938851
122	0xbd0643bf	-0.03277945
123	0x3eb7f381	0.35927966
124	0x3e7b8666	0.24562988
125	0xbe5a6b99	-0.21330108
126	0xbe896b04	-0.2683946
127	0x3e1337f8	0.14376819
128	0xbeb49492	-0.352696
129	0xbc6f46bb	-0.014604266
130	0x3d1be78e	0.038062625
131	0xbe1bcfde	-0.15216014
132	0xbc5fbdd6	-0.0136561
133	0xbe143428	-0.14473021
134	0x3e654b0a	0.22391906
135	0x3db96727	0.09052878
136	0xbd933410	-0.071876645
137	0x3e47a248	0.19495499
138	0x3df2b7a0	0.1185143
139	0x3ed31908	0.41230035
140	0x3e162abd	0.14664741
141	0xbcaf1b29	-0.021375256
142	0xbdb6130b	-0.08890351
143	0xbd458aee	-0.048228197
144	0xbdb8646f	-0.09003531
145	0x3ddfffed	0.10937486
146	0x3bc237bf	0.0059270556
147	0x3d975540	0.07389307
148	0xbd8cd9a7	-0.068774514
149	0x3c4bb8dc	0.012434211
150	0x3c812dbb	0.015768876
151	0xbe1e8503	-0.15480427
152	0xbe345073	-0.17608814
153	0x3ee2c80a	0.44293243
154	0x3d9044e7	0.07044392
155	0xbdd0bd9a	-0.10192414
156	0x3edd78fc	0.43256366
157	0xbe212ad7	-0.15738998
158	0x3e0d2b69	0.13786091
159	0xbe1991a2	-0.14996961
160	0x3e6c3448	0.23066819
161	0x3e3af006	0.18255624
162	0xbd20d83a	-0.03926871
163	0x3e2280a3	0.15869384
164	0xbe483250	-0.19550443
165	0x3e79d924	0.24399239
166	0xbd89d051	-0.06729186
167	0x3dd11099	0.10208244
168	0xbdcd8de6	-0.100368306
169	0x3ebc71e3	0.3680564
170	0xbed4e2e9	-0.4157937
171	0x3f0591b5	0.52175456
172	0xbaecbce2	-0.0018061663
173	0x3dafed9f	0.085902445
174	0x3e8899f1	0.26679948
175	0x3d920a24	0.071308404
176	0xbdd0d4b2	-0.101968184
177	0x3d66420f	0.056215342
178	0x3db69b55	0.08916346
179	0x3d43fce2	0.04784859
180	0xbe12b9cd	-0.1432869
181	0x3e3303fa	0.17481986
182	0xbe55b081	-0.20868112
183	0x3ec21eee	0.37914222
184	0xbda15cbe	-0.07879017
185	0x3dd7c5cc	0.10535774
186	0xbe14f19d	-0.14545293
187	0x3ddc7c20	0.107658625
188	0xbe816771	-0.25274232
189	0xbee5b072	-0.4486118
190	0x3e8dc59a	0.2768982
191	0xbebac1a7	-0.3647587
192	0x3d98cf8a	0.0746146
193	0x3e17de2c	0.14830846
194	0xbe71d714	-0.23617202
195	0xbe5d8e19	-0.21636237
196	0xbd1190ea	-0.03553859
197	0xbe8cf368	-0.27529454
198	0x3e55aa5c	0.20865768
199	0x3df90409	0.12158973
200	0xbdb81b21	-0.089895494
201	0x3f027a27	0.5096764
202	0x3d95d821	0.07316614
203	0x3b95245d	0.004551454
204	0x3eaeef93	0.34167156
205	0x3e44cb0a	0.19218078
206	0x3e633318	0.2218746
207	0x3c5abb1c	0.013350274
208	0x3c0f26da	0.00873729
209	0x3db862a8	0.09003192
210	0xbb972237	-0.004612233
211	0xbf1ccdc8	-0.612515
212	0x3e642532	0.22279814
213	0xbe11763f	-0.14205264
214	0xbccabded	-0.024748767
215	0x3e04fa37	0.12986074
216	0xbecb1c10	-0.39669847
217	0x3dc398a5	0.09550599
218	0xbe2abc22	-0.1667333
219	0xbea1091e	-0.31452268
220	0xbdd05228	-0.1017192
221	0x3c13e9ab	0.009027879
222	0x3c1630ee	0.009166939
223	0xbe2d6ca8	-0.1693598
224	0xbe9a5a53	-0.30147037
225	0x3ef9620d	0.4870762
226	0x3f07d2cd	0.5305603
227	0x3bdb000a	0.0066833543
228	0x3dc3dee2	0.09563996
229	0x3e185688	0.14876759
230	0xbf076154	-0.52882886
231	0x3edcaffb	0.43103012
232	0xbcd500ce	-0.02600136
233	0xbde0614f	-0.1095606
234	0xbc8e1dd5	-0.01734821
235	0xbda660ca	-0.0812393
236	0xbedfeb6b	-0.43734297
237	0x3e600c07	0.21879588
238	0xbc4954eb	-0.012288312
239	0x3e9a779a	0.30169374
240	0xbee82907	-0.453438
241	0xbc97fc41	-0.018552901
242	0x3e8c96bf	0.2745876
243	0x3dcb2a01	0.09920121
244	0xbebb3ef0	-0.36571455
245	0xbe0afb22	-0.13572362
246	0xbcc4d064	-0.02402515
247	0x3bc11530	0.0058924183
248	0xbe514529	-0.20436539
249	0xbde1853e	-0.11011742
250	0x3c3bc3b9	0.011460238
251	0x3e7661fb	0.24060814
252	0xbed9b7f5	-0.4252316
253	0x3d9186b8	0.07105774
254	0xbd39cd37	-0.045361724
255	0x3d822fde	0.06356786

fc_enc.bias f4 [64]
0	0x3dbf8a72	0.09352578
1	0x3dce1333	0.10062256
2	0xbdd0ef3d	-0.10201881
3	0x3e16d077	0.1472796
4	0x3d384f2b	0.044997375
5	0xbdcd3722	-0.100202814
6	0xbde1b4c9	-0.1102081
7	0x3c0d5df3	0.008628356
8	0x3d2cdc3b	0.042202216
9	0xbd786edc	-0.0606526
10	0xbe362a9f	-0.17789696
11	0xbdddbbd5	-0.10826842
12	0x3dc5d2e1	0.096593626
13	0x3d41a3c8	0.047275335
14	0x3c6eb63b	0.014569814
15	0x3d58e4b4	0.052952483
16	0x3cdb4c4c	0.02676978
17	0xbdf0f51d	-0.11765502
18	0x3ca082fe	0.019593712
19	0xbd850217	-0.06494539
20	0xbdff738d	-0.124732114
21	0x3d830ec6	0.06399302
22	0xbdbb6e91	-0.09151948
23	0x3e135d8f	0.14391159
24	0x3dad5db3	0.08465137
25	0xbde6dd41	-0.112726696
26	0xbcccc957	-0.02499835
27	0xbd83f7c2	-0.064437404
28	0xbd1b6b14	-0.037943915
29	0x3d2296e0	0.039694667
30	0x3df66adc	0.120321006
31	0xbc72e755	-0.014825662
32	0x3e5b0761	0.21389534
33	0xbda55c04	-0.08074191
34	0xbe2ec830	-0.17068553
35	0x3e08e0c9	0.13366999
36	0xbbef5d1d	-0.007304801
37	0x3d4b61b9	0.049653742
38	0x3dbd6f38	0.09249729
39	0x3d647e53	0.055784535
40	0xbe1bb44b	-0.15205495
41	0x3d2391d3	0.03993399
42	0xbdb4ad54	-0.08822122
43	0xbd7ccb05	-0.061717052
44	0x3d6a832c	0.057254
45	0x3e3db7cd	0.18527146
46	0xbcc7f982	-0.024410967
47	0xbdcb69bb	-0.09932276
48	0xbcfe30ad	-0.03102907
49	0x3d3d445d	0.046207774
50	0x3da5e4bd	0.08100269
51	0xbc5f0b2f	-0.013613506
52	0x3d4d20d9	0.050080154
53	0x3ddf7d3e	0.1091256
54	0xbd0730d3	-0.033005547
55	0x3d12b3e3	0.035816085
56	0x3c2259cd	0.0099091055
57	0x3dd6c762	0.10487248
58	0x3d9a22bc	0.07526156
59	0xbcc6d855	-0.024273077
60	0x3dba7017	0.09103411
61	0xbe4442aa	-0.19166055
62	0xbd501d1f	-0.050809022
63	0x3d983b45	0.0743318

fc_dec.weight f4 [468, 64]
0	0x3bc68b13	0.0060590594
1	0xbcf7ef97	-0.030265613
2	0x3e490109	0.19629301
3	0x3e3952e3	0.18098025
4	0xbcb63d30	-0.022245973
5	0xbd286d29	-0.04111973
6	0x3db7928b	0.08963498
7	0x3e2163a9	0.15760674
8	0xbe5156bd	-0.20443244
9	0x3dcc00f7	0.099611215
10	0xbdaa6494	-0.08319965
11	0xbd4c28c6	-0.049843572
12	0xbbc87ea0	-0.0061186105
13	0x3e9da3c7	0.30789015
14	0x3d91140c	0.07083902
15	0xb88dc1c5	-6.759496e-05
16	0xbb8ff28e	-0.0043929284
17	0x3e73ae40	0.2379694
18	0x3e550e31	0.20806195
19	0xbd7797fe	-0.060447685
20	0x3c10eea4	0.008845959
21	0x3da4584a	0.08024652
22	0x3da37dca	0.07982977
23	0x3d914649	0.07093484
24	0xbdd30b0b	-0.10304841
25	0xbc269304	-0.010166887
26	0xbe524643	-0.20534615
27	0xbc711eea	-0.014716843
28	0xbd8facfa	-0.070154145
29	0xbd709ff5	-0.058746297
30	0xbecefba5	-0.40426365
31	0x3d7726ea	0.060339846
32	0xbd500a80	-0.050791264
33	0xbdeb0021	-0.11474634
34	0x3de512f5	0.111852564
35	0x3ce3bb7c	0.02779936
36	0x3d887c6f	0.06664359
37	0xbe257d5b	-0.161611
38	0x3e0438d7	0.12912308
39	0x3e833c9f	0.25632188
40	0xbd913ac6	-0.07091288
41	0x3dadc5e4	0.0848501
42	0x3eb892d0	0.3604951
43	0x3cf251c4	0.029580005
44	0xbe484439	-0.19557275
45	0xbda5d99f	-0.080981486
46	0x3d811f84	0.06304839
47	0xbd864314	-0.06555763
48	0xbd852f7e	-0.06503199
49	0x3b2509b9	0.0025182797
50	0x3e32304b	0.17401235
51	0x3de13025	0.10995511
52	0xbe68fce3	-0.22752719
53	0x3d315756	0.04329618
54	0xbc405c7d	-0.011740801
55	0x3d94253b	0.07233664
56	0xbd99572d	-0.074873306
57	0x3d9dd13a	0.077059224
58	0x3dd4eb5c	0.10396454
59	0xbce261e8	-0.027634576
60	0xbcdb5d0c	-0.026777767
61	0x3db678fa	0.08909793
62	0xbd4f7ad9	-0.050654266
63	0xbe85b317	-0.26113197
64	0xbd1dc3a9	-0.038516674
65	0x3d8ec402	0.06970979
66	0xbe3452e5	-0.17609747
67	0xbe01d77c	-0.12679857
68	0x3c88183d	0.01661312
69	0x3e07f3ab	0.13276546
70	0xbda036fb	-0.07822987
71	0x3c1a6fe0	0.009426087
72	0x3de51aea	0.11186774
73	0x3d79fc72	0.061031766
74	0xbd79b7e6	-0.060966395
75	0xbe4756c8	-0.19466698
76	0x3dcf6ed4	0.10128561
77	0xbe2df509	-0.16988005
78	0xbdeb7b49	-0.11498124
79	0x3d9eed9b	0.077601634
80	0xbdc8d16a	-0.098055676
81	0xbe0b16ba	-0.13582888
82	0xbde3d35a	-0.111242965
83	0x3c281bed	0.010260564
84	0x3da7b770	0.08189285
85	0x3c8384e3	0.016054576
86	0xbdd783f4	-0.10523215
87	0xbd279112	-0.040909834
88	0x3e80229d	0.25026408
89	0xbcb9eb72	-0.022695277
90	0x3d8b8d56	0.06814067
91	0xbdb53234	-0.08847466
92	0xbdcce90a	-0.10005386
93	0x3b83b380	0.004019201
94	0x3e98699c	0.29768074
95	0xbd3ad838	-0.04561636
96	0x3e61ed3a	0.22063151
97	0xbd036954	-0.03208287
98	0x3dc27ce5	0.09496478
99	0xbd956903	-0.0729542
100	0xbdc244ce	-0.0948578
101	0xbd9c33f9	-0.076271005
102	0x3dbb68c8	0.09150845
103	0x3e2bdba5	0.16783006
104	0xbe693817	-0.22775303
105	0x3dcafd91	0.09911645
106	0x3d95dc5e	0.07317422
107	0xbd3608fb	-0.04444216
108	0xbd7ecf8c	-0.06220965
109	0xbe3fa92b	-0.18716876
110	0xbd8d218a	-0.06891163
111	0x3d9e86d1	0.07740558
112	0xbe311230	-0.17292094
113	0xbc7ea1ac	-0.015541475
114	0xbdb3c9ea	-0.087787464
115	0x3d1c41aa	0.03814856
116	0x3e8af82d	0.27142468
117	0x3e1c663d	0.15273376
118	0xbe246dbf	-0.1605749
119	0xbe4a20ac	-0.19739026
120	0xbbe828d6	-0.007084946
121	0x3df7f354	0.12106958
122	0x3d9ac6cf	0.07557451
123	0x3b9d836d	0.004806927
124	0x3c504cc5	0.012713616
125	0xbe1586fd	-0.14602275
126	0xbcb4cb59	-0.02206962
127	0x3e21eaa1	0.1581216
128	0xbdb5b4ae	-0.088723525
129	0xbf0e3a9a	-0.5555817
130	0x3eb88f20	0.36046696
131	0x3e959036	0.29211587
132	0x3e266547	0.16249572
133	0xbf1c413c	-0.6103704
134	0xbe4c1edc	-0.19933647
135	0xbe9c8110	-0.30567217
136	0x3c867fd6	0.016418379
137	0xbef80e90	-0.4844861
138	0xbecd8d20	-0.40146732
139	0x3dfdad47	0.12386566
140	0xbdc601dc	-0.096683234
141	0x3dd9434e	0.106085405
142	0xbd976095	-0.073914684
143	0x3cf7c557	0.030245466
144	0x3e3bb4b0	0.18330646
145	0xbe9731f7	-0.29530308
146	0xbe2f4691	-0.17116763
147	0x3d8d695a	0.0690486
148	0xbda5f547	-0.081034236
149	0xbd985996	-0.07438962
150	0x3ea28273	0.3174015
151	0x3eb4ade0	0.35288906
152	0xbd03dca6	-0.03219285
153	0x3c03ede9	0.008052328
154	0x3d2e3e8f	0.04254013
155	0x3dcb5ee4	0.09930208
156	0xbf12d48b	-0.57355565
157	0xbc1f928f	-0.009739532
158	0x3cd1d017	0.02561192
159	0x3d3872e1	0.045031432
160	0x3ec0fd8e	0.37693447
161	0xbe866c42	-0.2625447
162	0x3d84d199	0.0648529
163	0x3f16e723	0.58946437
164	0xbe8eaed7	-0.27867767
165	0x3e4982e8	0.19678843
166	0x3ee9e527	0.45682642
167	0x3d4cea4f	0.05002814
168	0x3e69ce72	0.22832659
169	0x3dad2da5	0.08455972
170	0x3e367462	0.17817834
171	0xbe56cb3d	-0.20975967
172	0xbe8ce09f	-0.27515122
173	0xbe8123a1	-0.25222495
174	0x3f0b0fe8	0.54321146
175	0x3e76ea12	0.24112728
176	0x3e9e57a2	0.30926234
177	0x3e63f126	0.2225996
178	0x3ee642f5	0.4497296
179	0xbd90ac43	-0.07064106
180	0x3e30450c	0.1721384
181	0xbe1bf0dc	-0.152286
182	0xbe035939	-0.12827004
183	0xbdbf7d30	-0.093500495
184	0xbe7aec4c	-0.24504203
185	0xbd8bada6	-0.0682023
186	0x3c1d260d	0.009591592
187	0xbe4eafd5	-0.20184262
188	0x3e411b50	0.18858075
189	0x3e3dacfb	0.18523018
190	0xbeb8f5da	-0.3612507
191	0xbeffd538	-0.4996736
192	0x3e94330b	0.28945193
193	0x3e4be286	0.1991063
194	0x3e18e31f	0.1493039
195	0x3e8676c3	0.26262483
196	0xbe858409	-0.26077297
197	0xbe965d67	-0.29368135
198	0x3e118c6d	0.14213724
199	0x3e2b2ec9	0.16717066
200	0xbe89c9d0	-0.26911783
201	0x3dad2779	0.084547944
202	0xbf083d2d	-0.53218347
203	0x3ecd857e	0.4014091
204	0x3e524de3	0.20537524
205	0x3dc53e75	0.09631053
206	0x3dfcc575	0.123423494
207	0xbdd84044	-0.10559133
208	0xbe3fd7ce	-0.18734667
209	0xbde3a2ef	-0.111150615
210	0x3d9a5481	0.07535649
211	0xbf28432b	-0.6572749
212	0x3dfb3daf	0.122676246
213	0x3d0eaebc	0.03483461
214	0xbd8999b6	-0.06718771
215	0x3e209ddc	0.15685219
216	0xbcb05399	-0.021524237
217	0x3eef0dbd	0.4669017
218	0xbe848d90	-0.25889254
219	0xbe306787	-0.17226993
220	0xbd9c4b58	-0.07631558
221	0xbcb5902b	-0.022163471
222	0xbe288e02	-0.16460422
223	0xbece72c5	-0.40321937
224	0x3dfb21e0	0.122623205
225	0xbc94bdff	-0.018157003
226	0xbe8d5834	-0.27606356
227	0x3c529cd6	0.012854775
228	0x3e00a13f	0.1256151
229	0xbe28afda	-0.16473332
230	0x3de30a3e	0.11085938
231	0x3dcfe2f3	0.10150709
232	0x3c052e40	0.008128703
233	0x3e9ce835	0.3064591
234	0xbe04ecd1	-0.12980963
235	0xbd5e982e	-0.05434435
236	0xbeadacb5	-0.33920828
237	0x3eb0d073	0.34534034
238	0xbd89c898	-0.06727713
239	0x3eaf09f0	0.3418727
240	0x3e353ea7	0.17699681
241	0x3bbc872a	0.0057534175
242	0x3e913d51	0.28367093
243	0x3eb42a95	0.35188738
244	0xbec36f91	-0.38171056
245	0x3ceaa802	0.028644565
246	0x3e1c5e9a	0.15270463
247	0xbe0a39d7	-0.13498627
248	0xbe90933b	-0.28237328
249	0xbea49886	-0.32147616
250	0xbe38c02c	-0.18042058
251	0xbe08d11f	-0.13361023
252	0xbeb0280d	-0.34405556
253	0x3e5bf4c8	0.21480095
254	0xbdd0c9e4	-0.101947576
255	0x3e00868e	0.12551329

fc_dec.bias f4 [468]
0	0x3e2cb9c8	0.16867745
1	0xbde679e9	-0.11253721
2	0x3ed3465c	0.41264617
3	0x3d0a6682	0.033789165
4	0xbdd7a986	-0.10530381
5	0xbc74fc29	-0.014952698
6	0xbc418eba	-0.011813814
7	0xbc6a8150	-0.014313057
8	0x3d34d528	0.044148594
9	0x3e617d1a	0.22020379
10	0xbe1c3e38	-0.1525811
11	0x3f84947a	1.0357811
12	0x3fda083e	1.7033765
13	0x3f3c7124	0.7361014
14	0x3ed0fd9d	0.40818492
15	0x3e3436c9	0.17599024
16	0x3ca294dd	0.019846374
17	0x3e051023	0.12994437
18	0x3e39c028	0.18139708
19	0x3e2e32a0	0.170115
20	0x3e534121	0.20630313
21	0x3d29c6f5	0.041449506
22	0x3e0e1a42	0.13877204
23	0x3ee9d59e	0.4567079
24	0xbe9fdde8	-0.3122399
25	0xbe99c673	-0.30034217
26	0x3e8d1b02	0.27559668
27	0x3e837282	0.256733
28	0x3d7f5d04	0.062344566
29	0x3e37e309	0.17957701
30	0x3da18ac8	0.078877985
31	0x3e7850b0	0.2424953
32	0x3df9a9af	0.12190568
33	0x3e08ae83	0.13347821
34	0x3e018e97	0.1265205
35	0x3e6e688e	0.23282072
36	0x3e8b5e29	0.27220276
37	0x3eb0fa2a	0.3456586
38	0xbedc32aa	-0.43007404
39	0x3efb980b	0.49139437
40	0x3d6d2121	0.057892922
41	0x3e229802	0.15878299
42	0x3d66eceb	0.056378286
43	0x3cd58b4a	0.026067395
44	0x3d2a1e66	0.041532896
45	0x3bc72812	0.006077775
46	0x3d8fc32c	0.07019648
47	0x3da0e0fe	0.07855414
48	0x3e3dde46	0.18541822
49	0xbc99f305	-0.018792639
50	0x3e6e2ac0	0.23258495
51	0x3db9a527	0.090647034
52	0x3eaffd0b	0.34372744
53	0x3e68e54c	0.2274372
54	0x3e123c1f	0.14280747
55	0x3dfdfa2c	0.12401232
56	0x3d54b0f2	0.05192656
57	0x3e2e81a7	0.17041646
58	0x3db8e4ec	0.090280384
59	0x3dc5bd7c	0.09655282
60	0x3e24c7cd	0.16091843
61	0x3dd599fd	0.104297616
62	0x3e912354	0.28347266
63	0x3ec31572	0.381023
64	0x3e2b1c49	0.16710009
65	0x3f1ccab6	0.6124681
66	0x3e8629e2	0.2620383
67	0x3deac8b2	0.11464061
68	0x3e2adfeb	0.1668698
69	0x3dd4ff76	0.10400288
70	0x3d8fe164	0.07025412
71	0x3e38323b	0.17987911
72	0x3e195275	0.14972861
73	0x3e3c5ebc	0.18395513
74	0x3e71d166	0.23615035
75	0x3ec3d25f	0.38246438
76	0x3d141218	0.036150068
77	0x3f1261ce	0.5718049
78	0xbe66d0bd	-0.22540565
79	0x3e91a346	0.2844488
80	0x3e2cb19d	0.16864629
81	0x3e4cbd07	0.19993983
82	0x3d2dc2c6	0.04242208
83	0x3d5c9e23	0.05386175
84	0x3d6f4a92	0.058420725
85	0x3d75dd52	0.06002552
86	0x3dd8c3b2	0.10584201
87	0x3ec4764f	0.38371512
88	0x3e17e821	0.14834644
89	0x3efa2a2e	0.48860306
90	0x3fbc8469	1.4727908
91	0x3fd19b94	1.6375604
92	0x3ec68b20	0.3877802
93	0x3ea0327e	0.31288522
94	0x3e6e393f	0.23264025
95	0x3e32e5ab	0.17470424
96	0x3e7d7501	0.24751665
97	0x3e59ec84	0.2128163
98	0x3e63c887	0.22244464
99	0x3e8ec949	0.27887943
100	0x3ea428eb	0.32062468
101	0xbd9baa29	-0.07600815
102	0x3f57487f	0.84094995
103	0x3f9519d6	1.164851
104	0x3f414bc4	0.75506234
105	0x3f12c31c	0.57328963
106	0x3ee3e923	0.44513807
107	0x3f19cf89	0.600823
108	0x3e819210	0.2530675
109	0x3ee00703	0.4375535
110	0x3ec85fec	0.39135683
111	0x3f002e63	0.5007078
112	0x3ed4f1b5	0.41590658
113	0xbe3bbf52	-0.18334702
114	0x3f03f26d	0.5154179
115	0x3fb55c7f	1.4168853
116	0x3f3a90b5	0.72877055
117	0xbf362a61	-0.71158415
118	0xbf8653a4	-1.0494275
119	0xbf0fb823	-0.56140345
120	0xbc119b9a	-0.008887196
121	0xbd9a5de5	-0.0753744
122	0xbdd9771b	-0.10618421
123	0xbe30fa30	-0.17282939
124	0xbde7b47b	-0.11313721
125	0xbe838299	-0.25685576
126	0xbdac1e51	-0.0840422
127	0xbf73e205	-0.95266753
128	0xbf9b4187	-1.2129372
129	0xbf252d83	-0.6452257
130	0xbebd0df9	-0.36924723
131	0xbf4bc0e5	-0.7959121
132	0x3e113abe	0.14182565
133	0xbdf2b2e1	-0.11850525
134	0xbe17923f	-0.14801882
135	0xbe6ff104	-0.23431784
136	0xbdb844bd	-0.08997486
137	0xbe5b0f63	-0.21392588
138	0xbe3b7a41	-0.18308355
139	0xbe7a8e4d	-0.24468346
140	0xbd02d443	-0.03194071
141	0xbf8dab69	-1.1067935
142	0xbfeabcff	-1.8338927
143	0xbf202d3d	-0.6256903
144	0x3da85110	0.082185864
145	0xb8e742e3	-0.00011027397
146	0xbd9013c0	-0.07035017
147	0xbe5e3e8b	-0.21703546
148	0xbe8d792f	-0.27631518
149	0xbe4669a2	-0.19376233
150	0xbe3fe3b2	-0.18739203
151	0xbe0cb8ed	-0.13742419
152	0xbe830922	-0.25592905
153	0xbeb60148	-0.35547853
154	0xbe978f78	-0.29601645
155	0xbfc4d19f	-1.5376471
156	0xbf2c7d7f	-0.6737899
157	0x3c9bfedd	0.019042427
158	0xbde739fb	-0.11290356
159	0xbe027009	-0.1273805
160	0xbded216f	-0.115786426
161	0xbe0b4c8a	-0.13603416
162	0xbe003d3e	-0.12523362
163	0xbe72d938	-0.23715675
164	0xbe047d12	-0.12938336
165	0xbdb20384	-0.08692077
166	0xbe1370cd	-0.14398499
167	0xbe20dceb	-0.15709274
168	0xbfbc3def	-1.4706401
169	0xbc7c2504	-0.015389685
170	0xbd8dec7b	-0.06929871
171	0xbdd95477	-0.106118135
172	0xbe3971ea	-0.18109861
173	0xbe0a80d3	-0.13525705
174	0xbe50c403	-0.20387273
175	0xbe62af78	-0.22137249
176	0xbe138274	-0.14405233
177	0xbe9a340f	-0.30117843
178	0xbe564085	-0.2092305
179	0xbdfd6822	-0.123733774
180	0xbe586a99	-0.21134414
181	0xbdf86c20	-0.12129998
182	0xbf975e8f	-1.1825732
183	0xbdf97288	-0.12180048
184	0x3d312842	0.043251283
185	0xbdefd057	-0.117096595
186	0xbe634dbc	-0.22197622
187	0xbe65fcc1	-0.22459699
188	0xbe58e6c2	-0.21181777
189	0xbe30e3c9	-0.17274393
190	0xbe63d6f7	-0.22249971
191	0xbe2712d1	-0.16315772
192	0xbe34cf86	-0.17657289
193	0xbe8ab25a	-0.27089196
194	0xbf874d20	-1.0570412
195	0xbece7db8	-0.4033029
196	0xbec89ec8	-0.3918364
197	0xbe988bdc	-0.29794204
198	0xbe1a866b	-0.15090339
199	0xbd7c1ded	-0.061551977
200	0xbe5848a7	-0.21121465
201	0xbe0f7052	-0.1400769
202	0xbe2aee4c	-0.16692466
203	0xbe63e405	-0.22254951
204	0xbe8e5076	-0.27795762
205	0xbe6787e8	-0.22610438
206	0xbf330eb7	-0.6994433
207	0xbfdfc90d	-1.7483231
208	0xbf816d28	-1.0111437
209	0xbf499644	-0.7874491
210	0x3e90f92c	0.28315103
211	0xbdd2114a	-0.10257204
212	0xbe923ee4	-0.28563607
213	0xbe671fc8	-0.22570717
214	0xbe2da2e6	-0.16956672
215	0xbe185f95	-0.14880212
216	0xbe2065b7	-0.15663801
217	0xbd5b835f	-0.053592082
218	0xbed97fc6	-0.42480296
219	0xbf04872b	-0.5176875
220	0xbfa57ac6	-1.2928092
221	0xbf1b3447	-0.60626644
222	0xbf173782	-0.59069073
223	0xbf901c8a	-1.125871
224	0xbdc78d4c	-0.09743747
225	0xbe116a23	-0.14200644
226	0xbe6da5aa	-0.23207727
227	0xbeaf6886	-0.34259433
228	0xbe8e4054	-0.27783453
229	0xbea6c7c2	-0.32574278
230	0xbe9f2174	-0.3108021
231	0xbf8883e0	-1.0665245
232	0xbfd02a8c	-1.6262984
233	0xbf79e559	-0.9761558
234	0x3f9e27b0	1.2355862
235	0x3fddc925	1.732701
236	0x3e15527c	0.14582247
237	0x3e657ec0	0.22411633
238	0x3c7e1a2f	0.015509172
239	0xbd6aaf5e	-0.05729615
240	0xbc7328e0	-0.014841288
241	0xbd4ac41a	-0.049503423
242	0xbdbf7c42	-0.09349872
243	0xbd437423	-0.04771818
244	0x3eb1d8e4	0.34735787
245	0x3faefbcc	1.3670592
246	0x3fa25725	1.2682844
247	0x3fde29b9	1.7356483
248	0x3eb144cf	0.3462281
249	0x3e38be19	0.18041267
250	0x3d2ffac8	0.042963773
251	0x3c966d36	0.018362623
252	0xbca092ce	-0.019601252
253	0xbd0a5379	-0.033771012
254	0xbd629327	-0.055316117
255	0xbd68b387	-0.056811836

dec1.kernel0 f4 [8, 4, 3, 1]
0	0x3e0b4303	0.13599782
1	0x3db0c8f9	0.086320825
2	0xbe881648	-0.265795
3	0x3da5607f	0.08075046
4	0xbd84863b	-0.06470915
5	0xbdb63eca	-0.08898695
6	0xbd8f1fc6	-0.06988482
7	0x3db62be5	0.08895091
8	0xbd546885	-0.05185749
9	0xbeaacba6	-0.33358496
10	0x3da88287	0.08228021
11	0x3e0c5b65	0.13706739
12	0x3e192dc1	0.1495886
13	0xbe8e8f4a	-0.27843696
14	0xbea069b1	-0.31330636
15	0xbd586d70	-0.052838743
16	0x3e2e5d47	0.1702777
17	0x3e8c2b49	0.27376774
18	0xbdf7c496	-0.12098043
19	0xbe889e76	-0.26683396
20	0x3d57ebb1	0.052715007
21	0xbe434538	-0.19069374
22	0xbf05bfec	-0.52245975
23	0x3e6b90d0	0.2300446
24	0x3e8fc0b5	0.2807671
25	0xbe2840ec	-0.16431016
26	0xbe3940cd	-0.18091126
27	0x3b28cb14	0.002575581
28	0x3dddd541	0.108316906
29	0x3e880ab6	0.26570672
30	0xbe339c68	-0.17540133
31	0xbe9c7a7b	-0.30562195
32	0xbd176df8	-0.03697011
33	0xbdaefac3	-0.08543923
34	0xbe9293f2	-0.28628498
35	0x3db1b45d	0.0867698
36	0xbf15a066	-0.58447874
37	0x3e8c02ed	0.27345982
38	0xbf16b96b	-0.58876675
39	0xbea8b745	-0.32952324
40	0xbedb8420	-0.4287424
41	0x3e6a80ef	0.22900747
42	0xbd340a2a	-0.043955006
43	0xbd90ed9e	-0.07076572
44	0xbe063396	-0.13105616
45	0xbf161a5d	-0.5863398
46	0xbdaeee07	-0.08541494
47	0xbe1d340c	-0.15351886
48	0xbea65e3a	-0.32493764
49	0x3d92f48e	0.07175551
50	0xbe6d4a27	-0.23172818
51	0x3d5b0a9e	0.053476922
52	0xbe85772d	-0.26067486
53	0xbd848596	-0.06470792
54	0xbd53e209	-0.051729236
55	0x3d7e4119	0.0620738
56	0xbd90ea13	-0.07075896
57	0xbd95c46f	-0.07312857
58	0xbc88fd18	-0.016722247
59	0xbe33bc87	-0.17552386
60	0x3eae2bc6	0.3401777
61	0xbf269ed0	-0.6508608
62	0xbda9cff0	-0.08291614
63	0xbde052e0	-0.10953307
64	0x3e9573fd	0.29190055
65	0x3e10f098	0.14154279
66	0xbea44e04	-0.3209077
67	0xbe8b5f04	-0.2722093
68	0x3dab4e54	0.08364549
69	0xbebe3f66	-0.37157744
70	0xbec3b2b4	-0.38222277
71	0x3e3bb5a6	0.18331012
72	0x3e853e10	0.26023912
73	0xbe00c1fc	-0.12573999
74	0xbeb4bd81	-0.3530083
75	0xbe3c6c3d	-0.18400665
76	0x3cea0124	0.028564997
77	0x3e6ffa9b	0.23435442
78	0xbe665733	-0.22494201
79	0xbec24e28	-0.37950253
80	0xbe255df6	-0.16149125
81	0xbd475b5a	-0.048671104
82	0xbf22b0e1	-0.63551146
83	0x3e364908	0.17801297
84	0x3e26315c	0.16229767
85	0x3d7d8c5a	0.061901428
86	0xbe0c140e	-0.13679525
87	0x3cf2522c	0.029580198
88	0x3d44d1b9	0.04805157
89	0x3e196c88	0.14982808
90	0xbd19fec3	-0.037596475
91	0xbe3c5750	-0.18392682
92	0xbcd74d57	-0.026281996
93	0x3db63857	0.08897465
94	0x3c5156b0	0.012777016
95	0xbd77fd40	-0.060544252

dec1.kernel1 f4 [8, 4, 2, 2]
0	0xbf26ce45	-0.6515849
1	0xbe9cfd4c	-0.30662
2	0x3c6600ea	0.014038304
3	0x3e317938	0.17331398
4	0xbe700b3e	-0.23441789
5	0x3e79ca95	0.24393685
6	0x3ce1c60f	0.027560262
7	0x3e448a07	0.19193278
8	0xbe4f1594	-0.20223075
9	0x3e2fd54a	0.17171207
10	0xbd1d7f8c	-0.038451716
11	0xbd232243	-0.039827596
12	0xbef41436	-0.4767167
13	0xbe120090	-0.14258027
14	0x3d0f99ee	0.03505891
15	0xbe3814db	-0.17976706
16	0x3e8c0f8c	0.2735561
17	0xbe348726	-0.1762968
18	0xbce246f7	-0.02762173
19	0x3da7289e	0.08162044
20	0x3dc6c213	0.097049855
21	0x3d0cf167	0.034409907
22	0xbdcd41b2	-0.10022296
23	0x3dc6d624	0.09708813
24	0xbda7345f	-0.08164286
25	0x3e38733a	0.18012705
26	0xbeb0afbd	-0.34509078
27	0x3ea5604b	0.32300028
28	0x3e3cf63a	0.18453303
29	0xbd8c3109	-0.0684529
30	0xbdc8347b	-0.09775635
31	0x3d34e13c	0.044160113
32	0x3e68afd1	0.22723319
33	0xbde9a0d9	-0.114076324
34	0x3cbe2fb4	0.023216106
35	0x3d8b54c0	0.06803274
36	0x3e30b309	0.17255796
37	0x3e4602ba	0.19336978
38	0xbdf15805	-0.117843665
39	0x3e5d9f76	0.21642861
40	0x3be74b67	0.007058549
41	0x3e6265b0	0.22109103
42	0xbe48b801	-0.19601442
43	0x3e3403b2	0.17579535
44	0x3e0484dc	0.12941307
45	0xbe22fda2	-0.15917066
46	0xbcda0e2b	-0.026618084
47	0x3db10b31	0.08644713
48	0xbe0dba16	-0.13840517
49	0xbe93c8d0	-0.28864145
50	0xbd2cb5e0	-0.042165637
51	0x3c5fca46	0.013659066
52	0x3e088189	0.13330664
53	0x3e8079ac	0.25092828
54	0xbcfa2d72	-0.030539248
55	0x3ed90303	0.4238511
56	0x3cad8da2	0.0211857
57	0x3e32c650	0.17458463
58	0x3dab4d21	0.083643205
59	0xbb04425c	-0.0020181155
60	0xbe638a7c	-0.22220796
61	0xbe5a3565	-0.21309431
62	0xbe563a81	-0.20920755
63	0x3ea9d69b	0.33171543
64	0xbe3cd17e	-0.1843929
65	0xbdd83605	-0.105571784
66	0x3da56cf3	0.08077421
67	0xbf1d6405	-0.6148074
68	0xbd9984af	-0.074960105
69	0x3d22b8ff	0.039727207
70	0x3e0fa60a	0.14028183
71	0xbdab672a	-0.08369286
72	0x3e130c72	0.14360216
73	0xbd24644d	-0.040134717
74	0xbbfdcf70	-0.0077456757
75	0xbe0394ee	-0.12849781
76	0xbecb3aeb	-0.39693388
77	0xbe6f9198	-0.23395383
78	0xbd409072	-0.047012754
79	0xbec5e15f	-0.38648507
80	0x3ea4a5eb	0.32157835
81	0xbe6f9603	-0.23397069
82	0xbe2072dd	-0.15668817
83	0x3e51f60d	0.20504017
84	0x3c812532	0.015764806
85	0x3e64dc65	0.22349699
86	0xbe4b5f7a	-0.1986064
87	0x3e154877	0.14578424
88	0xbe0db348	-0.13837922
89	0x3ebcda53	0.36885318
90	0xbe79d107	-0.24396144
91	0x3e1d91ab	0.15387599
92	0x3e40f737	0.18844305
93	0xbe5b8003	-0.21435551
94	0xbe2b3ad8	-0.16721666
95	0x3e81b19d	0.2533082
96	0x3e5ea4ae	0.21742508
97	0xbe19e1b6	-0.15027508
98	0x3ba09ffb	0.0049018837
99	0x3bb39751	0.005480685
100	0x3e077a91	0.13230349
101	0x3e27cdc9	0.16387095
102	0xbe7f797e	-0.2494869
103	0x3e9523a7	0.29128763
104	0x3c4625a2	0.012093933
105	0x3e7f3bef	0.24925207
106	0xbe4116e5	-0.1885639
107	0x3e843834	0.2582413
108	0x3e9bc993	0.30427226
109	0xbeade209	-0.33961514
110	0xbe3c5f4d	-0.1839573
111	0x3de4c022	0.11169459
112	0x3c321f4b	0.010871719
113	0xbdb023d6	-0.08600585
114	0x3e22ea85	0.15909775
115	0xbbf3bd15	-0.007438312
116	0x3de5e8ad	0.1122602
117	0x3e17bdb1	0.14818455
118	0xbd0f4311	-0.03497607
119	0x3dbe19e3	0.09282281
120	0x3c186c47	0.009303159
121	0x3c1c7b60	0.009550899
122	0xbe04b0ef	-0.1295812
123	0xbcd76688	-0.026294008
124	0xbd8712e8	-0.06595403
125	0xbe36d108	-0.17853177
126	0x3e5ea7d5	0.2174371
127	0x3e25161a	0.16121712

dec1.bias_tensor f4 [8]
0	0x39f747da	0.00047165045
1	0xbef1a52f	-0.47196338
2	0xbe2ea907	-0.17056666
3	0xbe14fb98	-0.145491
4	0xbeb31486	-0.34976596
5	0xbef8e099	-0.48608854
6	0xbf08ce48	-0.5343976
7	0x3e389454	0.18025333

dec2.kernel0 f4 [1, 8, 5, 1]
0	0x3c71be0e	0.014754785
1	0xbd5acee0	-0.053419948
2	0xbb1b3f0b	-0.00236887
3	0x3d916613	0.07099547
4	0xbd7cc746	-0.06171348
5	0x3c2125c3	0.009835663
6	0xbe50c03b	-0.2038583
7	0x3d8d8524	0.0691016
8	0xbdd2117e	-0.102572426
9	0x3d8e22bf	0.06940221
10	0xbd80244e	-0.062569246
11	0x3e111f1d	0.14172025
12	0xbb3e7175	-0.0029059325
13	0x3dd8abef	0.10579669
14	0xbd84611e	-0.06463836
15	0x3cb9c2c5	0.022675881
16	0xbd2819ab	-0.041040104
17	0x3cb4a410	0.022050887
18	0xbc2dd6b4	-0.010610271
19	0x3c0a876e	0.0084551405
20	0x3a89361b	0.0010468395
21	0xbd3c038c	-0.04590182
22	0xbab2c15b	-0.0013637947
23	0xbc0ee1b8	-0.008720808
24	0xbb5600a2	-0.0032654186
25	0x3d637858	0.05553469
26	0xbdf4b659	-0.119488426
27	0x3ca7eea0	0.020499527
28	0x3e538440	0.20655918
29	0xbe1dc33e	-0.1540651
30	0xbd053d98	-0.032529444
31	0x3e2c0dfc	0.1680221
32	0x3e9b7bd2	0.30367905
33	0xbe3489a1	-0.17630626
34	0x3daa845d	0.083260275
35	0x3c3b911b	0.01144817
36	0x3aefe688	0.0018302957
37	0x3cece056	0.028915565
38	0x3a875156	0.0010323923
39	0x3bc2f400	0.005949497

dec2.kernel1 f4 [1, 8, 4, 2]
0	0xbcae49de	-0.021275457
1	0x3b94b535	0.004538203
2	0xbc095d01	-0.00838399
3	0xbd33d9db	-0.043908935
4	0x3d6fd80d	0.05855565
5	0x3d13d613	0.03609283
6	0xbcb4f927	-0.022091461
7	0x3b2b10ea	0.002610261
8	0x3d406e80	0.04698038
9	0xbc57935c	-0.013157692
10	0xbd9556ae	-0.072919235
11	0x3e9f49eb	0.31111082
12	0xbd5bddcb	-0.053678315
13	0x3d969589	0.0735274
14	0x3c52ddcf	0.012870266
15	0xbc367b50	-0.011137798
16	0xbd12918f	-0.035783347
17	0x3cb88b00	0.022527218
18	0x3de2a042	0.11065723
19	0x3cd48abd	0.025945062
20	0x3c3b1a23	0.011419806
21	0x3da26133	0.079286955
22	0x3c1d24fb	0.009591336
23	0xbcd9fc8b	-0.02660968
24	0xbc26016c	-0.010132175
25	0x3ca71348	0.020394936
26	0x3c42d398	0.011891268
27	0x39aca52e	0.00032929465
28	0xbd710872	-0.058845945
29	0xbba83cdb	-0.0051342077
30	0x3e572e58	0.21013772
31	0xbb48611a	-0.0030575455
32	0x3c06b795	0.00822248
33	0xbdc16a90	-0.09444153
34	0x3bdf3f35	0.006812955
35	0x3da7a5ba	0.08185907
36	0xbc6e3706	-0.014539486
37	0xbd3f0aa0	-0.046640992
38	0x3c268d39	0.010165506
39	0x3c0dd0e4	0.00865576
40	0x3d336538	0.0437977
41	0x3c87d523	0.016581124
42	0xbe1d838d	-0.15382214
43	0xbe084244	-0.13306528
44	0x3d124909	0.035714183
45	0x3e6a87d0	0.22903371
46	0xbd615fec	-0.05502312
47	0xbe0b8c0f	-0.13627647
48	0xbdeb94c5	-0.11502985
49	0xbdf30591	-0.11866296
50	0x3d7b40fc	0.06134127
51	0xbca798be	-0.020458575
52	0x3b70c384	0.003673763
53	0xbe99c590	-0.3003354
54	0xbc9f99e5	-0.019482562
55	0x3da82710	0.082105756
56	0x3c546924	0.012964521
57	0x3bd0b9b1	0.0063697924
58	0x3ad03203	0.0015884045
59	0x3c50d86a	0.01274691
60	0x3bb49eef	0.0055121104
61	0xbb973745	-0.004614743
62	0x3bcee0cd	0.0063134194
63	0x3c1aa273	0.009438145

dec2.kernel2 f4 [1, 8, 3, 2]
0	0xbc2ec065	-0.010665988
1	0xbb93a9f2	-0.004506343
2	0x3d29cabe	0.041453116
3	0xbc283f58	-0.010269009
4	0xbd129dad	-0.035794903
5	0x3cb5773b	0.02215158
6	0x3d2af075	0.041733224
7	0xbdc0ef99	-0.094206996
8	0x3d074c45	0.03303172
9	0xbdc140ac	-0.09436163
10	0x3cbc26fd	0.02296781
11	0xbd422987	-0.047402885
12	0xbd7e5d08	-0.06210044
13	0xbd400654	-0.046881035
14	0x3c3d2d89	0.011546501
15	0x3cfc5cfd	0.030806059
16	0xbd3d9fa3	-0.04629482
17	0xbd3758c7	-0.0447624
18	0xbd0e34f6	-0.034718476
19	0xbb8020cb	-0.003910159
20	0x3d487a1f	0.04894459
21	0x3c8643c8	0.016389742
22	0x3db7bf8d	0.08972082
23	0xb97ad595	-0.00023921423
24	0xbc039875	-0.008031954
25	0xbb686341	-0.003545955
26	0x3bb0c119	0.005394113
27	0xbde85363	-0.1134403
28	0xbbc6af23	-0.0060633584
29	0x3bf5948f	0.007494516
30	0x3d7611c1	0.060075525
31	0x3c837e66	0.016051482
32	0xbc30e5a6	-0.01079694
33	0xbc902e05	-0.017600069
34	0xbb7455c7	-0.0037282573
35	0xbd7140b7	-0.058899608
36	0xbca693f1	-0.020334216
37	0x3d9d22ef	0.07672679
38	0xbdb32df3	-0.087489985
39	0xbc716ea3	-0.0147358505
40	0x3cb0b2b0	0.02156958
41	0x3dc6ea8a	0.097127035
42	0x3bfb27c6	0.0076646535
43	0x3ac2ca00	0.0014861226
44	0x3c5f2f38	0.013622098
45	0x3b3a9aad	0.0028473542
46	0x3bd0a9db	0.0063679046
47	0x3bd849bf	0.006600588

exp_avg f4 [8, 1, 5, 1]
0	0x3663307d	3.385386e-06
1	0x376a8aa4	1.3979767e-05
2	0x36a5f3e4	4.945776e-06
3	0x368d6258	4.213576e-06
4	0x36878743	4.03906e-06
5	0x3501e811	4.8393946e-07
6	0xb58a5117	-1.0305401e-06
7	0xb6600627	-3.3382182e-06
8	0xb6288dd0	-2.5116497e-06
9	0xb5cf3a53	-1.5439676e-06
10	0xb5183a28	-5.670904e-07
11	0xb528a24e	-6.282106e-07
12	0xb6761937	-3.6671534e-06
13	0xb61c73b5	-2.3313162e-06
14	0xb62ee6c2	-2.606234e-06
15	0xb67489ea	-3.643911e-06
16	0xb6ac043a	-5.1264915e-06
17	0x371d0a00	9.3602575e-06
18	0x35bbdd50	1.3996996e-06
19	0xb6f72da4	-7.366487e-06
20	0xb6448a1b	-2.9286664e-06
21	0x37125bd9	8.723663e-06
22	0xb639a62f	-2.766388e-06
23	0x3700841d	7.660155e-06
24	0xb41d6162	-1.4657192e-07
25	0xb68045eb	-3.822837e-06
26	0x3456fd89	2.0022539e-07
27	0xb6ce0505	-6.1398628e-06
28	0xb59f4c8c	-1.1868701e-06
29	0xb68e1579	-4.2344295e-06
30	0x351beef0	5.80897e-07
31	0xb660c38e	-3.349243e-06
32	0xb5a1a930	-1.2044675e-06
33	0xb5e839c9	-1.7302165e-06
34	0x35b811f7	1.3714297e-06
35	0x34ff6e87	4.757787e-07
36	0x36a55bc2	4.928065e-06
37	0x368296c5	3.891854e-06
38	0x362ff27f	2.6218183e-06
39	0x355c3d10	8.2045244e-07

exp_avg_sq f4 [8, 1, 5, 1]
0	0x30c13377	1.4057225e-09
1	0x30eb72ae	1.7131094e-09
2	0x3107df8f	1.9772164e-09
3	0x30f99709	1.8160061e-09
4	0x30cc92b1	1.4884646e-09
5	0x2e75d982	5.5899736e-11
6	0x2e801d6a	5.825991e-11
7	0x2ecf1930	9.4177444e-11
8	0x2f04441a	1.2029525e-10
9	0x2f06b298	1.2250678e-10
10	0x2db7c064	2.089013e-11
11	0x2dcde706	2.3408397e-11
12	0x2ead8014	7.8898804e-11
13	0x2f19a4b0	1.3973778e-10
14	0x2f04bb38	1.2071844e-10
15	0x303a08ce	6.767892e-10
16	0x30640573	8.295366e-10
17	0x30884e1a	9.9175e-10
18	0x3074dcf7	8.9080693e-10
19	0x30503499	7.5744705e-10
20	0x2faf0673	3.1836897e-10
21	0x2fbee21d	3.4721462e-10
22	0x2fb4a675	3.2860084e-10
23	0x2f9ebddb	2.8874933e-10
24	0x2f89e335	2.5081595e-10
25	0x2ef71232	1.1235492e-10
26	0x2f11cd56	1.3260623e-10
27	0x2f400f97	1.7467837e-10
28	0x2f6b4e83	2.1401018e-10
29	0x2f605927	2.0404355e-10
30	0x2f40ae94	1.7524321e-10
31	0x2f6067e9	2.0409598e-10
32	0x2f7d9a4f	2.3065037e-10
33	0x2f7bfbda	2.2917793e-10
34	0x2f67e62f	2.1091105e-10
35	0x2f5218ac	1.9108154e-10
36	0x2f6e4568	2.1670632e-10
37	0x2f1e0f64	1.4375484e-10
38	0x2e4cb93e	4.6548758e-11
39	0x2e2a948b	3.8785457e-11

exp_avg f4 [8, 1, 4, 2]
0	0x370a04dc	8.226572e-06
1	0x367acf3a	3.7373525e-06
2	0x371a3d9a	9.193458e-06
3	0x374557a1	1.1762518e-05
4	0x372de6d8	1.0365351e-05
5	0xb4085474	-1.2696711e-07
6	0xb6865a93	-4.0040554e-06
7	0x371f812a	9.507212e-06
8	0xb5ec113f	-1.758839e-06
9	0xb5f809ef	-1.8480331e-06
10	0xb64b1569	-3.026182e-06
11	0xb5b94794	-1.3804406e-06
12	0xb5a2cc06	-1.2129319e-06
13	0xb63576f1	-2.7040335e-06
14	0xb6caac41	-6.040122e-06
15	0x3434895e	1.681378e-07
16	0x34cb5920	3.7876544e-07
17	0xb5a9c1e1	-1.2647907e-06
18	0x35db7fd6	1.6353977e-06
19	0xb54a3be7	-7.5338033e-07
20	0x352bf90a	6.4064864e-07
21	0xb63ade35	-2.7845501e-06
22	0xb680e106	-3.8408934e-06
23	0xb59bb853	-1.1602045e-06
24	0x35a7aa08	1.2491955e-06
25	0x35081fb7	5.07101e-07
26	0xb4e4e51d	-4.263501e-07
27	0x36b6208c	5.4278116e-06
28	0xb69184c6	-4.3367936e-06
29	0x374c0dd1	1.2162564e-05
30	0x3717bcb6	9.044239e-06
31	0xb688f756	-4.0819095e-06
32	0xb6c2ec68	-5.809172e-06
33	0x36b66338	5.4355733e-06
34	0x36e61946	6.8574764e-06
35	0x3590a4fa	1.077685e-06
36	0x33981524	7.081897e-08
37	0xb63e64e6	-2.8370937e-06
38	0xb464bca7	-2.1302786e-07
39	0xb4983824	-2.8353054e-07
40	0xb585d5ca	-9.971493e-07
41	0xb670d145	-3.5884598e-06
42	0x363005b7	2.622937e-06
43	0x34f54028	4.5681486e-07
44	0x35282072	6.263209e-07
45	0xb5ccccf5	-1.5258835e-06
46	0x34569316	1.9983813e-07
47	0xb4b53683	-3.375354e-07
48	0x367ad888	3.737894e-06
49	0xb69ecc3f	-4.7325443e-06
50	0xb6b2d926	-5.330093e-06
51	0xb5c11ce2	-1.4388027e-06
52	0xb589cdfc	-1.0267245e-06
53	0xb5e0f9a1	-1.6761952e-06
54	0x35fe2411	1.8934971e-06
55	0xb5489b0e	-7.473144e-07
56	0x34bc418a	3.5065415e-07
57	0x36dc6d06	6.569203e-06
58	0x34902c7c	2.6854457e-07
59	0x3617d613	2.262536e-06
60	0x361c0705	2.3249897e-06
61	0x3430ba5c	1.6459074e-07
62	0xb50360a4	-4.8941934e-07
63	0xb563ec84	-8.4908265e-07

exp_avg_sq f4 [8, 1, 4, 2]
0	0x30cc88ad	1.4881799e-09
1	0x30d2009c	1.5279684e-09
2	0x30f868ea	1.8074193e-09
3	0x30f404ab	1.7754663e-09
4	0x30faeef6	1.8257811e-09
5	0x310a21f2	2.0100939e-09
6	0x30d8b28f	1.5766818e-09
7	0x30ef0ca6	1.7393134e-09
8	0x2e3f2cbc	4.3468104e-11
9	0x2ec4eeba	8.9554544e-11
10	0x2e1cca5e	3.565003e-11
11	0x2efd1642	1.1509062e-10
12	0x2e531ac1	4.7999608e-11
13	0x2f290288	1.537136e-10
14	0x2ec9caeb	9.176467e-11
15	0x2f20db4c	1.4629825e-10
16	0x2db18eeb	2.0186039e-11
17	0x2dd263f8	2.3918631e-11
18	0x2e29dc4d	3.8621818e-11
19	0x2e2c6942	3.920176e-11
20	0x2ee1a75b	1.0261544e-10
21	0x2f036e00	1.195346e-10
22	0x2f14a21f	1.3518119e-10
23	0x2f2b1d95	1.5562869e-10
24	0x30564753	7.7954104e-10
25	0x3040bf4d	7.012105e-10
26	0x30713a61	8.775825e-10
27	0x305cd274	8.0334606e-10
28	0x30623807	8.229794e-10
29	0x307a337a	9.102262e-10
30	0x3053879c	7.6954065e-10
31	0x3056ffa2	7.821602e-10
32	0x2fb64f9e	3.3162179e-10
33	0x2fc6bdd2	3.6150866e-10
34	0x2fbc6a7e	3.4272668e-10
35	0x2fc9da37	3.6716738e-10
36	0x2fa2ea40	2.9634073e-10
37	0x2fc6342c	3.605306e-10
38	0x2f908a0f	2.6291544e-10
39	0x2f9fea20	2.9088287e-10
40	0x2f6de458	2.1636148e-10
41	0x2eb71aa9	8.326612e-11
42	0x2f8f9111	2.6114624e-10
43	0x2e853be3	6.058778e-11
44	0x2f8f664d	2.6084238e-10
45	0x2ec9135b	9.14386e-11
46	0x2f82444e	2.3695396e-10
47	0x2f1d4858	1.4304768e-10
48	0x2f5affae	1.991782e-10
49	0x2f62fb70	2.0643909e-10
50	0x2f70bfa2	2.1895954e-10
51	0x2f7e886c	2.3149632e-10
52	0x2f6ddb49	2.163293e-10
53	0x2f81a85a	2.3584584e-10
54	0x2f6ecbe6	2.1718413e-10
55	0x2f78f3a0	2.2642022e-10
56	0x2f3f9e71	1.7427638e-10
57	0x2f5aa839	1.9886749e-10
58	0x2f4eb313	1.8799211e-10
59	0x2f50945d	1.8970199e-10
60	0x2ee30e94	1.03253545e-10
61	0x2ecd426f	9.334122e-11
62	0x2e57f06d	4.909888e-11
63	0x2e46e354	4.5221896e-11

exp_avg f4 [8, 1, 3, 2]
0	0x36618968	3.3607594e-06
1	0x36ff8c4a	7.615924e-06
2	0x37958bb3	1.7827237e-05
3	0x360d6178	2.1067372e-06
4	0x3651af2d	3.1245393e-06
5	0x3704a1d6	7.9054935e-06
6	0xb52dccca	-6.474553e-07
7	0xb527bd1a	-6.2487527e-07
8	0x3519f225	5.734931e-07
9	0xb6bfdb2a	-5.7177576e-06
10	0xb53aac32	-6.9540977e-07
11	0xb61f569b	-2.3743257e-06
12	0x3516574e	5.60064e-07
13	0xb622cd7e	-2.4259493e-06
14	0x358dabaa	1.055528e-06
15	0xb5c627ad	-1.4763697e-06
16	0xb4f523f5	-4.5660968e-07
17	0xb5df695e	-1.6645461e-06
18	0x35e0e490	1.6755821e-06
19	0xb6886c74	-4.0657415e-06
20	0xb70c1781	-8.350123e-06
21	0x36a48884	4.9034734e-06
22	0x36a10200	4.7984067e-06
23	0x36690d83	3.472757e-06
24	0x36116d4f	2.167031e-06
25	0xb6270700	-2.4889014e-06
26	0x372b29e4	1.0202148e-05
27	0xb6e81c49	-6.9174316e-06
28	0x36476e4d	2.9717514e-06
29	0xb6af8553	-5.2309274e-06
30	0xb5e93060	-1.7373932e-06
31	0xb5c7a7ea	-1.4875525e-06
32	0x36039805	1.9609008e-06
33	0xb641ec90	-2.8896939e-06
34	0xb5dc1321	-1.6396845e-06
35	0xb68414e1	-3.936337e-06
36	0x34fb4932	4.680565e-07
37	0xb59a7ae0	-1.1509655e-06
38	0xb739f5bb	-1.1084073e-05
39	0xb5378532	-6.8366637e-07
40	0xb65eea53	-3.3216972e-06
41	0x35862856	9.995517e-07
42	0x3600c2b0	1.918681e-06
43	0x355872c4	8.0633276e-07
44	0xb426ec7a	-1.5545984e-07
45	0xb512ae8e	-5.464325e-07
46	0xb6762b78	-3.6682159e-06
47	0xb64bb087	-3.035211e-06

exp_avg_sq f4 [8, 1, 3, 2]
0	0x30d159a4	1.5232229e-09
1	0x30d5a7d8	1.5545494e-09
2	0x30d62780	1.5581776e-09
3	0x30f1b40d	1.7586231e-09
4	0x30cc8201	1.4879903e-09
5	0x30ef686a	1.7419215e-09
6	0x2e0ebd26	3.245506e-11
7	0x2ee0b61d	1.02186905e-10
8	0x2e0d6cc3	3.2156288e-11
9	0x2f0e3cff	1.2936495e-10
10	0x2e1dc5a2	3.58732e-11
11	0x2f16fb99	1.3731806e-10
12	0x2e0717e3	3.0716662e-11
13	0x2df68c1c	2.8029183e-11
14	0x2e819b04	5.893777e-11
15	0x2e824a39	5.9249e-11
16	0x2ee450d7	1.03825996e-10
17	0x2efea7ba	1.1580377e-10
18	0x303d4509	6.8855904e-10
19	0x302eb9f3	6.356508e-10
20	0x302d2d31	6.3001254e-10
21	0x302ede10	6.36164e-10
22	0x3034b991	6.5747324e-10
23	0x304dcf7d	7.4873424e-10
24	0x2f9ed0bd	2.888835e-10
25	0x2fbf7124	3.482309e-10
26	0x2f985faa	2.7716612e-10
27	0x2fba4041	3.3878858e-10
28	0x2f827e74	2.3736713e-10
29	0x2fb29bf5	3.2488826e-10
30	0x2f7b49d1	2.2854542e-10
31	0x2e877f47	6.161698e-11
32	0x2f858b10	2.429137e-10
33	0x2e89b08d	6.2614004e-11
34	0x2f76e6ae	2.2455524e-10
35	0x2e9ddf94	7.179249e-11
36	0x2f448955	1.7874886e-10
37	0x2f575e19	1.9587566e-10
38	0x2f4cf935	1.8642228e-10
39	0x2f54e68f	1.9363199e-10
40	0x2f57fd34	1.9644092e-10
41	0x2f66f70d	2.1006148e-10
42	0x2f5a7847	1.9869716e-10
43	0x2f357289	1.6502545e-10
44	0x2f347105	1.6411057e-10
45	0x2f2e9b48	1.5880375e-10
46	0x2ed1b241	9.535884e-11
47	0x2eb3bff0	8.1740725e-11
