server_report/ae_graph/ae_graph_node_reduce_topk/autoencoder_20260115_102414.pth (torch, 12426 bytes, 21 tensors)

conv.bias f4 [8]
0.7981188 0.9613952 0.47950545 0.44532946 -0.0002971908 -0.0003165798 -0.5301229 -0.0002785529
00000000: 8451 4c3f ff1d 763f bd81 f53e 3902 e43e
00000010: 46d0 9bb9 9ffa a5b9 22b6 07bf bd0a 92b9

conv.lin.weight f4 [8, 1]
-0.119684264 -0.1689087 1.6791092 1.8640441 -1.0871773 -1.2918726 -0.43077257 -0.67602926
00000000: 061d f5bd 67f6 2cbe 0ded d63f ff98 ee3f
00000010: a028 8bbf 155c a5bf 398e dcbe 4110 2dbf

pool.select.weight f4 [1, 8]
-0.08092811 -0.10605581 0.51674736 0.57480174 -0.033758428 -0.040486585 -0.011621356 -0.020498062
00000000: a3bd a5bd ca33 d9bd 8e49 043f 3526 133f
00000010: 4746 0abd 43d5 25bd 8067 3ebc 8deb a7bc

conv_latent.lin.weight f4 [1, 8]
-1.1749107 -1.0261784 -0.5427443 -0.16188055 -0.8529249 -0.94252217 0.114910424 -0.4561484
00000000: 7963 96bf d059 83bf 4af1 0abf 04c4 25be
00000010: 4959 5abf 2249 71bf 2856 eb3d 488c e9be

decoder.0.weight f4 [8, 1]
0.09945462 -0.60844314 -1.0625533 0.32305726 0.018165037 0.029100418 -1.0195081 0.10369341
00000000: ddae cb3d eec2 1bbf bf01 88bf c367 a53e
00000010: d8ce 943c 0064 ee3c 3e7f 82bf 365d d43d

decoder.0.bias f4 [8]
0.24094528 0.20714821 -1.3287271 0.8093161 0.4541463 -0.51793396 -0.93247575 0.62697685
00000000: 5cba 763e a91e 543e bb13 aabf 572f 4f3f
00000010: dd85 e83e 5297 04bf bbb6 6ebf 8e81 203f

decoder.2.weight f4 [1, 8]
-0.13815817 -0.06377816 0.8290993 -0.19804795 -0.16164106 0.0156396 0.7350751 0.11698423
00000000: 5679 0dbe 209e 82bd da3f 543f 15cd 4abe
00000010: 3c85 25be 9e1e 803c e22d 3c3f 6e95 ef3d

exp_avg f4 [8]
-0.0006120757 -0.0005590735 -0.00033404006 -0.00014629173 -4.2865475e-05 -4.7334648e-05 5.8494384e-06 -2.2288641e-05
00000000: b473 20ba ca8e 12ba 1922 afb9 e365 19b9
00000010: 74ca 33b8 3189 46b8 4b46 c436 7ef8 bab7

exp_avg_sq f4 [8]
2.682602e-05 2.011856e-05 7.30204e-06 1.1173784e-06 1.4267796e-07 1.743715e-07 2.8897962e-09 4.021696e-08
00000000: 7008 e137 47c4 a837 0c04 f536 d4f8 9535
00000010: 0533 1934 df3a 3b34 d595 4631 04bb 2c33

exp_avg f4 [8, 1]
-0.00013590376 -0.00029133426 -0.00016117617 -0.00017998838 1.032961e-06 1.2584021e-06 1.3781403e-07 5.620265e-07
00000000: 6381 0eb9 39be 98b9 6601 29b9 43bb 3cb9
00000010: 45a4 8a35 5ee6 a835 08fa 1334 2bde 1635

exp_avg_sq f4 [8, 1]
0.00011337625 8.218266e-05 2.6741745e-05 2.6947625e-06 6.197031e-07 7.5776444e-07 1.22838e-08 1.748888e-07
00000000: 69c4 ed38 7b59 ac38 7653 e037 abd7 3436
00000010: ac59 2635 2d69 4b35 b908 5332 11c9 3b34

exp_avg f4 [1, 8]
-0.00014051802 -0.00017032499 -3.2647687e-05 -2.4614117e-05 -3.3997371e-06 -4.2017577e-06 9.019541e-06 -2.0054554e-06
00000000: 0558 13b9 4499 32b9 30ef 08b8 6a7a ceb7
00000010: 0a27 64b6 d3fc 8cb6 a252 1737 7695 06b6

exp_avg_sq f4 [1, 8]
4.751881e-07 6.9807703e-07 2.26045e-08 1.5930265e-08 2.914092e-10 4.1169135e-10 1.4348946e-09 1.1520309e-10
00000000: 5b1d ff34 7d63 3b35 d22b c232 06d7 8832
00000010: 3334 a02f 6854 e22f de35 c530 9355 fd2e

exp_avg f4 [1, 8]
0.0004037824 0.00048027592 0.00023997179 0.00022236306 -1.8589603e-07 -1.6403635e-07 -2.6730524e-05 -2.3257596e-07
00000000: c2b2 d339 8bcd fb39 f0a0 7b39 212a 6939
00000010: b69a 47b4 f821 30b4 5d3b e0b7 feb9 79b4

exp_avg_sq f4 [1, 8]
6.4807327e-06 8.2066435e-06 0.0003054057 0.00034353207 1.0098842e-06 1.428864e-06 4.0101256e-07 3.8707034e-07
00000000: 1275 d936 44af 0937 dc1e a039 181c b439
00000010: 5b8b 8735 65c7 bf35 bf4a d734 8bce cf34

exp_avg f4 [8, 1]
-0.00014788003 -2.1651551e-05 0.00026707604 -0.00019626587 -4.5240446e-05 0.0 0.00022064158 3.1064745e-05
00000000: 3e10 1bb9 5aa0 b5b7 5706 8c39 b8cc 4db9
00000010: 8fc0 3db8 0000 0000 065c 6739 844b 0238

exp_avg_sq f4 [8, 1]
3.088699e-07 1.8609866e-07 3.204026e-05 5.7111623e-07 1.3097621e-06 0.0 2.5898731e-05 6.285801e-07
00000000: c1d2 a534 69d2 4734 f862 0638 cf4e 1935
00000010: 15cb af35 0000 0000 1a41 d937 b2bb 2835

exp_avg f4 [8]
8.416974e-05 1.7540558e-05 -0.0002413154 0.000113887654 6.5217435e-05 0.0 -0.00020752288 -4.4791344e-05
00000000: 4984 b038 1024 9337 9c09 7db9 f8d6 ee38
00000010: 58c5 8838 0000 0000 809a 59b9 57de 3bb8

exp_avg_sq f4 [8]
1.2732968e-07 3.8840945e-08 4.9166824e-06 2.3698847e-07 2.8032218e-07 0.0 4.156892e-06 1.361567e-07
00000000: 1eb8 0834 12d2 2633 fbf9 a436 e576 7e34
00000010: 307f 9634 0000 0000 6e7b 8b36 7832 1234

exp_avg f4 [1, 8]
-4.228148e-05 -0.00025054935 4.562486e-05 -0.00014463415 -0.00017709832 0.0 -4.178743e-05 -0.00021694145
00000000: 6557 31b8 2a5c 83b9 525d 3f38 efa8 17b9
00000010: 78b3 39b9 0000 0000 e944 2fb8 c77a 63b9

exp_avg_sq f4 [1, 8]
9.999382e-08 2.3020097e-05 1.542553e-05 1.1003489e-06 1.8003512e-06 0.0 2.1352938e-05 1.9163233e-06
00000000: 2fbc d633 481b c137 1366 8137 b3af 9335
00000010: 99a3 f135 0000 0000 161f b337 2f9a 0036
